[
  {
    "file-line": 20,
    "subnet_id": 0,
    "core_id": 0,
    "opcode": "tpu.Load",
    "is_local": true,
    "tiu_dma_id(before)": [
      0,
      0
    ],
    "tiu_dma_id(after)": [
      0,
      1
    ],
    "operands": [
      {
        "address": 2199023255552,
        "layout": "continuous",
        "memory_type": "<1x3x128x128xf32>",
        "name": "x.1",
        "reshape": "<1x3x1x128x128>",
        "shape": [
          1,
          3,
          128,
          128
        ],
        "slice": "[0:1, 0:3, 0:1, 0:128, 0:128]",
        "type": "tensor<1x3x128x128xf32, 2199023255552 : i64>"
      }
    ],
    "results": [
      {
        "address": 0,
        "layout": "eu_align",
        "memory_type": "<1x3x128x128xf32>",
        "name": "load_0",
        "reshape": "<1x3x1x128x128>",
        "shape": [
          1,
          3,
          128,
          128
        ],
        "slice": "[0:1, 0:3, 0:1, 0:128, 0:128]",
        "type": "tensor<1x3x128x128xf32>"
      }
    ],
    "buffers": []
  },
  {
    "file-line": 23,
    "subnet_id": 0,
    "core_id": 0,
    "opcode": "tpu.Cast",
    "is_local": true,
    "tiu_dma_id(before)": [
      0,
      1
    ],
    "tiu_dma_id(after)": [
      1,
      1
    ],
    "operands": [
      {
        "address": 0,
        "layout": "eu_align",
        "memory_type": "<1x3x128x128xf32>",
        "name": "load_0",
        "reshape": "<1x3x1x128x128>",
        "shape": [
          1,
          3,
          128,
          128
        ],
        "slice": "[0:1, 0:3, 0:1, 0:128, 0:128]",
        "type": "tensor<1x3x128x128xf32>"
      }
    ],
    "results": [
      {
        "address": 65536,
        "layout": "eu_align",
        "memory_type": "<1x3x128x128xf16>",
        "name": "x.180_Relu_f16",
        "reshape": "<1x3x1x128x128>",
        "shape": [
          1,
          3,
          128,
          128
        ],
        "slice": "[0:1, 0:3, 0:1, 0:128, 0:128]",
        "type": "tensor<1x3x128x128xf16>"
      }
    ],
    "buffers": []
  },
  {
    "file-line": 21,
    "subnet_id": 0,
    "core_id": 0,
    "opcode": "tpu.Load",
    "is_local": true,
    "tiu_dma_id(before)": [
      0,
      1
    ],
    "tiu_dma_id(after)": [
      0,
      2
    ],
    "operands": [
      {
        "address": 1099511631872,
        "layout": "continuous",
        "memory_type": "<1x24x1x800xf16>",
        "name": "80_Relu_filter_reorderd",
        "reshape": "<1x24x1x1x800>",
        "shape": [
          1,
          24,
          1,
          800
        ],
        "slice": "[0:1, 0:24, 0:1, 0:1, 0:800]",
        "type": "tensor<1x24x1x800xf16, 1099511631872 : i64>"
      }
    ],
    "results": [
      {
        "address": 131072,
        "layout": "compact",
        "memory_type": "<1x24x1x800xf16>",
        "name": "load_80_Relu_filter_reorderd",
        "reshape": "<1x24x1x1x800>",
        "shape": [
          1,
          24,
          1,
          800
        ],
        "slice": "[0:1, 0:24, 0:1, 0:1, 0:800]",
        "type": "tensor<1x24x1x800xf16>"
      }
    ],
    "buffers": []
  },
  {
    "file-line": 22,
    "subnet_id": 0,
    "core_id": 0,
    "opcode": "tpu.Load",
    "is_local": true,
    "tiu_dma_id(before)": [
      0,
      2
    ],
    "tiu_dma_id(after)": [
      0,
      3
    ],
    "operands": [
      {
        "address": 1099511627776,
        "layout": "continuous",
        "memory_type": "<1x24x1x1xf32>",
        "name": "blaze_face.backbone1.0.bias",
        "reshape": "<1x24x1x1x1>",
        "shape": [
          1,
          24,
          1,
          1
        ],
        "slice": "[0:1, 0:24, 0:1, 0:1, 0:1]",
        "type": "tensor<1x24x1x1xf32, 1099511627776 : i64>"
      }
    ],
    "results": [
      {
        "address": 163840,
        "layout": "compact",
        "memory_type": "<1x24x1x1xf32>",
        "name": "load_blaze_face.backbone1.0.bias",
        "reshape": "<1x24x1x1x1>",
        "shape": [
          1,
          24,
          1,
          1
        ],
        "slice": "[0:1, 0:24, 0:1, 0:1, 0:1]",
        "type": "tensor<1x24x1x1xf32>"
      }
    ],
    "buffers": []
  },
  {
    "file-line": 26,
    "subnet_id": 0,
    "core_id": 0,
    "opcode": "tpu.Conv2D",
    "is_local": true,
    "tiu_dma_id(before)": [
      1,
      3
    ],
    "tiu_dma_id(after)": [
      2,
      3
    ],
    "operands": [
      {
        "address": 65536,
        "layout": "eu_align",
        "memory_type": "<1x3x128x128xf16>",
        "name": "x.180_Relu_f16",
        "reshape": "<1x3x1x128x128>",
        "shape": [
          1,
          3,
          128,
          128
        ],
        "slice": "[0:1, 0:3, 0:1, 0:128, 0:128]",
        "type": "tensor<1x3x128x128xf16>"
      },
      {
        "address": 131072,
        "layout": "compact",
        "memory_type": "<1x24x1x800xf16>",
        "name": "load_80_Relu_filter_reorderd",
        "reshape": "<1x24x1x1x800>",
        "shape": [
          1,
          24,
          1,
          800
        ],
        "slice": "[0:1, 0:24, 0:1, 0:1, 0:800]",
        "type": "tensor<1x24x1x800xf16>"
      },
      {
        "address": 163840,
        "layout": "compact",
        "memory_type": "<1x24x1x1xf32>",
        "name": "load_blaze_face.backbone1.0.bias",
        "reshape": "<1x24x1x1x1>",
        "shape": [
          1,
          24,
          1,
          1
        ],
        "slice": "[0:1, 0:24, 0:1, 0:1, 0:1]",
        "type": "tensor<1x24x1x1xf32>"
      }
    ],
    "results": [
      {
        "address": 98304,
        "layout": "eu_align",
        "memory_type": "<1x24x64x64xf16>",
        "name": "80_Relu",
        "reshape": "<1x24x1x64x64>",
        "shape": [
          1,
          24,
          64,
          64
        ],
        "slice": "[0:1, 0:24, 0:1, 0:64, 0:64]",
        "type": "tensor<1x24x64x64xf16>"
      }
    ],
    "buffers": []
  },
  {
    "file-line": 24,
    "subnet_id": 0,
    "core_id": 0,
    "opcode": "tpu.Load",
    "is_local": true,
    "tiu_dma_id(before)": [
      1,
      3
    ],
    "tiu_dma_id(after)": [
      1,
      4
    ],
    "operands": [
      {
        "address": 1099511681024,
        "layout": "continuous",
        "memory_type": "<1x24x1x288xf16>",
        "name": "81_Conv_filter_reorderd",
        "reshape": "<1x24x1x1x288>",
        "shape": [
          1,
          24,
          1,
          288
        ],
        "slice": "[0:1, 0:24, 0:1, 0:1, 0:288]",
        "type": "tensor<1x24x1x288xf16, 1099511681024 : i64>"
      }
    ],
    "results": [
      {
        "address": 147456,
        "layout": "compact",
        "memory_type": "<1x24x1x288xf16>",
        "name": "load_81_Conv_filter_reorderd",
        "reshape": "<1x24x1x1x288>",
        "shape": [
          1,
          24,
          1,
          288
        ],
        "slice": "[0:1, 0:24, 0:1, 0:1, 0:288]",
        "type": "tensor<1x24x1x288xf16>"
      }
    ],
    "buffers": []
  },
  {
    "file-line": 25,
    "subnet_id": 0,
    "core_id": 0,
    "opcode": "tpu.Load",
    "is_local": true,
    "tiu_dma_id(before)": [
      1,
      4
    ],
    "tiu_dma_id(after)": [
      1,
      5
    ],
    "operands": [
      {
        "address": 1099511672832,
        "layout": "continuous",
        "memory_type": "<1x24x1x1xf32>",
        "name": "blaze_face.backbone1.2.convs.0.bias_1",
        "reshape": "<1x24x1x1x1>",
        "shape": [
          1,
          24,
          1,
          1
        ],
        "slice": "[0:1, 0:24, 0:1, 0:1, 0:1]",
        "type": "tensor<1x24x1x1xf32, 1099511672832 : i64>"
      }
    ],
    "results": [
      {
        "address": 180224,
        "layout": "compact",
        "memory_type": "<1x24x1x1xf32>",
        "name": "load_blaze_face.backbone1.2.convs.0.bias_1",
        "reshape": "<1x24x1x1x1>",
        "shape": [
          1,
          24,
          1,
          1
        ],
        "slice": "[0:1, 0:24, 0:1, 0:1, 0:1]",
        "type": "tensor<1x24x1x1xf32>"
      }
    ],
    "buffers": []
  },
  {
    "file-line": 29,
    "subnet_id": 0,
    "core_id": 0,
    "opcode": "tpu.Conv2D",
    "is_local": true,
    "tiu_dma_id(before)": [
      2,
      5
    ],
    "tiu_dma_id(after)": [
      3,
      5
    ],
    "operands": [
      {
        "address": 98304,
        "layout": "eu_align",
        "memory_type": "<1x24x64x64xf16>",
        "name": "80_Relu",
        "reshape": "<1x24x1x64x64>",
        "shape": [
          1,
          24,
          64,
          64
        ],
        "slice": "[0:1, 0:24, 0:1, 0:64, 0:64]",
        "type": "tensor<1x24x64x64xf16>"
      },
      {
        "address": 147456,
        "layout": "compact",
        "memory_type": "<1x24x1x288xf16>",
        "name": "load_81_Conv_filter_reorderd",
        "reshape": "<1x24x1x1x288>",
        "shape": [
          1,
          24,
          1,
          288
        ],
        "slice": "[0:1, 0:24, 0:1, 0:1, 0:288]",
        "type": "tensor<1x24x1x288xf16>"
      },
      {
        "address": 180224,
        "layout": "compact",
        "memory_type": "<1x24x1x1xf32>",
        "name": "load_blaze_face.backbone1.2.convs.0.bias_1",
        "reshape": "<1x24x1x1x1>",
        "shape": [
          1,
          24,
          1,
          1
        ],
        "slice": "[0:1, 0:24, 0:1, 0:1, 0:1]",
        "type": "tensor<1x24x1x1xf32>"
      }
    ],
    "results": [
      {
        "address": 65536,
        "layout": "eu_align",
        "memory_type": "<1x24x64x64xf16>",
        "name": "81_Conv",
        "reshape": "<1x24x1x64x64>",
        "shape": [
          1,
          24,
          64,
          64
        ],
        "slice": "[0:1, 0:24, 0:1, 0:64, 0:64]",
        "type": "tensor<1x24x64x64xf16>"
      }
    ],
    "buffers": []
  },
  {
    "file-line": 27,
    "subnet_id": 0,
    "core_id": 0,
    "opcode": "tpu.Load",
    "is_local": true,
    "tiu_dma_id(before)": [
      2,
      5
    ],
    "tiu_dma_id(after)": [
      2,
      6
    ],
    "operands": [
      {
        "address": 1099511701504,
        "layout": "continuous",
        "memory_type": "<1x24x1x32xf16>",
        "name": "82_Conv_filter_reorderd",
        "reshape": "<1x24x1x1x32>",
        "shape": [
          1,
          24,
          1,
          32
        ],
        "slice": "[0:1, 0:24, 0:1, 0:1, 0:32]",
        "type": "tensor<1x24x1x32xf16, 1099511701504 : i64>"
      }
    ],
    "results": [
      {
        "address": 114688,
        "layout": "compact",
        "memory_type": "<1x24x1x32xf16>",
        "name": "load_82_Conv_filter_reorderd",
        "reshape": "<1x24x1x1x32>",
        "shape": [
          1,
          24,
          1,
          32
        ],
        "slice": "[0:1, 0:24, 0:1, 0:1, 0:32]",
        "type": "tensor<1x24x1x32xf16>"
      }
    ],
    "buffers": []
  },
  {
    "file-line": 28,
    "subnet_id": 0,
    "core_id": 0,
    "opcode": "tpu.Load",
    "is_local": true,
    "tiu_dma_id(before)": [
      2,
      6
    ],
    "tiu_dma_id(after)": [
      2,
      7
    ],
    "operands": [
      {
        "address": 1099511697408,
        "layout": "continuous",
        "memory_type": "<1x24x1x1xf32>",
        "name": "blaze_face.backbone1.2.convs.1.bias",
        "reshape": "<1x24x1x1x1>",
        "shape": [
          1,
          24,
          1,
          1
        ],
        "slice": "[0:1, 0:24, 0:1, 0:1, 0:1]",
        "type": "tensor<1x24x1x1xf32, 1099511697408 : i64>"
      }
    ],
    "results": [
      {
        "address": 131072,
        "layout": "compact",
        "memory_type": "<1x24x1x1xf32>",
        "name": "load_blaze_face.backbone1.2.convs.1.bias",
        "reshape": "<1x24x1x1x1>",
        "shape": [
          1,
          24,
          1,
          1
        ],
        "slice": "[0:1, 0:24, 0:1, 0:1, 0:1]",
        "type": "tensor<1x24x1x1xf32>"
      }
    ],
    "buffers": []
  },
  {
    "file-line": 30,
    "subnet_id": 0,
    "core_id": 0,
    "opcode": "tpu.Conv2D",
    "is_local": true,
    "tiu_dma_id(before)": [
      3,
      7
    ],
    "tiu_dma_id(after)": [
      4,
      7
    ],
    "operands": [
      {
        "address": 65536,
        "layout": "eu_align",
        "memory_type": "<1x24x64x64xf16>",
        "name": "81_Conv",
        "reshape": "<1x24x1x64x64>",
        "shape": [
          1,
          24,
          64,
          64
        ],
        "slice": "[0:1, 0:24, 0:1, 0:64, 0:64]",
        "type": "tensor<1x24x64x64xf16>"
      },
      {
        "address": 114688,
        "layout": "compact",
        "memory_type": "<1x24x1x32xf16>",
        "name": "load_82_Conv_filter_reorderd",
        "reshape": "<1x24x1x1x32>",
        "shape": [
          1,
          24,
          1,
          32
        ],
        "slice": "[0:1, 0:24, 0:1, 0:1, 0:32]",
        "type": "tensor<1x24x1x32xf16>"
      },
      {
        "address": 131072,
        "layout": "compact",
        "memory_type": "<1x24x1x1xf32>",
        "name": "load_blaze_face.backbone1.2.convs.1.bias",
        "reshape": "<1x24x1x1x1>",
        "shape": [
          1,
          24,
          1,
          1
        ],
        "slice": "[0:1, 0:24, 0:1, 0:1, 0:1]",
        "type": "tensor<1x24x1x1xf32>"
      }
    ],
    "results": [
      {
        "address": 81920,
        "layout": "eu_align",
        "memory_type": "<1x24x64x64xf16>",
        "name": "82_Conv",
        "reshape": "<1x24x1x64x64>",
        "shape": [
          1,
          24,
          64,
          64
        ],
        "slice": "[0:1, 0:24, 0:1, 0:64, 0:64]",
        "type": "tensor<1x24x64x64xf16>"
      }
    ],
    "buffers": []
  },
  {
    "file-line": 31,
    "subnet_id": 0,
    "core_id": 0,
    "opcode": "tpu.Add",
    "is_local": true,
    "tiu_dma_id(before)": [
      4,
      7
    ],
    "tiu_dma_id(after)": [
      6,
      7
    ],
    "operands": [
      {
        "address": 81920,
        "layout": "eu_align",
        "memory_type": "<1x24x64x64xf16>",
        "name": "82_Conv",
        "reshape": "<1x24x1x64x64>",
        "shape": [
          1,
          24,
          64,
          64
        ],
        "slice": "[0:1, 0:24, 0:1, 0:64, 0:64]",
        "type": "tensor<1x24x64x64xf16>"
      },
      {
        "address": 98304,
        "layout": "eu_align",
        "memory_type": "<1x24x64x64xf16>",
        "name": "80_Relu",
        "reshape": "<1x24x1x64x64>",
        "shape": [
          1,
          24,
          64,
          64
        ],
        "slice": "[0:1, 0:24, 0:1, 0:64, 0:64]",
        "type": "tensor<1x24x64x64xf16>"
      }
    ],
    "results": [
      {
        "address": 114688,
        "layout": "eu_align",
        "memory_type": "<1x24x64x64xf16>",
        "name": "84_Relu",
        "reshape": "<1x24x1x64x64>",
        "shape": [
          1,
          24,
          64,
          64
        ],
        "slice": "[0:1, 0:24, 0:1, 0:64, 0:64]",
        "type": "tensor<1x24x64x64xf16>"
      }
    ],
    "buffers": []
  },
  {
    "file-line": 32,
    "subnet_id": 0,
    "core_id": 0,
    "opcode": "tpu.Store",
    "is_local": true,
    "tiu_dma_id(before)": [
      6,
      7
    ],
    "tiu_dma_id(after)": [
      6,
      8
    ],
    "operands": [
      {
        "address": 114688,
        "layout": "eu_align",
        "memory_type": "<1x24x64x64xf16>",
        "name": "84_Relu",
        "reshape": "<1x24x1x64x64>",
        "shape": [
          1,
          24,
          64,
          64
        ],
        "slice": "[0:1, 0:24, 0:1, 0:64, 0:64]",
        "type": "tensor<1x24x64x64xf16>"
      },
      {}
    ],
    "results": [
      {
        "address": 33438468399104,
        "layout": "continuous",
        "memory_type": "<1x24x64x64xf16>",
        "name": "84_Relu",
        "reshape": "<1x24x1x64x64>",
        "shape": [
          1,
          24,
          64,
          64
        ],
        "slice": "[0:1, 0:24, 0:1, 0:64, 0:64]",
        "type": "tensor<1x24x64x64xf16, 33438468399104 : i64>"
      }
    ],
    "buffers": []
  },
  {
    "file-line": 35,
    "subnet_id": 0,
    "core_id": 0,
    "opcode": "tpu.Pad",
    "is_local": false,
    "tiu_dma_id(before)": [
      6,
      8
    ],
    "tiu_dma_id(after)": [
      6,
      10
    ],
    "operands": [
      {
        "address": 33438468399104,
        "layout": "continuous",
        "memory_type": "<1x24x64x64xf16>",
        "name": "84_Relu",
        "reshape": "",
        "shape": [
          1,
          24,
          64,
          64
        ],
        "slice": "[...]",
        "type": "tensor<1x24x64x64xf16, 33438468399104 : i64>"
      },
      {},
      {},
      {},
      {}
    ],
    "results": [
      {
        "address": 33438467940352,
        "layout": "continuous",
        "memory_type": "<1x28x64x64xf16>",
        "name": "85_Pad",
        "reshape": "",
        "shape": [
          1,
          28,
          64,
          64
        ],
        "slice": "[...]",
        "type": "tensor<1x28x64x64xf16, 33438467940352 : i64>"
      }
    ],
    "buffers": []
  },
  {
    "file-line": 40,
    "subnet_id": 0,
    "core_id": 0,
    "opcode": "tpu.Load",
    "is_local": true,
    "tiu_dma_id(before)": [
      6,
      10
    ],
    "tiu_dma_id(after)": [
      6,
      11
    ],
    "operands": [
      {
        "address": 1099511705600,
        "layout": "continuous",
        "memory_type": "<1x24x1x288xf16>",
        "name": "86_Conv_filter_reorderd",
        "reshape": "<1x24x1x1x288>",
        "shape": [
          1,
          24,
          1,
          288
        ],
        "slice": "[0:1, 0:24, 0:1, 0:1, 0:288]",
        "type": "tensor<1x24x1x288xf16, 1099511705600 : i64>"
      }
    ],
    "results": [
      {
        "address": 65536,
        "layout": "compact",
        "memory_type": "<1x24x1x288xf16>",
        "name": "load_86_Conv_filter_reorderd",
        "reshape": "<1x24x1x1x288>",
        "shape": [
          1,
          24,
          1,
          288
        ],
        "slice": "[0:1, 0:24, 0:1, 0:1, 0:288]",
        "type": "tensor<1x24x1x288xf16>"
      }
    ],
    "buffers": []
  },
  {
    "file-line": 41,
    "subnet_id": 0,
    "core_id": 0,
    "opcode": "tpu.Load",
    "is_local": true,
    "tiu_dma_id(before)": [
      6,
      11
    ],
    "tiu_dma_id(after)": [
      6,
      12
    ],
    "operands": [
      {
        "address": 1099511676928,
        "layout": "continuous",
        "memory_type": "<1x24x1x1xf32>",
        "name": "blaze_face.backbone1.2.convs.0.bias_0",
        "reshape": "<1x24x1x1x1>",
        "shape": [
          1,
          24,
          1,
          1
        ],
        "slice": "[0:1, 0:24, 0:1, 0:1, 0:1]",
        "type": "tensor<1x24x1x1xf32, 1099511676928 : i64>"
      }
    ],
    "results": [
      {
        "address": 81920,
        "layout": "compact",
        "memory_type": "<1x24x1x1xf32>",
        "name": "load_blaze_face.backbone1.2.convs.0.bias_0",
        "reshape": "<1x24x1x1x1>",
        "shape": [
          1,
          24,
          1,
          1
        ],
        "slice": "[0:1, 0:24, 0:1, 0:1, 0:1]",
        "type": "tensor<1x24x1x1xf32>"
      }
    ],
    "buffers": []
  },
  {
    "file-line": 42,
    "subnet_id": 0,
    "core_id": 0,
    "opcode": "tpu.Load",
    "is_local": true,
    "tiu_dma_id(before)": [
      6,
      12
    ],
    "tiu_dma_id(after)": [
      6,
      13
    ],
    "operands": [
      {
        "address": 33438468399104,
        "layout": "continuous",
        "memory_type": "<1x24x64x64xf16>",
        "name": "84_Relu",
        "reshape": "<1x24x1x64x64>",
        "shape": [
          1,
          24,
          64,
          64
        ],
        "slice": "[0:1, 0:24, 0:1, 0:64, 0:64]",
        "type": "tensor<1x24x64x64xf16, 33438468399104 : i64>"
      }
    ],
    "results": [
      {
        "address": 16384,
        "layout": "eu_align",
        "memory_type": "<1x24x64x64xf16>",
        "name": "load_84_Relu",
        "reshape": "<1x24x1x64x64>",
        "shape": [
          1,
          24,
          64,
          64
        ],
        "slice": "[0:1, 0:24, 0:1, 0:64, 0:64]",
        "type": "tensor<1x24x64x64xf16>"
      }
    ],
    "buffers": []
  },
  {
    "file-line": 46,
    "subnet_id": 0,
    "core_id": 0,
    "opcode": "tpu.Conv2D",
    "is_local": true,
    "tiu_dma_id(before)": [
      6,
      13
    ],
    "tiu_dma_id(after)": [
      7,
      13
    ],
    "operands": [
      {
        "address": 16384,
        "layout": "eu_align",
        "memory_type": "<1x24x64x64xf16>",
        "name": "load_84_Relu",
        "reshape": "<1x24x1x64x64>",
        "shape": [
          1,
          24,
          64,
          64
        ],
        "slice": "[0:1, 0:24, 0:1, 0:64, 0:64]",
        "type": "tensor<1x24x64x64xf16>"
      },
      {
        "address": 65536,
        "layout": "compact",
        "memory_type": "<1x24x1x288xf16>",
        "name": "load_86_Conv_filter_reorderd",
        "reshape": "<1x24x1x1x288>",
        "shape": [
          1,
          24,
          1,
          288
        ],
        "slice": "[0:1, 0:24, 0:1, 0:1, 0:288]",
        "type": "tensor<1x24x1x288xf16>"
      },
      {
        "address": 81920,
        "layout": "compact",
        "memory_type": "<1x24x1x1xf32>",
        "name": "load_blaze_face.backbone1.2.convs.0.bias_0",
        "reshape": "<1x24x1x1x1>",
        "shape": [
          1,
          24,
          1,
          1
        ],
        "slice": "[0:1, 0:24, 0:1, 0:1, 0:1]",
        "type": "tensor<1x24x1x1xf32>"
      }
    ],
    "results": [
      {
        "address": 32768,
        "layout": "eu_align",
        "memory_type": "<1x24x64x64xf16>",
        "name": "86_Conv",
        "reshape": "<1x24x1x64x64>",
        "shape": [
          1,
          24,
          64,
          64
        ],
        "slice": "[0:1, 0:24, 0:1, 0:64, 0:64]",
        "type": "tensor<1x24x64x64xf16>"
      }
    ],
    "buffers": []
  },
  {
    "file-line": 43,
    "subnet_id": 0,
    "core_id": 0,
    "opcode": "tpu.Load",
    "is_local": true,
    "tiu_dma_id(before)": [
      6,
      13
    ],
    "tiu_dma_id(after)": [
      6,
      14
    ],
    "operands": [
      {
        "address": 1099511726080,
        "layout": "continuous",
        "memory_type": "<1x28x1x32xf16>",
        "name": "87_Conv_filter_reorderd",
        "reshape": "<1x28x1x1x32>",
        "shape": [
          1,
          28,
          1,
          32
        ],
        "slice": "[0:1, 0:28, 0:1, 0:1, 0:32]",
        "type": "tensor<1x28x1x32xf16, 1099511726080 : i64>"
      }
    ],
    "results": [
      {
        "address": 10240,
        "layout": "compact",
        "memory_type": "<1x28x1x32xf16>",
        "name": "load_87_Conv_filter_reorderd",
        "reshape": "<1x28x1x1x32>",
        "shape": [
          1,
          28,
          1,
          32
        ],
        "slice": "[0:1, 0:28, 0:1, 0:1, 0:32]",
        "type": "tensor<1x28x1x32xf16>"
      }
    ],
    "buffers": []
  },
  {
    "file-line": 44,
    "subnet_id": 0,
    "core_id": 0,
    "opcode": "tpu.Load",
    "is_local": true,
    "tiu_dma_id(before)": [
      6,
      14
    ],
    "tiu_dma_id(after)": [
      6,
      15
    ],
    "operands": [
      {
        "address": 1099511721984,
        "layout": "continuous",
        "memory_type": "<1x28x1x1xf32>",
        "name": "blaze_face.backbone1.3.convs.1.bias",
        "reshape": "<1x28x1x1x1>",
        "shape": [
          1,
          28,
          1,
          1
        ],
        "slice": "[0:1, 0:28, 0:1, 0:1, 0:1]",
        "type": "tensor<1x28x1x1xf32, 1099511721984 : i64>"
      }
    ],
    "results": [
      {
        "address": 98304,
        "layout": "compact",
        "memory_type": "<1x28x1x1xf32>",
        "name": "load_blaze_face.backbone1.3.convs.1.bias",
        "reshape": "<1x28x1x1x1>",
        "shape": [
          1,
          28,
          1,
          1
        ],
        "slice": "[0:1, 0:28, 0:1, 0:1, 0:1]",
        "type": "tensor<1x28x1x1xf32>"
      }
    ],
    "buffers": []
  },
  {
    "file-line": 45,
    "subnet_id": 0,
    "core_id": 0,
    "opcode": "tpu.Load",
    "is_local": true,
    "tiu_dma_id(before)": [
      6,
      15
    ],
    "tiu_dma_id(after)": [
      6,
      16
    ],
    "operands": [
      {
        "address": 33438467940352,
        "layout": "continuous",
        "memory_type": "<1x28x64x64xf16>",
        "name": "85_Pad",
        "reshape": "<1x28x1x64x64>",
        "shape": [
          1,
          28,
          64,
          64
        ],
        "slice": "[0:1, 0:28, 0:1, 0:64, 0:64]",
        "type": "tensor<1x28x64x64xf16, 33438467940352 : i64>"
      }
    ],
    "results": [
      {
        "address": 0,
        "layout": "eu_align",
        "memory_type": "<1x28x64x64xf16>",
        "name": "load_85_Pad",
        "reshape": "<1x28x1x64x64>",
        "shape": [
          1,
          28,
          64,
          64
        ],
        "slice": "[0:1, 0:28, 0:1, 0:64, 0:64]",
        "type": "tensor<1x28x64x64xf16>"
      }
    ],
    "buffers": []
  },
  {
    "file-line": 47,
    "subnet_id": 0,
    "core_id": 0,
    "opcode": "tpu.Conv2D",
    "is_local": true,
    "tiu_dma_id(before)": [
      7,
      16
    ],
    "tiu_dma_id(after)": [
      8,
      16
    ],
    "operands": [
      {
        "address": 32768,
        "layout": "eu_align",
        "memory_type": "<1x24x64x64xf16>",
        "name": "86_Conv",
        "reshape": "<1x24x1x64x64>",
        "shape": [
          1,
          24,
          64,
          64
        ],
        "slice": "[0:1, 0:24, 0:1, 0:64, 0:64]",
        "type": "tensor<1x24x64x64xf16>"
      },
      {
        "address": 10240,
        "layout": "compact",
        "memory_type": "<1x28x1x32xf16>",
        "name": "load_87_Conv_filter_reorderd",
        "reshape": "<1x28x1x1x32>",
        "shape": [
          1,
          28,
          1,
          32
        ],
        "slice": "[0:1, 0:28, 0:1, 0:1, 0:32]",
        "type": "tensor<1x28x1x32xf16>"
      },
      {
        "address": 98304,
        "layout": "compact",
        "memory_type": "<1x28x1x1xf32>",
        "name": "load_blaze_face.backbone1.3.convs.1.bias",
        "reshape": "<1x28x1x1x1>",
        "shape": [
          1,
          28,
          1,
          1
        ],
        "slice": "[0:1, 0:28, 0:1, 0:1, 0:1]",
        "type": "tensor<1x28x1x1xf32>"
      }
    ],
    "results": [
      {
        "address": 49152,
        "layout": "eu_align",
        "memory_type": "<1x28x64x64xf16>",
        "name": "87_Conv",
        "reshape": "<1x28x1x64x64>",
        "shape": [
          1,
          28,
          64,
          64
        ],
        "slice": "[0:1, 0:28, 0:1, 0:64, 0:64]",
        "type": "tensor<1x28x64x64xf16>"
      }
    ],
    "buffers": []
  },
  {
    "file-line": 48,
    "subnet_id": 0,
    "core_id": 0,
    "opcode": "tpu.Add",
    "is_local": true,
    "tiu_dma_id(before)": [
      8,
      16
    ],
    "tiu_dma_id(after)": [
      10,
      16
    ],
    "operands": [
      {
        "address": 49152,
        "layout": "eu_align",
        "memory_type": "<1x28x64x64xf16>",
        "name": "87_Conv",
        "reshape": "<1x28x1x64x64>",
        "shape": [
          1,
          28,
          64,
          64
        ],
        "slice": "[0:1, 0:28, 0:1, 0:64, 0:64]",
        "type": "tensor<1x28x64x64xf16>"
      },
      {
        "address": 0,
        "layout": "eu_align",
        "memory_type": "<1x28x64x64xf16>",
        "name": "load_85_Pad",
        "reshape": "<1x28x1x64x64>",
        "shape": [
          1,
          28,
          64,
          64
        ],
        "slice": "[0:1, 0:28, 0:1, 0:64, 0:64]",
        "type": "tensor<1x28x64x64xf16>"
      }
    ],
    "results": [
      {
        "address": 32768,
        "layout": "eu_align",
        "memory_type": "<1x28x64x64xf16>",
        "name": "89_Relu",
        "reshape": "<1x28x1x64x64>",
        "shape": [
          1,
          28,
          64,
          64
        ],
        "slice": "[0:1, 0:28, 0:1, 0:64, 0:64]",
        "type": "tensor<1x28x64x64xf16>"
      }
    ],
    "buffers": []
  },
  {
    "file-line": 50,
    "subnet_id": 0,
    "core_id": 0,
    "opcode": "tpu.Pool2D",
    "is_local": true,
    "tiu_dma_id(before)": [
      10,
      16
    ],
    "tiu_dma_id(after)": [
      11,
      16
    ],
    "operands": [
      {
        "address": 32768,
        "layout": "eu_align",
        "memory_type": "<1x28x64x64xf16>",
        "name": "89_Relu",
        "reshape": "<1x28x1x64x64>",
        "shape": [
          1,
          28,
          64,
          64
        ],
        "slice": "[0:1, 0:28, 0:1, 0:64, 0:64]",
        "type": "tensor<1x28x64x64xf16>"
      }
    ],
    "results": [
      {
        "address": 8192,
        "layout": "eu_align",
        "memory_type": "<1x28x32x32xf16>",
        "name": "91_MaxPool",
        "reshape": "<1x28x1x32x32>",
        "shape": [
          1,
          28,
          32,
          32
        ],
        "slice": "[0:1, 0:28, 0:1, 0:32, 0:32]",
        "type": "tensor<1x28x32x32xf16>"
      }
    ],
    "buffers": []
  },
  {
    "file-line": 49,
    "subnet_id": 0,
    "core_id": 0,
    "opcode": "tpu.Store",
    "is_local": true,
    "tiu_dma_id(before)": [
      10,
      16
    ],
    "tiu_dma_id(after)": [
      10,
      17
    ],
    "operands": [
      {
        "address": 32768,
        "layout": "eu_align",
        "memory_type": "<1x28x64x64xf16>",
        "name": "89_Relu",
        "reshape": "<1x28x1x64x64>",
        "shape": [
          1,
          28,
          64,
          64
        ],
        "slice": "[0:1, 0:28, 0:1, 0:64, 0:64]",
        "type": "tensor<1x28x64x64xf16>"
      },
      {}
    ],
    "results": [
      {
        "address": 33438468169728,
        "layout": "continuous",
        "memory_type": "<1x28x64x64xf16>",
        "name": "89_Relu",
        "reshape": "<1x28x1x64x64>",
        "shape": [
          1,
          28,
          64,
          64
        ],
        "slice": "[0:1, 0:28, 0:1, 0:64, 0:64]",
        "type": "tensor<1x28x64x64xf16, 33438468169728 : i64>"
      }
    ],
    "buffers": []
  },
  {
    "file-line": 51,
    "subnet_id": 0,
    "core_id": 0,
    "opcode": "tpu.Store",
    "is_local": true,
    "tiu_dma_id(before)": [
      11,
      17
    ],
    "tiu_dma_id(after)": [
      11,
      18
    ],
    "operands": [
      {
        "address": 8192,
        "layout": "eu_align",
        "memory_type": "<1x28x32x32xf16>",
        "name": "91_MaxPool",
        "reshape": "<1x28x1x32x32>",
        "shape": [
          1,
          28,
          32,
          32
        ],
        "slice": "[0:1, 0:28, 0:1, 0:32, 0:32]",
        "type": "tensor<1x28x32x32xf16>"
      },
      {}
    ],
    "results": [
      {
        "address": 33438467883008,
        "layout": "continuous",
        "memory_type": "<1x28x32x32xf16>",
        "name": "91_MaxPool",
        "reshape": "<1x28x1x32x32>",
        "shape": [
          1,
          28,
          32,
          32
        ],
        "slice": "[0:1, 0:28, 0:1, 0:32, 0:32]",
        "type": "tensor<1x28x32x32xf16, 33438467883008 : i64>"
      }
    ],
    "buffers": []
  },
  {
    "file-line": 54,
    "subnet_id": 0,
    "core_id": 0,
    "opcode": "tpu.Pad",
    "is_local": false,
    "tiu_dma_id(before)": [
      11,
      18
    ],
    "tiu_dma_id(after)": [
      11,
      20
    ],
    "operands": [
      {
        "address": 33438467883008,
        "layout": "continuous",
        "memory_type": "<1x28x32x32xf16>",
        "name": "91_MaxPool",
        "reshape": "",
        "shape": [
          1,
          28,
          32,
          32
        ],
        "slice": "[...]",
        "type": "tensor<1x28x32x32xf16, 33438467883008 : i64>"
      },
      {},
      {},
      {},
      {}
    ],
    "results": [
      {
        "address": 33438467940352,
        "layout": "continuous",
        "memory_type": "<1x32x32x32xf16>",
        "name": "92_Pad",
        "reshape": "",
        "shape": [
          1,
          32,
          32,
          32
        ],
        "slice": "[...]",
        "type": "tensor<1x32x32x32xf16, 33438467940352 : i64>"
      }
    ],
    "buffers": []
  },
  {
    "file-line": 60,
    "subnet_id": 0,
    "core_id": 0,
    "opcode": "tpu.Load",
    "is_local": true,
    "tiu_dma_id(before)": [
      11,
      20
    ],
    "tiu_dma_id(after)": [
      11,
      21
    ],
    "operands": [
      {
        "address": 33438468169728,
        "layout": "continuous",
        "memory_type": "<1x28x64x64xf16>",
        "name": "89_Relu",
        "reshape": "<1x28x1x64x64>",
        "shape": [
          1,
          28,
          64,
          64
        ],
        "slice": "[0:1, 0:28, 0:1, 0:64, 0:64]",
        "type": "tensor<1x28x64x64xf16, 33438468169728 : i64>"
      }
    ],
    "results": [
      {
        "address": 0,
        "layout": "eu_align",
        "memory_type": "<1x28x64x64xf16>",
        "name": "load_89_Relu",
        "reshape": "<1x28x1x64x64>",
        "shape": [
          1,
          28,
          64,
          64
        ],
        "slice": "[0:1, 0:28, 0:1, 0:64, 0:64]",
        "type": "tensor<1x28x64x64xf16>"
      }
    ],
    "buffers": []
  },
  {
    "file-line": 61,
    "subnet_id": 0,
    "core_id": 0,
    "opcode": "tpu.Load",
    "is_local": true,
    "tiu_dma_id(before)": [
      11,
      21
    ],
    "tiu_dma_id(after)": [
      11,
      22
    ],
    "operands": [
      {
        "address": 1099511734272,
        "layout": "continuous",
        "memory_type": "<1x28x1x288xf16>",
        "name": "93_Conv_filter_reorderd",
        "reshape": "<1x28x1x1x288>",
        "shape": [
          1,
          28,
          1,
          288
        ],
        "slice": "[0:1, 0:28, 0:1, 0:1, 0:288]",
        "type": "tensor<1x28x1x288xf16, 1099511734272 : i64>"
      }
    ],
    "results": [
      {
        "address": 81920,
        "layout": "compact",
        "memory_type": "<1x28x1x288xf16>",
        "name": "load_93_Conv_filter_reorderd",
        "reshape": "<1x28x1x1x288>",
        "shape": [
          1,
          28,
          1,
          288
        ],
        "slice": "[0:1, 0:28, 0:1, 0:1, 0:288]",
        "type": "tensor<1x28x1x288xf16>"
      }
    ],
    "buffers": []
  },
  {
    "file-line": 62,
    "subnet_id": 0,
    "core_id": 0,
    "opcode": "tpu.Load",
    "is_local": true,
    "tiu_dma_id(before)": [
      11,
      22
    ],
    "tiu_dma_id(after)": [
      11,
      23
    ],
    "operands": [
      {
        "address": 1099511730176,
        "layout": "continuous",
        "memory_type": "<1x28x1x1xf32>",
        "name": "blaze_face.backbone1.4.convs.0.bias",
        "reshape": "<1x28x1x1x1>",
        "shape": [
          1,
          28,
          1,
          1
        ],
        "slice": "[0:1, 0:28, 0:1, 0:1, 0:1]",
        "type": "tensor<1x28x1x1xf32, 1099511730176 : i64>"
      }
    ],
    "results": [
      {
        "address": 114688,
        "layout": "compact",
        "memory_type": "<1x28x1x1xf32>",
        "name": "load_blaze_face.backbone1.4.convs.0.bias",
        "reshape": "<1x28x1x1x1>",
        "shape": [
          1,
          28,
          1,
          1
        ],
        "slice": "[0:1, 0:28, 0:1, 0:1, 0:1]",
        "type": "tensor<1x28x1x1xf32>"
      }
    ],
    "buffers": []
  },
  {
    "file-line": 65,
    "subnet_id": 0,
    "core_id": 0,
    "opcode": "tpu.Conv2D",
    "is_local": true,
    "tiu_dma_id(before)": [
      11,
      23
    ],
    "tiu_dma_id(after)": [
      12,
      23
    ],
    "operands": [
      {
        "address": 0,
        "layout": "eu_align",
        "memory_type": "<1x28x64x64xf16>",
        "name": "load_89_Relu",
        "reshape": "<1x28x1x64x64>",
        "shape": [
          1,
          28,
          64,
          64
        ],
        "slice": "[0:1, 0:28, 0:1, 0:64, 0:64]",
        "type": "tensor<1x28x64x64xf16>"
      },
      {
        "address": 81920,
        "layout": "compact",
        "memory_type": "<1x28x1x288xf16>",
        "name": "load_93_Conv_filter_reorderd",
        "reshape": "<1x28x1x1x288>",
        "shape": [
          1,
          28,
          1,
          288
        ],
        "slice": "[0:1, 0:28, 0:1, 0:1, 0:288]",
        "type": "tensor<1x28x1x288xf16>"
      },
      {
        "address": 114688,
        "layout": "compact",
        "memory_type": "<1x28x1x1xf32>",
        "name": "load_blaze_face.backbone1.4.convs.0.bias",
        "reshape": "<1x28x1x1x1>",
        "shape": [
          1,
          28,
          1,
          1
        ],
        "slice": "[0:1, 0:28, 0:1, 0:1, 0:1]",
        "type": "tensor<1x28x1x1xf32>"
      }
    ],
    "results": [
      {
        "address": 16384,
        "layout": "eu_align",
        "memory_type": "<1x28x32x32xf16>",
        "name": "93_Conv",
        "reshape": "<1x28x1x32x32>",
        "shape": [
          1,
          28,
          32,
          32
        ],
        "slice": "[0:1, 0:28, 0:1, 0:32, 0:32]",
        "type": "tensor<1x28x32x32xf16>"
      }
    ],
    "buffers": []
  },
  {
    "file-line": 63,
    "subnet_id": 0,
    "core_id": 0,
    "opcode": "tpu.Load",
    "is_local": true,
    "tiu_dma_id(before)": [
      11,
      23
    ],
    "tiu_dma_id(after)": [
      11,
      24
    ],
    "operands": [
      {
        "address": 1099511754752,
        "layout": "continuous",
        "memory_type": "<1x32x1x32xf16>",
        "name": "94_Conv_filter_reorderd",
        "reshape": "<1x32x1x1x32>",
        "shape": [
          1,
          32,
          1,
          32
        ],
        "slice": "[0:1, 0:32, 0:1, 0:1, 0:32]",
        "type": "tensor<1x32x1x32xf16, 1099511754752 : i64>"
      }
    ],
    "results": [
      {
        "address": 67584,
        "layout": "compact",
        "memory_type": "<1x32x1x32xf16>",
        "name": "load_94_Conv_filter_reorderd",
        "reshape": "<1x32x1x1x32>",
        "shape": [
          1,
          32,
          1,
          32
        ],
        "slice": "[0:1, 0:32, 0:1, 0:1, 0:32]",
        "type": "tensor<1x32x1x32xf16>"
      }
    ],
    "buffers": []
  },
  {
    "file-line": 64,
    "subnet_id": 0,
    "core_id": 0,
    "opcode": "tpu.Load",
    "is_local": true,
    "tiu_dma_id(before)": [
      11,
      24
    ],
    "tiu_dma_id(after)": [
      11,
      25
    ],
    "operands": [
      {
        "address": 1099511750656,
        "layout": "continuous",
        "memory_type": "<1x32x1x1xf32>",
        "name": "blaze_face.backbone1.4.convs.1.bias",
        "reshape": "<1x32x1x1x1>",
        "shape": [
          1,
          32,
          1,
          1
        ],
        "slice": "[0:1, 0:32, 0:1, 0:1, 0:1]",
        "type": "tensor<1x32x1x1xf32, 1099511750656 : i64>"
      }
    ],
    "results": [
      {
        "address": 98304,
        "layout": "compact",
        "memory_type": "<1x32x1x1xf32>",
        "name": "load_blaze_face.backbone1.4.convs.1.bias",
        "reshape": "<1x32x1x1x1>",
        "shape": [
          1,
          32,
          1,
          1
        ],
        "slice": "[0:1, 0:32, 0:1, 0:1, 0:1]",
        "type": "tensor<1x32x1x1xf32>"
      }
    ],
    "buffers": []
  },
  {
    "file-line": 67,
    "subnet_id": 0,
    "core_id": 0,
    "opcode": "tpu.Conv2D",
    "is_local": true,
    "tiu_dma_id(before)": [
      12,
      25
    ],
    "tiu_dma_id(after)": [
      13,
      25
    ],
    "operands": [
      {
        "address": 16384,
        "layout": "eu_align",
        "memory_type": "<1x28x32x32xf16>",
        "name": "93_Conv",
        "reshape": "<1x28x1x32x32>",
        "shape": [
          1,
          28,
          32,
          32
        ],
        "slice": "[0:1, 0:28, 0:1, 0:32, 0:32]",
        "type": "tensor<1x28x32x32xf16>"
      },
      {
        "address": 67584,
        "layout": "compact",
        "memory_type": "<1x32x1x32xf16>",
        "name": "load_94_Conv_filter_reorderd",
        "reshape": "<1x32x1x1x32>",
        "shape": [
          1,
          32,
          1,
          32
        ],
        "slice": "[0:1, 0:32, 0:1, 0:1, 0:32]",
        "type": "tensor<1x32x1x32xf16>"
      },
      {
        "address": 98304,
        "layout": "compact",
        "memory_type": "<1x32x1x1xf32>",
        "name": "load_blaze_face.backbone1.4.convs.1.bias",
        "reshape": "<1x32x1x1x1>",
        "shape": [
          1,
          32,
          1,
          1
        ],
        "slice": "[0:1, 0:32, 0:1, 0:1, 0:1]",
        "type": "tensor<1x32x1x1xf32>"
      }
    ],
    "results": [
      {
        "address": 32768,
        "layout": "eu_align",
        "memory_type": "<1x32x32x32xf16>",
        "name": "94_Conv",
        "reshape": "<1x32x1x32x32>",
        "shape": [
          1,
          32,
          32,
          32
        ],
        "slice": "[0:1, 0:32, 0:1, 0:32, 0:32]",
        "type": "tensor<1x32x32x32xf16>"
      }
    ],
    "buffers": []
  },
  {
    "file-line": 66,
    "subnet_id": 0,
    "core_id": 0,
    "opcode": "tpu.Load",
    "is_local": true,
    "tiu_dma_id(before)": [
      12,
      25
    ],
    "tiu_dma_id(after)": [
      12,
      26
    ],
    "operands": [
      {
        "address": 33438467940352,
        "layout": "continuous",
        "memory_type": "<1x32x32x32xf16>",
        "name": "92_Pad",
        "reshape": "<1x32x1x32x32>",
        "shape": [
          1,
          32,
          32,
          32
        ],
        "slice": "[0:1, 0:32, 0:1, 0:32, 0:32]",
        "type": "tensor<1x32x32x32xf16, 33438467940352 : i64>"
      }
    ],
    "results": [
      {
        "address": 49152,
        "layout": "eu_align",
        "memory_type": "<1x32x32x32xf16>",
        "name": "load_92_Pad",
        "reshape": "<1x32x1x32x32>",
        "shape": [
          1,
          32,
          32,
          32
        ],
        "slice": "[0:1, 0:32, 0:1, 0:32, 0:32]",
        "type": "tensor<1x32x32x32xf16>"
      }
    ],
    "buffers": []
  },
  {
    "file-line": 68,
    "subnet_id": 0,
    "core_id": 0,
    "opcode": "tpu.Add",
    "is_local": true,
    "tiu_dma_id(before)": [
      13,
      26
    ],
    "tiu_dma_id(after)": [
      15,
      26
    ],
    "operands": [
      {
        "address": 32768,
        "layout": "eu_align",
        "memory_type": "<1x32x32x32xf16>",
        "name": "94_Conv",
        "reshape": "<1x32x1x32x32>",
        "shape": [
          1,
          32,
          32,
          32
        ],
        "slice": "[0:1, 0:32, 0:1, 0:32, 0:32]",
        "type": "tensor<1x32x32x32xf16>"
      },
      {
        "address": 49152,
        "layout": "eu_align",
        "memory_type": "<1x32x32x32xf16>",
        "name": "load_92_Pad",
        "reshape": "<1x32x1x32x32>",
        "shape": [
          1,
          32,
          32,
          32
        ],
        "slice": "[0:1, 0:32, 0:1, 0:32, 0:32]",
        "type": "tensor<1x32x32x32xf16>"
      }
    ],
    "results": [
      {
        "address": 65536,
        "layout": "eu_align",
        "memory_type": "<1x32x32x32xf16>",
        "name": "96_Relu",
        "reshape": "<1x32x1x32x32>",
        "shape": [
          1,
          32,
          32,
          32
        ],
        "slice": "[0:1, 0:32, 0:1, 0:32, 0:32]",
        "type": "tensor<1x32x32x32xf16>"
      }
    ],
    "buffers": []
  },
  {
    "file-line": 69,
    "subnet_id": 0,
    "core_id": 0,
    "opcode": "tpu.Store",
    "is_local": true,
    "tiu_dma_id(before)": [
      15,
      26
    ],
    "tiu_dma_id(after)": [
      15,
      27
    ],
    "operands": [
      {
        "address": 65536,
        "layout": "eu_align",
        "memory_type": "<1x32x32x32xf16>",
        "name": "96_Relu",
        "reshape": "<1x32x1x32x32>",
        "shape": [
          1,
          32,
          32,
          32
        ],
        "slice": "[0:1, 0:32, 0:1, 0:32, 0:32]",
        "type": "tensor<1x32x32x32xf16>"
      },
      {}
    ],
    "results": [
      {
        "address": 33438468005888,
        "layout": "continuous",
        "memory_type": "<1x32x32x32xf16>",
        "name": "96_Relu",
        "reshape": "<1x32x1x32x32>",
        "shape": [
          1,
          32,
          32,
          32
        ],
        "slice": "[0:1, 0:32, 0:1, 0:32, 0:32]",
        "type": "tensor<1x32x32x32xf16, 33438468005888 : i64>"
      }
    ],
    "buffers": []
  },
  {
    "file-line": 72,
    "subnet_id": 0,
    "core_id": 0,
    "opcode": "tpu.Pad",
    "is_local": false,
    "tiu_dma_id(before)": [
      15,
      27
    ],
    "tiu_dma_id(after)": [
      15,
      29
    ],
    "operands": [
      {
        "address": 33438468005888,
        "layout": "continuous",
        "memory_type": "<1x32x32x32xf16>",
        "name": "96_Relu",
        "reshape": "",
        "shape": [
          1,
          32,
          32,
          32
        ],
        "slice": "[...]",
        "type": "tensor<1x32x32x32xf16, 33438468005888 : i64>"
      },
      {},
      {},
      {},
      {}
    ],
    "results": [
      {
        "address": 33438467883008,
        "layout": "continuous",
        "memory_type": "<1x36x32x32xf16>",
        "name": "97_Pad",
        "reshape": "",
        "shape": [
          1,
          36,
          32,
          32
        ],
        "slice": "[...]",
        "type": "tensor<1x36x32x32xf16, 33438467883008 : i64>"
      }
    ],
    "buffers": []
  },
  {
    "file-line": 78,
    "subnet_id": 0,
    "core_id": 0,
    "opcode": "tpu.Load",
    "is_local": true,
    "tiu_dma_id(before)": [
      15,
      29
    ],
    "tiu_dma_id(after)": [
      15,
      30
    ],
    "operands": [
      {
        "address": 33438468005888,
        "layout": "continuous",
        "memory_type": "<1x32x32x32xf16>",
        "name": "96_Relu",
        "reshape": "<1x32x1x32x32>",
        "shape": [
          1,
          32,
          32,
          32
        ],
        "slice": "[0:1, 0:32, 0:1, 0:32, 0:32]",
        "type": "tensor<1x32x32x32xf16, 33438468005888 : i64>"
      }
    ],
    "results": [
      {
        "address": 49152,
        "layout": "eu_align",
        "memory_type": "<1x32x32x32xf16>",
        "name": "load_96_Relu",
        "reshape": "<1x32x1x32x32>",
        "shape": [
          1,
          32,
          32,
          32
        ],
        "slice": "[0:1, 0:32, 0:1, 0:32, 0:32]",
        "type": "tensor<1x32x32x32xf16>"
      }
    ],
    "buffers": []
  },
  {
    "file-line": 79,
    "subnet_id": 0,
    "core_id": 0,
    "opcode": "tpu.Load",
    "is_local": true,
    "tiu_dma_id(before)": [
      15,
      30
    ],
    "tiu_dma_id(after)": [
      15,
      31
    ],
    "operands": [
      {
        "address": 1099511762944,
        "layout": "continuous",
        "memory_type": "<1x32x1x288xf16>",
        "name": "98_Conv_filter_reorderd",
        "reshape": "<1x32x1x1x288>",
        "shape": [
          1,
          32,
          1,
          288
        ],
        "slice": "[0:1, 0:32, 0:1, 0:1, 0:288]",
        "type": "tensor<1x32x1x288xf16, 1099511762944 : i64>"
      }
    ],
    "results": [
      {
        "address": 81920,
        "layout": "compact",
        "memory_type": "<1x32x1x288xf16>",
        "name": "load_98_Conv_filter_reorderd",
        "reshape": "<1x32x1x1x288>",
        "shape": [
          1,
          32,
          1,
          288
        ],
        "slice": "[0:1, 0:32, 0:1, 0:1, 0:288]",
        "type": "tensor<1x32x1x288xf16>"
      }
    ],
    "buffers": []
  },
  {
    "file-line": 80,
    "subnet_id": 0,
    "core_id": 0,
    "opcode": "tpu.Load",
    "is_local": true,
    "tiu_dma_id(before)": [
      15,
      31
    ],
    "tiu_dma_id(after)": [
      15,
      32
    ],
    "operands": [
      {
        "address": 1099511758848,
        "layout": "continuous",
        "memory_type": "<1x32x1x1xf32>",
        "name": "blaze_face.backbone1.5.convs.0.bias",
        "reshape": "<1x32x1x1x1>",
        "shape": [
          1,
          32,
          1,
          1
        ],
        "slice": "[0:1, 0:32, 0:1, 0:1, 0:1]",
        "type": "tensor<1x32x1x1xf32, 1099511758848 : i64>"
      }
    ],
    "results": [
      {
        "address": 114688,
        "layout": "compact",
        "memory_type": "<1x32x1x1xf32>",
        "name": "load_blaze_face.backbone1.5.convs.0.bias",
        "reshape": "<1x32x1x1x1>",
        "shape": [
          1,
          32,
          1,
          1
        ],
        "slice": "[0:1, 0:32, 0:1, 0:1, 0:1]",
        "type": "tensor<1x32x1x1xf32>"
      }
    ],
    "buffers": []
  },
  {
    "file-line": 83,
    "subnet_id": 0,
    "core_id": 0,
    "opcode": "tpu.Conv2D",
    "is_local": true,
    "tiu_dma_id(before)": [
      15,
      32
    ],
    "tiu_dma_id(after)": [
      16,
      32
    ],
    "operands": [
      {
        "address": 49152,
        "layout": "eu_align",
        "memory_type": "<1x32x32x32xf16>",
        "name": "load_96_Relu",
        "reshape": "<1x32x1x32x32>",
        "shape": [
          1,
          32,
          32,
          32
        ],
        "slice": "[0:1, 0:32, 0:1, 0:32, 0:32]",
        "type": "tensor<1x32x32x32xf16>"
      },
      {
        "address": 81920,
        "layout": "compact",
        "memory_type": "<1x32x1x288xf16>",
        "name": "load_98_Conv_filter_reorderd",
        "reshape": "<1x32x1x1x288>",
        "shape": [
          1,
          32,
          1,
          288
        ],
        "slice": "[0:1, 0:32, 0:1, 0:1, 0:288]",
        "type": "tensor<1x32x1x288xf16>"
      },
      {
        "address": 114688,
        "layout": "compact",
        "memory_type": "<1x32x1x1xf32>",
        "name": "load_blaze_face.backbone1.5.convs.0.bias",
        "reshape": "<1x32x1x1x1>",
        "shape": [
          1,
          32,
          1,
          1
        ],
        "slice": "[0:1, 0:32, 0:1, 0:1, 0:1]",
        "type": "tensor<1x32x1x1xf32>"
      }
    ],
    "results": [
      {
        "address": 0,
        "layout": "eu_align",
        "memory_type": "<1x32x32x32xf16>",
        "name": "98_Conv",
        "reshape": "<1x32x1x32x32>",
        "shape": [
          1,
          32,
          32,
          32
        ],
        "slice": "[0:1, 0:32, 0:1, 0:32, 0:32]",
        "type": "tensor<1x32x32x32xf16>"
      }
    ],
    "buffers": []
  },
  {
    "file-line": 81,
    "subnet_id": 0,
    "core_id": 0,
    "opcode": "tpu.Load",
    "is_local": true,
    "tiu_dma_id(before)": [
      15,
      32
    ],
    "tiu_dma_id(after)": [
      15,
      33
    ],
    "operands": [
      {
        "address": 1099511787520,
        "layout": "continuous",
        "memory_type": "<1x36x1x32xf16>",
        "name": "99_Conv_filter_reorderd",
        "reshape": "<1x36x1x1x32>",
        "shape": [
          1,
          36,
          1,
          32
        ],
        "slice": "[0:1, 0:36, 0:1, 0:1, 0:32]",
        "type": "tensor<1x36x1x32xf16, 1099511787520 : i64>"
      }
    ],
    "results": [
      {
        "address": 67584,
        "layout": "compact",
        "memory_type": "<1x36x1x32xf16>",
        "name": "load_99_Conv_filter_reorderd",
        "reshape": "<1x36x1x1x32>",
        "shape": [
          1,
          36,
          1,
          32
        ],
        "slice": "[0:1, 0:36, 0:1, 0:1, 0:32]",
        "type": "tensor<1x36x1x32xf16>"
      }
    ],
    "buffers": []
  },
  {
    "file-line": 82,
    "subnet_id": 0,
    "core_id": 0,
    "opcode": "tpu.Load",
    "is_local": true,
    "tiu_dma_id(before)": [
      15,
      33
    ],
    "tiu_dma_id(after)": [
      15,
      34
    ],
    "operands": [
      {
        "address": 1099511783424,
        "layout": "continuous",
        "memory_type": "<1x36x1x1xf32>",
        "name": "blaze_face.backbone1.5.convs.1.bias",
        "reshape": "<1x36x1x1x1>",
        "shape": [
          1,
          36,
          1,
          1
        ],
        "slice": "[0:1, 0:36, 0:1, 0:1, 0:1]",
        "type": "tensor<1x36x1x1xf32, 1099511783424 : i64>"
      }
    ],
    "results": [
      {
        "address": 98304,
        "layout": "compact",
        "memory_type": "<1x36x1x1xf32>",
        "name": "load_blaze_face.backbone1.5.convs.1.bias",
        "reshape": "<1x36x1x1x1>",
        "shape": [
          1,
          36,
          1,
          1
        ],
        "slice": "[0:1, 0:36, 0:1, 0:1, 0:1]",
        "type": "tensor<1x36x1x1xf32>"
      }
    ],
    "buffers": []
  },
  {
    "file-line": 85,
    "subnet_id": 0,
    "core_id": 0,
    "opcode": "tpu.Conv2D",
    "is_local": true,
    "tiu_dma_id(before)": [
      16,
      34
    ],
    "tiu_dma_id(after)": [
      17,
      34
    ],
    "operands": [
      {
        "address": 0,
        "layout": "eu_align",
        "memory_type": "<1x32x32x32xf16>",
        "name": "98_Conv",
        "reshape": "<1x32x1x32x32>",
        "shape": [
          1,
          32,
          32,
          32
        ],
        "slice": "[0:1, 0:32, 0:1, 0:32, 0:32]",
        "type": "tensor<1x32x32x32xf16>"
      },
      {
        "address": 67584,
        "layout": "compact",
        "memory_type": "<1x36x1x32xf16>",
        "name": "load_99_Conv_filter_reorderd",
        "reshape": "<1x36x1x1x32>",
        "shape": [
          1,
          36,
          1,
          32
        ],
        "slice": "[0:1, 0:36, 0:1, 0:1, 0:32]",
        "type": "tensor<1x36x1x32xf16>"
      },
      {
        "address": 98304,
        "layout": "compact",
        "memory_type": "<1x36x1x1xf32>",
        "name": "load_blaze_face.backbone1.5.convs.1.bias",
        "reshape": "<1x36x1x1x1>",
        "shape": [
          1,
          36,
          1,
          1
        ],
        "slice": "[0:1, 0:36, 0:1, 0:1, 0:1]",
        "type": "tensor<1x36x1x1xf32>"
      }
    ],
    "results": [
      {
        "address": 16384,
        "layout": "eu_align",
        "memory_type": "<1x36x32x32xf16>",
        "name": "99_Conv",
        "reshape": "<1x36x1x32x32>",
        "shape": [
          1,
          36,
          32,
          32
        ],
        "slice": "[0:1, 0:36, 0:1, 0:32, 0:32]",
        "type": "tensor<1x36x32x32xf16>"
      }
    ],
    "buffers": []
  },
  {
    "file-line": 84,
    "subnet_id": 0,
    "core_id": 0,
    "opcode": "tpu.Load",
    "is_local": true,
    "tiu_dma_id(before)": [
      16,
      34
    ],
    "tiu_dma_id(after)": [
      16,
      35
    ],
    "operands": [
      {
        "address": 33438467883008,
        "layout": "continuous",
        "memory_type": "<1x36x32x32xf16>",
        "name": "97_Pad",
        "reshape": "<1x36x1x32x32>",
        "shape": [
          1,
          36,
          32,
          32
        ],
        "slice": "[0:1, 0:36, 0:1, 0:32, 0:32]",
        "type": "tensor<1x36x32x32xf16, 33438467883008 : i64>"
      }
    ],
    "results": [
      {
        "address": 32768,
        "layout": "eu_align",
        "memory_type": "<1x36x32x32xf16>",
        "name": "load_97_Pad",
        "reshape": "<1x36x1x32x32>",
        "shape": [
          1,
          36,
          32,
          32
        ],
        "slice": "[0:1, 0:36, 0:1, 0:32, 0:32]",
        "type": "tensor<1x36x32x32xf16>"
      }
    ],
    "buffers": []
  },
  {
    "file-line": 86,
    "subnet_id": 0,
    "core_id": 0,
    "opcode": "tpu.Add",
    "is_local": true,
    "tiu_dma_id(before)": [
      17,
      35
    ],
    "tiu_dma_id(after)": [
      19,
      35
    ],
    "operands": [
      {
        "address": 16384,
        "layout": "eu_align",
        "memory_type": "<1x36x32x32xf16>",
        "name": "99_Conv",
        "reshape": "<1x36x1x32x32>",
        "shape": [
          1,
          36,
          32,
          32
        ],
        "slice": "[0:1, 0:36, 0:1, 0:32, 0:32]",
        "type": "tensor<1x36x32x32xf16>"
      },
      {
        "address": 32768,
        "layout": "eu_align",
        "memory_type": "<1x36x32x32xf16>",
        "name": "load_97_Pad",
        "reshape": "<1x36x1x32x32>",
        "shape": [
          1,
          36,
          32,
          32
        ],
        "slice": "[0:1, 0:36, 0:1, 0:32, 0:32]",
        "type": "tensor<1x36x32x32xf16>"
      }
    ],
    "results": [
      {
        "address": 65536,
        "layout": "eu_align",
        "memory_type": "<1x36x32x32xf16>",
        "name": "101_Relu",
        "reshape": "<1x36x1x32x32>",
        "shape": [
          1,
          36,
          32,
          32
        ],
        "slice": "[0:1, 0:36, 0:1, 0:32, 0:32]",
        "type": "tensor<1x36x32x32xf16>"
      }
    ],
    "buffers": []
  },
  {
    "file-line": 87,
    "subnet_id": 0,
    "core_id": 0,
    "opcode": "tpu.Store",
    "is_local": true,
    "tiu_dma_id(before)": [
      19,
      35
    ],
    "tiu_dma_id(after)": [
      19,
      36
    ],
    "operands": [
      {
        "address": 65536,
        "layout": "eu_align",
        "memory_type": "<1x36x32x32xf16>",
        "name": "101_Relu",
        "reshape": "<1x36x1x32x32>",
        "shape": [
          1,
          36,
          32,
          32
        ],
        "slice": "[0:1, 0:36, 0:1, 0:32, 0:32]",
        "type": "tensor<1x36x32x32xf16>"
      },
      {}
    ],
    "results": [
      {
        "address": 33438468079616,
        "layout": "continuous",
        "memory_type": "<1x36x32x32xf16>",
        "name": "101_Relu",
        "reshape": "<1x36x1x32x32>",
        "shape": [
          1,
          36,
          32,
          32
        ],
        "slice": "[0:1, 0:36, 0:1, 0:32, 0:32]",
        "type": "tensor<1x36x32x32xf16, 33438468079616 : i64>"
      }
    ],
    "buffers": []
  },
  {
    "file-line": 90,
    "subnet_id": 0,
    "core_id": 0,
    "opcode": "tpu.Pad",
    "is_local": false,
    "tiu_dma_id(before)": [
      19,
      36
    ],
    "tiu_dma_id(after)": [
      19,
      38
    ],
    "operands": [
      {
        "address": 33438468079616,
        "layout": "continuous",
        "memory_type": "<1x36x32x32xf16>",
        "name": "101_Relu",
        "reshape": "",
        "shape": [
          1,
          36,
          32,
          32
        ],
        "slice": "[...]",
        "type": "tensor<1x36x32x32xf16, 33438468079616 : i64>"
      },
      {},
      {},
      {},
      {}
    ],
    "results": [
      {
        "address": 33438467907584,
        "layout": "continuous",
        "memory_type": "<1x42x32x32xf16>",
        "name": "102_Pad",
        "reshape": "",
        "shape": [
          1,
          42,
          32,
          32
        ],
        "slice": "[...]",
        "type": "tensor<1x42x32x32xf16, 33438467907584 : i64>"
      }
    ],
    "buffers": []
  },
  {
    "file-line": 96,
    "subnet_id": 0,
    "core_id": 0,
    "opcode": "tpu.Load",
    "is_local": true,
    "tiu_dma_id(before)": [
      19,
      38
    ],
    "tiu_dma_id(after)": [
      19,
      39
    ],
    "operands": [
      {
        "address": 33438468079616,
        "layout": "continuous",
        "memory_type": "<1x36x32x32xf16>",
        "name": "101_Relu",
        "reshape": "<1x36x1x32x32>",
        "shape": [
          1,
          36,
          32,
          32
        ],
        "slice": "[0:1, 0:36, 0:1, 0:32, 0:32]",
        "type": "tensor<1x36x32x32xf16, 33438468079616 : i64>"
      }
    ],
    "results": [
      {
        "address": 16384,
        "layout": "eu_align",
        "memory_type": "<1x36x32x32xf16>",
        "name": "load_101_Relu",
        "reshape": "<1x36x1x32x32>",
        "shape": [
          1,
          36,
          32,
          32
        ],
        "slice": "[0:1, 0:36, 0:1, 0:32, 0:32]",
        "type": "tensor<1x36x32x32xf16>"
      }
    ],
    "buffers": []
  },
  {
    "file-line": 97,
    "subnet_id": 0,
    "core_id": 0,
    "opcode": "tpu.Load",
    "is_local": true,
    "tiu_dma_id(before)": [
      19,
      39
    ],
    "tiu_dma_id(after)": [
      19,
      40
    ],
    "operands": [
      {
        "address": 1099511791616,
        "layout": "continuous",
        "memory_type": "<1x36x3x3xf16>",
        "name": "103_Convblaze_face.backbone1.6.convs.0.weight_f16",
        "reshape": "<1x36x1x3x3>",
        "shape": [
          1,
          36,
          3,
          3
        ],
        "slice": "[0:1, 0:36, 0:1, 0:3, 0:3]",
        "type": "tensor<1x36x3x3xf16, 1099511791616 : i64>"
      }
    ],
    "results": [
      {
        "address": 32768,
        "layout": "compact",
        "memory_type": "<1x36x3x3xf16>",
        "name": "load_103_Convblaze_face.backbone1.6.convs.0.weight_f16",
        "reshape": "<1x36x1x3x3>",
        "shape": [
          1,
          36,
          3,
          3
        ],
        "slice": "[0:1, 0:36, 0:1, 0:3, 0:3]",
        "type": "tensor<1x36x3x3xf16>"
      }
    ],
    "buffers": []
  },
  {
    "file-line": 98,
    "subnet_id": 0,
    "core_id": 0,
    "opcode": "tpu.Load",
    "is_local": true,
    "tiu_dma_id(before)": [
      19,
      40
    ],
    "tiu_dma_id(after)": [
      19,
      41
    ],
    "operands": [
      {
        "address": 1099511795712,
        "layout": "continuous",
        "memory_type": "<1x36x1x1xf16>",
        "name": "103_Conv_reordered",
        "reshape": "<1x36x1x1x1>",
        "shape": [
          1,
          36,
          1,
          1
        ],
        "slice": "[0:1, 0:36, 0:1, 0:1, 0:1]",
        "type": "tensor<1x36x1x1xf16, 1099511795712 : i64>"
      }
    ],
    "results": [
      {
        "address": 98304,
        "layout": "compact",
        "memory_type": "<1x36x1x1xf16>",
        "name": "load_103_Conv_reordered",
        "reshape": "<1x36x1x1x1>",
        "shape": [
          1,
          36,
          1,
          1
        ],
        "slice": "[0:1, 0:36, 0:1, 0:1, 0:1]",
        "type": "tensor<1x36x1x1xf16>"
      }
    ],
    "buffers": []
  },
  {
    "file-line": 101,
    "subnet_id": 0,
    "core_id": 0,
    "opcode": "tpu.Conv2D",
    "is_local": true,
    "tiu_dma_id(before)": [
      19,
      41
    ],
    "tiu_dma_id(after)": [
      20,
      41
    ],
    "operands": [
      {
        "address": 16384,
        "layout": "eu_align",
        "memory_type": "<1x36x32x32xf16>",
        "name": "load_101_Relu",
        "reshape": "<1x36x1x32x32>",
        "shape": [
          1,
          36,
          32,
          32
        ],
        "slice": "[0:1, 0:36, 0:1, 0:32, 0:32]",
        "type": "tensor<1x36x32x32xf16>"
      },
      {
        "address": 32768,
        "layout": "compact",
        "memory_type": "<1x36x3x3xf16>",
        "name": "load_103_Convblaze_face.backbone1.6.convs.0.weight_f16",
        "reshape": "<1x36x1x3x3>",
        "shape": [
          1,
          36,
          3,
          3
        ],
        "slice": "[0:1, 0:36, 0:1, 0:3, 0:3]",
        "type": "tensor<1x36x3x3xf16>"
      },
      {
        "address": 98304,
        "layout": "compact",
        "memory_type": "<1x36x1x1xf16>",
        "name": "load_103_Conv_reordered",
        "reshape": "<1x36x1x1x1>",
        "shape": [
          1,
          36,
          1,
          1
        ],
        "slice": "[0:1, 0:36, 0:1, 0:1, 0:1]",
        "type": "tensor<1x36x1x1xf16>"
      }
    ],
    "results": [
      {
        "address": 0,
        "layout": "eu_align",
        "memory_type": "<1x36x32x32xf16>",
        "name": "103_Conv",
        "reshape": "<1x36x1x32x32>",
        "shape": [
          1,
          36,
          32,
          32
        ],
        "slice": "[0:1, 0:36, 0:1, 0:32, 0:32]",
        "type": "tensor<1x36x32x32xf16>"
      }
    ],
    "buffers": [
      {
        "address": 81920,
        "size": 6157
      }
    ]
  },
  {
    "file-line": 99,
    "subnet_id": 0,
    "core_id": 0,
    "opcode": "tpu.Load",
    "is_local": true,
    "tiu_dma_id(before)": [
      19,
      41
    ],
    "tiu_dma_id(after)": [
      19,
      42
    ],
    "operands": [
      {
        "address": 1099511803904,
        "layout": "continuous",
        "memory_type": "<1x42x1x64xf16>",
        "name": "104_Conv_filter_reorderd",
        "reshape": "<1x42x1x1x64>",
        "shape": [
          1,
          42,
          1,
          64
        ],
        "slice": "[0:1, 0:42, 0:1, 0:1, 0:64]",
        "type": "tensor<1x42x1x64xf16, 1099511803904 : i64>"
      }
    ],
    "results": [
      {
        "address": 49664,
        "layout": "compact",
        "memory_type": "<1x42x1x64xf16>",
        "name": "load_104_Conv_filter_reorderd",
        "reshape": "<1x42x1x1x64>",
        "shape": [
          1,
          42,
          1,
          64
        ],
        "slice": "[0:1, 0:42, 0:1, 0:1, 0:64]",
        "type": "tensor<1x42x1x64xf16>"
      }
    ],
    "buffers": []
  },
  {
    "file-line": 100,
    "subnet_id": 0,
    "core_id": 0,
    "opcode": "tpu.Load",
    "is_local": true,
    "tiu_dma_id(before)": [
      19,
      42
    ],
    "tiu_dma_id(after)": [
      19,
      43
    ],
    "operands": [
      {
        "address": 1099511799808,
        "layout": "continuous",
        "memory_type": "<1x42x1x1xf32>",
        "name": "blaze_face.backbone1.6.convs.1.bias",
        "reshape": "<1x42x1x1x1>",
        "shape": [
          1,
          42,
          1,
          1
        ],
        "slice": "[0:1, 0:42, 0:1, 0:1, 0:1]",
        "type": "tensor<1x42x1x1xf32, 1099511799808 : i64>"
      }
    ],
    "results": [
      {
        "address": 65536,
        "layout": "compact",
        "memory_type": "<1x42x1x1xf32>",
        "name": "load_blaze_face.backbone1.6.convs.1.bias",
        "reshape": "<1x42x1x1x1>",
        "shape": [
          1,
          42,
          1,
          1
        ],
        "slice": "[0:1, 0:42, 0:1, 0:1, 0:1]",
        "type": "tensor<1x42x1x1xf32>"
      }
    ],
    "buffers": []
  },
  {
    "file-line": 103,
    "subnet_id": 0,
    "core_id": 0,
    "opcode": "tpu.Conv2D",
    "is_local": true,
    "tiu_dma_id(before)": [
      20,
      43
    ],
    "tiu_dma_id(after)": [
      21,
      43
    ],
    "operands": [
      {
        "address": 0,
        "layout": "eu_align",
        "memory_type": "<1x36x32x32xf16>",
        "name": "103_Conv",
        "reshape": "<1x36x1x32x32>",
        "shape": [
          1,
          36,
          32,
          32
        ],
        "slice": "[0:1, 0:36, 0:1, 0:32, 0:32]",
        "type": "tensor<1x36x32x32xf16>"
      },
      {
        "address": 49664,
        "layout": "compact",
        "memory_type": "<1x42x1x64xf16>",
        "name": "load_104_Conv_filter_reorderd",
        "reshape": "<1x42x1x1x64>",
        "shape": [
          1,
          42,
          1,
          64
        ],
        "slice": "[0:1, 0:42, 0:1, 0:1, 0:64]",
        "type": "tensor<1x42x1x64xf16>"
      },
      {
        "address": 65536,
        "layout": "compact",
        "memory_type": "<1x42x1x1xf32>",
        "name": "load_blaze_face.backbone1.6.convs.1.bias",
        "reshape": "<1x42x1x1x1>",
        "shape": [
          1,
          42,
          1,
          1
        ],
        "slice": "[0:1, 0:42, 0:1, 0:1, 0:1]",
        "type": "tensor<1x42x1x1xf32>"
      }
    ],
    "results": [
      {
        "address": 16384,
        "layout": "eu_align",
        "memory_type": "<1x42x32x32xf16>",
        "name": "104_Conv",
        "reshape": "<1x42x1x32x32>",
        "shape": [
          1,
          42,
          32,
          32
        ],
        "slice": "[0:1, 0:42, 0:1, 0:32, 0:32]",
        "type": "tensor<1x42x32x32xf16>"
      }
    ],
    "buffers": []
  },
  {
    "file-line": 102,
    "subnet_id": 0,
    "core_id": 0,
    "opcode": "tpu.Load",
    "is_local": true,
    "tiu_dma_id(before)": [
      20,
      43
    ],
    "tiu_dma_id(after)": [
      20,
      44
    ],
    "operands": [
      {
        "address": 33438467907584,
        "layout": "continuous",
        "memory_type": "<1x42x32x32xf16>",
        "name": "102_Pad",
        "reshape": "<1x42x1x32x32>",
        "shape": [
          1,
          42,
          32,
          32
        ],
        "slice": "[0:1, 0:42, 0:1, 0:32, 0:32]",
        "type": "tensor<1x42x32x32xf16, 33438467907584 : i64>"
      }
    ],
    "results": [
      {
        "address": 32768,
        "layout": "eu_align",
        "memory_type": "<1x42x32x32xf16>",
        "name": "load_102_Pad",
        "reshape": "<1x42x1x32x32>",
        "shape": [
          1,
          42,
          32,
          32
        ],
        "slice": "[0:1, 0:42, 0:1, 0:32, 0:32]",
        "type": "tensor<1x42x32x32xf16>"
      }
    ],
    "buffers": []
  },
  {
    "file-line": 104,
    "subnet_id": 0,
    "core_id": 0,
    "opcode": "tpu.Add",
    "is_local": true,
    "tiu_dma_id(before)": [
      21,
      44
    ],
    "tiu_dma_id(after)": [
      23,
      44
    ],
    "operands": [
      {
        "address": 16384,
        "layout": "eu_align",
        "memory_type": "<1x42x32x32xf16>",
        "name": "104_Conv",
        "reshape": "<1x42x1x32x32>",
        "shape": [
          1,
          42,
          32,
          32
        ],
        "slice": "[0:1, 0:42, 0:1, 0:32, 0:32]",
        "type": "tensor<1x42x32x32xf16>"
      },
      {
        "address": 32768,
        "layout": "eu_align",
        "memory_type": "<1x42x32x32xf16>",
        "name": "load_102_Pad",
        "reshape": "<1x42x1x32x32>",
        "shape": [
          1,
          42,
          32,
          32
        ],
        "slice": "[0:1, 0:42, 0:1, 0:32, 0:32]",
        "type": "tensor<1x42x32x32xf16>"
      }
    ],
    "results": [
      {
        "address": 0,
        "layout": "eu_align",
        "memory_type": "<1x42x32x32xf16>",
        "name": "106_Relu",
        "reshape": "<1x42x1x32x32>",
        "shape": [
          1,
          42,
          32,
          32
        ],
        "slice": "[0:1, 0:42, 0:1, 0:32, 0:32]",
        "type": "tensor<1x42x32x32xf16>"
      }
    ],
    "buffers": []
  },
  {
    "file-line": 106,
    "subnet_id": 0,
    "core_id": 0,
    "opcode": "tpu.Pool2D",
    "is_local": true,
    "tiu_dma_id(before)": [
      23,
      44
    ],
    "tiu_dma_id(after)": [
      24,
      44
    ],
    "operands": [
      {
        "address": 0,
        "layout": "eu_align",
        "memory_type": "<1x42x32x32xf16>",
        "name": "106_Relu",
        "reshape": "<1x42x1x32x32>",
        "shape": [
          1,
          42,
          32,
          32
        ],
        "slice": "[0:1, 0:42, 0:1, 0:32, 0:32]",
        "type": "tensor<1x42x32x32xf16>"
      }
    ],
    "results": [
      {
        "address": 49152,
        "layout": "eu_align",
        "memory_type": "<1x42x16x16xf16>",
        "name": "108_MaxPool",
        "reshape": "<1x42x1x16x16>",
        "shape": [
          1,
          42,
          16,
          16
        ],
        "slice": "[0:1, 0:42, 0:1, 0:16, 0:16]",
        "type": "tensor<1x42x16x16xf16>"
      }
    ],
    "buffers": []
  },
  {
    "file-line": 105,
    "subnet_id": 0,
    "core_id": 0,
    "opcode": "tpu.Store",
    "is_local": true,
    "tiu_dma_id(before)": [
      23,
      44
    ],
    "tiu_dma_id(after)": [
      23,
      45
    ],
    "operands": [
      {
        "address": 0,
        "layout": "eu_align",
        "memory_type": "<1x42x32x32xf16>",
        "name": "106_Relu",
        "reshape": "<1x42x1x32x32>",
        "shape": [
          1,
          42,
          32,
          32
        ],
        "slice": "[0:1, 0:42, 0:1, 0:32, 0:32]",
        "type": "tensor<1x42x32x32xf16>"
      },
      {}
    ],
    "results": [
      {
        "address": 33438467993600,
        "layout": "continuous",
        "memory_type": "<1x42x32x32xf16>",
        "name": "106_Relu",
        "reshape": "<1x42x1x32x32>",
        "shape": [
          1,
          42,
          32,
          32
        ],
        "slice": "[0:1, 0:42, 0:1, 0:32, 0:32]",
        "type": "tensor<1x42x32x32xf16, 33438467993600 : i64>"
      }
    ],
    "buffers": []
  },
  {
    "file-line": 107,
    "subnet_id": 0,
    "core_id": 0,
    "opcode": "tpu.Store",
    "is_local": true,
    "tiu_dma_id(before)": [
      24,
      45
    ],
    "tiu_dma_id(after)": [
      24,
      46
    ],
    "operands": [
      {
        "address": 49152,
        "layout": "eu_align",
        "memory_type": "<1x42x16x16xf16>",
        "name": "108_MaxPool",
        "reshape": "<1x42x1x16x16>",
        "shape": [
          1,
          42,
          16,
          16
        ],
        "slice": "[0:1, 0:42, 0:1, 0:16, 0:16]",
        "type": "tensor<1x42x16x16xf16>"
      },
      {}
    ],
    "results": [
      {
        "address": 33438467883008,
        "layout": "continuous",
        "memory_type": "<1x42x16x16xf16>",
        "name": "108_MaxPool",
        "reshape": "<1x42x1x16x16>",
        "shape": [
          1,
          42,
          16,
          16
        ],
        "slice": "[0:1, 0:42, 0:1, 0:16, 0:16]",
        "type": "tensor<1x42x16x16xf16, 33438467883008 : i64>"
      }
    ],
    "buffers": []
  },
  {
    "file-line": 110,
    "subnet_id": 0,
    "core_id": 0,
    "opcode": "tpu.Pad",
    "is_local": false,
    "tiu_dma_id(before)": [
      24,
      46
    ],
    "tiu_dma_id(after)": [
      24,
      48
    ],
    "operands": [
      {
        "address": 33438467883008,
        "layout": "continuous",
        "memory_type": "<1x42x16x16xf16>",
        "name": "108_MaxPool",
        "reshape": "",
        "shape": [
          1,
          42,
          16,
          16
        ],
        "slice": "[...]",
        "type": "tensor<1x42x16x16xf16, 33438467883008 : i64>"
      },
      {},
      {},
      {},
      {}
    ],
    "results": [
      {
        "address": 33438467907584,
        "layout": "continuous",
        "memory_type": "<1x48x16x16xf16>",
        "name": "109_Pad",
        "reshape": "",
        "shape": [
          1,
          48,
          16,
          16
        ],
        "slice": "[...]",
        "type": "tensor<1x48x16x16xf16, 33438467907584 : i64>"
      }
    ],
    "buffers": []
  },
  {
    "file-line": 116,
    "subnet_id": 0,
    "core_id": 0,
    "opcode": "tpu.Load",
    "is_local": true,
    "tiu_dma_id(before)": [
      24,
      48
    ],
    "tiu_dma_id(after)": [
      24,
      49
    ],
    "operands": [
      {
        "address": 33438467993600,
        "layout": "continuous",
        "memory_type": "<1x42x32x32xf16>",
        "name": "106_Relu",
        "reshape": "<1x42x1x32x32>",
        "shape": [
          1,
          42,
          32,
          32
        ],
        "slice": "[0:1, 0:42, 0:1, 0:32, 0:32]",
        "type": "tensor<1x42x32x32xf16, 33438467993600 : i64>"
      }
    ],
    "results": [
      {
        "address": 0,
        "layout": "eu_align",
        "memory_type": "<1x42x32x32xf16>",
        "name": "load_106_Relu",
        "reshape": "<1x42x1x32x32>",
        "shape": [
          1,
          42,
          32,
          32
        ],
        "slice": "[0:1, 0:42, 0:1, 0:32, 0:32]",
        "type": "tensor<1x42x32x32xf16>"
      }
    ],
    "buffers": []
  },
  {
    "file-line": 117,
    "subnet_id": 0,
    "core_id": 0,
    "opcode": "tpu.Load",
    "is_local": true,
    "tiu_dma_id(before)": [
      24,
      49
    ],
    "tiu_dma_id(after)": [
      24,
      50
    ],
    "operands": [
      {
        "address": 1099511812096,
        "layout": "continuous",
        "memory_type": "<1x42x3x3xf16>",
        "name": "110_Convblaze_face.backbone1.7.convs.0.weight_f16",
        "reshape": "<1x42x1x3x3>",
        "shape": [
          1,
          42,
          3,
          3
        ],
        "slice": "[0:1, 0:42, 0:1, 0:3, 0:3]",
        "type": "tensor<1x42x3x3xf16, 1099511812096 : i64>"
      }
    ],
    "results": [
      {
        "address": 81920,
        "layout": "compact",
        "memory_type": "<1x42x3x3xf16>",
        "name": "load_110_Convblaze_face.backbone1.7.convs.0.weight_f16",
        "reshape": "<1x42x1x3x3>",
        "shape": [
          1,
          42,
          3,
          3
        ],
        "slice": "[0:1, 0:42, 0:1, 0:3, 0:3]",
        "type": "tensor<1x42x3x3xf16>"
      }
    ],
    "buffers": []
  },
  {
    "file-line": 118,
    "subnet_id": 0,
    "core_id": 0,
    "opcode": "tpu.Load",
    "is_local": true,
    "tiu_dma_id(before)": [
      24,
      50
    ],
    "tiu_dma_id(after)": [
      24,
      51
    ],
    "operands": [
      {
        "address": 1099511816192,
        "layout": "continuous",
        "memory_type": "<1x42x1x1xf16>",
        "name": "110_Conv_reordered",
        "reshape": "<1x42x1x1x1>",
        "shape": [
          1,
          42,
          1,
          1
        ],
        "slice": "[0:1, 0:42, 0:1, 0:1, 0:1]",
        "type": "tensor<1x42x1x1xf16, 1099511816192 : i64>"
      }
    ],
    "results": [
      {
        "address": 114688,
        "layout": "compact",
        "memory_type": "<1x42x1x1xf16>",
        "name": "load_110_Conv_reordered",
        "reshape": "<1x42x1x1x1>",
        "shape": [
          1,
          42,
          1,
          1
        ],
        "slice": "[0:1, 0:42, 0:1, 0:1, 0:1]",
        "type": "tensor<1x42x1x1xf16>"
      }
    ],
    "buffers": []
  },
  {
    "file-line": 121,
    "subnet_id": 0,
    "core_id": 0,
    "opcode": "tpu.Conv2D",
    "is_local": true,
    "tiu_dma_id(before)": [
      24,
      51
    ],
    "tiu_dma_id(after)": [
      25,
      51
    ],
    "operands": [
      {
        "address": 0,
        "layout": "eu_align",
        "memory_type": "<1x42x32x32xf16>",
        "name": "load_106_Relu",
        "reshape": "<1x42x1x32x32>",
        "shape": [
          1,
          42,
          32,
          32
        ],
        "slice": "[0:1, 0:42, 0:1, 0:32, 0:32]",
        "type": "tensor<1x42x32x32xf16>"
      },
      {
        "address": 81920,
        "layout": "compact",
        "memory_type": "<1x42x3x3xf16>",
        "name": "load_110_Convblaze_face.backbone1.7.convs.0.weight_f16",
        "reshape": "<1x42x1x3x3>",
        "shape": [
          1,
          42,
          3,
          3
        ],
        "slice": "[0:1, 0:42, 0:1, 0:3, 0:3]",
        "type": "tensor<1x42x3x3xf16>"
      },
      {
        "address": 114688,
        "layout": "compact",
        "memory_type": "<1x42x1x1xf16>",
        "name": "load_110_Conv_reordered",
        "reshape": "<1x42x1x1x1>",
        "shape": [
          1,
          42,
          1,
          1
        ],
        "slice": "[0:1, 0:42, 0:1, 0:1, 0:1]",
        "type": "tensor<1x42x1x1xf16>"
      }
    ],
    "results": [
      {
        "address": 16384,
        "layout": "eu_align",
        "memory_type": "<1x42x16x16xf16>",
        "name": "110_Conv",
        "reshape": "<1x42x1x16x16>",
        "shape": [
          1,
          42,
          16,
          16
        ],
        "slice": "[0:1, 0:42, 0:1, 0:16, 0:16]",
        "type": "tensor<1x42x16x16xf16>"
      }
    ],
    "buffers": [
      {
        "address": 32768,
        "size": 3085
      }
    ]
  },
  {
    "file-line": 119,
    "subnet_id": 0,
    "core_id": 0,
    "opcode": "tpu.Load",
    "is_local": true,
    "tiu_dma_id(before)": [
      24,
      51
    ],
    "tiu_dma_id(after)": [
      24,
      52
    ],
    "operands": [
      {
        "address": 1099511824384,
        "layout": "continuous",
        "memory_type": "<1x48x1x64xf16>",
        "name": "111_Conv_filter_reorderd",
        "reshape": "<1x48x1x1x64>",
        "shape": [
          1,
          48,
          1,
          64
        ],
        "slice": "[0:1, 0:48, 0:1, 0:1, 0:64]",
        "type": "tensor<1x48x1x64xf16, 1099511824384 : i64>"
      }
    ],
    "results": [
      {
        "address": 66048,
        "layout": "compact",
        "memory_type": "<1x48x1x64xf16>",
        "name": "load_111_Conv_filter_reorderd",
        "reshape": "<1x48x1x1x64>",
        "shape": [
          1,
          48,
          1,
          64
        ],
        "slice": "[0:1, 0:48, 0:1, 0:1, 0:64]",
        "type": "tensor<1x48x1x64xf16>"
      }
    ],
    "buffers": []
  },
  {
    "file-line": 120,
    "subnet_id": 0,
    "core_id": 0,
    "opcode": "tpu.Load",
    "is_local": true,
    "tiu_dma_id(before)": [
      24,
      52
    ],
    "tiu_dma_id(after)": [
      24,
      53
    ],
    "operands": [
      {
        "address": 1099511820288,
        "layout": "continuous",
        "memory_type": "<1x48x1x1xf32>",
        "name": "blaze_face.backbone1.7.convs.1.bias",
        "reshape": "<1x48x1x1x1>",
        "shape": [
          1,
          48,
          1,
          1
        ],
        "slice": "[0:1, 0:48, 0:1, 0:1, 0:1]",
        "type": "tensor<1x48x1x1xf32, 1099511820288 : i64>"
      }
    ],
    "results": [
      {
        "address": 98304,
        "layout": "compact",
        "memory_type": "<1x48x1x1xf32>",
        "name": "load_blaze_face.backbone1.7.convs.1.bias",
        "reshape": "<1x48x1x1x1>",
        "shape": [
          1,
          48,
          1,
          1
        ],
        "slice": "[0:1, 0:48, 0:1, 0:1, 0:1]",
        "type": "tensor<1x48x1x1xf32>"
      }
    ],
    "buffers": []
  },
  {
    "file-line": 123,
    "subnet_id": 0,
    "core_id": 0,
    "opcode": "tpu.Conv2D",
    "is_local": true,
    "tiu_dma_id(before)": [
      25,
      53
    ],
    "tiu_dma_id(after)": [
      26,
      53
    ],
    "operands": [
      {
        "address": 16384,
        "layout": "eu_align",
        "memory_type": "<1x42x16x16xf16>",
        "name": "110_Conv",
        "reshape": "<1x42x1x16x16>",
        "shape": [
          1,
          42,
          16,
          16
        ],
        "slice": "[0:1, 0:42, 0:1, 0:16, 0:16]",
        "type": "tensor<1x42x16x16xf16>"
      },
      {
        "address": 66048,
        "layout": "compact",
        "memory_type": "<1x48x1x64xf16>",
        "name": "load_111_Conv_filter_reorderd",
        "reshape": "<1x48x1x1x64>",
        "shape": [
          1,
          48,
          1,
          64
        ],
        "slice": "[0:1, 0:48, 0:1, 0:1, 0:64]",
        "type": "tensor<1x48x1x64xf16>"
      },
      {
        "address": 98304,
        "layout": "compact",
        "memory_type": "<1x48x1x1xf32>",
        "name": "load_blaze_face.backbone1.7.convs.1.bias",
        "reshape": "<1x48x1x1x1>",
        "shape": [
          1,
          48,
          1,
          1
        ],
        "slice": "[0:1, 0:48, 0:1, 0:1, 0:1]",
        "type": "tensor<1x48x1x1xf32>"
      }
    ],
    "results": [
      {
        "address": 32768,
        "layout": "eu_align",
        "memory_type": "<1x48x16x16xf16>",
        "name": "111_Conv",
        "reshape": "<1x48x1x16x16>",
        "shape": [
          1,
          48,
          16,
          16
        ],
        "slice": "[0:1, 0:48, 0:1, 0:16, 0:16]",
        "type": "tensor<1x48x16x16xf16>"
      }
    ],
    "buffers": []
  },
  {
    "file-line": 122,
    "subnet_id": 0,
    "core_id": 0,
    "opcode": "tpu.Load",
    "is_local": true,
    "tiu_dma_id(before)": [
      25,
      53
    ],
    "tiu_dma_id(after)": [
      25,
      54
    ],
    "operands": [
      {
        "address": 33438467907584,
        "layout": "continuous",
        "memory_type": "<1x48x16x16xf16>",
        "name": "109_Pad",
        "reshape": "<1x48x1x16x16>",
        "shape": [
          1,
          48,
          16,
          16
        ],
        "slice": "[0:1, 0:48, 0:1, 0:16, 0:16]",
        "type": "tensor<1x48x16x16xf16, 33438467907584 : i64>"
      }
    ],
    "results": [
      {
        "address": 49152,
        "layout": "eu_align",
        "memory_type": "<1x48x16x16xf16>",
        "name": "load_109_Pad",
        "reshape": "<1x48x1x16x16>",
        "shape": [
          1,
          48,
          16,
          16
        ],
        "slice": "[0:1, 0:48, 0:1, 0:16, 0:16]",
        "type": "tensor<1x48x16x16xf16>"
      }
    ],
    "buffers": []
  },
  {
    "file-line": 124,
    "subnet_id": 0,
    "core_id": 0,
    "opcode": "tpu.Add",
    "is_local": true,
    "tiu_dma_id(before)": [
      26,
      54
    ],
    "tiu_dma_id(after)": [
      28,
      54
    ],
    "operands": [
      {
        "address": 32768,
        "layout": "eu_align",
        "memory_type": "<1x48x16x16xf16>",
        "name": "111_Conv",
        "reshape": "<1x48x1x16x16>",
        "shape": [
          1,
          48,
          16,
          16
        ],
        "slice": "[0:1, 0:48, 0:1, 0:16, 0:16]",
        "type": "tensor<1x48x16x16xf16>"
      },
      {
        "address": 49152,
        "layout": "eu_align",
        "memory_type": "<1x48x16x16xf16>",
        "name": "load_109_Pad",
        "reshape": "<1x48x1x16x16>",
        "shape": [
          1,
          48,
          16,
          16
        ],
        "slice": "[0:1, 0:48, 0:1, 0:16, 0:16]",
        "type": "tensor<1x48x16x16xf16>"
      }
    ],
    "results": [
      {
        "address": 65536,
        "layout": "eu_align",
        "memory_type": "<1x48x16x16xf16>",
        "name": "113_Relu",
        "reshape": "<1x48x1x16x16>",
        "shape": [
          1,
          48,
          16,
          16
        ],
        "slice": "[0:1, 0:48, 0:1, 0:16, 0:16]",
        "type": "tensor<1x48x16x16xf16>"
      }
    ],
    "buffers": []
  },
  {
    "file-line": 125,
    "subnet_id": 0,
    "core_id": 0,
    "opcode": "tpu.Store",
    "is_local": true,
    "tiu_dma_id(before)": [
      28,
      54
    ],
    "tiu_dma_id(after)": [
      28,
      55
    ],
    "operands": [
      {
        "address": 65536,
        "layout": "eu_align",
        "memory_type": "<1x48x16x16xf16>",
        "name": "113_Relu",
        "reshape": "<1x48x1x16x16>",
        "shape": [
          1,
          48,
          16,
          16
        ],
        "slice": "[0:1, 0:48, 0:1, 0:16, 0:16]",
        "type": "tensor<1x48x16x16xf16>"
      },
      {}
    ],
    "results": [
      {
        "address": 33438467944448,
        "layout": "continuous",
        "memory_type": "<1x48x16x16xf16>",
        "name": "113_Relu",
        "reshape": "<1x48x1x16x16>",
        "shape": [
          1,
          48,
          16,
          16
        ],
        "slice": "[0:1, 0:48, 0:1, 0:16, 0:16]",
        "type": "tensor<1x48x16x16xf16, 33438467944448 : i64>"
      }
    ],
    "buffers": []
  },
  {
    "file-line": 128,
    "subnet_id": 0,
    "core_id": 0,
    "opcode": "tpu.Pad",
    "is_local": false,
    "tiu_dma_id(before)": [
      28,
      55
    ],
    "tiu_dma_id(after)": [
      28,
      57
    ],
    "operands": [
      {
        "address": 33438467944448,
        "layout": "continuous",
        "memory_type": "<1x48x16x16xf16>",
        "name": "113_Relu",
        "reshape": "",
        "shape": [
          1,
          48,
          16,
          16
        ],
        "slice": "[...]",
        "type": "tensor<1x48x16x16xf16, 33438467944448 : i64>"
      },
      {},
      {},
      {},
      {}
    ],
    "results": [
      {
        "address": 33438467883008,
        "layout": "continuous",
        "memory_type": "<1x56x16x16xf16>",
        "name": "114_Pad",
        "reshape": "",
        "shape": [
          1,
          56,
          16,
          16
        ],
        "slice": "[...]",
        "type": "tensor<1x56x16x16xf16, 33438467883008 : i64>"
      }
    ],
    "buffers": []
  },
  {
    "file-line": 134,
    "subnet_id": 0,
    "core_id": 0,
    "opcode": "tpu.Load",
    "is_local": true,
    "tiu_dma_id(before)": [
      28,
      57
    ],
    "tiu_dma_id(after)": [
      28,
      58
    ],
    "operands": [
      {
        "address": 33438467944448,
        "layout": "continuous",
        "memory_type": "<1x48x16x16xf16>",
        "name": "113_Relu",
        "reshape": "<1x48x1x16x16>",
        "shape": [
          1,
          48,
          16,
          16
        ],
        "slice": "[0:1, 0:48, 0:1, 0:16, 0:16]",
        "type": "tensor<1x48x16x16xf16, 33438467944448 : i64>"
      }
    ],
    "results": [
      {
        "address": 49152,
        "layout": "eu_align",
        "memory_type": "<1x48x16x16xf16>",
        "name": "load_113_Relu",
        "reshape": "<1x48x1x16x16>",
        "shape": [
          1,
          48,
          16,
          16
        ],
        "slice": "[0:1, 0:48, 0:1, 0:16, 0:16]",
        "type": "tensor<1x48x16x16xf16>"
      }
    ],
    "buffers": []
  },
  {
    "file-line": 135,
    "subnet_id": 0,
    "core_id": 0,
    "opcode": "tpu.Load",
    "is_local": true,
    "tiu_dma_id(before)": [
      28,
      58
    ],
    "tiu_dma_id(after)": [
      28,
      59
    ],
    "operands": [
      {
        "address": 1099511832576,
        "layout": "continuous",
        "memory_type": "<1x48x3x3xf16>",
        "name": "115_Convblaze_face.backbone1.8.convs.0.weight_f16",
        "reshape": "<1x48x1x3x3>",
        "shape": [
          1,
          48,
          3,
          3
        ],
        "slice": "[0:1, 0:48, 0:1, 0:3, 0:3]",
        "type": "tensor<1x48x3x3xf16, 1099511832576 : i64>"
      }
    ],
    "results": [
      {
        "address": 81920,
        "layout": "compact",
        "memory_type": "<1x48x3x3xf16>",
        "name": "load_115_Convblaze_face.backbone1.8.convs.0.weight_f16",
        "reshape": "<1x48x1x3x3>",
        "shape": [
          1,
          48,
          3,
          3
        ],
        "slice": "[0:1, 0:48, 0:1, 0:3, 0:3]",
        "type": "tensor<1x48x3x3xf16>"
      }
    ],
    "buffers": []
  },
  {
    "file-line": 136,
    "subnet_id": 0,
    "core_id": 0,
    "opcode": "tpu.Load",
    "is_local": true,
    "tiu_dma_id(before)": [
      28,
      59
    ],
    "tiu_dma_id(after)": [
      28,
      60
    ],
    "operands": [
      {
        "address": 1099511836672,
        "layout": "continuous",
        "memory_type": "<1x48x1x1xf16>",
        "name": "115_Conv_reordered",
        "reshape": "<1x48x1x1x1>",
        "shape": [
          1,
          48,
          1,
          1
        ],
        "slice": "[0:1, 0:48, 0:1, 0:1, 0:1]",
        "type": "tensor<1x48x1x1xf16, 1099511836672 : i64>"
      }
    ],
    "results": [
      {
        "address": 114688,
        "layout": "compact",
        "memory_type": "<1x48x1x1xf16>",
        "name": "load_115_Conv_reordered",
        "reshape": "<1x48x1x1x1>",
        "shape": [
          1,
          48,
          1,
          1
        ],
        "slice": "[0:1, 0:48, 0:1, 0:1, 0:1]",
        "type": "tensor<1x48x1x1xf16>"
      }
    ],
    "buffers": []
  },
  {
    "file-line": 139,
    "subnet_id": 0,
    "core_id": 0,
    "opcode": "tpu.Conv2D",
    "is_local": true,
    "tiu_dma_id(before)": [
      28,
      60
    ],
    "tiu_dma_id(after)": [
      29,
      60
    ],
    "operands": [
      {
        "address": 49152,
        "layout": "eu_align",
        "memory_type": "<1x48x16x16xf16>",
        "name": "load_113_Relu",
        "reshape": "<1x48x1x16x16>",
        "shape": [
          1,
          48,
          16,
          16
        ],
        "slice": "[0:1, 0:48, 0:1, 0:16, 0:16]",
        "type": "tensor<1x48x16x16xf16>"
      },
      {
        "address": 81920,
        "layout": "compact",
        "memory_type": "<1x48x3x3xf16>",
        "name": "load_115_Convblaze_face.backbone1.8.convs.0.weight_f16",
        "reshape": "<1x48x1x3x3>",
        "shape": [
          1,
          48,
          3,
          3
        ],
        "slice": "[0:1, 0:48, 0:1, 0:3, 0:3]",
        "type": "tensor<1x48x3x3xf16>"
      },
      {
        "address": 114688,
        "layout": "compact",
        "memory_type": "<1x48x1x1xf16>",
        "name": "load_115_Conv_reordered",
        "reshape": "<1x48x1x1x1>",
        "shape": [
          1,
          48,
          1,
          1
        ],
        "slice": "[0:1, 0:48, 0:1, 0:1, 0:1]",
        "type": "tensor<1x48x1x1xf16>"
      }
    ],
    "results": [
      {
        "address": 0,
        "layout": "eu_align",
        "memory_type": "<1x48x16x16xf16>",
        "name": "115_Conv",
        "reshape": "<1x48x1x16x16>",
        "shape": [
          1,
          48,
          16,
          16
        ],
        "slice": "[0:1, 0:48, 0:1, 0:16, 0:16]",
        "type": "tensor<1x48x16x16xf16>"
      }
    ],
    "buffers": [
      {
        "address": 16384,
        "size": 1549
      }
    ]
  },
  {
    "file-line": 137,
    "subnet_id": 0,
    "core_id": 0,
    "opcode": "tpu.Load",
    "is_local": true,
    "tiu_dma_id(before)": [
      28,
      60
    ],
    "tiu_dma_id(after)": [
      28,
      61
    ],
    "operands": [
      {
        "address": 1099511844864,
        "layout": "continuous",
        "memory_type": "<1x56x1x64xf16>",
        "name": "116_Conv_filter_reorderd",
        "reshape": "<1x56x1x1x64>",
        "shape": [
          1,
          56,
          1,
          64
        ],
        "slice": "[0:1, 0:56, 0:1, 0:1, 0:64]",
        "type": "tensor<1x56x1x64xf16, 1099511844864 : i64>"
      }
    ],
    "results": [
      {
        "address": 66048,
        "layout": "compact",
        "memory_type": "<1x56x1x64xf16>",
        "name": "load_116_Conv_filter_reorderd",
        "reshape": "<1x56x1x1x64>",
        "shape": [
          1,
          56,
          1,
          64
        ],
        "slice": "[0:1, 0:56, 0:1, 0:1, 0:64]",
        "type": "tensor<1x56x1x64xf16>"
      }
    ],
    "buffers": []
  },
  {
    "file-line": 138,
    "subnet_id": 0,
    "core_id": 0,
    "opcode": "tpu.Load",
    "is_local": true,
    "tiu_dma_id(before)": [
      28,
      61
    ],
    "tiu_dma_id(after)": [
      28,
      62
    ],
    "operands": [
      {
        "address": 1099511840768,
        "layout": "continuous",
        "memory_type": "<1x56x1x1xf32>",
        "name": "blaze_face.backbone1.8.convs.1.bias",
        "reshape": "<1x56x1x1x1>",
        "shape": [
          1,
          56,
          1,
          1
        ],
        "slice": "[0:1, 0:56, 0:1, 0:1, 0:1]",
        "type": "tensor<1x56x1x1xf32, 1099511840768 : i64>"
      }
    ],
    "results": [
      {
        "address": 98304,
        "layout": "compact",
        "memory_type": "<1x56x1x1xf32>",
        "name": "load_blaze_face.backbone1.8.convs.1.bias",
        "reshape": "<1x56x1x1x1>",
        "shape": [
          1,
          56,
          1,
          1
        ],
        "slice": "[0:1, 0:56, 0:1, 0:1, 0:1]",
        "type": "tensor<1x56x1x1xf32>"
      }
    ],
    "buffers": []
  },
  {
    "file-line": 141,
    "subnet_id": 0,
    "core_id": 0,
    "opcode": "tpu.Conv2D",
    "is_local": true,
    "tiu_dma_id(before)": [
      29,
      62
    ],
    "tiu_dma_id(after)": [
      30,
      62
    ],
    "operands": [
      {
        "address": 0,
        "layout": "eu_align",
        "memory_type": "<1x48x16x16xf16>",
        "name": "115_Conv",
        "reshape": "<1x48x1x16x16>",
        "shape": [
          1,
          48,
          16,
          16
        ],
        "slice": "[0:1, 0:48, 0:1, 0:16, 0:16]",
        "type": "tensor<1x48x16x16xf16>"
      },
      {
        "address": 66048,
        "layout": "compact",
        "memory_type": "<1x56x1x64xf16>",
        "name": "load_116_Conv_filter_reorderd",
        "reshape": "<1x56x1x1x64>",
        "shape": [
          1,
          56,
          1,
          64
        ],
        "slice": "[0:1, 0:56, 0:1, 0:1, 0:64]",
        "type": "tensor<1x56x1x64xf16>"
      },
      {
        "address": 98304,
        "layout": "compact",
        "memory_type": "<1x56x1x1xf32>",
        "name": "load_blaze_face.backbone1.8.convs.1.bias",
        "reshape": "<1x56x1x1x1>",
        "shape": [
          1,
          56,
          1,
          1
        ],
        "slice": "[0:1, 0:56, 0:1, 0:1, 0:1]",
        "type": "tensor<1x56x1x1xf32>"
      }
    ],
    "results": [
      {
        "address": 16384,
        "layout": "eu_align",
        "memory_type": "<1x56x16x16xf16>",
        "name": "116_Conv",
        "reshape": "<1x56x1x16x16>",
        "shape": [
          1,
          56,
          16,
          16
        ],
        "slice": "[0:1, 0:56, 0:1, 0:16, 0:16]",
        "type": "tensor<1x56x16x16xf16>"
      }
    ],
    "buffers": []
  },
  {
    "file-line": 140,
    "subnet_id": 0,
    "core_id": 0,
    "opcode": "tpu.Load",
    "is_local": true,
    "tiu_dma_id(before)": [
      29,
      62
    ],
    "tiu_dma_id(after)": [
      29,
      63
    ],
    "operands": [
      {
        "address": 33438467883008,
        "layout": "continuous",
        "memory_type": "<1x56x16x16xf16>",
        "name": "114_Pad",
        "reshape": "<1x56x1x16x16>",
        "shape": [
          1,
          56,
          16,
          16
        ],
        "slice": "[0:1, 0:56, 0:1, 0:16, 0:16]",
        "type": "tensor<1x56x16x16xf16, 33438467883008 : i64>"
      }
    ],
    "results": [
      {
        "address": 32768,
        "layout": "eu_align",
        "memory_type": "<1x56x16x16xf16>",
        "name": "load_114_Pad",
        "reshape": "<1x56x1x16x16>",
        "shape": [
          1,
          56,
          16,
          16
        ],
        "slice": "[0:1, 0:56, 0:1, 0:16, 0:16]",
        "type": "tensor<1x56x16x16xf16>"
      }
    ],
    "buffers": []
  },
  {
    "file-line": 142,
    "subnet_id": 0,
    "core_id": 0,
    "opcode": "tpu.Add",
    "is_local": true,
    "tiu_dma_id(before)": [
      30,
      63
    ],
    "tiu_dma_id(after)": [
      32,
      63
    ],
    "operands": [
      {
        "address": 16384,
        "layout": "eu_align",
        "memory_type": "<1x56x16x16xf16>",
        "name": "116_Conv",
        "reshape": "<1x56x1x16x16>",
        "shape": [
          1,
          56,
          16,
          16
        ],
        "slice": "[0:1, 0:56, 0:1, 0:16, 0:16]",
        "type": "tensor<1x56x16x16xf16>"
      },
      {
        "address": 32768,
        "layout": "eu_align",
        "memory_type": "<1x56x16x16xf16>",
        "name": "load_114_Pad",
        "reshape": "<1x56x1x16x16>",
        "shape": [
          1,
          56,
          16,
          16
        ],
        "slice": "[0:1, 0:56, 0:1, 0:16, 0:16]",
        "type": "tensor<1x56x16x16xf16>"
      }
    ],
    "results": [
      {
        "address": 65536,
        "layout": "eu_align",
        "memory_type": "<1x56x16x16xf16>",
        "name": "118_Relu",
        "reshape": "<1x56x1x16x16>",
        "shape": [
          1,
          56,
          16,
          16
        ],
        "slice": "[0:1, 0:56, 0:1, 0:16, 0:16]",
        "type": "tensor<1x56x16x16xf16>"
      }
    ],
    "buffers": []
  },
  {
    "file-line": 143,
    "subnet_id": 0,
    "core_id": 0,
    "opcode": "tpu.Store",
    "is_local": true,
    "tiu_dma_id(before)": [
      32,
      63
    ],
    "tiu_dma_id(after)": [
      32,
      64
    ],
    "operands": [
      {
        "address": 65536,
        "layout": "eu_align",
        "memory_type": "<1x56x16x16xf16>",
        "name": "118_Relu",
        "reshape": "<1x56x1x16x16>",
        "shape": [
          1,
          56,
          16,
          16
        ],
        "slice": "[0:1, 0:56, 0:1, 0:16, 0:16]",
        "type": "tensor<1x56x16x16xf16>"
      },
      {}
    ],
    "results": [
      {
        "address": 33438467915776,
        "layout": "continuous",
        "memory_type": "<1x56x16x16xf16>",
        "name": "118_Relu",
        "reshape": "<1x56x1x16x16>",
        "shape": [
          1,
          56,
          16,
          16
        ],
        "slice": "[0:1, 0:56, 0:1, 0:16, 0:16]",
        "type": "tensor<1x56x16x16xf16, 33438467915776 : i64>"
      }
    ],
    "buffers": []
  },
  {
    "file-line": 146,
    "subnet_id": 0,
    "core_id": 0,
    "opcode": "tpu.Pad",
    "is_local": false,
    "tiu_dma_id(before)": [
      32,
      64
    ],
    "tiu_dma_id(after)": [
      32,
      66
    ],
    "operands": [
      {
        "address": 33438467915776,
        "layout": "continuous",
        "memory_type": "<1x56x16x16xf16>",
        "name": "118_Relu",
        "reshape": "",
        "shape": [
          1,
          56,
          16,
          16
        ],
        "slice": "[...]",
        "type": "tensor<1x56x16x16xf16, 33438467915776 : i64>"
      },
      {},
      {},
      {},
      {}
    ],
    "results": [
      {
        "address": 33438467883008,
        "layout": "continuous",
        "memory_type": "<1x64x16x16xf16>",
        "name": "119_Pad",
        "reshape": "",
        "shape": [
          1,
          64,
          16,
          16
        ],
        "slice": "[...]",
        "type": "tensor<1x64x16x16xf16, 33438467883008 : i64>"
      }
    ],
    "buffers": []
  },
  {
    "file-line": 152,
    "subnet_id": 0,
    "core_id": 0,
    "opcode": "tpu.Load",
    "is_local": true,
    "tiu_dma_id(before)": [
      32,
      66
    ],
    "tiu_dma_id(after)": [
      32,
      67
    ],
    "operands": [
      {
        "address": 33438467915776,
        "layout": "continuous",
        "memory_type": "<1x56x16x16xf16>",
        "name": "118_Relu",
        "reshape": "<1x56x1x16x16>",
        "shape": [
          1,
          56,
          16,
          16
        ],
        "slice": "[0:1, 0:56, 0:1, 0:16, 0:16]",
        "type": "tensor<1x56x16x16xf16, 33438467915776 : i64>"
      }
    ],
    "results": [
      {
        "address": 49152,
        "layout": "eu_align",
        "memory_type": "<1x56x16x16xf16>",
        "name": "load_118_Relu",
        "reshape": "<1x56x1x16x16>",
        "shape": [
          1,
          56,
          16,
          16
        ],
        "slice": "[0:1, 0:56, 0:1, 0:16, 0:16]",
        "type": "tensor<1x56x16x16xf16>"
      }
    ],
    "buffers": []
  },
  {
    "file-line": 153,
    "subnet_id": 0,
    "core_id": 0,
    "opcode": "tpu.Load",
    "is_local": true,
    "tiu_dma_id(before)": [
      32,
      67
    ],
    "tiu_dma_id(after)": [
      32,
      68
    ],
    "operands": [
      {
        "address": 1099511853056,
        "layout": "continuous",
        "memory_type": "<1x56x3x3xf16>",
        "name": "120_Convblaze_face.backbone1.9.convs.0.weight_f16",
        "reshape": "<1x56x1x3x3>",
        "shape": [
          1,
          56,
          3,
          3
        ],
        "slice": "[0:1, 0:56, 0:1, 0:3, 0:3]",
        "type": "tensor<1x56x3x3xf16, 1099511853056 : i64>"
      }
    ],
    "results": [
      {
        "address": 81920,
        "layout": "compact",
        "memory_type": "<1x56x3x3xf16>",
        "name": "load_120_Convblaze_face.backbone1.9.convs.0.weight_f16",
        "reshape": "<1x56x1x3x3>",
        "shape": [
          1,
          56,
          3,
          3
        ],
        "slice": "[0:1, 0:56, 0:1, 0:3, 0:3]",
        "type": "tensor<1x56x3x3xf16>"
      }
    ],
    "buffers": []
  },
  {
    "file-line": 154,
    "subnet_id": 0,
    "core_id": 0,
    "opcode": "tpu.Load",
    "is_local": true,
    "tiu_dma_id(before)": [
      32,
      68
    ],
    "tiu_dma_id(after)": [
      32,
      69
    ],
    "operands": [
      {
        "address": 1099511857152,
        "layout": "continuous",
        "memory_type": "<1x56x1x1xf16>",
        "name": "120_Conv_reordered",
        "reshape": "<1x56x1x1x1>",
        "shape": [
          1,
          56,
          1,
          1
        ],
        "slice": "[0:1, 0:56, 0:1, 0:1, 0:1]",
        "type": "tensor<1x56x1x1xf16, 1099511857152 : i64>"
      }
    ],
    "results": [
      {
        "address": 114688,
        "layout": "compact",
        "memory_type": "<1x56x1x1xf16>",
        "name": "load_120_Conv_reordered",
        "reshape": "<1x56x1x1x1>",
        "shape": [
          1,
          56,
          1,
          1
        ],
        "slice": "[0:1, 0:56, 0:1, 0:1, 0:1]",
        "type": "tensor<1x56x1x1xf16>"
      }
    ],
    "buffers": []
  },
  {
    "file-line": 157,
    "subnet_id": 0,
    "core_id": 0,
    "opcode": "tpu.Conv2D",
    "is_local": true,
    "tiu_dma_id(before)": [
      32,
      69
    ],
    "tiu_dma_id(after)": [
      33,
      69
    ],
    "operands": [
      {
        "address": 49152,
        "layout": "eu_align",
        "memory_type": "<1x56x16x16xf16>",
        "name": "load_118_Relu",
        "reshape": "<1x56x1x16x16>",
        "shape": [
          1,
          56,
          16,
          16
        ],
        "slice": "[0:1, 0:56, 0:1, 0:16, 0:16]",
        "type": "tensor<1x56x16x16xf16>"
      },
      {
        "address": 81920,
        "layout": "compact",
        "memory_type": "<1x56x3x3xf16>",
        "name": "load_120_Convblaze_face.backbone1.9.convs.0.weight_f16",
        "reshape": "<1x56x1x3x3>",
        "shape": [
          1,
          56,
          3,
          3
        ],
        "slice": "[0:1, 0:56, 0:1, 0:3, 0:3]",
        "type": "tensor<1x56x3x3xf16>"
      },
      {
        "address": 114688,
        "layout": "compact",
        "memory_type": "<1x56x1x1xf16>",
        "name": "load_120_Conv_reordered",
        "reshape": "<1x56x1x1x1>",
        "shape": [
          1,
          56,
          1,
          1
        ],
        "slice": "[0:1, 0:56, 0:1, 0:1, 0:1]",
        "type": "tensor<1x56x1x1xf16>"
      }
    ],
    "results": [
      {
        "address": 0,
        "layout": "eu_align",
        "memory_type": "<1x56x16x16xf16>",
        "name": "120_Conv",
        "reshape": "<1x56x1x16x16>",
        "shape": [
          1,
          56,
          16,
          16
        ],
        "slice": "[0:1, 0:56, 0:1, 0:16, 0:16]",
        "type": "tensor<1x56x16x16xf16>"
      }
    ],
    "buffers": [
      {
        "address": 16384,
        "size": 1549
      }
    ]
  },
  {
    "file-line": 155,
    "subnet_id": 0,
    "core_id": 0,
    "opcode": "tpu.Load",
    "is_local": true,
    "tiu_dma_id(before)": [
      32,
      69
    ],
    "tiu_dma_id(after)": [
      32,
      70
    ],
    "operands": [
      {
        "address": 1099511865344,
        "layout": "continuous",
        "memory_type": "<1x64x1x64xf16>",
        "name": "121_Conv_filter_reorderd",
        "reshape": "<1x64x1x1x64>",
        "shape": [
          1,
          64,
          1,
          64
        ],
        "slice": "[0:1, 0:64, 0:1, 0:1, 0:64]",
        "type": "tensor<1x64x1x64xf16, 1099511865344 : i64>"
      }
    ],
    "results": [
      {
        "address": 66048,
        "layout": "compact",
        "memory_type": "<1x64x1x64xf16>",
        "name": "load_121_Conv_filter_reorderd",
        "reshape": "<1x64x1x1x64>",
        "shape": [
          1,
          64,
          1,
          64
        ],
        "slice": "[0:1, 0:64, 0:1, 0:1, 0:64]",
        "type": "tensor<1x64x1x64xf16>"
      }
    ],
    "buffers": []
  },
  {
    "file-line": 156,
    "subnet_id": 0,
    "core_id": 0,
    "opcode": "tpu.Load",
    "is_local": true,
    "tiu_dma_id(before)": [
      32,
      70
    ],
    "tiu_dma_id(after)": [
      32,
      71
    ],
    "operands": [
      {
        "address": 1099511861248,
        "layout": "continuous",
        "memory_type": "<1x64x1x1xf32>",
        "name": "blaze_face.backbone1.9.convs.1.bias",
        "reshape": "<1x64x1x1x1>",
        "shape": [
          1,
          64,
          1,
          1
        ],
        "slice": "[0:1, 0:64, 0:1, 0:1, 0:1]",
        "type": "tensor<1x64x1x1xf32, 1099511861248 : i64>"
      }
    ],
    "results": [
      {
        "address": 98304,
        "layout": "compact",
        "memory_type": "<1x64x1x1xf32>",
        "name": "load_blaze_face.backbone1.9.convs.1.bias",
        "reshape": "<1x64x1x1x1>",
        "shape": [
          1,
          64,
          1,
          1
        ],
        "slice": "[0:1, 0:64, 0:1, 0:1, 0:1]",
        "type": "tensor<1x64x1x1xf32>"
      }
    ],
    "buffers": []
  },
  {
    "file-line": 159,
    "subnet_id": 0,
    "core_id": 0,
    "opcode": "tpu.Conv2D",
    "is_local": true,
    "tiu_dma_id(before)": [
      33,
      71
    ],
    "tiu_dma_id(after)": [
      34,
      71
    ],
    "operands": [
      {
        "address": 0,
        "layout": "eu_align",
        "memory_type": "<1x56x16x16xf16>",
        "name": "120_Conv",
        "reshape": "<1x56x1x16x16>",
        "shape": [
          1,
          56,
          16,
          16
        ],
        "slice": "[0:1, 0:56, 0:1, 0:16, 0:16]",
        "type": "tensor<1x56x16x16xf16>"
      },
      {
        "address": 66048,
        "layout": "compact",
        "memory_type": "<1x64x1x64xf16>",
        "name": "load_121_Conv_filter_reorderd",
        "reshape": "<1x64x1x1x64>",
        "shape": [
          1,
          64,
          1,
          64
        ],
        "slice": "[0:1, 0:64, 0:1, 0:1, 0:64]",
        "type": "tensor<1x64x1x64xf16>"
      },
      {
        "address": 98304,
        "layout": "compact",
        "memory_type": "<1x64x1x1xf32>",
        "name": "load_blaze_face.backbone1.9.convs.1.bias",
        "reshape": "<1x64x1x1x1>",
        "shape": [
          1,
          64,
          1,
          1
        ],
        "slice": "[0:1, 0:64, 0:1, 0:1, 0:1]",
        "type": "tensor<1x64x1x1xf32>"
      }
    ],
    "results": [
      {
        "address": 16384,
        "layout": "eu_align",
        "memory_type": "<1x64x16x16xf16>",
        "name": "121_Conv",
        "reshape": "<1x64x1x16x16>",
        "shape": [
          1,
          64,
          16,
          16
        ],
        "slice": "[0:1, 0:64, 0:1, 0:16, 0:16]",
        "type": "tensor<1x64x16x16xf16>"
      }
    ],
    "buffers": []
  },
  {
    "file-line": 158,
    "subnet_id": 0,
    "core_id": 0,
    "opcode": "tpu.Load",
    "is_local": true,
    "tiu_dma_id(before)": [
      33,
      71
    ],
    "tiu_dma_id(after)": [
      33,
      72
    ],
    "operands": [
      {
        "address": 33438467883008,
        "layout": "continuous",
        "memory_type": "<1x64x16x16xf16>",
        "name": "119_Pad",
        "reshape": "<1x64x1x16x16>",
        "shape": [
          1,
          64,
          16,
          16
        ],
        "slice": "[0:1, 0:64, 0:1, 0:16, 0:16]",
        "type": "tensor<1x64x16x16xf16, 33438467883008 : i64>"
      }
    ],
    "results": [
      {
        "address": 32768,
        "layout": "eu_align",
        "memory_type": "<1x64x16x16xf16>",
        "name": "load_119_Pad",
        "reshape": "<1x64x1x16x16>",
        "shape": [
          1,
          64,
          16,
          16
        ],
        "slice": "[0:1, 0:64, 0:1, 0:16, 0:16]",
        "type": "tensor<1x64x16x16xf16>"
      }
    ],
    "buffers": []
  },
  {
    "file-line": 160,
    "subnet_id": 0,
    "core_id": 0,
    "opcode": "tpu.Add",
    "is_local": true,
    "tiu_dma_id(before)": [
      34,
      72
    ],
    "tiu_dma_id(after)": [
      36,
      72
    ],
    "operands": [
      {
        "address": 16384,
        "layout": "eu_align",
        "memory_type": "<1x64x16x16xf16>",
        "name": "121_Conv",
        "reshape": "<1x64x1x16x16>",
        "shape": [
          1,
          64,
          16,
          16
        ],
        "slice": "[0:1, 0:64, 0:1, 0:16, 0:16]",
        "type": "tensor<1x64x16x16xf16>"
      },
      {
        "address": 32768,
        "layout": "eu_align",
        "memory_type": "<1x64x16x16xf16>",
        "name": "load_119_Pad",
        "reshape": "<1x64x1x16x16>",
        "shape": [
          1,
          64,
          16,
          16
        ],
        "slice": "[0:1, 0:64, 0:1, 0:16, 0:16]",
        "type": "tensor<1x64x16x16xf16>"
      }
    ],
    "results": [
      {
        "address": 65536,
        "layout": "eu_align",
        "memory_type": "<1x64x16x16xf16>",
        "name": "123_Relu",
        "reshape": "<1x64x1x16x16>",
        "shape": [
          1,
          64,
          16,
          16
        ],
        "slice": "[0:1, 0:64, 0:1, 0:16, 0:16]",
        "type": "tensor<1x64x16x16xf16>"
      }
    ],
    "buffers": []
  },
  {
    "file-line": 161,
    "subnet_id": 0,
    "core_id": 0,
    "opcode": "tpu.Store",
    "is_local": true,
    "tiu_dma_id(before)": [
      36,
      72
    ],
    "tiu_dma_id(after)": [
      36,
      73
    ],
    "operands": [
      {
        "address": 65536,
        "layout": "eu_align",
        "memory_type": "<1x64x16x16xf16>",
        "name": "123_Relu",
        "reshape": "<1x64x1x16x16>",
        "shape": [
          1,
          64,
          16,
          16
        ],
        "slice": "[0:1, 0:64, 0:1, 0:16, 0:16]",
        "type": "tensor<1x64x16x16xf16>"
      },
      {}
    ],
    "results": [
      {
        "address": 33438467960832,
        "layout": "continuous",
        "memory_type": "<1x64x16x16xf16>",
        "name": "123_Relu",
        "reshape": "<1x64x1x16x16>",
        "shape": [
          1,
          64,
          16,
          16
        ],
        "slice": "[0:1, 0:64, 0:1, 0:16, 0:16]",
        "type": "tensor<1x64x16x16xf16, 33438467960832 : i64>"
      }
    ],
    "buffers": []
  },
  {
    "file-line": 164,
    "subnet_id": 0,
    "core_id": 0,
    "opcode": "tpu.Pad",
    "is_local": false,
    "tiu_dma_id(before)": [
      36,
      73
    ],
    "tiu_dma_id(after)": [
      36,
      75
    ],
    "operands": [
      {
        "address": 33438467960832,
        "layout": "continuous",
        "memory_type": "<1x64x16x16xf16>",
        "name": "123_Relu",
        "reshape": "",
        "shape": [
          1,
          64,
          16,
          16
        ],
        "slice": "[...]",
        "type": "tensor<1x64x16x16xf16, 33438467960832 : i64>"
      },
      {},
      {},
      {},
      {}
    ],
    "results": [
      {
        "address": 33438467883008,
        "layout": "continuous",
        "memory_type": "<1x72x16x16xf16>",
        "name": "124_Pad",
        "reshape": "",
        "shape": [
          1,
          72,
          16,
          16
        ],
        "slice": "[...]",
        "type": "tensor<1x72x16x16xf16, 33438467883008 : i64>"
      }
    ],
    "buffers": []
  },
  {
    "file-line": 170,
    "subnet_id": 0,
    "core_id": 0,
    "opcode": "tpu.Load",
    "is_local": true,
    "tiu_dma_id(before)": [
      36,
      75
    ],
    "tiu_dma_id(after)": [
      36,
      76
    ],
    "operands": [
      {
        "address": 33438467960832,
        "layout": "continuous",
        "memory_type": "<1x64x16x16xf16>",
        "name": "123_Relu",
        "reshape": "<1x64x1x16x16>",
        "shape": [
          1,
          64,
          16,
          16
        ],
        "slice": "[0:1, 0:64, 0:1, 0:16, 0:16]",
        "type": "tensor<1x64x16x16xf16, 33438467960832 : i64>"
      }
    ],
    "results": [
      {
        "address": 65536,
        "layout": "eu_align",
        "memory_type": "<1x64x16x16xf16>",
        "name": "load_123_Relu",
        "reshape": "<1x64x1x16x16>",
        "shape": [
          1,
          64,
          16,
          16
        ],
        "slice": "[0:1, 0:64, 0:1, 0:16, 0:16]",
        "type": "tensor<1x64x16x16xf16>"
      }
    ],
    "buffers": []
  },
  {
    "file-line": 171,
    "subnet_id": 0,
    "core_id": 0,
    "opcode": "tpu.Load",
    "is_local": true,
    "tiu_dma_id(before)": [
      36,
      76
    ],
    "tiu_dma_id(after)": [
      36,
      77
    ],
    "operands": [
      {
        "address": 1099511873536,
        "layout": "continuous",
        "memory_type": "<1x64x3x3xf16>",
        "name": "125_Convblaze_face.backbone1.10.convs.0.weight_f16",
        "reshape": "<1x64x1x3x3>",
        "shape": [
          1,
          64,
          3,
          3
        ],
        "slice": "[0:1, 0:64, 0:1, 0:3, 0:3]",
        "type": "tensor<1x64x3x3xf16, 1099511873536 : i64>"
      }
    ],
    "results": [
      {
        "address": 81920,
        "layout": "compact",
        "memory_type": "<1x64x3x3xf16>",
        "name": "load_125_Convblaze_face.backbone1.10.convs.0.weight_f16",
        "reshape": "<1x64x1x3x3>",
        "shape": [
          1,
          64,
          3,
          3
        ],
        "slice": "[0:1, 0:64, 0:1, 0:3, 0:3]",
        "type": "tensor<1x64x3x3xf16>"
      }
    ],
    "buffers": []
  },
  {
    "file-line": 172,
    "subnet_id": 0,
    "core_id": 0,
    "opcode": "tpu.Load",
    "is_local": true,
    "tiu_dma_id(before)": [
      36,
      77
    ],
    "tiu_dma_id(after)": [
      36,
      78
    ],
    "operands": [
      {
        "address": 1099511877632,
        "layout": "continuous",
        "memory_type": "<1x64x1x1xf16>",
        "name": "125_Conv_reordered",
        "reshape": "<1x64x1x1x1>",
        "shape": [
          1,
          64,
          1,
          1
        ],
        "slice": "[0:1, 0:64, 0:1, 0:1, 0:1]",
        "type": "tensor<1x64x1x1xf16, 1099511877632 : i64>"
      }
    ],
    "results": [
      {
        "address": 114688,
        "layout": "compact",
        "memory_type": "<1x64x1x1xf16>",
        "name": "load_125_Conv_reordered",
        "reshape": "<1x64x1x1x1>",
        "shape": [
          1,
          64,
          1,
          1
        ],
        "slice": "[0:1, 0:64, 0:1, 0:1, 0:1]",
        "type": "tensor<1x64x1x1xf16>"
      }
    ],
    "buffers": []
  },
  {
    "file-line": 175,
    "subnet_id": 0,
    "core_id": 0,
    "opcode": "tpu.Conv2D",
    "is_local": true,
    "tiu_dma_id(before)": [
      36,
      78
    ],
    "tiu_dma_id(after)": [
      37,
      78
    ],
    "operands": [
      {
        "address": 65536,
        "layout": "eu_align",
        "memory_type": "<1x64x16x16xf16>",
        "name": "load_123_Relu",
        "reshape": "<1x64x1x16x16>",
        "shape": [
          1,
          64,
          16,
          16
        ],
        "slice": "[0:1, 0:64, 0:1, 0:16, 0:16]",
        "type": "tensor<1x64x16x16xf16>"
      },
      {
        "address": 81920,
        "layout": "compact",
        "memory_type": "<1x64x3x3xf16>",
        "name": "load_125_Convblaze_face.backbone1.10.convs.0.weight_f16",
        "reshape": "<1x64x1x3x3>",
        "shape": [
          1,
          64,
          3,
          3
        ],
        "slice": "[0:1, 0:64, 0:1, 0:3, 0:3]",
        "type": "tensor<1x64x3x3xf16>"
      },
      {
        "address": 114688,
        "layout": "compact",
        "memory_type": "<1x64x1x1xf16>",
        "name": "load_125_Conv_reordered",
        "reshape": "<1x64x1x1x1>",
        "shape": [
          1,
          64,
          1,
          1
        ],
        "slice": "[0:1, 0:64, 0:1, 0:1, 0:1]",
        "type": "tensor<1x64x1x1xf16>"
      }
    ],
    "results": [
      {
        "address": 49152,
        "layout": "eu_align",
        "memory_type": "<1x64x16x16xf16>",
        "name": "125_Conv",
        "reshape": "<1x64x1x16x16>",
        "shape": [
          1,
          64,
          16,
          16
        ],
        "slice": "[0:1, 0:64, 0:1, 0:16, 0:16]",
        "type": "tensor<1x64x16x16xf16>"
      }
    ],
    "buffers": [
      {
        "address": 0,
        "size": 1549
      }
    ]
  },
  {
    "file-line": 173,
    "subnet_id": 0,
    "core_id": 0,
    "opcode": "tpu.Load",
    "is_local": true,
    "tiu_dma_id(before)": [
      36,
      78
    ],
    "tiu_dma_id(after)": [
      36,
      79
    ],
    "operands": [
      {
        "address": 1099511885824,
        "layout": "continuous",
        "memory_type": "<1x72x1x64xf16>",
        "name": "126_Conv_filter_reorderd",
        "reshape": "<1x72x1x1x64>",
        "shape": [
          1,
          72,
          1,
          64
        ],
        "slice": "[0:1, 0:72, 0:1, 0:1, 0:64]",
        "type": "tensor<1x72x1x64xf16, 1099511885824 : i64>"
      }
    ],
    "results": [
      {
        "address": 33792,
        "layout": "compact",
        "memory_type": "<1x72x1x64xf16>",
        "name": "load_126_Conv_filter_reorderd",
        "reshape": "<1x72x1x1x64>",
        "shape": [
          1,
          72,
          1,
          64
        ],
        "slice": "[0:1, 0:72, 0:1, 0:1, 0:64]",
        "type": "tensor<1x72x1x64xf16>"
      }
    ],
    "buffers": []
  },
  {
    "file-line": 174,
    "subnet_id": 0,
    "core_id": 0,
    "opcode": "tpu.Load",
    "is_local": true,
    "tiu_dma_id(before)": [
      36,
      79
    ],
    "tiu_dma_id(after)": [
      36,
      80
    ],
    "operands": [
      {
        "address": 1099511881728,
        "layout": "continuous",
        "memory_type": "<1x72x1x1xf32>",
        "name": "blaze_face.backbone1.10.convs.1.bias",
        "reshape": "<1x72x1x1x1>",
        "shape": [
          1,
          72,
          1,
          1
        ],
        "slice": "[0:1, 0:72, 0:1, 0:1, 0:1]",
        "type": "tensor<1x72x1x1xf32, 1099511881728 : i64>"
      }
    ],
    "results": [
      {
        "address": 98304,
        "layout": "compact",
        "memory_type": "<1x72x1x1xf32>",
        "name": "load_blaze_face.backbone1.10.convs.1.bias",
        "reshape": "<1x72x1x1x1>",
        "shape": [
          1,
          72,
          1,
          1
        ],
        "slice": "[0:1, 0:72, 0:1, 0:1, 0:1]",
        "type": "tensor<1x72x1x1xf32>"
      }
    ],
    "buffers": []
  },
  {
    "file-line": 177,
    "subnet_id": 0,
    "core_id": 0,
    "opcode": "tpu.Conv2D",
    "is_local": true,
    "tiu_dma_id(before)": [
      37,
      80
    ],
    "tiu_dma_id(after)": [
      38,
      80
    ],
    "operands": [
      {
        "address": 49152,
        "layout": "eu_align",
        "memory_type": "<1x64x16x16xf16>",
        "name": "125_Conv",
        "reshape": "<1x64x1x16x16>",
        "shape": [
          1,
          64,
          16,
          16
        ],
        "slice": "[0:1, 0:64, 0:1, 0:16, 0:16]",
        "type": "tensor<1x64x16x16xf16>"
      },
      {
        "address": 33792,
        "layout": "compact",
        "memory_type": "<1x72x1x64xf16>",
        "name": "load_126_Conv_filter_reorderd",
        "reshape": "<1x72x1x1x64>",
        "shape": [
          1,
          72,
          1,
          64
        ],
        "slice": "[0:1, 0:72, 0:1, 0:1, 0:64]",
        "type": "tensor<1x72x1x64xf16>"
      },
      {
        "address": 98304,
        "layout": "compact",
        "memory_type": "<1x72x1x1xf32>",
        "name": "load_blaze_face.backbone1.10.convs.1.bias",
        "reshape": "<1x72x1x1x1>",
        "shape": [
          1,
          72,
          1,
          1
        ],
        "slice": "[0:1, 0:72, 0:1, 0:1, 0:1]",
        "type": "tensor<1x72x1x1xf32>"
      }
    ],
    "results": [
      {
        "address": 0,
        "layout": "eu_align",
        "memory_type": "<1x72x16x16xf16>",
        "name": "126_Conv",
        "reshape": "<1x72x1x16x16>",
        "shape": [
          1,
          72,
          16,
          16
        ],
        "slice": "[0:1, 0:72, 0:1, 0:16, 0:16]",
        "type": "tensor<1x72x16x16xf16>"
      }
    ],
    "buffers": []
  },
  {
    "file-line": 176,
    "subnet_id": 0,
    "core_id": 0,
    "opcode": "tpu.Load",
    "is_local": true,
    "tiu_dma_id(before)": [
      37,
      80
    ],
    "tiu_dma_id(after)": [
      37,
      81
    ],
    "operands": [
      {
        "address": 33438467883008,
        "layout": "continuous",
        "memory_type": "<1x72x16x16xf16>",
        "name": "124_Pad",
        "reshape": "<1x72x1x16x16>",
        "shape": [
          1,
          72,
          16,
          16
        ],
        "slice": "[0:1, 0:72, 0:1, 0:16, 0:16]",
        "type": "tensor<1x72x16x16xf16, 33438467883008 : i64>"
      }
    ],
    "results": [
      {
        "address": 16384,
        "layout": "eu_align",
        "memory_type": "<1x72x16x16xf16>",
        "name": "load_124_Pad",
        "reshape": "<1x72x1x16x16>",
        "shape": [
          1,
          72,
          16,
          16
        ],
        "slice": "[0:1, 0:72, 0:1, 0:16, 0:16]",
        "type": "tensor<1x72x16x16xf16>"
      }
    ],
    "buffers": []
  },
  {
    "file-line": 178,
    "subnet_id": 0,
    "core_id": 0,
    "opcode": "tpu.Add",
    "is_local": true,
    "tiu_dma_id(before)": [
      38,
      81
    ],
    "tiu_dma_id(after)": [
      40,
      81
    ],
    "operands": [
      {
        "address": 0,
        "layout": "eu_align",
        "memory_type": "<1x72x16x16xf16>",
        "name": "126_Conv",
        "reshape": "<1x72x1x16x16>",
        "shape": [
          1,
          72,
          16,
          16
        ],
        "slice": "[0:1, 0:72, 0:1, 0:16, 0:16]",
        "type": "tensor<1x72x16x16xf16>"
      },
      {
        "address": 16384,
        "layout": "eu_align",
        "memory_type": "<1x72x16x16xf16>",
        "name": "load_124_Pad",
        "reshape": "<1x72x1x16x16>",
        "shape": [
          1,
          72,
          16,
          16
        ],
        "slice": "[0:1, 0:72, 0:1, 0:16, 0:16]",
        "type": "tensor<1x72x16x16xf16>"
      }
    ],
    "results": [
      {
        "address": 32768,
        "layout": "eu_align",
        "memory_type": "<1x72x16x16xf16>",
        "name": "128_Relu",
        "reshape": "<1x72x1x16x16>",
        "shape": [
          1,
          72,
          16,
          16
        ],
        "slice": "[0:1, 0:72, 0:1, 0:16, 0:16]",
        "type": "tensor<1x72x16x16xf16>"
      }
    ],
    "buffers": []
  },
  {
    "file-line": 179,
    "subnet_id": 0,
    "core_id": 0,
    "opcode": "tpu.Store",
    "is_local": true,
    "tiu_dma_id(before)": [
      40,
      81
    ],
    "tiu_dma_id(after)": [
      40,
      82
    ],
    "operands": [
      {
        "address": 32768,
        "layout": "eu_align",
        "memory_type": "<1x72x16x16xf16>",
        "name": "128_Relu",
        "reshape": "<1x72x1x16x16>",
        "shape": [
          1,
          72,
          16,
          16
        ],
        "slice": "[0:1, 0:72, 0:1, 0:16, 0:16]",
        "type": "tensor<1x72x16x16xf16>"
      },
      {}
    ],
    "results": [
      {
        "address": 33438467923968,
        "layout": "continuous",
        "memory_type": "<1x72x16x16xf16>",
        "name": "128_Relu",
        "reshape": "<1x72x1x16x16>",
        "shape": [
          1,
          72,
          16,
          16
        ],
        "slice": "[0:1, 0:72, 0:1, 0:16, 0:16]",
        "type": "tensor<1x72x16x16xf16, 33438467923968 : i64>"
      }
    ],
    "buffers": []
  },
  {
    "file-line": 182,
    "subnet_id": 0,
    "core_id": 0,
    "opcode": "tpu.Pad",
    "is_local": false,
    "tiu_dma_id(before)": [
      40,
      82
    ],
    "tiu_dma_id(after)": [
      40,
      84
    ],
    "operands": [
      {
        "address": 33438467923968,
        "layout": "continuous",
        "memory_type": "<1x72x16x16xf16>",
        "name": "128_Relu",
        "reshape": "",
        "shape": [
          1,
          72,
          16,
          16
        ],
        "slice": "[...]",
        "type": "tensor<1x72x16x16xf16, 33438467923968 : i64>"
      },
      {},
      {},
      {},
      {}
    ],
    "results": [
      {
        "address": 33438467883008,
        "layout": "continuous",
        "memory_type": "<1x80x16x16xf16>",
        "name": "129_Pad",
        "reshape": "",
        "shape": [
          1,
          80,
          16,
          16
        ],
        "slice": "[...]",
        "type": "tensor<1x80x16x16xf16, 33438467883008 : i64>"
      }
    ],
    "buffers": []
  },
  {
    "file-line": 188,
    "subnet_id": 0,
    "core_id": 0,
    "opcode": "tpu.Load",
    "is_local": true,
    "tiu_dma_id(before)": [
      40,
      84
    ],
    "tiu_dma_id(after)": [
      40,
      85
    ],
    "operands": [
      {
        "address": 33438467923968,
        "layout": "continuous",
        "memory_type": "<1x72x16x16xf16>",
        "name": "128_Relu",
        "reshape": "<1x72x1x16x16>",
        "shape": [
          1,
          72,
          16,
          16
        ],
        "slice": "[0:1, 0:72, 0:1, 0:16, 0:16]",
        "type": "tensor<1x72x16x16xf16, 33438467923968 : i64>"
      }
    ],
    "results": [
      {
        "address": 49152,
        "layout": "eu_align",
        "memory_type": "<1x72x16x16xf16>",
        "name": "load_128_Relu",
        "reshape": "<1x72x1x16x16>",
        "shape": [
          1,
          72,
          16,
          16
        ],
        "slice": "[0:1, 0:72, 0:1, 0:16, 0:16]",
        "type": "tensor<1x72x16x16xf16>"
      }
    ],
    "buffers": []
  },
  {
    "file-line": 189,
    "subnet_id": 0,
    "core_id": 0,
    "opcode": "tpu.Load",
    "is_local": true,
    "tiu_dma_id(before)": [
      40,
      85
    ],
    "tiu_dma_id(after)": [
      40,
      86
    ],
    "operands": [
      {
        "address": 1099511898112,
        "layout": "continuous",
        "memory_type": "<1x72x3x3xf16>",
        "name": "130_Convblaze_face.backbone1.11.convs.0.weight_f16",
        "reshape": "<1x72x1x3x3>",
        "shape": [
          1,
          72,
          3,
          3
        ],
        "slice": "[0:1, 0:72, 0:1, 0:3, 0:3]",
        "type": "tensor<1x72x3x3xf16, 1099511898112 : i64>"
      }
    ],
    "results": [
      {
        "address": 81920,
        "layout": "compact",
        "memory_type": "<1x72x3x3xf16>",
        "name": "load_130_Convblaze_face.backbone1.11.convs.0.weight_f16",
        "reshape": "<1x72x1x3x3>",
        "shape": [
          1,
          72,
          3,
          3
        ],
        "slice": "[0:1, 0:72, 0:1, 0:3, 0:3]",
        "type": "tensor<1x72x3x3xf16>"
      }
    ],
    "buffers": []
  },
  {
    "file-line": 190,
    "subnet_id": 0,
    "core_id": 0,
    "opcode": "tpu.Load",
    "is_local": true,
    "tiu_dma_id(before)": [
      40,
      86
    ],
    "tiu_dma_id(after)": [
      40,
      87
    ],
    "operands": [
      {
        "address": 1099511902208,
        "layout": "continuous",
        "memory_type": "<1x72x1x1xf16>",
        "name": "130_Conv_reordered",
        "reshape": "<1x72x1x1x1>",
        "shape": [
          1,
          72,
          1,
          1
        ],
        "slice": "[0:1, 0:72, 0:1, 0:1, 0:1]",
        "type": "tensor<1x72x1x1xf16, 1099511902208 : i64>"
      }
    ],
    "results": [
      {
        "address": 114688,
        "layout": "compact",
        "memory_type": "<1x72x1x1xf16>",
        "name": "load_130_Conv_reordered",
        "reshape": "<1x72x1x1x1>",
        "shape": [
          1,
          72,
          1,
          1
        ],
        "slice": "[0:1, 0:72, 0:1, 0:1, 0:1]",
        "type": "tensor<1x72x1x1xf16>"
      }
    ],
    "buffers": []
  },
  {
    "file-line": 193,
    "subnet_id": 0,
    "core_id": 0,
    "opcode": "tpu.Conv2D",
    "is_local": true,
    "tiu_dma_id(before)": [
      40,
      87
    ],
    "tiu_dma_id(after)": [
      41,
      87
    ],
    "operands": [
      {
        "address": 49152,
        "layout": "eu_align",
        "memory_type": "<1x72x16x16xf16>",
        "name": "load_128_Relu",
        "reshape": "<1x72x1x16x16>",
        "shape": [
          1,
          72,
          16,
          16
        ],
        "slice": "[0:1, 0:72, 0:1, 0:16, 0:16]",
        "type": "tensor<1x72x16x16xf16>"
      },
      {
        "address": 81920,
        "layout": "compact",
        "memory_type": "<1x72x3x3xf16>",
        "name": "load_130_Convblaze_face.backbone1.11.convs.0.weight_f16",
        "reshape": "<1x72x1x3x3>",
        "shape": [
          1,
          72,
          3,
          3
        ],
        "slice": "[0:1, 0:72, 0:1, 0:3, 0:3]",
        "type": "tensor<1x72x3x3xf16>"
      },
      {
        "address": 114688,
        "layout": "compact",
        "memory_type": "<1x72x1x1xf16>",
        "name": "load_130_Conv_reordered",
        "reshape": "<1x72x1x1x1>",
        "shape": [
          1,
          72,
          1,
          1
        ],
        "slice": "[0:1, 0:72, 0:1, 0:1, 0:1]",
        "type": "tensor<1x72x1x1xf16>"
      }
    ],
    "results": [
      {
        "address": 0,
        "layout": "eu_align",
        "memory_type": "<1x72x16x16xf16>",
        "name": "130_Conv",
        "reshape": "<1x72x1x16x16>",
        "shape": [
          1,
          72,
          16,
          16
        ],
        "slice": "[0:1, 0:72, 0:1, 0:16, 0:16]",
        "type": "tensor<1x72x16x16xf16>"
      }
    ],
    "buffers": [
      {
        "address": 16384,
        "size": 2582
      }
    ]
  },
  {
    "file-line": 191,
    "subnet_id": 0,
    "core_id": 0,
    "opcode": "tpu.Load",
    "is_local": true,
    "tiu_dma_id(before)": [
      40,
      87
    ],
    "tiu_dma_id(after)": [
      40,
      88
    ],
    "operands": [
      {
        "address": 1099511910400,
        "layout": "continuous",
        "memory_type": "<1x80x1x96xf16>",
        "name": "131_Conv_filter_reorderd",
        "reshape": "<1x80x1x1x96>",
        "shape": [
          1,
          80,
          1,
          96
        ],
        "slice": "[0:1, 0:80, 0:1, 0:1, 0:96]",
        "type": "tensor<1x80x1x96xf16, 1099511910400 : i64>"
      }
    ],
    "results": [
      {
        "address": 66560,
        "layout": "compact",
        "memory_type": "<1x80x1x96xf16>",
        "name": "load_131_Conv_filter_reorderd",
        "reshape": "<1x80x1x1x96>",
        "shape": [
          1,
          80,
          1,
          96
        ],
        "slice": "[0:1, 0:80, 0:1, 0:1, 0:96]",
        "type": "tensor<1x80x1x96xf16>"
      }
    ],
    "buffers": []
  },
  {
    "file-line": 192,
    "subnet_id": 0,
    "core_id": 0,
    "opcode": "tpu.Load",
    "is_local": true,
    "tiu_dma_id(before)": [
      40,
      88
    ],
    "tiu_dma_id(after)": [
      40,
      89
    ],
    "operands": [
      {
        "address": 1099511906304,
        "layout": "continuous",
        "memory_type": "<1x80x1x1xf32>",
        "name": "blaze_face.backbone1.11.convs.1.bias",
        "reshape": "<1x80x1x1x1>",
        "shape": [
          1,
          80,
          1,
          1
        ],
        "slice": "[0:1, 0:80, 0:1, 0:1, 0:1]",
        "type": "tensor<1x80x1x1xf32, 1099511906304 : i64>"
      }
    ],
    "results": [
      {
        "address": 98304,
        "layout": "compact",
        "memory_type": "<1x80x1x1xf32>",
        "name": "load_blaze_face.backbone1.11.convs.1.bias",
        "reshape": "<1x80x1x1x1>",
        "shape": [
          1,
          80,
          1,
          1
        ],
        "slice": "[0:1, 0:80, 0:1, 0:1, 0:1]",
        "type": "tensor<1x80x1x1xf32>"
      }
    ],
    "buffers": []
  },
  {
    "file-line": 195,
    "subnet_id": 0,
    "core_id": 0,
    "opcode": "tpu.Conv2D",
    "is_local": true,
    "tiu_dma_id(before)": [
      41,
      89
    ],
    "tiu_dma_id(after)": [
      42,
      89
    ],
    "operands": [
      {
        "address": 0,
        "layout": "eu_align",
        "memory_type": "<1x72x16x16xf16>",
        "name": "130_Conv",
        "reshape": "<1x72x1x16x16>",
        "shape": [
          1,
          72,
          16,
          16
        ],
        "slice": "[0:1, 0:72, 0:1, 0:16, 0:16]",
        "type": "tensor<1x72x16x16xf16>"
      },
      {
        "address": 66560,
        "layout": "compact",
        "memory_type": "<1x80x1x96xf16>",
        "name": "load_131_Conv_filter_reorderd",
        "reshape": "<1x80x1x1x96>",
        "shape": [
          1,
          80,
          1,
          96
        ],
        "slice": "[0:1, 0:80, 0:1, 0:1, 0:96]",
        "type": "tensor<1x80x1x96xf16>"
      },
      {
        "address": 98304,
        "layout": "compact",
        "memory_type": "<1x80x1x1xf32>",
        "name": "load_blaze_face.backbone1.11.convs.1.bias",
        "reshape": "<1x80x1x1x1>",
        "shape": [
          1,
          80,
          1,
          1
        ],
        "slice": "[0:1, 0:80, 0:1, 0:1, 0:1]",
        "type": "tensor<1x80x1x1xf32>"
      }
    ],
    "results": [
      {
        "address": 16384,
        "layout": "eu_align",
        "memory_type": "<1x80x16x16xf16>",
        "name": "131_Conv",
        "reshape": "<1x80x1x16x16>",
        "shape": [
          1,
          80,
          16,
          16
        ],
        "slice": "[0:1, 0:80, 0:1, 0:16, 0:16]",
        "type": "tensor<1x80x16x16xf16>"
      }
    ],
    "buffers": []
  },
  {
    "file-line": 194,
    "subnet_id": 0,
    "core_id": 0,
    "opcode": "tpu.Load",
    "is_local": true,
    "tiu_dma_id(before)": [
      41,
      89
    ],
    "tiu_dma_id(after)": [
      41,
      90
    ],
    "operands": [
      {
        "address": 33438467883008,
        "layout": "continuous",
        "memory_type": "<1x80x16x16xf16>",
        "name": "129_Pad",
        "reshape": "<1x80x1x16x16>",
        "shape": [
          1,
          80,
          16,
          16
        ],
        "slice": "[0:1, 0:80, 0:1, 0:16, 0:16]",
        "type": "tensor<1x80x16x16xf16, 33438467883008 : i64>"
      }
    ],
    "results": [
      {
        "address": 32768,
        "layout": "eu_align",
        "memory_type": "<1x80x16x16xf16>",
        "name": "load_129_Pad",
        "reshape": "<1x80x1x16x16>",
        "shape": [
          1,
          80,
          16,
          16
        ],
        "slice": "[0:1, 0:80, 0:1, 0:16, 0:16]",
        "type": "tensor<1x80x16x16xf16>"
      }
    ],
    "buffers": []
  },
  {
    "file-line": 196,
    "subnet_id": 0,
    "core_id": 0,
    "opcode": "tpu.Add",
    "is_local": true,
    "tiu_dma_id(before)": [
      42,
      90
    ],
    "tiu_dma_id(after)": [
      44,
      90
    ],
    "operands": [
      {
        "address": 16384,
        "layout": "eu_align",
        "memory_type": "<1x80x16x16xf16>",
        "name": "131_Conv",
        "reshape": "<1x80x1x16x16>",
        "shape": [
          1,
          80,
          16,
          16
        ],
        "slice": "[0:1, 0:80, 0:1, 0:16, 0:16]",
        "type": "tensor<1x80x16x16xf16>"
      },
      {
        "address": 32768,
        "layout": "eu_align",
        "memory_type": "<1x80x16x16xf16>",
        "name": "load_129_Pad",
        "reshape": "<1x80x1x16x16>",
        "shape": [
          1,
          80,
          16,
          16
        ],
        "slice": "[0:1, 0:80, 0:1, 0:16, 0:16]",
        "type": "tensor<1x80x16x16xf16>"
      }
    ],
    "results": [
      {
        "address": 65536,
        "layout": "eu_align",
        "memory_type": "<1x80x16x16xf16>",
        "name": "133_Relu",
        "reshape": "<1x80x1x16x16>",
        "shape": [
          1,
          80,
          16,
          16
        ],
        "slice": "[0:1, 0:80, 0:1, 0:16, 0:16]",
        "type": "tensor<1x80x16x16xf16>"
      }
    ],
    "buffers": []
  },
  {
    "file-line": 197,
    "subnet_id": 0,
    "core_id": 0,
    "opcode": "tpu.Store",
    "is_local": true,
    "tiu_dma_id(before)": [
      44,
      90
    ],
    "tiu_dma_id(after)": [
      44,
      91
    ],
    "operands": [
      {
        "address": 65536,
        "layout": "eu_align",
        "memory_type": "<1x80x16x16xf16>",
        "name": "133_Relu",
        "reshape": "<1x80x1x16x16>",
        "shape": [
          1,
          80,
          16,
          16
        ],
        "slice": "[0:1, 0:80, 0:1, 0:16, 0:16]",
        "type": "tensor<1x80x16x16xf16>"
      },
      {}
    ],
    "results": [
      {
        "address": 33438467985408,
        "layout": "continuous",
        "memory_type": "<1x80x16x16xf16>",
        "name": "133_Relu",
        "reshape": "<1x80x1x16x16>",
        "shape": [
          1,
          80,
          16,
          16
        ],
        "slice": "[0:1, 0:80, 0:1, 0:16, 0:16]",
        "type": "tensor<1x80x16x16xf16, 33438467985408 : i64>"
      }
    ],
    "buffers": []
  },
  {
    "file-line": 200,
    "subnet_id": 0,
    "core_id": 0,
    "opcode": "tpu.Pad",
    "is_local": false,
    "tiu_dma_id(before)": [
      44,
      91
    ],
    "tiu_dma_id(after)": [
      44,
      93
    ],
    "operands": [
      {
        "address": 33438467985408,
        "layout": "continuous",
        "memory_type": "<1x80x16x16xf16>",
        "name": "133_Relu",
        "reshape": "",
        "shape": [
          1,
          80,
          16,
          16
        ],
        "slice": "[...]",
        "type": "tensor<1x80x16x16xf16, 33438467985408 : i64>"
      },
      {},
      {},
      {},
      {}
    ],
    "results": [
      {
        "address": 33438467895296,
        "layout": "continuous",
        "memory_type": "<1x88x16x16xf16>",
        "name": "134_Pad",
        "reshape": "",
        "shape": [
          1,
          88,
          16,
          16
        ],
        "slice": "[...]",
        "type": "tensor<1x88x16x16xf16, 33438467895296 : i64>"
      }
    ],
    "buffers": []
  },
  {
    "file-line": 206,
    "subnet_id": 0,
    "core_id": 0,
    "opcode": "tpu.Load",
    "is_local": true,
    "tiu_dma_id(before)": [
      44,
      93
    ],
    "tiu_dma_id(after)": [
      44,
      94
    ],
    "operands": [
      {
        "address": 33438467985408,
        "layout": "continuous",
        "memory_type": "<1x80x16x16xf16>",
        "name": "133_Relu",
        "reshape": "<1x80x1x16x16>",
        "shape": [
          1,
          80,
          16,
          16
        ],
        "slice": "[0:1, 0:80, 0:1, 0:16, 0:16]",
        "type": "tensor<1x80x16x16xf16, 33438467985408 : i64>"
      }
    ],
    "results": [
      {
        "address": 16384,
        "layout": "eu_align",
        "memory_type": "<1x80x16x16xf16>",
        "name": "load_133_Relu",
        "reshape": "<1x80x1x16x16>",
        "shape": [
          1,
          80,
          16,
          16
        ],
        "slice": "[0:1, 0:80, 0:1, 0:16, 0:16]",
        "type": "tensor<1x80x16x16xf16>"
      }
    ],
    "buffers": []
  },
  {
    "file-line": 207,
    "subnet_id": 0,
    "core_id": 0,
    "opcode": "tpu.Load",
    "is_local": true,
    "tiu_dma_id(before)": [
      44,
      94
    ],
    "tiu_dma_id(after)": [
      44,
      95
    ],
    "operands": [
      {
        "address": 1099511926784,
        "layout": "continuous",
        "memory_type": "<1x80x3x3xf16>",
        "name": "135_Convblaze_face.backbone1.12.convs.0.weight_f16",
        "reshape": "<1x80x1x3x3>",
        "shape": [
          1,
          80,
          3,
          3
        ],
        "slice": "[0:1, 0:80, 0:1, 0:3, 0:3]",
        "type": "tensor<1x80x3x3xf16, 1099511926784 : i64>"
      }
    ],
    "results": [
      {
        "address": 32768,
        "layout": "compact",
        "memory_type": "<1x80x3x3xf16>",
        "name": "load_135_Convblaze_face.backbone1.12.convs.0.weight_f16",
        "reshape": "<1x80x1x3x3>",
        "shape": [
          1,
          80,
          3,
          3
        ],
        "slice": "[0:1, 0:80, 0:1, 0:3, 0:3]",
        "type": "tensor<1x80x3x3xf16>"
      }
    ],
    "buffers": []
  },
  {
    "file-line": 208,
    "subnet_id": 0,
    "core_id": 0,
    "opcode": "tpu.Load",
    "is_local": true,
    "tiu_dma_id(before)": [
      44,
      95
    ],
    "tiu_dma_id(after)": [
      44,
      96
    ],
    "operands": [
      {
        "address": 1099511930880,
        "layout": "continuous",
        "memory_type": "<1x80x1x1xf16>",
        "name": "135_Conv_reordered",
        "reshape": "<1x80x1x1x1>",
        "shape": [
          1,
          80,
          1,
          1
        ],
        "slice": "[0:1, 0:80, 0:1, 0:1, 0:1]",
        "type": "tensor<1x80x1x1xf16, 1099511930880 : i64>"
      }
    ],
    "results": [
      {
        "address": 98304,
        "layout": "compact",
        "memory_type": "<1x80x1x1xf16>",
        "name": "load_135_Conv_reordered",
        "reshape": "<1x80x1x1x1>",
        "shape": [
          1,
          80,
          1,
          1
        ],
        "slice": "[0:1, 0:80, 0:1, 0:1, 0:1]",
        "type": "tensor<1x80x1x1xf16>"
      }
    ],
    "buffers": []
  },
  {
    "file-line": 211,
    "subnet_id": 0,
    "core_id": 0,
    "opcode": "tpu.Conv2D",
    "is_local": true,
    "tiu_dma_id(before)": [
      44,
      96
    ],
    "tiu_dma_id(after)": [
      45,
      96
    ],
    "operands": [
      {
        "address": 16384,
        "layout": "eu_align",
        "memory_type": "<1x80x16x16xf16>",
        "name": "load_133_Relu",
        "reshape": "<1x80x1x16x16>",
        "shape": [
          1,
          80,
          16,
          16
        ],
        "slice": "[0:1, 0:80, 0:1, 0:16, 0:16]",
        "type": "tensor<1x80x16x16xf16>"
      },
      {
        "address": 32768,
        "layout": "compact",
        "memory_type": "<1x80x3x3xf16>",
        "name": "load_135_Convblaze_face.backbone1.12.convs.0.weight_f16",
        "reshape": "<1x80x1x3x3>",
        "shape": [
          1,
          80,
          3,
          3
        ],
        "slice": "[0:1, 0:80, 0:1, 0:3, 0:3]",
        "type": "tensor<1x80x3x3xf16>"
      },
      {
        "address": 98304,
        "layout": "compact",
        "memory_type": "<1x80x1x1xf16>",
        "name": "load_135_Conv_reordered",
        "reshape": "<1x80x1x1x1>",
        "shape": [
          1,
          80,
          1,
          1
        ],
        "slice": "[0:1, 0:80, 0:1, 0:1, 0:1]",
        "type": "tensor<1x80x1x1xf16>"
      }
    ],
    "results": [
      {
        "address": 0,
        "layout": "eu_align",
        "memory_type": "<1x80x16x16xf16>",
        "name": "135_Conv",
        "reshape": "<1x80x1x16x16>",
        "shape": [
          1,
          80,
          16,
          16
        ],
        "slice": "[0:1, 0:80, 0:1, 0:16, 0:16]",
        "type": "tensor<1x80x16x16xf16>"
      }
    ],
    "buffers": [
      {
        "address": 81920,
        "size": 2582
      }
    ]
  },
  {
    "file-line": 209,
    "subnet_id": 0,
    "core_id": 0,
    "opcode": "tpu.Load",
    "is_local": true,
    "tiu_dma_id(before)": [
      44,
      96
    ],
    "tiu_dma_id(after)": [
      44,
      97
    ],
    "operands": [
      {
        "address": 1099511939072,
        "layout": "continuous",
        "memory_type": "<1x88x1x96xf16>",
        "name": "136_Conv_filter_reorderd",
        "reshape": "<1x88x1x1x96>",
        "shape": [
          1,
          88,
          1,
          96
        ],
        "slice": "[0:1, 0:88, 0:1, 0:1, 0:96]",
        "type": "tensor<1x88x1x96xf16, 1099511939072 : i64>"
      }
    ],
    "results": [
      {
        "address": 49408,
        "layout": "compact",
        "memory_type": "<1x88x1x96xf16>",
        "name": "load_136_Conv_filter_reorderd",
        "reshape": "<1x88x1x1x96>",
        "shape": [
          1,
          88,
          1,
          96
        ],
        "slice": "[0:1, 0:88, 0:1, 0:1, 0:96]",
        "type": "tensor<1x88x1x96xf16>"
      }
    ],
    "buffers": []
  },
  {
    "file-line": 210,
    "subnet_id": 0,
    "core_id": 0,
    "opcode": "tpu.Load",
    "is_local": true,
    "tiu_dma_id(before)": [
      44,
      97
    ],
    "tiu_dma_id(after)": [
      44,
      98
    ],
    "operands": [
      {
        "address": 1099511934976,
        "layout": "continuous",
        "memory_type": "<1x88x1x1xf32>",
        "name": "blaze_face.backbone1.12.convs.1.bias",
        "reshape": "<1x88x1x1x1>",
        "shape": [
          1,
          88,
          1,
          1
        ],
        "slice": "[0:1, 0:88, 0:1, 0:1, 0:1]",
        "type": "tensor<1x88x1x1xf32, 1099511934976 : i64>"
      }
    ],
    "results": [
      {
        "address": 65536,
        "layout": "compact",
        "memory_type": "<1x88x1x1xf32>",
        "name": "load_blaze_face.backbone1.12.convs.1.bias",
        "reshape": "<1x88x1x1x1>",
        "shape": [
          1,
          88,
          1,
          1
        ],
        "slice": "[0:1, 0:88, 0:1, 0:1, 0:1]",
        "type": "tensor<1x88x1x1xf32>"
      }
    ],
    "buffers": []
  },
  {
    "file-line": 213,
    "subnet_id": 0,
    "core_id": 0,
    "opcode": "tpu.Conv2D",
    "is_local": true,
    "tiu_dma_id(before)": [
      45,
      98
    ],
    "tiu_dma_id(after)": [
      46,
      98
    ],
    "operands": [
      {
        "address": 0,
        "layout": "eu_align",
        "memory_type": "<1x80x16x16xf16>",
        "name": "135_Conv",
        "reshape": "<1x80x1x16x16>",
        "shape": [
          1,
          80,
          16,
          16
        ],
        "slice": "[0:1, 0:80, 0:1, 0:16, 0:16]",
        "type": "tensor<1x80x16x16xf16>"
      },
      {
        "address": 49408,
        "layout": "compact",
        "memory_type": "<1x88x1x96xf16>",
        "name": "load_136_Conv_filter_reorderd",
        "reshape": "<1x88x1x1x96>",
        "shape": [
          1,
          88,
          1,
          96
        ],
        "slice": "[0:1, 0:88, 0:1, 0:1, 0:96]",
        "type": "tensor<1x88x1x96xf16>"
      },
      {
        "address": 65536,
        "layout": "compact",
        "memory_type": "<1x88x1x1xf32>",
        "name": "load_blaze_face.backbone1.12.convs.1.bias",
        "reshape": "<1x88x1x1x1>",
        "shape": [
          1,
          88,
          1,
          1
        ],
        "slice": "[0:1, 0:88, 0:1, 0:1, 0:1]",
        "type": "tensor<1x88x1x1xf32>"
      }
    ],
    "results": [
      {
        "address": 16384,
        "layout": "eu_align",
        "memory_type": "<1x88x16x16xf16>",
        "name": "136_Conv",
        "reshape": "<1x88x1x16x16>",
        "shape": [
          1,
          88,
          16,
          16
        ],
        "slice": "[0:1, 0:88, 0:1, 0:16, 0:16]",
        "type": "tensor<1x88x16x16xf16>"
      }
    ],
    "buffers": []
  },
  {
    "file-line": 212,
    "subnet_id": 0,
    "core_id": 0,
    "opcode": "tpu.Load",
    "is_local": true,
    "tiu_dma_id(before)": [
      45,
      98
    ],
    "tiu_dma_id(after)": [
      45,
      99
    ],
    "operands": [
      {
        "address": 33438467895296,
        "layout": "continuous",
        "memory_type": "<1x88x16x16xf16>",
        "name": "134_Pad",
        "reshape": "<1x88x1x16x16>",
…
        "name": "load_150_Convblaze_face.backbone2.2.convs.0.weight_f16",
        "reshape": "<1x96x1x3x3>",
        "shape": [
          1,
          96,
          3,
          3
        ],
        "slice": "[0:1, 0:96, 0:1, 0:3, 0:3]",
        "type": "tensor<1x96x3x3xf16>"
      }
    ],
    "buffers": []
  },
  {
    "file-line": 259,
    "subnet_id": 0,
    "core_id": 0,
    "opcode": "tpu.Load",
    "is_local": true,
    "tiu_dma_id(before)": [
      54,
      114
    ],
    "tiu_dma_id(after)": [
      54,
      115
    ],
    "operands": [
      {
        "address": 1099512029184,
        "layout": "continuous",
        "memory_type": "<1x96x1x1xf16>",
        "name": "150_Conv_reordered",
        "reshape": "<1x96x1x1x1>",
        "shape": [
          1,
          96,
          1,
          1
        ],
        "slice": "[0:1, 0:96, 0:1, 0:1, 0:1]",
        "type": "tensor<1x96x1x1xf16, 1099512029184 : i64>"
      }
    ],
    "results": [
      {
        "address": 114688,
        "layout": "compact",
        "memory_type": "<1x96x1x1xf16>",
        "name": "load_150_Conv_reordered",
        "reshape": "<1x96x1x1x1>",
        "shape": [
          1,
          96,
          1,
          1
        ],
        "slice": "[0:1, 0:96, 0:1, 0:1, 0:1]",
        "type": "tensor<1x96x1x1xf16>"
      }
    ],
    "buffers": []
  },
  {
    "file-line": 264,
    "subnet_id": 0,
    "core_id": 0,
    "opcode": "tpu.Conv2D",
    "is_local": true,
    "tiu_dma_id(before)": [
      57,
      115
    ],
    "tiu_dma_id(after)": [
      58,
      115
    ],
    "operands": [
      {
        "address": 49152,
        "layout": "eu_align",
        "memory_type": "<1x96x8x8xf16>",
        "name": "149_Relu",
        "reshape": "<1x96x1x8x8>",
        "shape": [
          1,
          96,
          8,
          8
        ],
        "slice": "[0:1, 0:96, 0:1, 0:8, 0:8]",
        "type": "tensor<1x96x8x8xf16>"
      },
      {
        "address": 81920,
        "layout": "compact",
        "memory_type": "<1x96x3x3xf16>",
        "name": "load_150_Convblaze_face.backbone2.2.convs.0.weight_f16",
        "reshape": "<1x96x1x3x3>",
        "shape": [
          1,
          96,
          3,
          3
        ],
        "slice": "[0:1, 0:96, 0:1, 0:3, 0:3]",
        "type": "tensor<1x96x3x3xf16>"
      },
      {
        "address": 114688,
        "layout": "compact",
        "memory_type": "<1x96x1x1xf16>",
        "name": "load_150_Conv_reordered",
        "reshape": "<1x96x1x1x1>",
        "shape": [
          1,
          96,
          1,
          1
        ],
        "slice": "[0:1, 0:96, 0:1, 0:1, 0:1]",
        "type": "tensor<1x96x1x1xf16>"
      }
    ],
    "results": [
      {
        "address": 32768,
        "layout": "eu_align",
        "memory_type": "<1x96x8x8xf16>",
        "name": "150_Conv",
        "reshape": "<1x96x1x8x8>",
        "shape": [
          1,
          96,
          8,
          8
        ],
        "slice": "[0:1, 0:96, 0:1, 0:8, 0:8]",
        "type": "tensor<1x96x8x8xf16>"
      }
    ],
    "buffers": [
      {
        "address": 16384,
        "size": 662
      }
    ]
  },
  {
    "file-line": 262,
    "subnet_id": 0,
    "core_id": 0,
    "opcode": "tpu.Load",
    "is_local": true,
    "tiu_dma_id(before)": [
      57,
      115
    ],
    "tiu_dma_id(after)": [
      57,
      116
    ],
    "operands": [
      {
        "address": 1099512037376,
        "layout": "continuous",
        "memory_type": "<1x96x1x96xf16>",
        "name": "151_Conv_filter_reorderd",
        "reshape": "<1x96x1x1x96>",
        "shape": [
          1,
          96,
          1,
          96
        ],
        "slice": "[0:1, 0:96, 0:1, 0:1, 0:96]",
        "type": "tensor<1x96x1x96xf16, 1099512037376 : i64>"
      }
    ],
    "results": [
      {
        "address": 1024,
        "layout": "compact",
        "memory_type": "<1x96x1x96xf16>",
        "name": "load_151_Conv_filter_reorderd",
        "reshape": "<1x96x1x1x96>",
        "shape": [
          1,
          96,
          1,
          96
        ],
        "slice": "[0:1, 0:96, 0:1, 0:1, 0:96]",
        "type": "tensor<1x96x1x96xf16>"
      }
    ],
    "buffers": []
  },
  {
    "file-line": 263,
    "subnet_id": 0,
    "core_id": 0,
    "opcode": "tpu.Load",
    "is_local": true,
    "tiu_dma_id(before)": [
      57,
      116
    ],
    "tiu_dma_id(after)": [
      57,
      117
    ],
    "operands": [
      {
        "address": 1099512033280,
        "layout": "continuous",
        "memory_type": "<1x96x1x1xf32>",
        "name": "blaze_face.backbone2.2.convs.1.bias",
        "reshape": "<1x96x1x1x1>",
        "shape": [
          1,
          96,
          1,
          1
        ],
        "slice": "[0:1, 0:96, 0:1, 0:1, 0:1]",
        "type": "tensor<1x96x1x1xf32, 1099512033280 : i64>"
      }
    ],
    "results": [
      {
        "address": 98304,
        "layout": "compact",
        "memory_type": "<1x96x1x1xf32>",
        "name": "load_blaze_face.backbone2.2.convs.1.bias",
        "reshape": "<1x96x1x1x1>",
        "shape": [
          1,
          96,
          1,
          1
        ],
        "slice": "[0:1, 0:96, 0:1, 0:1, 0:1]",
        "type": "tensor<1x96x1x1xf32>"
      }
    ],
    "buffers": []
  },
  {
    "file-line": 267,
    "subnet_id": 0,
    "core_id": 0,
    "opcode": "tpu.Conv2D",
    "is_local": true,
    "tiu_dma_id(before)": [
      58,
      117
    ],
    "tiu_dma_id(after)": [
      59,
      117
    ],
    "operands": [
      {
        "address": 32768,
        "layout": "eu_align",
        "memory_type": "<1x96x8x8xf16>",
        "name": "150_Conv",
        "reshape": "<1x96x1x8x8>",
        "shape": [
          1,
          96,
          8,
          8
        ],
        "slice": "[0:1, 0:96, 0:1, 0:8, 0:8]",
        "type": "tensor<1x96x8x8xf16>"
      },
      {
        "address": 1024,
        "layout": "compact",
        "memory_type": "<1x96x1x96xf16>",
        "name": "load_151_Conv_filter_reorderd",
        "reshape": "<1x96x1x1x96>",
        "shape": [
          1,
          96,
          1,
          96
        ],
        "slice": "[0:1, 0:96, 0:1, 0:1, 0:96]",
        "type": "tensor<1x96x1x96xf16>"
      },
      {
        "address": 98304,
        "layout": "compact",
        "memory_type": "<1x96x1x1xf32>",
        "name": "load_blaze_face.backbone2.2.convs.1.bias",
        "reshape": "<1x96x1x1x1>",
        "shape": [
          1,
          96,
          1,
          1
        ],
        "slice": "[0:1, 0:96, 0:1, 0:1, 0:1]",
        "type": "tensor<1x96x1x1xf32>"
      }
    ],
    "results": [
      {
        "address": 16640,
        "layout": "eu_align",
        "memory_type": "<1x96x8x8xf16>",
        "name": "151_Conv",
        "reshape": "<1x96x1x8x8>",
        "shape": [
          1,
          96,
          8,
          8
        ],
        "slice": "[0:1, 0:96, 0:1, 0:8, 0:8]",
        "type": "tensor<1x96x8x8xf16>"
      }
    ],
    "buffers": []
  },
  {
    "file-line": 268,
    "subnet_id": 0,
    "core_id": 0,
    "opcode": "tpu.Add",
    "is_local": true,
    "tiu_dma_id(before)": [
      59,
      117
    ],
    "tiu_dma_id(after)": [
      61,
      117
    ],
    "operands": [
      {
        "address": 16640,
        "layout": "eu_align",
        "memory_type": "<1x96x8x8xf16>",
        "name": "151_Conv",
        "reshape": "<1x96x1x8x8>",
        "shape": [
          1,
          96,
          8,
          8
        ],
        "slice": "[0:1, 0:96, 0:1, 0:8, 0:8]",
        "type": "tensor<1x96x8x8xf16>"
      },
      {
        "address": 49152,
        "layout": "eu_align",
        "memory_type": "<1x96x8x8xf16>",
        "name": "149_Relu",
        "reshape": "<1x96x1x8x8>",
        "shape": [
          1,
          96,
          8,
          8
        ],
        "slice": "[0:1, 0:96, 0:1, 0:8, 0:8]",
        "type": "tensor<1x96x8x8xf16>"
      }
    ],
    "results": [
      {
        "address": 16384,
        "layout": "eu_align",
        "memory_type": "<1x96x8x8xf16>",
        "name": "153_Relu",
        "reshape": "<1x96x1x8x8>",
        "shape": [
          1,
          96,
          8,
          8
        ],
        "slice": "[0:1, 0:96, 0:1, 0:8, 0:8]",
        "type": "tensor<1x96x8x8xf16>"
      }
    ],
    "buffers": []
  },
  {
    "file-line": 265,
    "subnet_id": 0,
    "core_id": 0,
    "opcode": "tpu.Load",
    "is_local": true,
    "tiu_dma_id(before)": [
      58,
      117
    ],
    "tiu_dma_id(after)": [
      58,
      118
    ],
    "operands": [
      {
        "address": 1099512061952,
        "layout": "continuous",
        "memory_type": "<1x96x1x1xf16>",
        "name": "154_Conv_reordered",
        "reshape": "<1x96x1x1x1>",
        "shape": [
          1,
          96,
          1,
          1
        ],
        "slice": "[0:1, 0:96, 0:1, 0:1, 0:1]",
        "type": "tensor<1x96x1x1xf16, 1099512061952 : i64>"
      }
    ],
    "results": [
      {
        "address": 114688,
        "layout": "compact",
        "memory_type": "<1x96x1x1xf16>",
        "name": "load_154_Conv_reordered",
        "reshape": "<1x96x1x1x1>",
        "shape": [
          1,
          96,
          1,
          1
        ],
        "slice": "[0:1, 0:96, 0:1, 0:1, 0:1]",
        "type": "tensor<1x96x1x1xf16>"
      }
    ],
    "buffers": []
  },
  {
    "file-line": 266,
    "subnet_id": 0,
    "core_id": 0,
    "opcode": "tpu.Load",
    "is_local": true,
    "tiu_dma_id(before)": [
      58,
      118
    ],
    "tiu_dma_id(after)": [
      58,
      119
    ],
    "operands": [
      {
        "address": 1099512057856,
        "layout": "continuous",
        "memory_type": "<1x96x3x3xf16>",
        "name": "154_Convblaze_face.backbone2.3.convs.0.weight_f16",
        "reshape": "<1x96x1x3x3>",
        "shape": [
          1,
          96,
          3,
          3
        ],
        "slice": "[0:1, 0:96, 0:1, 0:3, 0:3]",
        "type": "tensor<1x96x3x3xf16, 1099512057856 : i64>"
      }
    ],
    "results": [
      {
        "address": 65536,
        "layout": "compact",
        "memory_type": "<1x96x3x3xf16>",
        "name": "load_154_Convblaze_face.backbone2.3.convs.0.weight_f16",
        "reshape": "<1x96x1x3x3>",
        "shape": [
          1,
          96,
          3,
          3
        ],
        "slice": "[0:1, 0:96, 0:1, 0:3, 0:3]",
        "type": "tensor<1x96x3x3xf16>"
      }
    ],
    "buffers": []
  },
  {
    "file-line": 271,
    "subnet_id": 0,
    "core_id": 0,
    "opcode": "tpu.Conv2D",
    "is_local": true,
    "tiu_dma_id(before)": [
      61,
      119
    ],
    "tiu_dma_id(after)": [
      62,
      119
    ],
    "operands": [
      {
        "address": 16384,
        "layout": "eu_align",
        "memory_type": "<1x96x8x8xf16>",
        "name": "153_Relu",
        "reshape": "<1x96x1x8x8>",
        "shape": [
          1,
          96,
          8,
          8
        ],
        "slice": "[0:1, 0:96, 0:1, 0:8, 0:8]",
        "type": "tensor<1x96x8x8xf16>"
      },
      {
        "address": 65536,
        "layout": "compact",
        "memory_type": "<1x96x3x3xf16>",
        "name": "load_154_Convblaze_face.backbone2.3.convs.0.weight_f16",
        "reshape": "<1x96x1x3x3>",
        "shape": [
          1,
          96,
          3,
          3
        ],
        "slice": "[0:1, 0:96, 0:1, 0:3, 0:3]",
        "type": "tensor<1x96x3x3xf16>"
      },
      {
        "address": 114688,
        "layout": "compact",
        "memory_type": "<1x96x1x1xf16>",
        "name": "load_154_Conv_reordered",
        "reshape": "<1x96x1x1x1>",
        "shape": [
          1,
          96,
          1,
          1
        ],
        "slice": "[0:1, 0:96, 0:1, 0:1, 0:1]",
        "type": "tensor<1x96x1x1xf16>"
      }
    ],
    "results": [
      {
        "address": 49152,
        "layout": "eu_align",
        "memory_type": "<1x96x8x8xf16>",
        "name": "154_Conv",
        "reshape": "<1x96x1x8x8>",
        "shape": [
          1,
          96,
          8,
          8
        ],
        "slice": "[0:1, 0:96, 0:1, 0:8, 0:8]",
        "type": "tensor<1x96x8x8xf16>"
      }
    ],
    "buffers": [
      {
        "address": 32768,
        "size": 662
      }
    ]
  },
  {
    "file-line": 269,
    "subnet_id": 0,
    "core_id": 0,
    "opcode": "tpu.Load",
    "is_local": true,
    "tiu_dma_id(before)": [
      61,
      119
    ],
    "tiu_dma_id(after)": [
      61,
      120
    ],
    "operands": [
      {
        "address": 1099512070144,
        "layout": "continuous",
        "memory_type": "<1x96x1x96xf16>",
        "name": "155_Conv_filter_reorderd",
        "reshape": "<1x96x1x1x96>",
        "shape": [
          1,
          96,
          1,
          96
        ],
        "slice": "[0:1, 0:96, 0:1, 0:1, 0:96]",
        "type": "tensor<1x96x1x96xf16, 1099512070144 : i64>"
      }
    ],
    "results": [
      {
        "address": 1024,
        "layout": "compact",
        "memory_type": "<1x96x1x96xf16>",
        "name": "load_155_Conv_filter_reorderd",
        "reshape": "<1x96x1x1x96>",
        "shape": [
          1,
          96,
          1,
          96
        ],
        "slice": "[0:1, 0:96, 0:1, 0:1, 0:96]",
        "type": "tensor<1x96x1x96xf16>"
      }
    ],
    "buffers": []
  },
  {
    "file-line": 270,
    "subnet_id": 0,
    "core_id": 0,
    "opcode": "tpu.Load",
    "is_local": true,
    "tiu_dma_id(before)": [
      61,
      120
    ],
    "tiu_dma_id(after)": [
      61,
      121
    ],
    "operands": [
      {
        "address": 1099512066048,
        "layout": "continuous",
        "memory_type": "<1x96x1x1xf32>",
        "name": "blaze_face.backbone2.3.convs.1.bias",
        "reshape": "<1x96x1x1x1>",
        "shape": [
          1,
          96,
          1,
          1
        ],
        "slice": "[0:1, 0:96, 0:1, 0:1, 0:1]",
        "type": "tensor<1x96x1x1xf32, 1099512066048 : i64>"
      }
    ],
    "results": [
      {
        "address": 81920,
        "layout": "compact",
        "memory_type": "<1x96x1x1xf32>",
        "name": "load_blaze_face.backbone2.3.convs.1.bias",
        "reshape": "<1x96x1x1x1>",
        "shape": [
          1,
          96,
          1,
          1
        ],
        "slice": "[0:1, 0:96, 0:1, 0:1, 0:1]",
        "type": "tensor<1x96x1x1xf32>"
      }
    ],
    "buffers": []
  },
  {
    "file-line": 274,
    "subnet_id": 0,
    "core_id": 0,
    "opcode": "tpu.Conv2D",
    "is_local": true,
    "tiu_dma_id(before)": [
      62,
      121
    ],
    "tiu_dma_id(after)": [
      63,
      121
    ],
    "operands": [
      {
        "address": 49152,
        "layout": "eu_align",
        "memory_type": "<1x96x8x8xf16>",
        "name": "154_Conv",
        "reshape": "<1x96x1x8x8>",
        "shape": [
          1,
          96,
          8,
          8
        ],
        "slice": "[0:1, 0:96, 0:1, 0:8, 0:8]",
        "type": "tensor<1x96x8x8xf16>"
      },
      {
        "address": 1024,
        "layout": "compact",
        "memory_type": "<1x96x1x96xf16>",
        "name": "load_155_Conv_filter_reorderd",
        "reshape": "<1x96x1x1x96>",
        "shape": [
          1,
          96,
          1,
          96
        ],
        "slice": "[0:1, 0:96, 0:1, 0:1, 0:96]",
        "type": "tensor<1x96x1x96xf16>"
      },
      {
        "address": 81920,
        "layout": "compact",
        "memory_type": "<1x96x1x1xf32>",
        "name": "load_blaze_face.backbone2.3.convs.1.bias",
        "reshape": "<1x96x1x1x1>",
        "shape": [
          1,
          96,
          1,
          1
        ],
        "slice": "[0:1, 0:96, 0:1, 0:1, 0:1]",
        "type": "tensor<1x96x1x1xf32>"
      }
    ],
    "results": [
      {
        "address": 16640,
        "layout": "eu_align",
        "memory_type": "<1x96x8x8xf16>",
        "name": "155_Conv",
        "reshape": "<1x96x1x8x8>",
        "shape": [
          1,
          96,
          8,
          8
        ],
        "slice": "[0:1, 0:96, 0:1, 0:8, 0:8]",
        "type": "tensor<1x96x8x8xf16>"
      }
    ],
    "buffers": []
  },
  {
    "file-line": 275,
    "subnet_id": 0,
    "core_id": 0,
    "opcode": "tpu.Add",
    "is_local": true,
    "tiu_dma_id(before)": [
      63,
      121
    ],
    "tiu_dma_id(after)": [
      65,
      121
    ],
    "operands": [
      {
        "address": 16640,
        "layout": "eu_align",
        "memory_type": "<1x96x8x8xf16>",
        "name": "155_Conv",
        "reshape": "<1x96x1x8x8>",
        "shape": [
          1,
          96,
          8,
          8
        ],
        "slice": "[0:1, 0:96, 0:1, 0:8, 0:8]",
        "type": "tensor<1x96x8x8xf16>"
      },
      {
        "address": 16384,
        "layout": "eu_align",
        "memory_type": "<1x96x8x8xf16>",
        "name": "153_Relu",
        "reshape": "<1x96x1x8x8>",
        "shape": [
          1,
          96,
          8,
          8
        ],
        "slice": "[0:1, 0:96, 0:1, 0:8, 0:8]",
        "type": "tensor<1x96x8x8xf16>"
      }
    ],
    "results": [
      {
        "address": 32768,
        "layout": "eu_align",
        "memory_type": "<1x96x8x8xf16>",
        "name": "157_Relu",
        "reshape": "<1x96x1x8x8>",
        "shape": [
          1,
          96,
          8,
          8
        ],
        "slice": "[0:1, 0:96, 0:1, 0:8, 0:8]",
        "type": "tensor<1x96x8x8xf16>"
      }
    ],
    "buffers": []
  },
  {
    "file-line": 272,
    "subnet_id": 0,
    "core_id": 0,
    "opcode": "tpu.Load",
    "is_local": true,
    "tiu_dma_id(before)": [
      62,
      121
    ],
    "tiu_dma_id(after)": [
      62,
      122
    ],
    "operands": [
      {
        "address": 1099512094720,
        "layout": "continuous",
        "memory_type": "<1x96x1x1xf16>",
        "name": "158_Conv_reordered",
        "reshape": "<1x96x1x1x1>",
        "shape": [
          1,
          96,
          1,
          1
        ],
        "slice": "[0:1, 0:96, 0:1, 0:1, 0:1]",
        "type": "tensor<1x96x1x1xf16, 1099512094720 : i64>"
      }
    ],
    "results": [
      {
        "address": 98304,
        "layout": "compact",
        "memory_type": "<1x96x1x1xf16>",
        "name": "load_158_Conv_reordered",
        "reshape": "<1x96x1x1x1>",
        "shape": [
          1,
          96,
          1,
          1
        ],
        "slice": "[0:1, 0:96, 0:1, 0:1, 0:1]",
        "type": "tensor<1x96x1x1xf16>"
      }
    ],
    "buffers": []
  },
  {
    "file-line": 273,
    "subnet_id": 0,
    "core_id": 0,
    "opcode": "tpu.Load",
    "is_local": true,
    "tiu_dma_id(before)": [
      62,
      122
    ],
    "tiu_dma_id(after)": [
      62,
      123
    ],
    "operands": [
      {
        "address": 1099512090624,
        "layout": "continuous",
        "memory_type": "<1x96x3x3xf16>",
        "name": "158_Convblaze_face.backbone2.4.convs.0.weight_f16",
        "reshape": "<1x96x1x3x3>",
        "shape": [
          1,
          96,
          3,
          3
        ],
        "slice": "[0:1, 0:96, 0:1, 0:3, 0:3]",
        "type": "tensor<1x96x3x3xf16, 1099512090624 : i64>"
      }
    ],
    "results": [
      {
        "address": 65536,
        "layout": "compact",
        "memory_type": "<1x96x3x3xf16>",
        "name": "load_158_Convblaze_face.backbone2.4.convs.0.weight_f16",
        "reshape": "<1x96x1x3x3>",
        "shape": [
          1,
          96,
          3,
          3
        ],
        "slice": "[0:1, 0:96, 0:1, 0:3, 0:3]",
        "type": "tensor<1x96x3x3xf16>"
      }
    ],
    "buffers": []
  },
  {
    "file-line": 278,
    "subnet_id": 0,
    "core_id": 0,
    "opcode": "tpu.Conv2D",
    "is_local": true,
    "tiu_dma_id(before)": [
      65,
      123
    ],
    "tiu_dma_id(after)": [
      66,
      123
    ],
    "operands": [
      {
        "address": 32768,
        "layout": "eu_align",
        "memory_type": "<1x96x8x8xf16>",
        "name": "157_Relu",
        "reshape": "<1x96x1x8x8>",
        "shape": [
          1,
          96,
          8,
          8
        ],
        "slice": "[0:1, 0:96, 0:1, 0:8, 0:8]",
        "type": "tensor<1x96x8x8xf16>"
      },
      {
        "address": 65536,
        "layout": "compact",
        "memory_type": "<1x96x3x3xf16>",
        "name": "load_158_Convblaze_face.backbone2.4.convs.0.weight_f16",
        "reshape": "<1x96x1x3x3>",
        "shape": [
          1,
          96,
          3,
          3
        ],
        "slice": "[0:1, 0:96, 0:1, 0:3, 0:3]",
        "type": "tensor<1x96x3x3xf16>"
      },
      {
        "address": 98304,
        "layout": "compact",
        "memory_type": "<1x96x1x1xf16>",
        "name": "load_158_Conv_reordered",
        "reshape": "<1x96x1x1x1>",
        "shape": [
          1,
          96,
          1,
          1
        ],
        "slice": "[0:1, 0:96, 0:1, 0:1, 0:1]",
        "type": "tensor<1x96x1x1xf16>"
      }
    ],
    "results": [
      {
        "address": 16384,
        "layout": "eu_align",
        "memory_type": "<1x96x8x8xf16>",
        "name": "158_Conv",
        "reshape": "<1x96x1x8x8>",
        "shape": [
          1,
          96,
          8,
          8
        ],
        "slice": "[0:1, 0:96, 0:1, 0:8, 0:8]",
        "type": "tensor<1x96x8x8xf16>"
      }
    ],
    "buffers": [
      {
        "address": 49152,
        "size": 662
      }
    ]
  },
  {
    "file-line": 276,
    "subnet_id": 0,
    "core_id": 0,
    "opcode": "tpu.Load",
    "is_local": true,
    "tiu_dma_id(before)": [
      65,
      123
    ],
    "tiu_dma_id(after)": [
      65,
      124
    ],
    "operands": [
      {
        "address": 1099512102912,
        "layout": "continuous",
        "memory_type": "<1x96x1x96xf16>",
        "name": "159_Conv_filter_reorderd",
        "reshape": "<1x96x1x1x96>",
        "shape": [
          1,
          96,
          1,
          96
        ],
        "slice": "[0:1, 0:96, 0:1, 0:1, 0:96]",
        "type": "tensor<1x96x1x96xf16, 1099512102912 : i64>"
      }
    ],
    "results": [
      {
        "address": 1024,
        "layout": "compact",
        "memory_type": "<1x96x1x96xf16>",
        "name": "load_159_Conv_filter_reorderd",
        "reshape": "<1x96x1x1x96>",
        "shape": [
          1,
          96,
          1,
          96
        ],
        "slice": "[0:1, 0:96, 0:1, 0:1, 0:96]",
        "type": "tensor<1x96x1x96xf16>"
      }
    ],
    "buffers": []
  },
  {
    "file-line": 277,
    "subnet_id": 0,
    "core_id": 0,
    "opcode": "tpu.Load",
    "is_local": true,
    "tiu_dma_id(before)": [
      65,
      124
    ],
    "tiu_dma_id(after)": [
      65,
      125
    ],
    "operands": [
      {
        "address": 1099512098816,
        "layout": "continuous",
        "memory_type": "<1x96x1x1xf32>",
        "name": "blaze_face.backbone2.4.convs.1.bias",
        "reshape": "<1x96x1x1x1>",
        "shape": [
          1,
          96,
          1,
          1
        ],
        "slice": "[0:1, 0:96, 0:1, 0:1, 0:1]",
        "type": "tensor<1x96x1x1xf32, 1099512098816 : i64>"
      }
    ],
    "results": [
      {
        "address": 81920,
        "layout": "compact",
        "memory_type": "<1x96x1x1xf32>",
        "name": "load_blaze_face.backbone2.4.convs.1.bias",
        "reshape": "<1x96x1x1x1>",
        "shape": [
          1,
          96,
          1,
          1
        ],
        "slice": "[0:1, 0:96, 0:1, 0:1, 0:1]",
        "type": "tensor<1x96x1x1xf32>"
      }
    ],
    "buffers": []
  },
  {
    "file-line": 281,
    "subnet_id": 0,
    "core_id": 0,
    "opcode": "tpu.Conv2D",
    "is_local": true,
    "tiu_dma_id(before)": [
      66,
      125
    ],
    "tiu_dma_id(after)": [
      67,
      125
    ],
    "operands": [
      {
        "address": 16384,
        "layout": "eu_align",
        "memory_type": "<1x96x8x8xf16>",
        "name": "158_Conv",
        "reshape": "<1x96x1x8x8>",
        "shape": [
          1,
          96,
          8,
          8
        ],
        "slice": "[0:1, 0:96, 0:1, 0:8, 0:8]",
        "type": "tensor<1x96x8x8xf16>"
      },
      {
        "address": 1024,
        "layout": "compact",
        "memory_type": "<1x96x1x96xf16>",
        "name": "load_159_Conv_filter_reorderd",
        "reshape": "<1x96x1x1x96>",
        "shape": [
          1,
          96,
          1,
          96
        ],
        "slice": "[0:1, 0:96, 0:1, 0:1, 0:96]",
        "type": "tensor<1x96x1x96xf16>"
      },
      {
        "address": 81920,
        "layout": "compact",
        "memory_type": "<1x96x1x1xf32>",
        "name": "load_blaze_face.backbone2.4.convs.1.bias",
        "reshape": "<1x96x1x1x1>",
        "shape": [
          1,
          96,
          1,
          1
        ],
        "slice": "[0:1, 0:96, 0:1, 0:1, 0:1]",
        "type": "tensor<1x96x1x1xf32>"
      }
    ],
    "results": [
      {
        "address": 33024,
        "layout": "eu_align",
        "memory_type": "<1x96x8x8xf16>",
        "name": "159_Conv",
        "reshape": "<1x96x1x8x8>",
        "shape": [
          1,
          96,
          8,
          8
        ],
        "slice": "[0:1, 0:96, 0:1, 0:8, 0:8]",
        "type": "tensor<1x96x8x8xf16>"
      }
    ],
    "buffers": []
  },
  {
    "file-line": 282,
    "subnet_id": 0,
    "core_id": 0,
    "opcode": "tpu.Add",
    "is_local": true,
    "tiu_dma_id(before)": [
      67,
      125
    ],
    "tiu_dma_id(after)": [
      69,
      125
    ],
    "operands": [
      {
        "address": 33024,
        "layout": "eu_align",
        "memory_type": "<1x96x8x8xf16>",
        "name": "159_Conv",
        "reshape": "<1x96x1x8x8>",
        "shape": [
          1,
          96,
          8,
          8
        ],
        "slice": "[0:1, 0:96, 0:1, 0:8, 0:8]",
        "type": "tensor<1x96x8x8xf16>"
      },
      {
        "address": 32768,
        "layout": "eu_align",
        "memory_type": "<1x96x8x8xf16>",
        "name": "157_Relu",
        "reshape": "<1x96x1x8x8>",
        "shape": [
          1,
          96,
          8,
          8
        ],
        "slice": "[0:1, 0:96, 0:1, 0:8, 0:8]",
        "type": "tensor<1x96x8x8xf16>"
      }
    ],
    "results": [
      {
        "address": 49152,
        "layout": "eu_align",
        "memory_type": "<1x96x8x8xf16>",
        "name": "161_Relu",
        "reshape": "<1x96x1x8x8>",
        "shape": [
          1,
          96,
          8,
          8
        ],
        "slice": "[0:1, 0:96, 0:1, 0:8, 0:8]",
        "type": "tensor<1x96x8x8xf16>"
      }
    ],
    "buffers": []
  },
  {
    "file-line": 279,
    "subnet_id": 0,
    "core_id": 0,
    "opcode": "tpu.Load",
    "is_local": true,
    "tiu_dma_id(before)": [
      66,
      125
    ],
    "tiu_dma_id(after)": [
      66,
      126
    ],
    "operands": [
      {
        "address": 1099512123392,
        "layout": "continuous",
        "memory_type": "<1x2x1x1xf32>",
        "name": "blaze_face.classifier_8.bias",
        "reshape": "<1x2x1x1x1>",
        "shape": [
          1,
          2,
          1,
          1
        ],
        "slice": "[0:1, 0:2, 0:1, 0:1, 0:1]",
        "type": "tensor<1x2x1x1xf32, 1099512123392 : i64>"
      }
    ],
    "results": [
      {
        "address": 98304,
        "layout": "compact",
        "memory_type": "<1x2x1x1xf32>",
        "name": "load_blaze_face.classifier_8.bias",
        "reshape": "<1x2x1x1x1>",
        "shape": [
          1,
          2,
          1,
          1
        ],
        "slice": "[0:1, 0:2, 0:1, 0:1, 0:1]",
        "type": "tensor<1x2x1x1xf32>"
      }
    ],
    "buffers": []
  },
  {
    "file-line": 280,
    "subnet_id": 0,
    "core_id": 0,
    "opcode": "tpu.Load",
    "is_local": true,
    "tiu_dma_id(before)": [
      66,
      126
    ],
    "tiu_dma_id(after)": [
      66,
      127
    ],
    "operands": [
      {
        "address": 1099512127488,
        "layout": "continuous",
        "memory_type": "<1x2x1x96xf16>",
        "name": "162_Conv_filter_reorderd",
        "reshape": "<1x2x1x1x96>",
        "shape": [
          1,
          2,
          1,
          96
        ],
        "slice": "[0:1, 0:2, 0:1, 0:1, 0:96]",
        "type": "tensor<1x2x1x96xf16, 1099512127488 : i64>"
      }
    ],
    "results": [
      {
        "address": 65536,
        "layout": "compact",
        "memory_type": "<1x2x1x96xf16>",
        "name": "load_162_Conv_filter_reorderd",
        "reshape": "<1x2x1x1x96>",
        "shape": [
          1,
          2,
          1,
          96
        ],
        "slice": "[0:1, 0:2, 0:1, 0:1, 0:96]",
        "type": "tensor<1x2x1x96xf16>"
      }
    ],
    "buffers": []
  },
  {
    "file-line": 284,
    "subnet_id": 0,
    "core_id": 0,
    "opcode": "tpu.Conv2D",
    "is_local": true,
    "tiu_dma_id(before)": [
      69,
      127
    ],
    "tiu_dma_id(after)": [
      70,
      127
    ],
    "operands": [
      {
        "address": 0,
        "layout": "eu_align",
        "memory_type": "<1x88x16x16xf16>",
        "name": "load_138_Relu",
        "reshape": "<1x88x1x16x16>",
        "shape": [
          1,
          88,
          16,
          16
        ],
        "slice": "[0:1, 0:88, 0:1, 0:16, 0:16]",
        "type": "tensor<1x88x16x16xf16>"
      },
      {
        "address": 65536,
        "layout": "compact",
        "memory_type": "<1x2x1x96xf16>",
        "name": "load_162_Conv_filter_reorderd",
        "reshape": "<1x2x1x1x96>",
        "shape": [
          1,
          2,
          1,
          96
        ],
        "slice": "[0:1, 0:2, 0:1, 0:1, 0:96]",
        "type": "tensor<1x2x1x96xf16>"
      },
      {
        "address": 98304,
        "layout": "compact",
        "memory_type": "<1x2x1x1xf32>",
        "name": "load_blaze_face.classifier_8.bias",
        "reshape": "<1x2x1x1x1>",
        "shape": [
          1,
          2,
          1,
          1
        ],
        "slice": "[0:1, 0:2, 0:1, 0:1, 0:1]",
        "type": "tensor<1x2x1x1xf32>"
      }
    ],
    "results": [
      {
        "address": 16384,
        "layout": "eu_align",
        "memory_type": "<1x2x16x16xf16>",
        "name": "162_Conv",
        "reshape": "<1x2x1x16x16>",
        "shape": [
          1,
          2,
          16,
          16
        ],
        "slice": "[0:1, 0:2, 0:1, 0:16, 0:16]",
        "type": "tensor<1x2x16x16xf16>"
      }
    ],
    "buffers": []
  },
  {
    "file-line": 283,
    "subnet_id": 0,
    "core_id": 0,
    "opcode": "tpu.Store",
    "is_local": true,
    "tiu_dma_id(before)": [
      69,
      127
    ],
    "tiu_dma_id(after)": [
      69,
      128
    ],
    "operands": [
      {
        "address": 49152,
        "layout": "eu_align",
        "memory_type": "<1x96x8x8xf16>",
        "name": "161_Relu",
        "reshape": "<1x96x1x8x8>",
        "shape": [
          1,
          96,
          8,
          8
        ],
        "slice": "[0:1, 0:96, 0:1, 0:8, 0:8]",
        "type": "tensor<1x96x8x8xf16>"
      },
      {}
    ],
    "results": [
      {
        "address": 33438467928064,
        "layout": "continuous",
        "memory_type": "<1x96x8x8xf16>",
        "name": "161_Relu",
        "reshape": "<1x96x1x8x8>",
        "shape": [
          1,
          96,
          8,
          8
        ],
        "slice": "[0:1, 0:96, 0:1, 0:8, 0:8]",
        "type": "tensor<1x96x8x8xf16, 33438467928064 : i64>"
      }
    ],
    "buffers": []
  },
  {
    "file-line": 285,
    "subnet_id": 0,
    "core_id": 0,
    "opcode": "tpu.Store",
    "is_local": true,
    "tiu_dma_id(before)": [
      70,
      128
    ],
    "tiu_dma_id(after)": [
      70,
      129
    ],
    "operands": [
      {
        "address": 16384,
        "layout": "eu_align",
        "memory_type": "<1x2x16x16xf16>",
        "name": "162_Conv",
        "reshape": "<1x2x1x16x16>",
        "shape": [
          1,
          2,
          16,
          16
        ],
        "slice": "[0:1, 0:2, 0:1, 0:16, 0:16]",
        "type": "tensor<1x2x16x16xf16>"
      },
      {}
    ],
    "results": [
      {
        "address": 33438467883008,
        "layout": "continuous",
        "memory_type": "<1x2x16x16xf16>",
        "name": "162_Conv",
        "reshape": "<1x2x1x16x16>",
        "shape": [
          1,
          2,
          16,
          16
        ],
        "slice": "[0:1, 0:2, 0:1, 0:16, 0:16]",
        "type": "tensor<1x2x16x16xf16, 33438467883008 : i64>"
      }
    ],
    "buffers": []
  },
  {
    "file-line": 288,
    "subnet_id": 0,
    "core_id": 0,
    "opcode": "tpu.Permute",
    "is_local": false,
    "tiu_dma_id(before)": [
      70,
      129
    ],
    "tiu_dma_id(after)": [
      71,
      131
    ],
    "operands": [
      {
        "address": 33438467883008,
        "layout": "continuous",
        "memory_type": "<1x2x16x16xf16>",
        "name": "162_Conv",
        "reshape": "",
        "shape": [
          1,
          2,
          16,
          16
        ],
        "slice": "[...]",
        "type": "tensor<1x2x16x16xf16, 33438467883008 : i64>"
      },
      {}
    ],
    "results": [
      {
        "address": 33438467887104,
        "layout": "continuous",
        "memory_type": "<1x16x16x2xf16>",
        "name": "163_Transpose",
        "reshape": "",
        "shape": [
          1,
          16,
          16,
          2
        ],
        "slice": "[...]",
        "type": "tensor<1x16x16x2xf16, 33438467887104 : i64>"
      }
    ],
    "buffers": []
  },
  {
    "file-line": 289,
    "subnet_id": 0,
    "core_id": 0,
    "opcode": "tpu.Reshape",
    "is_local": false,
    "tiu_dma_id(before)": [
      71,
      131
    ],
    "tiu_dma_id(after)": [
      71,
      131
    ],
    "operands": [
      {
        "address": 33438467887104,
        "layout": "continuous",
        "memory_type": "<1x16x16x2xf16>",
        "name": "163_Transpose",
        "reshape": "",
        "shape": [
          1,
          16,
          16,
          2
        ],
        "slice": "[...]",
        "type": "tensor<1x16x16x2xf16, 33438467887104 : i64>"
      }
    ],
    "results": [
      {
        "address": 33438467887104,
        "layout": "continuous",
        "memory_type": "<1x512x1xf16>",
        "name": "170_Reshape",
        "reshape": "",
        "shape": [
          1,
          512,
          1
        ],
        "slice": "[...]",
        "type": "tensor<1x512x1xf16, 33438467887104 : i64>"
      }
    ],
    "buffers": []
  },
  {
    "file-line": 292,
    "subnet_id": 0,
    "core_id": 0,
    "opcode": "tpu.Conv2D",
    "is_local": false,
    "tiu_dma_id(before)": [
      71,
      131
    ],
    "tiu_dma_id(after)": [
      72,
      135
    ],
    "operands": [
      {
        "address": 33438467928064,
        "layout": "continuous",
        "memory_type": "<1x96x8x8xf16>",
        "name": "161_Relu",
        "reshape": "",
        "shape": [
          1,
          96,
          8,
          8
        ],
        "slice": "[...]",
        "type": "tensor<1x96x8x8xf16, 33438467928064 : i64>"
      },
      {
        "address": 1099512135680,
        "layout": "continuous",
        "memory_type": "<1x6x1x96xf16>",
        "name": "171_Conv_filter_reorderd",
        "reshape": "",
        "shape": [
          1,
          6,
          1,
          96
        ],
        "slice": "[...]",
        "type": "tensor<1x6x1x96xf16, 1099512135680 : i64>"
      },
      {
        "address": 1099512131584,
        "layout": "continuous",
        "memory_type": "<1x6x1x1xf32>",
        "name": "blaze_face.classifier_16.bias",
        "reshape": "",
        "shape": [
          1,
          6,
          1,
          1
        ],
        "slice": "[...]",
        "type": "tensor<1x6x1x1xf32, 1099512131584 : i64>"
      }
    ],
    "results": [
      {
        "address": 33438467883008,
        "layout": "continuous",
        "memory_type": "<1x6x8x8xf16>",
        "name": "171_Conv",
        "reshape": "",
        "shape": [
          1,
          6,
          8,
          8
        ],
        "slice": "[...]",
        "type": "tensor<1x6x8x8xf16, 33438467883008 : i64>"
      }
    ],
    "buffers": []
  },
  {
    "file-line": 293,
    "subnet_id": 0,
    "core_id": 0,
    "opcode": "tpu.Permute",
    "is_local": false,
    "tiu_dma_id(before)": [
      72,
      135
    ],
    "tiu_dma_id(after)": [
      73,
      137
    ],
    "operands": [
      {
        "address": 33438467883008,
        "layout": "continuous",
        "memory_type": "<1x6x8x8xf16>",
        "name": "171_Conv",
        "reshape": "",
        "shape": [
          1,
          6,
          8,
          8
        ],
        "slice": "[...]",
        "type": "tensor<1x6x8x8xf16, 33438467883008 : i64>"
      },
      {}
    ],
    "results": [
      {
        "address": 33438467891200,
        "layout": "continuous",
        "memory_type": "<1x8x8x6xf16>",
        "name": "172_Transpose",
        "reshape": "",
        "shape": [
          1,
          8,
          8,
          6
        ],
        "slice": "[...]",
        "type": "tensor<1x8x8x6xf16, 33438467891200 : i64>"
      }
    ],
    "buffers": []
  },
  {
    "file-line": 294,
    "subnet_id": 0,
    "core_id": 0,
    "opcode": "tpu.Reshape",
    "is_local": false,
    "tiu_dma_id(before)": [
      73,
      137
    ],
    "tiu_dma_id(after)": [
      73,
      137
    ],
    "operands": [
      {
        "address": 33438467891200,
        "layout": "continuous",
        "memory_type": "<1x8x8x6xf16>",
        "name": "172_Transpose",
        "reshape": "",
        "shape": [
          1,
          8,
          8,
          6
        ],
        "slice": "[...]",
        "type": "tensor<1x8x8x6xf16, 33438467891200 : i64>"
      }
    ],
    "results": [
      {
        "address": 33438467891200,
        "layout": "continuous",
        "memory_type": "<1x384x1xf16>",
        "name": "179_Reshape",
        "reshape": "",
        "shape": [
          1,
          384,
          1
        ],
        "slice": "[...]",
        "type": "tensor<1x384x1xf16, 33438467891200 : i64>"
      }
    ],
    "buffers": []
  },
  {
    "file-line": 295,
    "subnet_id": 0,
    "core_id": 0,
    "opcode": "tpu.Concat",
    "is_local": false,
    "tiu_dma_id(before)": [
      73,
      137
    ],
    "tiu_dma_id(after)": [
      73,
      139
    ],
    "operands": [
      {
        "address": 33438467887104,
        "layout": "continuous",
        "memory_type": "<1x512x1xf16>",
        "name": "170_Reshape",
        "reshape": "",
        "shape": [
          1,
          512,
          1
        ],
        "slice": "[...]",
        "type": "tensor<1x512x1xf16, 33438467887104 : i64>"
      },
      {
        "address": 33438467891200,
        "layout": "continuous",
        "memory_type": "<1x384x1xf16>",
        "name": "179_Reshape",
        "reshape": "",
        "shape": [
          1,
          384,
          1
        ],
        "slice": "[...]",
        "type": "tensor<1x384x1xf16, 33438467891200 : i64>"
      }
    ],
    "results": [
      {
        "address": 33438467883008,
        "layout": "continuous",
        "memory_type": "<1x896x1xf16>",
        "name": "180_Concat",
        "reshape": "",
        "shape": [
          1,
          896,
          1
        ],
        "slice": "[...]",
        "type": "tensor<1x896x1xf16, 33438467883008 : i64>"
      }
    ],
    "buffers": []
  },
  {
    "file-line": 296,
    "subnet_id": 0,
    "core_id": 0,
    "opcode": "tpu.Cast",
    "is_local": false,
    "tiu_dma_id(before)": [
      73,
      139
    ],
    "tiu_dma_id(after)": [
      74,
      141
    ],
    "operands": [
      {
        "address": 33438467883008,
        "layout": "continuous",
        "memory_type": "<1x896x1xf16>",
        "name": "180_Concat",
        "reshape": "",
        "shape": [
          1,
          896,
          1
        ],
        "slice": "[...]",
        "type": "tensor<1x896x1xf16, 33438467883008 : i64>"
      }
    ],
    "results": [
      {
        "address": 2199023452160,
        "layout": "continuous",
        "memory_type": "<1x896x1xf32>",
        "name": "180_Concat_f32",
        "reshape": "",
        "shape": [
          1,
          896,
          1
        ],
        "slice": "[...]",
        "type": "tensor<1x896x1xf32, 2199023452160 : i64>"
      }
    ],
    "buffers": []
  },
  {
    "file-line": 299,
    "subnet_id": 0,
    "core_id": 0,
    "opcode": "tpu.Conv2D",
    "is_local": false,
    "tiu_dma_id(before)": [
      74,
      141
    ],
    "tiu_dma_id(after)": [
      75,
      145
    ],
    "operands": [
      {
        "address": 33438467940352,
        "layout": "continuous",
        "memory_type": "<1x88x16x16xf16>",
        "name": "138_Relu",
        "reshape": "",
        "shape": [
          1,
          88,
          16,
          16
        ],
        "slice": "[...]",
        "type": "tensor<1x88x16x16xf16, 33438467940352 : i64>"
      },
      {
        "address": 1099512143872,
        "layout": "continuous",
        "memory_type": "<1x32x1x96xf16>",
        "name": "181_Conv_filter_reorderd",
        "reshape": "",
        "shape": [
          1,
          32,
          1,
          96
        ],
        "slice": "[...]",
        "type": "tensor<1x32x1x96xf16, 1099512143872 : i64>"
      },
      {
        "address": 1099512139776,
        "layout": "continuous",
        "memory_type": "<1x32x1x1xf32>",
        "name": "blaze_face.regressor_8.bias",
        "reshape": "",
        "shape": [
          1,
          32,
          1,
          1
        ],
        "slice": "[...]",
        "type": "tensor<1x32x1x1xf32, 1099512139776 : i64>"
      }
    ],
    "results": [
      {
        "address": 33438467883008,
        "layout": "continuous",
        "memory_type": "<1x32x16x16xf16>",
        "name": "181_Conv",
        "reshape": "",
        "shape": [
          1,
          32,
          16,
          16
        ],
        "slice": "[...]",
        "type": "tensor<1x32x16x16xf16, 33438467883008 : i64>"
      }
    ],
    "buffers": []
  },
  {
    "file-line": 300,
    "subnet_id": 0,
    "core_id": 0,
    "opcode": "tpu.Permute",
    "is_local": false,
    "tiu_dma_id(before)": [
      75,
      145
    ],
    "tiu_dma_id(after)": [
      76,
      147
    ],
    "operands": [
      {
        "address": 33438467883008,
        "layout": "continuous",
        "memory_type": "<1x32x16x16xf16>",
        "name": "181_Conv",
        "reshape": "",
        "shape": [
          1,
          32,
          16,
          16
        ],
        "slice": "[...]",
        "type": "tensor<1x32x16x16xf16, 33438467883008 : i64>"
      },
      {}
    ],
    "results": [
      {
        "address": 33438467911680,
        "layout": "continuous",
        "memory_type": "<1x16x16x32xf16>",
        "name": "182_Transpose",
        "reshape": "",
        "shape": [
          1,
          16,
          16,
          32
        ],
        "slice": "[...]",
        "type": "tensor<1x16x16x32xf16, 33438467911680 : i64>"
      }
    ],
    "buffers": []
  },
  {
    "file-line": 301,
    "subnet_id": 0,
    "core_id": 0,
    "opcode": "tpu.Reshape",
    "is_local": false,
    "tiu_dma_id(before)": [
      76,
      147
    ],
    "tiu_dma_id(after)": [
      76,
      147
    ],
    "operands": [
      {
        "address": 33438467911680,
        "layout": "continuous",
        "memory_type": "<1x16x16x32xf16>",
        "name": "182_Transpose",
        "reshape": "",
        "shape": [
          1,
          16,
          16,
          32
        ],
        "slice": "[...]",
        "type": "tensor<1x16x16x32xf16, 33438467911680 : i64>"
      }
    ],
    "results": [
      {
        "address": 33438467911680,
        "layout": "continuous",
        "memory_type": "<1x512x16xf16>",
        "name": "189_Reshape",
        "reshape": "",
        "shape": [
          1,
          512,
          16
        ],
        "slice": "[...]",
        "type": "tensor<1x512x16xf16, 33438467911680 : i64>"
      }
    ],
    "buffers": []
  },
  {
    "file-line": 304,
    "subnet_id": 0,
    "core_id": 0,
    "opcode": "tpu.Conv2D",
    "is_local": false,
    "tiu_dma_id(before)": [
      76,
      147
    ],
    "tiu_dma_id(after)": [
      78,
      154
    ],
    "operands": [
      {
        "address": 33438467928064,
        "layout": "continuous",
        "memory_type": "<1x96x8x8xf16>",
        "name": "161_Relu",
        "reshape": "",
        "shape": [
          1,
          96,
          8,
          8
        ],
        "slice": "[...]",
        "type": "tensor<1x96x8x8xf16, 33438467928064 : i64>"
      },
      {
        "address": 1099512156160,
        "layout": "continuous",
        "memory_type": "<1x96x1x96xf16>",
        "name": "190_Conv_filter_reorderd",
        "reshape": "",
        "shape": [
          1,
          96,
          1,
          96
        ],
        "slice": "[...]",
        "type": "tensor<1x96x1x96xf16, 1099512156160 : i64>"
      },
      {
        "address": 1099512152064,
        "layout": "continuous",
        "memory_type": "<1x96x1x1xf32>",
        "name": "blaze_face.regressor_16.bias",
        "reshape": "",
        "shape": [
          1,
          96,
          1,
          1
        ],
        "slice": "[...]",
        "type": "tensor<1x96x1x1xf32, 1099512152064 : i64>"
      }
    ],
    "results": [
      {
        "address": 33438467883008,
        "layout": "continuous",
        "memory_type": "<1x96x8x8xf16>",
        "name": "190_Conv",
        "reshape": "",
        "shape": [
          1,
          96,
          8,
          8
        ],
        "slice": "[...]",
        "type": "tensor<1x96x8x8xf16, 33438467883008 : i64>"
      }
    ],
    "buffers": []
  },
  {
    "file-line": 305,
    "subnet_id": 0,
    "core_id": 0,
    "opcode": "tpu.Permute",
    "is_local": false,
    "tiu_dma_id(before)": [
      78,
      154
    ],
    "tiu_dma_id(after)": [
      79,
      156
    ],
    "operands": [
      {
        "address": 33438467883008,
        "layout": "continuous",
        "memory_type": "<1x96x8x8xf16>",
        "name": "190_Conv",
        "reshape": "",
        "shape": [
          1,
          96,
          8,
          8
        ],
        "slice": "[...]",
        "type": "tensor<1x96x8x8xf16, 33438467883008 : i64>"
      },
      {}
    ],
    "results": [
      {
        "address": 33438467928064,
        "layout": "continuous",
        "memory_type": "<1x8x8x96xf16>",
        "name": "191_Transpose",
        "reshape": "",
        "shape": [
          1,
          8,
          8,
          96
        ],
        "slice": "[...]",
        "type": "tensor<1x8x8x96xf16, 33438467928064 : i64>"
      }
    ],
    "buffers": []
  },
  {
    "file-line": 306,
    "subnet_id": 0,
    "core_id": 0,
    "opcode": "tpu.Reshape",
    "is_local": false,
    "tiu_dma_id(before)": [
      79,
      156
    ],
    "tiu_dma_id(after)": [
      79,
      156
    ],
    "operands": [
      {
        "address": 33438467928064,
        "layout": "continuous",
        "memory_type": "<1x8x8x96xf16>",
        "name": "191_Transpose",
        "reshape": "",
        "shape": [
          1,
          8,
          8,
          96
        ],
        "slice": "[...]",
        "type": "tensor<1x8x8x96xf16, 33438467928064 : i64>"
      }
    ],
    "results": [
      {
        "address": 33438467928064,
        "layout": "continuous",
        "memory_type": "<1x384x16xf16>",
        "name": "198_Reshape",
        "reshape": "",
        "shape": [
          1,
          384,
          16
        ],
        "slice": "[...]",
        "type": "tensor<1x384x16xf16, 33438467928064 : i64>"
      }
    ],
    "buffers": []
  },
  {
    "file-line": 307,
    "subnet_id": 0,
    "core_id": 0,
    "opcode": "tpu.Concat",
    "is_local": false,
    "tiu_dma_id(before)": [
      79,
      156
    ],
    "tiu_dma_id(after)": [
      79,
      158
    ],
    "operands": [
      {
        "address": 33438467911680,
        "layout": "continuous",
        "memory_type": "<1x512x16xf16>",
        "name": "189_Reshape",
        "reshape": "",
        "shape": [
          1,
          512,
          16
        ],
        "slice": "[...]",
        "type": "tensor<1x512x16xf16, 33438467911680 : i64>"
      },
      {
        "address": 33438467928064,
        "layout": "continuous",
        "memory_type": "<1x384x16xf16>",
        "name": "198_Reshape",
        "reshape": "",
        "shape": [
          1,
          384,
          16
        ],
        "slice": "[...]",
        "type": "tensor<1x384x16xf16, 33438467928064 : i64>"
      }
    ],
    "results": [
      {
        "address": 33438467883008,
        "layout": "continuous",
        "memory_type": "<1x896x16xf16>",
        "name": "199_Concat",
        "reshape": "",
        "shape": [
          1,
          896,
          16
        ],
        "slice": "[...]",
        "type": "tensor<1x896x16xf16, 33438467883008 : i64>"
      }
    ],
    "buffers": []
  },
  {
    "file-line": 308,
    "subnet_id": 0,
    "core_id": 0,
    "opcode": "tpu.Cast",
    "is_local": false,
    "tiu_dma_id(before)": [
      79,
      158
    ],
    "tiu_dma_id(after)": [
      80,
      160
    ],
    "operands": [
      {
        "address": 33438467883008,
        "layout": "continuous",
        "memory_type": "<1x896x16xf16>",
        "name": "199_Concat",
        "reshape": "",
        "shape": [
          1,
          896,
          16
        ],
        "slice": "[...]",
        "type": "tensor<1x896x16xf16, 33438467883008 : i64>"
      }
    ],
    "results": [
      {
        "address": 2199023456256,
        "layout": "continuous",
        "memory_type": "<1x896x16xf32>",
        "name": "199_Concat_f32",
        "reshape": "",
        "shape": [
          1,
          896,
          16
        ],
        "slice": "[...]",
        "type": "tensor<1x896x16xf32, 2199023456256 : i64>"
      }
    ],
    "buffers": []
  }
]