[
  {
    "file-line": 15,
    "subnet_id": 0,
    "core_id": 0,
    "opcode": "tpu.Load",
    "is_local": true,
    "tiu_dma_id(before)": [
      0,
      0
    ],
    "tiu_dma_id(after)": [
      0,
      1
    ],
    "operands": [
      {
        "address": 2201171394560,
        "layout": "continuous",
        "memory_type": "<1x3x46x128xf32>",
        "name": "x.1",
        "reshape": "<1x3x1x128x128>",
        "shape": [
          1,
          3,
          128,
          128
        ],
        "slice": "[0:1, 0:3, 0:1, 0:46, 0:128]",
        "type": "tensor<1x3x128x128xf32, 2201171394560 : i64>"
      }
    ],
    "results": [
      {
        "address": 0,
        "layout": "eu_align",
        "memory_type": "<1x3x46x128xf32>",
        "name": "load_0",
        "reshape": "<1x3x1x128x128>",
        "shape": [
          1,
          3,
          128,
          128
        ],
        "slice": "[0:1, 0:3, 0:1, 0:46, 0:128]",
        "type": "tensor<1x3x128x128xf32>"
      }
    ],
    "buffers": []
  },
  {
    "file-line": 18,
    "subnet_id": 0,
    "core_id": 0,
    "opcode": "tpu.Cast",
    "is_local": true,
    "tiu_dma_id(before)": [
      0,
      1
    ],
    "tiu_dma_id(after)": [
      1,
      1
    ],
    "operands": [
      {
        "address": 0,
        "layout": "eu_align",
        "memory_type": "<1x3x46x128xf32>",
        "name": "load_0",
        "reshape": "<1x3x1x128x128>",
        "shape": [
          1,
          3,
          128,
          128
        ],
        "slice": "[0:1, 0:3, 0:1, 0:46, 0:128]",
        "type": "tensor<1x3x128x128xf32>"
      }
    ],
    "results": [
      {
        "address": 24576,
        "layout": "eu_align",
        "memory_type": "<1x3x46x128xbf16>",
        "name": "x.180_Relu_bf16",
        "reshape": "<1x3x1x128x128>",
        "shape": [
          1,
          3,
          128,
          128
        ],
        "slice": "[0:1, 0:3, 0:1, 0:46, 0:128]",
        "type": "tensor<1x3x128x128xbf16>"
      }
    ],
    "buffers": []
  },
  {
    "file-line": 16,
    "subnet_id": 0,
    "core_id": 0,
    "opcode": "tpu.Load",
    "is_local": true,
    "tiu_dma_id(before)": [
      0,
      1
    ],
    "tiu_dma_id(after)": [
      0,
      2
    ],
    "operands": [
      {
        "address": 1101659115520,
        "layout": "continuous",
        "memory_type": "<1x24x1x200xbf16>",
        "name": "80_Relu_filter_reorderd",
        "reshape": "<1x24x1x1x200>",
        "shape": [
          1,
          24,
          1,
          200
        ],
        "slice": "[0:1, 0:24, 0:1, 0:1, 0:200]",
        "type": "tensor<1x24x1x200xbf16, 1101659115520 : i64>"
      }
    ],
    "results": [
      {
        "address": 49152,
        "layout": "compact",
        "memory_type": "<1x24x1x200xbf16>",
        "name": "load_80_Relu_filter_reorderd",
        "reshape": "<1x24x1x1x200>",
        "shape": [
          1,
          24,
          1,
          200
        ],
        "slice": "[0:1, 0:24, 0:1, 0:1, 0:200]",
        "type": "tensor<1x24x1x200xbf16>"
      }
    ],
    "buffers": []
  },
  {
    "file-line": 17,
    "subnet_id": 0,
    "core_id": 0,
    "opcode": "tpu.Load",
    "is_local": true,
    "tiu_dma_id(before)": [
      0,
      2
    ],
    "tiu_dma_id(after)": [
      0,
      3
    ],
    "operands": [
      {
        "address": 1101659111424,
        "layout": "continuous",
        "memory_type": "<1x24x1x1xf32>",
        "name": "blaze_face.backbone1.0.bias",
        "reshape": "<1x24x1x1x1>",
        "shape": [
          1,
          24,
          1,
          1
        ],
        "slice": "[0:1, 0:24, 0:1, 0:1, 0:1]",
        "type": "tensor<1x24x1x1xf32, 1101659111424 : i64>"
      }
    ],
    "results": [
      {
        "address": 53248,
        "layout": "compact",
        "memory_type": "<1x24x1x1xf32>",
        "name": "load_blaze_face.backbone1.0.bias",
        "reshape": "<1x24x1x1x1>",
        "shape": [
          1,
          24,
          1,
          1
        ],
        "slice": "[0:1, 0:24, 0:1, 0:1, 0:1]",
        "type": "tensor<1x24x1x1xf32>"
      }
    ],
    "buffers": []
  },
  {
    "file-line": 19,
    "subnet_id": 0,
    "core_id": 0,
    "opcode": "tpu.Conv2D",
    "is_local": true,
    "tiu_dma_id(before)": [
      1,
      3
    ],
    "tiu_dma_id(after)": [
      3,
      3
    ],
    "operands": [
      {
        "address": 24576,
        "layout": "eu_align",
        "memory_type": "<1x3x46x128xbf16>",
        "name": "x.180_Relu_bf16",
        "reshape": "<1x3x1x128x128>",
        "shape": [
          1,
          3,
          128,
          128
        ],
        "slice": "[0:1, 0:3, 0:1, 0:46, 0:128]",
        "type": "tensor<1x3x128x128xbf16>"
      },
      {
        "address": 49152,
        "layout": "compact",
        "memory_type": "<1x24x1x200xbf16>",
        "name": "load_80_Relu_filter_reorderd",
        "reshape": "<1x24x1x1x200>",
        "shape": [
          1,
          24,
          1,
          200
        ],
        "slice": "[0:1, 0:24, 0:1, 0:1, 0:200]",
        "type": "tensor<1x24x1x200xbf16>"
      },
      {
        "address": 53248,
        "layout": "compact",
        "memory_type": "<1x24x1x1xf32>",
        "name": "load_blaze_face.backbone1.0.bias",
        "reshape": "<1x24x1x1x1>",
        "shape": [
          1,
          24,
          1,
          1
        ],
        "slice": "[0:1, 0:24, 0:1, 0:1, 0:1]",
        "type": "tensor<1x24x1x1xf32>"
      }
    ],
    "results": [
      {
        "address": 36864,
        "layout": "eu_align",
        "memory_type": "<1x24x22x64xbf16>",
        "name": "80_Relu",
        "reshape": "<1x24x1x64x64>",
        "shape": [
          1,
          24,
          64,
          64
        ],
        "slice": "[0:1, 0:24, 0:1, 0:22, 0:64]",
        "type": "tensor<1x24x64x64xbf16>"
      }
    ],
    "buffers": []
  },
  {
    "file-line": 15,
    "subnet_id": 0,
    "core_id": 0,
    "opcode": "tpu.Load",
    "is_local": true,
    "tiu_dma_id(before)": [
      1,
      3
    ],
    "tiu_dma_id(after)": [
      1,
      4
    ],
    "operands": [
      {
        "address": 2201171416576,
        "layout": "continuous",
        "memory_type": "<1x3x45x128xf32>",
        "name": "x.1",
        "reshape": "<1x3x1x128x128>",
        "shape": [
          1,
          3,
          128,
          128
        ],
        "slice": "[0:1, 0:3, 0:1, 43:88, 0:128]",
        "type": "tensor<1x3x128x128xf32, 2201171394560 : i64>"
      }
    ],
    "results": [
      {
        "address": 0,
        "layout": "eu_align",
        "memory_type": "<1x3x45x128xf32>",
        "name": "load_0",
        "reshape": "<1x3x1x128x128>",
        "shape": [
          1,
          3,
          128,
          128
        ],
        "slice": "[0:1, 0:3, 0:1, 43:88, 0:128]",
        "type": "tensor<1x3x128x128xf32>"
      }
    ],
    "buffers": []
  },
  {
    "file-line": 18,
    "subnet_id": 0,
    "core_id": 0,
    "opcode": "tpu.Cast",
    "is_local": true,
    "tiu_dma_id(before)": [
      3,
      4
    ],
    "tiu_dma_id(after)": [
      4,
      4
    ],
    "operands": [
      {
        "address": 0,
        "layout": "eu_align",
        "memory_type": "<1x3x45x128xf32>",
        "name": "load_0",
        "reshape": "<1x3x1x128x128>",
        "shape": [
          1,
          3,
          128,
          128
        ],
        "slice": "[0:1, 0:3, 0:1, 43:88, 0:128]",
        "type": "tensor<1x3x128x128xf32>"
      }
    ],
    "results": [
      {
        "address": 24576,
        "layout": "eu_align",
        "memory_type": "<1x3x45x128xbf16>",
        "name": "x.180_Relu_bf16",
        "reshape": "<1x3x1x128x128>",
        "shape": [
          1,
          3,
          128,
          128
        ],
        "slice": "[0:1, 0:3, 0:1, 43:88, 0:128]",
        "type": "tensor<1x3x128x128xbf16>"
      }
    ],
    "buffers": []
  },
  {
    "file-line": 20,
    "subnet_id": 0,
    "core_id": 0,
    "opcode": "tpu.Store",
    "is_local": true,
    "tiu_dma_id(before)": [
      3,
      4
    ],
    "tiu_dma_id(after)": [
      3,
      5
    ],
    "operands": [
      {
        "address": 36864,
        "layout": "eu_align",
        "memory_type": "<1x24x22x64xbf16>",
        "name": "80_Relu",
        "reshape": "<1x24x1x64x64>",
        "shape": [
          1,
          24,
          64,
          64
        ],
        "slice": "[0:1, 0:24, 0:1, 0:22, 0:64]",
        "type": "tensor<1x24x64x64xbf16>"
      },
      {}
    ],
    "results": [
      {
        "address": 2201170935808,
        "layout": "continuous",
        "memory_type": "<1x24x22x64xbf16>",
        "name": "80_Relu",
        "reshape": "<1x24x1x64x64>",
        "shape": [
          1,
          24,
          64,
          64
        ],
        "slice": "[0:1, 0:24, 0:1, 0:22, 0:64]",
        "type": "tensor<1x24x64x64xbf16, 2201170935808 : i64>"
      }
    ],
    "buffers": []
  },
  {
    "file-line": 19,
    "subnet_id": 0,
    "core_id": 0,
    "opcode": "tpu.Conv2D",
    "is_local": true,
    "tiu_dma_id(before)": [
      4,
      5
    ],
    "tiu_dma_id(after)": [
      6,
      5
    ],
    "operands": [
      {
        "address": 24576,
        "layout": "eu_align",
        "memory_type": "<1x3x45x128xbf16>",
        "name": "x.180_Relu_bf16",
        "reshape": "<1x3x1x128x128>",
        "shape": [
          1,
          3,
          128,
          128
        ],
        "slice": "[0:1, 0:3, 0:1, 43:88, 0:128]",
        "type": "tensor<1x3x128x128xbf16>"
      },
      {
        "address": 49152,
        "layout": "compact",
        "memory_type": "<1x24x1x200xbf16>",
        "name": "load_80_Relu_filter_reorderd",
        "reshape": "<1x24x1x1x200>",
        "shape": [
          1,
          24,
          1,
          200
        ],
        "slice": "[0:1, 0:24, 0:1, 0:1, 0:200]",
        "type": "tensor<1x24x1x200xbf16>"
      },
      {
        "address": 53248,
        "layout": "compact",
        "memory_type": "<1x24x1x1xf32>",
        "name": "load_blaze_face.backbone1.0.bias",
        "reshape": "<1x24x1x1x1>",
        "shape": [
          1,
          24,
          1,
          1
        ],
        "slice": "[0:1, 0:24, 0:1, 0:1, 0:1]",
        "type": "tensor<1x24x1x1xf32>"
      }
    ],
    "results": [
      {
        "address": 36864,
        "layout": "eu_align",
        "memory_type": "<1x24x21x64xbf16>",
        "name": "80_Relu",
        "reshape": "<1x24x1x64x64>",
        "shape": [
          1,
          24,
          64,
          64
        ],
        "slice": "[0:1, 0:24, 0:1, 22:43, 0:64]",
        "type": "tensor<1x24x64x64xbf16>"
      }
    ],
    "buffers": []
  },
  {
    "file-line": 15,
    "subnet_id": 0,
    "core_id": 0,
    "opcode": "tpu.Load",
    "is_local": true,
    "tiu_dma_id(before)": [
      4,
      5
    ],
    "tiu_dma_id(after)": [
      4,
      6
    ],
    "operands": [
      {
        "address": 2201171438080,
        "layout": "continuous",
        "memory_type": "<1x3x43x128xf32>",
        "name": "x.1",
        "reshape": "<1x3x1x128x128>",
        "shape": [
          1,
          3,
          128,
          128
        ],
        "slice": "[0:1, 0:3, 0:1, 85:128, 0:128]",
        "type": "tensor<1x3x128x128xf32, 2201171394560 : i64>"
      }
    ],
    "results": [
      {
        "address": 0,
        "layout": "eu_align",
        "memory_type": "<1x3x43x128xf32>",
        "name": "load_0",
        "reshape": "<1x3x1x128x128>",
        "shape": [
          1,
          3,
          128,
          128
        ],
        "slice": "[0:1, 0:3, 0:1, 85:128, 0:128]",
        "type": "tensor<1x3x128x128xf32>"
      }
    ],
    "buffers": []
  },
  {
    "file-line": 18,
    "subnet_id": 0,
    "core_id": 0,
    "opcode": "tpu.Cast",
    "is_local": true,
    "tiu_dma_id(before)": [
      6,
      6
    ],
    "tiu_dma_id(after)": [
      7,
      6
    ],
    "operands": [
      {
        "address": 0,
        "layout": "eu_align",
        "memory_type": "<1x3x43x128xf32>",
        "name": "load_0",
        "reshape": "<1x3x1x128x128>",
        "shape": [
          1,
          3,
          128,
          128
        ],
        "slice": "[0:1, 0:3, 0:1, 85:128, 0:128]",
        "type": "tensor<1x3x128x128xf32>"
      }
    ],
    "results": [
      {
        "address": 24576,
        "layout": "eu_align",
        "memory_type": "<1x3x43x128xbf16>",
        "name": "x.180_Relu_bf16",
        "reshape": "<1x3x1x128x128>",
        "shape": [
          1,
          3,
          128,
          128
        ],
        "slice": "[0:1, 0:3, 0:1, 85:128, 0:128]",
        "type": "tensor<1x3x128x128xbf16>"
      }
    ],
    "buffers": []
  },
  {
    "file-line": 20,
    "subnet_id": 0,
    "core_id": 0,
    "opcode": "tpu.Store",
    "is_local": true,
    "tiu_dma_id(before)": [
      6,
      6
    ],
    "tiu_dma_id(after)": [
      6,
      7
    ],
    "operands": [
      {
        "address": 36864,
        "layout": "eu_align",
        "memory_type": "<1x24x21x64xbf16>",
        "name": "80_Relu",
        "reshape": "<1x24x1x64x64>",
        "shape": [
          1,
          24,
          64,
          64
        ],
        "slice": "[0:1, 0:24, 0:1, 22:43, 0:64]",
        "type": "tensor<1x24x64x64xbf16>"
      },
      {}
    ],
    "results": [
      {
        "address": 2201170938624,
        "layout": "continuous",
        "memory_type": "<1x24x21x64xbf16>",
        "name": "80_Relu",
        "reshape": "<1x24x1x64x64>",
        "shape": [
          1,
          24,
          64,
          64
        ],
        "slice": "[0:1, 0:24, 0:1, 22:43, 0:64]",
        "type": "tensor<1x24x64x64xbf16, 2201170935808 : i64>"
      }
    ],
    "buffers": []
  },
  {
    "file-line": 19,
    "subnet_id": 0,
    "core_id": 0,
    "opcode": "tpu.Conv2D",
    "is_local": true,
    "tiu_dma_id(before)": [
      7,
      7
    ],
    "tiu_dma_id(after)": [
      9,
      7
    ],
    "operands": [
      {
        "address": 24576,
        "layout": "eu_align",
        "memory_type": "<1x3x43x128xbf16>",
        "name": "x.180_Relu_bf16",
        "reshape": "<1x3x1x128x128>",
        "shape": [
          1,
          3,
          128,
          128
        ],
        "slice": "[0:1, 0:3, 0:1, 85:128, 0:128]",
        "type": "tensor<1x3x128x128xbf16>"
      },
      {
        "address": 49152,
        "layout": "compact",
        "memory_type": "<1x24x1x200xbf16>",
        "name": "load_80_Relu_filter_reorderd",
        "reshape": "<1x24x1x1x200>",
        "shape": [
          1,
          24,
          1,
          200
        ],
        "slice": "[0:1, 0:24, 0:1, 0:1, 0:200]",
        "type": "tensor<1x24x1x200xbf16>"
      },
      {
        "address": 53248,
        "layout": "compact",
        "memory_type": "<1x24x1x1xf32>",
        "name": "load_blaze_face.backbone1.0.bias",
        "reshape": "<1x24x1x1x1>",
        "shape": [
          1,
          24,
          1,
          1
        ],
        "slice": "[0:1, 0:24, 0:1, 0:1, 0:1]",
        "type": "tensor<1x24x1x1xf32>"
      }
    ],
    "results": [
      {
        "address": 36864,
        "layout": "eu_align",
        "memory_type": "<1x24x21x64xbf16>",
        "name": "80_Relu",
        "reshape": "<1x24x1x64x64>",
        "shape": [
          1,
          24,
          64,
          64
        ],
        "slice": "[0:1, 0:24, 0:1, 43:64, 0:64]",
        "type": "tensor<1x24x64x64xbf16>"
      }
    ],
    "buffers": []
  },
  {
    "file-line": 20,
    "subnet_id": 0,
    "core_id": 0,
    "opcode": "tpu.Store",
    "is_local": true,
    "tiu_dma_id(before)": [
      9,
      7
    ],
    "tiu_dma_id(after)": [
      9,
      8
    ],
    "operands": [
      {
        "address": 36864,
        "layout": "eu_align",
        "memory_type": "<1x24x21x64xbf16>",
        "name": "80_Relu",
        "reshape": "<1x24x1x64x64>",
        "shape": [
          1,
          24,
          64,
          64
        ],
        "slice": "[0:1, 0:24, 0:1, 43:64, 0:64]",
        "type": "tensor<1x24x64x64xbf16>"
      },
      {}
    ],
    "results": [
      {
        "address": 2201170941312,
        "layout": "continuous",
        "memory_type": "<1x24x21x64xbf16>",
        "name": "80_Relu",
        "reshape": "<1x24x1x64x64>",
        "shape": [
          1,
          24,
          64,
          64
        ],
        "slice": "[0:1, 0:24, 0:1, 43:64, 0:64]",
        "type": "tensor<1x24x64x64xbf16, 2201170935808 : i64>"
      }
    ],
    "buffers": []
  },
  {
    "file-line": 25,
    "subnet_id": 0,
    "core_id": 0,
    "opcode": "tpu.Conv2D",
    "is_local": false,
    "tiu_dma_id(before)": [
      9,
      8
    ],
    "tiu_dma_id(after)": [
      13,
      18
    ],
    "operands": [
      {
        "address": 2201170935808,
        "layout": "continuous",
        "memory_type": "<1x24x64x64xbf16>",
        "name": "80_Relu",
        "reshape": "",
        "shape": [
          1,
          24,
          64,
          64
        ],
        "slice": "[...]",
        "type": "tensor<1x24x64x64xbf16, 2201170935808 : i64>"
      },
      {
        "address": 1101659127808,
        "layout": "continuous",
        "memory_type": "<1x24x3x3xbf16>",
        "name": "81_Convblaze_face.backbone1.2.convs.0.weight_bf16",
        "reshape": "",
        "shape": [
          1,
          24,
          3,
          3
        ],
        "slice": "[...]",
        "type": "tensor<1x24x3x3xbf16, 1101659127808 : i64>"
      },
      {
        "address": 1101659131904,
        "layout": "continuous",
        "memory_type": "<1x24x1x1xbf16>",
        "name": "81_Conv_reordered",
        "reshape": "",
        "shape": [
          1,
          24,
          1,
          1
        ],
        "slice": "[...]",
        "type": "tensor<1x24x1x1xbf16, 1101659131904 : i64>"
      }
    ],
    "results": [
      {
        "address": 2201170739200,
        "layout": "continuous",
        "memory_type": "<1x24x64x64xbf16>",
        "name": "81_Conv",
        "reshape": "",
        "shape": [
          1,
          24,
          64,
          64
        ],
        "slice": "[...]",
        "type": "tensor<1x24x64x64xbf16, 2201170739200 : i64>"
      }
    ],
    "buffers": []
  },
  {
    "file-line": 29,
    "subnet_id": 0,
    "core_id": 0,
    "opcode": "tpu.Load",
    "is_local": true,
    "tiu_dma_id(before)": [
      13,
      18
    ],
    "tiu_dma_id(after)": [
      13,
      19
    ],
    "operands": [
      {
        "address": 2201170739200,
        "layout": "continuous",
        "memory_type": "<1x24x32x64xbf16>",
        "name": "81_Conv",
        "reshape": "<1x24x1x64x64>",
        "shape": [
          1,
          24,
          64,
          64
        ],
        "slice": "[0:1, 0:24, 0:1, 0:32, 0:64]",
        "type": "tensor<1x24x64x64xbf16, 2201170739200 : i64>"
      }
    ],
    "results": [
      {
        "address": 24576,
        "layout": "eu_align",
        "memory_type": "<1x24x32x64xbf16>",
        "name": "load_81_Conv",
        "reshape": "<1x24x1x64x64>",
        "shape": [
          1,
          24,
          64,
          64
        ],
        "slice": "[0:1, 0:24, 0:1, 0:32, 0:64]",
        "type": "tensor<1x24x64x64xbf16>"
      }
    ],
    "buffers": []
  },
  {
    "file-line": 30,
    "subnet_id": 0,
    "core_id": 0,
    "opcode": "tpu.Load",
    "is_local": true,
    "tiu_dma_id(before)": [
      13,
      19
    ],
    "tiu_dma_id(after)": [
      13,
      20
    ],
    "operands": [
      {
        "address": 1101659140096,
        "layout": "continuous",
        "memory_type": "<1x24x1x24xbf16>",
        "name": "82_Conv_filter_reorderd",
        "reshape": "<1x24x1x1x24>",
        "shape": [
          1,
          24,
          1,
          24
        ],
        "slice": "[0:1, 0:24, 0:1, 0:1, 0:24]",
        "type": "tensor<1x24x1x24xbf16, 1101659140096 : i64>"
      }
    ],
    "results": [
      {
        "address": 49152,
        "layout": "compact",
        "memory_type": "<1x24x1x24xbf16>",
        "name": "load_82_Conv_filter_reorderd",
        "reshape": "<1x24x1x1x24>",
        "shape": [
          1,
          24,
          1,
          24
        ],
        "slice": "[0:1, 0:24, 0:1, 0:1, 0:24]",
        "type": "tensor<1x24x1x24xbf16>"
      }
    ],
    "buffers": []
  },
  {
    "file-line": 31,
    "subnet_id": 0,
    "core_id": 0,
    "opcode": "tpu.Load",
    "is_local": true,
    "tiu_dma_id(before)": [
      13,
      20
    ],
    "tiu_dma_id(after)": [
      13,
      21
    ],
    "operands": [
      {
        "address": 1101659136000,
        "layout": "continuous",
        "memory_type": "<1x24x1x1xf32>",
        "name": "blaze_face.backbone1.2.convs.1.bias",
        "reshape": "<1x24x1x1x1>",
        "shape": [
          1,
          24,
          1,
          1
        ],
        "slice": "[0:1, 0:24, 0:1, 0:1, 0:1]",
        "type": "tensor<1x24x1x1xf32, 1101659136000 : i64>"
      }
    ],
    "results": [
      {
        "address": 53248,
        "layout": "compact",
        "memory_type": "<1x24x1x1xf32>",
        "name": "load_blaze_face.backbone1.2.convs.1.bias",
        "reshape": "<1x24x1x1x1>",
        "shape": [
          1,
          24,
          1,
          1
        ],
        "slice": "[0:1, 0:24, 0:1, 0:1, 0:1]",
        "type": "tensor<1x24x1x1xf32>"
      }
    ],
    "buffers": []
  },
  {
    "file-line": 33,
    "subnet_id": 0,
    "core_id": 0,
    "opcode": "tpu.Conv2D",
    "is_local": true,
    "tiu_dma_id(before)": [
      13,
      21
    ],
    "tiu_dma_id(after)": [
      14,
      21
    ],
    "operands": [
      {
        "address": 24576,
        "layout": "eu_align",
        "memory_type": "<1x24x32x64xbf16>",
        "name": "load_81_Conv",
        "reshape": "<1x24x1x64x64>",
        "shape": [
          1,
          24,
          64,
          64
        ],
        "slice": "[0:1, 0:24, 0:1, 0:32, 0:64]",
        "type": "tensor<1x24x64x64xbf16>"
      },
      {
        "address": 49152,
        "layout": "compact",
        "memory_type": "<1x24x1x24xbf16>",
        "name": "load_82_Conv_filter_reorderd",
        "reshape": "<1x24x1x1x24>",
        "shape": [
          1,
          24,
          1,
          24
        ],
        "slice": "[0:1, 0:24, 0:1, 0:1, 0:24]",
        "type": "tensor<1x24x1x24xbf16>"
      },
      {
        "address": 53248,
        "layout": "compact",
        "memory_type": "<1x24x1x1xf32>",
        "name": "load_blaze_face.backbone1.2.convs.1.bias",
        "reshape": "<1x24x1x1x1>",
        "shape": [
          1,
          24,
          1,
          1
        ],
        "slice": "[0:1, 0:24, 0:1, 0:1, 0:1]",
        "type": "tensor<1x24x1x1xf32>"
      }
    ],
    "results": [
      {
        "address": 0,
        "layout": "eu_align",
        "memory_type": "<1x24x32x64xbf16>",
        "name": "82_Conv",
        "reshape": "<1x24x1x64x64>",
        "shape": [
          1,
          24,
          64,
          64
        ],
        "slice": "[0:1, 0:24, 0:1, 0:32, 0:64]",
        "type": "tensor<1x24x64x64xbf16>"
      }
    ],
    "buffers": []
  },
  {
    "file-line": 32,
    "subnet_id": 0,
    "core_id": 0,
    "opcode": "tpu.Load",
    "is_local": true,
    "tiu_dma_id(before)": [
      13,
      21
    ],
    "tiu_dma_id(after)": [
      13,
      22
    ],
    "operands": [
      {
        "address": 2201170935808,
        "layout": "continuous",
        "memory_type": "<1x24x32x64xbf16>",
        "name": "80_Relu",
        "reshape": "<1x24x1x64x64>",
        "shape": [
          1,
          24,
          64,
          64
        ],
        "slice": "[0:1, 0:24, 0:1, 0:32, 0:64]",
        "type": "tensor<1x24x64x64xbf16, 2201170935808 : i64>"
      }
    ],
    "results": [
      {
        "address": 12288,
        "layout": "eu_align",
        "memory_type": "<1x24x32x64xbf16>",
        "name": "load_80_Relu",
        "reshape": "<1x24x1x64x64>",
        "shape": [
          1,
          24,
          64,
          64
        ],
        "slice": "[0:1, 0:24, 0:1, 0:32, 0:64]",
        "type": "tensor<1x24x64x64xbf16>"
      }
    ],
    "buffers": []
  },
  {
    "file-line": 34,
    "subnet_id": 0,
    "core_id": 0,
    "opcode": "tpu.Add",
    "is_local": true,
    "tiu_dma_id(before)": [
      14,
      22
    ],
    "tiu_dma_id(after)": [
      16,
      22
    ],
    "operands": [
      {
        "address": 0,
        "layout": "eu_align",
        "memory_type": "<1x24x32x64xbf16>",
        "name": "82_Conv",
        "reshape": "<1x24x1x64x64>",
        "shape": [
          1,
          24,
          64,
          64
        ],
        "slice": "[0:1, 0:24, 0:1, 0:32, 0:64]",
        "type": "tensor<1x24x64x64xbf16>"
      },
      {
        "address": 12288,
        "layout": "eu_align",
        "memory_type": "<1x24x32x64xbf16>",
        "name": "load_80_Relu",
        "reshape": "<1x24x1x64x64>",
        "shape": [
          1,
          24,
          64,
          64
        ],
        "slice": "[0:1, 0:24, 0:1, 0:32, 0:64]",
        "type": "tensor<1x24x64x64xbf16>"
      }
    ],
    "results": [
      {
        "address": 36864,
        "layout": "eu_align",
        "memory_type": "<1x24x32x64xbf16>",
        "name": "84_Relu",
        "reshape": "<1x24x1x64x64>",
        "shape": [
          1,
          24,
          64,
          64
        ],
        "slice": "[0:1, 0:24, 0:1, 0:32, 0:64]",
        "type": "tensor<1x24x64x64xbf16>"
      }
    ],
    "buffers": []
  },
  {
    "file-line": 29,
    "subnet_id": 0,
    "core_id": 0,
    "opcode": "tpu.Load",
    "is_local": true,
    "tiu_dma_id(before)": [
      14,
      22
    ],
    "tiu_dma_id(after)": [
      14,
      23
    ],
    "operands": [
      {
        "address": 2201170743296,
        "layout": "continuous",
        "memory_type": "<1x24x32x64xbf16>",
        "name": "81_Conv",
        "reshape": "<1x24x1x64x64>",
        "shape": [
          1,
          24,
          64,
          64
        ],
        "slice": "[0:1, 0:24, 0:1, 32:64, 0:64]",
        "type": "tensor<1x24x64x64xbf16, 2201170739200 : i64>"
      }
    ],
    "results": [
      {
        "address": 24576,
        "layout": "eu_align",
        "memory_type": "<1x24x32x64xbf16>",
        "name": "load_81_Conv",
        "reshape": "<1x24x1x64x64>",
        "shape": [
          1,
          24,
          64,
          64
        ],
        "slice": "[0:1, 0:24, 0:1, 32:64, 0:64]",
        "type": "tensor<1x24x64x64xbf16>"
      }
    ],
    "buffers": []
  },
  {
    "file-line": 33,
    "subnet_id": 0,
    "core_id": 0,
    "opcode": "tpu.Conv2D",
    "is_local": true,
    "tiu_dma_id(before)": [
      16,
      23
    ],
    "tiu_dma_id(after)": [
      17,
      23
    ],
    "operands": [
      {
        "address": 24576,
        "layout": "eu_align",
        "memory_type": "<1x24x32x64xbf16>",
        "name": "load_81_Conv",
        "reshape": "<1x24x1x64x64>",
        "shape": [
          1,
          24,
          64,
          64
        ],
        "slice": "[0:1, 0:24, 0:1, 32:64, 0:64]",
        "type": "tensor<1x24x64x64xbf16>"
      },
      {
        "address": 49152,
        "layout": "compact",
        "memory_type": "<1x24x1x24xbf16>",
        "name": "load_82_Conv_filter_reorderd",
        "reshape": "<1x24x1x1x24>",
        "shape": [
          1,
          24,
          1,
          24
        ],
        "slice": "[0:1, 0:24, 0:1, 0:1, 0:24]",
        "type": "tensor<1x24x1x24xbf16>"
      },
      {
        "address": 53248,
        "layout": "compact",
        "memory_type": "<1x24x1x1xf32>",
        "name": "load_blaze_face.backbone1.2.convs.1.bias",
        "reshape": "<1x24x1x1x1>",
        "shape": [
          1,
          24,
          1,
          1
        ],
        "slice": "[0:1, 0:24, 0:1, 0:1, 0:1]",
        "type": "tensor<1x24x1x1xf32>"
      }
    ],
    "results": [
      {
        "address": 0,
        "layout": "eu_align",
        "memory_type": "<1x24x32x64xbf16>",
        "name": "82_Conv",
        "reshape": "<1x24x1x64x64>",
        "shape": [
          1,
          24,
          64,
          64
        ],
        "slice": "[0:1, 0:24, 0:1, 32:64, 0:64]",
        "type": "tensor<1x24x64x64xbf16>"
      }
    ],
    "buffers": []
  },
  {
    "file-line": 32,
    "subnet_id": 0,
    "core_id": 0,
    "opcode": "tpu.Load",
    "is_local": true,
    "tiu_dma_id(before)": [
      16,
      23
    ],
    "tiu_dma_id(after)": [
      16,
      24
    ],
    "operands": [
      {
        "address": 2201170939904,
        "layout": "continuous",
        "memory_type": "<1x24x32x64xbf16>",
        "name": "80_Relu",
        "reshape": "<1x24x1x64x64>",
        "shape": [
          1,
          24,
          64,
          64
        ],
        "slice": "[0:1, 0:24, 0:1, 32:64, 0:64]",
        "type": "tensor<1x24x64x64xbf16, 2201170935808 : i64>"
      }
    ],
    "results": [
      {
        "address": 12288,
        "layout": "eu_align",
        "memory_type": "<1x24x32x64xbf16>",
        "name": "load_80_Relu",
        "reshape": "<1x24x1x64x64>",
        "shape": [
          1,
          24,
          64,
          64
        ],
        "slice": "[0:1, 0:24, 0:1, 32:64, 0:64]",
        "type": "tensor<1x24x64x64xbf16>"
      }
    ],
    "buffers": []
  },
  {
    "file-line": 35,
    "subnet_id": 0,
    "core_id": 0,
    "opcode": "tpu.Store",
    "is_local": true,
    "tiu_dma_id(before)": [
      16,
      24
    ],
    "tiu_dma_id(after)": [
      16,
      25
    ],
    "operands": [
      {
        "address": 36864,
        "layout": "eu_align",
        "memory_type": "<1x24x32x64xbf16>",
        "name": "84_Relu",
        "reshape": "<1x24x1x64x64>",
        "shape": [
          1,
          24,
          64,
          64
        ],
        "slice": "[0:1, 0:24, 0:1, 0:32, 0:64]",
        "type": "tensor<1x24x64x64xbf16>"
      },
      {}
    ],
    "results": [
      {
        "address": 2201171197952,
        "layout": "continuous",
        "memory_type": "<1x24x32x64xbf16>",
        "name": "84_Relu",
        "reshape": "<1x24x1x64x64>",
        "shape": [
          1,
          24,
          64,
          64
        ],
        "slice": "[0:1, 0:24, 0:1, 0:32, 0:64]",
        "type": "tensor<1x24x64x64xbf16, 2201171197952 : i64>"
      }
    ],
    "buffers": []
  },
  {
    "file-line": 34,
    "subnet_id": 0,
    "core_id": 0,
    "opcode": "tpu.Add",
    "is_local": true,
    "tiu_dma_id(before)": [
      17,
      25
    ],
    "tiu_dma_id(after)": [
      19,
      25
    ],
    "operands": [
      {
        "address": 0,
        "layout": "eu_align",
        "memory_type": "<1x24x32x64xbf16>",
        "name": "82_Conv",
        "reshape": "<1x24x1x64x64>",
        "shape": [
          1,
          24,
          64,
          64
        ],
        "slice": "[0:1, 0:24, 0:1, 32:64, 0:64]",
        "type": "tensor<1x24x64x64xbf16>"
      },
      {
        "address": 12288,
        "layout": "eu_align",
        "memory_type": "<1x24x32x64xbf16>",
        "name": "load_80_Relu",
        "reshape": "<1x24x1x64x64>",
        "shape": [
          1,
          24,
          64,
          64
        ],
        "slice": "[0:1, 0:24, 0:1, 32:64, 0:64]",
        "type": "tensor<1x24x64x64xbf16>"
      }
    ],
    "results": [
      {
        "address": 36864,
        "layout": "eu_align",
        "memory_type": "<1x24x32x64xbf16>",
        "name": "84_Relu",
        "reshape": "<1x24x1x64x64>",
        "shape": [
          1,
          24,
          64,
          64
        ],
        "slice": "[0:1, 0:24, 0:1, 32:64, 0:64]",
        "type": "tensor<1x24x64x64xbf16>"
      }
    ],
    "buffers": []
  },
  {
    "file-line": 35,
    "subnet_id": 0,
    "core_id": 0,
    "opcode": "tpu.Store",
    "is_local": true,
    "tiu_dma_id(before)": [
      19,
      25
    ],
    "tiu_dma_id(after)": [
      19,
      26
    ],
    "operands": [
      {
        "address": 36864,
        "layout": "eu_align",
        "memory_type": "<1x24x32x64xbf16>",
        "name": "84_Relu",
        "reshape": "<1x24x1x64x64>",
        "shape": [
          1,
          24,
          64,
          64
        ],
        "slice": "[0:1, 0:24, 0:1, 32:64, 0:64]",
        "type": "tensor<1x24x64x64xbf16>"
      },
      {}
    ],
    "results": [
      {
        "address": 2201171202048,
        "layout": "continuous",
        "memory_type": "<1x24x32x64xbf16>",
        "name": "84_Relu",
        "reshape": "<1x24x1x64x64>",
        "shape": [
          1,
          24,
          64,
          64
        ],
        "slice": "[0:1, 0:24, 0:1, 32:64, 0:64]",
        "type": "tensor<1x24x64x64xbf16, 2201171197952 : i64>"
      }
    ],
    "buffers": []
  },
  {
    "file-line": 38,
    "subnet_id": 0,
    "core_id": 0,
    "opcode": "tpu.Pad",
    "is_local": false,
    "tiu_dma_id(before)": [
      19,
      26
    ],
    "tiu_dma_id(after)": [
      19,
      28
    ],
    "operands": [
      {
        "address": 2201171197952,
        "layout": "continuous",
        "memory_type": "<1x24x64x64xbf16>",
        "name": "84_Relu",
        "reshape": "",
        "shape": [
          1,
          24,
          64,
          64
        ],
        "slice": "[...]",
        "type": "tensor<1x24x64x64xbf16, 2201171197952 : i64>"
      },
      {},
      {},
      {},
      {}
    ],
    "results": [
      {
        "address": 2201170968576,
        "layout": "continuous",
        "memory_type": "<1x28x64x64xbf16>",
        "name": "85_Pad",
        "reshape": "",
        "shape": [
          1,
          28,
          64,
          64
        ],
        "slice": "[...]",
        "type": "tensor<1x28x64x64xbf16, 2201170968576 : i64>"
      }
    ],
    "buffers": []
  },
  {
    "file-line": 44,
    "subnet_id": 0,
    "core_id": 0,
    "opcode": "tpu.Load",
    "is_local": true,
    "tiu_dma_id(before)": [
      19,
      28
    ],
    "tiu_dma_id(after)": [
      19,
      29
    ],
    "operands": [
      {
        "address": 2201171197952,
        "layout": "continuous",
        "memory_type": "<1x24x33x64xbf16>",
        "name": "84_Relu",
        "reshape": "<1x24x1x64x64>",
        "shape": [
          1,
          24,
          64,
          64
        ],
        "slice": "[0:1, 0:24, 0:1, 0:33, 0:64]",
        "type": "tensor<1x24x64x64xbf16, 2201171197952 : i64>"
      }
    ],
    "results": [
      {
        "address": 0,
        "layout": "eu_align",
        "memory_type": "<1x24x33x64xbf16>",
        "name": "load_84_Relu",
        "reshape": "<1x24x1x64x64>",
        "shape": [
          1,
          24,
          64,
          64
        ],
        "slice": "[0:1, 0:24, 0:1, 0:33, 0:64]",
        "type": "tensor<1x24x64x64xbf16>"
      }
    ],
    "buffers": []
  },
  {
    "file-line": 45,
    "subnet_id": 0,
    "core_id": 0,
    "opcode": "tpu.Load",
    "is_local": true,
    "tiu_dma_id(before)": [
      19,
      29
    ],
    "tiu_dma_id(after)": [
      19,
      30
    ],
    "operands": [
      {
        "address": 1101659144192,
        "layout": "continuous",
        "memory_type": "<1x24x3x3xbf16>",
        "name": "86_Convblaze_face.backbone1.3.convs.0.weight_bf16",
        "reshape": "<1x24x1x3x3>",
        "shape": [
          1,
          24,
          3,
          3
        ],
        "slice": "[0:1, 0:24, 0:1, 0:3, 0:3]",
        "type": "tensor<1x24x3x3xbf16, 1101659144192 : i64>"
      }
    ],
    "results": [
      {
        "address": 12864,
        "layout": "compact",
        "memory_type": "<1x24x3x3xbf16>",
        "name": "load_86_Convblaze_face.backbone1.3.convs.0.weight_bf16",
        "reshape": "<1x24x1x3x3>",
        "shape": [
          1,
          24,
          3,
          3
        ],
        "slice": "[0:1, 0:24, 0:1, 0:3, 0:3]",
        "type": "tensor<1x24x3x3xbf16>"
      }
    ],
    "buffers": []
  },
  {
    "file-line": 46,
    "subnet_id": 0,
    "core_id": 0,
    "opcode": "tpu.Load",
    "is_local": true,
    "tiu_dma_id(before)": [
      19,
      30
    ],
    "tiu_dma_id(after)": [
      19,
      31
    ],
    "operands": [
      {
        "address": 1101659148288,
        "layout": "continuous",
        "memory_type": "<1x24x1x1xbf16>",
        "name": "86_Conv_reordered",
        "reshape": "<1x24x1x1x1>",
        "shape": [
          1,
          24,
          1,
          1
        ],
        "slice": "[0:1, 0:24, 0:1, 0:1, 0:1]",
        "type": "tensor<1x24x1x1xbf16, 1101659148288 : i64>"
      }
    ],
    "results": [
      {
        "address": 12944,
        "layout": "compact",
        "memory_type": "<1x24x1x1xbf16>",
        "name": "load_86_Conv_reordered",
        "reshape": "<1x24x1x1x1>",
        "shape": [
          1,
          24,
          1,
          1
        ],
        "slice": "[0:1, 0:24, 0:1, 0:1, 0:1]",
        "type": "tensor<1x24x1x1xbf16>"
      }
    ],
    "buffers": []
  },
  {
    "file-line": 49,
    "subnet_id": 0,
    "core_id": 0,
    "opcode": "tpu.Conv2D",
    "is_local": true,
    "tiu_dma_id(before)": [
      19,
      31
    ],
    "tiu_dma_id(after)": [
      20,
      31
    ],
    "operands": [
      {
        "address": 0,
        "layout": "eu_align",
        "memory_type": "<1x24x33x64xbf16>",
        "name": "load_84_Relu",
        "reshape": "<1x24x1x64x64>",
        "shape": [
          1,
          24,
          64,
          64
        ],
        "slice": "[0:1, 0:24, 0:1, 0:33, 0:64]",
        "type": "tensor<1x24x64x64xbf16>"
      },
      {
        "address": 12864,
        "layout": "compact",
        "memory_type": "<1x24x3x3xbf16>",
        "name": "load_86_Convblaze_face.backbone1.3.convs.0.weight_bf16",
        "reshape": "<1x24x1x3x3>",
        "shape": [
          1,
          24,
          3,
          3
        ],
        "slice": "[0:1, 0:24, 0:1, 0:3, 0:3]",
        "type": "tensor<1x24x3x3xbf16>"
      },
      {
        "address": 12944,
        "layout": "compact",
        "memory_type": "<1x24x1x1xbf16>",
        "name": "load_86_Conv_reordered",
        "reshape": "<1x24x1x1x1>",
        "shape": [
          1,
          24,
          1,
          1
        ],
        "slice": "[0:1, 0:24, 0:1, 0:1, 0:1]",
        "type": "tensor<1x24x1x1xbf16>"
      }
    ],
    "results": [
      {
        "address": 53248,
        "layout": "eu_align",
        "memory_type": "<1x24x32x64xbf16>",
        "name": "86_Conv",
        "reshape": "<1x24x1x64x64>",
        "shape": [
          1,
          24,
          64,
          64
        ],
        "slice": "[0:1, 0:24, 0:1, 0:32, 0:64]",
        "type": "tensor<1x24x64x64xbf16>"
      }
    ],
    "buffers": [
      {
        "address": 20480,
        "size": 28831
      }
    ]
  },
  {
    "file-line": 47,
    "subnet_id": 0,
    "core_id": 0,
    "opcode": "tpu.Load",
    "is_local": true,
    "tiu_dma_id(before)": [
      19,
      31
    ],
    "tiu_dma_id(after)": [
      19,
      32
    ],
    "operands": [
      {
        "address": 1101659156480,
        "layout": "continuous",
        "memory_type": "<1x28x1x24xbf16>",
        "name": "87_Conv_filter_reorderd",
        "reshape": "<1x28x1x1x24>",
        "shape": [
          1,
          28,
          1,
          24
        ],
        "slice": "[0:1, 0:28, 0:1, 0:1, 0:24]",
        "type": "tensor<1x28x1x24xbf16, 1101659156480 : i64>"
      }
    ],
    "results": [
      {
        "address": 12672,
        "layout": "compact",
        "memory_type": "<1x28x1x24xbf16>",
        "name": "load_87_Conv_filter_reorderd",
        "reshape": "<1x28x1x1x24>",
        "shape": [
          1,
          28,
          1,
          24
        ],
        "slice": "[0:1, 0:28, 0:1, 0:1, 0:24]",
        "type": "tensor<1x28x1x24xbf16>"
      }
    ],
    "buffers": []
  },
  {
    "file-line": 48,
    "subnet_id": 0,
    "core_id": 0,
    "opcode": "tpu.Load",
    "is_local": true,
    "tiu_dma_id(before)": [
      19,
      32
    ],
    "tiu_dma_id(after)": [
      19,
      33
    ],
    "operands": [
      {
        "address": 1101659152384,
        "layout": "continuous",
        "memory_type": "<1x28x1x1xf32>",
        "name": "blaze_face.backbone1.3.convs.1.bias",
        "reshape": "<1x28x1x1x1>",
        "shape": [
          1,
          28,
          1,
          1
        ],
        "slice": "[0:1, 0:28, 0:1, 0:1, 0:1]",
        "type": "tensor<1x28x1x1xf32, 1101659152384 : i64>"
      }
    ],
    "results": [
      {
        "address": 12928,
        "layout": "compact",
        "memory_type": "<1x28x1x1xf32>",
        "name": "load_blaze_face.backbone1.3.convs.1.bias",
        "reshape": "<1x28x1x1x1>",
        "shape": [
          1,
          28,
          1,
          1
        ],
        "slice": "[0:1, 0:28, 0:1, 0:1, 0:1]",
        "type": "tensor<1x28x1x1xf32>"
      }
    ],
    "buffers": []
  },
  {
    "file-line": 51,
    "subnet_id": 0,
    "core_id": 0,
    "opcode": "tpu.Conv2D",
    "is_local": true,
    "tiu_dma_id(before)": [
      20,
      33
    ],
    "tiu_dma_id(after)": [
      21,
      33
    ],
    "operands": [
      {
        "address": 53248,
        "layout": "eu_align",
        "memory_type": "<1x24x32x64xbf16>",
        "name": "86_Conv",
        "reshape": "<1x24x1x64x64>",
        "shape": [
          1,
          24,
          64,
          64
        ],
        "slice": "[0:1, 0:24, 0:1, 0:32, 0:64]",
        "type": "tensor<1x24x64x64xbf16>"
      },
      {
        "address": 12672,
        "layout": "compact",
        "memory_type": "<1x28x1x24xbf16>",
        "name": "load_87_Conv_filter_reorderd",
        "reshape": "<1x28x1x1x24>",
        "shape": [
          1,
          28,
          1,
          24
        ],
        "slice": "[0:1, 0:28, 0:1, 0:1, 0:24]",
        "type": "tensor<1x28x1x24xbf16>"
      },
      {
        "address": 12928,
        "layout": "compact",
        "memory_type": "<1x28x1x1xf32>",
        "name": "load_blaze_face.backbone1.3.convs.1.bias",
        "reshape": "<1x28x1x1x1>",
        "shape": [
          1,
          28,
          1,
          1
        ],
        "slice": "[0:1, 0:28, 0:1, 0:1, 0:1]",
        "type": "tensor<1x28x1x1xf32>"
      }
    ],
    "results": [
      {
        "address": 16384,
        "layout": "eu_align",
        "memory_type": "<1x28x32x64xbf16>",
        "name": "87_Conv",
        "reshape": "<1x28x1x64x64>",
        "shape": [
          1,
          28,
          64,
          64
        ],
        "slice": "[0:1, 0:28, 0:1, 0:32, 0:64]",
        "type": "tensor<1x28x64x64xbf16>"
      }
    ],
    "buffers": []
  },
  {
    "file-line": 50,
    "subnet_id": 0,
    "core_id": 0,
    "opcode": "tpu.Load",
    "is_local": true,
    "tiu_dma_id(before)": [
      20,
      33
    ],
    "tiu_dma_id(after)": [
      20,
      34
    ],
    "operands": [
      {
        "address": 2201170968576,
        "layout": "continuous",
        "memory_type": "<1x28x32x64xbf16>",
        "name": "85_Pad",
        "reshape": "<1x28x1x64x64>",
        "shape": [
          1,
          28,
          64,
          64
        ],
        "slice": "[0:1, 0:28, 0:1, 0:32, 0:64]",
        "type": "tensor<1x28x64x64xbf16, 2201170968576 : i64>"
      }
    ],
    "results": [
      {
        "address": 32768,
        "layout": "eu_align",
        "memory_type": "<1x28x32x64xbf16>",
        "name": "load_85_Pad",
        "reshape": "<1x28x1x64x64>",
        "shape": [
          1,
          28,
          64,
          64
        ],
        "slice": "[0:1, 0:28, 0:1, 0:32, 0:64]",
        "type": "tensor<1x28x64x64xbf16>"
      }
    ],
    "buffers": []
  },
  {
    "file-line": 52,
    "subnet_id": 0,
    "core_id": 0,
    "opcode": "tpu.Add",
    "is_local": true,
    "tiu_dma_id(before)": [
      21,
      34
    ],
    "tiu_dma_id(after)": [
      23,
      34
    ],
    "operands": [
      {
        "address": 16384,
        "layout": "eu_align",
        "memory_type": "<1x28x32x64xbf16>",
        "name": "87_Conv",
        "reshape": "<1x28x1x64x64>",
        "shape": [
          1,
          28,
          64,
          64
        ],
        "slice": "[0:1, 0:28, 0:1, 0:32, 0:64]",
        "type": "tensor<1x28x64x64xbf16>"
      },
      {
        "address": 32768,
        "layout": "eu_align",
        "memory_type": "<1x28x32x64xbf16>",
        "name": "load_85_Pad",
        "reshape": "<1x28x1x64x64>",
        "shape": [
          1,
          28,
          64,
          64
        ],
        "slice": "[0:1, 0:28, 0:1, 0:32, 0:64]",
        "type": "tensor<1x28x64x64xbf16>"
      }
    ],
    "results": [
      {
        "address": 49152,
        "layout": "eu_align",
        "memory_type": "<1x28x32x64xbf16>",
        "name": "89_Relu",
        "reshape": "<1x28x1x64x64>",
        "shape": [
          1,
          28,
          64,
          64
        ],
        "slice": "[0:1, 0:28, 0:1, 0:32, 0:64]",
        "type": "tensor<1x28x64x64xbf16>"
      }
    ],
    "buffers": []
  },
  {
    "file-line": 44,
    "subnet_id": 0,
    "core_id": 0,
    "opcode": "tpu.Load",
    "is_local": true,
    "tiu_dma_id(before)": [
      21,
      34
    ],
    "tiu_dma_id(after)": [
      21,
      35
    ],
    "operands": [
      {
        "address": 2201171201920,
        "layout": "continuous",
        "memory_type": "<1x24x33x64xbf16>",
        "name": "84_Relu",
        "reshape": "<1x24x1x64x64>",
        "shape": [
          1,
          24,
          64,
          64
        ],
        "slice": "[0:1, 0:24, 0:1, 31:64, 0:64]",
        "type": "tensor<1x24x64x64xbf16, 2201171197952 : i64>"
      }
    ],
    "results": [
      {
        "address": 0,
        "layout": "eu_align",
        "memory_type": "<1x24x33x64xbf16>",
        "name": "load_84_Relu",
        "reshape": "<1x24x1x64x64>",
        "shape": [
          1,
          24,
          64,
          64
        ],
        "slice": "[0:1, 0:24, 0:1, 31:64, 0:64]",
        "type": "tensor<1x24x64x64xbf16>"
      }
    ],
    "buffers": []
  },
  {
    "file-line": 54,
    "subnet_id": 0,
    "core_id": 0,
    "opcode": "tpu.Pool2D",
    "is_local": true,
    "tiu_dma_id(before)": [
      23,
      35
    ],
    "tiu_dma_id(after)": [
      24,
      35
    ],
    "operands": [
      {
        "address": 49152,
        "layout": "eu_align",
        "memory_type": "<1x28x32x64xbf16>",
        "name": "89_Relu",
        "reshape": "<1x28x1x64x64>",
        "shape": [
          1,
          28,
          64,
          64
        ],
        "slice": "[0:1, 0:28, 0:1, 0:32, 0:64]",
        "type": "tensor<1x28x64x64xbf16>"
      }
    ],
    "results": [
      {
        "address": 16384,
        "layout": "eu_align",
        "memory_type": "<1x28x16x32xbf16>",
        "name": "91_MaxPool",
        "reshape": "<1x28x1x32x32>",
        "shape": [
          1,
          28,
          32,
          32
        ],
        "slice": "[0:1, 0:28, 0:1, 0:16, 0:32]",
        "type": "tensor<1x28x32x32xbf16>"
      }
    ],
    "buffers": []
  },
  {
    "file-line": 53,
    "subnet_id": 0,
    "core_id": 0,
    "opcode": "tpu.Store",
    "is_local": true,
    "tiu_dma_id(before)": [
      23,
      35
    ],
    "tiu_dma_id(after)": [
      23,
      36
    ],
    "operands": [
      {
        "address": 49152,
        "layout": "eu_align",
        "memory_type": "<1x28x32x64xbf16>",
        "name": "89_Relu",
        "reshape": "<1x28x1x64x64>",
        "shape": [
          1,
          28,
          64,
          64
        ],
        "slice": "[0:1, 0:28, 0:1, 0:32, 0:64]",
        "type": "tensor<1x28x64x64xbf16>"
      },
      {}
    ],
    "results": [
      {
        "address": 2201170739200,
        "layout": "continuous",
        "memory_type": "<1x28x32x64xbf16>",
        "name": "89_Relu",
        "reshape": "<1x28x1x64x64>",
        "shape": [
          1,
          28,
          64,
          64
        ],
        "slice": "[0:1, 0:28, 0:1, 0:32, 0:64]",
        "type": "tensor<1x28x64x64xbf16, 2201170739200 : i64>"
      }
    ],
    "buffers": []
  },
  {
    "file-line": 49,
    "subnet_id": 0,
    "core_id": 0,
    "opcode": "tpu.Conv2D",
    "is_local": true,
    "tiu_dma_id(before)": [
      24,
      36
    ],
    "tiu_dma_id(after)": [
      25,
      36
    ],
    "operands": [
      {
        "address": 0,
        "layout": "eu_align",
        "memory_type": "<1x24x33x64xbf16>",
        "name": "load_84_Relu",
        "reshape": "<1x24x1x64x64>",
        "shape": [
          1,
          24,
          64,
          64
        ],
        "slice": "[0:1, 0:24, 0:1, 31:64, 0:64]",
        "type": "tensor<1x24x64x64xbf16>"
      },
      {
        "address": 12864,
        "layout": "compact",
        "memory_type": "<1x24x3x3xbf16>",
        "name": "load_86_Convblaze_face.backbone1.3.convs.0.weight_bf16",
        "reshape": "<1x24x1x3x3>",
        "shape": [
          1,
          24,
          3,
          3
        ],
        "slice": "[0:1, 0:24, 0:1, 0:3, 0:3]",
        "type": "tensor<1x24x3x3xbf16>"
      },
      {
        "address": 12944,
        "layout": "compact",
        "memory_type": "<1x24x1x1xbf16>",
        "name": "load_86_Conv_reordered",
        "reshape": "<1x24x1x1x1>",
        "shape": [
          1,
          24,
          1,
          1
        ],
        "slice": "[0:1, 0:24, 0:1, 0:1, 0:1]",
        "type": "tensor<1x24x1x1xbf16>"
      }
    ],
    "results": [
      {
        "address": 53248,
        "layout": "eu_align",
        "memory_type": "<1x24x32x64xbf16>",
        "name": "86_Conv",
        "reshape": "<1x24x1x64x64>",
        "shape": [
          1,
          24,
          64,
          64
        ],
        "slice": "[0:1, 0:24, 0:1, 32:64, 0:64]",
        "type": "tensor<1x24x64x64xbf16>"
      }
    ],
    "buffers": [
      {
        "address": 20480,
        "size": 28831
      }
    ]
  },
  {
    "file-line": 55,
    "subnet_id": 0,
    "core_id": 0,
    "opcode": "tpu.Store",
    "is_local": true,
    "tiu_dma_id(before)": [
      24,
      36
    ],
    "tiu_dma_id(after)": [
      24,
      37
    ],
    "operands": [
      {
        "address": 16384,
        "layout": "eu_align",
        "memory_type": "<1x28x16x32xbf16>",
        "name": "91_MaxPool",
        "reshape": "<1x28x1x32x32>",
        "shape": [
          1,
          28,
          32,
          32
        ],
        "slice": "[0:1, 0:28, 0:1, 0:16, 0:32]",
        "type": "tensor<1x28x32x32xbf16>"
      },
      {}
    ],
    "results": [
      {
        "address": 2201171591168,
        "layout": "continuous",
        "memory_type": "<1x28x16x32xbf16>",
        "name": "91_MaxPool",
        "reshape": "<1x28x1x32x32>",
        "shape": [
          1,
          28,
          32,
          32
        ],
        "slice": "[0:1, 0:28, 0:1, 0:16, 0:32]",
        "type": "tensor<1x28x32x32xbf16, 2201171591168 : i64>"
      }
    ],
    "buffers": []
  },
  {
    "file-line": 51,
    "subnet_id": 0,
    "core_id": 0,
    "opcode": "tpu.Conv2D",
    "is_local": true,
    "tiu_dma_id(before)": [
      25,
      37
    ],
    "tiu_dma_id(after)": [
      26,
      37
    ],
    "operands": [
      {
        "address": 53248,
        "layout": "eu_align",
        "memory_type": "<1x24x32x64xbf16>",
        "name": "86_Conv",
        "reshape": "<1x24x1x64x64>",
        "shape": [
          1,
          24,
          64,
          64
        ],
        "slice": "[0:1, 0:24, 0:1, 32:64, 0:64]",
        "type": "tensor<1x24x64x64xbf16>"
      },
      {
        "address": 12672,
        "layout": "compact",
        "memory_type": "<1x28x1x24xbf16>",
        "name": "load_87_Conv_filter_reorderd",
        "reshape": "<1x28x1x1x24>",
        "shape": [
          1,
          28,
          1,
          24
        ],
        "slice": "[0:1, 0:28, 0:1, 0:1, 0:24]",
        "type": "tensor<1x28x1x24xbf16>"
      },
      {
        "address": 12928,
        "layout": "compact",
        "memory_type": "<1x28x1x1xf32>",
        "name": "load_blaze_face.backbone1.3.convs.1.bias",
        "reshape": "<1x28x1x1x1>",
        "shape": [
          1,
          28,
          1,
          1
        ],
        "slice": "[0:1, 0:28, 0:1, 0:1, 0:1]",
        "type": "tensor<1x28x1x1xf32>"
      }
    ],
    "results": [
      {
        "address": 16384,
        "layout": "eu_align",
        "memory_type": "<1x28x32x64xbf16>",
        "name": "87_Conv",
        "reshape": "<1x28x1x64x64>",
        "shape": [
          1,
          28,
          64,
          64
        ],
        "slice": "[0:1, 0:28, 0:1, 32:64, 0:64]",
        "type": "tensor<1x28x64x64xbf16>"
      }
    ],
    "buffers": []
  },
  {
    "file-line": 50,
    "subnet_id": 0,
    "core_id": 0,
    "opcode": "tpu.Load",
    "is_local": true,
    "tiu_dma_id(before)": [
      25,
      37
    ],
    "tiu_dma_id(after)": [
      25,
      38
    ],
    "operands": [
      {
        "address": 2201170972672,
        "layout": "continuous",
        "memory_type": "<1x28x32x64xbf16>",
        "name": "85_Pad",
        "reshape": "<1x28x1x64x64>",
        "shape": [
          1,
          28,
          64,
          64
        ],
        "slice": "[0:1, 0:28, 0:1, 32:64, 0:64]",
        "type": "tensor<1x28x64x64xbf16, 2201170968576 : i64>"
      }
    ],
    "results": [
      {
        "address": 32768,
        "layout": "eu_align",
        "memory_type": "<1x28x32x64xbf16>",
        "name": "load_85_Pad",
        "reshape": "<1x28x1x64x64>",
        "shape": [
          1,
          28,
          64,
          64
        ],
        "slice": "[0:1, 0:28, 0:1, 32:64, 0:64]",
        "type": "tensor<1x28x64x64xbf16>"
      }
    ],
    "buffers": []
  },
  {
    "file-line": 52,
    "subnet_id": 0,
    "core_id": 0,
    "opcode": "tpu.Add",
    "is_local": true,
    "tiu_dma_id(before)": [
      26,
      38
    ],
    "tiu_dma_id(after)": [
      28,
      38
    ],
    "operands": [
      {
        "address": 16384,
        "layout": "eu_align",
        "memory_type": "<1x28x32x64xbf16>",
        "name": "87_Conv",
        "reshape": "<1x28x1x64x64>",
        "shape": [
          1,
          28,
          64,
          64
        ],
        "slice": "[0:1, 0:28, 0:1, 32:64, 0:64]",
        "type": "tensor<1x28x64x64xbf16>"
      },
      {
        "address": 32768,
        "layout": "eu_align",
        "memory_type": "<1x28x32x64xbf16>",
        "name": "load_85_Pad",
        "reshape": "<1x28x1x64x64>",
        "shape": [
          1,
          28,
          64,
          64
        ],
        "slice": "[0:1, 0:28, 0:1, 32:64, 0:64]",
        "type": "tensor<1x28x64x64xbf16>"
      }
    ],
    "results": [
      {
        "address": 49152,
        "layout": "eu_align",
        "memory_type": "<1x28x32x64xbf16>",
        "name": "89_Relu",
        "reshape": "<1x28x1x64x64>",
        "shape": [
          1,
          28,
          64,
          64
        ],
        "slice": "[0:1, 0:28, 0:1, 32:64, 0:64]",
        "type": "tensor<1x28x64x64xbf16>"
      }
    ],
    "buffers": []
  },
  {
    "file-line": 54,
    "subnet_id": 0,
    "core_id": 0,
    "opcode": "tpu.Pool2D",
    "is_local": true,
    "tiu_dma_id(before)": [
      28,
      38
    ],
    "tiu_dma_id(after)": [
      29,
      38
    ],
    "operands": [
      {
        "address": 49152,
        "layout": "eu_align",
        "memory_type": "<1x28x32x64xbf16>",
        "name": "89_Relu",
        "reshape": "<1x28x1x64x64>",
        "shape": [
          1,
          28,
          64,
          64
        ],
        "slice": "[0:1, 0:28, 0:1, 32:64, 0:64]",
        "type": "tensor<1x28x64x64xbf16>"
      }
    ],
    "results": [
      {
        "address": 16384,
        "layout": "eu_align",
        "memory_type": "<1x28x16x32xbf16>",
        "name": "91_MaxPool",
        "reshape": "<1x28x1x32x32>",
        "shape": [
          1,
          28,
          32,
          32
        ],
        "slice": "[0:1, 0:28, 0:1, 16:32, 0:32]",
        "type": "tensor<1x28x32x32xbf16>"
      }
    ],
    "buffers": []
  },
  {
    "file-line": 53,
    "subnet_id": 0,
    "core_id": 0,
    "opcode": "tpu.Store",
    "is_local": true,
    "tiu_dma_id(before)": [
      28,
      38
    ],
    "tiu_dma_id(after)": [
      28,
      39
    ],
    "operands": [
      {
        "address": 49152,
        "layout": "eu_align",
        "memory_type": "<1x28x32x64xbf16>",
        "name": "89_Relu",
        "reshape": "<1x28x1x64x64>",
        "shape": [
          1,
          28,
          64,
          64
        ],
        "slice": "[0:1, 0:28, 0:1, 32:64, 0:64]",
        "type": "tensor<1x28x64x64xbf16>"
      },
      {}
    ],
    "results": [
      {
        "address": 2201170743296,
        "layout": "continuous",
        "memory_type": "<1x28x32x64xbf16>",
        "name": "89_Relu",
        "reshape": "<1x28x1x64x64>",
        "shape": [
          1,
          28,
          64,
          64
        ],
        "slice": "[0:1, 0:28, 0:1, 32:64, 0:64]",
        "type": "tensor<1x28x64x64xbf16, 2201170739200 : i64>"
      }
    ],
    "buffers": []
  },
  {
    "file-line": 55,
    "subnet_id": 0,
    "core_id": 0,
    "opcode": "tpu.Store",
    "is_local": true,
    "tiu_dma_id(before)": [
      29,
      39
    ],
    "tiu_dma_id(after)": [
      29,
      40
    ],
    "operands": [
      {
        "address": 16384,
        "layout": "eu_align",
        "memory_type": "<1x28x16x32xbf16>",
        "name": "91_MaxPool",
        "reshape": "<1x28x1x32x32>",
        "shape": [
          1,
          28,
          32,
          32
        ],
        "slice": "[0:1, 0:28, 0:1, 16:32, 0:32]",
        "type": "tensor<1x28x32x32xbf16>"
      },
      {}
    ],
    "results": [
      {
        "address": 2201171592192,
        "layout": "continuous",
        "memory_type": "<1x28x16x32xbf16>",
        "name": "91_MaxPool",
        "reshape": "<1x28x1x32x32>",
        "shape": [
          1,
          28,
          32,
          32
        ],
        "slice": "[0:1, 0:28, 0:1, 16:32, 0:32]",
        "type": "tensor<1x28x32x32xbf16, 2201171591168 : i64>"
      }
    ],
    "buffers": []
  },
  {
    "file-line": 58,
    "subnet_id": 0,
    "core_id": 0,
    "opcode": "tpu.Pad",
    "is_local": false,
    "tiu_dma_id(before)": [
      29,
      40
    ],
    "tiu_dma_id(after)": [
      29,
      42
    ],
    "operands": [
      {
        "address": 2201171591168,
        "layout": "continuous",
        "memory_type": "<1x28x32x32xbf16>",
        "name": "91_MaxPool",
        "reshape": "",
        "shape": [
          1,
          28,
          32,
          32
        ],
        "slice": "[...]",
        "type": "tensor<1x28x32x32xbf16, 2201171591168 : i64>"
      },
      {},
      {},
      {},
      {}
    ],
    "results": [
      {
        "address": 2201171050496,
        "layout": "continuous",
        "memory_type": "<1x32x32x32xbf16>",
        "name": "92_Pad",
        "reshape": "",
        "shape": [
          1,
          32,
          32,
          32
        ],
        "slice": "[...]",
        "type": "tensor<1x32x32x32xbf16, 2201171050496 : i64>"
      }
    ],
    "buffers": []
  },
  {
    "file-line": 64,
    "subnet_id": 0,
    "core_id": 0,
    "opcode": "tpu.Load",
    "is_local": true,
    "tiu_dma_id(before)": [
      29,
      42
    ],
    "tiu_dma_id(after)": [
      29,
      43
    ],
    "operands": [
      {
        "address": 2201170739200,
        "layout": "continuous",
        "memory_type": "<1x28x33x64xbf16>",
        "name": "89_Relu",
        "reshape": "<1x28x1x64x64>",
        "shape": [
          1,
          28,
          64,
          64
        ],
        "slice": "[0:1, 0:28, 0:1, 0:33, 0:64]",
        "type": "tensor<1x28x64x64xbf16, 2201170739200 : i64>"
      }
    ],
    "results": [
      {
        "address": 0,
        "layout": "eu_align",
        "memory_type": "<1x28x33x64xbf16>",
        "name": "load_89_Relu",
        "reshape": "<1x28x1x64x64>",
        "shape": [
          1,
          28,
          64,
          64
        ],
        "slice": "[0:1, 0:28, 0:1, 0:33, 0:64]",
        "type": "tensor<1x28x64x64xbf16>"
      }
    ],
    "buffers": []
  },
  {
    "file-line": 65,
    "subnet_id": 0,
    "core_id": 0,
    "opcode": "tpu.Load",
    "is_local": true,
    "tiu_dma_id(before)": [
      29,
      43
    ],
    "tiu_dma_id(after)": [
      29,
      44
    ],
    "operands": [
      {
        "address": 1101659160576,
        "layout": "continuous",
        "memory_type": "<1x28x3x3xbf16>",
        "name": "93_Convblaze_face.backbone1.4.convs.0.weight_bf16",
        "reshape": "<1x28x1x3x3>",
        "shape": [
          1,
          28,
          3,
          3
        ],
        "slice": "[0:1, 0:28, 0:1, 0:3, 0:3]",
        "type": "tensor<1x28x3x3xbf16, 1101659160576 : i64>"
      }
    ],
    "results": [
      {
        "address": 49152,
        "layout": "compact",
        "memory_type": "<1x28x3x3xbf16>",
        "name": "load_93_Convblaze_face.backbone1.4.convs.0.weight_bf16",
        "reshape": "<1x28x1x3x3>",
        "shape": [
          1,
          28,
          3,
          3
        ],
        "slice": "[0:1, 0:28, 0:1, 0:3, 0:3]",
        "type": "tensor<1x28x3x3xbf16>"
      }
    ],
    "buffers": []
  },
  {
    "file-line": 66,
    "subnet_id": 0,
    "core_id": 0,
    "opcode": "tpu.Load",
    "is_local": true,
    "tiu_dma_id(before)": [
      29,
      44
    ],
    "tiu_dma_id(after)": [
      29,
      45
    ],
    "operands": [
      {
        "address": 1101659164672,
        "layout": "continuous",
        "memory_type": "<1x28x1x1xbf16>",
        "name": "93_Conv_reordered",
        "reshape": "<1x28x1x1x1>",
        "shape": [
          1,
          28,
          1,
          1
        ],
        "slice": "[0:1, 0:28, 0:1, 0:1, 0:1]",
        "type": "tensor<1x28x1x1xbf16, 1101659164672 : i64>"
      }
    ],
    "results": [
      {
        "address": 57344,
        "layout": "compact",
        "memory_type": "<1x28x1x1xbf16>",
        "name": "load_93_Conv_reordered",
        "reshape": "<1x28x1x1x1>",
        "shape": [
          1,
          28,
          1,
          1
        ],
        "slice": "[0:1, 0:28, 0:1, 0:1, 0:1]",
        "type": "tensor<1x28x1x1xbf16>"
      }
    ],
    "buffers": []
  },
  {
    "file-line": 69,
    "subnet_id": 0,
    "core_id": 0,
    "opcode": "tpu.Conv2D",
    "is_local": true,
    "tiu_dma_id(before)": [
      29,
      45
    ],
    "tiu_dma_id(after)": [
      30,
      45
    ],
    "operands": [
      {
        "address": 0,
        "layout": "eu_align",
        "memory_type": "<1x28x33x64xbf16>",
        "name": "load_89_Relu",
        "reshape": "<1x28x1x64x64>",
        "shape": [
          1,
          28,
          64,
          64
        ],
        "slice": "[0:1, 0:28, 0:1, 0:33, 0:64]",
        "type": "tensor<1x28x64x64xbf16>"
      },
      {
        "address": 49152,
        "layout": "compact",
        "memory_type": "<1x28x3x3xbf16>",
        "name": "load_93_Convblaze_face.backbone1.4.convs.0.weight_bf16",
        "reshape": "<1x28x1x3x3>",
        "shape": [
          1,
          28,
          3,
          3
        ],
        "slice": "[0:1, 0:28, 0:1, 0:3, 0:3]",
        "type": "tensor<1x28x3x3xbf16>"
      },
      {
        "address": 57344,
        "layout": "compact",
        "memory_type": "<1x28x1x1xbf16>",
        "name": "load_93_Conv_reordered",
        "reshape": "<1x28x1x1x1>",
        "shape": [
          1,
          28,
          1,
          1
        ],
        "slice": "[0:1, 0:28, 0:1, 0:1, 0:1]",
        "type": "tensor<1x28x1x1xbf16>"
      }
    ],
    "results": [
      {
        "address": 20480,
        "layout": "eu_align",
        "memory_type": "<1x28x16x32xbf16>",
        "name": "93_Conv",
        "reshape": "<1x28x1x32x32>",
        "shape": [
          1,
          28,
          32,
          32
        ],
        "slice": "[0:1, 0:28, 0:1, 0:16, 0:32]",
        "type": "tensor<1x28x32x32xbf16>"
      }
    ],
    "buffers": [
      {
        "address": 24576,
        "size": 12456
      }
    ]
  },
  {
    "file-line": 67,
    "subnet_id": 0,
    "core_id": 0,
    "opcode": "tpu.Load",
    "is_local": true,
    "tiu_dma_id(before)": [
      29,
      45
    ],
    "tiu_dma_id(after)": [
      29,
      46
    ],
    "operands": [
      {
        "address": 1101659172864,
        "layout": "continuous",
        "memory_type": "<1x32x1x32xbf16>",
        "name": "94_Conv_filter_reorderd",
        "reshape": "<1x32x1x1x32>",
        "shape": [
          1,
          32,
          1,
          32
        ],
        "slice": "[0:1, 0:32, 0:1, 0:1, 0:32]",
        "type": "tensor<1x32x1x32xbf16, 1101659172864 : i64>"
      }
    ],
    "results": [
      {
        "address": 45056,
        "layout": "compact",
        "memory_type": "<1x32x1x32xbf16>",
        "name": "load_94_Conv_filter_reorderd",
        "reshape": "<1x32x1x1x32>",
        "shape": [
          1,
          32,
          1,
          32
        ],
        "slice": "[0:1, 0:32, 0:1, 0:1, 0:32]",
        "type": "tensor<1x32x1x32xbf16>"
      }
    ],
    "buffers": []
  },
  {
    "file-line": 68,
    "subnet_id": 0,
    "core_id": 0,
    "opcode": "tpu.Load",
    "is_local": true,
    "tiu_dma_id(before)": [
      29,
      46
    ],
    "tiu_dma_id(after)": [
      29,
      47
    ],
    "operands": [
      {
        "address": 1101659168768,
        "layout": "continuous",
        "memory_type": "<1x32x1x1xf32>",
        "name": "blaze_face.backbone1.4.convs.1.bias",
        "reshape": "<1x32x1x1x1>",
        "shape": [
          1,
          32,
          1,
          1
        ],
        "slice": "[0:1, 0:32, 0:1, 0:1, 0:1]",
        "type": "tensor<1x32x1x1xf32, 1101659168768 : i64>"
      }
    ],
    "results": [
      {
        "address": 53248,
        "layout": "compact",
        "memory_type": "<1x32x1x1xf32>",
        "name": "load_blaze_face.backbone1.4.convs.1.bias",
        "reshape": "<1x32x1x1x1>",
        "shape": [
          1,
          32,
          1,
          1
        ],
        "slice": "[0:1, 0:32, 0:1, 0:1, 0:1]",
        "type": "tensor<1x32x1x1xf32>"
      }
    ],
    "buffers": []
  },
  {
    "file-line": 71,
    "subnet_id": 0,
    "core_id": 0,
    "opcode": "tpu.Conv2D",
    "is_local": true,
    "tiu_dma_id(before)": [
      30,
      47
    ],
    "tiu_dma_id(after)": [
      31,
      47
    ],
    "operands": [
      {
        "address": 20480,
        "layout": "eu_align",
        "memory_type": "<1x28x16x32xbf16>",
        "name": "93_Conv",
        "reshape": "<1x28x1x32x32>",
        "shape": [
          1,
          28,
          32,
          32
        ],
        "slice": "[0:1, 0:28, 0:1, 0:16, 0:32]",
        "type": "tensor<1x28x32x32xbf16>"
      },
      {
        "address": 45056,
        "layout": "compact",
        "memory_type": "<1x32x1x32xbf16>",
        "name": "load_94_Conv_filter_reorderd",
        "reshape": "<1x32x1x1x32>",
        "shape": [
          1,
          32,
          1,
          32
        ],
        "slice": "[0:1, 0:32, 0:1, 0:1, 0:32]",
        "type": "tensor<1x32x1x32xbf16>"
      },
      {
        "address": 53248,
        "layout": "compact",
        "memory_type": "<1x32x1x1xf32>",
        "name": "load_blaze_face.backbone1.4.convs.1.bias",
        "reshape": "<1x32x1x1x1>",
        "shape": [
          1,
          32,
          1,
          1
        ],
        "slice": "[0:1, 0:32, 0:1, 0:1, 0:1]",
        "type": "tensor<1x32x1x1xf32>"
      }
    ],
    "results": [
      {
        "address": 24576,
        "layout": "eu_align",
        "memory_type": "<1x32x16x32xbf16>",
        "name": "94_Conv",
        "reshape": "<1x32x1x32x32>",
        "shape": [
          1,
          32,
          32,
          32
        ],
        "slice": "[0:1, 0:32, 0:1, 0:16, 0:32]",
        "type": "tensor<1x32x32x32xbf16>"
      }
    ],
    "buffers": []
  },
  {
    "file-line": 70,
    "subnet_id": 0,
    "core_id": 0,
    "opcode": "tpu.Load",
    "is_local": true,
    "tiu_dma_id(before)": [
      30,
      47
    ],
    "tiu_dma_id(after)": [
      30,
      48
    ],
    "operands": [
      {
        "address": 2201171050496,
        "layout": "continuous",
        "memory_type": "<1x32x16x32xbf16>",
        "name": "92_Pad",
        "reshape": "<1x32x1x32x32>",
        "shape": [
          1,
          32,
          32,
          32
        ],
        "slice": "[0:1, 0:32, 0:1, 0:16, 0:32]",
        "type": "tensor<1x32x32x32xbf16, 2201171050496 : i64>"
      }
    ],
    "results": [
      {
        "address": 28672,
        "layout": "eu_align",
        "memory_type": "<1x32x16x32xbf16>",
        "name": "load_92_Pad",
        "reshape": "<1x32x1x32x32>",
        "shape": [
          1,
          32,
          32,
          32
        ],
        "slice": "[0:1, 0:32, 0:1, 0:16, 0:32]",
        "type": "tensor<1x32x32x32xbf16>"
      }
    ],
    "buffers": []
  },
  {
    "file-line": 72,
    "subnet_id": 0,
    "core_id": 0,
    "opcode": "tpu.Add",
    "is_local": true,
    "tiu_dma_id(before)": [
      31,
      48
    ],
    "tiu_dma_id(after)": [
      33,
      48
    ],
    "operands": [
      {
        "address": 24576,
        "layout": "eu_align",
        "memory_type": "<1x32x16x32xbf16>",
        "name": "94_Conv",
        "reshape": "<1x32x1x32x32>",
        "shape": [
          1,
          32,
          32,
          32
        ],
        "slice": "[0:1, 0:32, 0:1, 0:16, 0:32]",
        "type": "tensor<1x32x32x32xbf16>"
      },
      {
        "address": 28672,
        "layout": "eu_align",
        "memory_type": "<1x32x16x32xbf16>",
        "name": "load_92_Pad",
        "reshape": "<1x32x1x32x32>",
        "shape": [
          1,
          32,
          32,
          32
        ],
        "slice": "[0:1, 0:32, 0:1, 0:16, 0:32]",
        "type": "tensor<1x32x32x32xbf16>"
      }
    ],
    "results": [
      {
        "address": 40960,
        "layout": "eu_align",
        "memory_type": "<1x32x16x32xbf16>",
        "name": "96_Relu",
        "reshape": "<1x32x1x32x32>",
        "shape": [
          1,
          32,
          32,
          32
        ],
        "slice": "[0:1, 0:32, 0:1, 0:16, 0:32]",
        "type": "tensor<1x32x32x32xbf16>"
      }
    ],
    "buffers": []
  },
  {
    "file-line": 64,
    "subnet_id": 0,
    "core_id": 0,
    "opcode": "tpu.Load",
    "is_local": true,
    "tiu_dma_id(before)": [
      31,
      48
    ],
    "tiu_dma_id(after)": [
      31,
      49
    ],
    "operands": [
      {
        "address": 2201170743296,
        "layout": "continuous",
        "memory_type": "<1x28x32x64xbf16>",
        "name": "89_Relu",
        "reshape": "<1x28x1x64x64>",
        "shape": [
          1,
          28,
          64,
          64
        ],
        "slice": "[0:1, 0:28, 0:1, 32:64, 0:64]",
        "type": "tensor<1x28x64x64xbf16, 2201170739200 : i64>"
      }
    ],
    "results": [
      {
        "address": 0,
        "layout": "eu_align",
        "memory_type": "<1x28x32x64xbf16>",
        "name": "load_89_Relu",
        "reshape": "<1x28x1x64x64>",
        "shape": [
          1,
          28,
          64,
          64
        ],
        "slice": "[0:1, 0:28, 0:1, 32:64, 0:64]",
        "type": "tensor<1x28x64x64xbf16>"
      }
    ],
    "buffers": []
  },
  {
    "file-line": 69,
    "subnet_id": 0,
    "core_id": 0,
    "opcode": "tpu.Conv2D",
    "is_local": true,
    "tiu_dma_id(before)": [
      33,
      49
    ],
    "tiu_dma_id(after)": [
      34,
      49
    ],
    "operands": [
      {
        "address": 0,
        "layout": "eu_align",
        "memory_type": "<1x28x32x64xbf16>",
        "name": "load_89_Relu",
        "reshape": "<1x28x1x64x64>",
        "shape": [
          1,
          28,
          64,
          64
        ],
        "slice": "[0:1, 0:28, 0:1, 32:64, 0:64]",
        "type": "tensor<1x28x64x64xbf16>"
      },
      {
        "address": 49152,
        "layout": "compact",
        "memory_type": "<1x28x3x3xbf16>",
        "name": "load_93_Convblaze_face.backbone1.4.convs.0.weight_bf16",
        "reshape": "<1x28x1x3x3>",
        "shape": [
          1,
          28,
          3,
          3
        ],
        "slice": "[0:1, 0:28, 0:1, 0:3, 0:3]",
        "type": "tensor<1x28x3x3xbf16>"
      },
      {
        "address": 57344,
        "layout": "compact",
        "memory_type": "<1x28x1x1xbf16>",
        "name": "load_93_Conv_reordered",
        "reshape": "<1x28x1x1x1>",
        "shape": [
          1,
          28,
          1,
          1
        ],
        "slice": "[0:1, 0:28, 0:1, 0:1, 0:1]",
        "type": "tensor<1x28x1x1xbf16>"
      }
    ],
    "results": [
      {
        "address": 20480,
        "layout": "eu_align",
        "memory_type": "<1x28x16x32xbf16>",
        "name": "93_Conv",
        "reshape": "<1x28x1x32x32>",
        "shape": [
          1,
          28,
          32,
          32
        ],
        "slice": "[0:1, 0:28, 0:1, 16:32, 0:32]",
        "type": "tensor<1x28x32x32xbf16>"
      }
    ],
    "buffers": [
      {
        "address": 24576,
        "size": 12456
      }
    ]
  },
  {
    "file-line": 73,
    "subnet_id": 0,
    "core_id": 0,
    "opcode": "tpu.Store",
    "is_local": true,
    "tiu_dma_id(before)": [
      33,
      49
    ],
    "tiu_dma_id(after)": [
      33,
      50
    ],
    "operands": [
      {
        "address": 40960,
        "layout": "eu_align",
        "memory_type": "<1x32x16x32xbf16>",
        "name": "96_Relu",
        "reshape": "<1x32x1x32x32>",
        "shape": [
          1,
          32,
          32,
          32
        ],
        "slice": "[0:1, 0:32, 0:1, 0:16, 0:32]",
        "type": "tensor<1x32x32x32xbf16>"
      },
      {}
    ],
    "results": [
      {
        "address": 2201170984960,
        "layout": "continuous",
        "memory_type": "<1x32x16x32xbf16>",
        "name": "96_Relu",
        "reshape": "<1x32x1x32x32>",
        "shape": [
          1,
          32,
          32,
          32
        ],
        "slice": "[0:1, 0:32, 0:1, 0:16, 0:32]",
        "type": "tensor<1x32x32x32xbf16, 2201170984960 : i64>"
      }
    ],
    "buffers": []
  },
  {
    "file-line": 71,
    "subnet_id": 0,
    "core_id": 0,
    "opcode": "tpu.Conv2D",
    "is_local": true,
    "tiu_dma_id(before)": [
      34,
      50
    ],
    "tiu_dma_id(after)": [
      35,
      50
    ],
    "operands": [
      {
        "address": 20480,
        "layout": "eu_align",
        "memory_type": "<1x28x16x32xbf16>",
        "name": "93_Conv",
        "reshape": "<1x28x1x32x32>",
        "shape": [
          1,
          28,
          32,
          32
        ],
        "slice": "[0:1, 0:28, 0:1, 16:32, 0:32]",
        "type": "tensor<1x28x32x32xbf16>"
      },
      {
        "address": 45056,
        "layout": "compact",
        "memory_type": "<1x32x1x32xbf16>",
        "name": "load_94_Conv_filter_reorderd",
        "reshape": "<1x32x1x1x32>",
        "shape": [
          1,
          32,
          1,
          32
        ],
        "slice": "[0:1, 0:32, 0:1, 0:1, 0:32]",
        "type": "tensor<1x32x1x32xbf16>"
      },
      {
        "address": 53248,
        "layout": "compact",
        "memory_type": "<1x32x1x1xf32>",
        "name": "load_blaze_face.backbone1.4.convs.1.bias",
        "reshape": "<1x32x1x1x1>",
        "shape": [
          1,
          32,
          1,
          1
        ],
        "slice": "[0:1, 0:32, 0:1, 0:1, 0:1]",
        "type": "tensor<1x32x1x1xf32>"
      }
    ],
    "results": [
      {
        "address": 24576,
        "layout": "eu_align",
        "memory_type": "<1x32x16x32xbf16>",
        "name": "94_Conv",
        "reshape": "<1x32x1x32x32>",
        "shape": [
          1,
          32,
          32,
          32
        ],
        "slice": "[0:1, 0:32, 0:1, 16:32, 0:32]",
        "type": "tensor<1x32x32x32xbf16>"
      }
    ],
    "buffers": []
  },
  {
    "file-line": 70,
    "subnet_id": 0,
    "core_id": 0,
    "opcode": "tpu.Load",
    "is_local": true,
    "tiu_dma_id(before)": [
      34,
      50
    ],
    "tiu_dma_id(after)": [
      34,
      51
    ],
    "operands": [
      {
        "address": 2201171051520,
        "layout": "continuous",
        "memory_type": "<1x32x16x32xbf16>",
        "name": "92_Pad",
        "reshape": "<1x32x1x32x32>",
        "shape": [
          1,
          32,
          32,
          32
        ],
        "slice": "[0:1, 0:32, 0:1, 16:32, 0:32]",
        "type": "tensor<1x32x32x32xbf16, 2201171050496 : i64>"
      }
    ],
    "results": [
      {
        "address": 28672,
        "layout": "eu_align",
        "memory_type": "<1x32x16x32xbf16>",
        "name": "load_92_Pad",
        "reshape": "<1x32x1x32x32>",
        "shape": [
          1,
          32,
          32,
          32
        ],
        "slice": "[0:1, 0:32, 0:1, 16:32, 0:32]",
        "type": "tensor<1x32x32x32xbf16>"
      }
    ],
    "buffers": []
  },
  {
    "file-line": 72,
    "subnet_id": 0,
    "core_id": 0,
    "opcode": "tpu.Add",
    "is_local": true,
    "tiu_dma_id(before)": [
      35,
      51
    ],
    "tiu_dma_id(after)": [
      37,
      51
    ],
    "operands": [
      {
        "address": 24576,
        "layout": "eu_align",
        "memory_type": "<1x32x16x32xbf16>",
        "name": "94_Conv",
        "reshape": "<1x32x1x32x32>",
        "shape": [
          1,
          32,
          32,
          32
        ],
        "slice": "[0:1, 0:32, 0:1, 16:32, 0:32]",
        "type": "tensor<1x32x32x32xbf16>"
      },
      {
        "address": 28672,
        "layout": "eu_align",
        "memory_type": "<1x32x16x32xbf16>",
        "name": "load_92_Pad",
        "reshape": "<1x32x1x32x32>",
        "shape": [
          1,
          32,
          32,
          32
        ],
        "slice": "[0:1, 0:32, 0:1, 16:32, 0:32]",
        "type": "tensor<1x32x32x32xbf16>"
      }
    ],
    "results": [
      {
        "address": 40960,
        "layout": "eu_align",
        "memory_type": "<1x32x16x32xbf16>",
        "name": "96_Relu",
        "reshape": "<1x32x1x32x32>",
        "shape": [
          1,
          32,
          32,
          32
        ],
        "slice": "[0:1, 0:32, 0:1, 16:32, 0:32]",
        "type": "tensor<1x32x32x32xbf16>"
      }
    ],
    "buffers": []
  },
  {
    "file-line": 73,
    "subnet_id": 0,
    "core_id": 0,
    "opcode": "tpu.Store",
    "is_local": true,
    "tiu_dma_id(before)": [
      37,
      51
    ],
    "tiu_dma_id(after)": [
      37,
      52
    ],
    "operands": [
      {
        "address": 40960,
        "layout": "eu_align",
        "memory_type": "<1x32x16x32xbf16>",
        "name": "96_Relu",
        "reshape": "<1x32x1x32x32>",
        "shape": [
          1,
          32,
          32,
          32
        ],
        "slice": "[0:1, 0:32, 0:1, 16:32, 0:32]",
        "type": "tensor<1x32x32x32xbf16>"
      },
      {}
    ],
    "results": [
      {
        "address": 2201170985984,
        "layout": "continuous",
        "memory_type": "<1x32x16x32xbf16>",
        "name": "96_Relu",
        "reshape": "<1x32x1x32x32>",
        "shape": [
          1,
          32,
          32,
          32
        ],
        "slice": "[0:1, 0:32, 0:1, 16:32, 0:32]",
        "type": "tensor<1x32x32x32xbf16, 2201170984960 : i64>"
      }
    ],
    "buffers": []
  },
  {
    "file-line": 76,
    "subnet_id": 0,
    "core_id": 0,
    "opcode": "tpu.Pad",
    "is_local": false,
    "tiu_dma_id(before)": [
      37,
      52
    ],
    "tiu_dma_id(after)": [
      37,
      54
    ],
    "operands": [
      {
        "address": 2201170984960,
        "layout": "continuous",
        "memory_type": "<1x32x32x32xbf16>",
        "name": "96_Relu",
        "reshape": "",
        "shape": [
          1,
          32,
          32,
          32
        ],
        "slice": "[...]",
        "type": "tensor<1x32x32x32xbf16, 2201170984960 : i64>"
      },
      {},
      {},
      {},
      {}
    ],
    "results": [
      {
        "address": 2201170739200,
        "layout": "continuous",
        "memory_type": "<1x36x32x32xbf16>",
        "name": "97_Pad",
        "reshape": "",
        "shape": [
          1,
          36,
          32,
          32
        ],
        "slice": "[...]",
        "type": "tensor<1x36x32x32xbf16, 2201170739200 : i64>"
      }
    ],
    "buffers": []
  },
  {
    "file-line": 82,
    "subnet_id": 0,
    "core_id": 0,
    "opcode": "tpu.Load",
    "is_local": true,
    "tiu_dma_id(before)": [
      37,
      54
    ],
    "tiu_dma_id(after)": [
      37,
      55
    ],
    "operands": [
      {
        "address": 2201170984960,
        "layout": "continuous",
        "memory_type": "<1x32x32x32xbf16>",
        "name": "96_Relu",
        "reshape": "<1x32x1x32x32>",
        "shape": [
          1,
          32,
          32,
          32
        ],
        "slice": "[0:1, 0:32, 0:1, 0:32, 0:32]",
        "type": "tensor<1x32x32x32xbf16, 2201170984960 : i64>"
      }
    ],
    "results": [
      {
        "address": 45056,
        "layout": "eu_align",
        "memory_type": "<1x32x32x32xbf16>",
        "name": "load_96_Relu",
        "reshape": "<1x32x1x32x32>",
        "shape": [
          1,
          32,
          32,
          32
        ],
        "slice": "[0:1, 0:32, 0:1, 0:32, 0:32]",
        "type": "tensor<1x32x32x32xbf16>"
      }
    ],
    "buffers": []
  },
  {
    "file-line": 83,
    "subnet_id": 0,
    "core_id": 0,
    "opcode": "tpu.Load",
    "is_local": true,
    "tiu_dma_id(before)": [
      37,
      55
    ],
    "tiu_dma_id(after)": [
      37,
      56
    ],
    "operands": [
      {
        "address": 1101659176960,
        "layout": "continuous",
        "memory_type": "<1x32x3x3xbf16>",
        "name": "98_Convblaze_face.backbone1.5.convs.0.weight_bf16",
        "reshape": "<1x32x1x3x3>",
        "shape": [
          1,
          32,
          3,
          3
        ],
        "slice": "[0:1, 0:32, 0:1, 0:3, 0:3]",
        "type": "tensor<1x32x3x3xbf16, 1101659176960 : i64>"
      }
    ],
    "results": [
      {
        "address": 53248,
        "layout": "compact",
        "memory_type": "<1x32x3x3xbf16>",
        "name": "load_98_Convblaze_face.backbone1.5.convs.0.weight_bf16",
        "reshape": "<1x32x1x3x3>",
        "shape": [
          1,
          32,
          3,
          3
        ],
        "slice": "[0:1, 0:32, 0:1, 0:3, 0:3]",
        "type": "tensor<1x32x3x3xbf16>"
      }
    ],
    "buffers": []
  },
  {
    "file-line": 84,
    "subnet_id": 0,
    "core_id": 0,
    "opcode": "tpu.Load",
    "is_local": true,
    "tiu_dma_id(before)": [
      37,
      56
    ],
    "tiu_dma_id(after)": [
      37,
      57
    ],
    "operands": [
      {
        "address": 1101659181056,
        "layout": "continuous",
        "memory_type": "<1x32x1x1xbf16>",
        "name": "98_Conv_reordered",
        "reshape": "<1x32x1x1x1>",
        "shape": [
          1,
          32,
          1,
          1
        ],
        "slice": "[0:1, 0:32, 0:1, 0:1, 0:1]",
        "type": "tensor<1x32x1x1xbf16, 1101659181056 : i64>"
      }
    ],
    "results": [
      {
        "address": 61440,
        "layout": "compact",
        "memory_type": "<1x32x1x1xbf16>",
        "name": "load_98_Conv_reordered",
        "reshape": "<1x32x1x1x1>",
        "shape": [
          1,
          32,
          1,
          1
        ],
        "slice": "[0:1, 0:32, 0:1, 0:1, 0:1]",
        "type": "tensor<1x32x1x1xbf16>"
      }
    ],
    "buffers": []
  },
  {
    "file-line": 87,
    "subnet_id": 0,
    "core_id": 0,
    "opcode": "tpu.Conv2D",
    "is_local": true,
    "tiu_dma_id(before)": [
      37,
      57
    ],
    "tiu_dma_id(after)": [
      38,
      57
    ],
    "operands": [
      {
        "address": 45056,
        "layout": "eu_align",
        "memory_type": "<1x32x32x32xbf16>",
        "name": "load_96_Relu",
        "reshape": "<1x32x1x32x32>",
        "shape": [
          1,
          32,
          32,
          32
        ],
        "slice": "[0:1, 0:32, 0:1, 0:32, 0:32]",
        "type": "tensor<1x32x32x32xbf16>"
      },
      {
        "address": 53248,
        "layout": "compact",
        "memory_type": "<1x32x3x3xbf16>",
        "name": "load_98_Convblaze_face.backbone1.5.convs.0.weight_bf16",
        "reshape": "<1x32x1x3x3>",
        "shape": [
          1,
          32,
          3,
          3
        ],
        "slice": "[0:1, 0:32, 0:1, 0:3, 0:3]",
        "type": "tensor<1x32x3x3xbf16>"
      },
      {
        "address": 61440,
        "layout": "compact",
        "memory_type": "<1x32x1x1xbf16>",
        "name": "load_98_Conv_reordered",
        "reshape": "<1x32x1x1x1>",
        "shape": [
          1,
          32,
          1,
          1
        ],
        "slice": "[0:1, 0:32, 0:1, 0:1, 0:1]",
        "type": "tensor<1x32x1x1xbf16>"
      }
    ],
    "results": [
      {
        "address": 36864,
        "layout": "eu_align",
        "memory_type": "<1x32x32x32xbf16>",
        "name": "98_Conv",
        "reshape": "<1x32x1x32x32>",
        "shape": [
          1,
          32,
          32,
          32
        ],
        "slice": "[0:1, 0:32, 0:1, 0:32, 0:32]",
        "type": "tensor<1x32x32x32xbf16>"
      }
    ],
    "buffers": [
      {
        "address": 0,
        "size": 18472
      }
    ]
  },
  {
    "file-line": 85,
    "subnet_id": 0,
    "core_id": 0,
    "opcode": "tpu.Load",
    "is_local": true,
    "tiu_dma_id(before)": [
      37,
      57
    ],
    "tiu_dma_id(after)": [
      37,
      58
    ],
    "operands": [
      {
        "address": 1101659189248,
        "layout": "continuous",
        "memory_type": "<1x36x1x32xbf16>",
        "name": "99_Conv_filter_reorderd",
        "reshape": "<1x36x1x1x32>",
        "shape": [
          1,
          36,
          1,
          32
        ],
        "slice": "[0:1, 0:36, 0:1, 0:1, 0:32]",
        "type": "tensor<1x36x1x32xbf16, 1101659189248 : i64>"
      }
    ],
    "results": [
      {
        "address": 34816,
        "layout": "compact",
        "memory_type": "<1x36x1x32xbf16>",
        "name": "load_99_Conv_filter_reorderd",
        "reshape": "<1x36x1x1x32>",
        "shape": [
          1,
          36,
          1,
          32
        ],
        "slice": "[0:1, 0:36, 0:1, 0:1, 0:32]",
        "type": "tensor<1x36x1x32xbf16>"
      }
    ],
    "buffers": []
  },
  {
    "file-line": 86,
    "subnet_id": 0,
    "core_id": 0,
    "opcode": "tpu.Load",
    "is_local": true,
    "tiu_dma_id(before)": [
      37,
      58
    ],
    "tiu_dma_id(after)": [
      37,
      59
    ],
    "operands": [
      {
        "address": 1101659185152,
        "layout": "continuous",
        "memory_type": "<1x36x1x1xf32>",
        "name": "blaze_face.backbone1.5.convs.1.bias",
        "reshape": "<1x36x1x1x1>",
        "shape": [
          1,
          36,
          1,
          1
        ],
        "slice": "[0:1, 0:36, 0:1, 0:1, 0:1]",
        "type": "tensor<1x36x1x1xf32, 1101659185152 : i64>"
      }
    ],
    "results": [
      {
        "address": 57344,
        "layout": "compact",
        "memory_type": "<1x36x1x1xf32>",
        "name": "load_blaze_face.backbone1.5.convs.1.bias",
        "reshape": "<1x36x1x1x1>",
        "shape": [
          1,
          36,
          1,
          1
        ],
        "slice": "[0:1, 0:36, 0:1, 0:1, 0:1]",
        "type": "tensor<1x36x1x1xf32>"
      }
    ],
    "buffers": []
  },
  {
    "file-line": 89,
    "subnet_id": 0,
    "core_id": 0,
    "opcode": "tpu.Conv2D",
    "is_local": true,
    "tiu_dma_id(before)": [
      38,
      59
    ],
    "tiu_dma_id(after)": [
      39,
      59
    ],
    "operands": [
      {
        "address": 36864,
        "layout": "eu_align",
        "memory_type": "<1x32x32x32xbf16>",
        "name": "98_Conv",
        "reshape": "<1x32x1x32x32>",
        "shape": [
          1,
          32,
          32,
          32
        ],
        "slice": "[0:1, 0:32, 0:1, 0:32, 0:32]",
        "type": "tensor<1x32x32x32xbf16>"
      },
      {
        "address": 34816,
        "layout": "compact",
        "memory_type": "<1x36x1x32xbf16>",
        "name": "load_99_Conv_filter_reorderd",
        "reshape": "<1x36x1x1x32>",
        "shape": [
          1,
          36,
          1,
          32
        ],
        "slice": "[0:1, 0:36, 0:1, 0:1, 0:32]",
        "type": "tensor<1x36x1x32xbf16>"
      },
      {
        "address": 57344,
        "layout": "compact",
        "memory_type": "<1x36x1x1xf32>",
        "name": "load_blaze_face.backbone1.5.convs.1.bias",
        "reshape": "<1x36x1x1x1>",
        "shape": [
          1,
          36,
          1,
          1
        ],
        "slice": "[0:1, 0:36, 0:1, 0:1, 0:1]",
        "type": "tensor<1x36x1x1xf32>"
      }
    ],
    "results": [
      {
        "address": 0,
        "layout": "eu_align",
        "memory_type": "<1x36x32x32xbf16>",
        "name": "99_Conv",
        "reshape": "<1x36x1x32x32>",
        "shape": [
          1,
          36,
          32,
          32
        ],
        "slice": "[0:1, 0:36, 0:1, 0:32, 0:32]",
        "type": "tensor<1x36x32x32xbf16>"
      }
    ],
    "buffers": []
  },
  {
    "file-line": 88,
    "subnet_id": 0,
    "core_id": 0,
    "opcode": "tpu.Load",
    "is_local": true,
    "tiu_dma_id(before)": [
      38,
      59
    ],
    "tiu_dma_id(after)": [
      38,
      60
    ],
    "operands": [
      {
        "address": 2201170739200,
        "layout": "continuous",
        "memory_type": "<1x36x32x32xbf16>",
        "name": "97_Pad",
        "reshape": "<1x36x1x32x32>",
        "shape": [
          1,
          36,
          32,
          32
        ],
        "slice": "[0:1, 0:36, 0:1, 0:32, 0:32]",
        "type": "tensor<1x36x32x32xbf16, 2201170739200 : i64>"
      }
    ],
    "results": [
      {
        "address": 12288,
        "layout": "eu_align",
        "memory_type": "<1x36x32x32xbf16>",
        "name": "load_97_Pad",
        "reshape": "<1x36x1x32x32>",
        "shape": [
          1,
          36,
          32,
          32
        ],
        "slice": "[0:1, 0:36, 0:1, 0:32, 0:32]",
        "type": "tensor<1x36x32x32xbf16>"
      }
    ],
    "buffers": []
  },
  {
    "file-line": 90,
    "subnet_id": 0,
    "core_id": 0,
    "opcode": "tpu.Add",
    "is_local": true,
    "tiu_dma_id(before)": [
      39,
      60
    ],
    "tiu_dma_id(after)": [
      41,
      60
    ],
    "operands": [
      {
        "address": 0,
        "layout": "eu_align",
        "memory_type": "<1x36x32x32xbf16>",
        "name": "99_Conv",
        "reshape": "<1x36x1x32x32>",
        "shape": [
          1,
          36,
          32,
          32
        ],
        "slice": "[0:1, 0:36, 0:1, 0:32, 0:32]",
        "type": "tensor<1x36x32x32xbf16>"
      },
      {
        "address": 12288,
        "layout": "eu_align",
        "memory_type": "<1x36x32x32xbf16>",
        "name": "load_97_Pad",
        "reshape": "<1x36x1x32x32>",
        "shape": [
          1,
          36,
          32,
          32
        ],
        "slice": "[0:1, 0:36, 0:1, 0:32, 0:32]",
        "type": "tensor<1x36x32x32xbf16>"
      }
    ],
    "results": [
      {
        "address": 24576,
        "layout": "eu_align",
        "memory_type": "<1x36x32x32xbf16>",
        "name": "101_Relu",
        "reshape": "<1x36x1x32x32>",
        "shape": [
          1,
          36,
          32,
          32
        ],
        "slice": "[0:1, 0:36, 0:1, 0:32, 0:32]",
        "type": "tensor<1x36x32x32xbf16>"
      }
    ],
    "buffers": []
  },
  {
    "file-line": 91,
    "subnet_id": 0,
    "core_id": 0,
    "opcode": "tpu.Store",
    "is_local": true,
    "tiu_dma_id(before)": [
      41,
      60
    ],
    "tiu_dma_id(after)": [
      41,
      61
    ],
    "operands": [
      {
        "address": 24576,
        "layout": "eu_align",
        "memory_type": "<1x36x32x32xbf16>",
        "name": "101_Relu",
        "reshape": "<1x36x1x32x32>",
        "shape": [
          1,
          36,
          32,
          32
        ],
        "slice": "[0:1, 0:36, 0:1, 0:32, 0:32]",
        "type": "tensor<1x36x32x32xbf16>"
      },
      {}
    ],
    "results": [
      {
        "address": 2201170911232,
        "layout": "continuous",
        "memory_type": "<1x36x32x32xbf16>",
        "name": "101_Relu",
        "reshape": "<1x36x1x32x32>",
        "shape": [
          1,
          36,
          32,
          32
        ],
        "slice": "[0:1, 0:36, 0:1, 0:32, 0:32]",
        "type": "tensor<1x36x32x32xbf16, 2201170911232 : i64>"
      }
    ],
    "buffers": []
  },
  {
    "file-line": 94,
    "subnet_id": 0,
    "core_id": 0,
    "opcode": "tpu.Pad",
    "is_local": false,
    "tiu_dma_id(before)": [
      41,
      61
    ],
    "tiu_dma_id(after)": [
      41,
      63
    ],
    "operands": [
      {
        "address": 2201170911232,
        "layout": "continuous",
        "memory_type": "<1x36x32x32xbf16>",
        "name": "101_Relu",
        "reshape": "",
        "shape": [
          1,
          36,
          32,
          32
        ],
        "slice": "[...]",
        "type": "tensor<1x36x32x32xbf16, 2201170911232 : i64>"
      },
      {},
      {},
      {},
      {}
    ],
    "results": [
      {
        "address": 2201170825216,
        "layout": "continuous",
        "memory_type": "<1x42x32x32xbf16>",
        "name": "102_Pad",
        "reshape": "",
        "shape": [
          1,
          42,
          32,
          32
        ],
        "slice": "[...]",
        "type": "tensor<1x42x32x32xbf16, 2201170825216 : i64>"
      }
    ],
    "buffers": []
  },
  {
    "file-line": 100,
    "subnet_id": 0,
    "core_id": 0,
    "opcode": "tpu.Load",
    "is_local": true,
    "tiu_dma_id(before)": [
      41,
      63
    ],
    "tiu_dma_id(after)": [
      41,
      64
    ],
    "operands": [
      {
        "address": 1101659197440,
        "layout": "continuous",
        "memory_type": "<1x36x1x1xbf16>",
        "name": "103_Conv_reordered",
        "reshape": "<1x36x1x1x1>",
        "shape": [
          1,
          36,
          1,
          1
        ],
        "slice": "[0:1, 0:36, 0:1, 0:1, 0:1]",
        "type": "tensor<1x36x1x1xbf16, 1101659197440 : i64>"
      }
    ],
    "results": [
      {
        "address": 10240,
        "layout": "compact",
        "memory_type": "<1x36x1x1xbf16>",
        "name": "load_103_Conv_reordered",
        "reshape": "<1x36x1x1x1>",
        "shape": [
          1,
          36,
          1,
          1
        ],
        "slice": "[0:1, 0:36, 0:1, 0:1, 0:1]",
        "type": "tensor<1x36x1x1xbf16>"
      }
    ],
    "buffers": []
  },
  {
    "file-line": 101,
    "subnet_id": 0,
    "core_id": 0,
    "opcode": "tpu.Load",
    "is_local": true,
    "tiu_dma_id(before)": [
      41,
      64
    ],
    "tiu_dma_id(after)": [
      41,
      65
    ],
    "operands": [
      {
        "address": 2201170911232,
        "layout": "continuous",
        "memory_type": "<1x36x32x32xbf16>",
        "name": "101_Relu",
        "reshape": "<1x36x1x32x32>",
        "shape": [
          1,
          36,
          32,
          32
        ],
        "slice": "[0:1, 0:36, 0:1, 0:32, 0:32]",
        "type": "tensor<1x36x32x32xbf16, 2201170911232 : i64>"
      }
    ],
    "results": [
      {
        "address": 0,
        "layout": "eu_align",
        "memory_type": "<1x36x32x32xbf16>",
        "name": "load_101_Relu",
        "reshape": "<1x36x1x32x32>",
        "shape": [
          1,
          36,
          32,
          32
        ],
        "slice": "[0:1, 0:36, 0:1, 0:32, 0:32]",
        "type": "tensor<1x36x32x32xbf16>"
      }
    ],
    "buffers": []
  },
  {
    "file-line": 102,
    "subnet_id": 0,
    "core_id": 0,
    "opcode": "tpu.Load",
    "is_local": true,
    "tiu_dma_id(before)": [
      41,
      65
    ],
    "tiu_dma_id(after)": [
      41,
      66
    ],
    "operands": [
      {
        "address": 1101659193344,
        "layout": "continuous",
        "memory_type": "<1x36x3x3xbf16>",
        "name": "103_Convblaze_face.backbone1.6.convs.0.weight_bf16",
        "reshape": "<1x36x1x3x3>",
        "shape": [
          1,
          36,
          3,
          3
        ],
        "slice": "[0:1, 0:36, 0:1, 0:3, 0:3]",
        "type": "tensor<1x36x3x3xbf16, 1101659193344 : i64>"
      }
    ],
    "results": [
      {
        "address": 16384,
        "layout": "compact",
        "memory_type": "<1x36x3x3xbf16>",
        "name": "load_103_Convblaze_face.backbone1.6.convs.0.weight_bf16",
        "reshape": "<1x36x1x3x3>",
        "shape": [
          1,
          36,
          3,
          3
        ],
        "slice": "[0:1, 0:36, 0:1, 0:3, 0:3]",
        "type": "tensor<1x36x3x3xbf16>"
      }
    ],
    "buffers": []
  },
  {
    "file-line": 105,
    "subnet_id": 0,
    "core_id": 0,
    "opcode": "tpu.Conv2D",
    "is_local": true,
    "tiu_dma_id(before)": [
      41,
      66
    ],
    "tiu_dma_id(after)": [
      42,
      66
    ],
    "operands": [
      {
        "address": 0,
        "layout": "eu_align",
        "memory_type": "<1x36x32x32xbf16>",
        "name": "load_101_Relu",
        "reshape": "<1x36x1x32x32>",
        "shape": [
          1,
          36,
          32,
          32
        ],
        "slice": "[0:1, 0:36, 0:1, 0:32, 0:32]",
        "type": "tensor<1x36x32x32xbf16>"
      },
      {
        "address": 16384,
        "layout": "compact",
        "memory_type": "<1x36x3x3xbf16>",
        "name": "load_103_Convblaze_face.backbone1.6.convs.0.weight_bf16",
        "reshape": "<1x36x1x3x3>",
        "shape": [
          1,
          36,
          3,
          3
        ],
        "slice": "[0:1, 0:36, 0:1, 0:3, 0:3]",
        "type": "tensor<1x36x3x3xbf16>"
      },
      {
        "address": 10240,
        "layout": "compact",
        "memory_type": "<1x36x1x1xbf16>",
        "name": "load_103_Conv_reordered",
        "reshape": "<1x36x1x1x1>",
        "shape": [
          1,
          36,
          1,
          1
        ],
        "slice": "[0:1, 0:36, 0:1, 0:1, 0:1]",
        "type": "tensor<1x36x1x1xbf16>"
      }
    ],
    "results": [
      {
        "address": 45056,
        "layout": "eu_align",
        "memory_type": "<1x36x32x32xbf16>",
        "name": "103_Conv",
        "reshape": "<1x36x1x32x32>",
        "shape": [
          1,
          36,
          32,
          32
        ],
        "slice": "[0:1, 0:36, 0:1, 0:32, 0:32]",
        "type": "tensor<1x36x32x32xbf16>"
      }
    ],
    "buffers": [
      {
        "address": 20480,
        "size": 22577
      }
    ]
  },
  {
    "file-line": 103,
    "subnet_id": 0,
    "core_id": 0,
    "opcode": "tpu.Load",
    "is_local": true,
    "tiu_dma_id(before)": [
      41,
      66
    ],
    "tiu_dma_id(after)": [
      41,
      67
    ],
    "operands": [
      {
        "address": 1101659205632,
        "layout": "continuous",
        "memory_type": "<1x42x1x40xbf16>",
        "name": "104_Conv_filter_reorderd",
        "reshape": "<1x42x1x1x40>",
        "shape": [
          1,
          42,
          1,
          40
        ],
        "slice": "[0:1, 0:42, 0:1, 0:1, 0:40]",
        "type": "tensor<1x42x1x40xbf16, 1101659205632 : i64>"
      }
    ],
    "results": [
      {
        "address": 57344,
        "layout": "compact",
        "memory_type": "<1x42x1x40xbf16>",
        "name": "load_104_Conv_filter_reorderd",
        "reshape": "<1x42x1x1x40>",
        "shape": [
          1,
          42,
          1,
          40
        ],
        "slice": "[0:1, 0:42, 0:1, 0:1, 0:40]",
        "type": "tensor<1x42x1x40xbf16>"
      }
    ],
    "buffers": []
  },
  {
    "file-line": 104,
    "subnet_id": 0,
    "core_id": 0,
    "opcode": "tpu.Load",
    "is_local": true,
    "tiu_dma_id(before)": [
      41,
      67
    ],
    "tiu_dma_id(after)": [
      41,
      68
    ],
    "operands": [
      {
        "address": 1101659201536,
        "layout": "continuous",
        "memory_type": "<1x42x1x1xf32>",
        "name": "blaze_face.backbone1.6.convs.1.bias",
        "reshape": "<1x42x1x1x1>",
        "shape": [
          1,
          42,
          1,
          1
        ],
        "slice": "[0:1, 0:42, 0:1, 0:1, 0:1]",
        "type": "tensor<1x42x1x1xf32, 1101659201536 : i64>"
      }
    ],
    "results": [
      {
        "address": 61440,
        "layout": "compact",
        "memory_type": "<1x42x1x1xf32>",
        "name": "load_blaze_face.backbone1.6.convs.1.bias",
        "reshape": "<1x42x1x1x1>",
        "shape": [
          1,
          42,
          1,
          1
        ],
        "slice": "[0:1, 0:42, 0:1, 0:1, 0:1]",
        "type": "tensor<1x42x1x1xf32>"
      }
    ],
    "buffers": []
  },
  {
    "file-line": 107,
    "subnet_id": 0,
    "core_id": 0,
    "opcode": "tpu.Conv2D",
    "is_local": true,
    "tiu_dma_id(before)": [
      42,
      68
    ],
    "tiu_dma_id(after)": [
      43,
      68
    ],
    "operands": [
      {
        "address": 45056,
        "layout": "eu_align",
        "memory_type": "<1x36x32x32xbf16>",
        "name": "103_Conv",
        "reshape": "<1x36x1x32x32>",
        "shape": [
          1,
          36,
          32,
          32
        ],
        "slice": "[0:1, 0:36, 0:1, 0:32, 0:32]",
        "type": "tensor<1x36x32x32xbf16>"
      },
      {
        "address": 57344,
        "layout": "compact",
        "memory_type": "<1x42x1x40xbf16>",
        "name": "load_104_Conv_filter_reorderd",
        "reshape": "<1x42x1x1x40>",
        "shape": [
          1,
          42,
          1,
          40
        ],
        "slice": "[0:1, 0:42, 0:1, 0:1, 0:40]",
        "type": "tensor<1x42x1x40xbf16>"
      },
      {
        "address": 61440,
        "layout": "compact",
        "memory_type": "<1x42x1x1xf32>",
        "name": "load_blaze_face.backbone1.6.convs.1.bias",
        "reshape": "<1x42x1x1x1>",
        "shape": [
          1,
          42,
          1,
          1
        ],
        "slice": "[0:1, 0:42, 0:1, 0:1, 0:1]",
        "type": "tensor<1x42x1x1xf32>"
      }
    ],
    "results": [
      {
        "address": 12288,
        "layout": "eu_align",
        "memory_type": "<1x42x32x32xbf16>",
        "name": "104_Conv",
        "reshape": "<1x42x1x32x32>",
        "shape": [
          1,
          42,
          32,
          32
        ],
        "slice": "[0:1, 0:42, 0:1, 0:32, 0:32]",
        "type": "tensor<1x42x32x32xbf16>"
      }
    ],
    "buffers": []
  },
  {
    "file-line": 106,
    "subnet_id": 0,
    "core_id": 0,
    "opcode": "tpu.Load",
    "is_local": true,
    "tiu_dma_id(before)": [
      42,
      68
    ],
    "tiu_dma_id(after)": [
      42,
      69
    ],
    "operands": [
      {
        "address": 2201170825216,
        "layout": "continuous",
        "memory_type": "<1x42x32x32xbf16>",
        "name": "102_Pad",
        "reshape": "<1x42x1x32x32>",
        "shape": [
          1,
          42,
          32,
          32
        ],
        "slice": "[0:1, 0:42, 0:1, 0:32, 0:32]",
        "type": "tensor<1x42x32x32xbf16, 2201170825216 : i64>"
      }
    ],
    "results": [
      {
        "address": 24576,
        "layout": "eu_align",
        "memory_type": "<1x42x32x32xbf16>",
        "name": "load_102_Pad",
        "reshape": "<1x42x1x32x32>",
        "shape": [
          1,
          42,
          32,
          32
        ],
        "slice": "[0:1, 0:42, 0:1, 0:32, 0:32]",
        "type": "tensor<1x42x32x32xbf16>"
      }
    ],
    "buffers": []
  },
  {
    "file-line": 108,
    "subnet_id": 0,
    "core_id": 0,
    "opcode": "tpu.Add",
    "is_local": true,
    "tiu_dma_id(before)": [
      43,
      69
    ],
    "tiu_dma_id(after)": [
      45,
      69
    ],
    "operands": [
      {
        "address": 12288,
        "layout": "eu_align",
        "memory_type": "<1x42x32x32xbf16>",
        "name": "104_Conv",
        "reshape": "<1x42x1x32x32>",
        "shape": [
          1,
          42,
          32,
          32
        ],
        "slice": "[0:1, 0:42, 0:1, 0:32, 0:32]",
        "type": "tensor<1x42x32x32xbf16>"
      },
      {
        "address": 24576,
        "layout": "eu_align",
        "memory_type": "<1x42x32x32xbf16>",
        "name": "load_102_Pad",
        "reshape": "<1x42x1x32x32>",
        "shape": [
          1,
          42,
          32,
          32
        ],
        "slice": "[0:1, 0:42, 0:1, 0:32, 0:32]",
        "type": "tensor<1x42x32x32xbf16>"
      }
    ],
    "results": [
      {
        "address": 36864,
        "layout": "eu_align",
        "memory_type": "<1x42x32x32xbf16>",
        "name": "106_Relu",
        "reshape": "<1x42x1x32x32>",
        "shape": [
          1,
          42,
          32,
          32
        ],
        "slice": "[0:1, 0:42, 0:1, 0:32, 0:32]",
        "type": "tensor<1x42x32x32xbf16>"
      }
    ],
    "buffers": []
  },
  {
    "file-line": 110,
    "subnet_id": 0,
    "core_id": 0,
    "opcode": "tpu.Pool2D",
    "is_local": true,
    "tiu_dma_id(before)": [
      45,
      69
    ],
    "tiu_dma_id(after)": [
      46,
      69
    ],
    "operands": [
      {
        "address": 36864,
        "layout": "eu_align",
        "memory_type": "<1x42x32x32xbf16>",
        "name": "106_Relu",
        "reshape": "<1x42x1x32x32>",
        "shape": [
          1,
          42,
          32,
          32
        ],
        "slice": "[0:1, 0:42, 0:1, 0:32, 0:32]",
        "type": "tensor<1x42x32x32xbf16>"
      }
    ],
    "results": [
      {
        "address": 12288,
        "layout": "eu_align",
        "memory_type": "<1x42x16x16xbf16>",
        "name": "108_MaxPool",
        "reshape": "<1x42x1x16x16>",
        "shape": [
          1,
          42,
          16,
          16
        ],
        "slice": "[0:1, 0:42, 0:1, 0:16, 0:16]",
        "type": "tensor<1x42x16x16xbf16>"
      }
    ],
    "buffers": []
  },
  {
    "file-line": 109,
    "subnet_id": 0,
    "core_id": 0,
    "opcode": "tpu.Store",
    "is_local": true,
    "tiu_dma_id(before)": [
      45,
      69
    ],
    "tiu_dma_id(after)": [
      45,
      70
    ],
    "operands": [
      {
        "address": 36864,
        "layout": "eu_align",
        "memory_type": "<1x42x32x32xbf16>",
        "name": "106_Relu",
        "reshape": "<1x42x1x32x32>",
        "shape": [
          1,
          42,
          32,
          32
        ],
        "slice": "[0:1, 0:42, 0:1, 0:32, 0:32]",
        "type": "tensor<1x42x32x32xbf16>"
      },
      {}
    ],
    "results": [
      {
        "address": 2201170739200,
        "layout": "continuous",
        "memory_type": "<1x42x32x32xbf16>",
        "name": "106_Relu",
        "reshape": "<1x42x1x32x32>",
        "shape": [
          1,
          42,
          32,
          32
        ],
        "slice": "[0:1, 0:42, 0:1, 0:32, 0:32]",
        "type": "tensor<1x42x32x32xbf16, 2201170739200 : i64>"
      }
    ],
    "buffers": []
  },
  {
    "file-line": 111,
    "subnet_id": 0,
    "core_id": 0,
    "opcode": "tpu.Store",
    "is_local": true,
    "tiu_dma_id(before)": [
      46,
      70
    ],
    "tiu_dma_id(after)": [
      46,
      71
    ],
    "operands": [
      {
        "address": 12288,
        "layout": "eu_align",
        "memory_type": "<1x42x16x16xbf16>",
        "name": "108_MaxPool",
        "reshape": "<1x42x1x16x16>",
        "shape": [
          1,
          42,
          16,
          16
        ],
        "slice": "[0:1, 0:42, 0:1, 0:16, 0:16]",
        "type": "tensor<1x42x16x16xbf16>"
      },
      {}
    ],
    "results": [
      {
        "address": 2201170984960,
        "layout": "continuous",
        "memory_type": "<1x42x16x16xbf16>",
        "name": "108_MaxPool",
        "reshape": "<1x42x1x16x16>",
        "shape": [
          1,
          42,
          16,
          16
        ],
        "slice": "[0:1, 0:42, 0:1, 0:16, 0:16]",
        "type": "tensor<1x42x16x16xbf16, 2201170984960 : i64>"
      }
    ],
    "buffers": []
  },
  {
    "file-line": 114,
    "subnet_id": 0,
    "core_id": 0,
    "opcode": "tpu.Pad",
    "is_local": false,
    "tiu_dma_id(before)": [
      46,
      71
    ],
    "tiu_dma_id(after)": [
      46,
      73
    ],
    "operands": [
      {
        "address": 2201170984960,
        "layout": "continuous",
        "memory_type": "<1x42x16x16xbf16>",
        "name": "108_MaxPool",
        "reshape": "",
        "shape": [
          1,
          42,
          16,
          16
        ],
        "slice": "[...]",
        "type": "tensor<1x42x16x16xbf16, 2201170984960 : i64>"
      },
      {},
      {},
      {},
      {}
    ],
    "results": [
      {
        "address": 2201170849792,
        "layout": "continuous",
        "memory_type": "<1x48x16x16xbf16>",
        "name": "109_Pad",
        "reshape": "",
        "shape": [
          1,
          48,
          16,
          16
        ],
        "slice": "[...]",
        "type": "tensor<1x48x16x16xbf16, 2201170849792 : i64>"
      }
    ],
    "buffers": []
  },
  {
    "file-line": 120,
    "subnet_id": 0,
    "core_id": 0,
    "opcode": "tpu.Load",
    "is_local": true,
    "tiu_dma_id(before)": [
      46,
      73
    ],
    "tiu_dma_id(after)": [
      46,
      74
    ],
    "operands": [
      {
        "address": 1101659213824,
        "layout": "continuous",
        "memory_type": "<1x42x1x1xbf16>",
        "name": "110_Conv_reordered",
        "reshape": "<1x42x1x1x1>",
        "shape": [
          1,
          42,
          1,
          1
        ],
        "slice": "[0:1, 0:42, 0:1, 0:1, 0:1]",
        "type": "tensor<1x42x1x1xbf16, 1101659213824 : i64>"
      }
    ],
    "results": [
      {
        "address": 40960,
        "layout": "compact",
        "memory_type": "<1x42x1x1xbf16>",
        "name": "load_110_Conv_reordered",
        "reshape": "<1x42x1x1x1>",
        "shape": [
          1,
          42,
          1,
          1
        ],
        "slice": "[0:1, 0:42, 0:1, 0:1, 0:1]",
        "type": "tensor<1x42x1x1xbf16>"
      }
    ],
    "buffers": []
  },
  {
    "file-line": 121,
    "subnet_id": 0,
    "core_id": 0,
    "opcode": "tpu.Load",
    "is_local": true,
    "tiu_dma_id(before)": [
      46,
      74
    ],
    "tiu_dma_id(after)": [
      46,
      75
    ],
    "operands": [
      {
        "address": 2201170739200,
        "layout": "continuous",
        "memory_type": "<1x42x32x32xbf16>",
        "name": "106_Relu",
        "reshape": "<1x42x1x32x32>",
        "shape": [
          1,
          42,
          32,
          32
        ],
        "slice": "[0:1, 0:42, 0:1, 0:32, 0:32]",
        "type": "tensor<1x42x32x32xbf16, 2201170739200 : i64>"
      }
    ],
    "results": [
      {
        "address": 0,
        "layout": "eu_align",
        "memory_type": "<1x42x32x32xbf16>",
        "name": "load_106_Relu",
        "reshape": "<1x42x1x32x32>",
        "shape": [
          1,
          42,
          32,
          32
        ],
        "slice": "[0:1, 0:42, 0:1, 0:32, 0:32]",
        "type": "tensor<1x42x32x32xbf16>"
      }
    ],
    "buffers": []
  },
  {
    "file-line": 122,
    "subnet_id": 0,
    "core_id": 0,
    "opcode": "tpu.Load",
    "is_local": true,
    "tiu_dma_id(before)": [
      46,
      75
    ],
    "tiu_dma_id(after)": [
      46,
      76
    ],
    "operands": [
      {
        "address": 1101659209728,
        "layout": "continuous",
        "memory_type": "<1x42x3x3xbf16>",
        "name": "110_Convblaze_face.backbone1.7.convs.0.weight_bf16",
        "reshape": "<1x42x1x3x3>",
        "shape": [
          1,
          42,
          3,
          3
        ],
        "slice": "[0:1, 0:42, 0:1, 0:3, 0:3]",
        "type": "tensor<1x42x3x3xbf16, 1101659209728 : i64>"
      }
    ],
    "results": [
      {
        "address": 32768,
        "layout": "compact",
        "memory_type": "<1x42x3x3xbf16>",
        "name": "load_110_Convblaze_face.backbone1.7.convs.0.weight_bf16",
        "reshape": "<1x42x1x3x3>",
        "shape": [
          1,
          42,
          3,
          3
        ],
        "slice": "[0:1, 0:42, 0:1, 0:3, 0:3]",
        "type": "tensor<1x42x3x3xbf16>"
      }
    ],
    "buffers": []
  },
  {
    "file-line": 125,
    "subnet_id": 0,
    "core_id": 0,
    "opcode": "tpu.Conv2D",
    "is_local": true,
    "tiu_dma_id(before)": [
      46,
      76
    ],
    "tiu_dma_id(after)": [
      47,
      76
    ],
    "operands": [
      {
        "address": 0,
        "layout": "eu_align",
        "memory_type": "<1x42x32x32xbf16>",
        "name": "load_106_Relu",
        "reshape": "<1x42x1x32x32>",
        "shape": [
          1,
          42,
          32,
          32
        ],
        "slice": "[0:1, 0:42, 0:1, 0:32, 0:32]",
        "type": "tensor<1x42x32x32xbf16>"
      },
      {
        "address": 32768,
        "layout": "compact",
        "memory_type": "<1x42x3x3xbf16>",
        "name": "load_110_Convblaze_face.backbone1.7.convs.0.weight_bf16",
        "reshape": "<1x42x1x3x3>",
        "shape": [
          1,
          42,
          3,
          3
        ],
        "slice": "[0:1, 0:42, 0:1, 0:3, 0:3]",
        "type": "tensor<1x42x3x3xbf16>"
      },
      {
        "address": 40960,
        "layout": "compact",
        "memory_type": "<1x42x1x1xbf16>",
        "name": "load_110_Conv_reordered",
        "reshape": "<1x42x1x1x1>",
        "shape": [
          1,
          42,
          1,
          1
        ],
        "slice": "[0:1, 0:42, 0:1, 0:1, 0:1]",
        "type": "tensor<1x42x1x1xbf16>"
      }
    ],
    "results": [
      {
        "address": 12288,
        "layout": "eu_align",
        "memory_type": "<1x42x16x16xbf16>",
        "name": "110_Conv",
        "reshape": "<1x42x1x16x16>",
        "shape": [
          1,
          42,
          16,
          16
        ],
        "slice": "[0:1, 0:42, 0:1, 0:16, 0:16]",
        "type": "tensor<1x42x16x16xbf16>"
      }
    ],
    "buffers": [
      {
        "address": 16384,
        "size": 8250
      }
    ]
  },
  {
    "file-line": 123,
    "subnet_id": 0,
    "core_id": 0,
    "opcode": "tpu.Load",
    "is_local": true,
    "tiu_dma_id(before)": [
      46,
      76
    ],
    "tiu_dma_id(after)": [
      46,
      77
    ],
    "operands": [
      {
        "address": 1101659222016,
        "layout": "continuous",
        "memory_type": "<1x48x1x48xbf16>",
        "name": "111_Conv_filter_reorderd",
        "reshape": "<1x48x1x1x48>",
        "shape": [
          1,
          48,
          1,
          48
        ],
        "slice": "[0:1, 0:48, 0:1, 0:1, 0:48]",
        "type": "tensor<1x48x1x48xbf16, 1101659222016 : i64>"
      }
    ],
    "results": [
      {
        "address": 31744,
        "layout": "compact",
        "memory_type": "<1x48x1x48xbf16>",
        "name": "load_111_Conv_filter_reorderd",
        "reshape": "<1x48x1x1x48>",
        "shape": [
          1,
          48,
          1,
          48
        ],
        "slice": "[0:1, 0:48, 0:1, 0:1, 0:48]",
        "type": "tensor<1x48x1x48xbf16>"
      }
    ],
    "buffers": []
  },
  {
    "file-line": 124,
    "subnet_id": 0,
    "core_id": 0,
    "opcode": "tpu.Load",
    "is_local": true,
    "tiu_dma_id(before)": [
      46,
      77
    ],
    "tiu_dma_id(after)": [
      46,
      78
    ],
    "operands": [
      {
        "address": 1101659217920,
        "layout": "continuous",
        "memory_type": "<1x48x1x1xf32>",
        "name": "blaze_face.backbone1.7.convs.1.bias",
        "reshape": "<1x48x1x1x1>",
        "shape": [
          1,
          48,
          1,
          1
        ],
        "slice": "[0:1, 0:48, 0:1, 0:1, 0:1]",
        "type": "tensor<1x48x1x1xf32, 1101659217920 : i64>"
      }
    ],
    "results": [
      {
        "address": 36864,
        "layout": "compact",
        "memory_type": "<1x48x1x1xf32>",
        "name": "load_blaze_face.backbone1.7.convs.1.bias",
        "reshape": "<1x48x1x1x1>",
        "shape": [
          1,
          48,
          1,
          1
        ],
        "slice": "[0:1, 0:48, 0:1, 0:1, 0:1]",
        "type": "tensor<1x48x1x1xf32>"
      }
    ],
    "buffers": []
  },
  {
    "file-line": 127,
    "subnet_id": 0,
    "core_id": 0,
    "opcode": "tpu.Conv2D",
    "is_local": true,
    "tiu_dma_id(before)": [
      47,
      78
    ],
    "tiu_dma_id(after)": [
      48,
      78
    ],
    "operands": [
      {
        "address": 12288,
        "layout": "eu_align",
        "memory_type": "<1x42x16x16xbf16>",
        "name": "110_Conv",
        "reshape": "<1x42x1x16x16>",
        "shape": [
          1,
          42,
          16,
          16
        ],
        "slice": "[0:1, 0:42, 0:1, 0:16, 0:16]",
        "type": "tensor<1x42x16x16xbf16>"
      },
      {
        "address": 31744,
        "layout": "compact",
        "memory_type": "<1x48x1x48xbf16>",
        "name": "load_111_Conv_filter_reorderd",
        "reshape": "<1x48x1x1x48>",
        "shape": [
          1,
          48,
          1,
          48
        ],
        "slice": "[0:1, 0:48, 0:1, 0:1, 0:48]",
        "type": "tensor<1x48x1x48xbf16>"
      },
      {
        "address": 36864,
        "layout": "compact",
        "memory_type": "<1x48x1x1xf32>",
        "name": "load_blaze_face.backbone1.7.convs.1.bias",
        "reshape": "<1x48x1x1x1>",
        "shape": [
          1,
          48,
          1,
          1
        ],
        "slice": "[0:1, 0:48, 0:1, 0:1, 0:1]",
        "type": "tensor<1x48x1x1xf32>"
      }
    ],
    "results": [
      {
        "address": 16384,
        "layout": "eu_align",
        "memory_type": "<1x48x16x16xbf16>",
        "name": "111_Conv",
        "reshape": "<1x48x1x16x16>",
        "shape": [
          1,
          48,
          16,
          16
        ],
        "slice": "[0:1, 0:48, 0:1, 0:16, 0:16]",
        "type": "tensor<1x48x16x16xbf16>"
      }
    ],
    "buffers": []
  },
  {
    "file-line": 126,
    "subnet_id": 0,
    "core_id": 0,
    "opcode": "tpu.Load",
    "is_local": true,
    "tiu_dma_id(before)": [
      47,
      78
    ],
    "tiu_dma_id(after)": [
      47,
      79
    ],
    "operands": [
      {
        "address": 2201170849792,
        "layout": "continuous",
        "memory_type": "<1x48x16x16xbf16>",
        "name": "109_Pad",
        "reshape": "<1x48x1x16x16>",
        "shape": [
          1,
          48,
          16,
          16
        ],
        "slice": "[0:1, 0:48, 0:1, 0:16, 0:16]",
        "type": "tensor<1x48x16x16xbf16, 2201170849792 : i64>"
      }
    ],
    "results": [
      {
        "address": 20480,
        "layout": "eu_align",
        "memory_type": "<1x48x16x16xbf16>",
        "name": "load_109_Pad",
        "reshape": "<1x48x1x16x16>",
        "shape": [
          1,
          48,
          16,
          16
        ],
        "slice": "[0:1, 0:48, 0:1, 0:16, 0:16]",
        "type": "tensor<1x48x16x16xbf16>"
      }
    ],
    "buffers": []
  },
  {
    "file-line": 128,
    "subnet_id": 0,
    "core_id": 0,
    "opcode": "tpu.Add",
    "is_local": true,
    "tiu_dma_id(before)": [
      48,
      79
    ],
    "tiu_dma_id(after)": [
      50,
      79
    ],
    "operands": [
      {
        "address": 16384,
        "layout": "eu_align",
        "memory_type": "<1x48x16x16xbf16>",
        "name": "111_Conv",
        "reshape": "<1x48x1x16x16>",
        "shape": [
          1,
          48,
          16,
          16
        ],
        "slice": "[0:1, 0:48, 0:1, 0:16, 0:16]",
        "type": "tensor<1x48x16x16xbf16>"
      },
      {
        "address": 20480,
        "layout": "eu_align",
        "memory_type": "<1x48x16x16xbf16>",
        "name": "load_109_Pad",
        "reshape": "<1x48x1x16x16>",
        "shape": [
          1,
          48,
          16,
          16
        ],
        "slice": "[0:1, 0:48, 0:1, 0:16, 0:16]",
        "type": "tensor<1x48x16x16xbf16>"
      }
    ],
    "results": [
      {
        "address": 28672,
        "layout": "eu_align",
        "memory_type": "<1x48x16x16xbf16>",
        "name": "113_Relu",
        "reshape": "<1x48x1x16x16>",
        "shape": [
          1,
          48,
          16,
          16
        ],
        "slice": "[0:1, 0:48, 0:1, 0:16, 0:16]",
        "type": "tensor<1x48x16x16xbf16>"
      }
    ],
    "buffers": []
  },
  {
    "file-line": 129,
    "subnet_id": 0,
    "core_id": 0,
    "opcode": "tpu.Store",
    "is_local": true,
    "tiu_dma_id(before)": [
      50,
      79
    ],
    "tiu_dma_id(after)": [
      50,
      80
    ],
    "operands": [
      {
        "address": 28672,
        "layout": "eu_align",
        "memory_type": "<1x48x16x16xbf16>",
        "name": "113_Relu",
        "reshape": "<1x48x1x16x16>",
        "shape": [
          1,
          48,
          16,
          16
        ],
        "slice": "[0:1, 0:48, 0:1, 0:16, 0:16]",
        "type": "tensor<1x48x16x16xbf16>"
      },
      {}
    ],
    "results": [
      {
        "address": 2201170825216,
        "layout": "continuous",
        "memory_type": "<1x48x16x16xbf16>",
        "name": "113_Relu",
        "reshape": "<1x48x1x16x16>",
        "shape": [
          1,
          48,
          16,
          16
        ],
        "slice": "[0:1, 0:48, 0:1, 0:16, 0:16]",
        "type": "tensor<1x48x16x16xbf16, 2201170825216 : i64>"
      }
    ],
    "buffers": []
  },
  {
    "file-line": 132,
    "subnet_id": 0,
    "core_id": 0,
    "opcode": "tpu.Pad",
    "is_local": false,
    "tiu_dma_id(before)": [
      50,
      80
    ],
    "tiu_dma_id(after)": [
      50,
      82
    ],
    "operands": [
      {
        "address": 2201170825216,
        "layout": "continuous",
        "memory_type": "<1x48x16x16xbf16>",
        "name": "113_Relu",
        "reshape": "",
        "shape": [
          1,
          48,
          16,
          16
        ],
        "slice": "[...]",
        "type": "tensor<1x48x16x16xbf16, 2201170825216 : i64>"
      },
      {},
      {},
      {},
      {}
    ],
    "results": [
      {
        "address": 2201170739200,
        "layout": "continuous",
        "memory_type": "<1x56x16x16xbf16>",
        "name": "114_Pad",
        "reshape": "",
        "shape": [
          1,
          56,
          16,
          16
        ],
        "slice": "[...]",
        "type": "tensor<1x56x16x16xbf16, 2201170739200 : i64>"
      }
    ],
    "buffers": []
  },
  {
    "file-line": 138,
    "subnet_id": 0,
    "core_id": 0,
    "opcode": "tpu.Load",
    "is_local": true,
    "tiu_dma_id(before)": [
      50,
      82
    ],
    "tiu_dma_id(after)": [
      50,
      83
    ],
    "operands": [
      {
        "address": 1101659234304,
        "layout": "continuous",
        "memory_type": "<1x48x1x1xbf16>",
        "name": "115_Conv_reordered",
        "reshape": "<1x48x1x1x1>",
        "shape": [
          1,
          48,
          1,
          1
        ],
        "slice": "[0:1, 0:48, 0:1, 0:1, 0:1]",
        "type": "tensor<1x48x1x1xbf16, 1101659234304 : i64>"
      }
    ],
    "results": [
      {
        "address": 32768,
        "layout": "compact",
        "memory_type": "<1x48x1x1xbf16>",
        "name": "load_115_Conv_reordered",
        "reshape": "<1x48x1x1x1>",
        "shape": [
          1,
          48,
          1,
          1
        ],
        "slice": "[0:1, 0:48, 0:1, 0:1, 0:1]",
        "type": "tensor<1x48x1x1xbf16>"
      }
    ],
    "buffers": []
  },
  {
    "file-line": 139,
    "subnet_id": 0,
    "core_id": 0,
    "opcode": "tpu.Load",
    "is_local": true,
    "tiu_dma_id(before)": [
      50,
      83
    ],
    "tiu_dma_id(after)": [
      50,
      84
    ],
    "operands": [
      {
        "address": 2201170825216,
        "layout": "continuous",
        "memory_type": "<1x48x16x16xbf16>",
        "name": "113_Relu",
        "reshape": "<1x48x1x16x16>",
        "shape": [
          1,
          48,
          16,
          16
        ],
        "slice": "[0:1, 0:48, 0:1, 0:16, 0:16]",
        "type": "tensor<1x48x16x16xbf16, 2201170825216 : i64>"
      }
    ],
    "results": [
      {
        "address": 20480,
        "layout": "eu_align",
        "memory_type": "<1x48x16x16xbf16>",
        "name": "load_113_Relu",
        "reshape": "<1x48x1x16x16>",
        "shape": [
          1,
          48,
          16,
          16
        ],
        "slice": "[0:1, 0:48, 0:1, 0:16, 0:16]",
        "type": "tensor<1x48x16x16xbf16>"
      }
    ],
    "buffers": []
  },
  {
    "file-line": 140,
    "subnet_id": 0,
    "core_id": 0,
    "opcode": "tpu.Load",
    "is_local": true,
    "tiu_dma_id(before)": [
      50,
      84
    ],
    "tiu_dma_id(after)": [
      50,
      85
    ],
    "operands": [
      {
        "address": 1101659230208,
        "layout": "continuous",
        "memory_type": "<1x48x3x3xbf16>",
        "name": "115_Convblaze_face.backbone1.8.convs.0.weight_bf16",
        "reshape": "<1x48x1x3x3>",
        "shape": [
          1,
          48,
          3,
          3
        ],
        "slice": "[0:1, 0:48, 0:1, 0:3, 0:3]",
        "type": "tensor<1x48x3x3xbf16, 1101659230208 : i64>"
      }
    ],
    "results": [
      {
        "address": 24576,
        "layout": "compact",
        "memory_type": "<1x48x3x3xbf16>",
        "name": "load_115_Convblaze_face.backbone1.8.convs.0.weight_bf16",
        "reshape": "<1x48x1x3x3>",
        "shape": [
          1,
          48,
          3,
          3
        ],
        "slice": "[0:1, 0:48, 0:1, 0:3, 0:3]",
        "type": "tensor<1x48x3x3xbf16>"
      }
    ],
    "buffers": []
  },
  {
    "file-line": 143,
    "subnet_id": 0,
    "core_id": 0,
    "opcode": "tpu.Conv2D",
    "is_local": true,
    "tiu_dma_id(before)": [
      50,
      85
    ],
    "tiu_dma_id(after)": [
      51,
      85
    ],
    "operands": [
      {
        "address": 20480,
        "layout": "eu_align",
        "memory_type": "<1x48x16x16xbf16>",
        "name": "load_113_Relu",
        "reshape": "<1x48x1x16x16>",
        "shape": [
          1,
          48,
          16,
          16
        ],
        "slice": "[0:1, 0:48, 0:1, 0:16, 0:16]",
        "type": "tensor<1x48x16x16xbf16>"
      },
      {
        "address": 24576,
        "layout": "compact",
        "memory_type": "<1x48x3x3xbf16>",
        "name": "load_115_Convblaze_face.backbone1.8.convs.0.weight_bf16",
        "reshape": "<1x48x1x3x3>",
        "shape": [
          1,
          48,
          3,
          3
        ],
        "slice": "[0:1, 0:48, 0:1, 0:3, 0:3]",
        "type": "tensor<1x48x3x3xbf16>"
      },
      {
        "address": 32768,
        "layout": "compact",
        "memory_type": "<1x48x1x1xbf16>",
        "name": "load_115_Conv_reordered",
        "reshape": "<1x48x1x1x1>",
        "shape": [
          1,
          48,
          1,
          1
        ],
        "slice": "[0:1, 0:48, 0:1, 0:1, 0:1]",
        "type": "tensor<1x48x1x1xbf16>"
      }
    ],
    "results": [
      {
        "address": 16384,
        "layout": "eu_align",
        "memory_type": "<1x48x16x16xbf16>",
        "name": "115_Conv",
        "reshape": "<1x48x1x16x16>",
        "shape": [
          1,
          48,
          16,
          16
        ],
        "slice": "[0:1, 0:48, 0:1, 0:16, 0:16]",
        "type": "tensor<1x48x16x16xbf16>"
      }
    ],
    "buffers": [
      {
        "address": 0,
        "size": 6714
      }
    ]
  },
  {
    "file-line": 141,
    "subnet_id": 0,
    "core_id": 0,
    "opcode": "tpu.Load",
    "is_local": true,
    "tiu_dma_id(before)": [
      50,
      85
    ],
    "tiu_dma_id(after)": [
      50,
      86
    ],
    "operands": [
      {
        "address": 1101659242496,
        "layout": "continuous",
        "memory_type": "<1x56x1x48xbf16>",
        "name": "116_Conv_filter_reorderd",
        "reshape": "<1x56x1x1x48>",
        "shape": [
          1,
          56,
          1,
          48
        ],
        "slice": "[0:1, 0:56, 0:1, 0:1, 0:48]",
        "type": "tensor<1x56x1x48xbf16, 1101659242496 : i64>"
      }
    ],
    "results": [
      {
        "address": 11776,
        "layout": "compact",
        "memory_type": "<1x56x1x48xbf16>",
        "name": "load_116_Conv_filter_reorderd",
        "reshape": "<1x56x1x1x48>",
        "shape": [
          1,
          56,
          1,
          48
        ],
        "slice": "[0:1, 0:56, 0:1, 0:1, 0:48]",
        "type": "tensor<1x56x1x48xbf16>"
      }
    ],
    "buffers": []
  },
  {
    "file-line": 142,
    "subnet_id": 0,
    "core_id": 0,
    "opcode": "tpu.Load",
    "is_local": true,
    "tiu_dma_id(before)": [
      50,
      86
    ],
    "tiu_dma_id(after)": [
      50,
      87
    ],
    "operands": [
      {
        "address": 1101659238400,
        "layout": "continuous",
        "memory_type": "<1x56x1x1xf32>",
        "name": "blaze_face.backbone1.8.convs.1.bias",
        "reshape": "<1x56x1x1x1>",
        "shape": [
          1,
          56,
          1,
          1
        ],
        "slice": "[0:1, 0:56, 0:1, 0:1, 0:1]",
        "type": "tensor<1x56x1x1xf32, 1101659238400 : i64>"
      }
    ],
    "results": [
      {
        "address": 28672,
        "layout": "compact",
        "memory_type": "<1x56x1x1xf32>",
        "name": "load_blaze_face.backbone1.8.convs.1.bias",
        "reshape": "<1x56x1x1x1>",
        "shape": [
          1,
          56,
          1,
          1
        ],
        "slice": "[0:1, 0:56, 0:1, 0:1, 0:1]",
        "type": "tensor<1x56x1x1xf32>"
      }
    ],
    "buffers": []
  },
  {
    "file-line": 145,
    "subnet_id": 0,
    "core_id": 0,
    "opcode": "tpu.Conv2D",
    "is_local": true,
    "tiu_dma_id(before)": [
      51,
      87
    ],
    "tiu_dma_id(after)": [
      52,
      87
    ],
    "operands": [
      {
        "address": 16384,
        "layout": "eu_align",
        "memory_type": "<1x48x16x16xbf16>",
        "name": "115_Conv",
        "reshape": "<1x48x1x16x16>",
        "shape": [
          1,
          48,
          16,
          16
        ],
        "slice": "[0:1, 0:48, 0:1, 0:16, 0:16]",
        "type": "tensor<1x48x16x16xbf16>"
      },
      {
        "address": 11776,
        "layout": "compact",
        "memory_type": "<1x56x1x48xbf16>",
        "name": "load_116_Conv_filter_reorderd",
        "reshape": "<1x56x1x1x48>",
        "shape": [
          1,
          56,
          1,
          48
        ],
        "slice": "[0:1, 0:56, 0:1, 0:1, 0:48]",
        "type": "tensor<1x56x1x48xbf16>"
      },
      {
        "address": 28672,
        "layout": "compact",
        "memory_type": "<1x56x1x1xf32>",
        "name": "load_blaze_face.backbone1.8.convs.1.bias",
        "reshape": "<1x56x1x1x1>",
        "shape": [
          1,
          56,
          1,
          1
        ],
        "slice": "[0:1, 0:56, 0:1, 0:1, 0:1]",
        "type": "tensor<1x56x1x1xf32>"
      }
    ],
    "results": [
      {
        "address": 0,
        "layout": "eu_align",
        "memory_type": "<1x56x16x16xbf16>",
        "name": "116_Conv",
        "reshape": "<1x56x1x16x16>",
        "shape": [
          1,
          56,
          16,
          16
        ],
        "slice": "[0:1, 0:56, 0:1, 0:16, 0:16]",
        "type": "tensor<1x56x16x16xbf16>"
      }
    ],
    "buffers": []
  },
  {
    "file-line": 144,
    "subnet_id": 0,
    "core_id": 0,
    "opcode": "tpu.Load",
    "is_local": true,
    "tiu_dma_id(before)": [
      51,
      87
    ],
    "tiu_dma_id(after)": [
      51,
      88
    ],
    "operands": [
      {
        "address": 2201170739200,
        "layout": "continuous",
        "memory_type": "<1x56x16x16xbf16>",
        "name": "114_Pad",
        "reshape": "<1x56x1x16x16>",
        "shape": [
          1,
          56,
          16,
          16
        ],
        "slice": "[0:1, 0:56, 0:1, 0:16, 0:16]",
        "type": "tensor<1x56x16x16xbf16, 2201170739200 : i64>"
      }
    ],
    "results": [
      {
        "address": 4096,
        "layout": "eu_align",
        "memory_type": "<1x56x16x16xbf16>",
        "name": "load_114_Pad",
        "reshape": "<1x56x1x16x16>",
        "shape": [
          1,
          56,
          16,
          16
        ],
        "slice": "[0:1, 0:56, 0:1, 0:16, 0:16]",
        "type": "tensor<1x56x16x16xbf16>"
      }
    ],
    "buffers": []
  },
  {
    "file-line": 146,
    "subnet_id": 0,
    "core_id": 0,
    "opcode": "tpu.Add",
    "is_local": true,
    "tiu_dma_id(before)": [
      52,
      88
    ],
    "tiu_dma_id(after)": [
      54,
      88
    ],
    "operands": [
      {
        "address": 0,
        "layout": "eu_align",
        "memory_type": "<1x56x16x16xbf16>",
        "name": "116_Conv",
        "reshape": "<1x56x1x16x16>",
        "shape": [
          1,
          56,
          16,
          16
        ],
        "slice": "[0:1, 0:56, 0:1, 0:16, 0:16]",
        "type": "tensor<1x56x16x16xbf16>"
      },
      {
        "address": 4096,
        "layout": "eu_align",
        "memory_type": "<1x56x16x16xbf16>",
        "name": "load_114_Pad",
        "reshape": "<1x56x1x16x16>",
        "shape": [
          1,
          56,
          16,
          16
        ],
        "slice": "[0:1, 0:56, 0:1, 0:16, 0:16]",
        "type": "tensor<1x56x16x16xbf16>"
      }
    ],
    "results": [
      {
        "address": 8192,
        "layout": "eu_align",
        "memory_type": "<1x56x16x16xbf16>",
        "name": "118_Relu",
        "reshape": "<1x56x1x16x16>",
        "shape": [
          1,
          56,
          16,
          16
        ],
        "slice": "[0:1, 0:56, 0:1, 0:16, 0:16]",
        "type": "tensor<1x56x16x16xbf16>"
      }
    ],
    "buffers": []
  },
  {
    "file-line": 147,
    "subnet_id": 0,
    "core_id": 0,
    "opcode": "tpu.Store",
    "is_local": true,
    "tiu_dma_id(before)": [
      54,
      88
    ],
    "tiu_dma_id(after)": [
      54,
      89
    ],
    "operands": [
      {
        "address": 8192,
        "layout": "eu_align",
        "memory_type": "<1x56x16x16xbf16>",
        "name": "118_Relu",
        "reshape": "<1x56x1x16x16>",
        "shape": [
          1,
          56,
          16,
          16
        ],
        "slice": "[0:1, 0:56, 0:1, 0:16, 0:16]",
        "type": "tensor<1x56x16x16xbf16>"
      },
      {}
    ],
    "results": [
      {
        "address": 2201170771968,
        "layout": "continuous",
        "memory_type": "<1x56x16x16xbf16>",
        "name": "118_Relu",
        "reshape": "<1x56x1x16x16>",
        "shape": [
          1,
          56,
          16,
          16
        ],
        "slice": "[0:1, 0:56, 0:1, 0:16, 0:16]",
        "type": "tensor<1x56x16x16xbf16, 2201170771968 : i64>"
      }
    ],
    "buffers": []
  },
  {
    "file-line": 150,
    "subnet_id": 0,
    "core_id": 0,
    "opcode": "tpu.Pad",
    "is_local": false,
    "tiu_dma_id(before)": [
      54,
      89
    ],
    "tiu_dma_id(after)": [
      54,
      91
    ],
    "operands": [
      {
        "address": 2201170771968,
        "layout": "continuous",
        "memory_type": "<1x56x16x16xbf16>",
        "name": "118_Relu",
        "reshape": "",
        "shape": [
          1,
          56,
          16,
          16
        ],
        "slice": "[...]",
        "type": "tensor<1x56x16x16xbf16, 2201170771968 : i64>"
      },
      {},
      {},
      {},
      {}
    ],
    "results": [
      {
        "address": 2201170739200,
        "layout": "continuous",
        "memory_type": "<1x64x16x16xbf16>",
        "name": "119_Pad",
        "reshape": "",
        "shape": [
          1,
          64,
          16,
          16
        ],
        "slice": "[...]",
        "type": "tensor<1x64x16x16xbf16, 2201170739200 : i64>"
      }
    ],
    "buffers": []
  },
  {
    "file-line": 156,
    "subnet_id": 0,
    "core_id": 0,
    "opcode": "tpu.Load",
    "is_local": true,
    "tiu_dma_id(before)": [
      54,
      91
    ],
    "tiu_dma_id(after)": [
      54,
      92
    ],
    "operands": [
      {
        "address": 1101659254784,
        "layout": "continuous",
        "memory_type": "<1x56x1x1xbf16>",
        "name": "120_Conv_reordered",
        "reshape": "<1x56x1x1x1>",
        "shape": [
          1,
          56,
          1,
          1
        ],
        "slice": "[0:1, 0:56, 0:1, 0:1, 0:1]",
        "type": "tensor<1x56x1x1xbf16, 1101659254784 : i64>"
      }
    ],
    "results": [
      {
        "address": 32768,
        "layout": "compact",
        "memory_type": "<1x56x1x1xbf16>",
        "name": "load_120_Conv_reordered",
        "reshape": "<1x56x1x1x1>",
        "shape": [
          1,
          56,
          1,
          1
        ],
        "slice": "[0:1, 0:56, 0:1, 0:1, 0:1]",
        "type": "tensor<1x56x1x1xbf16>"
      }
    ],
    "buffers": []
  },
  {
    "file-line": 157,
    "subnet_id": 0,
    "core_id": 0,
    "opcode": "tpu.Load",
    "is_local": true,
    "tiu_dma_id(before)": [
      54,
      92
    ],
    "tiu_dma_id(after)": [
      54,
      93
    ],
    "operands": [
      {
        "address": 1101659250688,
        "layout": "continuous",
        "memory_type": "<1x56x3x3xbf16>",
        "name": "120_Convblaze_face.backbone1.9.convs.0.weight_bf16",
        "reshape": "<1x56x1x3x3>",
        "shape": [
          1,
          56,
          3,
          3
        ],
        "slice": "[0:1, 0:56, 0:1, 0:3, 0:3]",
        "type": "tensor<1x56x3x3xbf16, 1101659250688 : i64>"
      }
    ],
    "results": [
      {
        "address": 24576,
        "layout": "compact",
        "memory_type": "<1x56x3x3xbf16>",
        "name": "load_120_Convblaze_face.backbone1.9.convs.0.weight_bf16",
        "reshape": "<1x56x1x3x3>",
        "shape": [
          1,
          56,
          3,
          3
        ],
        "slice": "[0:1, 0:56, 0:1, 0:3, 0:3]",
        "type": "tensor<1x56x3x3xbf16>"
      }
    ],
    "buffers": []
  },
  {
    "file-line": 158,
    "subnet_id": 0,
    "core_id": 0,
    "opcode": "tpu.Load",
    "is_local": true,
    "tiu_dma_id(before)": [
      54,
      93
    ],
    "tiu_dma_id(after)": [
      54,
      94
    ],
    "operands": [
      {
        "address": 2201170771968,
        "layout": "continuous",
        "memory_type": "<1x56x16x16xbf16>",
        "name": "118_Relu",
        "reshape": "<1x56x1x16x16>",
        "shape": [
          1,
          56,
          16,
          16
        ],
        "slice": "[0:1, 0:56, 0:1, 0:16, 0:16]",
        "type": "tensor<1x56x16x16xbf16, 2201170771968 : i64>"
      }
    ],
    "results": [
      {
        "address": 16384,
        "layout": "eu_align",
        "memory_type": "<1x56x16x16xbf16>",
        "name": "load_118_Relu",
        "reshape": "<1x56x1x16x16>",
        "shape": [
          1,
          56,
          16,
          16
        ],
        "slice": "[0:1, 0:56, 0:1, 0:16, 0:16]",
        "type": "tensor<1x56x16x16xbf16>"
      }
    ],
    "buffers": []
  },
  {
    "file-line": 161,
    "subnet_id": 0,
    "core_id": 0,
    "opcode": "tpu.Conv2D",
    "is_local": true,
    "tiu_dma_id(before)": [
      54,
      94
    ],
    "tiu_dma_id(after)": [
      55,
      94
    ],
    "operands": [
      {
        "address": 16384,
        "layout": "eu_align",
        "memory_type": "<1x56x16x16xbf16>",
        "name": "load_118_Relu",
        "reshape": "<1x56x1x16x16>",
        "shape": [
          1,
          56,
          16,
          16
        ],
        "slice": "[0:1, 0:56, 0:1, 0:16, 0:16]",
        "type": "tensor<1x56x16x16xbf16>"
      },
      {
        "address": 24576,
        "layout": "compact",
        "memory_type": "<1x56x3x3xbf16>",
        "name": "load_120_Convblaze_face.backbone1.9.convs.0.weight_bf16",
        "reshape": "<1x56x1x3x3>",
        "shape": [
          1,
          56,
          3,
          3
        ],
        "slice": "[0:1, 0:56, 0:1, 0:3, 0:3]",
        "type": "tensor<1x56x3x3xbf16>"
      },
      {
        "address": 32768,
        "layout": "compact",
        "memory_type": "<1x56x1x1xbf16>",
        "name": "load_120_Conv_reordered",
        "reshape": "<1x56x1x1x1>",
        "shape": [
          1,
          56,
          1,
          1
        ],
        "slice": "[0:1, 0:56, 0:1, 0:1, 0:1]",
        "type": "tensor<1x56x1x1xbf16>"
      }
    ],
    "results": [
      {
        "address": 12288,
        "layout": "eu_align",
        "memory_type": "<1x56x16x16xbf16>",
        "name": "120_Conv",
        "reshape": "<1x56x1x16x16>",
        "shape": [
          1,
          56,
          16,
          16
        ],
        "slice": "[0:1, 0:56, 0:1, 0:16, 0:16]",
        "type": "tensor<1x56x16x16xbf16>"
      }
    ],
    "buffers": [
      {
        "address": 0,
        "size": 7747
      }
    ]
  },
  {
    "file-line": 159,
    "subnet_id": 0,
    "core_id": 0,
    "opcode": "tpu.Load",
    "is_local": true,
    "tiu_dma_id(before)": [
      54,
      94
    ],
    "tiu_dma_id(after)": [
      54,
      95
    ],
    "operands": [
      {
        "address": 1101659262976,
        "layout": "continuous",
        "memory_type": "<1x64x1x56xbf16>",
        "name": "121_Conv_filter_reorderd",
        "reshape": "<1x64x1x1x56>",
        "shape": [
          1,
          64,
          1,
          56
        ],
        "slice": "[0:1, 0:64, 0:1, 0:1, 0:56]",
        "type": "tensor<1x64x1x56xbf16, 1101659262976 : i64>"
      }
    ],
    "results": [
      {
        "address": 20480,
        "layout": "compact",
        "memory_type": "<1x64x1x56xbf16>",
        "name": "load_121_Conv_filter_reorderd",
        "reshape": "<1x64x1x1x56>",
        "shape": [
          1,
          64,
          1,
          56
        ],
        "slice": "[0:1, 0:64, 0:1, 0:1, 0:56]",
        "type": "tensor<1x64x1x56xbf16>"
      }
    ],
    "buffers": []
  },
  {
    "file-line": 160,
    "subnet_id": 0,
    "core_id": 0,
    "opcode": "tpu.Load",
    "is_local": true,
    "tiu_dma_id(before)": [
      54,
      95
    ],
    "tiu_dma_id(after)": [
      54,
      96
    ],
    "operands": [
      {
        "address": 1101659258880,
        "layout": "continuous",
        "memory_type": "<1x64x1x1xf32>",
        "name": "blaze_face.backbone1.9.convs.1.bias",
        "reshape": "<1x64x1x1x1>",
        "shape": [
          1,
          64,
          1,
          1
        ],
        "slice": "[0:1, 0:64, 0:1, 0:1, 0:1]",
        "type": "tensor<1x64x1x1xf32, 1101659258880 : i64>"
      }
    ],
    "results": [
      {
        "address": 28672,
        "layout": "compact",
        "memory_type": "<1x64x1x1xf32>",
        "name": "load_blaze_face.backbone1.9.convs.1.bias",
        "reshape": "<1x64x1x1x1>",
        "shape": [
          1,
          64,
          1,
          1
        ],
        "slice": "[0:1, 0:64, 0:1, 0:1, 0:1]",
        "type": "tensor<1x64x1x1xf32>"
      }
    ],
    "buffers": []
  },
  {
    "file-line": 163,
    "subnet_id": 0,
    "core_id": 0,
    "opcode": "tpu.Conv2D",
    "is_local": true,
    "tiu_dma_id(before)": [
      55,
      96
    ],
    "tiu_dma_id(after)": [
      56,
      96
    ],
    "operands": [
      {
        "address": 12288,
        "layout": "eu_align",
        "memory_type": "<1x56x16x16xbf16>",
        "name": "120_Conv",
        "reshape": "<1x56x1x16x16>",
        "shape": [
          1,
          56,
          16,
          16
        ],
        "slice": "[0:1, 0:56, 0:1, 0:16, 0:16]",
        "type": "tensor<1x56x16x16xbf16>"
      },
      {
        "address": 20480,
        "layout": "compact",
        "memory_type": "<1x64x1x56xbf16>",
        "name": "load_121_Conv_filter_reorderd",
        "reshape": "<1x64x1x1x56>",
        "shape": [
          1,
          64,
          1,
          56
        ],
        "slice": "[0:1, 0:64, 0:1, 0:1, 0:56]",
        "type": "tensor<1x64x1x56xbf16>"
      },
      {
        "address": 28672,
        "layout": "compact",
        "memory_type": "<1x64x1x1xf32>",
        "name": "load_blaze_face.backbone1.9.convs.1.bias",
        "reshape": "<1x64x1x1x1>",
        "shape": [
          1,
          64,
          1,
          1
        ],
        "slice": "[0:1, 0:64, 0:1, 0:1, 0:1]",
        "type": "tensor<1x64x1x1xf32>"
      }
    ],
    "results": [
      {
        "address": 0,
        "layout": "eu_align",
        "memory_type": "<1x64x16x16xbf16>",
        "name": "121_Conv",
        "reshape": "<1x64x1x16x16>",
        "shape": [
          1,
          64,
          16,
          16
        ],
        "slice": "[0:1, 0:64, 0:1, 0:16, 0:16]",
        "type": "tensor<1x64x16x16xbf16>"
      }
    ],
    "buffers": []
  },
  {
    "file-line": 162,
    "subnet_id": 0,
    "core_id": 0,
    "opcode": "tpu.Load",
    "is_local": true,
    "tiu_dma_id(before)": [
      55,
      96
    ],
    "tiu_dma_id(after)": [
      55,
      97
    ],
    "operands": [
      {
        "address": 2201170739200,
        "layout": "continuous",
        "memory_type": "<1x64x16x16xbf16>",
        "name": "119_Pad",
        "reshape": "<1x64x1x16x16>",
        "shape": [
          1,
          64,
          16,
          16
        ],
        "slice": "[0:1, 0:64, 0:1, 0:16, 0:16]",
        "type": "tensor<1x64x16x16xbf16, 2201170739200 : i64>"
      }
    ],
    "results": [
      {
        "address": 4096,
        "layout": "eu_align",
        "memory_type": "<1x64x16x16xbf16>",
        "name": "load_119_Pad",
        "reshape": "<1x64x1x16x16>",
        "shape": [
          1,
          64,
          16,
          16
        ],
        "slice": "[0:1, 0:64, 0:1, 0:16, 0:16]",
        "type": "tensor<1x64x16x16xbf16>"
      }
    ],
    "buffers": []
  },
  {
    "file-line": 164,
    "subnet_id": 0,
    "core_id": 0,
    "opcode": "tpu.Add",
    "is_local": true,
    "tiu_dma_id(before)": [
      56,
      97
    ],
    "tiu_dma_id(after)": [
      58,
      97
    ],
    "operands": [
      {
        "address": 0,
        "layout": "eu_align",
        "memory_type": "<1x64x16x16xbf16>",
        "name": "121_Conv",
        "reshape": "<1x64x1x16x16>",
        "shape": [
          1,
          64,
          16,
          16
        ],
        "slice": "[0:1, 0:64, 0:1, 0:16, 0:16]",
        "type": "tensor<1x64x16x16xbf16>"
      },
      {
        "address": 4096,
        "layout": "eu_align",
        "memory_type": "<1x64x16x16xbf16>",
        "name": "load_119_Pad",
        "reshape": "<1x64x1x16x16>",
        "shape": [
          1,
          64,
          16,
          16
        ],
        "slice": "[0:1, 0:64, 0:1, 0:16, 0:16]",
        "type": "tensor<1x64x16x16xbf16>"
      }
    ],
    "results": [
      {
        "address": 8192,
        "layout": "eu_align",
        "memory_type": "<1x64x16x16xbf16>",
        "name": "123_Relu",
        "reshape": "<1x64x1x16x16>",
        "shape": [
          1,
          64,
          16,
          16
        ],
        "slice": "[0:1, 0:64, 0:1, 0:16, 0:16]",
        "type": "tensor<1x64x16x16xbf16>"
      }
    ],
    "buffers": []
  },
  {
    "file-line": 165,
    "subnet_id": 0,
    "core_id": 0,
    "opcode": "tpu.Store",
    "is_local": true,
    "tiu_dma_id(before)": [
      58,
      97
    ],
    "tiu_dma_id(after)": [
      58,
      98
    ],
    "operands": [
      {
        "address": 8192,
        "layout": "eu_align",
        "memory_type": "<1x64x16x16xbf16>",
        "name": "123_Relu",
        "reshape": "<1x64x1x16x16>",
        "shape": [
          1,
          64,
          16,
          16
        ],
        "slice": "[0:1, 0:64, 0:1, 0:16, 0:16]",
        "type": "tensor<1x64x16x16xbf16>"
      },
      {}
    ],
    "results": [
      {
        "address": 2201170817024,
        "layout": "continuous",
        "memory_type": "<1x64x16x16xbf16>",
        "name": "123_Relu",
        "reshape": "<1x64x1x16x16>",
        "shape": [
          1,
          64,
          16,
          16
        ],
        "slice": "[0:1, 0:64, 0:1, 0:16, 0:16]",
        "type": "tensor<1x64x16x16xbf16, 2201170817024 : i64>"
      }
    ],
    "buffers": []
  },
  {
    "file-line": 168,
    "subnet_id": 0,
    "core_id": 0,
    "opcode": "tpu.Pad",
    "is_local": false,
    "tiu_dma_id(before)": [
      58,
      98
    ],
    "tiu_dma_id(after)": [
      58,
      100
    ],
    "operands": [
      {
        "address": 2201170817024,
        "layout": "continuous",
        "memory_type": "<1x64x16x16xbf16>",
        "name": "123_Relu",
        "reshape": "",
        "shape": [
          1,
          64,
          16,
          16
        ],
        "slice": "[...]",
        "type": "tensor<1x64x16x16xbf16, 2201170817024 : i64>"
      },
      {},
      {},
      {},
      {}
    ],
    "results": [
      {
        "address": 2201170739200,
        "layout": "continuous",
        "memory_type": "<1x72x16x16xbf16>",
        "name": "124_Pad",
        "reshape": "",
        "shape": [
          1,
          72,
          16,
          16
        ],
        "slice": "[...]",
        "type": "tensor<1x72x16x16xbf16, 2201170739200 : i64>"
      }
    ],
    "buffers": []
  },
  {
    "file-line": 174,
    "subnet_id": 0,
    "core_id": 0,
    "opcode": "tpu.Load",
    "is_local": true,
    "tiu_dma_id(before)": [
      58,
      100
    ],
    "tiu_dma_id(after)": [
      58,
      101
    ],
    "operands": [
      {
        "address": 2201170817024,
        "layout": "continuous",
        "memory_type": "<1x64x16x16xbf16>",
        "name": "123_Relu",
…
        "slice": "[0:1, 0:96, 0:1, 0:1, 0:1]",
        "type": "tensor<1x96x1x1xbf16>"
      }
    ],
    "buffers": []
  },
  {
    "file-line": 263,
    "subnet_id": 0,
    "core_id": 0,
    "opcode": "tpu.Load",
    "is_local": true,
    "tiu_dma_id(before)": [
      76,
      139
    ],
    "tiu_dma_id(after)": [
      76,
      140
    ],
    "operands": [
      {
        "address": 1101659414528,
        "layout": "continuous",
        "memory_type": "<1x96x3x3xbf16>",
        "name": "150_Convblaze_face.backbone2.2.convs.0.weight_bf16",
        "reshape": "<1x96x1x3x3>",
        "shape": [
          1,
          96,
          3,
          3
        ],
        "slice": "[0:1, 0:96, 0:1, 0:3, 0:3]",
        "type": "tensor<1x96x3x3xbf16, 1101659414528 : i64>"
      }
    ],
    "results": [
      {
        "address": 7936,
        "layout": "compact",
        "memory_type": "<1x96x3x3xbf16>",
        "name": "load_150_Convblaze_face.backbone2.2.convs.0.weight_bf16",
        "reshape": "<1x96x1x3x3>",
        "shape": [
          1,
          96,
          3,
          3
        ],
        "slice": "[0:1, 0:96, 0:1, 0:3, 0:3]",
        "type": "tensor<1x96x3x3xbf16>"
      }
    ],
    "buffers": []
  },
  {
    "file-line": 264,
    "subnet_id": 0,
    "core_id": 0,
    "opcode": "tpu.Load",
    "is_local": true,
    "tiu_dma_id(before)": [
      76,
      140
    ],
    "tiu_dma_id(after)": [
      76,
      141
    ],
    "operands": [
      {
        "address": 1101659426816,
        "layout": "continuous",
        "memory_type": "<1x96x1x96xbf16>",
        "name": "151_Conv_filter_reorderd",
        "reshape": "<1x96x1x1x96>",
        "shape": [
          1,
          96,
          1,
          96
        ],
        "slice": "[0:1, 0:96, 0:1, 0:1, 0:96]",
        "type": "tensor<1x96x1x96xbf16, 1101659426816 : i64>"
      }
    ],
    "results": [
      {
        "address": 5632,
        "layout": "compact",
        "memory_type": "<1x96x1x96xbf16>",
        "name": "load_151_Conv_filter_reorderd",
        "reshape": "<1x96x1x1x96>",
        "shape": [
          1,
          96,
          1,
          96
        ],
        "slice": "[0:1, 0:96, 0:1, 0:1, 0:96]",
        "type": "tensor<1x96x1x96xbf16>"
      }
    ],
    "buffers": []
  },
  {
    "file-line": 268,
    "subnet_id": 0,
    "core_id": 0,
    "opcode": "tpu.Conv2D",
    "is_local": true,
    "tiu_dma_id(before)": [
      79,
      141
    ],
    "tiu_dma_id(after)": [
      80,
      141
    ],
    "operands": [
      {
        "address": 8192,
        "layout": "eu_align",
        "memory_type": "<1x96x8x8xbf16>",
        "name": "149_Relu",
        "reshape": "<1x96x1x8x8>",
        "shape": [
          1,
          96,
          8,
          8
        ],
        "slice": "[0:1, 0:96, 0:1, 0:8, 0:8]",
        "type": "tensor<1x96x8x8xbf16>"
      },
      {
        "address": 7936,
        "layout": "compact",
        "memory_type": "<1x96x3x3xbf16>",
        "name": "load_150_Convblaze_face.backbone2.2.convs.0.weight_bf16",
        "reshape": "<1x96x1x3x3>",
        "shape": [
          1,
          96,
          3,
          3
        ],
        "slice": "[0:1, 0:96, 0:1, 0:3, 0:3]",
        "type": "tensor<1x96x3x3xbf16>"
      },
      {
        "address": 32768,
        "layout": "compact",
        "memory_type": "<1x96x1x1xbf16>",
        "name": "load_150_Conv_reordered",
        "reshape": "<1x96x1x1x1>",
        "shape": [
          1,
          96,
          1,
          1
        ],
        "slice": "[0:1, 0:96, 0:1, 0:1, 0:1]",
        "type": "tensor<1x96x1x1xbf16>"
      }
    ],
    "results": [
      {
        "address": 17920,
        "layout": "eu_align",
        "memory_type": "<1x96x8x8xbf16>",
        "name": "150_Conv",
        "reshape": "<1x96x1x8x8>",
        "shape": [
          1,
          96,
          8,
          8
        ],
        "slice": "[0:1, 0:96, 0:1, 0:8, 0:8]",
        "type": "tensor<1x96x8x8xbf16>"
      }
    ],
    "buffers": [
      {
        "address": 12288,
        "size": 3312
      }
    ]
  },
  {
    "file-line": 267,
    "subnet_id": 0,
    "core_id": 0,
    "opcode": "tpu.Load",
    "is_local": true,
    "tiu_dma_id(before)": [
      79,
      141
    ],
    "tiu_dma_id(after)": [
      79,
      142
    ],
    "operands": [
      {
        "address": 1101659422720,
        "layout": "continuous",
        "memory_type": "<1x96x1x1xf32>",
        "name": "blaze_face.backbone2.2.convs.1.bias",
        "reshape": "<1x96x1x1x1>",
        "shape": [
          1,
          96,
          1,
          1
        ],
        "slice": "[0:1, 0:96, 0:1, 0:1, 0:1]",
        "type": "tensor<1x96x1x1xf32, 1101659422720 : i64>"
      }
    ],
    "results": [
      {
        "address": 20480,
        "layout": "compact",
        "memory_type": "<1x96x1x1xf32>",
        "name": "load_blaze_face.backbone2.2.convs.1.bias",
        "reshape": "<1x96x1x1x1>",
        "shape": [
          1,
          96,
          1,
          1
        ],
        "slice": "[0:1, 0:96, 0:1, 0:1, 0:1]",
        "type": "tensor<1x96x1x1xf32>"
      }
    ],
    "buffers": []
  },
  {
    "file-line": 272,
    "subnet_id": 0,
    "core_id": 0,
    "opcode": "tpu.Conv2D",
    "is_local": true,
    "tiu_dma_id(before)": [
      80,
      142
    ],
    "tiu_dma_id(after)": [
      81,
      142
    ],
    "operands": [
      {
        "address": 17920,
        "layout": "eu_align",
        "memory_type": "<1x96x8x8xbf16>",
        "name": "150_Conv",
        "reshape": "<1x96x1x8x8>",
        "shape": [
          1,
          96,
          8,
          8
        ],
        "slice": "[0:1, 0:96, 0:1, 0:8, 0:8]",
        "type": "tensor<1x96x8x8xbf16>"
      },
      {
        "address": 5632,
        "layout": "compact",
        "memory_type": "<1x96x1x96xbf16>",
        "name": "load_151_Conv_filter_reorderd",
        "reshape": "<1x96x1x1x96>",
        "shape": [
          1,
          96,
          1,
          96
        ],
        "slice": "[0:1, 0:96, 0:1, 0:1, 0:96]",
        "type": "tensor<1x96x1x96xbf16>"
      },
      {
        "address": 20480,
        "layout": "compact",
        "memory_type": "<1x96x1x1xf32>",
        "name": "load_blaze_face.backbone2.2.convs.1.bias",
        "reshape": "<1x96x1x1x1>",
        "shape": [
          1,
          96,
          1,
          1
        ],
        "slice": "[0:1, 0:96, 0:1, 0:1, 0:1]",
        "type": "tensor<1x96x1x1xf32>"
      }
    ],
    "results": [
      {
        "address": 9728,
        "layout": "eu_align",
        "memory_type": "<1x96x8x8xbf16>",
        "name": "151_Conv",
        "reshape": "<1x96x1x8x8>",
        "shape": [
          1,
          96,
          8,
          8
        ],
        "slice": "[0:1, 0:96, 0:1, 0:8, 0:8]",
        "type": "tensor<1x96x8x8xbf16>"
      }
    ],
    "buffers": []
  },
  {
    "file-line": 273,
    "subnet_id": 0,
    "core_id": 0,
    "opcode": "tpu.Add",
    "is_local": true,
    "tiu_dma_id(before)": [
      81,
      142
    ],
    "tiu_dma_id(after)": [
      83,
      142
    ],
    "operands": [
      {
        "address": 9728,
        "layout": "eu_align",
        "memory_type": "<1x96x8x8xbf16>",
        "name": "151_Conv",
        "reshape": "<1x96x1x8x8>",
        "shape": [
          1,
          96,
          8,
          8
        ],
        "slice": "[0:1, 0:96, 0:1, 0:8, 0:8]",
        "type": "tensor<1x96x8x8xbf16>"
      },
      {
        "address": 8192,
        "layout": "eu_align",
        "memory_type": "<1x96x8x8xbf16>",
        "name": "149_Relu",
        "reshape": "<1x96x1x8x8>",
        "shape": [
          1,
          96,
          8,
          8
        ],
        "slice": "[0:1, 0:96, 0:1, 0:8, 0:8]",
        "type": "tensor<1x96x8x8xbf16>"
      }
    ],
    "results": [
      {
        "address": 16384,
        "layout": "eu_align",
        "memory_type": "<1x96x8x8xbf16>",
        "name": "153_Relu",
        "reshape": "<1x96x1x8x8>",
        "shape": [
          1,
          96,
          8,
          8
        ],
        "slice": "[0:1, 0:96, 0:1, 0:8, 0:8]",
        "type": "tensor<1x96x8x8xbf16>"
      }
    ],
    "buffers": []
  },
  {
    "file-line": 269,
    "subnet_id": 0,
    "core_id": 0,
    "opcode": "tpu.Load",
    "is_local": true,
    "tiu_dma_id(before)": [
      80,
      142
    ],
    "tiu_dma_id(after)": [
      80,
      143
    ],
    "operands": [
      {
        "address": 1101659451392,
        "layout": "continuous",
        "memory_type": "<1x96x1x1xbf16>",
        "name": "154_Conv_reordered",
        "reshape": "<1x96x1x1x1>",
        "shape": [
          1,
          96,
          1,
          1
        ],
        "slice": "[0:1, 0:96, 0:1, 0:1, 0:1]",
        "type": "tensor<1x96x1x1xbf16, 1101659451392 : i64>"
      }
    ],
    "results": [
      {
        "address": 28672,
        "layout": "compact",
        "memory_type": "<1x96x1x1xbf16>",
        "name": "load_154_Conv_reordered",
        "reshape": "<1x96x1x1x1>",
        "shape": [
          1,
          96,
          1,
          1
        ],
        "slice": "[0:1, 0:96, 0:1, 0:1, 0:1]",
        "type": "tensor<1x96x1x1xbf16>"
      }
    ],
    "buffers": []
  },
  {
    "file-line": 270,
    "subnet_id": 0,
    "core_id": 0,
    "opcode": "tpu.Load",
    "is_local": true,
    "tiu_dma_id(before)": [
      80,
      143
    ],
    "tiu_dma_id(after)": [
      80,
      144
    ],
    "operands": [
      {
        "address": 1101659447296,
        "layout": "continuous",
        "memory_type": "<1x96x3x3xbf16>",
        "name": "154_Convblaze_face.backbone2.3.convs.0.weight_bf16",
        "reshape": "<1x96x1x3x3>",
        "shape": [
          1,
          96,
          3,
          3
        ],
        "slice": "[0:1, 0:96, 0:1, 0:3, 0:3]",
        "type": "tensor<1x96x3x3xbf16, 1101659447296 : i64>"
      }
    ],
    "results": [
      {
        "address": 14592,
        "layout": "compact",
        "memory_type": "<1x96x3x3xbf16>",
        "name": "load_154_Convblaze_face.backbone2.3.convs.0.weight_bf16",
        "reshape": "<1x96x1x3x3>",
        "shape": [
          1,
          96,
          3,
          3
        ],
        "slice": "[0:1, 0:96, 0:1, 0:3, 0:3]",
        "type": "tensor<1x96x3x3xbf16>"
      }
    ],
    "buffers": []
  },
  {
    "file-line": 271,
    "subnet_id": 0,
    "core_id": 0,
    "opcode": "tpu.Load",
    "is_local": true,
    "tiu_dma_id(before)": [
      80,
      144
    ],
    "tiu_dma_id(after)": [
      80,
      145
    ],
    "operands": [
      {
        "address": 1101659459584,
        "layout": "continuous",
        "memory_type": "<1x96x1x96xbf16>",
        "name": "155_Conv_filter_reorderd",
        "reshape": "<1x96x1x1x96>",
        "shape": [
          1,
          96,
          1,
          96
        ],
        "slice": "[0:1, 0:96, 0:1, 0:1, 0:96]",
        "type": "tensor<1x96x1x96xbf16, 1101659459584 : i64>"
      }
    ],
    "results": [
      {
        "address": 12288,
        "layout": "compact",
        "memory_type": "<1x96x1x96xbf16>",
        "name": "load_155_Conv_filter_reorderd",
        "reshape": "<1x96x1x1x96>",
        "shape": [
          1,
          96,
          1,
          96
        ],
        "slice": "[0:1, 0:96, 0:1, 0:1, 0:96]",
        "type": "tensor<1x96x1x96xbf16>"
      }
    ],
    "buffers": []
  },
  {
    "file-line": 275,
    "subnet_id": 0,
    "core_id": 0,
    "opcode": "tpu.Conv2D",
    "is_local": true,
    "tiu_dma_id(before)": [
      83,
      145
    ],
    "tiu_dma_id(after)": [
      84,
      145
    ],
    "operands": [
      {
        "address": 16384,
        "layout": "eu_align",
        "memory_type": "<1x96x8x8xbf16>",
        "name": "153_Relu",
        "reshape": "<1x96x1x8x8>",
        "shape": [
          1,
          96,
          8,
          8
        ],
        "slice": "[0:1, 0:96, 0:1, 0:8, 0:8]",
        "type": "tensor<1x96x8x8xbf16>"
      },
      {
        "address": 14592,
        "layout": "compact",
        "memory_type": "<1x96x3x3xbf16>",
        "name": "load_154_Convblaze_face.backbone2.3.convs.0.weight_bf16",
        "reshape": "<1x96x1x3x3>",
        "shape": [
          1,
          96,
          3,
          3
        ],
        "slice": "[0:1, 0:96, 0:1, 0:3, 0:3]",
        "type": "tensor<1x96x3x3xbf16>"
      },
      {
        "address": 28672,
        "layout": "compact",
        "memory_type": "<1x96x1x1xbf16>",
        "name": "load_154_Conv_reordered",
        "reshape": "<1x96x1x1x1>",
        "shape": [
          1,
          96,
          1,
          1
        ],
        "slice": "[0:1, 0:96, 0:1, 0:1, 0:1]",
        "type": "tensor<1x96x1x1xbf16>"
      }
    ],
    "results": [
      {
        "address": 20480,
        "layout": "eu_align",
        "memory_type": "<1x96x8x8xbf16>",
        "name": "154_Conv",
        "reshape": "<1x96x1x8x8>",
        "shape": [
          1,
          96,
          8,
          8
        ],
        "slice": "[0:1, 0:96, 0:1, 0:8, 0:8]",
        "type": "tensor<1x96x8x8xbf16>"
      }
    ],
    "buffers": [
      {
        "address": 5632,
        "size": 3312
      }
    ]
  },
  {
    "file-line": 274,
    "subnet_id": 0,
    "core_id": 0,
    "opcode": "tpu.Load",
    "is_local": true,
    "tiu_dma_id(before)": [
      83,
      145
    ],
    "tiu_dma_id(after)": [
      83,
      146
    ],
    "operands": [
      {
        "address": 1101659455488,
        "layout": "continuous",
        "memory_type": "<1x96x1x1xf32>",
        "name": "blaze_face.backbone2.3.convs.1.bias",
        "reshape": "<1x96x1x1x1>",
        "shape": [
          1,
          96,
          1,
          1
        ],
        "slice": "[0:1, 0:96, 0:1, 0:1, 0:1]",
        "type": "tensor<1x96x1x1xf32, 1101659455488 : i64>"
      }
    ],
    "results": [
      {
        "address": 24576,
        "layout": "compact",
        "memory_type": "<1x96x1x1xf32>",
        "name": "load_blaze_face.backbone2.3.convs.1.bias",
        "reshape": "<1x96x1x1x1>",
        "shape": [
          1,
          96,
          1,
          1
        ],
        "slice": "[0:1, 0:96, 0:1, 0:1, 0:1]",
        "type": "tensor<1x96x1x1xf32>"
      }
    ],
    "buffers": []
  },
  {
    "file-line": 279,
    "subnet_id": 0,
    "core_id": 0,
    "opcode": "tpu.Conv2D",
    "is_local": true,
    "tiu_dma_id(before)": [
      84,
      146
    ],
    "tiu_dma_id(after)": [
      85,
      146
    ],
    "operands": [
      {
        "address": 20480,
        "layout": "eu_align",
        "memory_type": "<1x96x8x8xbf16>",
        "name": "154_Conv",
        "reshape": "<1x96x1x8x8>",
        "shape": [
          1,
          96,
          8,
          8
        ],
        "slice": "[0:1, 0:96, 0:1, 0:8, 0:8]",
        "type": "tensor<1x96x8x8xbf16>"
      },
      {
        "address": 12288,
        "layout": "compact",
        "memory_type": "<1x96x1x96xbf16>",
        "name": "load_155_Conv_filter_reorderd",
        "reshape": "<1x96x1x1x96>",
        "shape": [
          1,
          96,
          1,
          96
        ],
        "slice": "[0:1, 0:96, 0:1, 0:1, 0:96]",
        "type": "tensor<1x96x1x96xbf16>"
      },
      {
        "address": 24576,
        "layout": "compact",
        "memory_type": "<1x96x1x1xf32>",
        "name": "load_blaze_face.backbone2.3.convs.1.bias",
        "reshape": "<1x96x1x1x1>",
        "shape": [
          1,
          96,
          1,
          1
        ],
        "slice": "[0:1, 0:96, 0:1, 0:1, 0:1]",
        "type": "tensor<1x96x1x1xf32>"
      }
    ],
    "results": [
      {
        "address": 9728,
        "layout": "eu_align",
        "memory_type": "<1x96x8x8xbf16>",
        "name": "155_Conv",
        "reshape": "<1x96x1x8x8>",
        "shape": [
          1,
          96,
          8,
          8
        ],
        "slice": "[0:1, 0:96, 0:1, 0:8, 0:8]",
        "type": "tensor<1x96x8x8xbf16>"
      }
    ],
    "buffers": []
  },
  {
    "file-line": 280,
    "subnet_id": 0,
    "core_id": 0,
    "opcode": "tpu.Add",
    "is_local": true,
    "tiu_dma_id(before)": [
      85,
      146
    ],
    "tiu_dma_id(after)": [
      87,
      146
    ],
    "operands": [
      {
        "address": 9728,
        "layout": "eu_align",
        "memory_type": "<1x96x8x8xbf16>",
        "name": "155_Conv",
        "reshape": "<1x96x1x8x8>",
        "shape": [
          1,
          96,
          8,
          8
        ],
        "slice": "[0:1, 0:96, 0:1, 0:8, 0:8]",
        "type": "tensor<1x96x8x8xbf16>"
      },
      {
        "address": 16384,
        "layout": "eu_align",
        "memory_type": "<1x96x8x8xbf16>",
        "name": "153_Relu",
        "reshape": "<1x96x1x8x8>",
        "shape": [
          1,
          96,
          8,
          8
        ],
        "slice": "[0:1, 0:96, 0:1, 0:8, 0:8]",
        "type": "tensor<1x96x8x8xbf16>"
      }
    ],
    "results": [
      {
        "address": 8192,
        "layout": "eu_align",
        "memory_type": "<1x96x8x8xbf16>",
        "name": "157_Relu",
        "reshape": "<1x96x1x8x8>",
        "shape": [
          1,
          96,
          8,
          8
        ],
        "slice": "[0:1, 0:96, 0:1, 0:8, 0:8]",
        "type": "tensor<1x96x8x8xbf16>"
      }
    ],
    "buffers": []
  },
  {
    "file-line": 276,
    "subnet_id": 0,
    "core_id": 0,
    "opcode": "tpu.Load",
    "is_local": true,
    "tiu_dma_id(before)": [
      84,
      146
    ],
    "tiu_dma_id(after)": [
      84,
      147
    ],
    "operands": [
      {
        "address": 1101659484160,
        "layout": "continuous",
        "memory_type": "<1x96x1x1xbf16>",
        "name": "158_Conv_reordered",
        "reshape": "<1x96x1x1x1>",
        "shape": [
          1,
          96,
          1,
          1
        ],
        "slice": "[0:1, 0:96, 0:1, 0:1, 0:1]",
        "type": "tensor<1x96x1x1xbf16, 1101659484160 : i64>"
      }
    ],
    "results": [
      {
        "address": 28672,
        "layout": "compact",
        "memory_type": "<1x96x1x1xbf16>",
        "name": "load_158_Conv_reordered",
        "reshape": "<1x96x1x1x1>",
        "shape": [
          1,
          96,
          1,
          1
        ],
        "slice": "[0:1, 0:96, 0:1, 0:1, 0:1]",
        "type": "tensor<1x96x1x1xbf16>"
      }
    ],
    "buffers": []
  },
  {
    "file-line": 277,
    "subnet_id": 0,
    "core_id": 0,
    "opcode": "tpu.Load",
    "is_local": true,
    "tiu_dma_id(before)": [
      84,
      147
    ],
    "tiu_dma_id(after)": [
      84,
      148
    ],
    "operands": [
      {
        "address": 1101659480064,
        "layout": "continuous",
        "memory_type": "<1x96x3x3xbf16>",
        "name": "158_Convblaze_face.backbone2.4.convs.0.weight_bf16",
        "reshape": "<1x96x1x3x3>",
        "shape": [
          1,
          96,
          3,
          3
        ],
        "slice": "[0:1, 0:96, 0:1, 0:3, 0:3]",
        "type": "tensor<1x96x3x3xbf16, 1101659480064 : i64>"
      }
    ],
    "results": [
      {
        "address": 7936,
        "layout": "compact",
        "memory_type": "<1x96x3x3xbf16>",
        "name": "load_158_Convblaze_face.backbone2.4.convs.0.weight_bf16",
        "reshape": "<1x96x1x3x3>",
        "shape": [
          1,
          96,
          3,
          3
        ],
        "slice": "[0:1, 0:96, 0:1, 0:3, 0:3]",
        "type": "tensor<1x96x3x3xbf16>"
      }
    ],
    "buffers": []
  },
  {
    "file-line": 278,
    "subnet_id": 0,
    "core_id": 0,
    "opcode": "tpu.Load",
    "is_local": true,
    "tiu_dma_id(before)": [
      84,
      148
    ],
    "tiu_dma_id(after)": [
      84,
      149
    ],
    "operands": [
      {
        "address": 1101659492352,
        "layout": "continuous",
        "memory_type": "<1x96x1x96xbf16>",
        "name": "159_Conv_filter_reorderd",
        "reshape": "<1x96x1x1x96>",
        "shape": [
          1,
          96,
          1,
          96
        ],
        "slice": "[0:1, 0:96, 0:1, 0:1, 0:96]",
        "type": "tensor<1x96x1x96xbf16, 1101659492352 : i64>"
      }
    ],
    "results": [
      {
        "address": 5632,
        "layout": "compact",
        "memory_type": "<1x96x1x96xbf16>",
        "name": "load_159_Conv_filter_reorderd",
        "reshape": "<1x96x1x1x96>",
        "shape": [
          1,
          96,
          1,
          96
        ],
        "slice": "[0:1, 0:96, 0:1, 0:1, 0:96]",
        "type": "tensor<1x96x1x96xbf16>"
      }
    ],
    "buffers": []
  },
  {
    "file-line": 282,
    "subnet_id": 0,
    "core_id": 0,
    "opcode": "tpu.Conv2D",
    "is_local": true,
    "tiu_dma_id(before)": [
      87,
      149
    ],
    "tiu_dma_id(after)": [
      88,
      149
    ],
    "operands": [
      {
        "address": 8192,
        "layout": "eu_align",
        "memory_type": "<1x96x8x8xbf16>",
        "name": "157_Relu",
        "reshape": "<1x96x1x8x8>",
        "shape": [
          1,
          96,
          8,
          8
        ],
        "slice": "[0:1, 0:96, 0:1, 0:8, 0:8]",
        "type": "tensor<1x96x8x8xbf16>"
      },
      {
        "address": 7936,
        "layout": "compact",
        "memory_type": "<1x96x3x3xbf16>",
        "name": "load_158_Convblaze_face.backbone2.4.convs.0.weight_bf16",
        "reshape": "<1x96x1x3x3>",
        "shape": [
          1,
          96,
          3,
          3
        ],
        "slice": "[0:1, 0:96, 0:1, 0:3, 0:3]",
        "type": "tensor<1x96x3x3xbf16>"
      },
      {
        "address": 28672,
        "layout": "compact",
        "memory_type": "<1x96x1x1xbf16>",
        "name": "load_158_Conv_reordered",
        "reshape": "<1x96x1x1x1>",
        "shape": [
          1,
          96,
          1,
          1
        ],
        "slice": "[0:1, 0:96, 0:1, 0:1, 0:1]",
        "type": "tensor<1x96x1x1xbf16>"
      }
    ],
    "results": [
      {
        "address": 12288,
        "layout": "eu_align",
        "memory_type": "<1x96x8x8xbf16>",
        "name": "158_Conv",
        "reshape": "<1x96x1x8x8>",
        "shape": [
          1,
          96,
          8,
          8
        ],
        "slice": "[0:1, 0:96, 0:1, 0:8, 0:8]",
        "type": "tensor<1x96x8x8xbf16>"
      }
    ],
    "buffers": [
      {
        "address": 16384,
        "size": 3312
      }
    ]
  },
  {
    "file-line": 281,
    "subnet_id": 0,
    "core_id": 0,
    "opcode": "tpu.Load",
    "is_local": true,
    "tiu_dma_id(before)": [
      87,
      149
    ],
    "tiu_dma_id(after)": [
      87,
      150
    ],
    "operands": [
      {
        "address": 1101659488256,
        "layout": "continuous",
        "memory_type": "<1x96x1x1xf32>",
        "name": "blaze_face.backbone2.4.convs.1.bias",
        "reshape": "<1x96x1x1x1>",
        "shape": [
          1,
          96,
          1,
          1
        ],
        "slice": "[0:1, 0:96, 0:1, 0:1, 0:1]",
        "type": "tensor<1x96x1x1xf32, 1101659488256 : i64>"
      }
    ],
    "results": [
      {
        "address": 20480,
        "layout": "compact",
        "memory_type": "<1x96x1x1xf32>",
        "name": "load_blaze_face.backbone2.4.convs.1.bias",
        "reshape": "<1x96x1x1x1>",
        "shape": [
          1,
          96,
          1,
          1
        ],
        "slice": "[0:1, 0:96, 0:1, 0:1, 0:1]",
        "type": "tensor<1x96x1x1xf32>"
      }
    ],
    "buffers": []
  },
  {
    "file-line": 283,
    "subnet_id": 0,
    "core_id": 0,
    "opcode": "tpu.Conv2D",
    "is_local": true,
    "tiu_dma_id(before)": [
      88,
      150
    ],
    "tiu_dma_id(after)": [
      89,
      150
    ],
    "operands": [
      {
        "address": 12288,
        "layout": "eu_align",
        "memory_type": "<1x96x8x8xbf16>",
        "name": "158_Conv",
        "reshape": "<1x96x1x8x8>",
        "shape": [
          1,
          96,
          8,
          8
        ],
        "slice": "[0:1, 0:96, 0:1, 0:8, 0:8]",
        "type": "tensor<1x96x8x8xbf16>"
      },
      {
        "address": 5632,
        "layout": "compact",
        "memory_type": "<1x96x1x96xbf16>",
        "name": "load_159_Conv_filter_reorderd",
        "reshape": "<1x96x1x1x96>",
        "shape": [
          1,
          96,
          1,
          96
        ],
        "slice": "[0:1, 0:96, 0:1, 0:1, 0:96]",
        "type": "tensor<1x96x1x96xbf16>"
      },
      {
        "address": 20480,
        "layout": "compact",
        "memory_type": "<1x96x1x1xf32>",
        "name": "load_blaze_face.backbone2.4.convs.1.bias",
        "reshape": "<1x96x1x1x1>",
        "shape": [
          1,
          96,
          1,
          1
        ],
        "slice": "[0:1, 0:96, 0:1, 0:1, 0:1]",
        "type": "tensor<1x96x1x1xf32>"
      }
    ],
    "results": [
      {
        "address": 16384,
        "layout": "eu_align",
        "memory_type": "<1x96x8x8xbf16>",
        "name": "159_Conv",
        "reshape": "<1x96x1x8x8>",
        "shape": [
          1,
          96,
          8,
          8
        ],
        "slice": "[0:1, 0:96, 0:1, 0:8, 0:8]",
        "type": "tensor<1x96x8x8xbf16>"
      }
    ],
    "buffers": []
  },
  {
    "file-line": 286,
    "subnet_id": 0,
    "core_id": 0,
    "opcode": "tpu.Add",
    "is_local": true,
    "tiu_dma_id(before)": [
      89,
      150
    ],
    "tiu_dma_id(after)": [
      91,
      150
    ],
    "operands": [
      {
        "address": 16384,
        "layout": "eu_align",
        "memory_type": "<1x96x8x8xbf16>",
        "name": "159_Conv",
        "reshape": "<1x96x1x8x8>",
        "shape": [
          1,
          96,
          8,
          8
        ],
        "slice": "[0:1, 0:96, 0:1, 0:8, 0:8]",
        "type": "tensor<1x96x8x8xbf16>"
      },
      {
        "address": 8192,
        "layout": "eu_align",
        "memory_type": "<1x96x8x8xbf16>",
        "name": "157_Relu",
        "reshape": "<1x96x1x8x8>",
        "shape": [
          1,
          96,
          8,
          8
        ],
        "slice": "[0:1, 0:96, 0:1, 0:8, 0:8]",
        "type": "tensor<1x96x8x8xbf16>"
      }
    ],
    "results": [
      {
        "address": 12288,
        "layout": "eu_align",
        "memory_type": "<1x96x8x8xbf16>",
        "name": "161_Relu",
        "reshape": "<1x96x1x8x8>",
        "shape": [
          1,
          96,
          8,
          8
        ],
        "slice": "[0:1, 0:96, 0:1, 0:8, 0:8]",
        "type": "tensor<1x96x8x8xbf16>"
      }
    ],
    "buffers": []
  },
  {
    "file-line": 284,
    "subnet_id": 0,
    "core_id": 0,
    "opcode": "tpu.Load",
    "is_local": true,
    "tiu_dma_id(before)": [
      89,
      150
    ],
    "tiu_dma_id(after)": [
      89,
      151
    ],
    "operands": [
      {
        "address": 1101659516928,
        "layout": "continuous",
        "memory_type": "<1x2x1x88xbf16>",
        "name": "162_Conv_filter_reorderd",
        "reshape": "<1x2x1x1x88>",
        "shape": [
          1,
          2,
          1,
          88
        ],
        "slice": "[0:1, 0:2, 0:1, 0:1, 0:88]",
        "type": "tensor<1x2x1x88xbf16, 1101659516928 : i64>"
      }
    ],
    "results": [
      {
        "address": 24784,
        "layout": "compact",
        "memory_type": "<1x2x1x88xbf16>",
        "name": "load_162_Conv_filter_reorderd",
        "reshape": "<1x2x1x1x88>",
        "shape": [
          1,
          2,
          1,
          88
        ],
        "slice": "[0:1, 0:2, 0:1, 0:1, 0:88]",
        "type": "tensor<1x2x1x88xbf16>"
      }
    ],
    "buffers": []
  },
  {
    "file-line": 285,
    "subnet_id": 0,
    "core_id": 0,
    "opcode": "tpu.Load",
    "is_local": true,
    "tiu_dma_id(before)": [
      89,
      151
    ],
    "tiu_dma_id(after)": [
      89,
      152
    ],
    "operands": [
      {
        "address": 1101659512832,
        "layout": "continuous",
        "memory_type": "<1x2x1x1xf32>",
        "name": "blaze_face.classifier_8.bias",
        "reshape": "<1x2x1x1x1>",
        "shape": [
          1,
          2,
          1,
          1
        ],
        "slice": "[0:1, 0:2, 0:1, 0:1, 0:1]",
        "type": "tensor<1x2x1x1xf32, 1101659512832 : i64>"
      }
    ],
    "results": [
      {
        "address": 28704,
        "layout": "compact",
        "memory_type": "<1x2x1x1xf32>",
        "name": "load_blaze_face.classifier_8.bias",
        "reshape": "<1x2x1x1x1>",
        "shape": [
          1,
          2,
          1,
          1
        ],
        "slice": "[0:1, 0:2, 0:1, 0:1, 0:1]",
        "type": "tensor<1x2x1x1xf32>"
      }
    ],
    "buffers": []
  },
  {
    "file-line": 288,
    "subnet_id": 0,
    "core_id": 0,
    "opcode": "tpu.Conv2D",
    "is_local": true,
    "tiu_dma_id(before)": [
      91,
      152
    ],
    "tiu_dma_id(after)": [
      92,
      152
    ],
    "operands": [
      {
        "address": 0,
        "layout": "eu_align",
        "memory_type": "<1x88x16x16xbf16>",
        "name": "load_138_Relu",
        "reshape": "<1x88x1x16x16>",
        "shape": [
          1,
          88,
          16,
          16
        ],
        "slice": "[0:1, 0:88, 0:1, 0:16, 0:16]",
        "type": "tensor<1x88x16x16xbf16>"
      },
      {
        "address": 24784,
        "layout": "compact",
        "memory_type": "<1x2x1x88xbf16>",
        "name": "load_162_Conv_filter_reorderd",
        "reshape": "<1x2x1x1x88>",
        "shape": [
          1,
          2,
          1,
          88
        ],
        "slice": "[0:1, 0:2, 0:1, 0:1, 0:88]",
        "type": "tensor<1x2x1x88xbf16>"
      },
      {
        "address": 28704,
        "layout": "compact",
        "memory_type": "<1x2x1x1xf32>",
        "name": "load_blaze_face.classifier_8.bias",
        "reshape": "<1x2x1x1x1>",
        "shape": [
          1,
          2,
          1,
          1
        ],
        "slice": "[0:1, 0:2, 0:1, 0:1, 0:1]",
        "type": "tensor<1x2x1x1xf32>"
      }
    ],
    "results": [
      {
        "address": 20480,
        "layout": "eu_align",
        "memory_type": "<1x2x16x16xbf16>",
        "name": "162_Conv",
        "reshape": "<1x2x1x16x16>",
        "shape": [
          1,
          2,
          16,
          16
        ],
        "slice": "[0:1, 0:2, 0:1, 0:16, 0:16]",
        "type": "tensor<1x2x16x16xbf16>"
      }
    ],
    "buffers": []
  },
  {
    "file-line": 287,
    "subnet_id": 0,
    "core_id": 0,
    "opcode": "tpu.Store",
    "is_local": true,
    "tiu_dma_id(before)": [
      91,
      152
    ],
    "tiu_dma_id(after)": [
      91,
      153
    ],
    "operands": [
      {
        "address": 12288,
        "layout": "eu_align",
        "memory_type": "<1x96x8x8xbf16>",
        "name": "161_Relu",
        "reshape": "<1x96x1x8x8>",
        "shape": [
          1,
          96,
          8,
          8
        ],
        "slice": "[0:1, 0:96, 0:1, 0:8, 0:8]",
        "type": "tensor<1x96x8x8xbf16>"
      },
      {}
    ],
    "results": [
      {
        "address": 2201170800640,
        "layout": "continuous",
        "memory_type": "<1x96x8x8xbf16>",
        "name": "161_Relu",
        "reshape": "<1x96x1x8x8>",
        "shape": [
          1,
          96,
          8,
          8
        ],
        "slice": "[0:1, 0:96, 0:1, 0:8, 0:8]",
        "type": "tensor<1x96x8x8xbf16, 2201170800640 : i64>"
      }
    ],
    "buffers": []
  },
  {
    "file-line": 289,
    "subnet_id": 0,
    "core_id": 0,
    "opcode": "tpu.Store",
    "is_local": true,
    "tiu_dma_id(before)": [
      92,
      153
    ],
    "tiu_dma_id(after)": [
      92,
      154
    ],
    "operands": [
      {
        "address": 20480,
        "layout": "eu_align",
        "memory_type": "<1x2x16x16xbf16>",
        "name": "162_Conv",
        "reshape": "<1x2x1x16x16>",
        "shape": [
          1,
          2,
          16,
          16
        ],
        "slice": "[0:1, 0:2, 0:1, 0:16, 0:16]",
        "type": "tensor<1x2x16x16xbf16>"
      },
      {}
    ],
    "results": [
      {
        "address": 2201170796544,
        "layout": "continuous",
        "memory_type": "<1x2x16x16xbf16>",
        "name": "162_Conv",
        "reshape": "<1x2x1x16x16>",
        "shape": [
          1,
          2,
          16,
          16
        ],
        "slice": "[0:1, 0:2, 0:1, 0:16, 0:16]",
        "type": "tensor<1x2x16x16xbf16, 2201170796544 : i64>"
      }
    ],
    "buffers": []
  },
  {
    "file-line": 292,
    "subnet_id": 0,
    "core_id": 0,
    "opcode": "tpu.Permute",
    "is_local": false,
    "tiu_dma_id(before)": [
      92,
      154
    ],
    "tiu_dma_id(after)": [
      93,
      156
    ],
    "operands": [
      {
        "address": 2201170796544,
        "layout": "continuous",
        "memory_type": "<1x2x16x16xbf16>",
        "name": "162_Conv",
        "reshape": "",
        "shape": [
          1,
          2,
          16,
          16
        ],
        "slice": "[...]",
        "type": "tensor<1x2x16x16xbf16, 2201170796544 : i64>"
      },
      {}
    ],
    "results": [
      {
        "address": 2201170792448,
        "layout": "continuous",
        "memory_type": "<1x16x16x2xbf16>",
        "name": "163_Transpose",
        "reshape": "",
        "shape": [
          1,
          16,
          16,
          2
        ],
        "slice": "[...]",
        "type": "tensor<1x16x16x2xbf16, 2201170792448 : i64>"
      }
    ],
    "buffers": []
  },
  {
    "file-line": 293,
    "subnet_id": 0,
    "core_id": 0,
    "opcode": "tpu.Reshape",
    "is_local": false,
    "tiu_dma_id(before)": [
      93,
      156
    ],
    "tiu_dma_id(after)": [
      93,
      156
    ],
    "operands": [
      {
        "address": 2201170792448,
        "layout": "continuous",
        "memory_type": "<1x16x16x2xbf16>",
        "name": "163_Transpose",
        "reshape": "",
        "shape": [
          1,
          16,
          16,
          2
        ],
        "slice": "[...]",
        "type": "tensor<1x16x16x2xbf16, 2201170792448 : i64>"
      }
    ],
    "results": [
      {
        "address": 2201170792448,
        "layout": "continuous",
        "memory_type": "<1x512x1xbf16>",
        "name": "170_Reshape",
        "reshape": "",
        "shape": [
          1,
          512,
          1
        ],
        "slice": "[...]",
        "type": "tensor<1x512x1xbf16, 2201170792448 : i64>"
      }
    ],
    "buffers": []
  },
  {
    "file-line": 296,
    "subnet_id": 0,
    "core_id": 0,
    "opcode": "tpu.Conv2D",
    "is_local": false,
    "tiu_dma_id(before)": [
      93,
      156
    ],
    "tiu_dma_id(after)": [
      94,
      160
    ],
    "operands": [
      {
        "address": 2201170800640,
        "layout": "continuous",
        "memory_type": "<1x96x8x8xbf16>",
        "name": "161_Relu",
        "reshape": "",
        "shape": [
          1,
          96,
          8,
          8
        ],
        "slice": "[...]",
        "type": "tensor<1x96x8x8xbf16, 2201170800640 : i64>"
      },
      {
        "address": 1101659525120,
        "layout": "continuous",
        "memory_type": "<1x6x1x96xbf16>",
        "name": "171_Conv_filter_reorderd",
        "reshape": "",
        "shape": [
          1,
          6,
          1,
          96
        ],
        "slice": "[...]",
        "type": "tensor<1x6x1x96xbf16, 1101659525120 : i64>"
      },
      {
        "address": 1101659521024,
        "layout": "continuous",
        "memory_type": "<1x6x1x1xf32>",
        "name": "blaze_face.classifier_16.bias",
        "reshape": "",
        "shape": [
          1,
          6,
          1,
          1
        ],
        "slice": "[...]",
        "type": "tensor<1x6x1x1xf32, 1101659521024 : i64>"
      }
    ],
    "results": [
      {
        "address": 2201170788352,
        "layout": "continuous",
        "memory_type": "<1x6x8x8xbf16>",
        "name": "171_Conv",
        "reshape": "",
        "shape": [
          1,
          6,
          8,
          8
        ],
        "slice": "[...]",
        "type": "tensor<1x6x8x8xbf16, 2201170788352 : i64>"
      }
    ],
    "buffers": []
  },
  {
    "file-line": 297,
    "subnet_id": 0,
    "core_id": 0,
    "opcode": "tpu.Permute",
    "is_local": false,
    "tiu_dma_id(before)": [
      94,
      160
    ],
    "tiu_dma_id(after)": [
      95,
      162
    ],
    "operands": [
      {
        "address": 2201170788352,
        "layout": "continuous",
        "memory_type": "<1x6x8x8xbf16>",
        "name": "171_Conv",
        "reshape": "",
        "shape": [
          1,
          6,
          8,
          8
        ],
        "slice": "[...]",
        "type": "tensor<1x6x8x8xbf16, 2201170788352 : i64>"
      },
      {}
    ],
    "results": [
      {
        "address": 2201170784256,
        "layout": "continuous",
        "memory_type": "<1x8x8x6xbf16>",
        "name": "172_Transpose",
        "reshape": "",
        "shape": [
          1,
          8,
          8,
          6
        ],
        "slice": "[...]",
        "type": "tensor<1x8x8x6xbf16, 2201170784256 : i64>"
      }
    ],
    "buffers": []
  },
  {
    "file-line": 298,
    "subnet_id": 0,
    "core_id": 0,
    "opcode": "tpu.Reshape",
    "is_local": false,
    "tiu_dma_id(before)": [
      95,
      162
    ],
    "tiu_dma_id(after)": [
      95,
      162
    ],
    "operands": [
      {
        "address": 2201170784256,
        "layout": "continuous",
        "memory_type": "<1x8x8x6xbf16>",
        "name": "172_Transpose",
        "reshape": "",
        "shape": [
          1,
          8,
          8,
          6
        ],
        "slice": "[...]",
        "type": "tensor<1x8x8x6xbf16, 2201170784256 : i64>"
      }
    ],
    "results": [
      {
        "address": 2201170784256,
        "layout": "continuous",
        "memory_type": "<1x384x1xbf16>",
        "name": "179_Reshape",
        "reshape": "",
        "shape": [
          1,
          384,
          1
        ],
        "slice": "[...]",
        "type": "tensor<1x384x1xbf16, 2201170784256 : i64>"
      }
    ],
    "buffers": []
  },
  {
    "file-line": 299,
    "subnet_id": 0,
    "core_id": 0,
    "opcode": "tpu.Concat",
    "is_local": false,
    "tiu_dma_id(before)": [
      95,
      162
    ],
    "tiu_dma_id(after)": [
      95,
      164
    ],
    "operands": [
      {
        "address": 2201170792448,
        "layout": "continuous",
        "memory_type": "<1x512x1xbf16>",
        "name": "170_Reshape",
        "reshape": "",
        "shape": [
          1,
          512,
          1
        ],
        "slice": "[...]",
        "type": "tensor<1x512x1xbf16, 2201170792448 : i64>"
      },
      {
        "address": 2201170784256,
        "layout": "continuous",
        "memory_type": "<1x384x1xbf16>",
        "name": "179_Reshape",
        "reshape": "",
        "shape": [
          1,
          384,
          1
        ],
        "slice": "[...]",
        "type": "tensor<1x384x1xbf16, 2201170784256 : i64>"
      }
    ],
    "results": [
      {
        "address": 2201170812928,
        "layout": "continuous",
        "memory_type": "<1x896x1xbf16>",
        "name": "180_Concat",
        "reshape": "",
        "shape": [
          1,
          896,
          1
        ],
        "slice": "[...]",
        "type": "tensor<1x896x1xbf16, 2201170812928 : i64>"
      }
    ],
    "buffers": []
  },
  {
    "file-line": 300,
    "subnet_id": 0,
    "core_id": 0,
    "opcode": "tpu.Cast",
    "is_local": false,
    "tiu_dma_id(before)": [
      95,
      164
    ],
    "tiu_dma_id(after)": [
      96,
      166
    ],
    "operands": [
      {
        "address": 2201170812928,
        "layout": "continuous",
        "memory_type": "<1x896x1xbf16>",
        "name": "180_Concat",
        "reshape": "",
        "shape": [
          1,
          896,
          1
        ],
        "slice": "[...]",
        "type": "tensor<1x896x1xbf16, 2201170812928 : i64>"
      }
    ],
    "results": [
      {
        "address": 2201170825216,
        "layout": "continuous",
        "memory_type": "<1x896x1xf32>",
        "name": "180_Concat_f32",
        "reshape": "",
        "shape": [
          1,
          896,
          1
        ],
        "slice": "[...]",
        "type": "tensor<1x896x1xf32, 2201170825216 : i64>"
      }
    ],
    "buffers": []
  },
  {
    "file-line": 303,
    "subnet_id": 0,
    "core_id": 0,
    "opcode": "tpu.Conv2D",
    "is_local": false,
    "tiu_dma_id(before)": [
      96,
      166
    ],
    "tiu_dma_id(after)": [
      100,
      179
    ],
    "operands": [
      {
        "address": 2201170739200,
        "layout": "continuous",
        "memory_type": "<1x88x16x16xbf16>",
        "name": "138_Relu",
        "reshape": "",
        "shape": [
          1,
          88,
          16,
          16
        ],
        "slice": "[...]",
        "type": "tensor<1x88x16x16xbf16, 2201170739200 : i64>"
      },
      {
        "address": 1101659533312,
        "layout": "continuous",
        "memory_type": "<1x32x1x88xbf16>",
        "name": "181_Conv_filter_reorderd",
        "reshape": "",
        "shape": [
          1,
          32,
          1,
          88
        ],
        "slice": "[...]",
        "type": "tensor<1x32x1x88xbf16, 1101659533312 : i64>"
      },
      {
        "address": 1101659529216,
        "layout": "continuous",
        "memory_type": "<1x32x1x1xf32>",
        "name": "blaze_face.regressor_8.bias",
        "reshape": "",
        "shape": [
          1,
          32,
          1,
          1
        ],
        "slice": "[...]",
        "type": "tensor<1x32x1x1xf32, 1101659529216 : i64>"
      }
    ],
    "results": [
      {
        "address": 2201170784256,
        "layout": "continuous",
        "memory_type": "<1x32x16x16xbf16>",
        "name": "181_Conv",
        "reshape": "",
        "shape": [
          1,
          32,
          16,
          16
        ],
        "slice": "[...]",
        "type": "tensor<1x32x16x16xbf16, 2201170784256 : i64>"
      }
    ],
    "buffers": []
  },
  {
    "file-line": 304,
    "subnet_id": 0,
    "core_id": 0,
    "opcode": "tpu.Permute",
    "is_local": false,
    "tiu_dma_id(before)": [
      100,
      179
    ],
    "tiu_dma_id(after)": [
      101,
      181
    ],
    "operands": [
      {
        "address": 2201170784256,
        "layout": "continuous",
        "memory_type": "<1x32x16x16xbf16>",
        "name": "181_Conv",
        "reshape": "",
        "shape": [
          1,
          32,
          16,
          16
        ],
        "slice": "[...]",
        "type": "tensor<1x32x16x16xbf16, 2201170784256 : i64>"
      },
      {}
    ],
    "results": [
      {
        "address": 2201170739200,
        "layout": "continuous",
        "memory_type": "<1x16x16x32xbf16>",
        "name": "182_Transpose",
        "reshape": "",
        "shape": [
          1,
          16,
          16,
          32
        ],
        "slice": "[...]",
        "type": "tensor<1x16x16x32xbf16, 2201170739200 : i64>"
      }
    ],
    "buffers": []
  },
  {
    "file-line": 305,
    "subnet_id": 0,
    "core_id": 0,
    "opcode": "tpu.Reshape",
    "is_local": false,
    "tiu_dma_id(before)": [
      101,
      181
    ],
    "tiu_dma_id(after)": [
      101,
      181
    ],
    "operands": [
      {
        "address": 2201170739200,
        "layout": "continuous",
        "memory_type": "<1x16x16x32xbf16>",
        "name": "182_Transpose",
        "reshape": "",
        "shape": [
          1,
          16,
          16,
          32
        ],
        "slice": "[...]",
        "type": "tensor<1x16x16x32xbf16, 2201170739200 : i64>"
      }
    ],
    "results": [
      {
        "address": 2201170739200,
        "layout": "continuous",
        "memory_type": "<1x512x16xbf16>",
        "name": "189_Reshape",
        "reshape": "",
        "shape": [
          1,
          512,
          16
        ],
        "slice": "[...]",
        "type": "tensor<1x512x16xbf16, 2201170739200 : i64>"
      }
    ],
    "buffers": []
  },
  {
    "file-line": 308,
    "subnet_id": 0,
    "core_id": 0,
    "opcode": "tpu.Conv2D",
    "is_local": false,
    "tiu_dma_id(before)": [
      101,
      181
    ],
    "tiu_dma_id(after)": [
      113,
      218
    ],
    "operands": [
      {
        "address": 2201170800640,
        "layout": "continuous",
        "memory_type": "<1x96x8x8xbf16>",
        "name": "161_Relu",
        "reshape": "",
        "shape": [
          1,
          96,
          8,
          8
        ],
        "slice": "[...]",
        "type": "tensor<1x96x8x8xbf16, 2201170800640 : i64>"
      },
      {
        "address": 1101659545600,
        "layout": "continuous",
        "memory_type": "<1x96x1x96xbf16>",
        "name": "190_Conv_filter_reorderd",
        "reshape": "",
        "shape": [
          1,
          96,
          1,
          96
        ],
        "slice": "[...]",
        "type": "tensor<1x96x1x96xbf16, 1101659545600 : i64>"
      },
      {
        "address": 1101659541504,
        "layout": "continuous",
        "memory_type": "<1x96x1x1xf32>",
        "name": "blaze_face.regressor_16.bias",
        "reshape": "",
        "shape": [
          1,
          96,
          1,
          1
        ],
        "slice": "[...]",
        "type": "tensor<1x96x1x1xf32, 1101659541504 : i64>"
      }
    ],
    "results": [
      {
        "address": 2201170767872,
        "layout": "continuous",
        "memory_type": "<1x96x8x8xbf16>",
        "name": "190_Conv",
        "reshape": "",
        "shape": [
          1,
          96,
          8,
          8
        ],
        "slice": "[...]",
        "type": "tensor<1x96x8x8xbf16, 2201170767872 : i64>"
      }
    ],
    "buffers": []
  },
  {
    "file-line": 309,
    "subnet_id": 0,
    "core_id": 0,
    "opcode": "tpu.Permute",
    "is_local": false,
    "tiu_dma_id(before)": [
      113,
      218
    ],
    "tiu_dma_id(after)": [
      114,
      220
    ],
    "operands": [
      {
        "address": 2201170767872,
        "layout": "continuous",
        "memory_type": "<1x96x8x8xbf16>",
        "name": "190_Conv",
        "reshape": "",
        "shape": [
          1,
          96,
          8,
          8
        ],
        "slice": "[...]",
        "type": "tensor<1x96x8x8xbf16, 2201170767872 : i64>"
      },
      {}
    ],
    "results": [
      {
        "address": 2201170755584,
        "layout": "continuous",
        "memory_type": "<1x8x8x96xbf16>",
        "name": "191_Transpose",
        "reshape": "",
        "shape": [
          1,
          8,
          8,
          96
        ],
        "slice": "[...]",
        "type": "tensor<1x8x8x96xbf16, 2201170755584 : i64>"
      }
    ],
    "buffers": []
  },
  {
    "file-line": 310,
    "subnet_id": 0,
    "core_id": 0,
    "opcode": "tpu.Reshape",
    "is_local": false,
    "tiu_dma_id(before)": [
      114,
      220
    ],
    "tiu_dma_id(after)": [
      114,
      220
    ],
    "operands": [
      {
        "address": 2201170755584,
        "layout": "continuous",
        "memory_type": "<1x8x8x96xbf16>",
        "name": "191_Transpose",
        "reshape": "",
        "shape": [
          1,
          8,
          8,
          96
        ],
        "slice": "[...]",
        "type": "tensor<1x8x8x96xbf16, 2201170755584 : i64>"
      }
    ],
    "results": [
      {
        "address": 2201170755584,
        "layout": "continuous",
        "memory_type": "<1x384x16xbf16>",
        "name": "198_Reshape",
        "reshape": "",
        "shape": [
          1,
          384,
          16
        ],
        "slice": "[...]",
        "type": "tensor<1x384x16xbf16, 2201170755584 : i64>"
      }
    ],
    "buffers": []
  },
  {
    "file-line": 311,
    "subnet_id": 0,
    "core_id": 0,
    "opcode": "tpu.Concat",
    "is_local": false,
    "tiu_dma_id(before)": [
      114,
      220
    ],
    "tiu_dma_id(after)": [
      114,
      222
    ],
    "operands": [
      {
        "address": 2201170739200,
        "layout": "continuous",
        "memory_type": "<1x512x16xbf16>",
        "name": "189_Reshape",
        "reshape": "",
        "shape": [
          1,
          512,
          16
        ],
        "slice": "[...]",
        "type": "tensor<1x512x16xbf16, 2201170739200 : i64>"
      },
      {
        "address": 2201170755584,
        "layout": "continuous",
        "memory_type": "<1x384x16xbf16>",
        "name": "198_Reshape",
        "reshape": "",
        "shape": [
          1,
          384,
          16
        ],
        "slice": "[...]",
        "type": "tensor<1x384x16xbf16, 2201170755584 : i64>"
      }
    ],
    "results": [
      {
        "address": 2201170796544,
        "layout": "continuous",
        "memory_type": "<1x896x16xbf16>",
        "name": "199_Concat",
        "reshape": "",
        "shape": [
          1,
          896,
          16
        ],
        "slice": "[...]",
        "type": "tensor<1x896x16xbf16, 2201170796544 : i64>"
      }
    ],
    "buffers": []
  },
  {
    "file-line": 312,
    "subnet_id": 0,
    "core_id": 0,
    "opcode": "tpu.Cast",
    "is_local": false,
    "tiu_dma_id(before)": [
      114,
      222
    ],
    "tiu_dma_id(after)": [
      115,
      224
    ],
    "operands": [
      {
        "address": 2201170796544,
        "layout": "continuous",
        "memory_type": "<1x896x16xbf16>",
        "name": "199_Concat",
        "reshape": "",
        "shape": [
          1,
          896,
          16
        ],
        "slice": "[...]",
        "type": "tensor<1x896x16xbf16, 2201170796544 : i64>"
      }
    ],
    "results": [
      {
        "address": 2201170739200,
        "layout": "continuous",
        "memory_type": "<1x896x16xf32>",
        "name": "199_Concat_f32",
        "reshape": "",
        "shape": [
          1,
          896,
          16
        ],
        "slice": "[...]",
        "type": "tensor<1x896x16xf32, 2201170739200 : i64>"
      }
    ],
    "buffers": []
  }
]