#loc = loc(unknown)
#loc1 = loc("x.1")
module @blazeface attributes {module.FLOPs = 63714176 : i64, module.addr_mode = "basic", module.asymmetric = false, module.chip = "bm1688", module.cores = 1 : i64, module.devices = 1 : i64, module.high_precision = false, module.inputs = ["x.1"], module.mode = "F16", module.outputs = ["199_Concat_f32", "180_Concat_f32"], module.platform = "ONNX", module.q_group_size = 0 : i64, module.q_symmetric = false, module.state = "TPU_ADDRESSED", module.top_run_mode = "STATIC", module.weight_file = "blazeface_tpu_addressed_bm1688_f16_weight.npz"} {
  module @blazeface attributes {module.coeff_addr = 618475290624 : i64, module.coeff_size = 450560 : i64, module.device_id = 0 : i64, module.dynamic_coeff_offset = 450560 : i64, module.neuron_addr = 687194767360 : i64, module.neuron_size = 909312 : i64, module.step = 0 : i64} {
    func.func @main(%arg0: tensor<1x3x128x128xf32> loc(unknown)) -> (tensor<1x896x16xf32, 687194767360 : i64>, tensor<1x896x1xf32, 687194857472 : i64>) {
      %0 = "top.Input"(%arg0) {channel_format = "nchw", do_preprocess = true, keep_aspect_ratio = false, keep_ratio_mode = "letterbox", mean = [0.000000e+00, 0.000000e+00, 0.000000e+00], pad_type = "center", pad_value = 0 : i64, pixel_format = "bgr", resize_dims = [128, 128], scale = [1.000000e+00, 1.000000e+00, 1.000000e+00], yuv_type = ""} : (tensor<1x3x128x128xf32>) -> tensor<1x3x128x128xf32, 687195422720 : i64> loc(#loc1)
      %1:2 = call @subfunc_0(%0) : (tensor<1x3x128x128xf32, 687195422720 : i64>) -> (tensor<1x896x16xf32, 687194767360 : i64>, tensor<1x896x1xf32, 687194857472 : i64>) loc(#loc)
      return %1#0, %1#1 : tensor<1x896x16xf32, 687194767360 : i64>, tensor<1x896x1xf32, 687194857472 : i64> loc(#loc)
    } loc(#loc)
    func.func @subfunc_0(%arg0: tensor<1x3x128x128xf32, 687195422720 : i64> loc("x.1")) -> (tensor<1x896x16xf32, 687194767360 : i64>, tensor<1x896x1xf32, 687194857472 : i64>) attributes {id = 0 : i64, mode = #tpu<run_mode TPU_STATIC>, next_index = array<i32: -1>} {
      %0 = "top.None"() : () -> none loc(#loc)
      %1 = "tpu.Cast"(%arg0) {round_mode = #tpu<round_mode HalfAwayFromZero>, with_scale = true} : (tensor<1x3x128x128xf32, 687195422720 : i64>) -> tensor<1x3x128x128xf16, 687194767360 : i64> loc(#loc2)
      %2 = "top.Weight"() : () -> tensor<1x24x1x1xf32, 618475290624 : i64> loc(#loc3)
      %3 = "top.Weight"() : () -> tensor<1x24x1x80xf16, 618475294720 : i64> loc(#loc4)
      %4 = "top.Weight"() : () -> tensor<1x24x3x3xf16, 618475298816 : i64> loc(#loc5)
      %5 = "top.Weight"() : () -> tensor<1x24x1x1xf16, 618475302912 : i64> loc(#loc6)
      %6 = "top.Weight"() : () -> tensor<1x24x1x1xf32, 618475307008 : i64> loc(#loc7)
      %7 = "top.Weight"() : () -> tensor<1x24x1x32xf16, 618475311104 : i64> loc(#loc8)
      %8 = "tpu.Group"(%1) ({
        %113 = "tpu.Load"(%1) {do_bcast = false, ginfo = #tpu.lg<out_addr = 0, out_size = 32768, buffer_addr = 0, buffer_size = 0, eu_align = true, can_merge = false, in_hslice_offset = [], n_idx = [0], n_slice = [1], c_idx = [0], c_slice = [3], d_idx = [0], d_slice = [1], h_idx = [0], h_slice = [128], w_idx = [0], w_slice = [128], id = 0, stage = 0, slice_idx = 0, group_type = 0>, is_idx_weight = false, lmem_type = 1 : i64, support_compress = true, use_3ic_optimize = 17 : i64} : (tensor<1x3x128x128xf16, 687194767360 : i64>) -> tensor<1x3x128x128xf16> loc(#loc10)
        %114 = "tpu.Load"(%3) {do_bcast = false, ginfo = #tpu.lg<out_addr = 73728, out_size = 160, buffer_addr = 0, buffer_size = 0, eu_align = false, can_merge = false, in_hslice_offset = [], n_idx = [0], n_slice = [1], c_idx = [0], c_slice = [24], d_idx = [0], d_slice = [1], h_idx = [0], h_slice = [1], w_idx = [0], w_slice = [80], id = 1, stage = 0, slice_idx = 0, group_type = 0>, is_idx_weight = false, lmem_type = 0 : i64, support_compress = true, use_3ic_optimize = 0 : i64} : (tensor<1x24x1x80xf16, 618475294720 : i64>) -> tensor<1x24x1x80xf16> loc(#loc11)
        %115 = "tpu.Load"(%2) {do_bcast = false, ginfo = #tpu.lg<out_addr = 98304, out_size = 4, buffer_addr = 0, buffer_size = 0, eu_align = false, can_merge = false, in_hslice_offset = [], n_idx = [0], n_slice = [1], c_idx = [0], c_slice = [24], d_idx = [0], d_slice = [1], h_idx = [0], h_slice = [1], w_idx = [0], w_slice = [1], id = 2, stage = 0, slice_idx = 0, group_type = 0>, is_idx_weight = false, lmem_type = 0 : i64, support_compress = true, use_3ic_optimize = 0 : i64} : (tensor<1x24x1x1xf32, 618475290624 : i64>) -> tensor<1x24x1x1xf32> loc(#loc12)
        %116 = "tpu.Load"(%4) {do_bcast = false, ginfo = #tpu.lg<out_addr = 81920, out_size = 18, buffer_addr = 0, buffer_size = 0, eu_align = false, can_merge = false, in_hslice_offset = [], n_idx = [0], n_slice = [1], c_idx = [0], c_slice = [24], d_idx = [0], d_slice = [1], h_idx = [0], h_slice = [3], w_idx = [0], w_slice = [3], id = 3, stage = 1, slice_idx = 0, group_type = 0>, is_idx_weight = false, lmem_type = 0 : i64, support_compress = true, use_3ic_optimize = 0 : i64} : (tensor<1x24x3x3xf16, 618475298816 : i64>) -> tensor<1x24x3x3xf16> loc(#loc13)
        %117 = "tpu.Load"(%5) {do_bcast = false, ginfo = #tpu.lg<out_addr = 106496, out_size = 2, buffer_addr = 0, buffer_size = 0, eu_align = false, can_merge = false, in_hslice_offset = [], n_idx = [0], n_slice = [1], c_idx = [0], c_slice = [24], d_idx = [0], d_slice = [1], h_idx = [0], h_slice = [1], w_idx = [0], w_slice = [1], id = 4, stage = 1, slice_idx = 0, group_type = 0>, is_idx_weight = false, lmem_type = 0 : i64, support_compress = true, use_3ic_optimize = 0 : i64} : (tensor<1x24x1x1xf16, 618475302912 : i64>) -> tensor<1x24x1x1xf16> loc(#loc14)
        %118 = "tpu.Conv2D"(%113, %114, %115) {coeff_merged = false, dilations = [1, 1], do_relu = true, dynweight_reorderd = false, ginfo = #tpu.lg<out_addr = 32768, out_size = 8192, buffer_addr = 40960, buffer_size = 16426, eu_align = true, can_merge = false, in_hslice_offset = [], n_idx = [0], n_slice = [1], c_idx = [0], c_slice = [24], d_idx = [0], d_slice = [1], h_idx = [0], h_slice = [64], w_idx = [0], w_slice = [64], id = 5, stage = 1, slice_idx = 0, group_type = 0>, group = 1 : i64, kernel_shape = [5, 5], kernel_zp = 0 : i64, multicore = true, pads = [1, 1, 2, 2], quant_mode = #tpu<rq_mode MultiplierShift>, relu_limit = -1.000000e+00 : f64, round_mode = #tpu<round_mode HalfUp>, strides = [2, 2], support_compress = true, use_3ic_optimize = 17 : i64, weight_is_coeff = 1 : i64, with_bias = true} : (tensor<1x3x128x128xf16>, tensor<1x24x1x80xf16>, tensor<1x24x1x1xf32>) -> tensor<1x24x64x64xf16> loc(#loc15)
        %119 = "tpu.Load"(%7) {do_bcast = false, ginfo = #tpu.lg<out_addr = 57344, out_size = 64, buffer_addr = 0, buffer_size = 0, eu_align = false, can_merge = false, in_hslice_offset = [], n_idx = [0], n_slice = [1], c_idx = [0], c_slice = [24], d_idx = [0], d_slice = [1], h_idx = [0], h_slice = [1], w_idx = [0], w_slice = [32], id = 6, stage = 1, slice_idx = 0, group_type = 0>, is_idx_weight = false, lmem_type = 0 : i64, support_compress = true, use_3ic_optimize = 0 : i64} : (tensor<1x24x1x32xf16, 618475311104 : i64>) -> tensor<1x24x1x32xf16> loc(#loc16)
        %120 = "tpu.Load"(%6) {do_bcast = false, ginfo = #tpu.lg<out_addr = 90112, out_size = 4, buffer_addr = 0, buffer_size = 0, eu_align = false, can_merge = false, in_hslice_offset = [], n_idx = [0], n_slice = [1], c_idx = [0], c_slice = [24], d_idx = [0], d_slice = [1], h_idx = [0], h_slice = [1], w_idx = [0], w_slice = [1], id = 7, stage = 1, slice_idx = 0, group_type = 0>, is_idx_weight = false, lmem_type = 0 : i64, support_compress = true, use_3ic_optimize = 0 : i64} : (tensor<1x24x1x1xf32, 618475307008 : i64>) -> tensor<1x24x1x1xf32> loc(#loc17)
        %121 = "tpu.Conv2D"(%118, %116, %117) {coeff_merged = false, dilations = [1, 1], do_relu = false, dynweight_reorderd = false, ginfo = #tpu.lg<out_addr = 40960, out_size = 8192, buffer_addr = 0, buffer_size = 24589, eu_align = true, can_merge = false, in_hslice_offset = [], n_idx = [0], n_slice = [1], c_idx = [0], c_slice = [24], d_idx = [0], d_slice = [1], h_idx = [0], h_slice = [64], w_idx = [0], w_slice = [64], id = 8, stage = 1, slice_idx = 0, group_type = 0>, group = 24 : i64, kernel_shape = [3, 3], kernel_zp = 0 : i64, pads = [1, 1, 1, 1], quant_mode = #tpu<rq_mode MultiplierShift>, relu_limit = -1.000000e+00 : f64, round_mode = #tpu<round_mode HalfUp>, strides = [1, 1], support_compress = true, use_3ic_optimize = 0 : i64, weight_is_coeff = 1 : i64, with_bias = true} : (tensor<1x24x64x64xf16>, tensor<1x24x3x3xf16>, tensor<1x24x1x1xf16>) -> tensor<1x24x64x64xf16> loc(#loc18)
        %122 = "tpu.Conv2D"(%121, %119, %120) {coeff_merged = false, dilations = [1, 1], do_relu = false, dynweight_reorderd = false, ginfo = #tpu.lg<out_addr = 49152, out_size = 8192, buffer_addr = 0, buffer_size = 0, eu_align = true, can_merge = false, in_hslice_offset = [], n_idx = [0], n_slice = [1], c_idx = [0], c_slice = [24], d_idx = [0], d_slice = [1], h_idx = [0], h_slice = [64], w_idx = [0], w_slice = [64], id = 9, stage = 1, slice_idx = 0, group_type = 0>, group = 1 : i64, kernel_shape = [1, 1], kernel_zp = 0 : i64, multicore = true, pads = [0, 0, 0, 0], quant_mode = #tpu<rq_mode MultiplierShift>, relu_limit = -1.000000e+00 : f64, round_mode = #tpu<round_mode HalfUp>, strides = [1, 1], support_compress = true, use_3ic_optimize = 0 : i64, weight_is_coeff = 1 : i64, with_bias = true} : (tensor<1x24x64x64xf16>, tensor<1x24x1x32xf16>, tensor<1x24x1x1xf32>) -> tensor<1x24x64x64xf16> loc(#loc19)
        %123 = "tpu.Add"(%122, %118) {do_relu = true, ginfo = #tpu.lg<out_addr = 65536, out_size = 8192, buffer_addr = 0, buffer_size = 0, eu_align = true, can_merge = false, in_hslice_offset = [], n_idx = [0], n_slice = [1], c_idx = [0], c_slice = [24], d_idx = [0], d_slice = [1], h_idx = [0], h_slice = [64], w_idx = [0], w_slice = [64], id = 10, stage = 1, slice_idx = 0, group_type = 0>, is_scalar = false, relu_limit = -1.000000e+00 : f64} : (tensor<1x24x64x64xf16>, tensor<1x24x64x64xf16>) -> tensor<1x24x64x64xf16> loc(#loc9)
        %124 = "tpu.Store"(%123, %0) {ginfo = #tpu.lg<out_addr = 65536, out_size = 8192, buffer_addr = 0, buffer_size = 0, eu_align = true, can_merge = false, in_hslice_offset = [], n_idx = [0], n_slice = [1], c_idx = [0], c_slice = [24], d_idx = [0], d_slice = [1], h_idx = [0], h_slice = [64], w_idx = [0], w_slice = [64], id = 11, stage = 2, slice_idx = 0, group_type = 0>, support_compress = true} : (tensor<1x24x64x64xf16>, none) -> tensor<1x24x64x64xf16, 687195226112 : i64> loc(#loc9)
        "tpu.Yield"(%124) : (tensor<1x24x64x64xf16, 687195226112 : i64>) -> () loc(#loc9)
      }) {core_slice_ncdhw = [], csecs = 1 : i64, dsecs = 1 : i64, flow = [-1, 5, 3, 4, 11, -2, 8, 6, 7, -3, 9, 10, 0, 1, 2], group_type = 0 : i64, hsecs = 1 : i64, nsecs = 1 : i64, other_down_overlap_op = [], other_up_overlap_op = [], run_core_id = [], self_down_overlap_op = [], self_up_overlap_op = [], support_compress = true, swpipl_stage_num = 3 : i64, wsecs = 1 : i64} : (tensor<1x3x128x128xf16, 687194767360 : i64>) -> tensor<1x24x64x64xf16, 687195226112 : i64> loc(#loc9)
      %9 = "tpu.Pad"(%8, %0, %0, %0, %0) {mode = #tpu<Pad_Mode constant>, paddings = [0, 0, 0, 0, 0, 4, 0, 0], val = 0.000000e+00 : f64, with_insert_zero = false} : (tensor<1x24x64x64xf16, 687195226112 : i64>, none, none, none, none) -> tensor<1x28x64x64xf16, 687194996736 : i64> loc(#loc20)
      %10 = "top.Weight"() : () -> tensor<1x24x3x3xf16, 618475315200 : i64> loc(#loc21)
      %11 = "top.Weight"() : () -> tensor<1x24x1x1xf16, 618475319296 : i64> loc(#loc22)
      %12 = "top.Weight"() : () -> tensor<1x28x1x1xf32, 618475323392 : i64> loc(#loc23)
      %13 = "top.Weight"() : () -> tensor<1x28x1x32xf16, 618475327488 : i64> loc(#loc24)
      %14:2 = "tpu.Group"(%8, %9) ({
        %113 = "tpu.Load"(%8) {do_bcast = false, ginfo = #tpu.lg<out_addr = 0, out_size = 8192, buffer_addr = 0, buffer_size = 0, eu_align = true, can_merge = false, in_hslice_offset = [], n_idx = [0], n_slice = [1], c_idx = [0], c_slice = [24], d_idx = [0], d_slice = [1], h_idx = [0], h_slice = [64], w_idx = [0], w_slice = [64], id = 0, stage = 0, slice_idx = 0, group_type = 0>, is_idx_weight = false, lmem_type = 1 : i64, support_compress = true, use_3ic_optimize = 0 : i64} : (tensor<1x24x64x64xf16, 687195226112 : i64>) -> tensor<1x24x64x64xf16> loc(#loc27)
        %114 = "tpu.Load"(%10) {do_bcast = false, ginfo = #tpu.lg<out_addr = 24576, out_size = 18, buffer_addr = 0, buffer_size = 0, eu_align = false, can_merge = false, in_hslice_offset = [], n_idx = [0], n_slice = [1], c_idx = [0], c_slice = [24], d_idx = [0], d_slice = [1], h_idx = [0], h_slice = [3], w_idx = [0], w_slice = [3], id = 1, stage = 0, slice_idx = 0, group_type = 0>, is_idx_weight = false, lmem_type = 0 : i64, support_compress = true, use_3ic_optimize = 0 : i64} : (tensor<1x24x3x3xf16, 618475315200 : i64>) -> tensor<1x24x3x3xf16> loc(#loc28)
        %115 = "tpu.Load"(%11) {do_bcast = false, ginfo = #tpu.lg<out_addr = 81920, out_size = 2, buffer_addr = 0, buffer_size = 0, eu_align = false, can_merge = false, in_hslice_offset = [], n_idx = [0], n_slice = [1], c_idx = [0], c_slice = [24], d_idx = [0], d_slice = [1], h_idx = [0], h_slice = [1], w_idx = [0], w_slice = [1], id = 2, stage = 0, slice_idx = 0, group_type = 0>, is_idx_weight = false, lmem_type = 0 : i64, support_compress = true, use_3ic_optimize = 0 : i64} : (tensor<1x24x1x1xf16, 618475319296 : i64>) -> tensor<1x24x1x1xf16> loc(#loc29)
        %116 = "tpu.Load"(%13) {do_bcast = false, ginfo = #tpu.lg<out_addr = 32768, out_size = 64, buffer_addr = 0, buffer_size = 0, eu_align = false, can_merge = false, in_hslice_offset = [], n_idx = [0], n_slice = [1], c_idx = [0], c_slice = [28], d_idx = [0], d_slice = [1], h_idx = [0], h_slice = [1], w_idx = [0], w_slice = [32], id = 3, stage = 1, slice_idx = 0, group_type = 0>, is_idx_weight = false, lmem_type = 0 : i64, support_compress = true, use_3ic_optimize = 0 : i64} : (tensor<1x28x1x32xf16, 618475327488 : i64>) -> tensor<1x28x1x32xf16> loc(#loc30)
        %117 = "tpu.Load"(%12) {do_bcast = false, ginfo = #tpu.lg<out_addr = 40960, out_size = 4, buffer_addr = 0, buffer_size = 0, eu_align = false, can_merge = false, in_hslice_offset = [], n_idx = [0], n_slice = [1], c_idx = [0], c_slice = [28], d_idx = [0], d_slice = [1], h_idx = [0], h_slice = [1], w_idx = [0], w_slice = [1], id = 4, stage = 1, slice_idx = 0, group_type = 0>, is_idx_weight = false, lmem_type = 0 : i64, support_compress = true, use_3ic_optimize = 0 : i64} : (tensor<1x28x1x1xf32, 618475323392 : i64>) -> tensor<1x28x1x1xf32> loc(#loc31)
        %118 = "tpu.Conv2D"(%113, %114, %115) {coeff_merged = false, dilations = [1, 1], do_relu = false, dynweight_reorderd = false, ginfo = #tpu.lg<out_addr = 8192, out_size = 8192, buffer_addr = 49152, buffer_size = 24589, eu_align = true, can_merge = false, in_hslice_offset = [], n_idx = [0], n_slice = [1], c_idx = [0], c_slice = [24], d_idx = [0], d_slice = [1], h_idx = [0], h_slice = [64], w_idx = [0], w_slice = [64], id = 5, stage = 1, slice_idx = 0, group_type = 0>, group = 24 : i64, kernel_shape = [3, 3], kernel_zp = 0 : i64, pads = [1, 1, 1, 1], quant_mode = #tpu<rq_mode MultiplierShift>, relu_limit = -1.000000e+00 : f64, round_mode = #tpu<round_mode HalfUp>, strides = [1, 1], support_compress = true, use_3ic_optimize = 0 : i64, weight_is_coeff = 1 : i64, with_bias = true} : (tensor<1x24x64x64xf16>, tensor<1x24x3x3xf16>, tensor<1x24x1x1xf16>) -> tensor<1x24x64x64xf16> loc(#loc32)
        %119 = "tpu.Load"(%9) {do_bcast = false, ginfo = #tpu.lg<out_addr = 24576, out_size = 8192, buffer_addr = 0, buffer_size = 0, eu_align = true, can_merge = false, in_hslice_offset = [], n_idx = [0], n_slice = [1], c_idx = [0], c_slice = [28], d_idx = [0], d_slice = [1], h_idx = [0], h_slice = [64], w_idx = [0], w_slice = [64], id = 6, stage = 1, slice_idx = 0, group_type = 0>, is_idx_weight = false, lmem_type = 1 : i64, support_compress = true, use_3ic_optimize = 0 : i64} : (tensor<1x28x64x64xf16, 687194996736 : i64>) -> tensor<1x28x64x64xf16> loc(#loc33)
        %120 = "tpu.Conv2D"(%118, %116, %117) {coeff_merged = false, dilations = [1, 1], do_relu = false, dynweight_reorderd = false, ginfo = #tpu.lg<out_addr = 16384, out_size = 8192, buffer_addr = 0, buffer_size = 0, eu_align = true, can_merge = false, in_hslice_offset = [], n_idx = [0], n_slice = [1], c_idx = [0], c_slice = [28], d_idx = [0], d_slice = [1], h_idx = [0], h_slice = [64], w_idx = [0], w_slice = [64], id = 7, stage = 1, slice_idx = 0, group_type = 0>, group = 1 : i64, kernel_shape = [1, 1], kernel_zp = 0 : i64, multicore = true, pads = [0, 0, 0, 0], quant_mode = #tpu<rq_mode MultiplierShift>, relu_limit = -1.000000e+00 : f64, round_mode = #tpu<round_mode HalfUp>, strides = [1, 1], support_compress = true, use_3ic_optimize = 0 : i64, weight_is_coeff = 1 : i64, with_bias = true} : (tensor<1x24x64x64xf16>, tensor<1x28x1x32xf16>, tensor<1x28x1x1xf32>) -> tensor<1x28x64x64xf16> loc(#loc34)
        %121 = "tpu.Add"(%120, %119) {do_relu = true, ginfo = #tpu.lg<out_addr = 8192, out_size = 8192, buffer_addr = 0, buffer_size = 0, eu_align = true, can_merge = false, in_hslice_offset = [], n_idx = [0], n_slice = [1], c_idx = [0], c_slice = [28], d_idx = [0], d_slice = [1], h_idx = [0], h_slice = [64], w_idx = [0], w_slice = [64], id = 8, stage = 1, slice_idx = 0, group_type = 0>, is_scalar = false, relu_limit = -1.000000e+00 : f64} : (tensor<1x28x64x64xf16>, tensor<1x28x64x64xf16>) -> tensor<1x28x64x64xf16> loc(#loc25)
        %122 = "tpu.Store"(%121, %0) {ginfo = #tpu.lg<out_addr = 8192, out_size = 8192, buffer_addr = 0, buffer_size = 0, eu_align = true, can_merge = false, in_hslice_offset = [], n_idx = [0], n_slice = [1], c_idx = [0], c_slice = [28], d_idx = [0], d_slice = [1], h_idx = [0], h_slice = [64], w_idx = [0], w_slice = [64], id = 9, stage = 1, slice_idx = 0, group_type = 0>, support_compress = true} : (tensor<1x28x64x64xf16>, none) -> tensor<1x28x64x64xf16, 687194767360 : i64> loc(#loc25)
        %123 = "tpu.Pool2D"(%121) {count_include_pad = false, do_relu = false, first_round_mode = #tpu<round_mode HalfAwayFromZero>, ginfo = #tpu.lg<out_addr = 16384, out_size = 2048, buffer_addr = 0, buffer_size = 0, eu_align = true, can_merge = false, in_hslice_offset = [], n_idx = [0], n_slice = [1], c_idx = [0], c_slice = [28], d_idx = [0], d_slice = [1], h_idx = [0], h_slice = [32], w_idx = [0], w_slice = [32], id = 10, stage = 1, slice_idx = 0, group_type = 0>, is_adaptive = false, keepdims = true, kernel_shape = [2, 2], pad_value = 0 : i64, pads = [0, 0, 0, 0], pool_mode = #tpu<pool_mode Max>, relu_limit = -1.000000e+00 : f64, round_mode = #tpu<round_mode HalfAwayFromZero>, strides = [2, 2]} : (tensor<1x28x64x64xf16>) -> tensor<1x28x32x32xf16> loc(#loc26)
        %124 = "tpu.Store"(%123, %0) {ginfo = #tpu.lg<out_addr = 16384, out_size = 2048, buffer_addr = 0, buffer_size = 0, eu_align = true, can_merge = false, in_hslice_offset = [], n_idx = [0], n_slice = [1], c_idx = [0], c_slice = [28], d_idx = [0], d_slice = [1], h_idx = [0], h_slice = [32], w_idx = [0], w_slice = [32], id = 11, stage = 2, slice_idx = 0, group_type = 0>, support_compress = true} : (tensor<1x28x32x32xf16>, none) -> tensor<1x28x32x32xf16, 687195619328 : i64> loc(#loc26)
        "tpu.Yield"(%122, %124) : (tensor<1x28x64x64xf16, 687194767360 : i64>, tensor<1x28x32x32xf16, 687195619328 : i64>) -> () loc(#loc249)
      }) {core_slice_ncdhw = [], csecs = 1 : i64, dsecs = 1 : i64, flow = [-1, 5, 3, 4, 11, -2, 7, 6, -3, 8, 0, -4, 10, 9, 1, 2], group_type = 0 : i64, hsecs = 1 : i64, nsecs = 1 : i64, other_down_overlap_op = [], other_up_overlap_op = [], run_core_id = [], self_down_overlap_op = [], self_up_overlap_op = [], support_compress = true, swpipl_stage_num = 3 : i64, wsecs = 1 : i64} : (tensor<1x24x64x64xf16, 687195226112 : i64>, tensor<1x28x64x64xf16, 687194996736 : i64>) -> (tensor<1x28x64x64xf16, 687194767360 : i64>, tensor<1x28x32x32xf16, 687195619328 : i64>) loc(#loc249)
      %15 = "tpu.Pad"(%14#1, %0, %0, %0, %0) {mode = #tpu<Pad_Mode constant>, paddings = [0, 0, 0, 0, 0, 4, 0, 0], val = 0.000000e+00 : f64, with_insert_zero = false} : (tensor<1x28x32x32xf16, 687195619328 : i64>, none, none, none, none) -> tensor<1x32x32x32xf16, 687195078656 : i64> loc(#loc35)
      %16 = "top.Weight"() : () -> tensor<1x28x3x3xf16, 618475331584 : i64> loc(#loc36)
      %17 = "top.Weight"() : () -> tensor<1x28x1x1xf16, 618475335680 : i64> loc(#loc37)
      %18 = "top.Weight"() : () -> tensor<1x32x1x1xf32, 618475339776 : i64> loc(#loc38)
      %19 = "top.Weight"() : () -> tensor<1x32x1x32xf16, 618475343872 : i64> loc(#loc39)
      %20 = "tpu.Group"(%14#0, %15) ({
        %113 = "tpu.Load"(%14#0) {do_bcast = false, ginfo = #tpu.lg<out_addr = 0, out_size = 8192, buffer_addr = 0, buffer_size = 0, eu_align = true, can_merge = false, in_hslice_offset = [], n_idx = [0], n_slice = [1], c_idx = [0], c_slice = [28], d_idx = [0], d_slice = [1], h_idx = [0], h_slice = [64], w_idx = [0], w_slice = [64], id = 0, stage = 0, slice_idx = 0, group_type = 0>, is_idx_weight = false, lmem_type = 1 : i64, support_compress = true, use_3ic_optimize = 0 : i64} : (tensor<1x28x64x64xf16, 687194767360 : i64>) -> tensor<1x28x64x64xf16> loc(#loc41)
        %114 = "tpu.Load"(%16) {do_bcast = false, ginfo = #tpu.lg<out_addr = 40960, out_size = 18, buffer_addr = 0, buffer_size = 0, eu_align = false, can_merge = false, in_hslice_offset = [], n_idx = [0], n_slice = [1], c_idx = [0], c_slice = [28], d_idx = [0], d_slice = [1], h_idx = [0], h_slice = [3], w_idx = [0], w_slice = [3], id = 1, stage = 0, slice_idx = 0, group_type = 0>, is_idx_weight = false, lmem_type = 0 : i64, support_compress = true, use_3ic_optimize = 0 : i64} : (tensor<1x28x3x3xf16, 618475331584 : i64>) -> tensor<1x28x3x3xf16> loc(#loc42)
        %115 = "tpu.Load"(%17) {do_bcast = false, ginfo = #tpu.lg<out_addr = 57344, out_size = 2, buffer_addr = 0, buffer_size = 0, eu_align = false, can_merge = false, in_hslice_offset = [], n_idx = [0], n_slice = [1], c_idx = [0], c_slice = [28], d_idx = [0], d_slice = [1], h_idx = [0], h_slice = [1], w_idx = [0], w_slice = [1], id = 2, stage = 0, slice_idx = 0, group_type = 0>, is_idx_weight = false, lmem_type = 0 : i64, support_compress = true, use_3ic_optimize = 0 : i64} : (tensor<1x28x1x1xf16, 618475335680 : i64>) -> tensor<1x28x1x1xf16> loc(#loc43)
        %116 = "tpu.Load"(%19) {do_bcast = false, ginfo = #tpu.lg<out_addr = 34816, out_size = 64, buffer_addr = 0, buffer_size = 0, eu_align = false, can_merge = false, in_hslice_offset = [], n_idx = [0], n_slice = [1], c_idx = [0], c_slice = [32], d_idx = [0], d_slice = [1], h_idx = [0], h_slice = [1], w_idx = [0], w_slice = [32], id = 3, stage = 1, slice_idx = 0, group_type = 0>, is_idx_weight = false, lmem_type = 0 : i64, support_compress = true, use_3ic_optimize = 0 : i64} : (tensor<1x32x1x32xf16, 618475343872 : i64>) -> tensor<1x32x1x32xf16> loc(#loc44)
        %117 = "tpu.Load"(%18) {do_bcast = false, ginfo = #tpu.lg<out_addr = 49152, out_size = 4, buffer_addr = 0, buffer_size = 0, eu_align = false, can_merge = false, in_hslice_offset = [], n_idx = [0], n_slice = [1], c_idx = [0], c_slice = [32], d_idx = [0], d_slice = [1], h_idx = [0], h_slice = [1], w_idx = [0], w_slice = [1], id = 4, stage = 1, slice_idx = 0, group_type = 0>, is_idx_weight = false, lmem_type = 0 : i64, support_compress = true, use_3ic_optimize = 0 : i64} : (tensor<1x32x1x1xf32, 618475339776 : i64>) -> tensor<1x32x1x1xf32> loc(#loc45)
        %118 = "tpu.Conv2D"(%113, %114, %115) {coeff_merged = false, dilations = [1, 1], do_relu = false, dynweight_reorderd = false, ginfo = #tpu.lg<out_addr = 8192, out_size = 2048, buffer_addr = 16384, buffer_size = 12301, eu_align = true, can_merge = false, in_hslice_offset = [], n_idx = [0], n_slice = [1], c_idx = [0], c_slice = [28], d_idx = [0], d_slice = [1], h_idx = [0], h_slice = [32], w_idx = [0], w_slice = [32], id = 5, stage = 1, slice_idx = 0, group_type = 0>, group = 28 : i64, kernel_shape = [3, 3], kernel_zp = 0 : i64, pads = [0, 0, 2, 2], quant_mode = #tpu<rq_mode MultiplierShift>, relu_limit = -1.000000e+00 : f64, round_mode = #tpu<round_mode HalfUp>, strides = [2, 2], support_compress = true, use_3ic_optimize = 0 : i64, weight_is_coeff = 1 : i64, with_bias = true} : (tensor<1x28x64x64xf16>, tensor<1x28x3x3xf16>, tensor<1x28x1x1xf16>) -> tensor<1x28x32x32xf16> loc(#loc46)
        %119 = "tpu.Load"(%15) {do_bcast = false, ginfo = #tpu.lg<out_addr = 24576, out_size = 2048, buffer_addr = 0, buffer_size = 0, eu_align = true, can_merge = false, in_hslice_offset = [], n_idx = [0], n_slice = [1], c_idx = [0], c_slice = [32], d_idx = [0], d_slice = [1], h_idx = [0], h_slice = [32], w_idx = [0], w_slice = [32], id = 6, stage = 1, slice_idx = 0, group_type = 0>, is_idx_weight = false, lmem_type = 1 : i64, support_compress = true, use_3ic_optimize = 0 : i64} : (tensor<1x32x32x32xf16, 687195078656 : i64>) -> tensor<1x32x32x32xf16> loc(#loc47)
        %120 = "tpu.Conv2D"(%118, %116, %117) {coeff_merged = false, dilations = [1, 1], do_relu = false, dynweight_reorderd = false, ginfo = #tpu.lg<out_addr = 16384, out_size = 2048, buffer_addr = 0, buffer_size = 0, eu_align = true, can_merge = false, in_hslice_offset = [], n_idx = [0], n_slice = [1], c_idx = [0], c_slice = [32], d_idx = [0], d_slice = [1], h_idx = [0], h_slice = [32], w_idx = [0], w_slice = [32], id = 7, stage = 1, slice_idx = 0, group_type = 0>, group = 1 : i64, kernel_shape = [1, 1], kernel_zp = 0 : i64, multicore = true, pads = [0, 0, 0, 0], quant_mode = #tpu<rq_mode MultiplierShift>, relu_limit = -1.000000e+00 : f64, round_mode = #tpu<round_mode HalfUp>, strides = [1, 1], support_compress = true, use_3ic_optimize = 0 : i64, weight_is_coeff = 1 : i64, with_bias = true} : (tensor<1x28x32x32xf16>, tensor<1x32x1x32xf16>, tensor<1x32x1x1xf32>) -> tensor<1x32x32x32xf16> loc(#loc48)
        %121 = "tpu.Add"(%120, %119) {do_relu = true, ginfo = #tpu.lg<out_addr = 32768, out_size = 2048, buffer_addr = 0, buffer_size = 0, eu_align = true, can_merge = false, in_hslice_offset = [], n_idx = [0], n_slice = [1], c_idx = [0], c_slice = [32], d_idx = [0], d_slice = [1], h_idx = [0], h_slice = [32], w_idx = [0], w_slice = [32], id = 8, stage = 1, slice_idx = 0, group_type = 0>, is_scalar = false, relu_limit = -1.000000e+00 : f64} : (tensor<1x32x32x32xf16>, tensor<1x32x32x32xf16>) -> tensor<1x32x32x32xf16> loc(#loc40)
        %122 = "tpu.Store"(%121, %0) {ginfo = #tpu.lg<out_addr = 32768, out_size = 2048, buffer_addr = 0, buffer_size = 0, eu_align = true, can_merge = false, in_hslice_offset = [], n_idx = [0], n_slice = [1], c_idx = [0], c_slice = [32], d_idx = [0], d_slice = [1], h_idx = [0], h_slice = [32], w_idx = [0], w_slice = [32], id = 9, stage = 2, slice_idx = 0, group_type = 0>, support_compress = true} : (tensor<1x32x32x32xf16>, none) -> tensor<1x32x32x32xf16, 687195013120 : i64> loc(#loc40)
        "tpu.Yield"(%122) : (tensor<1x32x32x32xf16, 687195013120 : i64>) -> () loc(#loc40)
      }) {core_slice_ncdhw = [], csecs = 1 : i64, dsecs = 1 : i64, flow = [-1, 5, 3, 4, 9, -2, 7, 6, -3, 8, 0, 1, 2], group_type = 0 : i64, hsecs = 1 : i64, nsecs = 1 : i64, other_down_overlap_op = [], other_up_overlap_op = [], run_core_id = [], self_down_overlap_op = [], self_up_overlap_op = [], support_compress = true, swpipl_stage_num = 3 : i64, wsecs = 1 : i64} : (tensor<1x28x64x64xf16, 687194767360 : i64>, tensor<1x32x32x32xf16, 687195078656 : i64>) -> tensor<1x32x32x32xf16, 687195013120 : i64> loc(#loc40)
      %21 = "tpu.Pad"(%20, %0, %0, %0, %0) {mode = #tpu<Pad_Mode constant>, paddings = [0, 0, 0, 0, 0, 4, 0, 0], val = 0.000000e+00 : f64, with_insert_zero = false} : (tensor<1x32x32x32xf16, 687195013120 : i64>, none, none, none, none) -> tensor<1x36x32x32xf16, 687194767360 : i64> loc(#loc49)
      %22 = "top.Weight"() : () -> tensor<1x32x3x3xf16, 618475347968 : i64> loc(#loc50)
      %23 = "top.Weight"() : () -> tensor<1x32x1x1xf16, 618475352064 : i64> loc(#loc51)
      %24 = "top.Weight"() : () -> tensor<1x36x1x1xf32, 618475356160 : i64> loc(#loc52)
      %25 = "top.Weight"() : () -> tensor<1x36x1x32xf16, 618475360256 : i64> loc(#loc53)
      %26 = "tpu.Group"(%20, %21) ({
        %113 = "tpu.Load"(%20) {do_bcast = false, ginfo = #tpu.lg<out_addr = 32768, out_size = 2048, buffer_addr = 0, buffer_size = 0, eu_align = true, can_merge = false, in_hslice_offset = [], n_idx = [0], n_slice = [1], c_idx = [0], c_slice = [32], d_idx = [0], d_slice = [1], h_idx = [0], h_slice = [32], w_idx = [0], w_slice = [32], id = 0, stage = 0, slice_idx = 0, group_type = 0>, is_idx_weight = false, lmem_type = 1 : i64, support_compress = true, use_3ic_optimize = 0 : i64} : (tensor<1x32x32x32xf16, 687195013120 : i64>) -> tensor<1x32x32x32xf16> loc(#loc55)
        %114 = "tpu.Load"(%22) {do_bcast = false, ginfo = #tpu.lg<out_addr = 40960, out_size = 18, buffer_addr = 0, buffer_size = 0, eu_align = false, can_merge = false, in_hslice_offset = [], n_idx = [0], n_slice = [1], c_idx = [0], c_slice = [32], d_idx = [0], d_slice = [1], h_idx = [0], h_slice = [3], w_idx = [0], w_slice = [3], id = 1, stage = 0, slice_idx = 0, group_type = 0>, is_idx_weight = false, lmem_type = 0 : i64, support_compress = true, use_3ic_optimize = 0 : i64} : (tensor<1x32x3x3xf16, 618475347968 : i64>) -> tensor<1x32x3x3xf16> loc(#loc56)
        %115 = "tpu.Load"(%23) {do_bcast = false, ginfo = #tpu.lg<out_addr = 57344, out_size = 2, buffer_addr = 0, buffer_size = 0, eu_align = false, can_merge = false, in_hslice_offset = [], n_idx = [0], n_slice = [1], c_idx = [0], c_slice = [32], d_idx = [0], d_slice = [1], h_idx = [0], h_slice = [1], w_idx = [0], w_slice = [1], id = 2, stage = 0, slice_idx = 0, group_type = 0>, is_idx_weight = false, lmem_type = 0 : i64, support_compress = true, use_3ic_optimize = 0 : i64} : (tensor<1x32x1x1xf16, 618475352064 : i64>) -> tensor<1x32x1x1xf16> loc(#loc57)
        %116 = "tpu.Load"(%25) {do_bcast = false, ginfo = #tpu.lg<out_addr = 20480, out_size = 128, buffer_addr = 0, buffer_size = 0, eu_align = false, can_merge = false, in_hslice_offset = [], n_idx = [0], n_slice = [1], c_idx = [0], c_slice = [36], d_idx = [0], d_slice = [1], h_idx = [0], h_slice = [1], w_idx = [0], w_slice = [32], id = 3, stage = 1, slice_idx = 0, group_type = 0>, is_idx_weight = false, lmem_type = 0 : i64, support_compress = true, use_3ic_optimize = 0 : i64} : (tensor<1x36x1x32xf16, 618475360256 : i64>) -> tensor<1x36x1x32xf16> loc(#loc58)
        %117 = "tpu.Load"(%24) {do_bcast = false, ginfo = #tpu.lg<out_addr = 49152, out_size = 8, buffer_addr = 0, buffer_size = 0, eu_align = false, can_merge = false, in_hslice_offset = [], n_idx = [0], n_slice = [1], c_idx = [0], c_slice = [36], d_idx = [0], d_slice = [1], h_idx = [0], h_slice = [1], w_idx = [0], w_slice = [1], id = 4, stage = 1, slice_idx = 0, group_type = 0>, is_idx_weight = false, lmem_type = 0 : i64, support_compress = true, use_3ic_optimize = 0 : i64} : (tensor<1x36x1x1xf32, 618475356160 : i64>) -> tensor<1x36x1x1xf32> loc(#loc59)
        %118 = "tpu.Conv2D"(%113, %114, %115) {coeff_merged = false, dilations = [1, 1], do_relu = false, dynweight_reorderd = false, ginfo = #tpu.lg<out_addr = 24576, out_size = 2048, buffer_addr = 0, buffer_size = 6157, eu_align = true, can_merge = false, in_hslice_offset = [], n_idx = [0], n_slice = [1], c_idx = [0], c_slice = [32], d_idx = [0], d_slice = [1], h_idx = [0], h_slice = [32], w_idx = [0], w_slice = [32], id = 5, stage = 1, slice_idx = 0, group_type = 0>, group = 32 : i64, kernel_shape = [3, 3], kernel_zp = 0 : i64, pads = [1, 1, 1, 1], quant_mode = #tpu<rq_mode MultiplierShift>, relu_limit = -1.000000e+00 : f64, round_mode = #tpu<round_mode HalfUp>, strides = [1, 1], support_compress = true, use_3ic_optimize = 0 : i64, weight_is_coeff = 1 : i64, with_bias = true} : (tensor<1x32x32x32xf16>, tensor<1x32x3x3xf16>, tensor<1x32x1x1xf16>) -> tensor<1x32x32x32xf16> loc(#loc60)
        %119 = "tpu.Load"(%21) {do_bcast = false, ginfo = #tpu.lg<out_addr = 8192, out_size = 4096, buffer_addr = 0, buffer_size = 0, eu_align = true, can_merge = false, in_hslice_offset = [], n_idx = [0], n_slice = [1], c_idx = [0], c_slice = [36], d_idx = [0], d_slice = [1], h_idx = [0], h_slice = [32], w_idx = [0], w_slice = [32], id = 6, stage = 1, slice_idx = 0, group_type = 0>, is_idx_weight = false, lmem_type = 1 : i64, support_compress = true, use_3ic_optimize = 0 : i64} : (tensor<1x36x32x32xf16, 687194767360 : i64>) -> tensor<1x36x32x32xf16> loc(#loc61)
        %120 = "tpu.Conv2D"(%118, %116, %117) {coeff_merged = false, dilations = [1, 1], do_relu = false, dynweight_reorderd = false, ginfo = #tpu.lg<out_addr = 0, out_size = 4096, buffer_addr = 0, buffer_size = 0, eu_align = true, can_merge = false, in_hslice_offset = [], n_idx = [0], n_slice = [1], c_idx = [0], c_slice = [36], d_idx = [0], d_slice = [1], h_idx = [0], h_slice = [32], w_idx = [0], w_slice = [32], id = 7, stage = 1, slice_idx = 0, group_type = 0>, group = 1 : i64, kernel_shape = [1, 1], kernel_zp = 0 : i64, multicore = true, pads = [0, 0, 0, 0], quant_mode = #tpu<rq_mode MultiplierShift>, relu_limit = -1.000000e+00 : f64, round_mode = #tpu<round_mode HalfUp>, strides = [1, 1], support_compress = true, use_3ic_optimize = 0 : i64, weight_is_coeff = 1 : i64, with_bias = true} : (tensor<1x32x32x32xf16>, tensor<1x36x1x32xf16>, tensor<1x36x1x1xf32>) -> tensor<1x36x32x32xf16> loc(#loc62)
        %121 = "tpu.Add"(%120, %119) {do_relu = true, ginfo = #tpu.lg<out_addr = 16384, out_size = 4096, buffer_addr = 0, buffer_size = 0, eu_align = true, can_merge = false, in_hslice_offset = [], n_idx = [0], n_slice = [1], c_idx = [0], c_slice = [36], d_idx = [0], d_slice = [1], h_idx = [0], h_slice = [32], w_idx = [0], w_slice = [32], id = 8, stage = 1, slice_idx = 0, group_type = 0>, is_scalar = false, relu_limit = -1.000000e+00 : f64} : (tensor<1x36x32x32xf16>, tensor<1x36x32x32xf16>) -> tensor<1x36x32x32xf16> loc(#loc54)
        %122 = "tpu.Store"(%121, %0) {ginfo = #tpu.lg<out_addr = 16384, out_size = 4096, buffer_addr = 0, buffer_size = 0, eu_align = true, can_merge = false, in_hslice_offset = [], n_idx = [0], n_slice = [1], c_idx = [0], c_slice = [36], d_idx = [0], d_slice = [1], h_idx = [0], h_slice = [32], w_idx = [0], w_slice = [32], id = 9, stage = 2, slice_idx = 0, group_type = 0>, support_compress = true} : (tensor<1x36x32x32xf16>, none) -> tensor<1x36x32x32xf16, 687194939392 : i64> loc(#loc54)
        "tpu.Yield"(%122) : (tensor<1x36x32x32xf16, 687194939392 : i64>) -> () loc(#loc54)
      }) {core_slice_ncdhw = [], csecs = 1 : i64, dsecs = 1 : i64, flow = [-1, 5, 3, 4, 9, -2, 7, 6, -3, 8, 0, 1, 2], group_type = 0 : i64, hsecs = 1 : i64, nsecs = 1 : i64, other_down_overlap_op = [], other_up_overlap_op = [], run_core_id = [], self_down_overlap_op = [], self_up_overlap_op = [], support_compress = true, swpipl_stage_num = 3 : i64, wsecs = 1 : i64} : (tensor<1x32x32x32xf16, 687195013120 : i64>, tensor<1x36x32x32xf16, 687194767360 : i64>) -> tensor<1x36x32x32xf16, 687194939392 : i64> loc(#loc54)
      %27 = "tpu.Pad"(%26, %0, %0, %0, %0) {mode = #tpu<Pad_Mode constant>, paddings = [0, 0, 0, 0, 0, 6, 0, 0], val = 0.000000e+00 : f64, with_insert_zero = false} : (tensor<1x36x32x32xf16, 687194939392 : i64>, none, none, none, none) -> tensor<1x42x32x32xf16, 687194853376 : i64> loc(#loc63)
      %28 = "top.Weight"() : () -> tensor<1x36x3x3xf16, 618475364352 : i64> loc(#loc64)
      %29 = "top.Weight"() : () -> tensor<1x36x1x1xf16, 618475368448 : i64> loc(#loc65)
      %30 = "top.Weight"() : () -> tensor<1x42x1x1xf32, 618475372544 : i64> loc(#loc66)
      %31 = "top.Weight"() : () -> tensor<1x42x1x48xf16, 618475376640 : i64> loc(#loc67)
      %32:2 = "tpu.Group"(%26, %27) ({
        %113 = "tpu.Load"(%26) {do_bcast = false, ginfo = #tpu.lg<out_addr = 0, out_size = 4096, buffer_addr = 0, buffer_size = 0, eu_align = true, can_merge = false, in_hslice_offset = [], n_idx = [0], n_slice = [1], c_idx = [0], c_slice = [36], d_idx = [0], d_slice = [1], h_idx = [0], h_slice = [32], w_idx = [0], w_slice = [32], id = 0, stage = 0, slice_idx = 0, group_type = 0>, is_idx_weight = false, lmem_type = 1 : i64, support_compress = true, use_3ic_optimize = 0 : i64} : (tensor<1x36x32x32xf16, 687194939392 : i64>) -> tensor<1x36x32x32xf16> loc(#loc70)
        %114 = "tpu.Load"(%28) {do_bcast = false, ginfo = #tpu.lg<out_addr = 24576, out_size = 36, buffer_addr = 0, buffer_size = 0, eu_align = false, can_merge = false, in_hslice_offset = [], n_idx = [0], n_slice = [1], c_idx = [0], c_slice = [36], d_idx = [0], d_slice = [1], h_idx = [0], h_slice = [3], w_idx = [0], w_slice = [3], id = 1, stage = 0, slice_idx = 0, group_type = 0>, is_idx_weight = false, lmem_type = 0 : i64, support_compress = true, use_3ic_optimize = 0 : i64} : (tensor<1x36x3x3xf16, 618475364352 : i64>) -> tensor<1x36x3x3xf16> loc(#loc71)
        %115 = "tpu.Load"(%29) {do_bcast = false, ginfo = #tpu.lg<out_addr = 65536, out_size = 4, buffer_addr = 0, buffer_size = 0, eu_align = false, can_merge = false, in_hslice_offset = [], n_idx = [0], n_slice = [1], c_idx = [0], c_slice = [36], d_idx = [0], d_slice = [1], h_idx = [0], h_slice = [1], w_idx = [0], w_slice = [1], id = 2, stage = 0, slice_idx = 0, group_type = 0>, is_idx_weight = false, lmem_type = 0 : i64, support_compress = true, use_3ic_optimize = 0 : i64} : (tensor<1x36x1x1xf16, 618475368448 : i64>) -> tensor<1x36x1x1xf16> loc(#loc72)
        %116 = "tpu.Load"(%31) {do_bcast = false, ginfo = #tpu.lg<out_addr = 32768, out_size = 192, buffer_addr = 0, buffer_size = 0, eu_align = false, can_merge = false, in_hslice_offset = [], n_idx = [0], n_slice = [1], c_idx = [0], c_slice = [42], d_idx = [0], d_slice = [1], h_idx = [0], h_slice = [1], w_idx = [0], w_slice = [48], id = 3, stage = 1, slice_idx = 0, group_type = 0>, is_idx_weight = false, lmem_type = 0 : i64, support_compress = true, use_3ic_optimize = 0 : i64} : (tensor<1x42x1x48xf16, 618475376640 : i64>) -> tensor<1x42x1x48xf16> loc(#loc73)
        %117 = "tpu.Load"(%30) {do_bcast = false, ginfo = #tpu.lg<out_addr = 40960, out_size = 8, buffer_addr = 0, buffer_size = 0, eu_align = false, can_merge = false, in_hslice_offset = [], n_idx = [0], n_slice = [1], c_idx = [0], c_slice = [42], d_idx = [0], d_slice = [1], h_idx = [0], h_slice = [1], w_idx = [0], w_slice = [1], id = 4, stage = 1, slice_idx = 0, group_type = 0>, is_idx_weight = false, lmem_type = 0 : i64, support_compress = true, use_3ic_optimize = 0 : i64} : (tensor<1x42x1x1xf32, 618475372544 : i64>) -> tensor<1x42x1x1xf32> loc(#loc74)
        %118 = "tpu.Conv2D"(%113, %114, %115) {coeff_merged = false, dilations = [1, 1], do_relu = false, dynweight_reorderd = false, ginfo = #tpu.lg<out_addr = 8192, out_size = 4096, buffer_addr = 49152, buffer_size = 10262, eu_align = true, can_merge = false, in_hslice_offset = [], n_idx = [0], n_slice = [1], c_idx = [0], c_slice = [36], d_idx = [0], d_slice = [1], h_idx = [0], h_slice = [32], w_idx = [0], w_slice = [32], id = 5, stage = 1, slice_idx = 0, group_type = 0>, group = 36 : i64, kernel_shape = [3, 3], kernel_zp = 0 : i64, pads = [1, 1, 1, 1], quant_mode = #tpu<rq_mode MultiplierShift>, relu_limit = -1.000000e+00 : f64, round_mode = #tpu<round_mode HalfUp>, strides = [1, 1], support_compress = true, use_3ic_optimize = 0 : i64, weight_is_coeff = 1 : i64, with_bias = true} : (tensor<1x36x32x32xf16>, tensor<1x36x3x3xf16>, tensor<1x36x1x1xf16>) -> tensor<1x36x32x32xf16> loc(#loc75)
        %119 = "tpu.Load"(%27) {do_bcast = false, ginfo = #tpu.lg<out_addr = 24576, out_size = 4096, buffer_addr = 0, buffer_size = 0, eu_align = true, can_merge = false, in_hslice_offset = [], n_idx = [0], n_slice = [1], c_idx = [0], c_slice = [42], d_idx = [0], d_slice = [1], h_idx = [0], h_slice = [32], w_idx = [0], w_slice = [32], id = 6, stage = 1, slice_idx = 0, group_type = 0>, is_idx_weight = false, lmem_type = 1 : i64, support_compress = true, use_3ic_optimize = 0 : i64} : (tensor<1x42x32x32xf16, 687194853376 : i64>) -> tensor<1x42x32x32xf16> loc(#loc76)
        %120 = "tpu.Conv2D"(%118, %116, %117) {coeff_merged = false, dilations = [1, 1], do_relu = false, dynweight_reorderd = false, ginfo = #tpu.lg<out_addr = 16384, out_size = 4096, buffer_addr = 0, buffer_size = 0, eu_align = true, can_merge = false, in_hslice_offset = [], n_idx = [0], n_slice = [1], c_idx = [0], c_slice = [42], d_idx = [0], d_slice = [1], h_idx = [0], h_slice = [32], w_idx = [0], w_slice = [32], id = 7, stage = 1, slice_idx = 0, group_type = 0>, group = 1 : i64, kernel_shape = [1, 1], kernel_zp = 0 : i64, multicore = true, pads = [0, 0, 0, 0], quant_mode = #tpu<rq_mode MultiplierShift>, relu_limit = -1.000000e+00 : f64, round_mode = #tpu<round_mode HalfUp>, strides = [1, 1], support_compress = true, use_3ic_optimize = 0 : i64, weight_is_coeff = 1 : i64, with_bias = true} : (tensor<1x36x32x32xf16>, tensor<1x42x1x48xf16>, tensor<1x42x1x1xf32>) -> tensor<1x42x32x32xf16> loc(#loc77)
        %121 = "tpu.Add"(%120, %119) {do_relu = true, ginfo = #tpu.lg<out_addr = 8192, out_size = 4096, buffer_addr = 0, buffer_size = 0, eu_align = true, can_merge = false, in_hslice_offset = [], n_idx = [0], n_slice = [1], c_idx = [0], c_slice = [42], d_idx = [0], d_slice = [1], h_idx = [0], h_slice = [32], w_idx = [0], w_slice = [32], id = 8, stage = 1, slice_idx = 0, group_type = 0>, is_scalar = false, relu_limit = -1.000000e+00 : f64} : (tensor<1x42x32x32xf16>, tensor<1x42x32x32xf16>) -> tensor<1x42x32x32xf16> loc(#loc68)
        %122 = "tpu.Store"(%121, %0) {ginfo = #tpu.lg<out_addr = 8192, out_size = 4096, buffer_addr = 0, buffer_size = 0, eu_align = true, can_merge = false, in_hslice_offset = [], n_idx = [0], n_slice = [1], c_idx = [0], c_slice = [42], d_idx = [0], d_slice = [1], h_idx = [0], h_slice = [32], w_idx = [0], w_slice = [32], id = 9, stage = 1, slice_idx = 0, group_type = 0>, support_compress = true} : (tensor<1x42x32x32xf16>, none) -> tensor<1x42x32x32xf16, 687194767360 : i64> loc(#loc68)
        %123 = "tpu.Pool2D"(%121) {count_include_pad = false, do_relu = false, first_round_mode = #tpu<round_mode HalfAwayFromZero>, ginfo = #tpu.lg<out_addr = 16384, out_size = 1024, buffer_addr = 0, buffer_size = 0, eu_align = true, can_merge = false, in_hslice_offset = [], n_idx = [0], n_slice = [1], c_idx = [0], c_slice = [42], d_idx = [0], d_slice = [1], h_idx = [0], h_slice = [16], w_idx = [0], w_slice = [16], id = 10, stage = 1, slice_idx = 0, group_type = 0>, is_adaptive = false, keepdims = true, kernel_shape = [2, 2], pad_value = 0 : i64, pads = [0, 0, 0, 0], pool_mode = #tpu<pool_mode Max>, relu_limit = -1.000000e+00 : f64, round_mode = #tpu<round_mode HalfAwayFromZero>, strides = [2, 2]} : (tensor<1x42x32x32xf16>) -> tensor<1x42x16x16xf16> loc(#loc69)
        %124 = "tpu.Store"(%123, %0) {ginfo = #tpu.lg<out_addr = 16384, out_size = 1024, buffer_addr = 0, buffer_size = 0, eu_align = true, can_merge = false, in_hslice_offset = [], n_idx = [0], n_slice = [1], c_idx = [0], c_slice = [42], d_idx = [0], d_slice = [1], h_idx = [0], h_slice = [16], w_idx = [0], w_slice = [16], id = 11, stage = 2, slice_idx = 0, group_type = 0>, support_compress = true} : (tensor<1x42x16x16xf16>, none) -> tensor<1x42x16x16xf16, 687195013120 : i64> loc(#loc69)
        "tpu.Yield"(%122, %124) : (tensor<1x42x32x32xf16, 687194767360 : i64>, tensor<1x42x16x16xf16, 687195013120 : i64>) -> () loc(#loc250)
      }) {core_slice_ncdhw = [], csecs = 1 : i64, dsecs = 1 : i64, flow = [-1, 5, 3, 4, 11, -2, 7, 6, -3, 8, 0, -4, 10, 9, 1, 2], group_type = 0 : i64, hsecs = 1 : i64, nsecs = 1 : i64, other_down_overlap_op = [], other_up_overlap_op = [], run_core_id = [], self_down_overlap_op = [], self_up_overlap_op = [], support_compress = true, swpipl_stage_num = 3 : i64, wsecs = 1 : i64} : (tensor<1x36x32x32xf16, 687194939392 : i64>, tensor<1x42x32x32xf16, 687194853376 : i64>) -> (tensor<1x42x32x32xf16, 687194767360 : i64>, tensor<1x42x16x16xf16, 687195013120 : i64>) loc(#loc250)
      %33 = "tpu.Pad"(%32#1, %0, %0, %0, %0) {mode = #tpu<Pad_Mode constant>, paddings = [0, 0, 0, 0, 0, 6, 0, 0], val = 0.000000e+00 : f64, with_insert_zero = false} : (tensor<1x42x16x16xf16, 687195013120 : i64>, none, none, none, none) -> tensor<1x48x16x16xf16, 687194877952 : i64> loc(#loc78)
      %34 = "top.Weight"() : () -> tensor<1x42x3x3xf16, 618475380736 : i64> loc(#loc79)
      %35 = "top.Weight"() : () -> tensor<1x42x1x1xf16, 618475384832 : i64> loc(#loc80)
      %36 = "top.Weight"() : () -> tensor<1x48x1x1xf32, 618475388928 : i64> loc(#loc81)
      %37 = "top.Weight"() : () -> tensor<1x48x1x48xf16, 618475393024 : i64> loc(#loc82)
      %38 = "tpu.Group"(%32#0, %33) ({
        %113 = "tpu.Load"(%32#0) {do_bcast = false, ginfo = #tpu.lg<out_addr = 0, out_size = 4096, buffer_addr = 0, buffer_size = 0, eu_align = true, can_merge = false, in_hslice_offset = [], n_idx = [0], n_slice = [1], c_idx = [0], c_slice = [42], d_idx = [0], d_slice = [1], h_idx = [0], h_slice = [32], w_idx = [0], w_slice = [32], id = 0, stage = 0, slice_idx = 0, group_type = 0>, is_idx_weight = false, lmem_type = 1 : i64, support_compress = true, use_3ic_optimize = 0 : i64} : (tensor<1x42x32x32xf16, 687194767360 : i64>) -> tensor<1x42x32x32xf16> loc(#loc84)
        %114 = "tpu.Load"(%34) {do_bcast = false, ginfo = #tpu.lg<out_addr = 40960, out_size = 36, buffer_addr = 0, buffer_size = 0, eu_align = false, can_merge = false, in_hslice_offset = [], n_idx = [0], n_slice = [1], c_idx = [0], c_slice = [42], d_idx = [0], d_slice = [1], h_idx = [0], h_slice = [3], w_idx = [0], w_slice = [3], id = 1, stage = 0, slice_idx = 0, group_type = 0>, is_idx_weight = false, lmem_type = 0 : i64, support_compress = true, use_3ic_optimize = 0 : i64} : (tensor<1x42x3x3xf16, 618475380736 : i64>) -> tensor<1x42x3x3xf16> loc(#loc85)
        %115 = "tpu.Load"(%35) {do_bcast = false, ginfo = #tpu.lg<out_addr = 57344, out_size = 4, buffer_addr = 0, buffer_size = 0, eu_align = false, can_merge = false, in_hslice_offset = [], n_idx = [0], n_slice = [1], c_idx = [0], c_slice = [42], d_idx = [0], d_slice = [1], h_idx = [0], h_slice = [1], w_idx = [0], w_slice = [1], id = 2, stage = 0, slice_idx = 0, group_type = 0>, is_idx_weight = false, lmem_type = 0 : i64, support_compress = true, use_3ic_optimize = 0 : i64} : (tensor<1x42x1x1xf16, 618475384832 : i64>) -> tensor<1x42x1x1xf16> loc(#loc86)
        %116 = "tpu.Load"(%37) {do_bcast = false, ginfo = #tpu.lg<out_addr = 33792, out_size = 192, buffer_addr = 0, buffer_size = 0, eu_align = false, can_merge = false, in_hslice_offset = [], n_idx = [0], n_slice = [1], c_idx = [0], c_slice = [48], d_idx = [0], d_slice = [1], h_idx = [0], h_slice = [1], w_idx = [0], w_slice = [48], id = 3, stage = 1, slice_idx = 0, group_type = 0>, is_idx_weight = false, lmem_type = 0 : i64, support_compress = true, use_3ic_optimize = 0 : i64} : (tensor<1x48x1x48xf16, 618475393024 : i64>) -> tensor<1x48x1x48xf16> loc(#loc87)
        %117 = "tpu.Load"(%36) {do_bcast = false, ginfo = #tpu.lg<out_addr = 49152, out_size = 8, buffer_addr = 0, buffer_size = 0, eu_align = false, can_merge = false, in_hslice_offset = [], n_idx = [0], n_slice = [1], c_idx = [0], c_slice = [48], d_idx = [0], d_slice = [1], h_idx = [0], h_slice = [1], w_idx = [0], w_slice = [1], id = 4, stage = 1, slice_idx = 0, group_type = 0>, is_idx_weight = false, lmem_type = 0 : i64, support_compress = true, use_3ic_optimize = 0 : i64} : (tensor<1x48x1x1xf32, 618475388928 : i64>) -> tensor<1x48x1x1xf32> loc(#loc88)
        %118 = "tpu.Conv2D"(%113, %114, %115) {coeff_merged = false, dilations = [1, 1], do_relu = false, dynweight_reorderd = false, ginfo = #tpu.lg<out_addr = 8192, out_size = 1024, buffer_addr = 16384, buffer_size = 4118, eu_align = true, can_merge = false, in_hslice_offset = [], n_idx = [0], n_slice = [1], c_idx = [0], c_slice = [42], d_idx = [0], d_slice = [1], h_idx = [0], h_slice = [16], w_idx = [0], w_slice = [16], id = 5, stage = 1, slice_idx = 0, group_type = 0>, group = 42 : i64, kernel_shape = [3, 3], kernel_zp = 0 : i64, pads = [0, 0, 2, 2], quant_mode = #tpu<rq_mode MultiplierShift>, relu_limit = -1.000000e+00 : f64, round_mode = #tpu<round_mode HalfUp>, strides = [2, 2], support_compress = true, use_3ic_optimize = 0 : i64, weight_is_coeff = 1 : i64, with_bias = true} : (tensor<1x42x32x32xf16>, tensor<1x42x3x3xf16>, tensor<1x42x1x1xf16>) -> tensor<1x42x16x16xf16> loc(#loc89)
        %119 = "tpu.Load"(%33) {do_bcast = false, ginfo = #tpu.lg<out_addr = 24576, out_size = 1024, buffer_addr = 0, buffer_size = 0, eu_align = true, can_merge = false, in_hslice_offset = [], n_idx = [0], n_slice = [1], c_idx = [0], c_slice = [48], d_idx = [0], d_slice = [1], h_idx = [0], h_slice = [16], w_idx = [0], w_slice = [16], id = 6, stage = 1, slice_idx = 0, group_type = 0>, is_idx_weight = false, lmem_type = 1 : i64, support_compress = true, use_3ic_optimize = 0 : i64} : (tensor<1x48x16x16xf16, 687194877952 : i64>) -> tensor<1x48x16x16xf16> loc(#loc90)
        %120 = "tpu.Conv2D"(%118, %116, %117) {coeff_merged = false, dilations = [1, 1], do_relu = false, dynweight_reorderd = false, ginfo = #tpu.lg<out_addr = 16384, out_size = 1024, buffer_addr = 0, buffer_size = 0, eu_align = true, can_merge = false, in_hslice_offset = [], n_idx = [0], n_slice = [1], c_idx = [0], c_slice = [48], d_idx = [0], d_slice = [1], h_idx = [0], h_slice = [16], w_idx = [0], w_slice = [16], id = 7, stage = 1, slice_idx = 0, group_type = 0>, group = 1 : i64, kernel_shape = [1, 1], kernel_zp = 0 : i64, multicore = true, pads = [0, 0, 0, 0], quant_mode = #tpu<rq_mode MultiplierShift>, relu_limit = -1.000000e+00 : f64, round_mode = #tpu<round_mode HalfUp>, strides = [1, 1], support_compress = true, use_3ic_optimize = 0 : i64, weight_is_coeff = 1 : i64, with_bias = true} : (tensor<1x42x16x16xf16>, tensor<1x48x1x48xf16>, tensor<1x48x1x1xf32>) -> tensor<1x48x16x16xf16> loc(#loc91)
        %121 = "tpu.Add"(%120, %119) {do_relu = true, ginfo = #tpu.lg<out_addr = 32768, out_size = 1024, buffer_addr = 0, buffer_size = 0, eu_align = true, can_merge = false, in_hslice_offset = [], n_idx = [0], n_slice = [1], c_idx = [0], c_slice = [48], d_idx = [0], d_slice = [1], h_idx = [0], h_slice = [16], w_idx = [0], w_slice = [16], id = 8, stage = 1, slice_idx = 0, group_type = 0>, is_scalar = false, relu_limit = -1.000000e+00 : f64} : (tensor<1x48x16x16xf16>, tensor<1x48x16x16xf16>) -> tensor<1x48x16x16xf16> loc(#loc83)
        %122 = "tpu.Store"(%121, %0) {ginfo = #tpu.lg<out_addr = 32768, out_size = 1024, buffer_addr = 0, buffer_size = 0, eu_align = true, can_merge = false, in_hslice_offset = [], n_idx = [0], n_slice = [1], c_idx = [0], c_slice = [48], d_idx = [0], d_slice = [1], h_idx = [0], h_slice = [16], w_idx = [0], w_slice = [16], id = 9, stage = 2, slice_idx = 0, group_type = 0>, support_compress = true} : (tensor<1x48x16x16xf16>, none) -> tensor<1x48x16x16xf16, 687194853376 : i64> loc(#loc83)
        "tpu.Yield"(%122) : (tensor<1x48x16x16xf16, 687194853376 : i64>) -> () loc(#loc83)
      }) {core_slice_ncdhw = [], csecs = 1 : i64, dsecs = 1 : i64, flow = [-1, 5, 3, 4, 9, -2, 7, 6, -3, 8, 0, 1, 2], group_type = 0 : i64, hsecs = 1 : i64, nsecs = 1 : i64, other_down_overlap_op = [], other_up_overlap_op = [], run_core_id = [], self_down_overlap_op = [], self_up_overlap_op = [], support_compress = true, swpipl_stage_num = 3 : i64, wsecs = 1 : i64} : (tensor<1x42x32x32xf16, 687194767360 : i64>, tensor<1x48x16x16xf16, 687194877952 : i64>) -> tensor<1x48x16x16xf16, 687194853376 : i64> loc(#loc83)
      %39 = "tpu.Pad"(%38, %0, %0, %0, %0) {mode = #tpu<Pad_Mode constant>, paddings = [0, 0, 0, 0, 0, 8, 0, 0], val = 0.000000e+00 : f64, with_insert_zero = false} : (tensor<1x48x16x16xf16, 687194853376 : i64>, none, none, none, none) -> tensor<1x56x16x16xf16, 687194767360 : i64> loc(#loc92)
      %40 = "top.Weight"() : () -> tensor<1x48x3x3xf16, 618475401216 : i64> loc(#loc93)
      %41 = "top.Weight"() : () -> tensor<1x48x1x1xf16, 618475405312 : i64> loc(#loc94)
      %42 = "top.Weight"() : () -> tensor<1x56x1x1xf32, 618475409408 : i64> loc(#loc95)
      %43 = "top.Weight"() : () -> tensor<1x56x1x48xf16, 618475413504 : i64> loc(#loc96)
      %44 = "tpu.Group"(%38, %39) ({
        %113 = "tpu.Load"(%38) {do_bcast = false, ginfo = #tpu.lg<out_addr = 24576, out_size = 1024, buffer_addr = 0, buffer_size = 0, eu_align = true, can_merge = false, in_hslice_offset = [], n_idx = [0], n_slice = [1], c_idx = [0], c_slice = [48], d_idx = [0], d_slice = [1], h_idx = [0], h_slice = [16], w_idx = [0], w_slice = [16], id = 0, stage = 0, slice_idx = 0, group_type = 0>, is_idx_weight = false, lmem_type = 1 : i64, support_compress = true, use_3ic_optimize = 0 : i64} : (tensor<1x48x16x16xf16, 687194853376 : i64>) -> tensor<1x48x16x16xf16> loc(#loc98)
        %114 = "tpu.Load"(%40) {do_bcast = false, ginfo = #tpu.lg<out_addr = 40960, out_size = 36, buffer_addr = 0, buffer_size = 0, eu_align = false, can_merge = false, in_hslice_offset = [], n_idx = [0], n_slice = [1], c_idx = [0], c_slice = [48], d_idx = [0], d_slice = [1], h_idx = [0], h_slice = [3], w_idx = [0], w_slice = [3], id = 1, stage = 0, slice_idx = 0, group_type = 0>, is_idx_weight = false, lmem_type = 0 : i64, support_compress = true, use_3ic_optimize = 0 : i64} : (tensor<1x48x3x3xf16, 618475401216 : i64>) -> tensor<1x48x3x3xf16> loc(#loc99)
        %115 = "tpu.Load"(%41) {do_bcast = false, ginfo = #tpu.lg<out_addr = 57344, out_size = 4, buffer_addr = 0, buffer_size = 0, eu_align = false, can_merge = false, in_hslice_offset = [], n_idx = [0], n_slice = [1], c_idx = [0], c_slice = [48], d_idx = [0], d_slice = [1], h_idx = [0], h_slice = [1], w_idx = [0], w_slice = [1], id = 2, stage = 0, slice_idx = 0, group_type = 0>, is_idx_weight = false, lmem_type = 0 : i64, support_compress = true, use_3ic_optimize = 0 : i64} : (tensor<1x48x1x1xf16, 618475405312 : i64>) -> tensor<1x48x1x1xf16> loc(#loc100)
        %116 = "tpu.Load"(%43) {do_bcast = false, ginfo = #tpu.lg<out_addr = 33792, out_size = 192, buffer_addr = 0, buffer_size = 0, eu_align = false, can_merge = false, in_hslice_offset = [], n_idx = [0], n_slice = [1], c_idx = [0], c_slice = [56], d_idx = [0], d_slice = [1], h_idx = [0], h_slice = [1], w_idx = [0], w_slice = [48], id = 3, stage = 1, slice_idx = 0, group_type = 0>, is_idx_weight = false, lmem_type = 0 : i64, support_compress = true, use_3ic_optimize = 0 : i64} : (tensor<1x56x1x48xf16, 618475413504 : i64>) -> tensor<1x56x1x48xf16> loc(#loc101)
        %117 = "tpu.Load"(%42) {do_bcast = false, ginfo = #tpu.lg<out_addr = 49152, out_size = 8, buffer_addr = 0, buffer_size = 0, eu_align = false, can_merge = false, in_hslice_offset = [], n_idx = [0], n_slice = [1], c_idx = [0], c_slice = [56], d_idx = [0], d_slice = [1], h_idx = [0], h_slice = [1], w_idx = [0], w_slice = [1], id = 4, stage = 1, slice_idx = 0, group_type = 0>, is_idx_weight = false, lmem_type = 0 : i64, support_compress = true, use_3ic_optimize = 0 : i64} : (tensor<1x56x1x1xf32, 618475409408 : i64>) -> tensor<1x56x1x1xf32> loc(#loc102)
        %118 = "tpu.Conv2D"(%113, %114, %115) {coeff_merged = false, dilations = [1, 1], do_relu = false, dynweight_reorderd = false, ginfo = #tpu.lg<out_addr = 0, out_size = 1024, buffer_addr = 8192, buffer_size = 2582, eu_align = true, can_merge = false, in_hslice_offset = [], n_idx = [0], n_slice = [1], c_idx = [0], c_slice = [48], d_idx = [0], d_slice = [1], h_idx = [0], h_slice = [16], w_idx = [0], w_slice = [16], id = 5, stage = 1, slice_idx = 0, group_type = 0>, group = 48 : i64, kernel_shape = [3, 3], kernel_zp = 0 : i64, pads = [1, 1, 1, 1], quant_mode = #tpu<rq_mode MultiplierShift>, relu_limit = -1.000000e+00 : f64, round_mode = #tpu<round_mode HalfUp>, strides = [1, 1], support_compress = true, use_3ic_optimize = 0 : i64, weight_is_coeff = 1 : i64, with_bias = true} : (tensor<1x48x16x16xf16>, tensor<1x48x3x3xf16>, tensor<1x48x1x1xf16>) -> tensor<1x48x16x16xf16> loc(#loc103)
        %119 = "tpu.Load"(%39) {do_bcast = false, ginfo = #tpu.lg<out_addr = 16384, out_size = 1024, buffer_addr = 0, buffer_size = 0, eu_align = true, can_merge = false, in_hslice_offset = [], n_idx = [0], n_slice = [1], c_idx = [0], c_slice = [56], d_idx = [0], d_slice = [1], h_idx = [0], h_slice = [16], w_idx = [0], w_slice = [16], id = 6, stage = 1, slice_idx = 0, group_type = 0>, is_idx_weight = false, lmem_type = 1 : i64, support_compress = true, use_3ic_optimize = 0 : i64} : (tensor<1x56x16x16xf16, 687194767360 : i64>) -> tensor<1x56x16x16xf16> loc(#loc104)
        %120 = "tpu.Conv2D"(%118, %116, %117) {coeff_merged = false, dilations = [1, 1], do_relu = false, dynweight_reorderd = false, ginfo = #tpu.lg<out_addr = 8192, out_size = 1024, buffer_addr = 0, buffer_size = 0, eu_align = true, can_merge = false, in_hslice_offset = [], n_idx = [0], n_slice = [1], c_idx = [0], c_slice = [56], d_idx = [0], d_slice = [1], h_idx = [0], h_slice = [16], w_idx = [0], w_slice = [16], id = 7, stage = 1, slice_idx = 0, group_type = 0>, group = 1 : i64, kernel_shape = [1, 1], kernel_zp = 0 : i64, multicore = true, pads = [0, 0, 0, 0], quant_mode = #tpu<rq_mode MultiplierShift>, relu_limit = -1.000000e+00 : f64, round_mode = #tpu<round_mode HalfUp>, strides = [1, 1], support_compress = true, use_3ic_optimize = 0 : i64, weight_is_coeff = 1 : i64, with_bias = true} : (tensor<1x48x16x16xf16>, tensor<1x56x1x48xf16>, tensor<1x56x1x1xf32>) -> tensor<1x56x16x16xf16> loc(#loc105)
        %121 = "tpu.Add"(%120, %119) {do_relu = true, ginfo = #tpu.lg<out_addr = 32768, out_size = 1024, buffer_addr = 0, buffer_size = 0, eu_align = true, can_merge = false, in_hslice_offset = [], n_idx = [0], n_slice = [1], c_idx = [0], c_slice = [56], d_idx = [0], d_slice = [1], h_idx = [0], h_slice = [16], w_idx = [0], w_slice = [16], id = 8, stage = 1, slice_idx = 0, group_type = 0>, is_scalar = false, relu_limit = -1.000000e+00 : f64} : (tensor<1x56x16x16xf16>, tensor<1x56x16x16xf16>) -> tensor<1x56x16x16xf16> loc(#loc97)
        %122 = "tpu.Store"(%121, %0) {ginfo = #tpu.lg<out_addr = 32768, out_size = 1024, buffer_addr = 0, buffer_size = 0, eu_align = true, can_merge = false, in_hslice_offset = [], n_idx = [0], n_slice = [1], c_idx = [0], c_slice = [56], d_idx = [0], d_slice = [1], h_idx = [0], h_slice = [16], w_idx = [0], w_slice = [16], id = 9, stage = 2, slice_idx = 0, group_type = 0>, support_compress = true} : (tensor<1x56x16x16xf16>, none) -> tensor<1x56x16x16xf16, 687194800128 : i64> loc(#loc97)
        "tpu.Yield"(%122) : (tensor<1x56x16x16xf16, 687194800128 : i64>) -> () loc(#loc97)
      }) {core_slice_ncdhw = [], csecs = 1 : i64, dsecs = 1 : i64, flow = [-1, 5, 3, 4, 9, -2, 7, 6, -3, 8, 0, 1, 2], group_type = 0 : i64, hsecs = 1 : i64, nsecs = 1 : i64, other_down_overlap_op = [], other_up_overlap_op = [], run_core_id = [], self_down_overlap_op = [], self_up_overlap_op = [], support_compress = true, swpipl_stage_num = 3 : i64, wsecs = 1 : i64} : (tensor<1x48x16x16xf16, 687194853376 : i64>, tensor<1x56x16x16xf16, 687194767360 : i64>) -> tensor<1x56x16x16xf16, 687194800128 : i64> loc(#loc97)
      %45 = "tpu.Pad"(%44, %0, %0, %0, %0) {mode = #tpu<Pad_Mode constant>, paddings = [0, 0, 0, 0, 0, 8, 0, 0], val = 0.000000e+00 : f64, with_insert_zero = false} : (tensor<1x56x16x16xf16, 687194800128 : i64>, none, none, none, none) -> tensor<1x64x16x16xf16, 687194767360 : i64> loc(#loc106)
      %46 = "top.Weight"() : () -> tensor<1x56x3x3xf16, 618475421696 : i64> loc(#loc107)
      %47 = "top.Weight"() : () -> tensor<1x56x1x1xf16, 618475425792 : i64> loc(#loc108)
      %48 = "top.Weight"() : () -> tensor<1x64x1x1xf32, 618475429888 : i64> loc(#loc109)
      %49 = "top.Weight"() : () -> tensor<1x64x1x64xf16, 618475433984 : i64> loc(#loc110)
      %50 = "tpu.Group"(%44, %45) ({
        %113 = "tpu.Load"(%44) {do_bcast = false, ginfo = #tpu.lg<out_addr = 24576, out_size = 1024, buffer_addr = 0, buffer_size = 0, eu_align = true, can_merge = false, in_hslice_offset = [], n_idx = [0], n_slice = [1], c_idx = [0], c_slice = [56], d_idx = [0], d_slice = [1], h_idx = [0], h_slice = [16], w_idx = [0], w_slice = [16], id = 0, stage = 0, slice_idx = 0, group_type = 0>, is_idx_weight = false, lmem_type = 1 : i64, support_compress = true, use_3ic_optimize = 0 : i64} : (tensor<1x56x16x16xf16, 687194800128 : i64>) -> tensor<1x56x16x16xf16> loc(#loc112)
        %114 = "tpu.Load"(%46) {do_bcast = false, ginfo = #tpu.lg<out_addr = 40960, out_size = 36, buffer_addr = 0, buffer_size = 0, eu_align = false, can_merge = false, in_hslice_offset = [], n_idx = [0], n_slice = [1], c_idx = [0], c_slice = [56], d_idx = [0], d_slice = [1], h_idx = [0], h_slice = [3], w_idx = [0], w_slice = [3], id = 1, stage = 0, slice_idx = 0, group_type = 0>, is_idx_weight = false, lmem_type = 0 : i64, support_compress = true, use_3ic_optimize = 0 : i64} : (tensor<1x56x3x3xf16, 618475421696 : i64>) -> tensor<1x56x3x3xf16> loc(#loc113)
        %115 = "tpu.Load"(%47) {do_bcast = false, ginfo = #tpu.lg<out_addr = 57344, out_size = 4, buffer_addr = 0, buffer_size = 0, eu_align = false, can_merge = false, in_hslice_offset = [], n_idx = [0], n_slice = [1], c_idx = [0], c_slice = [56], d_idx = [0], d_slice = [1], h_idx = [0], h_slice = [1], w_idx = [0], w_slice = [1], id = 2, stage = 0, slice_idx = 0, group_type = 0>, is_idx_weight = false, lmem_type = 0 : i64, support_compress = true, use_3ic_optimize = 0 : i64} : (tensor<1x56x1x1xf16, 618475425792 : i64>) -> tensor<1x56x1x1xf16> loc(#loc114)
        %116 = "tpu.Load"(%49) {do_bcast = false, ginfo = #tpu.lg<out_addr = 33792, out_size = 256, buffer_addr = 0, buffer_size = 0, eu_align = false, can_merge = false, in_hslice_offset = [], n_idx = [0], n_slice = [1], c_idx = [0], c_slice = [64], d_idx = [0], d_slice = [1], h_idx = [0], h_slice = [1], w_idx = [0], w_slice = [64], id = 3, stage = 1, slice_idx = 0, group_type = 0>, is_idx_weight = false, lmem_type = 0 : i64, support_compress = true, use_3ic_optimize = 0 : i64} : (tensor<1x64x1x64xf16, 618475433984 : i64>) -> tensor<1x64x1x64xf16> loc(#loc115)
        %117 = "tpu.Load"(%48) {do_bcast = false, ginfo = #tpu.lg<out_addr = 49152, out_size = 8, buffer_addr = 0, buffer_size = 0, eu_align = false, can_merge = false, in_hslice_offset = [], n_idx = [0], n_slice = [1], c_idx = [0], c_slice = [64], d_idx = [0], d_slice = [1], h_idx = [0], h_slice = [1], w_idx = [0], w_slice = [1], id = 4, stage = 1, slice_idx = 0, group_type = 0>, is_idx_weight = false, lmem_type = 0 : i64, support_compress = true, use_3ic_optimize = 0 : i64} : (tensor<1x64x1x1xf32, 618475429888 : i64>) -> tensor<1x64x1x1xf32> loc(#loc116)
        %118 = "tpu.Conv2D"(%113, %114, %115) {coeff_merged = false, dilations = [1, 1], do_relu = false, dynweight_reorderd = false, ginfo = #tpu.lg<out_addr = 0, out_size = 1024, buffer_addr = 8192, buffer_size = 2582, eu_align = true, can_merge = false, in_hslice_offset = [], n_idx = [0], n_slice = [1], c_idx = [0], c_slice = [56], d_idx = [0], d_slice = [1], h_idx = [0], h_slice = [16], w_idx = [0], w_slice = [16], id = 5, stage = 1, slice_idx = 0, group_type = 0>, group = 56 : i64, kernel_shape = [3, 3], kernel_zp = 0 : i64, pads = [1, 1, 1, 1], quant_mode = #tpu<rq_mode MultiplierShift>, relu_limit = -1.000000e+00 : f64, round_mode = #tpu<round_mode HalfUp>, strides = [1, 1], support_compress = true, use_3ic_optimize = 0 : i64, weight_is_coeff = 1 : i64, with_bias = true} : (tensor<1x56x16x16xf16>, tensor<1x56x3x3xf16>, tensor<1x56x1x1xf16>) -> tensor<1x56x16x16xf16> loc(#loc117)
        %119 = "tpu.Load"(%45) {do_bcast = false, ginfo = #tpu.lg<out_addr = 16384, out_size = 1024, buffer_addr = 0, buffer_size = 0, eu_align = true, can_merge = false, in_hslice_offset = [], n_idx = [0], n_slice = [1], c_idx = [0], c_slice = [64], d_idx = [0], d_slice = [1], h_idx = [0], h_slice = [16], w_idx = [0], w_slice = [16], id = 6, stage = 1, slice_idx = 0, group_type = 0>, is_idx_weight = false, lmem_type = 1 : i64, support_compress = true, use_3ic_optimize = 0 : i64} : (tensor<1x64x16x16xf16, 687194767360 : i64>) -> tensor<1x64x16x16xf16> loc(#loc118)
        %120 = "tpu.Conv2D"(%118, %116, %117) {coeff_merged = false, dilations = [1, 1], do_relu = false, dynweight_reorderd = false, ginfo = #tpu.lg<out_addr = 8192, out_size = 1024, buffer_addr = 0, buffer_size = 0, eu_align = true, can_merge = false, in_hslice_offset = [], n_idx = [0], n_slice = [1], c_idx = [0], c_slice = [64], d_idx = [0], d_slice = [1], h_idx = [0], h_slice = [16], w_idx = [0], w_slice = [16], id = 7, stage = 1, slice_idx = 0, group_type = 0>, group = 1 : i64, kernel_shape = [1, 1], kernel_zp = 0 : i64, multicore = true, pads = [0, 0, 0, 0], quant_mode = #tpu<rq_mode MultiplierShift>, relu_limit = -1.000000e+00 : f64, round_mode = #tpu<round_mode HalfUp>, strides = [1, 1], support_compress = true, use_3ic_optimize = 0 : i64, weight_is_coeff = 1 : i64, with_bias = true} : (tensor<1x56x16x16xf16>, tensor<1x64x1x64xf16>, tensor<1x64x1x1xf32>) -> tensor<1x64x16x16xf16> loc(#loc119)
        %121 = "tpu.Add"(%120, %119) {do_relu = true, ginfo = #tpu.lg<out_addr = 32768, out_size = 1024, buffer_addr = 0, buffer_size = 0, eu_align = true, can_merge = false, in_hslice_offset = [], n_idx = [0], n_slice = [1], c_idx = [0], c_slice = [64], d_idx = [0], d_slice = [1], h_idx = [0], h_slice = [16], w_idx = [0], w_slice = [16], id = 8, stage = 1, slice_idx = 0, group_type = 0>, is_scalar = false, relu_limit = -1.000000e+00 : f64} : (tensor<1x64x16x16xf16>, tensor<1x64x16x16xf16>) -> tensor<1x64x16x16xf16> loc(#loc111)
        %122 = "tpu.Store"(%121, %0) {ginfo = #tpu.lg<out_addr = 32768, out_size = 1024, buffer_addr = 0, buffer_size = 0, eu_align = true, can_merge = false, in_hslice_offset = [], n_idx = [0], n_slice = [1], c_idx = [0], c_slice = [64], d_idx = [0], d_slice = [1], h_idx = [0], h_slice = [16], w_idx = [0], w_slice = [16], id = 9, stage = 2, slice_idx = 0, group_type = 0>, support_compress = true} : (tensor<1x64x16x16xf16>, none) -> tensor<1x64x16x16xf16, 687194845184 : i64> loc(#loc111)
        "tpu.Yield"(%122) : (tensor<1x64x16x16xf16, 687194845184 : i64>) -> () loc(#loc111)
      }) {core_slice_ncdhw = [], csecs = 1 : i64, dsecs = 1 : i64, flow = [-1, 5, 3, 4, 9, -2, 7, 6, -3, 8, 0, 1, 2], group_type = 0 : i64, hsecs = 1 : i64, nsecs = 1 : i64, other_down_overlap_op = [], other_up_overlap_op = [], run_core_id = [], self_down_overlap_op = [], self_up_overlap_op = [], support_compress = true, swpipl_stage_num = 3 : i64, wsecs = 1 : i64} : (tensor<1x56x16x16xf16, 687194800128 : i64>, tensor<1x64x16x16xf16, 687194767360 : i64>) -> tensor<1x64x16x16xf16, 687194845184 : i64> loc(#loc111)
      %51 = "tpu.Pad"(%50, %0, %0, %0, %0) {mode = #tpu<Pad_Mode constant>, paddings = [0, 0, 0, 0, 0, 8, 0, 0], val = 0.000000e+00 : f64, with_insert_zero = false} : (tensor<1x64x16x16xf16, 687194845184 : i64>, none, none, none, none) -> tensor<1x72x16x16xf16, 687194767360 : i64> loc(#loc120)
      %52 = "top.Weight"() : () -> tensor<1x64x3x3xf16, 618475442176 : i64> loc(#loc121)
      %53 = "top.Weight"() : () -> tensor<1x64x1x1xf16, 618475446272 : i64> loc(#loc122)
      %54 = "top.Weight"() : () -> tensor<1x72x1x1xf32, 618475450368 : i64> loc(#loc123)
      %55 = "top.Weight"() : () -> tensor<1x72x1x64xf16, 618475454464 : i64> loc(#loc124)
      %56 = "tpu.Group"(%50, %51) ({
        %113 = "tpu.Load"(%50) {do_bcast = false, ginfo = #tpu.lg<out_addr = 32768, out_size = 1024, buffer_addr = 0, buffer_size = 0, eu_align = true, can_merge = false, in_hslice_offset = [], n_idx = [0], n_slice = [1], c_idx = [0], c_slice = [64], d_idx = [0], d_slice = [1], h_idx = [0], h_slice = [16], w_idx = [0], w_slice = [16], id = 0, stage = 0, slice_idx = 0, group_type = 0>, is_idx_weight = false, lmem_type = 1 : i64, support_compress = true, use_3ic_optimize = 0 : i64} : (tensor<1x64x16x16xf16, 687194845184 : i64>) -> tensor<1x64x16x16xf16> loc(#loc126)
        %114 = "tpu.Load"(%52) {do_bcast = false, ginfo = #tpu.lg<out_addr = 40960, out_size = 36, buffer_addr = 0, buffer_size = 0, eu_align = false, can_merge = false, in_hslice_offset = [], n_idx = [0], n_slice = [1], c_idx = [0], c_slice = [64], d_idx = [0], d_slice = [1], h_idx = [0], h_slice = [3], w_idx = [0], w_slice = [3], id = 1, stage = 0, slice_idx = 0, group_type = 0>, is_idx_weight = false, lmem_type = 0 : i64, support_compress = true, use_3ic_optimize = 0 : i64} : (tensor<1x64x3x3xf16, 618475442176 : i64>) -> tensor<1x64x3x3xf16> loc(#loc127)
        %115 = "tpu.Load"(%53) {do_bcast = false, ginfo = #tpu.lg<out_addr = 57344, out_size = 4, buffer_addr = 0, buffer_size = 0, eu_align = false, can_merge = false, in_hslice_offset = [], n_idx = [0], n_slice = [1], c_idx = [0], c_slice = [64], d_idx = [0], d_slice = [1], h_idx = [0], h_slice = [1], w_idx = [0], w_slice = [1], id = 2, stage = 0, slice_idx = 0, group_type = 0>, is_idx_weight = false, lmem_type = 0 : i64, support_compress = true, use_3ic_optimize = 0 : i64} : (tensor<1x64x1x1xf16, 618475446272 : i64>) -> tensor<1x64x1x1xf16> loc(#loc128)
        %116 = "tpu.Load"(%55) {do_bcast = false, ginfo = #tpu.lg<out_addr = 17920, out_size = 384, buffer_addr = 0, buffer_size = 0, eu_align = false, can_merge = false, in_hslice_offset = [], n_idx = [0], n_slice = [1], c_idx = [0], c_slice = [72], d_idx = [0], d_slice = [1], h_idx = [0], h_slice = [1], w_idx = [0], w_slice = [64], id = 3, stage = 1, slice_idx = 0, group_type = 0>, is_idx_weight = false, lmem_type = 0 : i64, support_compress = true, use_3ic_optimize = 0 : i64} : (tensor<1x72x1x64xf16, 618475454464 : i64>) -> tensor<1x72x1x64xf16> loc(#loc129)
        %117 = "tpu.Load"(%54) {do_bcast = false, ginfo = #tpu.lg<out_addr = 49152, out_size = 12, buffer_addr = 0, buffer_size = 0, eu_align = false, can_merge = false, in_hslice_offset = [], n_idx = [0], n_slice = [1], c_idx = [0], c_slice = [72], d_idx = [0], d_slice = [1], h_idx = [0], h_slice = [1], w_idx = [0], w_slice = [1], id = 4, stage = 1, slice_idx = 0, group_type = 0>, is_idx_weight = false, lmem_type = 0 : i64, support_compress = true, use_3ic_optimize = 0 : i64} : (tensor<1x72x1x1xf32, 618475450368 : i64>) -> tensor<1x72x1x1xf32> loc(#loc130)
        %118 = "tpu.Conv2D"(%113, %114, %115) {coeff_merged = false, dilations = [1, 1], do_relu = false, dynweight_reorderd = false, ginfo = #tpu.lg<out_addr = 24576, out_size = 1024, buffer_addr = 0, buffer_size = 2582, eu_align = true, can_merge = false, in_hslice_offset = [], n_idx = [0], n_slice = [1], c_idx = [0], c_slice = [64], d_idx = [0], d_slice = [1], h_idx = [0], h_slice = [16], w_idx = [0], w_slice = [16], id = 5, stage = 1, slice_idx = 0, group_type = 0>, group = 64 : i64, kernel_shape = [3, 3], kernel_zp = 0 : i64, pads = [1, 1, 1, 1], quant_mode = #tpu<rq_mode MultiplierShift>, relu_limit = -1.000000e+00 : f64, round_mode = #tpu<round_mode HalfUp>, strides = [1, 1], support_compress = true, use_3ic_optimize = 0 : i64, weight_is_coeff = 1 : i64, with_bias = true} : (tensor<1x64x16x16xf16>, tensor<1x64x3x3xf16>, tensor<1x64x1x1xf16>) -> tensor<1x64x16x16xf16> loc(#loc131)
        %119 = "tpu.Load"(%51) {do_bcast = false, ginfo = #tpu.lg<out_addr = 8192, out_size = 1536, buffer_addr = 0, buffer_size = 0, eu_align = true, can_merge = false, in_hslice_offset = [], n_idx = [0], n_slice = [1], c_idx = [0], c_slice = [72], d_idx = [0], d_slice = [1], h_idx = [0], h_slice = [16], w_idx = [0], w_slice = [16], id = 6, stage = 1, slice_idx = 0, group_type = 0>, is_idx_weight = false, lmem_type = 1 : i64, support_compress = true, use_3ic_optimize = 0 : i64} : (tensor<1x72x16x16xf16, 687194767360 : i64>) -> tensor<1x72x16x16xf16> loc(#loc132)
        %120 = "tpu.Conv2D"(%118, %116, %117) {coeff_merged = false, dilations = [1, 1], do_relu = false, dynweight_reorderd = false, ginfo = #tpu.lg<out_addr = 0, out_size = 1536, buffer_addr = 0, buffer_size = 0, eu_align = true, can_merge = false, in_hslice_offset = [], n_idx = [0], n_slice = [1], c_idx = [0], c_slice = [72], d_idx = [0], d_slice = [1], h_idx = [0], h_slice = [16], w_idx = [0], w_slice = [16], id = 7, stage = 1, slice_idx = 0, group_type = 0>, group = 1 : i64, kernel_shape = [1, 1], kernel_zp = 0 : i64, multicore = true, pads = [0, 0, 0, 0], quant_mode = #tpu<rq_mode MultiplierShift>, relu_limit = -1.000000e+00 : f64, round_mode = #tpu<round_mode HalfUp>, strides = [1, 1], support_compress = true, use_3ic_optimize = 0 : i64, weight_is_coeff = 1 : i64, with_bias = true} : (tensor<1x64x16x16xf16>, tensor<1x72x1x64xf16>, tensor<1x72x1x1xf32>) -> tensor<1x72x16x16xf16> loc(#loc133)
        %121 = "tpu.Add"(%120, %119) {do_relu = true, ginfo = #tpu.lg<out_addr = 16384, out_size = 1536, buffer_addr = 0, buffer_size = 0, eu_align = true, can_merge = false, in_hslice_offset = [], n_idx = [0], n_slice = [1], c_idx = [0], c_slice = [72], d_idx = [0], d_slice = [1], h_idx = [0], h_slice = [16], w_idx = [0], w_slice = [16], id = 8, stage = 1, slice_idx = 0, group_type = 0>, is_scalar = false, relu_limit = -1.000000e+00 : f64} : (tensor<1x72x16x16xf16>, tensor<1x72x16x16xf16>) -> tensor<1x72x16x16xf16> loc(#loc125)
        %122 = "tpu.Store"(%121, %0) {ginfo = #tpu.lg<out_addr = 16384, out_size = 1536, buffer_addr = 0, buffer_size = 0, eu_align = true, can_merge = false, in_hslice_offset = [], n_idx = [0], n_slice = [1], c_idx = [0], c_slice = [72], d_idx = [0], d_slice = [1], h_idx = [0], h_slice = [16], w_idx = [0], w_slice = [16], id = 9, stage = 2, slice_idx = 0, group_type = 0>, support_compress = true} : (tensor<1x72x16x16xf16>, none) -> tensor<1x72x16x16xf16, 687194808320 : i64> loc(#loc125)
        "tpu.Yield"(%122) : (tensor<1x72x16x16xf16, 687194808320 : i64>) -> () loc(#loc125)
      }) {core_slice_ncdhw = [], csecs = 1 : i64, dsecs = 1 : i64, flow = [-1, 5, 3, 4, 9, -2, 7, 6, -3, 8, 0, 1, 2], group_type = 0 : i64, hsecs = 1 : i64, nsecs = 1 : i64, other_down_overlap_op = [], other_up_overlap_op = [], run_core_id = [], self_down_overlap_op = [], self_up_overlap_op = [], support_compress = true, swpipl_stage_num = 3 : i64, wsecs = 1 : i64} : (tensor<1x64x16x16xf16, 687194845184 : i64>, tensor<1x72x16x16xf16, 687194767360 : i64>) -> tensor<1x72x16x16xf16, 687194808320 : i64> loc(#loc125)
      %57 = "tpu.Pad"(%56, %0, %0, %0, %0) {mode = #tpu<Pad_Mode constant>, paddings = [0, 0, 0, 0, 0, 8, 0, 0], val = 0.000000e+00 : f64, with_insert_zero = false} : (tensor<1x72x16x16xf16, 687194808320 : i64>, none, none, none, none) -> tensor<1x80x16x16xf16, 687194767360 : i64> loc(#loc134)
      %58 = "top.Weight"() : () -> tensor<1x72x3x3xf16, 618475466752 : i64> loc(#loc135)
      %59 = "top.Weight"() : () -> tensor<1x72x1x1xf16, 618475470848 : i64> loc(#loc136)
      %60 = "top.Weight"() : () -> tensor<1x80x1x1xf32, 618475474944 : i64> loc(#loc137)
      %61 = "top.Weight"() : () -> tensor<1x80x1x80xf16, 618475479040 : i64> loc(#loc138)
      %62 = "tpu.Group"(%56, %57) ({
        %113 = "tpu.Load"(%56) {do_bcast = false, ginfo = #tpu.lg<out_addr = 32768, out_size = 1536, buffer_addr = 0, buffer_size = 0, eu_align = true, can_merge = false, in_hslice_offset = [], n_idx = [0], n_slice = [1], c_idx = [0], c_slice = [72], d_idx = [0], d_slice = [1], h_idx = [0], h_slice = [16], w_idx = [0], w_slice = [16], id = 0, stage = 0, slice_idx = 0, group_type = 0>, is_idx_weight = false, lmem_type = 1 : i64, support_compress = true, use_3ic_optimize = 0 : i64} : (tensor<1x72x16x16xf16, 687194808320 : i64>) -> tensor<1x72x16x16xf16> loc(#loc140)
        %114 = "tpu.Load"(%58) {do_bcast = false, ginfo = #tpu.lg<out_addr = 49152, out_size = 54, buffer_addr = 0, buffer_size = 0, eu_align = false, can_merge = false, in_hslice_offset = [], n_idx = [0], n_slice = [1], c_idx = [0], c_slice = [72], d_idx = [0], d_slice = [1], h_idx = [0], h_slice = [3], w_idx = [0], w_slice = [3], id = 1, stage = 0, slice_idx = 0, group_type = 0>, is_idx_weight = false, lmem_type = 0 : i64, support_compress = true, use_3ic_optimize = 0 : i64} : (tensor<1x72x3x3xf16, 618475466752 : i64>) -> tensor<1x72x3x3xf16> loc(#loc141)
        %115 = "tpu.Load"(%59) {do_bcast = false, ginfo = #tpu.lg<out_addr = 65536, out_size = 6, buffer_addr = 0, buffer_size = 0, eu_align = false, can_merge = false, in_hslice_offset = [], n_idx = [0], n_slice = [1], c_idx = [0], c_slice = [72], d_idx = [0], d_slice = [1], h_idx = [0], h_slice = [1], w_idx = [0], w_slice = [1], id = 2, stage = 0, slice_idx = 0, group_type = 0>, is_idx_weight = false, lmem_type = 0 : i64, support_compress = true, use_3ic_optimize = 0 : i64} : (tensor<1x72x1x1xf16, 618475470848 : i64>) -> tensor<1x72x1x1xf16> loc(#loc142)
        %116 = "tpu.Load"(%61) {do_bcast = false, ginfo = #tpu.lg<out_addr = 40960, out_size = 480, buffer_addr = 0, buffer_size = 0, eu_align = false, can_merge = false, in_hslice_offset = [], n_idx = [0], n_slice = [1], c_idx = [0], c_slice = [80], d_idx = [0], d_slice = [1], h_idx = [0], h_slice = [1], w_idx = [0], w_slice = [80], id = 3, stage = 1, slice_idx = 0, group_type = 0>, is_idx_weight = false, lmem_type = 0 : i64, support_compress = true, use_3ic_optimize = 0 : i64} : (tensor<1x80x1x80xf16, 618475479040 : i64>) -> tensor<1x80x1x80xf16> loc(#loc143)
        %117 = "tpu.Load"(%60) {do_bcast = false, ginfo = #tpu.lg<out_addr = 57344, out_size = 12, buffer_addr = 0, buffer_size = 0, eu_align = false, can_merge = false, in_hslice_offset = [], n_idx = [0], n_slice = [1], c_idx = [0], c_slice = [80], d_idx = [0], d_slice = [1], h_idx = [0], h_slice = [1], w_idx = [0], w_slice = [1], id = 4, stage = 1, slice_idx = 0, group_type = 0>, is_idx_weight = false, lmem_type = 0 : i64, support_compress = true, use_3ic_optimize = 0 : i64} : (tensor<1x80x1x1xf32, 618475474944 : i64>) -> tensor<1x80x1x1xf32> loc(#loc144)
        %118 = "tpu.Conv2D"(%113, %114, %115) {coeff_merged = false, dilations = [1, 1], do_relu = false, dynweight_reorderd = false, ginfo = #tpu.lg<out_addr = 8192, out_size = 1536, buffer_addr = 1536, buffer_size = 3615, eu_align = true, can_merge = false, in_hslice_offset = [], n_idx = [0], n_slice = [1], c_idx = [0], c_slice = [72], d_idx = [0], d_slice = [1], h_idx = [0], h_slice = [16], w_idx = [0], w_slice = [16], id = 5, stage = 1, slice_idx = 0, group_type = 0>, group = 72 : i64, kernel_shape = [3, 3], kernel_zp = 0 : i64, pads = [1, 1, 1, 1], quant_mode = #tpu<rq_mode MultiplierShift>, relu_limit = -1.000000e+00 : f64, round_mode = #tpu<round_mode HalfUp>, strides = [1, 1], support_compress = true, use_3ic_optimize = 0 : i64, weight_is_coeff = 1 : i64, with_bias = true} : (tensor<1x72x16x16xf16>, tensor<1x72x3x3xf16>, tensor<1x72x1x1xf16>) -> tensor<1x72x16x16xf16> loc(#loc145)
        %119 = "tpu.Load"(%57) {do_bcast = false, ginfo = #tpu.lg<out_addr = 24576, out_size = 1536, buffer_addr = 0, buffer_size = 0, eu_align = true, can_merge = false, in_hslice_offset = [], n_idx = [0], n_slice = [1], c_idx = [0], c_slice = [80], d_idx = [0], d_slice = [1], h_idx = [0], h_slice = [16], w_idx = [0], w_slice = [16], id = 6, stage = 1, slice_idx = 0, group_type = 0>, is_idx_weight = false, lmem_type = 1 : i64, support_compress = true, use_3ic_optimize = 0 : i64} : (tensor<1x80x16x16xf16, 687194767360 : i64>) -> tensor<1x80x16x16xf16> loc(#loc146)
        %120 = "tpu.Conv2D"(%118, %116, %117) {coeff_merged = false, dilations = [1, 1], do_relu = false, dynweight_reorderd = false, ginfo = #tpu.lg<out_addr = 16384, out_size = 1536, buffer_addr = 0, buffer_size = 0, eu_align = true, can_merge = false, in_hslice_offset = [], n_idx = [0], n_slice = [1], c_idx = [0], c_slice = [80], d_idx = [0], d_slice = [1], h_idx = [0], h_slice = [16], w_idx = [0], w_slice = [16], id = 7, stage = 1, slice_idx = 0, group_type = 0>, group = 1 : i64, kernel_shape = [1, 1], kernel_zp = 0 : i64, multicore = true, pads = [0, 0, 0, 0], quant_mode = #tpu<rq_mode MultiplierShift>, relu_limit = -1.000000e+00 : f64, round_mode = #tpu<round_mode HalfUp>, strides = [1, 1], support_compress = true, use_3ic_optimize = 0 : i64, weight_is_coeff = 1 : i64, with_bias = true} : (tensor<1x72x16x16xf16>, tensor<1x80x1x80xf16>, tensor<1x80x1x1xf32>) -> tensor<1x80x16x16xf16> loc(#loc147)
        %121 = "tpu.Add"(%120, %119) {do_relu = true, ginfo = #tpu.lg<out_addr = 0, out_size = 1536, buffer_addr = 0, buffer_size = 0, eu_align = true, can_merge = false, in_hslice_offset = [], n_idx = [0], n_slice = [1], c_idx = [0], c_slice = [80], d_idx = [0], d_slice = [1], h_idx = [0], h_slice = [16], w_idx = [0], w_slice = [16], id = 8, stage = 1, slice_idx = 0, group_type = 0>, is_scalar = false, relu_limit = -1.000000e+00 : f64} : (tensor<1x80x16x16xf16>, tensor<1x80x16x16xf16>) -> tensor<1x80x16x16xf16> loc(#loc139)
        %122 = "tpu.Store"(%121, %0) {ginfo = #tpu.lg<out_addr = 0, out_size = 1536, buffer_addr = 0, buffer_size = 0, eu_align = true, can_merge = false, in_hslice_offset = [], n_idx = [0], n_slice = [1], c_idx = [0], c_slice = [80], d_idx = [0], d_slice = [1], h_idx = [0], h_slice = [16], w_idx = [0], w_slice = [16], id = 9, stage = 2, slice_idx = 0, group_type = 0>, support_compress = true} : (tensor<1x80x16x16xf16>, none) -> tensor<1x80x16x16xf16, 687194857472 : i64> loc(#loc139)
        "tpu.Yield"(%122) : (tensor<1x80x16x16xf16, 687194857472 : i64>) -> () loc(#loc139)
      }) {core_slice_ncdhw = [], csecs = 1 : i64, dsecs = 1 : i64, flow = [-1, 5, 3, 4, -2, 7, 6, 9, -3, 8, 0, 1, 2], group_type = 0 : i64, hsecs = 1 : i64, nsecs = 1 : i64, other_down_overlap_op = [], other_up_overlap_op = [], run_core_id = [], self_down_overlap_op = [], self_up_overlap_op = [], support_compress = true, swpipl_stage_num = 3 : i64, wsecs = 1 : i64} : (tensor<1x72x16x16xf16, 687194808320 : i64>, tensor<1x80x16x16xf16, 687194767360 : i64>) -> tensor<1x80x16x16xf16, 687194857472 : i64> loc(#loc139)
      %63 = "tpu.Pad"(%62, %0, %0, %0, %0) {mode = #tpu<Pad_Mode constant>, paddings = [0, 0, 0, 0, 0, 8, 0, 0], val = 0.000000e+00 : f64, with_insert_zero = false} : (tensor<1x80x16x16xf16, 687194857472 : i64>, none, none, none, none) -> tensor<1x88x16x16xf16, 687194812416 : i64> loc(#loc148)
      %64 = "top.Weight"() : () -> tensor<1x80x3x3xf16, 618475495424 : i64> loc(#loc149)
      %65 = "top.Weight"() : () -> tensor<1x80x1x1xf16, 618475499520 : i64> loc(#loc150)
      %66 = "top.Weight"() : () -> tensor<1x88x1x1xf32, 618475503616 : i64> loc(#loc151)
      %67 = "top.Weight"() : () -> tensor<1x88x1x80xf16, 618475507712 : i64> loc(#loc152)
      %68:2 = "tpu.Group"(%62, %63) ({
        %113 = "tpu.Load"(%62) {do_bcast = false, ginfo = #tpu.lg<out_addr = 8192, out_size = 1536, buffer_addr = 0, buffer_size = 0, eu_align = true, can_merge = false, in_hslice_offset = [], n_idx = [0], n_slice = [1], c_idx = [0], c_slice = [80], d_idx = [0], d_slice = [1], h_idx = [0], h_slice = [16], w_idx = [0], w_slice = [16], id = 0, stage = 0, slice_idx = 0, group_type = 0>, is_idx_weight = false, lmem_type = 1 : i64, support_compress = true, use_3ic_optimize = 0 : i64} : (tensor<1x80x16x16xf16, 687194857472 : i64>) -> tensor<1x80x16x16xf16> loc(#loc155)
        %114 = "tpu.Load"(%64) {do_bcast = false, ginfo = #tpu.lg<out_addr = 16384, out_size = 54, buffer_addr = 0, buffer_size = 0, eu_align = false, can_merge = false, in_hslice_offset = [], n_idx = [0], n_slice = [1], c_idx = [0], c_slice = [80], d_idx = [0], d_slice = [1], h_idx = [0], h_slice = [3], w_idx = [0], w_slice = [3], id = 1, stage = 0, slice_idx = 0, group_type = 0>, is_idx_weight = false, lmem_type = 0 : i64, support_compress = true, use_3ic_optimize = 0 : i64} : (tensor<1x80x3x3xf16, 618475495424 : i64>) -> tensor<1x80x3x3xf16> loc(#loc156)
        %115 = "tpu.Load"(%65) {do_bcast = false, ginfo = #tpu.lg<out_addr = 49152, out_size = 6, buffer_addr = 0, buffer_size = 0, eu_align = false, can_merge = false, in_hslice_offset = [], n_idx = [0], n_slice = [1], c_idx = [0], c_slice = [80], d_idx = [0], d_slice = [1], h_idx = [0], h_slice = [1], w_idx = [0], w_slice = [1], id = 2, stage = 0, slice_idx = 0, group_type = 0>, is_idx_weight = false, lmem_type = 0 : i64, support_compress = true, use_3ic_optimize = 0 : i64} : (tensor<1x80x1x1xf16, 618475499520 : i64>) -> tensor<1x80x1x1xf16> loc(#loc157)
        %116 = "tpu.Load"(%67) {do_bcast = false, ginfo = #tpu.lg<out_addr = 24960, out_size = 480, buffer_addr = 0, buffer_size = 0, eu_align = false, can_merge = false, in_hslice_offset = [], n_idx = [0], n_slice = [1], c_idx = [0], c_slice = [88], d_idx = [0], d_slice = [1], h_idx = [0], h_slice = [1], w_idx = [0], w_slice = [80], id = 3, stage = 1, slice_idx = 0, group_type = 0>, is_idx_weight = false, lmem_type = 0 : i64, support_compress = true, use_3ic_optimize = 0 : i64} : (tensor<1x88x1x80xf16, 618475507712 : i64>) -> tensor<1x88x1x80xf16> loc(#loc158)
        %117 = "tpu.Load"(%66) {do_bcast = false, ginfo = #tpu.lg<out_addr = 32768, out_size = 12, buffer_addr = 0, buffer_size = 0, eu_align = false, can_merge = false, in_hslice_offset = [], n_idx = [0], n_slice = [1], c_idx = [0], c_slice = [88], d_idx = [0], d_slice = [1], h_idx = [0], h_slice = [1], w_idx = [0], w_slice = [1], id = 4, stage = 1, slice_idx = 0, group_type = 0>, is_idx_weight = false, lmem_type = 0 : i64, support_compress = true, use_3ic_optimize = 0 : i64} : (tensor<1x88x1x1xf32, 618475503616 : i64>) -> tensor<1x88x1x1xf32> loc(#loc159)
        %118 = "tpu.Conv2D"(%113, %114, %115) {coeff_merged = false, dilations = [1, 1], do_relu = false, dynweight_reorderd = false, ginfo = #tpu.lg<out_addr = 0, out_size = 1536, buffer_addr = 40960, buffer_size = 3615, eu_align = true, can_merge = false, in_hslice_offset = [], n_idx = [0], n_slice = [1], c_idx = [0], c_slice = [80], d_idx = [0], d_slice = [1], h_idx = [0], h_slice = [16], w_idx = [0], w_slice = [16], id = 5, stage = 1, slice_idx = 0, group_type = 0>, group = 80 : i64, kernel_shape = [3, 3], kernel_zp = 0 : i64, pads = [1, 1, 1, 1], quant_mode = #tpu<rq_mode MultiplierShift>, relu_limit = -1.000000e+00 : f64, round_mode = #tpu<round_mode HalfUp>, strides = [1, 1], support_compress = true, use_3ic_optimize = 0 : i64, weight_is_coeff = 1 : i64, with_bias = true} : (tensor<1x80x16x16xf16>, tensor<1x80x3x3xf16>, tensor<1x80x1x1xf16>) -> tensor<1x80x16x16xf16> loc(#loc160)
        %119 = "tpu.Load"(%63) {do_bcast = false, ginfo = #tpu.lg<out_addr = 16384, out_size = 1536, buffer_addr = 0, buffer_size = 0, eu_align = true, can_merge = false, in_hslice_offset = [], n_idx = [0], n_slice = [1], c_idx = [0], c_slice = [88], d_idx = [0], d_slice = [1], h_idx = [0], h_slice = [16], w_idx = [0], w_slice = [16], id = 6, stage = 1, slice_idx = 0, group_type = 0>, is_idx_weight = false, lmem_type = 1 : i64, support_compress = true, use_3ic_optimize = 0 : i64} : (tensor<1x88x16x16xf16, 687194812416 : i64>) -> tensor<1x88x16x16xf16> loc(#loc161)
        %120 = "tpu.Conv2D"(%118, %116, %117) {coeff_merged = false, dilations = [1, 1], do_relu = false, dynweight_reorderd = false, ginfo = #tpu.lg<out_addr = 8192, out_size = 1536, buffer_addr = 0, buffer_size = 0, eu_align = true, can_merge = false, in_hslice_offset = [], n_idx = [0], n_slice = [1], c_idx = [0], c_slice = [88], d_idx = [0], d_slice = [1], h_idx = [0], h_slice = [16], w_idx = [0], w_slice = [16], id = 7, stage = 1, slice_idx = 0, group_type = 0>, group = 1 : i64, kernel_shape = [1, 1], kernel_zp = 0 : i64, multicore = true, pads = [0, 0, 0, 0], quant_mode = #tpu<rq_mode MultiplierShift>, relu_limit = -1.000000e+00 : f64, round_mode = #tpu<round_mode HalfUp>, strides = [1, 1], support_compress = true, use_3ic_optimize = 0 : i64, weight_is_coeff = 1 : i64, with_bias = true} : (tensor<1x80x16x16xf16>, tensor<1x88x1x80xf16>, tensor<1x88x1x1xf32>) -> tensor<1x88x16x16xf16> loc(#loc162)
        %121 = "tpu.Add"(%120, %119) {do_relu = true, ginfo = #tpu.lg<out_addr = 0, out_size = 1536, buffer_addr = 0, buffer_size = 0, eu_align = true, can_merge = false, in_hslice_offset = [], n_idx = [0], n_slice = [1], c_idx = [0], c_slice = [88], d_idx = [0], d_slice = [1], h_idx = [0], h_slice = [16], w_idx = [0], w_slice = [16], id = 8, stage = 1, slice_idx = 0, group_type = 0>, is_scalar = false, relu_limit = -1.000000e+00 : f64} : (tensor<1x88x16x16xf16>, tensor<1x88x16x16xf16>) -> tensor<1x88x16x16xf16> loc(#loc153)
        %122 = "tpu.Store"(%121, %0) {ginfo = #tpu.lg<out_addr = 0, out_size = 1536, buffer_addr = 0, buffer_size = 0, eu_align = true, can_merge = false, in_hslice_offset = [], n_idx = [0], n_slice = [1], c_idx = [0], c_slice = [88], d_idx = [0], d_slice = [1], h_idx = [0], h_slice = [16], w_idx = [0], w_slice = [16], id = 9, stage = 1, slice_idx = 0, group_type = 0>, support_compress = true} : (tensor<1x88x16x16xf16>, none) -> tensor<1x88x16x16xf16, 687194767360 : i64> loc(#loc153)
        %123 = "tpu.Pool2D"(%121) {count_include_pad = false, do_relu = false, first_round_mode = #tpu<round_mode HalfAwayFromZero>, ginfo = #tpu.lg<out_addr = 24576, out_size = 384, buffer_addr = 0, buffer_size = 0, eu_align = true, can_merge = false, in_hslice_offset = [], n_idx = [0], n_slice = [1], c_idx = [0], c_slice = [88], d_idx = [0], d_slice = [1], h_idx = [0], h_slice = [8], w_idx = [0], w_slice = [8], id = 10, stage = 1, slice_idx = 0, group_type = 0>, is_adaptive = false, keepdims = true, kernel_shape = [2, 2], pad_value = 0 : i64, pads = [0, 0, 0, 0], pool_mode = #tpu<pool_mode Max>, relu_limit = -1.000000e+00 : f64, round_mode = #tpu<round_mode HalfAwayFromZero>, strides = [2, 2]} : (tensor<1x88x16x16xf16>) -> tensor<1x88x8x8xf16> loc(#loc154)
        %124 = "tpu.Store"(%123, %0) {ginfo = #tpu.lg<out_addr = 24576, out_size = 384, buffer_addr = 0, buffer_size = 0, eu_align = true, can_merge = false, in_hslice_offset = [], n_idx = [0], n_slice = [1], c_idx = [0], c_slice = [88], d_idx = [0], d_slice = [1], h_idx = [0], h_slice = [8], w_idx = [0], w_slice = [8], id = 11, stage = 2, slice_idx = 0, group_type = 0>, support_compress = true} : (tensor<1x88x8x8xf16>, none) -> tensor<1x88x8x8xf16, 687194898432 : i64> loc(#loc154)
        "tpu.Yield"(%122, %124) : (tensor<1x88x16x16xf16, 687194767360 : i64>, tensor<1x88x8x8xf16, 687194898432 : i64>) -> () loc(#loc251)
      }) {core_slice_ncdhw = [], csecs = 1 : i64, dsecs = 1 : i64, flow = [-1, 5, 3, 4, -2, 7, 6, -3, 8, 11, -4, 10, 9, 0, 1, 2], group_type = 0 : i64, hsecs = 1 : i64, nsecs = 1 : i64, other_down_overlap_op = [], other_up_overlap_op = [], run_core_id = [], self_down_overlap_op = [], self_up_overlap_op = [], support_compress = true, swpipl_stage_num = 3 : i64, wsecs = 1 : i64} : (tensor<1x80x16x16xf16, 687194857472 : i64>, tensor<1x88x16x16xf16, 687194812416 : i64>) -> (tensor<1x88x16x16xf16, 687194767360 : i64>, tensor<1x88x8x8xf16, 687194898432 : i64>) loc(#loc251)
      %69 = "tpu.Pad"(%68#1, %0, %0, %0, %0) {mode = #tpu<Pad_Mode constant>, paddings = [0, 0, 0, 0, 0, 8, 0, 0], val = 0.000000e+00 : f64, with_insert_zero = false} : (tensor<1x88x8x8xf16, 687194898432 : i64>, none, none, none, none) -> tensor<1x96x8x8xf16, 687194824704 : i64> loc(#loc163)
      %70 = "top.Weight"() : () -> tensor<1x88x3x3xf16, 618475524096 : i64> loc(#loc164)
      %71 = "top.Weight"() : () -> tensor<1x88x1x1xf16, 618475528192 : i64> loc(#loc165)
      %72 = "top.Weight"() : () -> tensor<1x96x1x1xf32, 618475532288 : i64> loc(#loc166)
      %73 = "top.Weight"() : () -> tensor<1x96x1x96xf16, 618475536384 : i64> loc(#loc167)
      %74 = "top.Weight"() : () -> tensor<1x96x3x3xf16, 618475556864 : i64> loc(#loc168)
      %75 = "top.Weight"() : () -> tensor<1x96x1x1xf16, 618475560960 : i64> loc(#loc169)
      %76 = "top.Weight"() : () -> tensor<1x96x1x1xf32, 618475565056 : i64> loc(#loc170)
      %77 = "top.Weight"() : () -> tensor<1x96x1x96xf16, 618475569152 : i64> loc(#loc171)
      %78 = "top.Weight"() : () -> tensor<1x96x3x3xf16, 618475589632 : i64> loc(#loc172)
      %79 = "top.Weight"() : () -> tensor<1x96x1x1xf16, 618475593728 : i64> loc(#loc173)
      %80 = "top.Weight"() : () -> tensor<1x96x1x1xf32, 618475597824 : i64> loc(#loc174)
      %81 = "top.Weight"() : () -> tensor<1x96x1x96xf16, 618475601920 : i64> loc(#loc175)
      %82 = "top.Weight"() : () -> tensor<1x96x3x3xf16, 618475622400 : i64> loc(#loc176)
      %83 = "top.Weight"() : () -> tensor<1x96x1x1xf16, 618475626496 : i64> loc(#loc177)
      %84 = "top.Weight"() : () -> tensor<1x96x1x1xf32, 618475630592 : i64> loc(#loc178)
      %85 = "top.Weight"() : () -> tensor<1x96x1x96xf16, 618475634688 : i64> loc(#loc179)
      %86 = "top.Weight"() : () -> tensor<1x96x3x3xf16, 618475655168 : i64> loc(#loc180)
      %87 = "top.Weight"() : () -> tensor<1x96x1x1xf16, 618475659264 : i64> loc(#loc181)
      %88 = "top.Weight"() : () -> tensor<1x96x1x1xf32, 618475663360 : i64> loc(#loc182)
      %89 = "top.Weight"() : () -> tensor<1x96x1x96xf16, 618475667456 : i64> loc(#loc183)
      %90 = "top.Weight"() : () -> tensor<1x2x1x1xf32, 618475687936 : i64> loc(#loc184)
      %91 = "top.Weight"() : () -> tensor<1x2x1x96xf16, 618475692032 : i64> loc(#loc185)
      %92:2 = "tpu.Group"(%68#0, %69) ({
        %113 = "tpu.Load"(%71) {do_bcast = false, ginfo = #tpu.lg<out_addr = 32960, out_size = 6, buffer_addr = 0, buffer_size = 0, eu_align = false, can_merge = false, in_hslice_offset = [], n_idx = [0], n_slice = [1], c_idx = [0], c_slice = [88], d_idx = [0], d_slice = [1], h_idx = [0], h_slice = [1], w_idx = [0], w_slice = [1], id = 0, stage = 0, slice_idx = 0, group_type = 0>, is_idx_weight = false, lmem_type = 0 : i64, support_compress = true, use_3ic_optimize = 0 : i64} : (tensor<1x88x1x1xf16, 618475528192 : i64>) -> tensor<1x88x1x1xf16> loc(#loc188)
        %114 = "tpu.Load"(%70) {do_bcast = false, ginfo = #tpu.lg<out_addr = 40960, out_size = 54, buffer_addr = 0, buffer_size = 0, eu_align = false, can_merge = false, in_hslice_offset = [], n_idx = [0], n_slice = [1], c_idx = [0], c_slice = [88], d_idx = [0], d_slice = [1], h_idx = [0], h_slice = [3], w_idx = [0], w_slice = [3], id = 1, stage = 0, slice_idx = 0, group_type = 0>, is_idx_weight = false, lmem_type = 0 : i64, support_compress = true, use_3ic_optimize = 0 : i64} : (tensor<1x88x3x3xf16, 618475524096 : i64>) -> tensor<1x88x3x3xf16> loc(#loc189)
        %115 = "tpu.Load"(%68#0) {do_bcast = false, ginfo = #tpu.lg<out_addr = 0, out_size = 1536, buffer_addr = 0, buffer_size = 0, eu_align = true, can_merge = false, in_hslice_offset = [], n_idx = [0], n_slice = [1], c_idx = [0], c_slice = [88], d_idx = [0], d_slice = [1], h_idx = [0], h_slice = [16], w_idx = [0], w_slice = [16], id = 2, stage = 0, slice_idx = 0, group_type = 0>, is_idx_weight = false, lmem_type = 1 : i64, support_compress = true, use_3ic_optimize = 0 : i64} : (tensor<1x88x16x16xf16, 687194767360 : i64>) -> tensor<1x88x16x16xf16> loc(#loc190)
        %116 = "tpu.Load"(%73) {do_bcast = false, ginfo = #tpu.lg<out_addr = 8704, out_size = 576, buffer_addr = 0, buffer_size = 0, eu_align = false, can_merge = false, in_hslice_offset = [], n_idx = [0], n_slice = [1], c_idx = [0], c_slice = [96], d_idx = [0], d_slice = [1], h_idx = [0], h_slice = [1], w_idx = [0], w_slice = [96], id = 3, stage = 1, slice_idx = 0, group_type = 0>, is_idx_weight = false, lmem_type = 0 : i64, support_compress = true, use_3ic_optimize = 0 : i64} : (tensor<1x96x1x96xf16, 618475536384 : i64>) -> tensor<1x96x1x96xf16> loc(#loc191)
        %117 = "tpu.Load"(%72) {do_bcast = false, ginfo = #tpu.lg<out_addr = 49152, out_size = 12, buffer_addr = 0, buffer_size = 0, eu_align = false, can_merge = false, in_hslice_offset = [], n_idx = [0], n_slice = [1], c_idx = [0], c_slice = [96], d_idx = [0], d_slice = [1], h_idx = [0], h_slice = [1], w_idx = [0], w_slice = [1], id = 4, stage = 1, slice_idx = 0, group_type = 0>, is_idx_weight = false, lmem_type = 0 : i64, support_compress = true, use_3ic_optimize = 0 : i64} : (tensor<1x96x1x1xf32, 618475532288 : i64>) -> tensor<1x96x1x1xf32> loc(#loc192)
        %118 = "tpu.Conv2D"(%115, %114, %113) {coeff_merged = false, dilations = [1, 1], do_relu = false, dynweight_reorderd = false, ginfo = #tpu.lg<out_addr = 16384, out_size = 384, buffer_addr = 24576, buffer_size = 1311, eu_align = true, can_merge = false, in_hslice_offset = [], n_idx = [0], n_slice = [1], c_idx = [0], c_slice = [88], d_idx = [0], d_slice = [1], h_idx = [0], h_slice = [8], w_idx = [0], w_slice = [8], id = 5, stage = 1, slice_idx = 0, group_type = 0>, group = 88 : i64, kernel_shape = [3, 3], kernel_zp = 0 : i64, pads = [0, 0, 2, 2], quant_mode = #tpu<rq_mode MultiplierShift>, relu_limit = -1.000000e+00 : f64, round_mode = #tpu<round_mode HalfUp>, strides = [2, 2], support_compress = true, use_3ic_optimize = 0 : i64, weight_is_coeff = 1 : i64, with_bias = true} : (tensor<1x88x16x16xf16>, tensor<1x88x3x3xf16>, tensor<1x88x1x1xf16>) -> tensor<1x88x8x8xf16> loc(#loc193)
        %119 = "tpu.Load"(%69) {do_bcast = false, ginfo = #tpu.lg<out_addr = 32768, out_size = 384, buffer_addr = 0, buffer_size = 0, eu_align = true, can_merge = false, in_hslice_offset = [], n_idx = [0], n_slice = [1], c_idx = [0], c_slice = [96], d_idx = [0], d_slice = [1], h_idx = [0], h_slice = [8], w_idx = [0], w_slice = [8], id = 6, stage = 1, slice_idx = 0, group_type = 0>, is_idx_weight = false, lmem_type = 1 : i64, support_compress = true, use_3ic_optimize = 0 : i64} : (tensor<1x96x8x8xf16, 687194824704 : i64>) -> tensor<1x96x8x8xf16> loc(#loc194)
        %120 = "tpu.Conv2D"(%118, %116, %117) {coeff_merged = false, dilations = [1, 1], do_relu = false, dynweight_reorderd = false, ginfo = #tpu.lg<out_addr = 24576, out_size = 384, buffer_addr = 0, buffer_size = 0, eu_align = true, can_merge = false, in_hslice_offset = [], n_idx = [0], n_slice = [1], c_idx = [0], c_slice = [96], d_idx = [0], d_slice = [1], h_idx = [0], h_slice = [8], w_idx = [0], w_slice = [8], id = 7, stage = 1, slice_idx = 0, group_type = 0>, group = 1 : i64, kernel_shape = [1, 1], kernel_zp = 0 : i64, multicore = true, pads = [0, 0, 0, 0], quant_mode = #tpu<rq_mode MultiplierShift>, relu_limit = -1.000000e+00 : f64, round_mode = #tpu<round_mode HalfUp>, strides = [1, 1], support_compress = true, use_3ic_optimize = 0 : i64, weight_is_coeff = 1 : i64, with_bias = true} : (tensor<1x88x8x8xf16>, tensor<1x96x1x96xf16>, tensor<1x96x1x1xf32>) -> tensor<1x96x8x8xf16> loc(#loc195)
        %121 = "tpu.Load"(%74) {do_bcast = false, ginfo = #tpu.lg<out_addr = 8704, out_size = 54, buffer_addr = 0, buffer_size = 0, eu_align = false, can_merge = false, in_hslice_offset = [], n_idx = [0], n_slice = [1], c_idx = [0], c_slice = [96], d_idx = [0], d_slice = [1], h_idx = [0], h_slice = [3], w_idx = [0], w_slice = [3], id = 8, stage = 1, slice_idx = 0, group_type = 0>, is_idx_weight = false, lmem_type = 0 : i64, support_compress = true, use_3ic_optimize = 0 : i64} : (tensor<1x96x3x3xf16, 618475556864 : i64>) -> tensor<1x96x3x3xf16> loc(#loc196)
        %122 = "tpu.Load"(%75) {do_bcast = false, ginfo = #tpu.lg<out_addr = 40960, out_size = 6, buffer_addr = 0, buffer_size = 0, eu_align = false, can_merge = false, in_hslice_offset = [], n_idx = [0], n_slice = [1], c_idx = [0], c_slice = [96], d_idx = [0], d_slice = [1], h_idx = [0], h_slice = [1], w_idx = [0], w_slice = [1], id = 9, stage = 1, slice_idx = 0, group_type = 0>, is_idx_weight = false, lmem_type = 0 : i64, support_compress = true, use_3ic_optimize = 0 : i64} : (tensor<1x96x1x1xf16, 618475560960 : i64>) -> tensor<1x96x1x1xf16> loc(#loc197)
        %123 = "tpu.Add"(%120, %119) {do_relu = true, ginfo = #tpu.lg<out_addr = 1536, out_size = 384, buffer_addr = 0, buffer_size = 0, eu_align = true, can_merge = false, in_hslice_offset = [], n_idx = [0], n_slice = [1], c_idx = [0], c_slice = [96], d_idx = [0], d_slice = [1], h_idx = [0], h_slice = [8], w_idx = [0], w_slice = [8], id = 10, stage = 1, slice_idx = 0, group_type = 0>, is_scalar = false, relu_limit = -1.000000e+00 : f64} : (tensor<1x96x8x8xf16>, tensor<1x96x8x8xf16>) -> tensor<1x96x8x8xf16> loc(#loc198)
        %124 = "tpu.Load"(%77) {do_bcast = false, ginfo = #tpu.lg<out_addr = 16384, out_size = 576, buffer_addr = 0, buffer_size = 0, eu_align = false, can_merge = false, in_hslice_offset = [], n_idx = [0], n_slice = [1], c_idx = [0], c_slice = [96], d_idx = [0], d_slice = [1], h_idx = [0], h_slice = [1], w_idx = [0], w_slice = [96], id = 11, stage = 1, slice_idx = 0, group_type = 0>, is_idx_weight = false, lmem_type = 0 : i64, support_compress = true, use_3ic_optimize = 0 : i64} : (tensor<1x96x1x96xf16, 618475569152 : i64>) -> tensor<1x96x1x96xf16> loc(#loc199)
        %125 = "tpu.Load"(%76) {do_bcast = false, ginfo = #tpu.lg<out_addr = 49152, out_size = 12, buffer_addr = 0, buffer_size = 0, eu_align = false, can_merge = false, in_hslice_offset = [], n_idx = [0], n_slice = [1], c_idx = [0], c_slice = [96], d_idx = [0], d_slice = [1], h_idx = [0], h_slice = [1], w_idx = [0], w_slice = [1], id = 12, stage = 1, slice_idx = 0, group_type = 0>, is_idx_weight = false, lmem_type = 0 : i64, support_compress = true, use_3ic_optimize = 0 : i64} : (tensor<1x96x1x1xf32, 618475565056 : i64>) -> tensor<1x96x1x1xf32> loc(#loc200)
        %126 = "tpu.Conv2D"(%123, %121, %122) {coeff_merged = false, dilations = [1, 1], do_relu = false, dynweight_reorderd = false, ginfo = #tpu.lg<out_addr = 32768, out_size = 384, buffer_addr = 24576, buffer_size = 927, eu_align = true, can_merge = false, in_hslice_offset = [], n_idx = [0], n_slice = [1], c_idx = [0], c_slice = [96], d_idx = [0], d_slice = [1], h_idx = [0], h_slice = [8], w_idx = [0], w_slice = [8], id = 13, stage = 1, slice_idx = 0, group_type = 0>, group = 96 : i64, kernel_shape = [3, 3], kernel_zp = 0 : i64, pads = [1, 1, 1, 1], quant_mode = #tpu<rq_mode MultiplierShift>, relu_limit = -1.000000e+00 : f64, round_mode = #tpu<round_mode HalfUp>, strides = [1, 1], support_compress = true, use_3ic_optimize = 0 : i64, weight_is_coeff = 1 : i64, with_bias = true} : (tensor<1x96x8x8xf16>, tensor<1x96x3x3xf16>, tensor<1x96x1x1xf16>) -> tensor<1x96x8x8xf16> loc(#loc201)
        %127 = "tpu.Load"(%79) {do_bcast = false, ginfo = #tpu.lg<out_addr = 57344, out_size = 6, buffer_addr = 0, buffer_size = 0, eu_align = false, can_merge = false, in_hslice_offset = [], n_idx = [0], n_slice = [1], c_idx = [0], c_slice = [96], d_idx = [0], d_slice = [1], h_idx = [0], h_slice = [1], w_idx = [0], w_slice = [1], id = 14, stage = 1, slice_idx = 0, group_type = 0>, is_idx_weight = false, lmem_type = 0 : i64, support_compress = true, use_3ic_optimize = 0 : i64} : (tensor<1x96x1x1xf16, 618475593728 : i64>) -> tensor<1x96x1x1xf16> loc(#loc202)
        %128 = "tpu.Load"(%78) {do_bcast = false, ginfo = #tpu.lg<out_addr = 40960, out_size = 54, buffer_addr = 0, buffer_size = 0, eu_align = false, can_merge = false, in_hslice_offset = [], n_idx = [0], n_slice = [1], c_idx = [0], c_slice = [96], d_idx = [0], d_slice = [1], h_idx = [0], h_slice = [3], w_idx = [0], w_slice = [3], id = 15, stage = 1, slice_idx = 0, group_type = 0>, is_idx_weight = false, lmem_type = 0 : i64, support_compress = true, use_3ic_optimize = 0 : i64} : (tensor<1x96x3x3xf16, 618475589632 : i64>) -> tensor<1x96x3x3xf16> loc(#loc203)
        %129 = "tpu.Conv2D"(%126, %124, %125) {coeff_merged = false, dilations = [1, 1], do_relu = false, dynweight_reorderd = false, ginfo = #tpu.lg<out_addr = 1920, out_size = 384, buffer_addr = 0, buffer_size = 0, eu_align = true, can_merge = false, in_hslice_offset = [], n_idx = [0], n_slice = [1], c_idx = [0], c_slice = [96], d_idx = [0], d_slice = [1], h_idx = [0], h_slice = [8], w_idx = [0], w_slice = [8], id = 16, stage = 1, slice_idx = 0, group_type = 0>, group = 1 : i64, kernel_shape = [1, 1], kernel_zp = 0 : i64, multicore = true, pads = [0, 0, 0, 0], quant_mode = #tpu<rq_mode MultiplierShift>, relu_limit = -1.000000e+00 : f64, round_mode = #tpu<round_mode HalfUp>, strides = [1, 1], support_compress = true, use_3ic_optimize = 0 : i64, weight_is_coeff = 1 : i64, with_bias = true} : (tensor<1x96x8x8xf16>, tensor<1x96x1x96xf16>, tensor<1x96x1x1xf32>) -> tensor<1x96x8x8xf16> loc(#loc204)
        %130 = "tpu.Add"(%129, %123) {do_relu = true, ginfo = #tpu.lg<out_addr = 24576, out_size = 384, buffer_addr = 0, buffer_size = 0, eu_align = true, can_merge = false, in_hslice_offset = [], n_idx = [0], n_slice = [1], c_idx = [0], c_slice = [96], d_idx = [0], d_slice = [1], h_idx = [0], h_slice = [8], w_idx = [0], w_slice = [8], id = 17, stage = 1, slice_idx = 0, group_type = 0>, is_scalar = false, relu_limit = -1.000000e+00 : f64} : (tensor<1x96x8x8xf16>, tensor<1x96x8x8xf16>) -> tensor<1x96x8x8xf16> loc(#loc205)
        %131 = "tpu.Load"(%81) {do_bcast = false, ginfo = #tpu.lg<out_addr = 1536, out_size = 576, buffer_addr = 0, buffer_size = 0, eu_align = false, can_merge = false, in_hslice_offset = [], n_idx = [0], n_slice = [1], c_idx = [0], c_slice = [96], d_idx = [0], d_slice = [1], h_idx = [0], h_slice = [1], w_idx = [0], w_slice = [96], id = 18, stage = 1, slice_idx = 0, group_type = 0>, is_idx_weight = false, lmem_type = 0 : i64, support_compress = true, use_3ic_optimize = 0 : i64} : (tensor<1x96x1x96xf16, 618475601920 : i64>) -> tensor<1x96x1x96xf16> loc(#loc206)
        %132 = "tpu.Load"(%80) {do_bcast = false, ginfo = #tpu.lg<out_addr = 49152, out_size = 12, buffer_addr = 0, buffer_size = 0, eu_align = false, can_merge = false, in_hslice_offset = [], n_idx = [0], n_slice = [1], c_idx = [0], c_slice = [96], d_idx = [0], d_slice = [1], h_idx = [0], h_slice = [1], w_idx = [0], w_slice = [1], id = 19, stage = 1, slice_idx = 0, group_type = 0>, is_idx_weight = false, lmem_type = 0 : i64, support_compress = true, use_3ic_optimize = 0 : i64} : (tensor<1x96x1x1xf32, 618475597824 : i64>) -> tensor<1x96x1x1xf32> loc(#loc207)
        %133 = "tpu.Conv2D"(%130, %128, %127) {coeff_merged = false, dilations = [1, 1], do_relu = false, dynweight_reorderd = false, ginfo = #tpu.lg<out_addr = 16384, out_size = 384, buffer_addr = 8192, buffer_size = 927, eu_align = true, can_merge = false, in_hslice_offset = [], n_idx = [0], n_slice = [1], c_idx = [0], c_slice = [96], d_idx = [0], d_slice = [1], h_idx = [0], h_slice = [8], w_idx = [0], w_slice = [8], id = 20, stage = 1, slice_idx = 0, group_type = 0>, group = 96 : i64, kernel_shape = [3, 3], kernel_zp = 0 : i64, pads = [1, 1, 1, 1], quant_mode = #tpu<rq_mode MultiplierShift>, relu_limit = -1.000000e+00 : f64, round_mode = #tpu<round_mode HalfUp>, strides = [1, 1], support_compress = true, use_3ic_optimize = 0 : i64, weight_is_coeff = 1 : i64, with_bias = true} : (tensor<1x96x8x8xf16>, tensor<1x96x3x3xf16>, tensor<1x96x1x1xf16>) -> tensor<1x96x8x8xf16> loc(#loc208)
        %134 = "tpu.Load"(%83) {do_bcast = false, ginfo = #tpu.lg<out_addr = 57344, out_size = 6, buffer_addr = 0, buffer_size = 0, eu_align = false, can_merge = false, in_hslice_offset = [], n_idx = [0], n_slice = [1], c_idx = [0], c_slice = [96], d_idx = [0], d_slice = [1], h_idx = [0], h_slice = [1], w_idx = [0], w_slice = [1], id = 21, stage = 1, slice_idx = 0, group_type = 0>, is_idx_weight = false, lmem_type = 0 : i64, support_compress = true, use_3ic_optimize = 0 : i64} : (tensor<1x96x1x1xf16, 618475626496 : i64>) -> tensor<1x96x1x1xf16> loc(#loc209)
        %135 = "tpu.Load"(%82) {do_bcast = false, ginfo = #tpu.lg<out_addr = 32768, out_size = 54, buffer_addr = 0, buffer_size = 0, eu_align = false, can_merge = false, in_hslice_offset = [], n_idx = [0], n_slice = [1], c_idx = [0], c_slice = [96], d_idx = [0], d_slice = [1], h_idx = [0], h_slice = [3], w_idx = [0], w_slice = [3], id = 22, stage = 1, slice_idx = 0, group_type = 0>, is_idx_weight = false, lmem_type = 0 : i64, support_compress = true, use_3ic_optimize = 0 : i64} : (tensor<1x96x3x3xf16, 618475622400 : i64>) -> tensor<1x96x3x3xf16> loc(#loc210)
        %136 = "tpu.Conv2D"(%133, %131, %132) {coeff_merged = false, dilations = [1, 1], do_relu = false, dynweight_reorderd = false, ginfo = #tpu.lg<out_addr = 8576, out_size = 384, buffer_addr = 0, buffer_size = 0, eu_align = true, can_merge = false, in_hslice_offset = [], n_idx = [0], n_slice = [1], c_idx = [0], c_slice = [96], d_idx = [0], d_slice = [1], h_idx = [0], h_slice = [8], w_idx = [0], w_slice = [8], id = 23, stage = 1, slice_idx = 0, group_type = 0>, group = 1 : i64, kernel_shape = [1, 1], kernel_zp = 0 : i64, multicore = true, pads = [0, 0, 0, 0], quant_mode = #tpu<rq_mode MultiplierShift>, relu_limit = -1.000000e+00 : f64, round_mode = #tpu<round_mode HalfUp>, strides = [1, 1], support_compress = true, use_3ic_optimize = 0 : i64, weight_is_coeff = 1 : i64, with_bias = true} : (tensor<1x96x8x8xf16>, tensor<1x96x1x96xf16>, tensor<1x96x1x1xf32>) -> tensor<1x96x8x8xf16> loc(#loc211)
        %137 = "tpu.Add"(%136, %130) {do_relu = true, ginfo = #tpu.lg<out_addr = 8192, out_size = 384, buffer_addr = 0, buffer_size = 0, eu_align = true, can_merge = false, in_hslice_offset = [], n_idx = [0], n_slice = [1], c_idx = [0], c_slice = [96], d_idx = [0], d_slice = [1], h_idx = [0], h_slice = [8], w_idx = [0], w_slice = [8], id = 24, stage = 1, slice_idx = 0, group_type = 0>, is_scalar = false, relu_limit = -1.000000e+00 : f64} : (tensor<1x96x8x8xf16>, tensor<1x96x8x8xf16>) -> tensor<1x96x8x8xf16> loc(#loc212)
        %138 = "tpu.Load"(%85) {do_bcast = false, ginfo = #tpu.lg<out_addr = 1536, out_size = 576, buffer_addr = 0, buffer_size = 0, eu_align = false, can_merge = false, in_hslice_offset = [], n_idx = [0], n_slice = [1], c_idx = [0], c_slice = [96], d_idx = [0], d_slice = [1], h_idx = [0], h_slice = [1], w_idx = [0], w_slice = [96], id = 25, stage = 1, slice_idx = 0, group_type = 0>, is_idx_weight = false, lmem_type = 0 : i64, support_compress = true, use_3ic_optimize = 0 : i64} : (tensor<1x96x1x96xf16, 618475634688 : i64>) -> tensor<1x96x1x96xf16> loc(#loc213)
        %139 = "tpu.Load"(%84) {do_bcast = false, ginfo = #tpu.lg<out_addr = 40960, out_size = 12, buffer_addr = 0, buffer_size = 0, eu_align = false, can_merge = false, in_hslice_offset = [], n_idx = [0], n_slice = [1], c_idx = [0], c_slice = [96], d_idx = [0], d_slice = [1], h_idx = [0], h_slice = [1], w_idx = [0], w_slice = [1], id = 26, stage = 1, slice_idx = 0, group_type = 0>, is_idx_weight = false, lmem_type = 0 : i64, support_compress = true, use_3ic_optimize = 0 : i64} : (tensor<1x96x1x1xf32, 618475630592 : i64>) -> tensor<1x96x1x1xf32> loc(#loc214)
        %140 = "tpu.Conv2D"(%137, %135, %134) {coeff_merged = false, dilations = [1, 1], do_relu = false, dynweight_reorderd = false, ginfo = #tpu.lg<out_addr = 24576, out_size = 384, buffer_addr = 16384, buffer_size = 927, eu_align = true, can_merge = false, in_hslice_offset = [], n_idx = [0], n_slice = [1], c_idx = [0], c_slice = [96], d_idx = [0], d_slice = [1], h_idx = [0], h_slice = [8], w_idx = [0], w_slice = [8], id = 27, stage = 1, slice_idx = 0, group_type = 0>, group = 96 : i64, kernel_shape = [3, 3], kernel_zp = 0 : i64, pads = [1, 1, 1, 1], quant_mode = #tpu<rq_mode MultiplierShift>, relu_limit = -1.000000e+00 : f64, round_mode = #tpu<round_mode HalfUp>, strides = [1, 1], support_compress = true, use_3ic_optimize = 0 : i64, weight_is_coeff = 1 : i64, with_bias = true} : (tensor<1x96x8x8xf16>, tensor<1x96x3x3xf16>, tensor<1x96x1x1xf16>) -> tensor<1x96x8x8xf16> loc(#loc215)
        %141 = "tpu.Load"(%87) {do_bcast = false, ginfo = #tpu.lg<out_addr = 49152, out_size = 6, buffer_addr = 0, buffer_size = 0, eu_align = false, can_merge = false, in_hslice_offset = [], n_idx = [0], n_slice = [1], c_idx = [0], c_slice = [96], d_idx = [0], d_slice = [1], h_idx = [0], h_slice = [1], w_idx = [0], w_slice = [1], id = 28, stage = 1, slice_idx = 0, group_type = 0>, is_idx_weight = false, lmem_type = 0 : i64, support_compress = true, use_3ic_optimize = 0 : i64} : (tensor<1x96x1x1xf16, 618475659264 : i64>) -> tensor<1x96x1x1xf16> loc(#loc216)
        %142 = "tpu.Load"(%86) {do_bcast = false, ginfo = #tpu.lg<out_addr = 32768, out_size = 54, buffer_addr = 0, buffer_size = 0, eu_align = false, can_merge = false, in_hslice_offset = [], n_idx = [0], n_slice = [1], c_idx = [0], c_slice = [96], d_idx = [0], d_slice = [1], h_idx = [0], h_slice = [3], w_idx = [0], w_slice = [3], id = 29, stage = 1, slice_idx = 0, group_type = 0>, is_idx_weight = false, lmem_type = 0 : i64, support_compress = true, use_3ic_optimize = 0 : i64} : (tensor<1x96x3x3xf16, 618475655168 : i64>) -> tensor<1x96x3x3xf16> loc(#loc217)
        %143 = "tpu.Conv2D"(%140, %138, %139) {coeff_merged = false, dilations = [1, 1], do_relu = false, dynweight_reorderd = false, ginfo = #tpu.lg<out_addr = 8576, out_size = 384, buffer_addr = 0, buffer_size = 0, eu_align = true, can_merge = false, in_hslice_offset = [], n_idx = [0], n_slice = [1], c_idx = [0], c_slice = [96], d_idx = [0], d_slice = [1], h_idx = [0], h_slice = [8], w_idx = [0], w_slice = [8], id = 30, stage = 1, slice_idx = 0, group_type = 0>, group = 1 : i64, kernel_shape = [1, 1], kernel_zp = 0 : i64, multicore = true, pads = [0, 0, 0, 0], quant_mode = #tpu<rq_mode MultiplierShift>, relu_limit = -1.000000e+00 : f64, round_mode = #tpu<round_mode HalfUp>, strides = [1, 1], support_compress = true, use_3ic_optimize = 0 : i64, weight_is_coeff = 1 : i64, with_bias = true} : (tensor<1x96x8x8xf16>, tensor<1x96x1x96xf16>, tensor<1x96x1x1xf32>) -> tensor<1x96x8x8xf16> loc(#loc218)
        %144 = "tpu.Add"(%143, %137) {do_relu = true, ginfo = #tpu.lg<out_addr = 16384, out_size = 384, buffer_addr = 0, buffer_size = 0, eu_align = true, can_merge = false, in_hslice_offset = [], n_idx = [0], n_slice = [1], c_idx = [0], c_slice = [96], d_idx = [0], d_slice = [1], h_idx = [0], h_slice = [8], w_idx = [0], w_slice = [8], id = 31, stage = 1, slice_idx = 0, group_type = 0>, is_scalar = false, relu_limit = -1.000000e+00 : f64} : (tensor<1x96x8x8xf16>, tensor<1x96x8x8xf16>) -> tensor<1x96x8x8xf16> loc(#loc219)
        %145 = "tpu.Load"(%89) {do_bcast = false, ginfo = #tpu.lg<out_addr = 1536, out_size = 576, buffer_addr = 0, buffer_size = 0, eu_align = false, can_merge = false, in_hslice_offset = [], n_idx = [0], n_slice = [1], c_idx = [0], c_slice = [96], d_idx = [0], d_slice = [1], h_idx = [0], h_slice = [1], w_idx = [0], w_slice = [96], id = 32, stage = 1, slice_idx = 0, group_type = 0>, is_idx_weight = false, lmem_type = 0 : i64, support_compress = true, use_3ic_optimize = 0 : i64} : (tensor<1x96x1x96xf16, 618475667456 : i64>) -> tensor<1x96x1x96xf16> loc(#loc220)
        %146 = "tpu.Load"(%88) {do_bcast = false, ginfo = #tpu.lg<out_addr = 40960, out_size = 12, buffer_addr = 0, buffer_size = 0, eu_align = false, can_merge = false, in_hslice_offset = [], n_idx = [0], n_slice = [1], c_idx = [0], c_slice = [96], d_idx = [0], d_slice = [1], h_idx = [0], h_slice = [1], w_idx = [0], w_slice = [1], id = 33, stage = 1, slice_idx = 0, group_type = 0>, is_idx_weight = false, lmem_type = 0 : i64, support_compress = true, use_3ic_optimize = 0 : i64} : (tensor<1x96x1x1xf32, 618475663360 : i64>) -> tensor<1x96x1x1xf32> loc(#loc221)
        %147 = "tpu.Conv2D"(%144, %142, %141) {coeff_merged = false, dilations = [1, 1], do_relu = false, dynweight_reorderd = false, ginfo = #tpu.lg<out_addr = 8192, out_size = 384, buffer_addr = 24576, buffer_size = 927, eu_align = true, can_merge = false, in_hslice_offset = [], n_idx = [0], n_slice = [1], c_idx = [0], c_slice = [96], d_idx = [0], d_slice = [1], h_idx = [0], h_slice = [8], w_idx = [0], w_slice = [8], id = 34, stage = 1, slice_idx = 0, group_type = 0>, group = 96 : i64, kernel_shape = [3, 3], kernel_zp = 0 : i64, pads = [1, 1, 1, 1], quant_mode = #tpu<rq_mode MultiplierShift>, relu_limit = -1.000000e+00 : f64, round_mode = #tpu<round_mode HalfUp>, strides = [1, 1], support_compress = true, use_3ic_optimize = 0 : i64, weight_is_coeff = 1 : i64, with_bias = true} : (tensor<1x96x8x8xf16>, tensor<1x96x3x3xf16>, tensor<1x96x1x1xf16>) -> tensor<1x96x8x8xf16> loc(#loc222)
        %148 = "tpu.Load"(%91) {do_bcast = false, ginfo = #tpu.lg<out_addr = 32768, out_size = 192, buffer_addr = 0, buffer_size = 0, eu_align = false, can_merge = false, in_hslice_offset = [], n_idx = [0], n_slice = [1], c_idx = [0], c_slice = [2], d_idx = [0], d_slice = [1], h_idx = [0], h_slice = [1], w_idx = [0], w_slice = [96], id = 35, stage = 1, slice_idx = 0, group_type = 0>, is_idx_weight = false, lmem_type = 0 : i64, support_compress = true, use_3ic_optimize = 0 : i64} : (tensor<1x2x1x96xf16, 618475692032 : i64>) -> tensor<1x2x1x96xf16> loc(#loc223)
        %149 = "tpu.Load"(%90) {do_bcast = false, ginfo = #tpu.lg<out_addr = 49152, out_size = 4, buffer_addr = 0, buffer_size = 0, eu_align = false, can_merge = false, in_hslice_offset = [], n_idx = [0], n_slice = [1], c_idx = [0], c_slice = [2], d_idx = [0], d_slice = [1], h_idx = [0], h_slice = [1], w_idx = [0], w_slice = [1], id = 36, stage = 1, slice_idx = 0, group_type = 0>, is_idx_weight = false, lmem_type = 0 : i64, support_compress = true, use_3ic_optimize = 0 : i64} : (tensor<1x2x1x1xf32, 618475687936 : i64>) -> tensor<1x2x1x1xf32> loc(#loc224)
        %150 = "tpu.Conv2D"(%147, %145, %146) {coeff_merged = false, dilations = [1, 1], do_relu = false, dynweight_reorderd = false, ginfo = #tpu.lg<out_addr = 16768, out_size = 384, buffer_addr = 0, buffer_size = 0, eu_align = true, can_merge = false, in_hslice_offset = [], n_idx = [0], n_slice = [1], c_idx = [0], c_slice = [96], d_idx = [0], d_slice = [1], h_idx = [0], h_slice = [8], w_idx = [0], w_slice = [8], id = 37, stage = 1, slice_idx = 0, group_type = 0>, group = 1 : i64, kernel_shape = [1, 1], kernel_zp = 0 : i64, multicore = true, pads = [0, 0, 0, 0], quant_mode = #tpu<rq_mode MultiplierShift>, relu_limit = -1.000000e+00 : f64, round_mode = #tpu<round_mode HalfUp>, strides = [1, 1], support_compress = true, use_3ic_optimize = 0 : i64, weight_is_coeff = 1 : i64, with_bias = true} : (tensor<1x96x8x8xf16>, tensor<1x96x1x96xf16>, tensor<1x96x1x1xf32>) -> tensor<1x96x8x8xf16> loc(#loc225)
        %151 = "tpu.Add"(%150, %144) {do_relu = true, ginfo = #tpu.lg<out_addr = 24576, out_size = 384, buffer_addr = 0, buffer_size = 0, eu_align = true, can_merge = false, in_hslice_offset = [], n_idx = [0], n_slice = [1], c_idx = [0], c_slice = [96], d_idx = [0], d_slice = [1], h_idx = [0], h_slice = [8], w_idx = [0], w_slice = [8], id = 38, stage = 1, slice_idx = 0, group_type = 0>, is_scalar = false, relu_limit = -1.000000e+00 : f64} : (tensor<1x96x8x8xf16>, tensor<1x96x8x8xf16>) -> tensor<1x96x8x8xf16> loc(#loc186)
        %152 = "tpu.Store"(%151, %0) {ginfo = #tpu.lg<out_addr = 24576, out_size = 384, buffer_addr = 0, buffer_size = 0, eu_align = true, can_merge = false, in_hslice_offset = [], n_idx = [0], n_slice = [1], c_idx = [0], c_slice = [96], d_idx = [0], d_slice = [1], h_idx = [0], h_slice = [8], w_idx = [0], w_slice = [8], id = 39, stage = 1, slice_idx = 0, group_type = 0>, support_compress = true} : (tensor<1x96x8x8xf16>, none) -> tensor<1x96x8x8xf16, 687194812416 : i64> loc(#loc186)
        %153 = "tpu.Conv2D"(%115, %148, %149) {coeff_merged = false, dilations = [1, 1], do_relu = false, dynweight_reorderd = false, ginfo = #tpu.lg<out_addr = 8192, out_size = 512, buffer_addr = 0, buffer_size = 0, eu_align = true, can_merge = false, in_hslice_offset = [], n_idx = [0], n_slice = [1], c_idx = [0], c_slice = [2], d_idx = [0], d_slice = [1], h_idx = [0], h_slice = [16], w_idx = [0], w_slice = [16], id = 40, stage = 1, slice_idx = 0, group_type = 0>, group = 1 : i64, kernel_shape = [1, 1], kernel_zp = 0 : i64, multicore = true, pads = [0, 0, 0, 0], quant_mode = #tpu<rq_mode MultiplierShift>, relu_limit = -1.000000e+00 : f64, round_mode = #tpu<round_mode HalfUp>, strides = [1, 1], support_compress = true, use_3ic_optimize = 0 : i64, weight_is_coeff = 1 : i64, with_bias = true} : (tensor<1x88x16x16xf16>, tensor<1x2x1x96xf16>, tensor<1x2x1x1xf32>) -> tensor<1x2x16x16xf16> loc(#loc187)
        %154 = "tpu.Store"(%153, %0) {ginfo = #tpu.lg<out_addr = 8192, out_size = 512, buffer_addr = 0, buffer_size = 0, eu_align = true, can_merge = false, in_hslice_offset = [], n_idx = [0], n_slice = [1], c_idx = [0], c_slice = [2], d_idx = [0], d_slice = [1], h_idx = [0], h_slice = [16], w_idx = [0], w_slice = [16], id = 41, stage = 2, slice_idx = 0, group_type = 0>, support_compress = true} : (tensor<1x2x16x16xf16>, none) -> tensor<1x2x16x16xf16, 687194836992 : i64> loc(#loc187)
        "tpu.Yield"(%152, %154) : (tensor<1x96x8x8xf16, 687194812416 : i64>, tensor<1x2x16x16xf16, 687194836992 : i64>) -> () loc(#loc252)
      }) {core_slice_ncdhw = [], csecs = 1 : i64, dsecs = 1 : i64, flow = [-1, 5, 3, 4, -2, 7, 6, -3, 10, 8, 9, -4, 13, 11, 12, -5, 16, 17, 41, 14, 15, -6, 20, 18, 19, -7, 23, 24, 21, 22, -8, 27, 25, 26, -9, 30, 31, 28, 29, -10, 34, 32, 33, -11, 37, 38, 35, 36, 0, -12, 40, 39, 1, -13, 2], group_type = 0 : i64, hsecs = 1 : i64, nsecs = 1 : i64, other_down_overlap_op = [], other_up_overlap_op = [], run_core_id = [], self_down_overlap_op = [], self_up_overlap_op = [], support_compress = true, swpipl_stage_num = 3 : i64, wsecs = 1 : i64} : (tensor<1x88x16x16xf16, 687194767360 : i64>, tensor<1x96x8x8xf16, 687194824704 : i64>) -> (tensor<1x96x8x8xf16, 687194812416 : i64>, tensor<1x2x16x16xf16, 687194836992 : i64>) loc(#loc252)
      %93 = "tpu.Permute"(%92#1, %0) {order = [0, 2, 3, 1]} : (tensor<1x2x16x16xf16, 687194836992 : i64>, none) -> tensor<1x16x16x2xf16, 687194832896 : i64> loc(#loc226)
      %94 = "tpu.Reshape"(%93) {flatten_start_dim = -1 : i64, shape = [1, -1, 1]} : (tensor<1x16x16x2xf16, 687194832896 : i64>) -> tensor<1x512x1xf16, 687194832896 : i64> loc(#loc227)
      %95 = "top.Weight"() : () -> tensor<1x6x1x1xf32, 618475696128 : i64> loc(#loc228)
      %96 = "top.Weight"() : () -> tensor<1x6x1x96xf16, 618475700224 : i64> loc(#loc229)
      %97 = "tpu.Conv2D"(%92#0, %96, %95) {coeff_merged = false, dilations = [1, 1], do_relu = false, dynweight_reorderd = false, group = 1 : i64, kernel_shape = [1, 1], kernel_zp = 0 : i64, multicore = true, pads = [0, 0, 0, 0], quant_mode = #tpu<rq_mode MultiplierShift>, relu_limit = -1.000000e+00 : f64, round_mode = #tpu<round_mode HalfUp>, strides = [1, 1], support_compress = true, use_3ic_optimize = 0 : i64, weight_is_coeff = 1 : i64, with_bias = true} : (tensor<1x96x8x8xf16, 687194812416 : i64>, tensor<1x6x1x96xf16, 618475700224 : i64>, tensor<1x6x1x1xf32, 618475696128 : i64>) -> tensor<1x6x8x8xf16, 687194824704 : i64> loc(#loc230)
      %98 = "tpu.Permute"(%97, %0) {order = [0, 2, 3, 1]} : (tensor<1x6x8x8xf16, 687194824704 : i64>, none) -> tensor<1x8x8x6xf16, 687194828800 : i64> loc(#loc231)
      %99 = "tpu.Reshape"(%98) {flatten_start_dim = -1 : i64, shape = [1, -1, 1]} : (tensor<1x8x8x6xf16, 687194828800 : i64>) -> tensor<1x384x1xf16, 687194828800 : i64> loc(#loc232)
      %100 = "tpu.Concat"(%94, %99) {axis = 1 : si32, do_relu = false, multicore = true, only_merge = false, relu_limit = -1.000000e+00 : f64} : (tensor<1x512x1xf16, 687194832896 : i64>, tensor<1x384x1xf16, 687194828800 : i64>) -> tensor<1x896x1xf16, 687194824704 : i64> loc(#loc233)
      %101 = "tpu.Cast"(%100) {round_mode = #tpu<round_mode HalfAwayFromZero>, with_scale = true} : (tensor<1x896x1xf16, 687194824704 : i64>) -> tensor<1x896x1xf32, 687194857472 : i64> loc(#loc234)
      %102 = "top.Weight"() : () -> tensor<1x32x1x1xf32, 618475704320 : i64> loc(#loc235)
      %103 = "top.Weight"() : () -> tensor<1x32x1x96xf16, 618475708416 : i64> loc(#loc236)
      %104 = "tpu.Conv2D"(%68#0, %103, %102) {coeff_merged = false, dilations = [1, 1], do_relu = false, dynweight_reorderd = false, group = 1 : i64, kernel_shape = [1, 1], kernel_zp = 0 : i64, multicore = true, pads = [0, 0, 0, 0], quant_mode = #tpu<rq_mode MultiplierShift>, relu_limit = -1.000000e+00 : f64, round_mode = #tpu<round_mode HalfUp>, strides = [1, 1], support_compress = true, use_3ic_optimize = 0 : i64, weight_is_coeff = 1 : i64, with_bias = true} : (tensor<1x88x16x16xf16, 687194767360 : i64>, tensor<1x32x1x96xf16, 618475708416 : i64>, tensor<1x32x1x1xf32, 618475704320 : i64>) -> tensor<1x32x16x16xf16, 687194841088 : i64> loc(#loc237)
      %105 = "tpu.Permute"(%104, %0) {order = [0, 2, 3, 1]} : (tensor<1x32x16x16xf16, 687194841088 : i64>, none) -> tensor<1x16x16x32xf16, 687194824704 : i64> loc(#loc238)
      %106 = "tpu.Reshape"(%105) {flatten_start_dim = -1 : i64, shape = [1, -1, 16]} : (tensor<1x16x16x32xf16, 687194824704 : i64>) -> tensor<1x512x16xf16, 687194824704 : i64> loc(#loc239)
      %107 = "top.Weight"() : () -> tensor<1x96x1x1xf32, 618475716608 : i64> loc(#loc240)
      %108 = "top.Weight"() : () -> tensor<1x96x1x96xf16, 618475720704 : i64> loc(#loc241)
      %109 = "tpu.Conv2D"(%92#0, %108, %107) {coeff_merged = false, dilations = [1, 1], do_relu = false, dynweight_reorderd = false, group = 1 : i64, kernel_shape = [1, 1], kernel_zp = 0 : i64, multicore = true, pads = [0, 0, 0, 0], quant_mode = #tpu<rq_mode MultiplierShift>, relu_limit = -1.000000e+00 : f64, round_mode = #tpu<round_mode HalfUp>, strides = [1, 1], support_compress = true, use_3ic_optimize = 0 : i64, weight_is_coeff = 1 : i64, with_bias = true} : (tensor<1x96x8x8xf16, 687194812416 : i64>, tensor<1x96x1x96xf16, 618475720704 : i64>, tensor<1x96x1x1xf32, 618475716608 : i64>) -> tensor<1x96x8x8xf16, 687194767360 : i64> loc(#loc242)
      %110 = "tpu.Permute"(%109, %0) {order = [0, 2, 3, 1]} : (tensor<1x96x8x8xf16, 687194767360 : i64>, none) -> tensor<1x8x8x96xf16, 687194841088 : i64> loc(#loc243)
      %111 = "tpu.Reshape"(%110) {flatten_start_dim = -1 : i64, shape = [1, -1, 16]} : (tensor<1x8x8x96xf16, 687194841088 : i64>) -> tensor<1x384x16xf16, 687194841088 : i64> loc(#loc244)
      %112 = "tpu.Group"(%106, %111) ({
        %113 = "tpu.Load"(%106) {do_bcast = false, ginfo = #tpu.lg<out_addr = 16384, out_size = 512, buffer_addr = 0, buffer_size = 0, eu_align = true, can_merge = false, in_hslice_offset = [], n_idx = [0], n_slice = [1], c_idx = [0], c_slice = [512], d_idx = [0], d_slice = [1], h_idx = [0], h_slice = [16], w_idx = [0], w_slice = [1], id = 0, stage = 0, slice_idx = 0, group_type = 4>, is_idx_weight = false, lmem_type = 1 : i64, support_compress = true, use_3ic_optimize = 0 : i64} : (tensor<1x512x16xf16, 687194824704 : i64>) -> tensor<1x512x16xf16> loc(#loc246)
        %114 = "tpu.Load"(%111) {do_bcast = false, ginfo = #tpu.lg<out_addr = 24576, out_size = 384, buffer_addr = 0, buffer_size = 0, eu_align = true, can_merge = false, in_hslice_offset = [], n_idx = [0], n_slice = [1], c_idx = [0], c_slice = [384], d_idx = [0], d_slice = [1], h_idx = [0], h_slice = [16], w_idx = [0], w_slice = [1], id = 1, stage = 0, slice_idx = 0, group_type = 4>, is_idx_weight = false, lmem_type = 1 : i64, support_compress = true, use_3ic_optimize = 0 : i64} : (tensor<1x384x16xf16, 687194841088 : i64>) -> tensor<1x384x16xf16> loc(#loc247)
        %115 = "tpu.Concat"(%113, %114) {axis = 1 : si32, do_relu = false, ginfo = #tpu.lg<out_addr = 8192, out_size = 896, buffer_addr = 0, buffer_size = 0, eu_align = true, can_merge = false, in_hslice_offset = [], n_idx = [0], n_slice = [1], c_idx = [0], c_slice = [896], d_idx = [0], d_slice = [1], h_idx = [0], h_slice = [16], w_idx = [0], w_slice = [1], id = 2, stage = 1, slice_idx = 0, group_type = 4>, multicore = true, only_merge = true, relu_limit = -1.000000e+00 : f64} : (tensor<1x512x16xf16>, tensor<1x384x16xf16>) -> tensor<1x896x16xf16> loc(#loc248)
        %116 = "tpu.Cast"(%115) {ginfo = #tpu.lg<out_addr = 0, out_size = 1792, buffer_addr = 0, buffer_size = 0, eu_align = true, can_merge = false, in_hslice_offset = [], n_idx = [0], n_slice = [1], c_idx = [0], c_slice = [896], d_idx = [0], d_slice = [1], h_idx = [0], h_slice = [16], w_idx = [0], w_slice = [1], id = 3, stage = 1, slice_idx = 0, group_type = 4>, round_mode = #tpu<round_mode HalfAwayFromZero>, with_scale = true} : (tensor<1x896x16xf16>) -> tensor<1x896x16xf32> loc(#loc245)
        %117 = "tpu.Store"(%116, %0) {ginfo = #tpu.lg<out_addr = 0, out_size = 1792, buffer_addr = 0, buffer_size = 0, eu_align = true, can_merge = false, in_hslice_offset = [], n_idx = [0], n_slice = [1], c_idx = [0], c_slice = [896], d_idx = [0], d_slice = [1], h_idx = [0], h_slice = [16], w_idx = [0], w_slice = [1], id = 4, stage = 2, slice_idx = 0, group_type = 4>, support_compress = true} : (tensor<1x896x16xf32>, none) -> tensor<1x896x16xf32, 687194767360 : i64> loc(#loc245)
        "tpu.Yield"(%117) : (tensor<1x896x16xf32, 687194767360 : i64>) -> () loc(#loc245)
      }) {core_slice_ncdhw = [], csecs = 1 : i64, dsecs = 1 : i64, flow = [-1, 2, 4, -2, 3, 0, 1], group_type = 4 : i64, hsecs = 1 : i64, nsecs = 1 : i64, other_down_overlap_op = [], other_up_overlap_op = [], run_core_id = [], self_down_overlap_op = [], self_up_overlap_op = [], support_compress = true, swpipl_stage_num = 3 : i64, wsecs = 1 : i64} : (tensor<1x512x16xf16, 687194824704 : i64>, tensor<1x384x16xf16, 687194841088 : i64>) -> tensor<1x896x16xf32, 687194767360 : i64> loc(#loc245)
      return %112, %101 : tensor<1x896x16xf32, 687194767360 : i64>, tensor<1x896x1xf32, 687194857472 : i64> loc(#loc)
    } loc(#loc)
  } loc(#loc)
} loc(#loc)
#loc2 = loc("x.180_Relu_f16")
#loc3 = loc("blaze_face.backbone1.0.bias")
#loc4 = loc("80_Relu_filter_reorderd")
#loc5 = loc("81_Convblaze_face.backbone1.2.convs.0.weight_f16")
#loc6 = loc("81_Conv_reordered")
#loc7 = loc("blaze_face.backbone1.2.convs.1.bias")
#loc8 = loc("82_Conv_filter_reorderd")
#loc9 = loc("84_Relu")
#loc10 = loc("load_x.180_Relu_f16")
#loc11 = loc("load_80_Relu_filter_reorderd")
#loc12 = loc("load_blaze_face.backbone1.0.bias")
#loc13 = loc("load_81_Convblaze_face.backbone1.2.convs.0.weight_f16")
#loc14 = loc("load_81_Conv_reordered")
#loc15 = loc("80_Relu")
#loc16 = loc("load_82_Conv_filter_reorderd")
#loc17 = loc("load_blaze_face.backbone1.2.convs.1.bias")
#loc18 = loc("81_Conv")
#loc19 = loc("82_Conv")
#loc20 = loc("85_Pad")
#loc21 = loc("86_Convblaze_face.backbone1.3.convs.0.weight_f16")
#loc22 = loc("86_Conv_reordered")
#loc23 = loc("blaze_face.backbone1.3.convs.1.bias")
#loc24 = loc("87_Conv_filter_reorderd")
#loc25 = loc("89_Relu")
#loc26 = loc("91_MaxPool")
#loc27 = loc("load_84_Relu")
#loc28 = loc("load_86_Convblaze_face.backbone1.3.convs.0.weight_f16")
#loc29 = loc("load_86_Conv_reordered")
#loc30 = loc("load_87_Conv_filter_reorderd")
#loc31 = loc("load_blaze_face.backbone1.3.convs.1.bias")
#loc32 = loc("86_Conv")
#loc33 = loc("load_85_Pad")
#loc34 = loc("87_Conv")
#loc35 = loc("92_Pad")
#loc36 = loc("93_Convblaze_face.backbone1.4.convs.0.weight_f16")
#loc37 = loc("93_Conv_reordered")
#loc38 = loc("blaze_face.backbone1.4.convs.1.bias")
#loc39 = loc("94_Conv_filter_reorderd")
#loc40 = loc("96_Relu")
#loc41 = loc("load_89_Relu")
#loc42 = loc("load_93_Convblaze_face.backbone1.4.convs.0.weight_f16")
#loc43 = loc("load_93_Conv_reordered")
#loc44 = loc("load_94_Conv_filter_reorderd")
#loc45 = loc("load_blaze_face.backbone1.4.convs.1.bias")
#loc46 = loc("93_Conv")
#loc47 = loc("load_92_Pad")
#loc48 = loc("94_Conv")
#loc49 = loc("97_Pad")
#loc50 = loc("98_Convblaze_face.backbone1.5.convs.0.weight_f16")
#loc51 = loc("98_Conv_reordered")
#loc52 = loc("blaze_face.backbone1.5.convs.1.bias")
#loc53 = loc("99_Conv_filter_reorderd")
#loc54 = loc("101_Relu")
#loc55 = loc("load_96_Relu")
#loc56 = loc("load_98_Convblaze_face.backbone1.5.convs.0.weight_f16")
#loc57 = loc("load_98_Conv_reordered")
#loc58 = loc("load_99_Conv_filter_reorderd")
#loc59 = loc("load_blaze_face.backbone1.5.convs.1.bias")
#loc60 = loc("98_Conv")
#loc61 = loc("load_97_Pad")
#loc62 = loc("99_Conv")
#loc63 = loc("102_Pad")
#loc64 = loc("103_Convblaze_face.backbone1.6.convs.0.weight_f16")
#loc65 = loc("103_Conv_reordered")
#loc66 = loc("blaze_face.backbone1.6.convs.1.bias")
#loc67 = loc("104_Conv_filter_reorderd")
#loc68 = loc("106_Relu")
#loc69 = loc("108_MaxPool")
#loc70 = loc("load_101_Relu")
#loc71 = loc("load_103_Convblaze_face.backbone1.6.convs.0.weight_f16")
#loc72 = loc("load_103_Conv_reordered")
#loc73 = loc("load_104_Conv_filter_reorderd")
#loc74 = loc("load_blaze_face.backbone1.6.convs.1.bias")
#loc75 = loc("103_Conv")
#loc76 = loc("load_102_Pad")
#loc77 = loc("104_Conv")
#loc78 = loc("109_Pad")
#loc79 = loc("110_Convblaze_face.backbone1.7.convs.0.weight_f16")
#loc80 = loc("110_Conv_reordered")
#loc81 = loc("blaze_face.backbone1.7.convs.1.bias")
#loc82 = loc("111_Conv_filter_reorderd")
#loc83 = loc("113_Relu")
#loc84 = loc("load_106_Relu")
#loc85 = loc("load_110_Convblaze_face.backbone1.7.convs.0.weight_f16")
#loc86 = loc("load_110_Conv_reordered")
#loc87 = loc("load_111_Conv_filter_reorderd")
#loc88 = loc("load_blaze_face.backbone1.7.convs.1.bias")
#loc89 = loc("110_Conv")
#loc90 = loc("load_109_Pad")
#loc91 = loc("111_Conv")
#loc92 = loc("114_Pad")
#loc93 = loc("115_Convblaze_face.backbone1.8.convs.0.weight_f16")
#loc94 = loc("115_Conv_reordered")
#loc95 = loc("blaze_face.backbone1.8.convs.1.bias")
#loc96 = loc("116_Conv_filter_reorderd")
#loc97 = loc("118_Relu")
#loc98 = loc("load_113_Relu")
#loc99 = loc("load_115_Convblaze_face.backbone1.8.convs.0.weight_f16")
#loc100 = loc("load_115_Conv_reordered")
#loc101 = loc("load_116_Conv_filter_reorderd")
#loc102 = loc("load_blaze_face.backbone1.8.convs.1.bias")
#loc103 = loc("115_Conv")
#loc104 = loc("load_114_Pad")
#loc105 = loc("116_Conv")
#loc106 = loc("119_Pad")
#loc107 = loc("120_Convblaze_face.backbone1.9.convs.0.weight_f16")
#loc108 = loc("120_Conv_reordered")
#loc109 = loc("blaze_face.backbone1.9.convs.1.bias")
#loc110 = loc("121_Conv_filter_reorderd")
#loc111 = loc("123_Relu")
#loc112 = loc("load_118_Relu")
#loc113 = loc("load_120_Convblaze_face.backbone1.9.convs.0.weight_f16")
#loc114 = loc("load_120_Conv_reordered")
#loc115 = loc("load_121_Conv_filter_reorderd")
#loc116 = loc("load_blaze_face.backbone1.9.convs.1.bias")
#loc117 = loc("120_Conv")
#loc118 = loc("load_119_Pad")
#loc119 = loc("121_Conv")
#loc120 = loc("124_Pad")
#loc121 = loc("125_Convblaze_face.backbone1.10.convs.0.weight_f16")
#loc122 = loc("125_Conv_reordered")
#loc123 = loc("blaze_face.backbone1.10.convs.1.bias")
#loc124 = loc("126_Conv_filter_reorderd")
#loc125 = loc("128_Relu")
#loc126 = loc("load_123_Relu")
#loc127 = loc("load_125_Convblaze_face.backbone1.10.convs.0.weight_f16")
#loc128 = loc("load_125_Conv_reordered")
#loc129 = loc("load_126_Conv_filter_reorderd")
#loc130 = loc("load_blaze_face.backbone1.10.convs.1.bias")
#loc131 = loc("125_Conv")
#loc132 = loc("load_124_Pad")
#loc133 = loc("126_Conv")
#loc134 = loc("129_Pad")
#loc135 = loc("130_Convblaze_face.backbone1.11.convs.0.weight_f16")
#loc136 = loc("130_Conv_reordered")
#loc137 = loc("blaze_face.backbone1.11.convs.1.bias")
#loc138 = loc("131_Conv_filter_reorderd")
#loc139 = loc("133_Relu")
#loc140 = loc("load_128_Relu")
#loc141 = loc("load_130_Convblaze_face.backbone1.11.convs.0.weight_f16")
#loc142 = loc("load_130_Conv_reordered")
#loc143 = loc("load_131_Conv_filter_reorderd")
#loc144 = loc("load_blaze_face.backbone1.11.convs.1.bias")
#loc145 = loc("130_Conv")
#loc146 = loc("load_129_Pad")
#loc147 = loc("131_Conv")
#loc148 = loc("134_Pad")
#loc149 = loc("135_Convblaze_face.backbone1.12.convs.0.weight_f16")
#loc150 = loc("135_Conv_reordered")
#loc151 = loc("blaze_face.backbone1.12.convs.1.bias")
#loc152 = loc("136_Conv_filter_reorderd")
#loc153 = loc("138_Relu")
#loc154 = loc("140_MaxPool")
#loc155 = loc("load_133_Relu")
#loc156 = loc("load_135_Convblaze_face.backbone1.12.convs.0.weight_f16")
#loc157 = loc("load_135_Conv_reordered")
#loc158 = loc("load_136_Conv_filter_reorderd")
#loc159 = loc("load_blaze_face.backbone1.12.convs.1.bias")
#loc160 = loc("135_Conv")
#loc161 = loc("load_134_Pad")
#loc162 = loc("136_Conv")
#loc163 = loc("141_Pad")
#loc164 = loc("142_Convblaze_face.backbone2.0.convs.0.weight_f16")
#loc165 = loc("142_Conv_reordered")
#loc166 = loc("blaze_face.backbone2.0.convs.1.bias")
#loc167 = loc("143_Conv_filter_reorderd")
#loc168 = loc("146_Convblaze_face.backbone2.1.convs.0.weight_f16")
#loc169 = loc("146_Conv_reordered")
#loc170 = loc("blaze_face.backbone2.1.convs.1.bias")
#loc171 = loc("147_Conv_filter_reorderd")
#loc172 = loc("150_Convblaze_face.backbone2.2.convs.0.weight_f16")
#loc173 = loc("150_Conv_reordered")
#loc174 = loc("blaze_face.backbone2.2.convs.1.bias")
#loc175 = loc("151_Conv_filter_reorderd")
#loc176 = loc("154_Convblaze_face.backbone2.3.convs.0.weight_f16")
#loc177 = loc("154_Conv_reordered")
#loc178 = loc("blaze_face.backbone2.3.convs.1.bias")
#loc179 = loc("155_Conv_filter_reorderd")
#loc180 = loc("158_Convblaze_face.backbone2.4.convs.0.weight_f16")
#loc181 = loc("158_Conv_reordered")
#loc182 = loc("blaze_face.backbone2.4.convs.1.bias")
#loc183 = loc("159_Conv_filter_reorderd")
#loc184 = loc("blaze_face.classifier_8.bias")
#loc185 = loc("162_Conv_filter_reorderd")
#loc186 = loc("161_Relu")
#loc187 = loc("162_Conv")
#loc188 = loc("load_142_Conv_reordered")
#loc189 = loc("load_142_Convblaze_face.backbone2.0.convs.0.weight_f16")
#loc190 = loc("load_138_Relu")
#loc191 = loc("load_143_Conv_filter_reorderd")
#loc192 = loc("load_blaze_face.backbone2.0.convs.1.bias")
#loc193 = loc("142_Conv")
#loc194 = loc("load_141_Pad")
#loc195 = loc("143_Conv")
#loc196 = loc("load_146_Convblaze_face.backbone2.1.convs.0.weight_f16")
#loc197 = loc("load_146_Conv_reordered")
#loc198 = loc("145_Relu")
#loc199 = loc("load_147_Conv_filter_reorderd")
#loc200 = loc("load_blaze_face.backbone2.1.convs.1.bias")
#loc201 = loc("146_Conv")
#loc202 = loc("load_150_Conv_reordered")
#loc203 = loc("load_150_Convblaze_face.backbone2.2.convs.0.weight_f16")
#loc204 = loc("147_Conv")
#loc205 = loc("149_Relu")
#loc206 = loc("load_151_Conv_filter_reorderd")
#loc207 = loc("load_blaze_face.backbone2.2.convs.1.bias")
#loc208 = loc("150_Conv")
#loc209 = loc("load_154_Conv_reordered")
#loc210 = loc("load_154_Convblaze_face.backbone2.3.convs.0.weight_f16")
#loc211 = loc("151_Conv")
#loc212 = loc("153_Relu")
#loc213 = loc("load_155_Conv_filter_reorderd")
#loc214 = loc("load_blaze_face.backbone2.3.convs.1.bias")
#loc215 = loc("154_Conv")
#loc216 = loc("load_158_Conv_reordered")
#loc217 = loc("load_158_Convblaze_face.backbone2.4.convs.0.weight_f16")
#loc218 = loc("155_Conv")
#loc219 = loc("157_Relu")
#loc220 = loc("load_159_Conv_filter_reorderd")
#loc221 = loc("load_blaze_face.backbone2.4.convs.1.bias")
#loc222 = loc("158_Conv")
#loc223 = loc("load_162_Conv_filter_reorderd")
#loc224 = loc("load_blaze_face.classifier_8.bias")
#loc225 = loc("159_Conv")
#loc226 = loc("163_Transpose")
#loc227 = loc("170_Reshape")
#loc228 = loc("blaze_face.classifier_16.bias")
#loc229 = loc("171_Conv_filter_reorderd")
#loc230 = loc("171_Conv")
#loc231 = loc("172_Transpose")
#loc232 = loc("179_Reshape")
#loc233 = loc("180_Concat")
#loc234 = loc("180_Concat_f32")
#loc235 = loc("blaze_face.regressor_8.bias")
#loc236 = loc("181_Conv_filter_reorderd")
#loc237 = loc("181_Conv")
#loc238 = loc("182_Transpose")
#loc239 = loc("189_Reshape")
#loc240 = loc("blaze_face.regressor_16.bias")
#loc241 = loc("190_Conv_filter_reorderd")
#loc242 = loc("190_Conv")
#loc243 = loc("191_Transpose")
#loc244 = loc("198_Reshape")
#loc245 = loc("199_Concat_f32")
#loc246 = loc("load_189_Reshape")
#loc247 = loc("load_198_Reshape")
#loc248 = loc("199_Concat")
#loc249 = loc(fused[#loc25, #loc26])
#loc250 = loc(fused[#loc68, #loc69])
#loc251 = loc(fused[#loc153, #loc154])
#loc252 = loc(fused[#loc186, #loc187])

