[
  {
    "file-line": 12,
    "subnet_id": 0,
    "core_id": 0,
    "opcode": "tpu.Cast",
    "is_local": false,
    "tiu_dma_id(before)": [
      0,
      0
    ],
    "tiu_dma_id(after)": [
      2,
      4
    ],
    "operands": [
      {
        "address": 687195422720,
        "layout": "continuous",
        "memory_type": "<1x3x128x128xf32>",
        "name": "x.1",
        "reshape": "",
        "shape": [
          1,
          3,
          128,
          128
        ],
        "slice": "[...]",
        "type": "tensor<1x3x128x128xf32, 687195422720 : i64>"
      }
    ],
    "results": [
      {
        "address": 687194767360,
        "layout": "continuous",
        "memory_type": "<1x3x128x128xf16>",
        "name": "x.180_Relu_f16",
        "reshape": "",
        "shape": [
          1,
          3,
          128,
          128
        ],
        "slice": "[...]",
        "type": "tensor<1x3x128x128xf16, 687194767360 : i64>"
      }
    ],
    "buffers": []
  },
  {
    "file-line": 20,
    "subnet_id": 0,
    "core_id": 0,
    "opcode": "tpu.Load",
    "is_local": true,
    "tiu_dma_id(before)": [
      2,
      4
    ],
    "tiu_dma_id(after)": [
      2,
      5
    ],
    "operands": [
      {
        "address": 687194767360,
        "layout": "continuous",
        "memory_type": "<1x3x128x128xf16>",
        "name": "x.180_Relu_f16",
        "reshape": "<1x3x1x128x128>",
        "shape": [
          1,
          3,
          128,
          128
        ],
        "slice": "[0:1, 0:3, 0:1, 0:128, 0:128]",
        "type": "tensor<1x3x128x128xf16, 687194767360 : i64>"
      }
    ],
    "results": [
      {
        "address": 0,
        "layout": "eu_align",
        "memory_type": "<1x3x128x128xf16>",
        "name": "load_x.180_Relu_f16",
        "reshape": "<1x3x1x128x128>",
        "shape": [
          1,
          3,
          128,
          128
        ],
        "slice": "[0:1, 0:3, 0:1, 0:128, 0:128]",
        "type": "tensor<1x3x128x128xf16>"
      }
    ],
    "buffers": []
  },
  {
    "file-line": 21,
    "subnet_id": 0,
    "core_id": 0,
    "opcode": "tpu.Load",
    "is_local": true,
    "tiu_dma_id(before)": [
      2,
      5
    ],
    "tiu_dma_id(after)": [
      2,
      6
    ],
    "operands": [
      {
        "address": 618475294720,
        "layout": "continuous",
        "memory_type": "<1x24x1x80xf16>",
        "name": "80_Relu_filter_reorderd",
        "reshape": "<1x24x1x1x80>",
        "shape": [
          1,
          24,
          1,
          80
        ],
        "slice": "[0:1, 0:24, 0:1, 0:1, 0:80]",
        "type": "tensor<1x24x1x80xf16, 618475294720 : i64>"
      }
    ],
    "results": [
      {
        "address": 73728,
        "layout": "compact",
        "memory_type": "<1x24x1x80xf16>",
        "name": "load_80_Relu_filter_reorderd",
        "reshape": "<1x24x1x1x80>",
        "shape": [
          1,
          24,
          1,
          80
        ],
        "slice": "[0:1, 0:24, 0:1, 0:1, 0:80]",
        "type": "tensor<1x24x1x80xf16>"
      }
    ],
    "buffers": []
  },
  {
    "file-line": 22,
    "subnet_id": 0,
    "core_id": 0,
    "opcode": "tpu.Load",
    "is_local": true,
    "tiu_dma_id(before)": [
      2,
      6
    ],
    "tiu_dma_id(after)": [
      2,
      7
    ],
    "operands": [
      {
        "address": 618475290624,
        "layout": "continuous",
        "memory_type": "<1x24x1x1xf32>",
        "name": "blaze_face.backbone1.0.bias",
        "reshape": "<1x24x1x1x1>",
        "shape": [
          1,
          24,
          1,
          1
        ],
        "slice": "[0:1, 0:24, 0:1, 0:1, 0:1]",
        "type": "tensor<1x24x1x1xf32, 618475290624 : i64>"
      }
    ],
    "results": [
      {
        "address": 98304,
        "layout": "compact",
        "memory_type": "<1x24x1x1xf32>",
        "name": "load_blaze_face.backbone1.0.bias",
        "reshape": "<1x24x1x1x1>",
        "shape": [
          1,
          24,
          1,
          1
        ],
        "slice": "[0:1, 0:24, 0:1, 0:1, 0:1]",
        "type": "tensor<1x24x1x1xf32>"
      }
    ],
    "buffers": []
  },
  {
    "file-line": 25,
    "subnet_id": 0,
    "core_id": 0,
    "opcode": "tpu.Conv2D",
    "is_local": true,
    "tiu_dma_id(before)": [
      2,
      7
    ],
    "tiu_dma_id(after)": [
      17,
      7
    ],
    "operands": [
      {
        "address": 0,
        "layout": "eu_align",
        "memory_type": "<1x3x128x128xf16>",
        "name": "load_x.180_Relu_f16",
        "reshape": "<1x3x1x128x128>",
        "shape": [
          1,
          3,
          128,
          128
        ],
        "slice": "[0:1, 0:3, 0:1, 0:128, 0:128]",
        "type": "tensor<1x3x128x128xf16>"
      },
      {
        "address": 73728,
        "layout": "compact",
        "memory_type": "<1x24x1x80xf16>",
        "name": "load_80_Relu_filter_reorderd",
        "reshape": "<1x24x1x1x80>",
        "shape": [
          1,
          24,
          1,
          80
        ],
        "slice": "[0:1, 0:24, 0:1, 0:1, 0:80]",
        "type": "tensor<1x24x1x80xf16>"
      },
      {
        "address": 98304,
        "layout": "compact",
        "memory_type": "<1x24x1x1xf32>",
        "name": "load_blaze_face.backbone1.0.bias",
        "reshape": "<1x24x1x1x1>",
        "shape": [
          1,
          24,
          1,
          1
        ],
        "slice": "[0:1, 0:24, 0:1, 0:1, 0:1]",
        "type": "tensor<1x24x1x1xf32>"
      }
    ],
    "results": [
      {
        "address": 32768,
        "layout": "eu_align",
        "memory_type": "<1x24x64x64xf16>",
        "name": "80_Relu",
        "reshape": "<1x24x1x64x64>",
        "shape": [
          1,
          24,
          64,
          64
        ],
        "slice": "[0:1, 0:24, 0:1, 0:64, 0:64]",
        "type": "tensor<1x24x64x64xf16>"
      }
    ],
    "buffers": [
      {
        "address": 40960,
        "size": 16426
      }
    ]
  },
  {
    "file-line": 23,
    "subnet_id": 0,
    "core_id": 0,
    "opcode": "tpu.Load",
    "is_local": true,
    "tiu_dma_id(before)": [
      2,
      7
    ],
    "tiu_dma_id(after)": [
      2,
      8
    ],
    "operands": [
      {
        "address": 618475298816,
        "layout": "continuous",
        "memory_type": "<1x24x3x3xf16>",
        "name": "81_Convblaze_face.backbone1.2.convs.0.weight_f16",
        "reshape": "<1x24x1x3x3>",
        "shape": [
          1,
          24,
          3,
          3
        ],
        "slice": "[0:1, 0:24, 0:1, 0:3, 0:3]",
        "type": "tensor<1x24x3x3xf16, 618475298816 : i64>"
      }
    ],
    "results": [
      {
        "address": 81920,
        "layout": "compact",
        "memory_type": "<1x24x3x3xf16>",
        "name": "load_81_Convblaze_face.backbone1.2.convs.0.weight_f16",
        "reshape": "<1x24x1x3x3>",
        "shape": [
          1,
          24,
          3,
          3
        ],
        "slice": "[0:1, 0:24, 0:1, 0:3, 0:3]",
        "type": "tensor<1x24x3x3xf16>"
      }
    ],
    "buffers": []
  },
  {
    "file-line": 24,
    "subnet_id": 0,
    "core_id": 0,
    "opcode": "tpu.Load",
    "is_local": true,
    "tiu_dma_id(before)": [
      2,
      8
    ],
    "tiu_dma_id(after)": [
      2,
      9
    ],
    "operands": [
      {
        "address": 618475302912,
        "layout": "continuous",
        "memory_type": "<1x24x1x1xf16>",
        "name": "81_Conv_reordered",
        "reshape": "<1x24x1x1x1>",
        "shape": [
          1,
          24,
          1,
          1
        ],
        "slice": "[0:1, 0:24, 0:1, 0:1, 0:1]",
        "type": "tensor<1x24x1x1xf16, 618475302912 : i64>"
      }
    ],
    "results": [
      {
        "address": 106496,
        "layout": "compact",
        "memory_type": "<1x24x1x1xf16>",
        "name": "load_81_Conv_reordered",
        "reshape": "<1x24x1x1x1>",
        "shape": [
          1,
          24,
          1,
          1
        ],
        "slice": "[0:1, 0:24, 0:1, 0:1, 0:1]",
        "type": "tensor<1x24x1x1xf16>"
      }
    ],
    "buffers": []
  },
  {
    "file-line": 28,
    "subnet_id": 0,
    "core_id": 0,
    "opcode": "tpu.Conv2D",
    "is_local": true,
    "tiu_dma_id(before)": [
      17,
      9
    ],
    "tiu_dma_id(after)": [
      19,
      9
    ],
    "operands": [
      {
        "address": 32768,
        "layout": "eu_align",
        "memory_type": "<1x24x64x64xf16>",
        "name": "80_Relu",
        "reshape": "<1x24x1x64x64>",
        "shape": [
          1,
          24,
          64,
          64
        ],
        "slice": "[0:1, 0:24, 0:1, 0:64, 0:64]",
        "type": "tensor<1x24x64x64xf16>"
      },
      {
        "address": 81920,
        "layout": "compact",
        "memory_type": "<1x24x3x3xf16>",
        "name": "load_81_Convblaze_face.backbone1.2.convs.0.weight_f16",
        "reshape": "<1x24x1x3x3>",
        "shape": [
          1,
          24,
          3,
          3
        ],
        "slice": "[0:1, 0:24, 0:1, 0:3, 0:3]",
        "type": "tensor<1x24x3x3xf16>"
      },
      {
        "address": 106496,
        "layout": "compact",
        "memory_type": "<1x24x1x1xf16>",
        "name": "load_81_Conv_reordered",
        "reshape": "<1x24x1x1x1>",
        "shape": [
          1,
          24,
          1,
          1
        ],
        "slice": "[0:1, 0:24, 0:1, 0:1, 0:1]",
        "type": "tensor<1x24x1x1xf16>"
      }
    ],
    "results": [
      {
        "address": 40960,
        "layout": "eu_align",
        "memory_type": "<1x24x64x64xf16>",
        "name": "81_Conv",
        "reshape": "<1x24x1x64x64>",
        "shape": [
          1,
          24,
          64,
          64
        ],
        "slice": "[0:1, 0:24, 0:1, 0:64, 0:64]",
        "type": "tensor<1x24x64x64xf16>"
      }
    ],
    "buffers": [
      {
        "address": 0,
        "size": 24589
      }
    ]
  },
  {
    "file-line": 26,
    "subnet_id": 0,
    "core_id": 0,
    "opcode": "tpu.Load",
    "is_local": true,
    "tiu_dma_id(before)": [
      17,
      9
    ],
    "tiu_dma_id(after)": [
      17,
      10
    ],
    "operands": [
      {
        "address": 618475311104,
        "layout": "continuous",
        "memory_type": "<1x24x1x32xf16>",
        "name": "82_Conv_filter_reorderd",
        "reshape": "<1x24x1x1x32>",
        "shape": [
          1,
          24,
          1,
          32
        ],
        "slice": "[0:1, 0:24, 0:1, 0:1, 0:32]",
        "type": "tensor<1x24x1x32xf16, 618475311104 : i64>"
      }
    ],
    "results": [
      {
        "address": 57344,
        "layout": "compact",
        "memory_type": "<1x24x1x32xf16>",
        "name": "load_82_Conv_filter_reorderd",
        "reshape": "<1x24x1x1x32>",
        "shape": [
          1,
          24,
          1,
          32
        ],
        "slice": "[0:1, 0:24, 0:1, 0:1, 0:32]",
        "type": "tensor<1x24x1x32xf16>"
      }
    ],
    "buffers": []
  },
  {
    "file-line": 27,
    "subnet_id": 0,
    "core_id": 0,
    "opcode": "tpu.Load",
    "is_local": true,
    "tiu_dma_id(before)": [
      17,
      10
    ],
    "tiu_dma_id(after)": [
      17,
      11
    ],
    "operands": [
      {
        "address": 618475307008,
        "layout": "continuous",
        "memory_type": "<1x24x1x1xf32>",
        "name": "blaze_face.backbone1.2.convs.1.bias",
        "reshape": "<1x24x1x1x1>",
        "shape": [
          1,
          24,
          1,
          1
        ],
        "slice": "[0:1, 0:24, 0:1, 0:1, 0:1]",
        "type": "tensor<1x24x1x1xf32, 618475307008 : i64>"
      }
    ],
    "results": [
      {
        "address": 90112,
        "layout": "compact",
        "memory_type": "<1x24x1x1xf32>",
        "name": "load_blaze_face.backbone1.2.convs.1.bias",
        "reshape": "<1x24x1x1x1>",
        "shape": [
          1,
          24,
          1,
          1
        ],
        "slice": "[0:1, 0:24, 0:1, 0:1, 0:1]",
        "type": "tensor<1x24x1x1xf32>"
      }
    ],
    "buffers": []
  },
  {
    "file-line": 29,
    "subnet_id": 0,
    "core_id": 0,
    "opcode": "tpu.Conv2D",
    "is_local": true,
    "tiu_dma_id(before)": [
      19,
      11
    ],
    "tiu_dma_id(after)": [
      21,
      11
    ],
    "operands": [
      {
        "address": 40960,
        "layout": "eu_align",
        "memory_type": "<1x24x64x64xf16>",
        "name": "81_Conv",
        "reshape": "<1x24x1x64x64>",
        "shape": [
          1,
          24,
          64,
          64
        ],
        "slice": "[0:1, 0:24, 0:1, 0:64, 0:64]",
        "type": "tensor<1x24x64x64xf16>"
      },
      {
        "address": 57344,
        "layout": "compact",
        "memory_type": "<1x24x1x32xf16>",
        "name": "load_82_Conv_filter_reorderd",
        "reshape": "<1x24x1x1x32>",
        "shape": [
          1,
          24,
          1,
          32
        ],
        "slice": "[0:1, 0:24, 0:1, 0:1, 0:32]",
        "type": "tensor<1x24x1x32xf16>"
      },
      {
        "address": 90112,
        "layout": "compact",
        "memory_type": "<1x24x1x1xf32>",
        "name": "load_blaze_face.backbone1.2.convs.1.bias",
        "reshape": "<1x24x1x1x1>",
        "shape": [
          1,
          24,
          1,
          1
        ],
        "slice": "[0:1, 0:24, 0:1, 0:1, 0:1]",
        "type": "tensor<1x24x1x1xf32>"
      }
    ],
    "results": [
      {
        "address": 49152,
        "layout": "eu_align",
        "memory_type": "<1x24x64x64xf16>",
        "name": "82_Conv",
        "reshape": "<1x24x1x64x64>",
        "shape": [
          1,
          24,
          64,
          64
        ],
        "slice": "[0:1, 0:24, 0:1, 0:64, 0:64]",
        "type": "tensor<1x24x64x64xf16>"
      }
    ],
    "buffers": []
  },
  {
    "file-line": 30,
    "subnet_id": 0,
    "core_id": 0,
    "opcode": "tpu.Add",
    "is_local": true,
    "tiu_dma_id(before)": [
      21,
      11
    ],
    "tiu_dma_id(after)": [
      23,
      11
    ],
    "operands": [
      {
        "address": 49152,
        "layout": "eu_align",
        "memory_type": "<1x24x64x64xf16>",
        "name": "82_Conv",
        "reshape": "<1x24x1x64x64>",
        "shape": [
          1,
          24,
          64,
          64
        ],
        "slice": "[0:1, 0:24, 0:1, 0:64, 0:64]",
        "type": "tensor<1x24x64x64xf16>"
      },
      {
        "address": 32768,
        "layout": "eu_align",
        "memory_type": "<1x24x64x64xf16>",
        "name": "80_Relu",
        "reshape": "<1x24x1x64x64>",
        "shape": [
          1,
          24,
          64,
          64
        ],
        "slice": "[0:1, 0:24, 0:1, 0:64, 0:64]",
        "type": "tensor<1x24x64x64xf16>"
      }
    ],
    "results": [
      {
        "address": 65536,
        "layout": "eu_align",
        "memory_type": "<1x24x64x64xf16>",
        "name": "84_Relu",
        "reshape": "<1x24x1x64x64>",
        "shape": [
          1,
          24,
          64,
          64
        ],
        "slice": "[0:1, 0:24, 0:1, 0:64, 0:64]",
        "type": "tensor<1x24x64x64xf16>"
      }
    ],
    "buffers": []
  },
  {
    "file-line": 31,
    "subnet_id": 0,
    "core_id": 0,
    "opcode": "tpu.Store",
    "is_local": true,
    "tiu_dma_id(before)": [
      23,
      11
    ],
    "tiu_dma_id(after)": [
      23,
      12
    ],
    "operands": [
      {
        "address": 65536,
        "layout": "eu_align",
        "memory_type": "<1x24x64x64xf16>",
        "name": "84_Relu",
        "reshape": "<1x24x1x64x64>",
        "shape": [
          1,
          24,
          64,
          64
        ],
        "slice": "[0:1, 0:24, 0:1, 0:64, 0:64]",
        "type": "tensor<1x24x64x64xf16>"
      },
      {}
    ],
    "results": [
      {
        "address": 687195226112,
        "layout": "continuous",
        "memory_type": "<1x24x64x64xf16>",
        "name": "84_Relu",
        "reshape": "<1x24x1x64x64>",
        "shape": [
          1,
          24,
          64,
          64
        ],
        "slice": "[0:1, 0:24, 0:1, 0:64, 0:64]",
        "type": "tensor<1x24x64x64xf16, 687195226112 : i64>"
      }
    ],
    "buffers": []
  },
  {
    "file-line": 34,
    "subnet_id": 0,
    "core_id": 0,
    "opcode": "tpu.Pad",
    "is_local": false,
    "tiu_dma_id(before)": [
      23,
      12
    ],
    "tiu_dma_id(after)": [
      23,
      14
    ],
    "operands": [
      {
        "address": 687195226112,
        "layout": "continuous",
        "memory_type": "<1x24x64x64xf16>",
        "name": "84_Relu",
        "reshape": "",
        "shape": [
          1,
          24,
          64,
          64
        ],
        "slice": "[...]",
        "type": "tensor<1x24x64x64xf16, 687195226112 : i64>"
      },
      {},
      {},
      {},
      {}
    ],
    "results": [
      {
        "address": 687194996736,
        "layout": "continuous",
        "memory_type": "<1x28x64x64xf16>",
        "name": "85_Pad",
        "reshape": "",
        "shape": [
          1,
          28,
          64,
          64
        ],
        "slice": "[...]",
        "type": "tensor<1x28x64x64xf16, 687194996736 : i64>"
      }
    ],
    "buffers": []
  },
  {
    "file-line": 40,
    "subnet_id": 0,
    "core_id": 0,
    "opcode": "tpu.Load",
    "is_local": true,
    "tiu_dma_id(before)": [
      23,
      14
    ],
    "tiu_dma_id(after)": [
      23,
      15
    ],
    "operands": [
      {
        "address": 687195226112,
        "layout": "continuous",
        "memory_type": "<1x24x64x64xf16>",
        "name": "84_Relu",
        "reshape": "<1x24x1x64x64>",
        "shape": [
          1,
          24,
          64,
          64
        ],
        "slice": "[0:1, 0:24, 0:1, 0:64, 0:64]",
        "type": "tensor<1x24x64x64xf16, 687195226112 : i64>"
      }
    ],
    "results": [
      {
        "address": 0,
        "layout": "eu_align",
        "memory_type": "<1x24x64x64xf16>",
        "name": "load_84_Relu",
        "reshape": "<1x24x1x64x64>",
        "shape": [
          1,
          24,
          64,
          64
        ],
        "slice": "[0:1, 0:24, 0:1, 0:64, 0:64]",
        "type": "tensor<1x24x64x64xf16>"
      }
    ],
    "buffers": []
  },
  {
    "file-line": 41,
    "subnet_id": 0,
    "core_id": 0,
    "opcode": "tpu.Load",
    "is_local": true,
    "tiu_dma_id(before)": [
      23,
      15
    ],
    "tiu_dma_id(after)": [
      23,
      16
    ],
    "operands": [
      {
        "address": 618475315200,
        "layout": "continuous",
        "memory_type": "<1x24x3x3xf16>",
        "name": "86_Convblaze_face.backbone1.3.convs.0.weight_f16",
        "reshape": "<1x24x1x3x3>",
        "shape": [
          1,
          24,
          3,
          3
        ],
        "slice": "[0:1, 0:24, 0:1, 0:3, 0:3]",
        "type": "tensor<1x24x3x3xf16, 618475315200 : i64>"
      }
    ],
    "results": [
      {
        "address": 24576,
        "layout": "compact",
        "memory_type": "<1x24x3x3xf16>",
        "name": "load_86_Convblaze_face.backbone1.3.convs.0.weight_f16",
        "reshape": "<1x24x1x3x3>",
        "shape": [
          1,
          24,
          3,
          3
        ],
        "slice": "[0:1, 0:24, 0:1, 0:3, 0:3]",
        "type": "tensor<1x24x3x3xf16>"
      }
    ],
    "buffers": []
  },
  {
    "file-line": 42,
    "subnet_id": 0,
    "core_id": 0,
    "opcode": "tpu.Load",
    "is_local": true,
    "tiu_dma_id(before)": [
      23,
      16
    ],
    "tiu_dma_id(after)": [
      23,
      17
    ],
    "operands": [
      {
        "address": 618475319296,
        "layout": "continuous",
        "memory_type": "<1x24x1x1xf16>",
        "name": "86_Conv_reordered",
        "reshape": "<1x24x1x1x1>",
        "shape": [
          1,
          24,
          1,
          1
        ],
        "slice": "[0:1, 0:24, 0:1, 0:1, 0:1]",
        "type": "tensor<1x24x1x1xf16, 618475319296 : i64>"
      }
    ],
    "results": [
      {
        "address": 81920,
        "layout": "compact",
        "memory_type": "<1x24x1x1xf16>",
        "name": "load_86_Conv_reordered",
        "reshape": "<1x24x1x1x1>",
        "shape": [
          1,
          24,
          1,
          1
        ],
        "slice": "[0:1, 0:24, 0:1, 0:1, 0:1]",
        "type": "tensor<1x24x1x1xf16>"
      }
    ],
    "buffers": []
  },
  {
    "file-line": 45,
    "subnet_id": 0,
    "core_id": 0,
    "opcode": "tpu.Conv2D",
    "is_local": true,
    "tiu_dma_id(before)": [
      23,
      17
    ],
    "tiu_dma_id(after)": [
      25,
      17
    ],
    "operands": [
      {
        "address": 0,
        "layout": "eu_align",
        "memory_type": "<1x24x64x64xf16>",
        "name": "load_84_Relu",
        "reshape": "<1x24x1x64x64>",
        "shape": [
          1,
          24,
          64,
          64
        ],
        "slice": "[0:1, 0:24, 0:1, 0:64, 0:64]",
        "type": "tensor<1x24x64x64xf16>"
      },
      {
        "address": 24576,
        "layout": "compact",
        "memory_type": "<1x24x3x3xf16>",
        "name": "load_86_Convblaze_face.backbone1.3.convs.0.weight_f16",
        "reshape": "<1x24x1x3x3>",
        "shape": [
          1,
          24,
          3,
          3
        ],
        "slice": "[0:1, 0:24, 0:1, 0:3, 0:3]",
        "type": "tensor<1x24x3x3xf16>"
      },
      {
        "address": 81920,
        "layout": "compact",
        "memory_type": "<1x24x1x1xf16>",
        "name": "load_86_Conv_reordered",
        "reshape": "<1x24x1x1x1>",
        "shape": [
          1,
          24,
          1,
          1
        ],
        "slice": "[0:1, 0:24, 0:1, 0:1, 0:1]",
        "type": "tensor<1x24x1x1xf16>"
      }
    ],
    "results": [
      {
        "address": 8192,
        "layout": "eu_align",
        "memory_type": "<1x24x64x64xf16>",
        "name": "86_Conv",
        "reshape": "<1x24x1x64x64>",
        "shape": [
          1,
          24,
          64,
          64
        ],
        "slice": "[0:1, 0:24, 0:1, 0:64, 0:64]",
        "type": "tensor<1x24x64x64xf16>"
      }
    ],
    "buffers": [
      {
        "address": 49152,
        "size": 24589
      }
    ]
  },
  {
    "file-line": 43,
    "subnet_id": 0,
    "core_id": 0,
    "opcode": "tpu.Load",
    "is_local": true,
    "tiu_dma_id(before)": [
      23,
      17
    ],
    "tiu_dma_id(after)": [
      23,
      18
    ],
    "operands": [
      {
        "address": 618475327488,
        "layout": "continuous",
        "memory_type": "<1x28x1x32xf16>",
        "name": "87_Conv_filter_reorderd",
        "reshape": "<1x28x1x1x32>",
        "shape": [
          1,
          28,
          1,
          32
        ],
        "slice": "[0:1, 0:28, 0:1, 0:1, 0:32]",
        "type": "tensor<1x28x1x32xf16, 618475327488 : i64>"
      }
    ],
    "results": [
      {
        "address": 32768,
        "layout": "compact",
        "memory_type": "<1x28x1x32xf16>",
        "name": "load_87_Conv_filter_reorderd",
        "reshape": "<1x28x1x1x32>",
        "shape": [
          1,
          28,
          1,
          32
        ],
        "slice": "[0:1, 0:28, 0:1, 0:1, 0:32]",
        "type": "tensor<1x28x1x32xf16>"
      }
    ],
    "buffers": []
  },
  {
    "file-line": 44,
    "subnet_id": 0,
    "core_id": 0,
    "opcode": "tpu.Load",
    "is_local": true,
    "tiu_dma_id(before)": [
      23,
      18
    ],
    "tiu_dma_id(after)": [
      23,
      19
    ],
    "operands": [
      {
        "address": 618475323392,
        "layout": "continuous",
        "memory_type": "<1x28x1x1xf32>",
        "name": "blaze_face.backbone1.3.convs.1.bias",
        "reshape": "<1x28x1x1x1>",
        "shape": [
          1,
          28,
          1,
          1
        ],
        "slice": "[0:1, 0:28, 0:1, 0:1, 0:1]",
        "type": "tensor<1x28x1x1xf32, 618475323392 : i64>"
      }
    ],
    "results": [
      {
        "address": 40960,
        "layout": "compact",
        "memory_type": "<1x28x1x1xf32>",
        "name": "load_blaze_face.backbone1.3.convs.1.bias",
        "reshape": "<1x28x1x1x1>",
        "shape": [
          1,
          28,
          1,
          1
        ],
        "slice": "[0:1, 0:28, 0:1, 0:1, 0:1]",
        "type": "tensor<1x28x1x1xf32>"
      }
    ],
    "buffers": []
  },
  {
    "file-line": 47,
    "subnet_id": 0,
    "core_id": 0,
    "opcode": "tpu.Conv2D",
    "is_local": true,
    "tiu_dma_id(before)": [
      25,
      19
    ],
    "tiu_dma_id(after)": [
      27,
      19
    ],
    "operands": [
      {
        "address": 8192,
        "layout": "eu_align",
        "memory_type": "<1x24x64x64xf16>",
        "name": "86_Conv",
        "reshape": "<1x24x1x64x64>",
        "shape": [
          1,
          24,
          64,
          64
        ],
        "slice": "[0:1, 0:24, 0:1, 0:64, 0:64]",
        "type": "tensor<1x24x64x64xf16>"
      },
      {
        "address": 32768,
        "layout": "compact",
        "memory_type": "<1x28x1x32xf16>",
        "name": "load_87_Conv_filter_reorderd",
        "reshape": "<1x28x1x1x32>",
        "shape": [
          1,
          28,
          1,
          32
        ],
        "slice": "[0:1, 0:28, 0:1, 0:1, 0:32]",
        "type": "tensor<1x28x1x32xf16>"
      },
      {
        "address": 40960,
        "layout": "compact",
        "memory_type": "<1x28x1x1xf32>",
        "name": "load_blaze_face.backbone1.3.convs.1.bias",
        "reshape": "<1x28x1x1x1>",
        "shape": [
          1,
          28,
          1,
          1
        ],
        "slice": "[0:1, 0:28, 0:1, 0:1, 0:1]",
        "type": "tensor<1x28x1x1xf32>"
      }
    ],
    "results": [
      {
        "address": 16384,
        "layout": "eu_align",
        "memory_type": "<1x28x64x64xf16>",
        "name": "87_Conv",
        "reshape": "<1x28x1x64x64>",
        "shape": [
          1,
          28,
          64,
          64
        ],
        "slice": "[0:1, 0:28, 0:1, 0:64, 0:64]",
        "type": "tensor<1x28x64x64xf16>"
      }
    ],
    "buffers": []
  },
  {
    "file-line": 46,
    "subnet_id": 0,
    "core_id": 0,
    "opcode": "tpu.Load",
    "is_local": true,
    "tiu_dma_id(before)": [
      25,
      19
    ],
    "tiu_dma_id(after)": [
      25,
      20
    ],
    "operands": [
      {
        "address": 687194996736,
        "layout": "continuous",
        "memory_type": "<1x28x64x64xf16>",
        "name": "85_Pad",
        "reshape": "<1x28x1x64x64>",
        "shape": [
          1,
          28,
          64,
          64
        ],
        "slice": "[0:1, 0:28, 0:1, 0:64, 0:64]",
        "type": "tensor<1x28x64x64xf16, 687194996736 : i64>"
      }
    ],
    "results": [
      {
        "address": 24576,
        "layout": "eu_align",
        "memory_type": "<1x28x64x64xf16>",
        "name": "load_85_Pad",
        "reshape": "<1x28x1x64x64>",
        "shape": [
          1,
          28,
          64,
          64
        ],
        "slice": "[0:1, 0:28, 0:1, 0:64, 0:64]",
        "type": "tensor<1x28x64x64xf16>"
      }
    ],
    "buffers": []
  },
  {
    "file-line": 48,
    "subnet_id": 0,
    "core_id": 0,
    "opcode": "tpu.Add",
    "is_local": true,
    "tiu_dma_id(before)": [
      27,
      20
    ],
    "tiu_dma_id(after)": [
      29,
      20
    ],
    "operands": [
      {
        "address": 16384,
        "layout": "eu_align",
        "memory_type": "<1x28x64x64xf16>",
        "name": "87_Conv",
        "reshape": "<1x28x1x64x64>",
        "shape": [
          1,
          28,
          64,
          64
        ],
        "slice": "[0:1, 0:28, 0:1, 0:64, 0:64]",
        "type": "tensor<1x28x64x64xf16>"
      },
      {
        "address": 24576,
        "layout": "eu_align",
        "memory_type": "<1x28x64x64xf16>",
        "name": "load_85_Pad",
        "reshape": "<1x28x1x64x64>",
        "shape": [
          1,
          28,
          64,
          64
        ],
        "slice": "[0:1, 0:28, 0:1, 0:64, 0:64]",
        "type": "tensor<1x28x64x64xf16>"
      }
    ],
    "results": [
      {
        "address": 8192,
        "layout": "eu_align",
        "memory_type": "<1x28x64x64xf16>",
        "name": "89_Relu",
        "reshape": "<1x28x1x64x64>",
        "shape": [
          1,
          28,
          64,
          64
        ],
        "slice": "[0:1, 0:28, 0:1, 0:64, 0:64]",
        "type": "tensor<1x28x64x64xf16>"
      }
    ],
    "buffers": []
  },
  {
    "file-line": 50,
    "subnet_id": 0,
    "core_id": 0,
    "opcode": "tpu.Pool2D",
    "is_local": true,
    "tiu_dma_id(before)": [
      29,
      20
    ],
    "tiu_dma_id(after)": [
      30,
      20
    ],
    "operands": [
      {
        "address": 8192,
        "layout": "eu_align",
        "memory_type": "<1x28x64x64xf16>",
        "name": "89_Relu",
        "reshape": "<1x28x1x64x64>",
        "shape": [
          1,
          28,
          64,
          64
        ],
        "slice": "[0:1, 0:28, 0:1, 0:64, 0:64]",
        "type": "tensor<1x28x64x64xf16>"
      }
    ],
    "results": [
      {
        "address": 16384,
        "layout": "eu_align",
        "memory_type": "<1x28x32x32xf16>",
        "name": "91_MaxPool",
        "reshape": "<1x28x1x32x32>",
        "shape": [
          1,
          28,
          32,
          32
        ],
        "slice": "[0:1, 0:28, 0:1, 0:32, 0:32]",
        "type": "tensor<1x28x32x32xf16>"
      }
    ],
    "buffers": []
  },
  {
    "file-line": 49,
    "subnet_id": 0,
    "core_id": 0,
    "opcode": "tpu.Store",
    "is_local": true,
    "tiu_dma_id(before)": [
      29,
      20
    ],
    "tiu_dma_id(after)": [
      29,
      21
    ],
    "operands": [
      {
        "address": 8192,
        "layout": "eu_align",
        "memory_type": "<1x28x64x64xf16>",
        "name": "89_Relu",
        "reshape": "<1x28x1x64x64>",
        "shape": [
          1,
          28,
          64,
          64
        ],
        "slice": "[0:1, 0:28, 0:1, 0:64, 0:64]",
        "type": "tensor<1x28x64x64xf16>"
      },
      {}
    ],
    "results": [
      {
        "address": 687194767360,
        "layout": "continuous",
        "memory_type": "<1x28x64x64xf16>",
        "name": "89_Relu",
        "reshape": "<1x28x1x64x64>",
        "shape": [
          1,
          28,
          64,
          64
        ],
        "slice": "[0:1, 0:28, 0:1, 0:64, 0:64]",
        "type": "tensor<1x28x64x64xf16, 687194767360 : i64>"
      }
    ],
    "buffers": []
  },
  {
    "file-line": 51,
    "subnet_id": 0,
    "core_id": 0,
    "opcode": "tpu.Store",
    "is_local": true,
    "tiu_dma_id(before)": [
      30,
      21
    ],
    "tiu_dma_id(after)": [
      30,
      22
    ],
    "operands": [
      {
        "address": 16384,
        "layout": "eu_align",
        "memory_type": "<1x28x32x32xf16>",
        "name": "91_MaxPool",
        "reshape": "<1x28x1x32x32>",
        "shape": [
          1,
          28,
          32,
          32
        ],
        "slice": "[0:1, 0:28, 0:1, 0:32, 0:32]",
        "type": "tensor<1x28x32x32xf16>"
      },
      {}
    ],
    "results": [
      {
        "address": 687195619328,
        "layout": "continuous",
        "memory_type": "<1x28x32x32xf16>",
        "name": "91_MaxPool",
        "reshape": "<1x28x1x32x32>",
        "shape": [
          1,
          28,
          32,
          32
        ],
        "slice": "[0:1, 0:28, 0:1, 0:32, 0:32]",
        "type": "tensor<1x28x32x32xf16, 687195619328 : i64>"
      }
    ],
    "buffers": []
  },
  {
    "file-line": 54,
    "subnet_id": 0,
    "core_id": 0,
    "opcode": "tpu.Pad",
    "is_local": false,
    "tiu_dma_id(before)": [
      30,
      22
    ],
    "tiu_dma_id(after)": [
      30,
      24
    ],
    "operands": [
      {
        "address": 687195619328,
        "layout": "continuous",
        "memory_type": "<1x28x32x32xf16>",
        "name": "91_MaxPool",
        "reshape": "",
        "shape": [
          1,
          28,
          32,
          32
        ],
        "slice": "[...]",
        "type": "tensor<1x28x32x32xf16, 687195619328 : i64>"
      },
      {},
      {},
      {},
      {}
    ],
    "results": [
      {
        "address": 687195078656,
        "layout": "continuous",
        "memory_type": "<1x32x32x32xf16>",
        "name": "92_Pad",
        "reshape": "",
        "shape": [
          1,
          32,
          32,
          32
        ],
        "slice": "[...]",
        "type": "tensor<1x32x32x32xf16, 687195078656 : i64>"
      }
    ],
    "buffers": []
  },
  {
    "file-line": 60,
    "subnet_id": 0,
    "core_id": 0,
    "opcode": "tpu.Load",
    "is_local": true,
    "tiu_dma_id(before)": [
      30,
      24
    ],
    "tiu_dma_id(after)": [
      30,
      25
    ],
    "operands": [
      {
        "address": 687194767360,
        "layout": "continuous",
        "memory_type": "<1x28x64x64xf16>",
        "name": "89_Relu",
        "reshape": "<1x28x1x64x64>",
        "shape": [
          1,
          28,
          64,
          64
        ],
        "slice": "[0:1, 0:28, 0:1, 0:64, 0:64]",
        "type": "tensor<1x28x64x64xf16, 687194767360 : i64>"
      }
    ],
    "results": [
      {
        "address": 0,
        "layout": "eu_align",
        "memory_type": "<1x28x64x64xf16>",
        "name": "load_89_Relu",
        "reshape": "<1x28x1x64x64>",
        "shape": [
          1,
          28,
          64,
          64
        ],
        "slice": "[0:1, 0:28, 0:1, 0:64, 0:64]",
        "type": "tensor<1x28x64x64xf16>"
      }
    ],
    "buffers": []
  },
  {
    "file-line": 61,
    "subnet_id": 0,
    "core_id": 0,
    "opcode": "tpu.Load",
    "is_local": true,
    "tiu_dma_id(before)": [
      30,
      25
    ],
    "tiu_dma_id(after)": [
      30,
      26
    ],
    "operands": [
      {
        "address": 618475331584,
        "layout": "continuous",
        "memory_type": "<1x28x3x3xf16>",
        "name": "93_Convblaze_face.backbone1.4.convs.0.weight_f16",
        "reshape": "<1x28x1x3x3>",
        "shape": [
          1,
          28,
          3,
          3
        ],
        "slice": "[0:1, 0:28, 0:1, 0:3, 0:3]",
        "type": "tensor<1x28x3x3xf16, 618475331584 : i64>"
      }
    ],
    "results": [
      {
        "address": 40960,
        "layout": "compact",
        "memory_type": "<1x28x3x3xf16>",
        "name": "load_93_Convblaze_face.backbone1.4.convs.0.weight_f16",
        "reshape": "<1x28x1x3x3>",
        "shape": [
          1,
          28,
          3,
          3
        ],
        "slice": "[0:1, 0:28, 0:1, 0:3, 0:3]",
        "type": "tensor<1x28x3x3xf16>"
      }
    ],
    "buffers": []
  },
  {
    "file-line": 62,
    "subnet_id": 0,
    "core_id": 0,
    "opcode": "tpu.Load",
    "is_local": true,
    "tiu_dma_id(before)": [
      30,
      26
    ],
    "tiu_dma_id(after)": [
      30,
      27
    ],
    "operands": [
      {
        "address": 618475335680,
        "layout": "continuous",
        "memory_type": "<1x28x1x1xf16>",
        "name": "93_Conv_reordered",
        "reshape": "<1x28x1x1x1>",
        "shape": [
          1,
          28,
          1,
          1
        ],
        "slice": "[0:1, 0:28, 0:1, 0:1, 0:1]",
        "type": "tensor<1x28x1x1xf16, 618475335680 : i64>"
      }
    ],
    "results": [
      {
        "address": 57344,
        "layout": "compact",
        "memory_type": "<1x28x1x1xf16>",
        "name": "load_93_Conv_reordered",
        "reshape": "<1x28x1x1x1>",
        "shape": [
          1,
          28,
          1,
          1
        ],
        "slice": "[0:1, 0:28, 0:1, 0:1, 0:1]",
        "type": "tensor<1x28x1x1xf16>"
      }
    ],
    "buffers": []
  },
  {
    "file-line": 65,
    "subnet_id": 0,
    "core_id": 0,
    "opcode": "tpu.Conv2D",
    "is_local": true,
    "tiu_dma_id(before)": [
      30,
      27
    ],
    "tiu_dma_id(after)": [
      32,
      27
    ],
    "operands": [
      {
        "address": 0,
        "layout": "eu_align",
        "memory_type": "<1x28x64x64xf16>",
        "name": "load_89_Relu",
        "reshape": "<1x28x1x64x64>",
        "shape": [
          1,
          28,
          64,
          64
        ],
        "slice": "[0:1, 0:28, 0:1, 0:64, 0:64]",
        "type": "tensor<1x28x64x64xf16>"
      },
      {
        "address": 40960,
        "layout": "compact",
        "memory_type": "<1x28x3x3xf16>",
        "name": "load_93_Convblaze_face.backbone1.4.convs.0.weight_f16",
        "reshape": "<1x28x1x3x3>",
        "shape": [
          1,
          28,
          3,
          3
        ],
        "slice": "[0:1, 0:28, 0:1, 0:3, 0:3]",
        "type": "tensor<1x28x3x3xf16>"
      },
      {
        "address": 57344,
        "layout": "compact",
        "memory_type": "<1x28x1x1xf16>",
        "name": "load_93_Conv_reordered",
        "reshape": "<1x28x1x1x1>",
        "shape": [
          1,
          28,
          1,
          1
        ],
        "slice": "[0:1, 0:28, 0:1, 0:1, 0:1]",
        "type": "tensor<1x28x1x1xf16>"
      }
    ],
    "results": [
      {
        "address": 8192,
        "layout": "eu_align",
        "memory_type": "<1x28x32x32xf16>",
        "name": "93_Conv",
        "reshape": "<1x28x1x32x32>",
        "shape": [
          1,
          28,
          32,
          32
        ],
        "slice": "[0:1, 0:28, 0:1, 0:32, 0:32]",
        "type": "tensor<1x28x32x32xf16>"
      }
    ],
    "buffers": [
      {
        "address": 16384,
        "size": 12301
      }
    ]
  },
  {
    "file-line": 63,
    "subnet_id": 0,
    "core_id": 0,
    "opcode": "tpu.Load",
    "is_local": true,
    "tiu_dma_id(before)": [
      30,
      27
    ],
    "tiu_dma_id(after)": [
      30,
      28
    ],
    "operands": [
      {
        "address": 618475343872,
        "layout": "continuous",
        "memory_type": "<1x32x1x32xf16>",
        "name": "94_Conv_filter_reorderd",
        "reshape": "<1x32x1x1x32>",
        "shape": [
          1,
          32,
          1,
          32
        ],
        "slice": "[0:1, 0:32, 0:1, 0:1, 0:32]",
        "type": "tensor<1x32x1x32xf16, 618475343872 : i64>"
      }
    ],
    "results": [
      {
        "address": 34816,
        "layout": "compact",
        "memory_type": "<1x32x1x32xf16>",
        "name": "load_94_Conv_filter_reorderd",
        "reshape": "<1x32x1x1x32>",
        "shape": [
          1,
          32,
          1,
          32
        ],
        "slice": "[0:1, 0:32, 0:1, 0:1, 0:32]",
        "type": "tensor<1x32x1x32xf16>"
      }
    ],
    "buffers": []
  },
  {
    "file-line": 64,
    "subnet_id": 0,
    "core_id": 0,
    "opcode": "tpu.Load",
    "is_local": true,
    "tiu_dma_id(before)": [
      30,
      28
    ],
    "tiu_dma_id(after)": [
      30,
      29
    ],
    "operands": [
      {
        "address": 618475339776,
        "layout": "continuous",
        "memory_type": "<1x32x1x1xf32>",
        "name": "blaze_face.backbone1.4.convs.1.bias",
        "reshape": "<1x32x1x1x1>",
        "shape": [
          1,
          32,
          1,
          1
        ],
        "slice": "[0:1, 0:32, 0:1, 0:1, 0:1]",
        "type": "tensor<1x32x1x1xf32, 618475339776 : i64>"
      }
    ],
    "results": [
      {
        "address": 49152,
        "layout": "compact",
        "memory_type": "<1x32x1x1xf32>",
        "name": "load_blaze_face.backbone1.4.convs.1.bias",
        "reshape": "<1x32x1x1x1>",
        "shape": [
          1,
          32,
          1,
          1
        ],
        "slice": "[0:1, 0:32, 0:1, 0:1, 0:1]",
        "type": "tensor<1x32x1x1xf32>"
      }
    ],
    "buffers": []
  },
  {
    "file-line": 67,
    "subnet_id": 0,
    "core_id": 0,
    "opcode": "tpu.Conv2D",
    "is_local": true,
    "tiu_dma_id(before)": [
      32,
      29
    ],
    "tiu_dma_id(after)": [
      34,
      29
    ],
    "operands": [
      {
        "address": 8192,
        "layout": "eu_align",
        "memory_type": "<1x28x32x32xf16>",
        "name": "93_Conv",
        "reshape": "<1x28x1x32x32>",
        "shape": [
          1,
          28,
          32,
          32
        ],
        "slice": "[0:1, 0:28, 0:1, 0:32, 0:32]",
        "type": "tensor<1x28x32x32xf16>"
      },
      {
        "address": 34816,
        "layout": "compact",
        "memory_type": "<1x32x1x32xf16>",
        "name": "load_94_Conv_filter_reorderd",
        "reshape": "<1x32x1x1x32>",
        "shape": [
          1,
          32,
          1,
          32
        ],
        "slice": "[0:1, 0:32, 0:1, 0:1, 0:32]",
        "type": "tensor<1x32x1x32xf16>"
      },
      {
        "address": 49152,
        "layout": "compact",
        "memory_type": "<1x32x1x1xf32>",
        "name": "load_blaze_face.backbone1.4.convs.1.bias",
        "reshape": "<1x32x1x1x1>",
        "shape": [
          1,
          32,
          1,
          1
        ],
        "slice": "[0:1, 0:32, 0:1, 0:1, 0:1]",
        "type": "tensor<1x32x1x1xf32>"
      }
    ],
    "results": [
      {
        "address": 16384,
        "layout": "eu_align",
        "memory_type": "<1x32x32x32xf16>",
        "name": "94_Conv",
        "reshape": "<1x32x1x32x32>",
        "shape": [
          1,
          32,
          32,
          32
        ],
        "slice": "[0:1, 0:32, 0:1, 0:32, 0:32]",
        "type": "tensor<1x32x32x32xf16>"
      }
    ],
    "buffers": []
  },
  {
    "file-line": 66,
    "subnet_id": 0,
    "core_id": 0,
    "opcode": "tpu.Load",
    "is_local": true,
    "tiu_dma_id(before)": [
      32,
      29
    ],
    "tiu_dma_id(after)": [
      32,
      30
    ],
    "operands": [
      {
        "address": 687195078656,
        "layout": "continuous",
        "memory_type": "<1x32x32x32xf16>",
        "name": "92_Pad",
        "reshape": "<1x32x1x32x32>",
        "shape": [
          1,
          32,
          32,
          32
        ],
        "slice": "[0:1, 0:32, 0:1, 0:32, 0:32]",
        "type": "tensor<1x32x32x32xf16, 687195078656 : i64>"
      }
    ],
    "results": [
      {
        "address": 24576,
        "layout": "eu_align",
        "memory_type": "<1x32x32x32xf16>",
        "name": "load_92_Pad",
        "reshape": "<1x32x1x32x32>",
        "shape": [
          1,
          32,
          32,
          32
        ],
        "slice": "[0:1, 0:32, 0:1, 0:32, 0:32]",
        "type": "tensor<1x32x32x32xf16>"
      }
    ],
    "buffers": []
  },
  {
    "file-line": 68,
    "subnet_id": 0,
    "core_id": 0,
    "opcode": "tpu.Add",
    "is_local": true,
    "tiu_dma_id(before)": [
      34,
      30
    ],
    "tiu_dma_id(after)": [
      36,
      30
    ],
    "operands": [
      {
        "address": 16384,
        "layout": "eu_align",
        "memory_type": "<1x32x32x32xf16>",
        "name": "94_Conv",
        "reshape": "<1x32x1x32x32>",
        "shape": [
          1,
          32,
          32,
          32
        ],
        "slice": "[0:1, 0:32, 0:1, 0:32, 0:32]",
        "type": "tensor<1x32x32x32xf16>"
      },
      {
        "address": 24576,
        "layout": "eu_align",
        "memory_type": "<1x32x32x32xf16>",
        "name": "load_92_Pad",
        "reshape": "<1x32x1x32x32>",
        "shape": [
          1,
          32,
          32,
          32
        ],
        "slice": "[0:1, 0:32, 0:1, 0:32, 0:32]",
        "type": "tensor<1x32x32x32xf16>"
      }
    ],
    "results": [
      {
        "address": 32768,
        "layout": "eu_align",
        "memory_type": "<1x32x32x32xf16>",
        "name": "96_Relu",
        "reshape": "<1x32x1x32x32>",
        "shape": [
          1,
          32,
          32,
          32
        ],
        "slice": "[0:1, 0:32, 0:1, 0:32, 0:32]",
        "type": "tensor<1x32x32x32xf16>"
      }
    ],
    "buffers": []
  },
  {
    "file-line": 69,
    "subnet_id": 0,
    "core_id": 0,
    "opcode": "tpu.Store",
    "is_local": true,
    "tiu_dma_id(before)": [
      36,
      30
    ],
    "tiu_dma_id(after)": [
      36,
      31
    ],
    "operands": [
      {
        "address": 32768,
        "layout": "eu_align",
        "memory_type": "<1x32x32x32xf16>",
        "name": "96_Relu",
        "reshape": "<1x32x1x32x32>",
        "shape": [
          1,
          32,
          32,
          32
        ],
        "slice": "[0:1, 0:32, 0:1, 0:32, 0:32]",
        "type": "tensor<1x32x32x32xf16>"
      },
      {}
    ],
    "results": [
      {
        "address": 687195013120,
        "layout": "continuous",
        "memory_type": "<1x32x32x32xf16>",
        "name": "96_Relu",
        "reshape": "<1x32x1x32x32>",
        "shape": [
          1,
          32,
          32,
          32
        ],
        "slice": "[0:1, 0:32, 0:1, 0:32, 0:32]",
        "type": "tensor<1x32x32x32xf16, 687195013120 : i64>"
      }
    ],
    "buffers": []
  },
  {
    "file-line": 72,
    "subnet_id": 0,
    "core_id": 0,
    "opcode": "tpu.Pad",
    "is_local": false,
    "tiu_dma_id(before)": [
      36,
      31
    ],
    "tiu_dma_id(after)": [
      36,
      33
    ],
    "operands": [
      {
        "address": 687195013120,
        "layout": "continuous",
        "memory_type": "<1x32x32x32xf16>",
        "name": "96_Relu",
        "reshape": "",
        "shape": [
          1,
          32,
          32,
          32
        ],
        "slice": "[...]",
        "type": "tensor<1x32x32x32xf16, 687195013120 : i64>"
      },
      {},
      {},
      {},
      {}
    ],
    "results": [
      {
        "address": 687194767360,
        "layout": "continuous",
        "memory_type": "<1x36x32x32xf16>",
        "name": "97_Pad",
        "reshape": "",
        "shape": [
          1,
          36,
          32,
          32
        ],
        "slice": "[...]",
        "type": "tensor<1x36x32x32xf16, 687194767360 : i64>"
      }
    ],
    "buffers": []
  },
  {
    "file-line": 78,
    "subnet_id": 0,
    "core_id": 0,
    "opcode": "tpu.Load",
    "is_local": true,
    "tiu_dma_id(before)": [
      36,
      33
    ],
    "tiu_dma_id(after)": [
      36,
      34
    ],
    "operands": [
      {
        "address": 687195013120,
        "layout": "continuous",
        "memory_type": "<1x32x32x32xf16>",
        "name": "96_Relu",
        "reshape": "<1x32x1x32x32>",
        "shape": [
          1,
          32,
          32,
          32
        ],
        "slice": "[0:1, 0:32, 0:1, 0:32, 0:32]",
        "type": "tensor<1x32x32x32xf16, 687195013120 : i64>"
      }
    ],
    "results": [
      {
        "address": 32768,
        "layout": "eu_align",
        "memory_type": "<1x32x32x32xf16>",
        "name": "load_96_Relu",
        "reshape": "<1x32x1x32x32>",
        "shape": [
          1,
          32,
          32,
          32
        ],
        "slice": "[0:1, 0:32, 0:1, 0:32, 0:32]",
        "type": "tensor<1x32x32x32xf16>"
      }
    ],
    "buffers": []
  },
  {
    "file-line": 79,
    "subnet_id": 0,
    "core_id": 0,
    "opcode": "tpu.Load",
    "is_local": true,
    "tiu_dma_id(before)": [
      36,
      34
    ],
    "tiu_dma_id(after)": [
      36,
      35
    ],
    "operands": [
      {
        "address": 618475347968,
        "layout": "continuous",
        "memory_type": "<1x32x3x3xf16>",
        "name": "98_Convblaze_face.backbone1.5.convs.0.weight_f16",
        "reshape": "<1x32x1x3x3>",
        "shape": [
          1,
          32,
          3,
          3
        ],
        "slice": "[0:1, 0:32, 0:1, 0:3, 0:3]",
        "type": "tensor<1x32x3x3xf16, 618475347968 : i64>"
      }
    ],
    "results": [
      {
        "address": 40960,
        "layout": "compact",
        "memory_type": "<1x32x3x3xf16>",
        "name": "load_98_Convblaze_face.backbone1.5.convs.0.weight_f16",
        "reshape": "<1x32x1x3x3>",
        "shape": [
          1,
          32,
          3,
          3
        ],
        "slice": "[0:1, 0:32, 0:1, 0:3, 0:3]",
        "type": "tensor<1x32x3x3xf16>"
      }
    ],
    "buffers": []
  },
  {
    "file-line": 80,
    "subnet_id": 0,
    "core_id": 0,
    "opcode": "tpu.Load",
    "is_local": true,
    "tiu_dma_id(before)": [
      36,
      35
    ],
    "tiu_dma_id(after)": [
      36,
      36
    ],
    "operands": [
      {
        "address": 618475352064,
        "layout": "continuous",
        "memory_type": "<1x32x1x1xf16>",
        "name": "98_Conv_reordered",
        "reshape": "<1x32x1x1x1>",
        "shape": [
          1,
          32,
          1,
          1
        ],
        "slice": "[0:1, 0:32, 0:1, 0:1, 0:1]",
        "type": "tensor<1x32x1x1xf16, 618475352064 : i64>"
      }
    ],
    "results": [
      {
        "address": 57344,
        "layout": "compact",
        "memory_type": "<1x32x1x1xf16>",
        "name": "load_98_Conv_reordered",
        "reshape": "<1x32x1x1x1>",
        "shape": [
          1,
          32,
          1,
          1
        ],
        "slice": "[0:1, 0:32, 0:1, 0:1, 0:1]",
        "type": "tensor<1x32x1x1xf16>"
      }
    ],
    "buffers": []
  },
  {
    "file-line": 83,
    "subnet_id": 0,
    "core_id": 0,
    "opcode": "tpu.Conv2D",
    "is_local": true,
    "tiu_dma_id(before)": [
      36,
      36
    ],
    "tiu_dma_id(after)": [
      38,
      36
    ],
    "operands": [
      {
        "address": 32768,
        "layout": "eu_align",
        "memory_type": "<1x32x32x32xf16>",
        "name": "load_96_Relu",
        "reshape": "<1x32x1x32x32>",
        "shape": [
          1,
          32,
          32,
          32
        ],
        "slice": "[0:1, 0:32, 0:1, 0:32, 0:32]",
        "type": "tensor<1x32x32x32xf16>"
      },
      {
        "address": 40960,
        "layout": "compact",
        "memory_type": "<1x32x3x3xf16>",
        "name": "load_98_Convblaze_face.backbone1.5.convs.0.weight_f16",
        "reshape": "<1x32x1x3x3>",
        "shape": [
          1,
          32,
          3,
          3
        ],
        "slice": "[0:1, 0:32, 0:1, 0:3, 0:3]",
        "type": "tensor<1x32x3x3xf16>"
      },
      {
        "address": 57344,
        "layout": "compact",
        "memory_type": "<1x32x1x1xf16>",
        "name": "load_98_Conv_reordered",
        "reshape": "<1x32x1x1x1>",
        "shape": [
          1,
          32,
          1,
          1
        ],
        "slice": "[0:1, 0:32, 0:1, 0:1, 0:1]",
        "type": "tensor<1x32x1x1xf16>"
      }
    ],
    "results": [
      {
        "address": 24576,
        "layout": "eu_align",
        "memory_type": "<1x32x32x32xf16>",
        "name": "98_Conv",
        "reshape": "<1x32x1x32x32>",
        "shape": [
          1,
          32,
          32,
          32
        ],
        "slice": "[0:1, 0:32, 0:1, 0:32, 0:32]",
        "type": "tensor<1x32x32x32xf16>"
      }
    ],
    "buffers": [
      {
        "address": 0,
        "size": 6157
      }
    ]
  },
  {
    "file-line": 81,
    "subnet_id": 0,
    "core_id": 0,
    "opcode": "tpu.Load",
    "is_local": true,
    "tiu_dma_id(before)": [
      36,
      36
    ],
    "tiu_dma_id(after)": [
      36,
      37
    ],
    "operands": [
      {
        "address": 618475360256,
        "layout": "continuous",
        "memory_type": "<1x36x1x32xf16>",
        "name": "99_Conv_filter_reorderd",
        "reshape": "<1x36x1x1x32>",
        "shape": [
          1,
          36,
          1,
          32
        ],
        "slice": "[0:1, 0:36, 0:1, 0:1, 0:32]",
        "type": "tensor<1x36x1x32xf16, 618475360256 : i64>"
      }
    ],
    "results": [
      {
        "address": 20480,
        "layout": "compact",
        "memory_type": "<1x36x1x32xf16>",
        "name": "load_99_Conv_filter_reorderd",
        "reshape": "<1x36x1x1x32>",
        "shape": [
          1,
          36,
          1,
          32
        ],
        "slice": "[0:1, 0:36, 0:1, 0:1, 0:32]",
        "type": "tensor<1x36x1x32xf16>"
      }
    ],
    "buffers": []
  },
  {
    "file-line": 82,
    "subnet_id": 0,
    "core_id": 0,
    "opcode": "tpu.Load",
    "is_local": true,
    "tiu_dma_id(before)": [
      36,
      37
    ],
    "tiu_dma_id(after)": [
      36,
      38
    ],
    "operands": [
      {
        "address": 618475356160,
        "layout": "continuous",
        "memory_type": "<1x36x1x1xf32>",
        "name": "blaze_face.backbone1.5.convs.1.bias",
        "reshape": "<1x36x1x1x1>",
        "shape": [
          1,
          36,
          1,
          1
        ],
        "slice": "[0:1, 0:36, 0:1, 0:1, 0:1]",
        "type": "tensor<1x36x1x1xf32, 618475356160 : i64>"
      }
    ],
    "results": [
      {
        "address": 49152,
        "layout": "compact",
        "memory_type": "<1x36x1x1xf32>",
        "name": "load_blaze_face.backbone1.5.convs.1.bias",
        "reshape": "<1x36x1x1x1>",
        "shape": [
          1,
          36,
          1,
          1
        ],
        "slice": "[0:1, 0:36, 0:1, 0:1, 0:1]",
        "type": "tensor<1x36x1x1xf32>"
      }
    ],
    "buffers": []
  },
  {
    "file-line": 85,
    "subnet_id": 0,
    "core_id": 0,
    "opcode": "tpu.Conv2D",
    "is_local": true,
    "tiu_dma_id(before)": [
      38,
      38
    ],
    "tiu_dma_id(after)": [
      40,
      38
    ],
    "operands": [
      {
        "address": 24576,
        "layout": "eu_align",
        "memory_type": "<1x32x32x32xf16>",
        "name": "98_Conv",
        "reshape": "<1x32x1x32x32>",
        "shape": [
          1,
          32,
          32,
          32
        ],
        "slice": "[0:1, 0:32, 0:1, 0:32, 0:32]",
        "type": "tensor<1x32x32x32xf16>"
      },
      {
        "address": 20480,
        "layout": "compact",
        "memory_type": "<1x36x1x32xf16>",
        "name": "load_99_Conv_filter_reorderd",
        "reshape": "<1x36x1x1x32>",
        "shape": [
          1,
          36,
          1,
          32
        ],
        "slice": "[0:1, 0:36, 0:1, 0:1, 0:32]",
        "type": "tensor<1x36x1x32xf16>"
      },
      {
        "address": 49152,
        "layout": "compact",
        "memory_type": "<1x36x1x1xf32>",
        "name": "load_blaze_face.backbone1.5.convs.1.bias",
        "reshape": "<1x36x1x1x1>",
        "shape": [
          1,
          36,
          1,
          1
        ],
        "slice": "[0:1, 0:36, 0:1, 0:1, 0:1]",
        "type": "tensor<1x36x1x1xf32>"
      }
    ],
    "results": [
      {
        "address": 0,
        "layout": "eu_align",
        "memory_type": "<1x36x32x32xf16>",
        "name": "99_Conv",
        "reshape": "<1x36x1x32x32>",
        "shape": [
          1,
          36,
          32,
          32
        ],
        "slice": "[0:1, 0:36, 0:1, 0:32, 0:32]",
        "type": "tensor<1x36x32x32xf16>"
      }
    ],
    "buffers": []
  },
  {
    "file-line": 84,
    "subnet_id": 0,
    "core_id": 0,
    "opcode": "tpu.Load",
    "is_local": true,
    "tiu_dma_id(before)": [
      38,
      38
    ],
    "tiu_dma_id(after)": [
      38,
      39
    ],
    "operands": [
      {
        "address": 687194767360,
        "layout": "continuous",
        "memory_type": "<1x36x32x32xf16>",
        "name": "97_Pad",
        "reshape": "<1x36x1x32x32>",
        "shape": [
          1,
          36,
          32,
          32
        ],
        "slice": "[0:1, 0:36, 0:1, 0:32, 0:32]",
        "type": "tensor<1x36x32x32xf16, 687194767360 : i64>"
      }
    ],
    "results": [
      {
        "address": 8192,
        "layout": "eu_align",
        "memory_type": "<1x36x32x32xf16>",
        "name": "load_97_Pad",
        "reshape": "<1x36x1x32x32>",
        "shape": [
          1,
          36,
          32,
          32
        ],
        "slice": "[0:1, 0:36, 0:1, 0:32, 0:32]",
        "type": "tensor<1x36x32x32xf16>"
      }
    ],
    "buffers": []
  },
  {
    "file-line": 86,
    "subnet_id": 0,
    "core_id": 0,
    "opcode": "tpu.Add",
    "is_local": true,
    "tiu_dma_id(before)": [
      40,
      39
    ],
    "tiu_dma_id(after)": [
      42,
      39
    ],
    "operands": [
      {
        "address": 0,
        "layout": "eu_align",
        "memory_type": "<1x36x32x32xf16>",
        "name": "99_Conv",
        "reshape": "<1x36x1x32x32>",
        "shape": [
          1,
          36,
          32,
          32
        ],
        "slice": "[0:1, 0:36, 0:1, 0:32, 0:32]",
        "type": "tensor<1x36x32x32xf16>"
      },
      {
        "address": 8192,
        "layout": "eu_align",
        "memory_type": "<1x36x32x32xf16>",
        "name": "load_97_Pad",
        "reshape": "<1x36x1x32x32>",
        "shape": [
          1,
          36,
          32,
          32
        ],
        "slice": "[0:1, 0:36, 0:1, 0:32, 0:32]",
        "type": "tensor<1x36x32x32xf16>"
      }
    ],
    "results": [
      {
        "address": 16384,
        "layout": "eu_align",
        "memory_type": "<1x36x32x32xf16>",
        "name": "101_Relu",
        "reshape": "<1x36x1x32x32>",
        "shape": [
          1,
          36,
          32,
          32
        ],
        "slice": "[0:1, 0:36, 0:1, 0:32, 0:32]",
        "type": "tensor<1x36x32x32xf16>"
      }
    ],
    "buffers": []
  },
  {
    "file-line": 87,
    "subnet_id": 0,
    "core_id": 0,
    "opcode": "tpu.Store",
    "is_local": true,
    "tiu_dma_id(before)": [
      42,
      39
    ],
    "tiu_dma_id(after)": [
      42,
      40
    ],
    "operands": [
      {
        "address": 16384,
        "layout": "eu_align",
        "memory_type": "<1x36x32x32xf16>",
        "name": "101_Relu",
        "reshape": "<1x36x1x32x32>",
        "shape": [
          1,
          36,
          32,
          32
        ],
        "slice": "[0:1, 0:36, 0:1, 0:32, 0:32]",
        "type": "tensor<1x36x32x32xf16>"
      },
      {}
    ],
    "results": [
      {
        "address": 687194939392,
        "layout": "continuous",
        "memory_type": "<1x36x32x32xf16>",
        "name": "101_Relu",
        "reshape": "<1x36x1x32x32>",
        "shape": [
          1,
          36,
          32,
          32
        ],
        "slice": "[0:1, 0:36, 0:1, 0:32, 0:32]",
        "type": "tensor<1x36x32x32xf16, 687194939392 : i64>"
      }
    ],
    "buffers": []
  },
  {
    "file-line": 90,
    "subnet_id": 0,
    "core_id": 0,
    "opcode": "tpu.Pad",
    "is_local": false,
    "tiu_dma_id(before)": [
      42,
      40
    ],
    "tiu_dma_id(after)": [
      42,
      42
    ],
    "operands": [
      {
        "address": 687194939392,
        "layout": "continuous",
        "memory_type": "<1x36x32x32xf16>",
        "name": "101_Relu",
        "reshape": "",
        "shape": [
          1,
          36,
          32,
          32
        ],
        "slice": "[...]",
        "type": "tensor<1x36x32x32xf16, 687194939392 : i64>"
      },
      {},
      {},
      {},
      {}
    ],
    "results": [
      {
        "address": 687194853376,
        "layout": "continuous",
        "memory_type": "<1x42x32x32xf16>",
        "name": "102_Pad",
        "reshape": "",
        "shape": [
          1,
          42,
          32,
          32
        ],
        "slice": "[...]",
        "type": "tensor<1x42x32x32xf16, 687194853376 : i64>"
      }
    ],
    "buffers": []
  },
  {
    "file-line": 96,
    "subnet_id": 0,
    "core_id": 0,
    "opcode": "tpu.Load",
    "is_local": true,
    "tiu_dma_id(before)": [
      42,
      42
    ],
    "tiu_dma_id(after)": [
      42,
      43
    ],
    "operands": [
      {
        "address": 687194939392,
        "layout": "continuous",
        "memory_type": "<1x36x32x32xf16>",
        "name": "101_Relu",
        "reshape": "<1x36x1x32x32>",
        "shape": [
          1,
          36,
          32,
          32
        ],
        "slice": "[0:1, 0:36, 0:1, 0:32, 0:32]",
        "type": "tensor<1x36x32x32xf16, 687194939392 : i64>"
      }
    ],
    "results": [
      {
        "address": 0,
        "layout": "eu_align",
        "memory_type": "<1x36x32x32xf16>",
        "name": "load_101_Relu",
        "reshape": "<1x36x1x32x32>",
        "shape": [
          1,
          36,
          32,
          32
        ],
        "slice": "[0:1, 0:36, 0:1, 0:32, 0:32]",
        "type": "tensor<1x36x32x32xf16>"
      }
    ],
    "buffers": []
  },
  {
    "file-line": 97,
    "subnet_id": 0,
    "core_id": 0,
    "opcode": "tpu.Load",
    "is_local": true,
    "tiu_dma_id(before)": [
      42,
      43
    ],
    "tiu_dma_id(after)": [
      42,
      44
    ],
    "operands": [
      {
        "address": 618475364352,
        "layout": "continuous",
        "memory_type": "<1x36x3x3xf16>",
        "name": "103_Convblaze_face.backbone1.6.convs.0.weight_f16",
        "reshape": "<1x36x1x3x3>",
        "shape": [
          1,
          36,
          3,
          3
        ],
        "slice": "[0:1, 0:36, 0:1, 0:3, 0:3]",
        "type": "tensor<1x36x3x3xf16, 618475364352 : i64>"
      }
    ],
    "results": [
      {
        "address": 24576,
        "layout": "compact",
        "memory_type": "<1x36x3x3xf16>",
        "name": "load_103_Convblaze_face.backbone1.6.convs.0.weight_f16",
        "reshape": "<1x36x1x3x3>",
        "shape": [
          1,
          36,
          3,
          3
        ],
        "slice": "[0:1, 0:36, 0:1, 0:3, 0:3]",
        "type": "tensor<1x36x3x3xf16>"
      }
    ],
    "buffers": []
  },
  {
    "file-line": 98,
    "subnet_id": 0,
    "core_id": 0,
    "opcode": "tpu.Load",
    "is_local": true,
    "tiu_dma_id(before)": [
      42,
      44
    ],
    "tiu_dma_id(after)": [
      42,
      45
    ],
    "operands": [
      {
        "address": 618475368448,
        "layout": "continuous",
        "memory_type": "<1x36x1x1xf16>",
        "name": "103_Conv_reordered",
        "reshape": "<1x36x1x1x1>",
        "shape": [
          1,
          36,
          1,
          1
        ],
        "slice": "[0:1, 0:36, 0:1, 0:1, 0:1]",
        "type": "tensor<1x36x1x1xf16, 618475368448 : i64>"
      }
    ],
    "results": [
      {
        "address": 65536,
        "layout": "compact",
        "memory_type": "<1x36x1x1xf16>",
        "name": "load_103_Conv_reordered",
        "reshape": "<1x36x1x1x1>",
        "shape": [
          1,
          36,
          1,
          1
        ],
        "slice": "[0:1, 0:36, 0:1, 0:1, 0:1]",
        "type": "tensor<1x36x1x1xf16>"
      }
    ],
    "buffers": []
  },
  {
    "file-line": 101,
    "subnet_id": 0,
    "core_id": 0,
    "opcode": "tpu.Conv2D",
    "is_local": true,
    "tiu_dma_id(before)": [
      42,
      45
    ],
    "tiu_dma_id(after)": [
      44,
      45
    ],
    "operands": [
      {
        "address": 0,
        "layout": "eu_align",
        "memory_type": "<1x36x32x32xf16>",
        "name": "load_101_Relu",
        "reshape": "<1x36x1x32x32>",
        "shape": [
          1,
          36,
          32,
          32
        ],
        "slice": "[0:1, 0:36, 0:1, 0:32, 0:32]",
        "type": "tensor<1x36x32x32xf16>"
      },
      {
        "address": 24576,
        "layout": "compact",
        "memory_type": "<1x36x3x3xf16>",
        "name": "load_103_Convblaze_face.backbone1.6.convs.0.weight_f16",
        "reshape": "<1x36x1x3x3>",
        "shape": [
          1,
          36,
          3,
          3
        ],
        "slice": "[0:1, 0:36, 0:1, 0:3, 0:3]",
        "type": "tensor<1x36x3x3xf16>"
      },
      {
        "address": 65536,
        "layout": "compact",
        "memory_type": "<1x36x1x1xf16>",
        "name": "load_103_Conv_reordered",
        "reshape": "<1x36x1x1x1>",
        "shape": [
          1,
          36,
          1,
          1
        ],
        "slice": "[0:1, 0:36, 0:1, 0:1, 0:1]",
        "type": "tensor<1x36x1x1xf16>"
      }
    ],
    "results": [
      {
        "address": 8192,
        "layout": "eu_align",
        "memory_type": "<1x36x32x32xf16>",
        "name": "103_Conv",
        "reshape": "<1x36x1x32x32>",
        "shape": [
          1,
          36,
          32,
          32
        ],
        "slice": "[0:1, 0:36, 0:1, 0:32, 0:32]",
        "type": "tensor<1x36x32x32xf16>"
      }
    ],
    "buffers": [
      {
        "address": 49152,
        "size": 10262
      }
    ]
  },
  {
    "file-line": 99,
    "subnet_id": 0,
    "core_id": 0,
    "opcode": "tpu.Load",
    "is_local": true,
    "tiu_dma_id(before)": [
      42,
      45
    ],
    "tiu_dma_id(after)": [
      42,
      46
    ],
    "operands": [
      {
        "address": 618475376640,
        "layout": "continuous",
        "memory_type": "<1x42x1x48xf16>",
        "name": "104_Conv_filter_reorderd",
        "reshape": "<1x42x1x1x48>",
        "shape": [
          1,
          42,
          1,
          48
        ],
        "slice": "[0:1, 0:42, 0:1, 0:1, 0:48]",
        "type": "tensor<1x42x1x48xf16, 618475376640 : i64>"
      }
    ],
    "results": [
      {
        "address": 32768,
        "layout": "compact",
        "memory_type": "<1x42x1x48xf16>",
        "name": "load_104_Conv_filter_reorderd",
        "reshape": "<1x42x1x1x48>",
        "shape": [
          1,
          42,
          1,
          48
        ],
        "slice": "[0:1, 0:42, 0:1, 0:1, 0:48]",
        "type": "tensor<1x42x1x48xf16>"
      }
    ],
    "buffers": []
  },
  {
    "file-line": 100,
    "subnet_id": 0,
    "core_id": 0,
    "opcode": "tpu.Load",
    "is_local": true,
    "tiu_dma_id(before)": [
      42,
      46
    ],
    "tiu_dma_id(after)": [
      42,
      47
    ],
    "operands": [
      {
        "address": 618475372544,
        "layout": "continuous",
        "memory_type": "<1x42x1x1xf32>",
        "name": "blaze_face.backbone1.6.convs.1.bias",
        "reshape": "<1x42x1x1x1>",
        "shape": [
          1,
          42,
          1,
          1
        ],
        "slice": "[0:1, 0:42, 0:1, 0:1, 0:1]",
        "type": "tensor<1x42x1x1xf32, 618475372544 : i64>"
      }
    ],
    "results": [
      {
        "address": 40960,
        "layout": "compact",
        "memory_type": "<1x42x1x1xf32>",
        "name": "load_blaze_face.backbone1.6.convs.1.bias",
        "reshape": "<1x42x1x1x1>",
        "shape": [
          1,
          42,
          1,
          1
        ],
        "slice": "[0:1, 0:42, 0:1, 0:1, 0:1]",
        "type": "tensor<1x42x1x1xf32>"
      }
    ],
    "buffers": []
  },
  {
    "file-line": 103,
    "subnet_id": 0,
    "core_id": 0,
    "opcode": "tpu.Conv2D",
    "is_local": true,
    "tiu_dma_id(before)": [
      44,
      47
    ],
    "tiu_dma_id(after)": [
      46,
      47
    ],
    "operands": [
      {
        "address": 8192,
        "layout": "eu_align",
        "memory_type": "<1x36x32x32xf16>",
        "name": "103_Conv",
        "reshape": "<1x36x1x32x32>",
        "shape": [
          1,
          36,
          32,
          32
        ],
        "slice": "[0:1, 0:36, 0:1, 0:32, 0:32]",
        "type": "tensor<1x36x32x32xf16>"
      },
      {
        "address": 32768,
        "layout": "compact",
        "memory_type": "<1x42x1x48xf16>",
        "name": "load_104_Conv_filter_reorderd",
        "reshape": "<1x42x1x1x48>",
        "shape": [
          1,
          42,
          1,
          48
        ],
        "slice": "[0:1, 0:42, 0:1, 0:1, 0:48]",
        "type": "tensor<1x42x1x48xf16>"
      },
      {
        "address": 40960,
        "layout": "compact",
        "memory_type": "<1x42x1x1xf32>",
        "name": "load_blaze_face.backbone1.6.convs.1.bias",
        "reshape": "<1x42x1x1x1>",
        "shape": [
          1,
          42,
          1,
          1
        ],
        "slice": "[0:1, 0:42, 0:1, 0:1, 0:1]",
        "type": "tensor<1x42x1x1xf32>"
      }
    ],
    "results": [
      {
        "address": 16384,
        "layout": "eu_align",
        "memory_type": "<1x42x32x32xf16>",
        "name": "104_Conv",
        "reshape": "<1x42x1x32x32>",
        "shape": [
          1,
          42,
          32,
          32
        ],
        "slice": "[0:1, 0:42, 0:1, 0:32, 0:32]",
        "type": "tensor<1x42x32x32xf16>"
      }
    ],
    "buffers": []
  },
  {
    "file-line": 102,
    "subnet_id": 0,
    "core_id": 0,
    "opcode": "tpu.Load",
    "is_local": true,
    "tiu_dma_id(before)": [
      44,
      47
    ],
    "tiu_dma_id(after)": [
      44,
      48
    ],
    "operands": [
      {
        "address": 687194853376,
        "layout": "continuous",
        "memory_type": "<1x42x32x32xf16>",
        "name": "102_Pad",
        "reshape": "<1x42x1x32x32>",
        "shape": [
          1,
          42,
          32,
          32
        ],
        "slice": "[0:1, 0:42, 0:1, 0:32, 0:32]",
        "type": "tensor<1x42x32x32xf16, 687194853376 : i64>"
      }
    ],
    "results": [
      {
        "address": 24576,
        "layout": "eu_align",
        "memory_type": "<1x42x32x32xf16>",
        "name": "load_102_Pad",
        "reshape": "<1x42x1x32x32>",
        "shape": [
          1,
          42,
          32,
          32
        ],
        "slice": "[0:1, 0:42, 0:1, 0:32, 0:32]",
        "type": "tensor<1x42x32x32xf16>"
      }
    ],
    "buffers": []
  },
  {
    "file-line": 104,
    "subnet_id": 0,
    "core_id": 0,
    "opcode": "tpu.Add",
    "is_local": true,
    "tiu_dma_id(before)": [
      46,
      48
    ],
    "tiu_dma_id(after)": [
      48,
      48
    ],
    "operands": [
      {
        "address": 16384,
        "layout": "eu_align",
        "memory_type": "<1x42x32x32xf16>",
        "name": "104_Conv",
        "reshape": "<1x42x1x32x32>",
        "shape": [
          1,
          42,
          32,
          32
        ],
        "slice": "[0:1, 0:42, 0:1, 0:32, 0:32]",
        "type": "tensor<1x42x32x32xf16>"
      },
      {
        "address": 24576,
        "layout": "eu_align",
        "memory_type": "<1x42x32x32xf16>",
        "name": "load_102_Pad",
        "reshape": "<1x42x1x32x32>",
        "shape": [
          1,
          42,
          32,
          32
        ],
        "slice": "[0:1, 0:42, 0:1, 0:32, 0:32]",
        "type": "tensor<1x42x32x32xf16>"
      }
    ],
    "results": [
      {
        "address": 8192,
        "layout": "eu_align",
        "memory_type": "<1x42x32x32xf16>",
        "name": "106_Relu",
        "reshape": "<1x42x1x32x32>",
        "shape": [
          1,
          42,
          32,
          32
        ],
        "slice": "[0:1, 0:42, 0:1, 0:32, 0:32]",
        "type": "tensor<1x42x32x32xf16>"
      }
    ],
    "buffers": []
  },
  {
    "file-line": 106,
    "subnet_id": 0,
    "core_id": 0,
    "opcode": "tpu.Pool2D",
    "is_local": true,
    "tiu_dma_id(before)": [
      48,
      48
    ],
    "tiu_dma_id(after)": [
      49,
      48
    ],
    "operands": [
      {
        "address": 8192,
        "layout": "eu_align",
        "memory_type": "<1x42x32x32xf16>",
        "name": "106_Relu",
        "reshape": "<1x42x1x32x32>",
        "shape": [
          1,
          42,
          32,
          32
        ],
        "slice": "[0:1, 0:42, 0:1, 0:32, 0:32]",
        "type": "tensor<1x42x32x32xf16>"
      }
    ],
    "results": [
      {
        "address": 16384,
        "layout": "eu_align",
        "memory_type": "<1x42x16x16xf16>",
        "name": "108_MaxPool",
        "reshape": "<1x42x1x16x16>",
        "shape": [
          1,
          42,
          16,
          16
        ],
        "slice": "[0:1, 0:42, 0:1, 0:16, 0:16]",
        "type": "tensor<1x42x16x16xf16>"
      }
    ],
    "buffers": []
  },
  {
    "file-line": 105,
    "subnet_id": 0,
    "core_id": 0,
    "opcode": "tpu.Store",
    "is_local": true,
    "tiu_dma_id(before)": [
      48,
      48
    ],
    "tiu_dma_id(after)": [
      48,
      49
    ],
    "operands": [
      {
        "address": 8192,
        "layout": "eu_align",
        "memory_type": "<1x42x32x32xf16>",
        "name": "106_Relu",
        "reshape": "<1x42x1x32x32>",
        "shape": [
          1,
          42,
          32,
          32
        ],
        "slice": "[0:1, 0:42, 0:1, 0:32, 0:32]",
        "type": "tensor<1x42x32x32xf16>"
      },
      {}
    ],
    "results": [
      {
        "address": 687194767360,
        "layout": "continuous",
        "memory_type": "<1x42x32x32xf16>",
        "name": "106_Relu",
        "reshape": "<1x42x1x32x32>",
        "shape": [
          1,
          42,
          32,
          32
        ],
        "slice": "[0:1, 0:42, 0:1, 0:32, 0:32]",
        "type": "tensor<1x42x32x32xf16, 687194767360 : i64>"
      }
    ],
    "buffers": []
  },
  {
    "file-line": 107,
    "subnet_id": 0,
    "core_id": 0,
    "opcode": "tpu.Store",
    "is_local": true,
    "tiu_dma_id(before)": [
      49,
      49
    ],
    "tiu_dma_id(after)": [
      49,
      50
    ],
    "operands": [
      {
        "address": 16384,
        "layout": "eu_align",
        "memory_type": "<1x42x16x16xf16>",
        "name": "108_MaxPool",
        "reshape": "<1x42x1x16x16>",
        "shape": [
          1,
          42,
          16,
          16
        ],
        "slice": "[0:1, 0:42, 0:1, 0:16, 0:16]",
        "type": "tensor<1x42x16x16xf16>"
      },
      {}
    ],
    "results": [
      {
        "address": 687195013120,
        "layout": "continuous",
        "memory_type": "<1x42x16x16xf16>",
        "name": "108_MaxPool",
        "reshape": "<1x42x1x16x16>",
        "shape": [
          1,
          42,
          16,
          16
        ],
        "slice": "[0:1, 0:42, 0:1, 0:16, 0:16]",
        "type": "tensor<1x42x16x16xf16, 687195013120 : i64>"
      }
    ],
    "buffers": []
  },
  {
    "file-line": 110,
    "subnet_id": 0,
    "core_id": 0,
    "opcode": "tpu.Pad",
    "is_local": false,
    "tiu_dma_id(before)": [
      49,
      50
    ],
    "tiu_dma_id(after)": [
      49,
      52
    ],
    "operands": [
      {
        "address": 687195013120,
        "layout": "continuous",
        "memory_type": "<1x42x16x16xf16>",
        "name": "108_MaxPool",
        "reshape": "",
        "shape": [
          1,
          42,
          16,
          16
        ],
        "slice": "[...]",
        "type": "tensor<1x42x16x16xf16, 687195013120 : i64>"
      },
      {},
      {},
      {},
      {}
    ],
    "results": [
      {
        "address": 687194877952,
        "layout": "continuous",
        "memory_type": "<1x48x16x16xf16>",
        "name": "109_Pad",
        "reshape": "",
        "shape": [
          1,
          48,
          16,
          16
        ],
        "slice": "[...]",
        "type": "tensor<1x48x16x16xf16, 687194877952 : i64>"
      }
    ],
    "buffers": []
  },
  {
    "file-line": 116,
    "subnet_id": 0,
    "core_id": 0,
    "opcode": "tpu.Load",
    "is_local": true,
    "tiu_dma_id(before)": [
      49,
      52
    ],
    "tiu_dma_id(after)": [
      49,
      53
    ],
    "operands": [
      {
        "address": 687194767360,
        "layout": "continuous",
        "memory_type": "<1x42x32x32xf16>",
        "name": "106_Relu",
        "reshape": "<1x42x1x32x32>",
        "shape": [
          1,
          42,
          32,
          32
        ],
        "slice": "[0:1, 0:42, 0:1, 0:32, 0:32]",
        "type": "tensor<1x42x32x32xf16, 687194767360 : i64>"
      }
    ],
    "results": [
      {
        "address": 0,
        "layout": "eu_align",
        "memory_type": "<1x42x32x32xf16>",
        "name": "load_106_Relu",
        "reshape": "<1x42x1x32x32>",
        "shape": [
          1,
          42,
          32,
          32
        ],
        "slice": "[0:1, 0:42, 0:1, 0:32, 0:32]",
        "type": "tensor<1x42x32x32xf16>"
      }
    ],
    "buffers": []
  },
  {
    "file-line": 117,
    "subnet_id": 0,
    "core_id": 0,
    "opcode": "tpu.Load",
    "is_local": true,
    "tiu_dma_id(before)": [
      49,
      53
    ],
    "tiu_dma_id(after)": [
      49,
      54
    ],
    "operands": [
      {
        "address": 618475380736,
        "layout": "continuous",
        "memory_type": "<1x42x3x3xf16>",
        "name": "110_Convblaze_face.backbone1.7.convs.0.weight_f16",
        "reshape": "<1x42x1x3x3>",
        "shape": [
          1,
          42,
          3,
          3
        ],
        "slice": "[0:1, 0:42, 0:1, 0:3, 0:3]",
        "type": "tensor<1x42x3x3xf16, 618475380736 : i64>"
      }
    ],
    "results": [
      {
        "address": 40960,
        "layout": "compact",
        "memory_type": "<1x42x3x3xf16>",
        "name": "load_110_Convblaze_face.backbone1.7.convs.0.weight_f16",
        "reshape": "<1x42x1x3x3>",
        "shape": [
          1,
          42,
          3,
          3
        ],
        "slice": "[0:1, 0:42, 0:1, 0:3, 0:3]",
        "type": "tensor<1x42x3x3xf16>"
      }
    ],
    "buffers": []
  },
  {
    "file-line": 118,
    "subnet_id": 0,
    "core_id": 0,
    "opcode": "tpu.Load",
    "is_local": true,
    "tiu_dma_id(before)": [
      49,
      54
    ],
    "tiu_dma_id(after)": [
      49,
      55
    ],
    "operands": [
      {
        "address": 618475384832,
        "layout": "continuous",
        "memory_type": "<1x42x1x1xf16>",
        "name": "110_Conv_reordered",
        "reshape": "<1x42x1x1x1>",
        "shape": [
          1,
          42,
          1,
          1
        ],
        "slice": "[0:1, 0:42, 0:1, 0:1, 0:1]",
        "type": "tensor<1x42x1x1xf16, 618475384832 : i64>"
      }
    ],
    "results": [
      {
        "address": 57344,
        "layout": "compact",
        "memory_type": "<1x42x1x1xf16>",
        "name": "load_110_Conv_reordered",
        "reshape": "<1x42x1x1x1>",
        "shape": [
          1,
          42,
          1,
          1
        ],
        "slice": "[0:1, 0:42, 0:1, 0:1, 0:1]",
        "type": "tensor<1x42x1x1xf16>"
      }
    ],
    "buffers": []
  },
  {
    "file-line": 121,
    "subnet_id": 0,
    "core_id": 0,
    "opcode": "tpu.Conv2D",
    "is_local": true,
    "tiu_dma_id(before)": [
      49,
      55
    ],
    "tiu_dma_id(after)": [
      51,
      55
    ],
    "operands": [
      {
        "address": 0,
        "layout": "eu_align",
        "memory_type": "<1x42x32x32xf16>",
        "name": "load_106_Relu",
        "reshape": "<1x42x1x32x32>",
        "shape": [
          1,
          42,
          32,
          32
        ],
        "slice": "[0:1, 0:42, 0:1, 0:32, 0:32]",
        "type": "tensor<1x42x32x32xf16>"
      },
      {
        "address": 40960,
        "layout": "compact",
        "memory_type": "<1x42x3x3xf16>",
        "name": "load_110_Convblaze_face.backbone1.7.convs.0.weight_f16",
        "reshape": "<1x42x1x3x3>",
        "shape": [
          1,
          42,
          3,
          3
        ],
        "slice": "[0:1, 0:42, 0:1, 0:3, 0:3]",
        "type": "tensor<1x42x3x3xf16>"
      },
      {
        "address": 57344,
        "layout": "compact",
        "memory_type": "<1x42x1x1xf16>",
        "name": "load_110_Conv_reordered",
        "reshape": "<1x42x1x1x1>",
        "shape": [
          1,
          42,
          1,
          1
        ],
        "slice": "[0:1, 0:42, 0:1, 0:1, 0:1]",
        "type": "tensor<1x42x1x1xf16>"
      }
    ],
    "results": [
      {
        "address": 8192,
        "layout": "eu_align",
        "memory_type": "<1x42x16x16xf16>",
        "name": "110_Conv",
        "reshape": "<1x42x1x16x16>",
        "shape": [
          1,
          42,
          16,
          16
        ],
        "slice": "[0:1, 0:42, 0:1, 0:16, 0:16]",
        "type": "tensor<1x42x16x16xf16>"
      }
    ],
    "buffers": [
      {
        "address": 16384,
        "size": 4118
      }
    ]
  },
  {
    "file-line": 119,
    "subnet_id": 0,
    "core_id": 0,
    "opcode": "tpu.Load",
    "is_local": true,
    "tiu_dma_id(before)": [
      49,
      55
    ],
    "tiu_dma_id(after)": [
      49,
      56
    ],
    "operands": [
      {
        "address": 618475393024,
        "layout": "continuous",
        "memory_type": "<1x48x1x48xf16>",
        "name": "111_Conv_filter_reorderd",
        "reshape": "<1x48x1x1x48>",
        "shape": [
          1,
          48,
          1,
          48
        ],
        "slice": "[0:1, 0:48, 0:1, 0:1, 0:48]",
        "type": "tensor<1x48x1x48xf16, 618475393024 : i64>"
      }
    ],
    "results": [
      {
        "address": 33792,
        "layout": "compact",
        "memory_type": "<1x48x1x48xf16>",
        "name": "load_111_Conv_filter_reorderd",
        "reshape": "<1x48x1x1x48>",
        "shape": [
          1,
          48,
          1,
          48
        ],
        "slice": "[0:1, 0:48, 0:1, 0:1, 0:48]",
        "type": "tensor<1x48x1x48xf16>"
      }
    ],
    "buffers": []
  },
  {
    "file-line": 120,
    "subnet_id": 0,
    "core_id": 0,
    "opcode": "tpu.Load",
    "is_local": true,
    "tiu_dma_id(before)": [
      49,
      56
    ],
    "tiu_dma_id(after)": [
      49,
      57
    ],
    "operands": [
      {
        "address": 618475388928,
        "layout": "continuous",
        "memory_type": "<1x48x1x1xf32>",
        "name": "blaze_face.backbone1.7.convs.1.bias",
        "reshape": "<1x48x1x1x1>",
        "shape": [
          1,
          48,
          1,
          1
        ],
        "slice": "[0:1, 0:48, 0:1, 0:1, 0:1]",
        "type": "tensor<1x48x1x1xf32, 618475388928 : i64>"
      }
    ],
    "results": [
      {
        "address": 49152,
        "layout": "compact",
        "memory_type": "<1x48x1x1xf32>",
        "name": "load_blaze_face.backbone1.7.convs.1.bias",
        "reshape": "<1x48x1x1x1>",
        "shape": [
          1,
          48,
          1,
          1
        ],
        "slice": "[0:1, 0:48, 0:1, 0:1, 0:1]",
        "type": "tensor<1x48x1x1xf32>"
      }
    ],
    "buffers": []
  },
  {
    "file-line": 123,
    "subnet_id": 0,
    "core_id": 0,
    "opcode": "tpu.Conv2D",
    "is_local": true,
    "tiu_dma_id(before)": [
      51,
      57
    ],
    "tiu_dma_id(after)": [
      53,
      57
    ],
    "operands": [
      {
        "address": 8192,
        "layout": "eu_align",
        "memory_type": "<1x42x16x16xf16>",
        "name": "110_Conv",
        "reshape": "<1x42x1x16x16>",
        "shape": [
          1,
          42,
          16,
          16
        ],
        "slice": "[0:1, 0:42, 0:1, 0:16, 0:16]",
        "type": "tensor<1x42x16x16xf16>"
      },
      {
        "address": 33792,
        "layout": "compact",
        "memory_type": "<1x48x1x48xf16>",
        "name": "load_111_Conv_filter_reorderd",
        "reshape": "<1x48x1x1x48>",
        "shape": [
          1,
          48,
          1,
          48
        ],
        "slice": "[0:1, 0:48, 0:1, 0:1, 0:48]",
        "type": "tensor<1x48x1x48xf16>"
      },
      {
        "address": 49152,
        "layout": "compact",
        "memory_type": "<1x48x1x1xf32>",
        "name": "load_blaze_face.backbone1.7.convs.1.bias",
        "reshape": "<1x48x1x1x1>",
        "shape": [
          1,
          48,
          1,
          1
        ],
        "slice": "[0:1, 0:48, 0:1, 0:1, 0:1]",
        "type": "tensor<1x48x1x1xf32>"
      }
    ],
    "results": [
      {
        "address": 16384,
        "layout": "eu_align",
        "memory_type": "<1x48x16x16xf16>",
        "name": "111_Conv",
        "reshape": "<1x48x1x16x16>",
        "shape": [
          1,
          48,
          16,
          16
        ],
        "slice": "[0:1, 0:48, 0:1, 0:16, 0:16]",
        "type": "tensor<1x48x16x16xf16>"
      }
    ],
    "buffers": []
  },
  {
    "file-line": 122,
    "subnet_id": 0,
    "core_id": 0,
    "opcode": "tpu.Load",
    "is_local": true,
    "tiu_dma_id(before)": [
      51,
      57
    ],
    "tiu_dma_id(after)": [
      51,
      58
    ],
    "operands": [
      {
        "address": 687194877952,
        "layout": "continuous",
        "memory_type": "<1x48x16x16xf16>",
        "name": "109_Pad",
        "reshape": "<1x48x1x16x16>",
        "shape": [
          1,
          48,
          16,
          16
        ],
        "slice": "[0:1, 0:48, 0:1, 0:16, 0:16]",
        "type": "tensor<1x48x16x16xf16, 687194877952 : i64>"
      }
    ],
    "results": [
      {
        "address": 24576,
        "layout": "eu_align",
        "memory_type": "<1x48x16x16xf16>",
        "name": "load_109_Pad",
        "reshape": "<1x48x1x16x16>",
        "shape": [
          1,
          48,
          16,
          16
        ],
        "slice": "[0:1, 0:48, 0:1, 0:16, 0:16]",
        "type": "tensor<1x48x16x16xf16>"
      }
    ],
    "buffers": []
  },
  {
    "file-line": 124,
    "subnet_id": 0,
    "core_id": 0,
    "opcode": "tpu.Add",
    "is_local": true,
    "tiu_dma_id(before)": [
      53,
      58
    ],
    "tiu_dma_id(after)": [
      55,
      58
    ],
    "operands": [
      {
        "address": 16384,
        "layout": "eu_align",
        "memory_type": "<1x48x16x16xf16>",
        "name": "111_Conv",
        "reshape": "<1x48x1x16x16>",
        "shape": [
          1,
          48,
          16,
          16
        ],
        "slice": "[0:1, 0:48, 0:1, 0:16, 0:16]",
        "type": "tensor<1x48x16x16xf16>"
      },
      {
        "address": 24576,
        "layout": "eu_align",
        "memory_type": "<1x48x16x16xf16>",
        "name": "load_109_Pad",
        "reshape": "<1x48x1x16x16>",
        "shape": [
          1,
          48,
          16,
          16
        ],
        "slice": "[0:1, 0:48, 0:1, 0:16, 0:16]",
        "type": "tensor<1x48x16x16xf16>"
      }
    ],
    "results": [
      {
        "address": 32768,
        "layout": "eu_align",
        "memory_type": "<1x48x16x16xf16>",
        "name": "113_Relu",
        "reshape": "<1x48x1x16x16>",
        "shape": [
          1,
          48,
          16,
          16
        ],
        "slice": "[0:1, 0:48, 0:1, 0:16, 0:16]",
        "type": "tensor<1x48x16x16xf16>"
      }
    ],
    "buffers": []
  },
  {
    "file-line": 125,
    "subnet_id": 0,
    "core_id": 0,
    "opcode": "tpu.Store",
    "is_local": true,
    "tiu_dma_id(before)": [
      55,
      58
    ],
    "tiu_dma_id(after)": [
      55,
      59
    ],
    "operands": [
      {
        "address": 32768,
        "layout": "eu_align",
        "memory_type": "<1x48x16x16xf16>",
        "name": "113_Relu",
        "reshape": "<1x48x1x16x16>",
        "shape": [
          1,
          48,
          16,
          16
        ],
        "slice": "[0:1, 0:48, 0:1, 0:16, 0:16]",
        "type": "tensor<1x48x16x16xf16>"
      },
      {}
    ],
    "results": [
      {
        "address": 687194853376,
        "layout": "continuous",
        "memory_type": "<1x48x16x16xf16>",
        "name": "113_Relu",
        "reshape": "<1x48x1x16x16>",
        "shape": [
          1,
          48,
          16,
          16
        ],
        "slice": "[0:1, 0:48, 0:1, 0:16, 0:16]",
        "type": "tensor<1x48x16x16xf16, 687194853376 : i64>"
      }
    ],
    "buffers": []
  },
  {
    "file-line": 128,
    "subnet_id": 0,
    "core_id": 0,
    "opcode": "tpu.Pad",
    "is_local": false,
    "tiu_dma_id(before)": [
      55,
      59
    ],
    "tiu_dma_id(after)": [
      55,
      61
    ],
    "operands": [
      {
        "address": 687194853376,
        "layout": "continuous",
        "memory_type": "<1x48x16x16xf16>",
        "name": "113_Relu",
        "reshape": "",
        "shape": [
          1,
          48,
          16,
          16
        ],
        "slice": "[...]",
        "type": "tensor<1x48x16x16xf16, 687194853376 : i64>"
      },
      {},
      {},
      {},
      {}
    ],
    "results": [
      {
        "address": 687194767360,
        "layout": "continuous",
        "memory_type": "<1x56x16x16xf16>",
        "name": "114_Pad",
        "reshape": "",
        "shape": [
          1,
          56,
          16,
          16
        ],
        "slice": "[...]",
        "type": "tensor<1x56x16x16xf16, 687194767360 : i64>"
      }
    ],
    "buffers": []
  },
  {
    "file-line": 134,
    "subnet_id": 0,
    "core_id": 0,
    "opcode": "tpu.Load",
    "is_local": true,
    "tiu_dma_id(before)": [
      55,
      61
    ],
    "tiu_dma_id(after)": [
      55,
      62
    ],
    "operands": [
      {
        "address": 687194853376,
        "layout": "continuous",
        "memory_type": "<1x48x16x16xf16>",
        "name": "113_Relu",
        "reshape": "<1x48x1x16x16>",
        "shape": [
          1,
          48,
          16,
          16
        ],
        "slice": "[0:1, 0:48, 0:1, 0:16, 0:16]",
        "type": "tensor<1x48x16x16xf16, 687194853376 : i64>"
      }
    ],
    "results": [
      {
        "address": 24576,
        "layout": "eu_align",
        "memory_type": "<1x48x16x16xf16>",
        "name": "load_113_Relu",
        "reshape": "<1x48x1x16x16>",
        "shape": [
          1,
          48,
          16,
          16
        ],
        "slice": "[0:1, 0:48, 0:1, 0:16, 0:16]",
        "type": "tensor<1x48x16x16xf16>"
      }
    ],
    "buffers": []
  },
  {
    "file-line": 135,
    "subnet_id": 0,
    "core_id": 0,
    "opcode": "tpu.Load",
    "is_local": true,
    "tiu_dma_id(before)": [
      55,
      62
    ],
    "tiu_dma_id(after)": [
      55,
      63
    ],
    "operands": [
      {
        "address": 618475401216,
        "layout": "continuous",
        "memory_type": "<1x48x3x3xf16>",
        "name": "115_Convblaze_face.backbone1.8.convs.0.weight_f16",
        "reshape": "<1x48x1x3x3>",
        "shape": [
          1,
          48,
          3,
          3
        ],
        "slice": "[0:1, 0:48, 0:1, 0:3, 0:3]",
        "type": "tensor<1x48x3x3xf16, 618475401216 : i64>"
      }
    ],
    "results": [
      {
        "address": 40960,
        "layout": "compact",
        "memory_type": "<1x48x3x3xf16>",
        "name": "load_115_Convblaze_face.backbone1.8.convs.0.weight_f16",
        "reshape": "<1x48x1x3x3>",
        "shape": [
          1,
          48,
          3,
          3
        ],
        "slice": "[0:1, 0:48, 0:1, 0:3, 0:3]",
        "type": "tensor<1x48x3x3xf16>"
      }
    ],
    "buffers": []
  },
  {
    "file-line": 136,
    "subnet_id": 0,
    "core_id": 0,
    "opcode": "tpu.Load",
    "is_local": true,
    "tiu_dma_id(before)": [
      55,
      63
    ],
    "tiu_dma_id(after)": [
      55,
      64
    ],
    "operands": [
      {
        "address": 618475405312,
        "layout": "continuous",
        "memory_type": "<1x48x1x1xf16>",
        "name": "115_Conv_reordered",
        "reshape": "<1x48x1x1x1>",
        "shape": [
          1,
          48,
          1,
          1
        ],
        "slice": "[0:1, 0:48, 0:1, 0:1, 0:1]",
        "type": "tensor<1x48x1x1xf16, 618475405312 : i64>"
      }
    ],
    "results": [
      {
        "address": 57344,
        "layout": "compact",
        "memory_type": "<1x48x1x1xf16>",
        "name": "load_115_Conv_reordered",
        "reshape": "<1x48x1x1x1>",
        "shape": [
          1,
          48,
          1,
          1
        ],
        "slice": "[0:1, 0:48, 0:1, 0:1, 0:1]",
        "type": "tensor<1x48x1x1xf16>"
      }
    ],
    "buffers": []
  },
  {
    "file-line": 139,
    "subnet_id": 0,
    "core_id": 0,
    "opcode": "tpu.Conv2D",
    "is_local": true,
    "tiu_dma_id(before)": [
      55,
      64
    ],
    "tiu_dma_id(after)": [
      57,
      64
    ],
    "operands": [
      {
        "address": 24576,
        "layout": "eu_align",
        "memory_type": "<1x48x16x16xf16>",
        "name": "load_113_Relu",
        "reshape": "<1x48x1x16x16>",
        "shape": [
          1,
          48,
          16,
          16
        ],
        "slice": "[0:1, 0:48, 0:1, 0:16, 0:16]",
        "type": "tensor<1x48x16x16xf16>"
      },
      {
        "address": 40960,
        "layout": "compact",
        "memory_type": "<1x48x3x3xf16>",
        "name": "load_115_Convblaze_face.backbone1.8.convs.0.weight_f16",
        "reshape": "<1x48x1x3x3>",
        "shape": [
          1,
          48,
          3,
          3
        ],
        "slice": "[0:1, 0:48, 0:1, 0:3, 0:3]",
        "type": "tensor<1x48x3x3xf16>"
      },
      {
        "address": 57344,
        "layout": "compact",
        "memory_type": "<1x48x1x1xf16>",
        "name": "load_115_Conv_reordered",
        "reshape": "<1x48x1x1x1>",
        "shape": [
          1,
          48,
          1,
          1
        ],
        "slice": "[0:1, 0:48, 0:1, 0:1, 0:1]",
        "type": "tensor<1x48x1x1xf16>"
      }
    ],
    "results": [
      {
        "address": 0,
        "layout": "eu_align",
        "memory_type": "<1x48x16x16xf16>",
        "name": "115_Conv",
        "reshape": "<1x48x1x16x16>",
        "shape": [
          1,
          48,
          16,
          16
        ],
        "slice": "[0:1, 0:48, 0:1, 0:16, 0:16]",
        "type": "tensor<1x48x16x16xf16>"
      }
    ],
    "buffers": [
      {
        "address": 8192,
        "size": 2582
      }
    ]
  },
  {
    "file-line": 137,
    "subnet_id": 0,
    "core_id": 0,
    "opcode": "tpu.Load",
    "is_local": true,
    "tiu_dma_id(before)": [
      55,
      64
    ],
    "tiu_dma_id(after)": [
      55,
      65
    ],
    "operands": [
      {
        "address": 618475413504,
        "layout": "continuous",
        "memory_type": "<1x56x1x48xf16>",
        "name": "116_Conv_filter_reorderd",
        "reshape": "<1x56x1x1x48>",
        "shape": [
          1,
          56,
          1,
          48
        ],
        "slice": "[0:1, 0:56, 0:1, 0:1, 0:48]",
        "type": "tensor<1x56x1x48xf16, 618475413504 : i64>"
      }
    ],
    "results": [
      {
        "address": 33792,
        "layout": "compact",
        "memory_type": "<1x56x1x48xf16>",
        "name": "load_116_Conv_filter_reorderd",
        "reshape": "<1x56x1x1x48>",
        "shape": [
          1,
          56,
          1,
          48
        ],
        "slice": "[0:1, 0:56, 0:1, 0:1, 0:48]",
        "type": "tensor<1x56x1x48xf16>"
      }
    ],
    "buffers": []
  },
  {
    "file-line": 138,
    "subnet_id": 0,
    "core_id": 0,
    "opcode": "tpu.Load",
    "is_local": true,
    "tiu_dma_id(before)": [
      55,
      65
    ],
    "tiu_dma_id(after)": [
      55,
      66
    ],
    "operands": [
      {
        "address": 618475409408,
        "layout": "continuous",
        "memory_type": "<1x56x1x1xf32>",
        "name": "blaze_face.backbone1.8.convs.1.bias",
        "reshape": "<1x56x1x1x1>",
        "shape": [
          1,
          56,
          1,
          1
        ],
        "slice": "[0:1, 0:56, 0:1, 0:1, 0:1]",
        "type": "tensor<1x56x1x1xf32, 618475409408 : i64>"
      }
    ],
    "results": [
      {
        "address": 49152,
        "layout": "compact",
        "memory_type": "<1x56x1x1xf32>",
        "name": "load_blaze_face.backbone1.8.convs.1.bias",
        "reshape": "<1x56x1x1x1>",
        "shape": [
          1,
          56,
          1,
          1
        ],
        "slice": "[0:1, 0:56, 0:1, 0:1, 0:1]",
        "type": "tensor<1x56x1x1xf32>"
      }
    ],
    "buffers": []
  },
  {
    "file-line": 141,
    "subnet_id": 0,
    "core_id": 0,
    "opcode": "tpu.Conv2D",
    "is_local": true,
    "tiu_dma_id(before)": [
      57,
      66
    ],
    "tiu_dma_id(after)": [
      59,
      66
    ],
    "operands": [
      {
        "address": 0,
        "layout": "eu_align",
        "memory_type": "<1x48x16x16xf16>",
        "name": "115_Conv",
        "reshape": "<1x48x1x16x16>",
        "shape": [
          1,
          48,
          16,
          16
        ],
        "slice": "[0:1, 0:48, 0:1, 0:16, 0:16]",
        "type": "tensor<1x48x16x16xf16>"
      },
      {
        "address": 33792,
        "layout": "compact",
        "memory_type": "<1x56x1x48xf16>",
        "name": "load_116_Conv_filter_reorderd",
        "reshape": "<1x56x1x1x48>",
        "shape": [
          1,
          56,
          1,
          48
        ],
        "slice": "[0:1, 0:56, 0:1, 0:1, 0:48]",
        "type": "tensor<1x56x1x48xf16>"
      },
      {
        "address": 49152,
        "layout": "compact",
        "memory_type": "<1x56x1x1xf32>",
        "name": "load_blaze_face.backbone1.8.convs.1.bias",
        "reshape": "<1x56x1x1x1>",
        "shape": [
          1,
          56,
          1,
          1
        ],
        "slice": "[0:1, 0:56, 0:1, 0:1, 0:1]",
        "type": "tensor<1x56x1x1xf32>"
      }
    ],
    "results": [
      {
        "address": 8192,
        "layout": "eu_align",
        "memory_type": "<1x56x16x16xf16>",
        "name": "116_Conv",
        "reshape": "<1x56x1x16x16>",
        "shape": [
          1,
          56,
          16,
          16
        ],
        "slice": "[0:1, 0:56, 0:1, 0:16, 0:16]",
        "type": "tensor<1x56x16x16xf16>"
      }
    ],
    "buffers": []
  },
  {
    "file-line": 140,
    "subnet_id": 0,
    "core_id": 0,
    "opcode": "tpu.Load",
    "is_local": true,
    "tiu_dma_id(before)": [
      57,
      66
    ],
    "tiu_dma_id(after)": [
      57,
      67
    ],
    "operands": [
      {
        "address": 687194767360,
        "layout": "continuous",
        "memory_type": "<1x56x16x16xf16>",
        "name": "114_Pad",
        "reshape": "<1x56x1x16x16>",
        "shape": [
          1,
          56,
          16,
          16
        ],
        "slice": "[0:1, 0:56, 0:1, 0:16, 0:16]",
        "type": "tensor<1x56x16x16xf16, 687194767360 : i64>"
      }
    ],
    "results": [
      {
        "address": 16384,
        "layout": "eu_align",
        "memory_type": "<1x56x16x16xf16>",
        "name": "load_114_Pad",
        "reshape": "<1x56x1x16x16>",
        "shape": [
          1,
          56,
          16,
          16
        ],
        "slice": "[0:1, 0:56, 0:1, 0:16, 0:16]",
        "type": "tensor<1x56x16x16xf16>"
      }
    ],
    "buffers": []
  },
  {
    "file-line": 142,
    "subnet_id": 0,
    "core_id": 0,
    "opcode": "tpu.Add",
    "is_local": true,
    "tiu_dma_id(before)": [
      59,
      67
    ],
    "tiu_dma_id(after)": [
      61,
      67
    ],
    "operands": [
      {
        "address": 8192,
        "layout": "eu_align",
        "memory_type": "<1x56x16x16xf16>",
        "name": "116_Conv",
        "reshape": "<1x56x1x16x16>",
        "shape": [
          1,
          56,
          16,
          16
        ],
        "slice": "[0:1, 0:56, 0:1, 0:16, 0:16]",
        "type": "tensor<1x56x16x16xf16>"
      },
      {
        "address": 16384,
        "layout": "eu_align",
        "memory_type": "<1x56x16x16xf16>",
        "name": "load_114_Pad",
        "reshape": "<1x56x1x16x16>",
        "shape": [
          1,
          56,
          16,
          16
        ],
        "slice": "[0:1, 0:56, 0:1, 0:16, 0:16]",
        "type": "tensor<1x56x16x16xf16>"
      }
    ],
    "results": [
      {
        "address": 32768,
        "layout": "eu_align",
        "memory_type": "<1x56x16x16xf16>",
        "name": "118_Relu",
        "reshape": "<1x56x1x16x16>",
        "shape": [
          1,
          56,
          16,
          16
        ],
        "slice": "[0:1, 0:56, 0:1, 0:16, 0:16]",
        "type": "tensor<1x56x16x16xf16>"
      }
    ],
    "buffers": []
  },
  {
    "file-line": 143,
    "subnet_id": 0,
    "core_id": 0,
    "opcode": "tpu.Store",
    "is_local": true,
    "tiu_dma_id(before)": [
      61,
      67
    ],
    "tiu_dma_id(after)": [
      61,
      68
    ],
    "operands": [
      {
        "address": 32768,
        "layout": "eu_align",
        "memory_type": "<1x56x16x16xf16>",
        "name": "118_Relu",
        "reshape": "<1x56x1x16x16>",
        "shape": [
          1,
          56,
          16,
          16
        ],
        "slice": "[0:1, 0:56, 0:1, 0:16, 0:16]",
        "type": "tensor<1x56x16x16xf16>"
      },
      {}
    ],
    "results": [
      {
        "address": 687194800128,
        "layout": "continuous",
        "memory_type": "<1x56x16x16xf16>",
        "name": "118_Relu",
        "reshape": "<1x56x1x16x16>",
        "shape": [
          1,
          56,
          16,
          16
        ],
        "slice": "[0:1, 0:56, 0:1, 0:16, 0:16]",
        "type": "tensor<1x56x16x16xf16, 687194800128 : i64>"
      }
    ],
    "buffers": []
  },
  {
    "file-line": 146,
    "subnet_id": 0,
    "core_id": 0,
    "opcode": "tpu.Pad",
    "is_local": false,
    "tiu_dma_id(before)": [
      61,
      68
    ],
    "tiu_dma_id(after)": [
      61,
      70
    ],
    "operands": [
      {
        "address": 687194800128,
        "layout": "continuous",
        "memory_type": "<1x56x16x16xf16>",
        "name": "118_Relu",
        "reshape": "",
        "shape": [
          1,
          56,
          16,
          16
        ],
        "slice": "[...]",
        "type": "tensor<1x56x16x16xf16, 687194800128 : i64>"
      },
      {},
      {},
      {},
      {}
    ],
    "results": [
      {
        "address": 687194767360,
        "layout": "continuous",
        "memory_type": "<1x64x16x16xf16>",
        "name": "119_Pad",
        "reshape": "",
        "shape": [
          1,
          64,
          16,
          16
        ],
        "slice": "[...]",
        "type": "tensor<1x64x16x16xf16, 687194767360 : i64>"
      }
    ],
    "buffers": []
  },
  {
    "file-line": 152,
    "subnet_id": 0,
    "core_id": 0,
    "opcode": "tpu.Load",
    "is_local": true,
    "tiu_dma_id(before)": [
      61,
      70
    ],
    "tiu_dma_id(after)": [
      61,
      71
    ],
    "operands": [
      {
        "address": 687194800128,
        "layout": "continuous",
        "memory_type": "<1x56x16x16xf16>",
        "name": "118_Relu",
        "reshape": "<1x56x1x16x16>",
        "shape": [
          1,
          56,
          16,
          16
        ],
        "slice": "[0:1, 0:56, 0:1, 0:16, 0:16]",
        "type": "tensor<1x56x16x16xf16, 687194800128 : i64>"
      }
    ],
    "results": [
      {
        "address": 24576,
        "layout": "eu_align",
        "memory_type": "<1x56x16x16xf16>",
        "name": "load_118_Relu",
        "reshape": "<1x56x1x16x16>",
        "shape": [
          1,
          56,
          16,
          16
        ],
        "slice": "[0:1, 0:56, 0:1, 0:16, 0:16]",
        "type": "tensor<1x56x16x16xf16>"
      }
    ],
    "buffers": []
  },
  {
    "file-line": 153,
    "subnet_id": 0,
    "core_id": 0,
    "opcode": "tpu.Load",
    "is_local": true,
    "tiu_dma_id(before)": [
      61,
      71
    ],
    "tiu_dma_id(after)": [
      61,
      72
    ],
    "operands": [
      {
        "address": 618475421696,
        "layout": "continuous",
        "memory_type": "<1x56x3x3xf16>",
        "name": "120_Convblaze_face.backbone1.9.convs.0.weight_f16",
        "reshape": "<1x56x1x3x3>",
        "shape": [
          1,
          56,
          3,
          3
        ],
        "slice": "[0:1, 0:56, 0:1, 0:3, 0:3]",
        "type": "tensor<1x56x3x3xf16, 618475421696 : i64>"
      }
    ],
    "results": [
      {
        "address": 40960,
        "layout": "compact",
        "memory_type": "<1x56x3x3xf16>",
        "name": "load_120_Convblaze_face.backbone1.9.convs.0.weight_f16",
        "reshape": "<1x56x1x3x3>",
        "shape": [
          1,
          56,
          3,
          3
        ],
        "slice": "[0:1, 0:56, 0:1, 0:3, 0:3]",
        "type": "tensor<1x56x3x3xf16>"
      }
    ],
    "buffers": []
  },
  {
    "file-line": 154,
    "subnet_id": 0,
    "core_id": 0,
    "opcode": "tpu.Load",
    "is_local": true,
    "tiu_dma_id(before)": [
      61,
      72
    ],
    "tiu_dma_id(after)": [
      61,
      73
    ],
    "operands": [
      {
        "address": 618475425792,
        "layout": "continuous",
        "memory_type": "<1x56x1x1xf16>",
        "name": "120_Conv_reordered",
        "reshape": "<1x56x1x1x1>",
        "shape": [
          1,
          56,
          1,
          1
        ],
        "slice": "[0:1, 0:56, 0:1, 0:1, 0:1]",
        "type": "tensor<1x56x1x1xf16, 618475425792 : i64>"
      }
    ],
    "results": [
      {
        "address": 57344,
        "layout": "compact",
        "memory_type": "<1x56x1x1xf16>",
        "name": "load_120_Conv_reordered",
        "reshape": "<1x56x1x1x1>",
        "shape": [
          1,
          56,
          1,
          1
        ],
        "slice": "[0:1, 0:56, 0:1, 0:1, 0:1]",
        "type": "tensor<1x56x1x1xf16>"
      }
    ],
    "buffers": []
  },
  {
    "file-line": 157,
    "subnet_id": 0,
    "core_id": 0,
    "opcode": "tpu.Conv2D",
    "is_local": true,
    "tiu_dma_id(before)": [
      61,
      73
    ],
    "tiu_dma_id(after)": [
      63,
      73
    ],
    "operands": [
      {
        "address": 24576,
        "layout": "eu_align",
        "memory_type": "<1x56x16x16xf16>",
        "name": "load_118_Relu",
        "reshape": "<1x56x1x16x16>",
        "shape": [
          1,
          56,
          16,
          16
        ],
        "slice": "[0:1, 0:56, 0:1, 0:16, 0:16]",
        "type": "tensor<1x56x16x16xf16>"
      },
      {
        "address": 40960,
        "layout": "compact",
        "memory_type": "<1x56x3x3xf16>",
        "name": "load_120_Convblaze_face.backbone1.9.convs.0.weight_f16",
        "reshape": "<1x56x1x3x3>",
        "shape": [
          1,
          56,
          3,
          3
        ],
        "slice": "[0:1, 0:56, 0:1, 0:3, 0:3]",
        "type": "tensor<1x56x3x3xf16>"
      },
      {
        "address": 57344,
        "layout": "compact",
        "memory_type": "<1x56x1x1xf16>",
        "name": "load_120_Conv_reordered",
        "reshape": "<1x56x1x1x1>",
        "shape": [
          1,
          56,
          1,
          1
        ],
        "slice": "[0:1, 0:56, 0:1, 0:1, 0:1]",
        "type": "tensor<1x56x1x1xf16>"
      }
    ],
    "results": [
      {
        "address": 0,
        "layout": "eu_align",
        "memory_type": "<1x56x16x16xf16>",
        "name": "120_Conv",
        "reshape": "<1x56x1x16x16>",
        "shape": [
          1,
          56,
          16,
          16
        ],
        "slice": "[0:1, 0:56, 0:1, 0:16, 0:16]",
        "type": "tensor<1x56x16x16xf16>"
      }
    ],
    "buffers": [
      {
        "address": 8192,
        "size": 2582
      }
    ]
  },
  {
    "file-line": 155,
    "subnet_id": 0,
    "core_id": 0,
    "opcode": "tpu.Load",
    "is_local": true,
    "tiu_dma_id(before)": [
      61,
      73
    ],
    "tiu_dma_id(after)": [
      61,
      74
    ],
    "operands": [
      {
        "address": 618475433984,
        "layout": "continuous",
        "memory_type": "<1x64x1x64xf16>",
        "name": "121_Conv_filter_reorderd",
        "reshape": "<1x64x1x1x64>",
        "shape": [
          1,
          64,
          1,
          64
        ],
        "slice": "[0:1, 0:64, 0:1, 0:1, 0:64]",
        "type": "tensor<1x64x1x64xf16, 618475433984 : i64>"
      }
    ],
    "results": [
      {
        "address": 33792,
        "layout": "compact",
        "memory_type": "<1x64x1x64xf16>",
        "name": "load_121_Conv_filter_reorderd",
        "reshape": "<1x64x1x1x64>",
        "shape": [
          1,
          64,
          1,
          64
        ],
        "slice": "[0:1, 0:64, 0:1, 0:1, 0:64]",
        "type": "tensor<1x64x1x64xf16>"
      }
    ],
    "buffers": []
  },
  {
    "file-line": 156,
    "subnet_id": 0,
    "core_id": 0,
    "opcode": "tpu.Load",
    "is_local": true,
    "tiu_dma_id(before)": [
      61,
      74
    ],
    "tiu_dma_id(after)": [
      61,
      75
    ],
    "operands": [
      {
        "address": 618475429888,
        "layout": "continuous",
        "memory_type": "<1x64x1x1xf32>",
        "name": "blaze_face.backbone1.9.convs.1.bias",
        "reshape": "<1x64x1x1x1>",
        "shape": [
          1,
          64,
          1,
          1
        ],
        "slice": "[0:1, 0:64, 0:1, 0:1, 0:1]",
        "type": "tensor<1x64x1x1xf32, 618475429888 : i64>"
      }
    ],
    "results": [
      {
        "address": 49152,
        "layout": "compact",
        "memory_type": "<1x64x1x1xf32>",
        "name": "load_blaze_face.backbone1.9.convs.1.bias",
        "reshape": "<1x64x1x1x1>",
        "shape": [
          1,
          64,
          1,
          1
        ],
        "slice": "[0:1, 0:64, 0:1, 0:1, 0:1]",
        "type": "tensor<1x64x1x1xf32>"
      }
    ],
    "buffers": []
  },
  {
    "file-line": 159,
    "subnet_id": 0,
    "core_id": 0,
    "opcode": "tpu.Conv2D",
    "is_local": true,
    "tiu_dma_id(before)": [
      63,
      75
    ],
    "tiu_dma_id(after)": [
      65,
      75
    ],
    "operands": [
      {
        "address": 0,
        "layout": "eu_align",
        "memory_type": "<1x56x16x16xf16>",
        "name": "120_Conv",
        "reshape": "<1x56x1x16x16>",
        "shape": [
          1,
          56,
          16,
          16
        ],
        "slice": "[0:1, 0:56, 0:1, 0:16, 0:16]",
        "type": "tensor<1x56x16x16xf16>"
      },
      {
        "address": 33792,
        "layout": "compact",
        "memory_type": "<1x64x1x64xf16>",
        "name": "load_121_Conv_filter_reorderd",
        "reshape": "<1x64x1x1x64>",
        "shape": [
          1,
          64,
          1,
          64
        ],
        "slice": "[0:1, 0:64, 0:1, 0:1, 0:64]",
        "type": "tensor<1x64x1x64xf16>"
      },
      {
        "address": 49152,
        "layout": "compact",
        "memory_type": "<1x64x1x1xf32>",
        "name": "load_blaze_face.backbone1.9.convs.1.bias",
        "reshape": "<1x64x1x1x1>",
        "shape": [
          1,
          64,
          1,
          1
        ],
        "slice": "[0:1, 0:64, 0:1, 0:1, 0:1]",
        "type": "tensor<1x64x1x1xf32>"
      }
    ],
    "results": [
      {
        "address": 8192,
        "layout": "eu_align",
        "memory_type": "<1x64x16x16xf16>",
        "name": "121_Conv",
        "reshape": "<1x64x1x16x16>",
        "shape": [
          1,
          64,
          16,
          16
        ],
        "slice": "[0:1, 0:64, 0:1, 0:16, 0:16]",
        "type": "tensor<1x64x16x16xf16>"
      }
    ],
    "buffers": []
  },
  {
    "file-line": 158,
    "subnet_id": 0,
    "core_id": 0,
    "opcode": "tpu.Load",
    "is_local": true,
    "tiu_dma_id(before)": [
      63,
      75
    ],
    "tiu_dma_id(after)": [
      63,
      76
    ],
    "operands": [
      {
        "address": 687194767360,
        "layout": "continuous",
        "memory_type": "<1x64x16x16xf16>",
        "name": "119_Pad",
        "reshape": "<1x64x1x16x16>",
        "shape": [
          1,
          64,
          16,
          16
        ],
        "slice": "[0:1, 0:64, 0:1, 0:16, 0:16]",
        "type": "tensor<1x64x16x16xf16, 687194767360 : i64>"
      }
    ],
    "results": [
      {
        "address": 16384,
        "layout": "eu_align",
        "memory_type": "<1x64x16x16xf16>",
        "name": "load_119_Pad",
        "reshape": "<1x64x1x16x16>",
        "shape": [
          1,
          64,
          16,
          16
        ],
        "slice": "[0:1, 0:64, 0:1, 0:16, 0:16]",
        "type": "tensor<1x64x16x16xf16>"
      }
    ],
    "buffers": []
  },
  {
    "file-line": 160,
    "subnet_id": 0,
    "core_id": 0,
    "opcode": "tpu.Add",
    "is_local": true,
    "tiu_dma_id(before)": [
      65,
      76
    ],
    "tiu_dma_id(after)": [
      67,
      76
    ],
    "operands": [
      {
        "address": 8192,
        "layout": "eu_align",
        "memory_type": "<1x64x16x16xf16>",
        "name": "121_Conv",
        "reshape": "<1x64x1x16x16>",
        "shape": [
          1,
          64,
          16,
          16
        ],
        "slice": "[0:1, 0:64, 0:1, 0:16, 0:16]",
        "type": "tensor<1x64x16x16xf16>"
      },
      {
        "address": 16384,
        "layout": "eu_align",
        "memory_type": "<1x64x16x16xf16>",
        "name": "load_119_Pad",
        "reshape": "<1x64x1x16x16>",
        "shape": [
          1,
          64,
          16,
          16
        ],
        "slice": "[0:1, 0:64, 0:1, 0:16, 0:16]",
        "type": "tensor<1x64x16x16xf16>"
      }
    ],
    "results": [
      {
        "address": 32768,
        "layout": "eu_align",
        "memory_type": "<1x64x16x16xf16>",
        "name": "123_Relu",
        "reshape": "<1x64x1x16x16>",
        "shape": [
          1,
          64,
          16,
          16
        ],
        "slice": "[0:1, 0:64, 0:1, 0:16, 0:16]",
        "type": "tensor<1x64x16x16xf16>"
      }
    ],
    "buffers": []
  },
  {
    "file-line": 161,
    "subnet_id": 0,
    "core_id": 0,
    "opcode": "tpu.Store",
    "is_local": true,
    "tiu_dma_id(before)": [
      67,
      76
    ],
    "tiu_dma_id(after)": [
      67,
      77
    ],
    "operands": [
      {
        "address": 32768,
        "layout": "eu_align",
        "memory_type": "<1x64x16x16xf16>",
        "name": "123_Relu",
        "reshape": "<1x64x1x16x16>",
        "shape": [
          1,
          64,
          16,
          16
        ],
        "slice": "[0:1, 0:64, 0:1, 0:16, 0:16]",
        "type": "tensor<1x64x16x16xf16>"
      },
      {}
    ],
    "results": [
      {
        "address": 687194845184,
        "layout": "continuous",
        "memory_type": "<1x64x16x16xf16>",
        "name": "123_Relu",
        "reshape": "<1x64x1x16x16>",
        "shape": [
          1,
          64,
          16,
          16
        ],
        "slice": "[0:1, 0:64, 0:1, 0:16, 0:16]",
        "type": "tensor<1x64x16x16xf16, 687194845184 : i64>"
      }
    ],
    "buffers": []
  },
  {
    "file-line": 164,
    "subnet_id": 0,
    "core_id": 0,
    "opcode": "tpu.Pad",
    "is_local": false,
    "tiu_dma_id(before)": [
      67,
      77
    ],
    "tiu_dma_id(after)": [
      67,
      79
    ],
    "operands": [
      {
        "address": 687194845184,
        "layout": "continuous",
        "memory_type": "<1x64x16x16xf16>",
        "name": "123_Relu",
        "reshape": "",
        "shape": [
          1,
          64,
          16,
          16
        ],
        "slice": "[...]",
        "type": "tensor<1x64x16x16xf16, 687194845184 : i64>"
      },
      {},
      {},
      {},
      {}
    ],
    "results": [
      {
        "address": 687194767360,
        "layout": "continuous",
        "memory_type": "<1x72x16x16xf16>",
        "name": "124_Pad",
        "reshape": "",
        "shape": [
          1,
          72,
          16,
          16
        ],
        "slice": "[...]",
        "type": "tensor<1x72x16x16xf16, 687194767360 : i64>"
      }
    ],
    "buffers": []
  },
  {
    "file-line": 170,
    "subnet_id": 0,
    "core_id": 0,
    "opcode": "tpu.Load",
    "is_local": true,
    "tiu_dma_id(before)": [
      67,
      79
    ],
    "tiu_dma_id(after)": [
      67,
      80
    ],
    "operands": [
      {
        "address": 687194845184,
        "layout": "continuous",
        "memory_type": "<1x64x16x16xf16>",
        "name": "123_Relu",
        "reshape": "<1x64x1x16x16>",
        "shape": [
          1,
          64,
          16,
          16
        ],
        "slice": "[0:1, 0:64, 0:1, 0:16, 0:16]",
        "type": "tensor<1x64x16x16xf16, 687194845184 : i64>"
      }
    ],
    "results": [
      {
        "address": 32768,
        "layout": "eu_align",
        "memory_type": "<1x64x16x16xf16>",
        "name": "load_123_Relu",
        "reshape": "<1x64x1x16x16>",
        "shape": [
          1,
          64,
          16,
          16
        ],
        "slice": "[0:1, 0:64, 0:1, 0:16, 0:16]",
        "type": "tensor<1x64x16x16xf16>"
      }
    ],
    "buffers": []
  },
  {
    "file-line": 171,
    "subnet_id": 0,
    "core_id": 0,
    "opcode": "tpu.Load",
    "is_local": true,
    "tiu_dma_id(before)": [
      67,
      80
    ],
    "tiu_dma_id(after)": [
      67,
      81
    ],
    "operands": [
      {
        "address": 618475442176,
        "layout": "continuous",
        "memory_type": "<1x64x3x3xf16>",
        "name": "125_Convblaze_face.backbone1.10.convs.0.weight_f16",
        "reshape": "<1x64x1x3x3>",
        "shape": [
          1,
          64,
          3,
          3
        ],
        "slice": "[0:1, 0:64, 0:1, 0:3, 0:3]",
        "type": "tensor<1x64x3x3xf16, 618475442176 : i64>"
      }
    ],
    "results": [
      {
        "address": 40960,
        "layout": "compact",
        "memory_type": "<1x64x3x3xf16>",
        "name": "load_125_Convblaze_face.backbone1.10.convs.0.weight_f16",
        "reshape": "<1x64x1x3x3>",
        "shape": [
          1,
          64,
          3,
          3
        ],
        "slice": "[0:1, 0:64, 0:1, 0:3, 0:3]",
        "type": "tensor<1x64x3x3xf16>"
      }
    ],
    "buffers": []
  },
  {
    "file-line": 172,
    "subnet_id": 0,
    "core_id": 0,
    "opcode": "tpu.Load",
    "is_local": true,
    "tiu_dma_id(before)": [
      67,
      81
    ],
    "tiu_dma_id(after)": [
      67,
      82
    ],
    "operands": [
      {
        "address": 618475446272,
        "layout": "continuous",
        "memory_type": "<1x64x1x1xf16>",
        "name": "125_Conv_reordered",
        "reshape": "<1x64x1x1x1>",
        "shape": [
          1,
          64,
          1,
          1
        ],
        "slice": "[0:1, 0:64, 0:1, 0:1, 0:1]",
        "type": "tensor<1x64x1x1xf16, 618475446272 : i64>"
      }
    ],
    "results": [
      {
        "address": 57344,
        "layout": "compact",
        "memory_type": "<1x64x1x1xf16>",
        "name": "load_125_Conv_reordered",
        "reshape": "<1x64x1x1x1>",
        "shape": [
          1,
          64,
          1,
          1
        ],
        "slice": "[0:1, 0:64, 0:1, 0:1, 0:1]",
        "type": "tensor<1x64x1x1xf16>"
      }
    ],
    "buffers": []
  },
  {
    "file-line": 175,
    "subnet_id": 0,
    "core_id": 0,
    "opcode": "tpu.Conv2D",
    "is_local": true,
    "tiu_dma_id(before)": [
      67,
      82
    ],
    "tiu_dma_id(after)": [
      69,
      82
    ],
    "operands": [
      {
        "address": 32768,
        "layout": "eu_align",
        "memory_type": "<1x64x16x16xf16>",
        "name": "load_123_Relu",
        "reshape": "<1x64x1x16x16>",
        "shape": [
          1,
          64,
          16,
          16
        ],
        "slice": "[0:1, 0:64, 0:1, 0:16, 0:16]",
        "type": "tensor<1x64x16x16xf16>"
      },
      {
        "address": 40960,
        "layout": "compact",
        "memory_type": "<1x64x3x3xf16>",
        "name": "load_125_Convblaze_face.backbone1.10.convs.0.weight_f16",
        "reshape": "<1x64x1x3x3>",
        "shape": [
          1,
          64,
          3,
          3
        ],
        "slice": "[0:1, 0:64, 0:1, 0:3, 0:3]",
        "type": "tensor<1x64x3x3xf16>"
      },
      {
        "address": 57344,
        "layout": "compact",
        "memory_type": "<1x64x1x1xf16>",
        "name": "load_125_Conv_reordered",
        "reshape": "<1x64x1x1x1>",
        "shape": [
          1,
          64,
          1,
          1
        ],
        "slice": "[0:1, 0:64, 0:1, 0:1, 0:1]",
        "type": "tensor<1x64x1x1xf16>"
      }
    ],
    "results": [
      {
        "address": 24576,
        "layout": "eu_align",
        "memory_type": "<1x64x16x16xf16>",
        "name": "125_Conv",
        "reshape": "<1x64x1x16x16>",
        "shape": [
          1,
          64,
          16,
          16
        ],
        "slice": "[0:1, 0:64, 0:1, 0:16, 0:16]",
        "type": "tensor<1x64x16x16xf16>"
      }
    ],
    "buffers": [
      {
        "address": 0,
        "size": 2582
      }
    ]
  },
  {
    "file-line": 173,
    "subnet_id": 0,
    "core_id": 0,
    "opcode": "tpu.Load",
    "is_local": true,
    "tiu_dma_id(before)": [
      67,
      82
    ],
    "tiu_dma_id(after)": [
      67,
      83
    ],
    "operands": [
      {
        "address": 618475454464,
        "layout": "continuous",
        "memory_type": "<1x72x1x64xf16>",
        "name": "126_Conv_filter_reorderd",
        "reshape": "<1x72x1x1x64>",
        "shape": [
          1,
          72,
          1,
          64
        ],
        "slice": "[0:1, 0:72, 0:1, 0:1, 0:64]",
        "type": "tensor<1x72x1x64xf16, 618475454464 : i64>"
      }
    ],
    "results": [
      {
        "address": 17920,
        "layout": "compact",
        "memory_type": "<1x72x1x64xf16>",
        "name": "load_126_Conv_filter_reorderd",
        "reshape": "<1x72x1x1x64>",
        "shape": [
          1,
          72,
          1,
          64
        ],
        "slice": "[0:1, 0:72, 0:1, 0:1, 0:64]",
        "type": "tensor<1x72x1x64xf16>"
      }
    ],
    "buffers": []
  },
  {
    "file-line": 174,
    "subnet_id": 0,
    "core_id": 0,
    "opcode": "tpu.Load",
    "is_local": true,
    "tiu_dma_id(before)": [
      67,
      83
    ],
    "tiu_dma_id(after)": [
      67,
      84
    ],
    "operands": [
      {
        "address": 618475450368,
        "layout": "continuous",
        "memory_type": "<1x72x1x1xf32>",
        "name": "blaze_face.backbone1.10.convs.1.bias",
        "reshape": "<1x72x1x1x1>",
        "shape": [
          1,
          72,
          1,
          1
        ],
        "slice": "[0:1, 0:72, 0:1, 0:1, 0:1]",
        "type": "tensor<1x72x1x1xf32, 618475450368 : i64>"
      }
    ],
    "results": [
      {
        "address": 49152,
        "layout": "compact",
        "memory_type": "<1x72x1x1xf32>",
        "name": "load_blaze_face.backbone1.10.convs.1.bias",
        "reshape": "<1x72x1x1x1>",
        "shape": [
          1,
          72,
          1,
          1
        ],
        "slice": "[0:1, 0:72, 0:1, 0:1, 0:1]",
        "type": "tensor<1x72x1x1xf32>"
      }
    ],
    "buffers": []
  },
  {
    "file-line": 177,
    "subnet_id": 0,
    "core_id": 0,
    "opcode": "tpu.Conv2D",
    "is_local": true,
    "tiu_dma_id(before)": [
      69,
      84
    ],
    "tiu_dma_id(after)": [
      71,
      84
    ],
    "operands": [
      {
        "address": 24576,
        "layout": "eu_align",
        "memory_type": "<1x64x16x16xf16>",
        "name": "125_Conv",
        "reshape": "<1x64x1x16x16>",
        "shape": [
          1,
          64,
          16,
          16
        ],
        "slice": "[0:1, 0:64, 0:1, 0:16, 0:16]",
        "type": "tensor<1x64x16x16xf16>"
      },
      {
        "address": 17920,
        "layout": "compact",
        "memory_type": "<1x72x1x64xf16>",
        "name": "load_126_Conv_filter_reorderd",
        "reshape": "<1x72x1x1x64>",
        "shape": [
          1,
          72,
          1,
          64
        ],
        "slice": "[0:1, 0:72, 0:1, 0:1, 0:64]",
        "type": "tensor<1x72x1x64xf16>"
      },
      {
        "address": 49152,
        "layout": "compact",
        "memory_type": "<1x72x1x1xf32>",
        "name": "load_blaze_face.backbone1.10.convs.1.bias",
        "reshape": "<1x72x1x1x1>",
        "shape": [
          1,
          72,
          1,
          1
        ],
        "slice": "[0:1, 0:72, 0:1, 0:1, 0:1]",
        "type": "tensor<1x72x1x1xf32>"
      }
    ],
    "results": [
      {
        "address": 0,
        "layout": "eu_align",
        "memory_type": "<1x72x16x16xf16>",
        "name": "126_Conv",
        "reshape": "<1x72x1x16x16>",
        "shape": [
          1,
          72,
          16,
          16
        ],
        "slice": "[0:1, 0:72, 0:1, 0:16, 0:16]",
        "type": "tensor<1x72x16x16xf16>"
      }
    ],
    "buffers": []
  },
  {
    "file-line": 176,
    "subnet_id": 0,
    "core_id": 0,
    "opcode": "tpu.Load",
    "is_local": true,
    "tiu_dma_id(before)": [
      69,
      84
    ],
    "tiu_dma_id(after)": [
      69,
      85
    ],
    "operands": [
      {
        "address": 687194767360,
        "layout": "continuous",
        "memory_type": "<1x72x16x16xf16>",
        "name": "124_Pad",
        "reshape": "<1x72x1x16x16>",
        "shape": [
          1,
          72,
          16,
          16
        ],
        "slice": "[0:1, 0:72, 0:1, 0:16, 0:16]",
        "type": "tensor<1x72x16x16xf16, 687194767360 : i64>"
      }
    ],
    "results": [
      {
        "address": 8192,
        "layout": "eu_align",
        "memory_type": "<1x72x16x16xf16>",
        "name": "load_124_Pad",
        "reshape": "<1x72x1x16x16>",
        "shape": [
          1,
          72,
          16,
          16
        ],
        "slice": "[0:1, 0:72, 0:1, 0:16, 0:16]",
        "type": "tensor<1x72x16x16xf16>"
      }
    ],
    "buffers": []
  },
  {
    "file-line": 178,
    "subnet_id": 0,
    "core_id": 0,
    "opcode": "tpu.Add",
    "is_local": true,
    "tiu_dma_id(before)": [
      71,
      85
    ],
    "tiu_dma_id(after)": [
      73,
      85
    ],
    "operands": [
      {
        "address": 0,
        "layout": "eu_align",
        "memory_type": "<1x72x16x16xf16>",
        "name": "126_Conv",
        "reshape": "<1x72x1x16x16>",
        "shape": [
          1,
          72,
          16,
          16
        ],
        "slice": "[0:1, 0:72, 0:1, 0:16, 0:16]",
        "type": "tensor<1x72x16x16xf16>"
      },
      {
        "address": 8192,
        "layout": "eu_align",
        "memory_type": "<1x72x16x16xf16>",
        "name": "load_124_Pad",
        "reshape": "<1x72x1x16x16>",
        "shape": [
          1,
          72,
          16,
          16
        ],
        "slice": "[0:1, 0:72, 0:1, 0:16, 0:16]",
        "type": "tensor<1x72x16x16xf16>"
      }
    ],
    "results": [
      {
        "address": 16384,
        "layout": "eu_align",
        "memory_type": "<1x72x16x16xf16>",
        "name": "128_Relu",
        "reshape": "<1x72x1x16x16>",
        "shape": [
          1,
          72,
          16,
          16
        ],
        "slice": "[0:1, 0:72, 0:1, 0:16, 0:16]",
        "type": "tensor<1x72x16x16xf16>"
      }
    ],
    "buffers": []
  },
  {
    "file-line": 179,
    "subnet_id": 0,
    "core_id": 0,
    "opcode": "tpu.Store",
    "is_local": true,
    "tiu_dma_id(before)": [
      73,
      85
    ],
    "tiu_dma_id(after)": [
      73,
      86
    ],
    "operands": [
      {
        "address": 16384,
        "layout": "eu_align",
        "memory_type": "<1x72x16x16xf16>",
        "name": "128_Relu",
        "reshape": "<1x72x1x16x16>",
        "shape": [
          1,
          72,
          16,
          16
        ],
        "slice": "[0:1, 0:72, 0:1, 0:16, 0:16]",
        "type": "tensor<1x72x16x16xf16>"
      },
      {}
    ],
    "results": [
      {
        "address": 687194808320,
        "layout": "continuous",
        "memory_type": "<1x72x16x16xf16>",
        "name": "128_Relu",
        "reshape": "<1x72x1x16x16>",
        "shape": [
          1,
          72,
          16,
          16
        ],
        "slice": "[0:1, 0:72, 0:1, 0:16, 0:16]",
        "type": "tensor<1x72x16x16xf16, 687194808320 : i64>"
      }
    ],
    "buffers": []
  },
  {
    "file-line": 182,
    "subnet_id": 0,
    "core_id": 0,
    "opcode": "tpu.Pad",
    "is_local": false,
    "tiu_dma_id(before)": [
      73,
      86
    ],
    "tiu_dma_id(after)": [
      73,
      88
    ],
    "operands": [
      {
        "address": 687194808320,
        "layout": "continuous",
        "memory_type": "<1x72x16x16xf16>",
        "name": "128_Relu",
        "reshape": "",
        "shape": [
          1,
          72,
          16,
          16
        ],
        "slice": "[...]",
        "type": "tensor<1x72x16x16xf16, 687194808320 : i64>"
      },
      {},
      {},
      {},
      {}
    ],
    "results": [
      {
        "address": 687194767360,
        "layout": "continuous",
        "memory_type": "<1x80x16x16xf16>",
        "name": "129_Pad",
        "reshape": "",
        "shape": [
          1,
          80,
          16,
          16
        ],
        "slice": "[...]",
        "type": "tensor<1x80x16x16xf16, 687194767360 : i64>"
      }
    ],
    "buffers": []
  },
  {
    "file-line": 188,
    "subnet_id": 0,
    "core_id": 0,
    "opcode": "tpu.Load",
    "is_local": true,
    "tiu_dma_id(before)": [
      73,
      88
    ],
    "tiu_dma_id(after)": [
      73,
      89
    ],
    "operands": [
      {
        "address": 687194808320,
        "layout": "continuous",
        "memory_type": "<1x72x16x16xf16>",
        "name": "128_Relu",
        "reshape": "<1x72x1x16x16>",
        "shape": [
          1,
          72,
          16,
          16
        ],
        "slice": "[0:1, 0:72, 0:1, 0:16, 0:16]",
        "type": "tensor<1x72x16x16xf16, 687194808320 : i64>"
      }
    ],
    "results": [
      {
        "address": 32768,
        "layout": "eu_align",
        "memory_type": "<1x72x16x16xf16>",
        "name": "load_128_Relu",
        "reshape": "<1x72x1x16x16>",
        "shape": [
          1,
          72,
          16,
          16
        ],
        "slice": "[0:1, 0:72, 0:1, 0:16, 0:16]",
        "type": "tensor<1x72x16x16xf16>"
      }
    ],
    "buffers": []
  },
  {
    "file-line": 189,
    "subnet_id": 0,
    "core_id": 0,
    "opcode": "tpu.Load",
    "is_local": true,
    "tiu_dma_id(before)": [
      73,
      89
    ],
    "tiu_dma_id(after)": [
      73,
      90
    ],
    "operands": [
      {
        "address": 618475466752,
        "layout": "continuous",
        "memory_type": "<1x72x3x3xf16>",
        "name": "130_Convblaze_face.backbone1.11.convs.0.weight_f16",
        "reshape": "<1x72x1x3x3>",
        "shape": [
          1,
          72,
          3,
          3
        ],
        "slice": "[0:1, 0:72, 0:1, 0:3, 0:3]",
        "type": "tensor<1x72x3x3xf16, 618475466752 : i64>"
      }
    ],
    "results": [
      {
        "address": 49152,
        "layout": "compact",
        "memory_type": "<1x72x3x3xf16>",
        "name": "load_130_Convblaze_face.backbone1.11.convs.0.weight_f16",
        "reshape": "<1x72x1x3x3>",
        "shape": [
          1,
          72,
          3,
          3
        ],
        "slice": "[0:1, 0:72, 0:1, 0:3, 0:3]",
        "type": "tensor<1x72x3x3xf16>"
      }
    ],
    "buffers": []
  },
  {
    "file-line": 190,
    "subnet_id": 0,
    "core_id": 0,
    "opcode": "tpu.Load",
    "is_local": true,
    "tiu_dma_id(before)": [
      73,
      90
    ],
    "tiu_dma_id(after)": [
      73,
      91
    ],
    "operands": [
      {
        "address": 618475470848,
        "layout": "continuous",
        "memory_type": "<1x72x1x1xf16>",
        "name": "130_Conv_reordered",
        "reshape": "<1x72x1x1x1>",
        "shape": [
          1,
          72,
          1,
          1
        ],
        "slice": "[0:1, 0:72, 0:1, 0:1, 0:1]",
        "type": "tensor<1x72x1x1xf16, 618475470848 : i64>"
      }
    ],
    "results": [
      {
        "address": 65536,
        "layout": "compact",
        "memory_type": "<1x72x1x1xf16>",
        "name": "load_130_Conv_reordered",
        "reshape": "<1x72x1x1x1>",
        "shape": [
          1,
          72,
          1,
          1
        ],
        "slice": "[0:1, 0:72, 0:1, 0:1, 0:1]",
        "type": "tensor<1x72x1x1xf16>"
      }
    ],
    "buffers": []
  },
  {
    "file-line": 193,
    "subnet_id": 0,
    "core_id": 0,
    "opcode": "tpu.Conv2D",
    "is_local": true,
    "tiu_dma_id(before)": [
      73,
      91
    ],
    "tiu_dma_id(after)": [
      75,
      91
    ],
    "operands": [
      {
        "address": 32768,
        "layout": "eu_align",
        "memory_type": "<1x72x16x16xf16>",
        "name": "load_128_Relu",
        "reshape": "<1x72x1x16x16>",
        "shape": [
          1,
          72,
          16,
          16
        ],
        "slice": "[0:1, 0:72, 0:1, 0:16, 0:16]",
        "type": "tensor<1x72x16x16xf16>"
      },
      {
        "address": 49152,
        "layout": "compact",
        "memory_type": "<1x72x3x3xf16>",
        "name": "load_130_Convblaze_face.backbone1.11.convs.0.weight_f16",
        "reshape": "<1x72x1x3x3>",
        "shape": [
          1,
          72,
          3,
          3
        ],
        "slice": "[0:1, 0:72, 0:1, 0:3, 0:3]",
        "type": "tensor<1x72x3x3xf16>"
      },
      {
        "address": 65536,
        "layout": "compact",
        "memory_type": "<1x72x1x1xf16>",
        "name": "load_130_Conv_reordered",
        "reshape": "<1x72x1x1x1>",
        "shape": [
          1,
          72,
          1,
          1
        ],
        "slice": "[0:1, 0:72, 0:1, 0:1, 0:1]",
        "type": "tensor<1x72x1x1xf16>"
      }
    ],
    "results": [
      {
        "address": 8192,
        "layout": "eu_align",
        "memory_type": "<1x72x16x16xf16>",
        "name": "130_Conv",
        "reshape": "<1x72x1x16x16>",
        "shape": [
          1,
          72,
          16,
          16
        ],
        "slice": "[0:1, 0:72, 0:1, 0:16, 0:16]",
        "type": "tensor<1x72x16x16xf16>"
      }
    ],
    "buffers": [
      {
        "address": 1536,
        "size": 3615
      }
    ]
  },
  {
    "file-line": 191,
    "subnet_id": 0,
    "core_id": 0,
    "opcode": "tpu.Load",
    "is_local": true,
    "tiu_dma_id(before)": [
      73,
      91
    ],
    "tiu_dma_id(after)": [
      73,
      92
    ],
    "operands": [
      {
        "address": 618475479040,
        "layout": "continuous",
        "memory_type": "<1x80x1x80xf16>",
        "name": "131_Conv_filter_reorderd",
        "reshape": "<1x80x1x1x80>",
        "shape": [
          1,
          80,
          1,
          80
        ],
        "slice": "[0:1, 0:80, 0:1, 0:1, 0:80]",
        "type": "tensor<1x80x1x80xf16, 618475479040 : i64>"
      }
    ],
    "results": [
      {
        "address": 40960,
        "layout": "compact",
        "memory_type": "<1x80x1x80xf16>",
        "name": "load_131_Conv_filter_reorderd",
        "reshape": "<1x80x1x1x80>",
        "shape": [
          1,
          80,
          1,
          80
        ],
        "slice": "[0:1, 0:80, 0:1, 0:1, 0:80]",
        "type": "tensor<1x80x1x80xf16>"
      }
    ],
    "buffers": []
  },
  {
    "file-line": 192,
    "subnet_id": 0,
    "core_id": 0,
    "opcode": "tpu.Load",
    "is_local": true,
    "tiu_dma_id(before)": [
      73,
      92
    ],
    "tiu_dma_id(after)": [
      73,
      93
    ],
    "operands": [
      {
        "address": 618475474944,
        "layout": "continuous",
        "memory_type": "<1x80x1x1xf32>",
        "name": "blaze_face.backbone1.11.convs.1.bias",
        "reshape": "<1x80x1x1x1>",
        "shape": [
          1,
          80,
          1,
          1
        ],
        "slice": "[0:1, 0:80, 0:1, 0:1, 0:1]",
        "type": "tensor<1x80x1x1xf32, 618475474944 : i64>"
      }
    ],
    "results": [
      {
        "address": 57344,
        "layout": "compact",
        "memory_type": "<1x80x1x1xf32>",
        "name": "load_blaze_face.backbone1.11.convs.1.bias",
        "reshape": "<1x80x1x1x1>",
        "shape": [
          1,
          80,
          1,
          1
        ],
        "slice": "[0:1, 0:80, 0:1, 0:1, 0:1]",
        "type": "tensor<1x80x1x1xf32>"
      }
    ],
    "buffers": []
  },
  {
    "file-line": 195,
    "subnet_id": 0,
    "core_id": 0,
    "opcode": "tpu.Conv2D",
    "is_local": true,
    "tiu_dma_id(before)": [
      75,
      93
    ],
    "tiu_dma_id(after)": [
      77,
      93
    ],
    "operands": [
      {
        "address": 8192,
        "layout": "eu_align",
        "memory_type": "<1x72x16x16xf16>",
        "name": "130_Conv",
        "reshape": "<1x72x1x16x16>",
        "shape": [
          1,
          72,
          16,
          16
        ],
        "slice": "[0:1, 0:72, 0:1, 0:16, 0:16]",
        "type": "tensor<1x72x16x16xf16>"
      },
      {
        "address": 40960,
        "layout": "compact",
        "memory_type": "<1x80x1x80xf16>",
        "name": "load_131_Conv_filter_reorderd",
        "reshape": "<1x80x1x1x80>",
        "shape": [
          1,
          80,
          1,
          80
        ],
        "slice": "[0:1, 0:80, 0:1, 0:1, 0:80]",
        "type": "tensor<1x80x1x80xf16>"
      },
      {
        "address": 57344,
        "layout": "compact",
        "memory_type": "<1x80x1x1xf32>",
        "name": "load_blaze_face.backbone1.11.convs.1.bias",
        "reshape": "<1x80x1x1x1>",
        "shape": [
          1,
          80,
          1,
          1
        ],
        "slice": "[0:1, 0:80, 0:1, 0:1, 0:1]",
        "type": "tensor<1x80x1x1xf32>"
      }
    ],
    "results": [
      {
        "address": 16384,
        "layout": "eu_align",
        "memory_type": "<1x80x16x16xf16>",
        "name": "131_Conv",
        "reshape": "<1x80x1x16x16>",
        "shape": [
          1,
          80,
          16,
          16
        ],
        "slice": "[0:1, 0:80, 0:1, 0:16, 0:16]",
        "type": "tensor<1x80x16x16xf16>"
      }
    ],
    "buffers": []
  },
  {
    "file-line": 194,
    "subnet_id": 0,
    "core_id": 0,
    "opcode": "tpu.Load",
    "is_local": true,
    "tiu_dma_id(before)": [
      75,
      93
    ],
    "tiu_dma_id(after)": [
      75,
      94
    ],
    "operands": [
      {
        "address": 687194767360,
        "layout": "continuous",
        "memory_type": "<1x80x16x16xf16>",
        "name": "129_Pad",
        "reshape": "<1x80x1x16x16>",
        "shape": [
          1,
          80,
          16,
          16
        ],
        "slice": "[0:1, 0:80, 0:1, 0:16, 0:16]",
        "type": "tensor<1x80x16x16xf16, 687194767360 : i64>"
      }
    ],
    "results": [
      {
        "address": 24576,
        "layout": "eu_align",
        "memory_type": "<1x80x16x16xf16>",
        "name": "load_129_Pad",
        "reshape": "<1x80x1x16x16>",
        "shape": [
          1,
          80,
          16,
          16
        ],
        "slice": "[0:1, 0:80, 0:1, 0:16, 0:16]",
        "type": "tensor<1x80x16x16xf16>"
      }
    ],
    "buffers": []
  },
  {
    "file-line": 196,
    "subnet_id": 0,
    "core_id": 0,
    "opcode": "tpu.Add",
    "is_local": true,
    "tiu_dma_id(before)": [
      77,
      94
    ],
    "tiu_dma_id(after)": [
      79,
      94
    ],
    "operands": [
      {
        "address": 16384,
        "layout": "eu_align",
        "memory_type": "<1x80x16x16xf16>",
        "name": "131_Conv",
        "reshape": "<1x80x1x16x16>",
        "shape": [
          1,
          80,
          16,
          16
        ],
        "slice": "[0:1, 0:80, 0:1, 0:16, 0:16]",
        "type": "tensor<1x80x16x16xf16>"
      },
      {
        "address": 24576,
        "layout": "eu_align",
        "memory_type": "<1x80x16x16xf16>",
        "name": "load_129_Pad",
        "reshape": "<1x80x1x16x16>",
        "shape": [
          1,
          80,
          16,
          16
        ],
        "slice": "[0:1, 0:80, 0:1, 0:16, 0:16]",
        "type": "tensor<1x80x16x16xf16>"
      }
    ],
    "results": [
      {
        "address": 0,
        "layout": "eu_align",
        "memory_type": "<1x80x16x16xf16>",
        "name": "133_Relu",
        "reshape": "<1x80x1x16x16>",
        "shape": [
          1,
          80,
          16,
          16
        ],
        "slice": "[0:1, 0:80, 0:1, 0:16, 0:16]",
        "type": "tensor<1x80x16x16xf16>"
      }
    ],
    "buffers": []
  },
  {
    "file-line": 197,
    "subnet_id": 0,
    "core_id": 0,
    "opcode": "tpu.Store",
    "is_local": true,
    "tiu_dma_id(before)": [
      79,
      94
    ],
    "tiu_dma_id(after)": [
      79,
      95
    ],
    "operands": [
      {
        "address": 0,
        "layout": "eu_align",
        "memory_type": "<1x80x16x16xf16>",
        "name": "133_Relu",
        "reshape": "<1x80x1x16x16>",
        "shape": [
          1,
          80,
          16,
          16
        ],
        "slice": "[0:1, 0:80, 0:1, 0:16, 0:16]",
        "type": "tensor<1x80x16x16xf16>"
      },
      {}
    ],
    "results": [
      {
        "address": 687194857472,
        "layout": "continuous",
        "memory_type": "<1x80x16x16xf16>",
        "name": "133_Relu",
        "reshape": "<1x80x1x16x16>",
        "shape": [
          1,
          80,
          16,
          16
        ],
        "slice": "[0:1, 0:80, 0:1, 0:16, 0:16]",
        "type": "tensor<1x80x16x16xf16, 687194857472 : i64>"
      }
    ],
    "buffers": []
  },
  {
    "file-line": 200,
    "subnet_id": 0,
    "core_id": 0,
    "opcode": "tpu.Pad",
    "is_local": false,
    "tiu_dma_id(before)": [
      79,
      95
    ],
    "tiu_dma_id(after)": [
      79,
      97
    ],
    "operands": [
      {
        "address": 687194857472,
        "layout": "continuous",
        "memory_type": "<1x80x16x16xf16>",
        "name": "133_Relu",
        "reshape": "",
        "shape": [
          1,
          80,
          16,
          16
        ],
        "slice": "[...]",
        "type": "tensor<1x80x16x16xf16, 687194857472 : i64>"
      },
      {},
      {},
      {},
      {}
    ],
    "results": [
      {
        "address": 687194812416,
        "layout": "continuous",
        "memory_type": "<1x88x16x16xf16>",
        "name": "134_Pad",
        "reshape": "",
        "shape": [
          1,
          88,
          16,
          16
        ],
        "slice": "[...]",
        "type": "tensor<1x88x16x16xf16, 687194812416 : i64>"
      }
    ],
    "buffers": []
  },
  {
    "file-line": 206,
    "subnet_id": 0,
    "core_id": 0,
    "opcode": "tpu.Load",
    "is_local": true,
    "tiu_dma_id(before)": [
      79,
      97
    ],
    "tiu_dma_id(after)": [
      79,
      98
    ],
    "operands": [
      {
        "address": 687194857472,
        "layout": "continuous",
        "memory_type": "<1x80x16x16xf16>",
        "name": "133_Relu",
        "reshape": "<1x80x1x16x16>",
        "shape": [
          1,
          80,
          16,
          16
        ],
        "slice": "[0:1, 0:80, 0:1, 0:16, 0:16]",
        "type": "tensor<1x80x16x16xf16, 687194857472 : i64>"
      }
    ],
    "results": [
      {
        "address": 8192,
        "layout": "eu_align",
        "memory_type": "<1x80x16x16xf16>",
        "name": "load_133_Relu",
        "reshape": "<1x80x1x16x16>",
        "shape": [
          1,
          80,
          16,
          16
        ],
        "slice": "[0:1, 0:80, 0:1, 0:16, 0:16]",
        "type": "tensor<1x80x16x16xf16>"
      }
    ],
    "buffers": []
  },
  {
    "file-line": 207,
    "subnet_id": 0,
    "core_id": 0,
    "opcode": "tpu.Load",
    "is_local": true,
    "tiu_dma_id(before)": [
      79,
      98
    ],
    "tiu_dma_id(after)": [
      79,
      99
    ],
    "operands": [
      {
        "address": 618475495424,
        "layout": "continuous",
        "memory_type": "<1x80x3x3xf16>",
        "name": "135_Convblaze_face.backbone1.12.convs.0.weight_f16",
        "reshape": "<1x80x1x3x3>",
        "shape": [
          1,
          80,
          3,
          3
        ],
        "slice": "[0:1, 0:80, 0:1, 0:3, 0:3]",
        "type": "tensor<1x80x3x3xf16, 618475495424 : i64>"
      }
    ],
    "results": [
      {
        "address": 16384,
        "layout": "compact",
        "memory_type": "<1x80x3x3xf16>",
        "name": "load_135_Convblaze_face.backbone1.12.convs.0.weight_f16",
        "reshape": "<1x80x1x3x3>",
        "shape": [
          1,
          80,
          3,
          3
        ],
        "slice": "[0:1, 0:80, 0:1, 0:3, 0:3]",
        "type": "tensor<1x80x3x3xf16>"
      }
    ],
    "buffers": []
  },
  {
    "file-line": 208,
    "subnet_id": 0,
    "core_id": 0,
    "opcode": "tpu.Load",
    "is_local": true,
    "tiu_dma_id(before)": [
      79,
      99
    ],
    "tiu_dma_id(after)": [
      79,
      100
    ],
    "operands": [
      {
        "address": 618475499520,
        "layout": "continuous",
        "memory_type": "<1x80x1x1xf16>",
        "name": "135_Conv_reordered",
        "reshape": "<1x80x1x1x1>",
        "shape": [
          1,
          80,
          1,
          1
        ],
        "slice": "[0:1, 0:80, 0:1, 0:1, 0:1]",
        "type": "tensor<1x80x1x1xf16, 618475499520 : i64>"
      }
    ],
    "results": [
      {
        "address": 49152,
        "layout": "compact",
        "memory_type": "<1x80x1x1xf16>",
        "name": "load_135_Conv_reordered",
        "reshape": "<1x80x1x1x1>",
        "shape": [
          1,
          80,
          1,
          1
        ],
        "slice": "[0:1, 0:80, 0:1, 0:1, 0:1]",
        "type": "tensor<1x80x1x1xf16>"
      }
    ],
    "buffers": []
  },
  {
    "file-line": 211,
    "subnet_id": 0,
    "core_id": 0,
    "opcode": "tpu.Conv2D",
    "is_local": true,
    "tiu_dma_id(before)": [
      79,
      100
    ],
    "tiu_dma_id(after)": [
      81,
      100
    ],
    "operands": [
      {
        "address": 8192,
        "layout": "eu_align",
        "memory_type": "<1x80x16x16xf16>",
        "name": "load_133_Relu",
        "reshape": "<1x80x1x16x16>",
        "shape": [
          1,
          80,
          16,
          16
        ],
        "slice": "[0:1, 0:80, 0:1, 0:16, 0:16]",
        "type": "tensor<1x80x16x16xf16>"
      },
      {
        "address": 16384,
        "layout": "compact",
        "memory_type": "<1x80x3x3xf16>",
        "name": "load_135_Convblaze_face.backbone1.12.convs.0.weight_f16",
        "reshape": "<1x80x1x3x3>",
        "shape": [
          1,
          80,
          3,
          3
        ],
        "slice": "[0:1, 0:80, 0:1, 0:3, 0:3]",
        "type": "tensor<1x80x3x3xf16>"
      },
      {
        "address": 49152,
        "layout": "compact",
        "memory_type": "<1x80x1x1xf16>",
        "name": "load_135_Conv_reordered",
        "reshape": "<1x80x1x1x1>",
        "shape": [
          1,
          80,
          1,
          1
        ],
        "slice": "[0:1, 0:80, 0:1, 0:1, 0:1]",
        "type": "tensor<1x80x1x1xf16>"
      }
    ],
    "results": [
      {
        "address": 0,
        "layout": "eu_align",
        "memory_type": "<1x80x16x16xf16>",
        "name": "135_Conv",
        "reshape": "<1x80x1x16x16>",
        "shape": [
          1,
          80,
          16,
          16
        ],
        "slice": "[0:1, 0:80, 0:1, 0:16, 0:16]",
        "type": "tensor<1x80x16x16xf16>"
      }
    ],
    "buffers": [
      {
        "address": 40960,
        "size": 3615
      }
    ]
  },
  {
    "file-line": 209,
    "subnet_id": 0,
    "core_id": 0,
    "opcode": "tpu.Load",
    "is_local": true,
    "tiu_dma_id(before)": [
      79,
      100
    ],
    "tiu_dma_id(after)": [
      79,
      101
    ],
    "operands": [
      {
        "address": 618475507712,
        "layout": "continuous",
        "memory_type": "<1x88x1x80xf16>",
        "name": "136_Conv_filter_reorderd",
        "reshape": "<1x88x1x1x80>",
        "shape": [
          1,
          88,
          1,
          80
        ],
        "slice": "[0:1, 0:88, 0:1, 0:1, 0:80]",
        "type": "tensor<1x88x1x80xf16, 618475507712 : i64>"
      }
    ],
    "results": [
      {
        "address": 24960,
        "layout": "compact",
        "memory_type": "<1x88x1x80xf16>",
        "name": "load_136_Conv_filter_reorderd",
        "reshape": "<1x88x1x1x80>",
        "shape": [
          1,
          88,
          1,
          80
        ],
        "slice": "[0:1, 0:88, 0:1, 0:1, 0:80]",
        "type": "tensor<1x88x1x80xf16>"
      }
    ],
    "buffers": []
  },
  {
    "file-line": 210,
    "subnet_id": 0,
    "core_id": 0,
    "opcode": "tpu.Load",
    "is_local": true,
    "tiu_dma_id(before)": [
      79,
      101
    ],
    "tiu_dma_id(after)": [
      79,
      102
    ],
    "operands": [
      {
        "address": 618475503616,
        "layout": "continuous",
        "memory_type": "<1x88x1x1xf32>",
        "name": "blaze_face.backbone1.12.convs.1.bias",
        "reshape": "<1x88x1x1x1>",
        "shape": [
          1,
          88,
          1,
          1
        ],
        "slice": "[0:1, 0:88, 0:1, 0:1, 0:1]",
        "type": "tensor<1x88x1x1xf32, 618475503616 : i64>"
      }
    ],
    "results": [
      {
        "address": 32768,
        "layout": "compact",
        "memory_type": "<1x88x1x1xf32>",
        "name": "load_blaze_face.backbone1.12.convs.1.bias",
        "reshape": "<1x88x1x1x1>",
        "shape": [
          1,
          88,
          1,
          1
        ],
        "slice": "[0:1, 0:88, 0:1, 0:1, 0:1]",
        "type": "tensor<1x88x1x1xf32>"
      }
    ],
    "buffers": []
  },
  {
    "file-line": 213,
    "subnet_id": 0,
    "core_id": 0,
    "opcode": "tpu.Conv2D",
    "is_local": true,
    "tiu_dma_id(before)": [
      81,
      102
    ],
    "tiu_dma_id(after)": [
      83,
      102
    ],
    "operands": [
      {
        "address": 0,
        "layout": "eu_align",
        "memory_type": "<1x80x16x16xf16>",
        "name": "135_Conv",
        "reshape": "<1x80x1x16x16>",
        "shape": [
          1,
          80,
          16,
          16
        ],
        "slice": "[0:1, 0:80, 0:1, 0:16, 0:16]",
        "type": "tensor<1x80x16x16xf16>"
      },
      {
        "address": 24960,
        "layout": "compact",
        "memory_type": "<1x88x1x80xf16>",
        "name": "load_136_Conv_filter_reorderd",
        "reshape": "<1x88x1x1x80>",
        "shape": [
          1,
          88,
          1,
          80
        ],
        "slice": "[0:1, 0:88, 0:1, 0:1, 0:80]",
        "type": "tensor<1x88x1x80xf16>"
      },
      {
        "address": 32768,
        "layout": "compact",
        "memory_type": "<1x88x1x1xf32>",
        "name": "load_blaze_face.backbone1.12.convs.1.bias",
        "reshape": "<1x88x1x1x1>",
        "shape": [
          1,
          88,
          1,
          1
        ],
        "slice": "[0:1, 0:88, 0:1, 0:1, 0:1]",
        "type": "tensor<1x88x1x1xf32>"
      }
    ],
    "results": [
      {
        "address": 8192,
        "layout": "eu_align",
        "memory_type": "<1x88x16x16xf16>",
        "name": "136_Conv",
        "reshape": "<1x88x1x16x16>",
        "shape": [
          1,
          88,
          16,
          16
        ],
        "slice": "[0:1, 0:88, 0:1, 0:16, 0:16]",
        "type": "tensor<1x88x16x16xf16>"
      }
    ],
    "buffers": []
  },
  {
    "file-line": 212,
    "subnet_id": 0,
    "core_id": 0,
    "opcode": "tpu.Load",
    "is_local": true,
    "tiu_dma_id(before)": [
      81,
      102
    ],
    "tiu_dma_id(after)": [
      81,
      103
    ],
    "operands": [
      {
        "address": 687194812416,
        "layout": "continuous",
        "memory_type": "<1x88x16x16xf16>",
        "name": "134_Pad",
        "reshape": "<1x88x1x16x16>",
        "shape": [
…
        "type": "tensor<1x96x8x8xf16>"
      }
    ],
    "buffers": [
      {
        "address": 8192,
        "size": 927
      }
    ]
  },
  {
    "file-line": 262,
    "subnet_id": 0,
    "core_id": 0,
    "opcode": "tpu.Load",
    "is_local": true,
    "tiu_dma_id(before)": [
      98,
      119
    ],
    "tiu_dma_id(after)": [
      98,
      120
    ],
    "operands": [
      {
        "address": 618475601920,
        "layout": "continuous",
        "memory_type": "<1x96x1x96xf16>",
        "name": "151_Conv_filter_reorderd",
        "reshape": "<1x96x1x1x96>",
        "shape": [
          1,
          96,
          1,
          96
        ],
        "slice": "[0:1, 0:96, 0:1, 0:1, 0:96]",
        "type": "tensor<1x96x1x96xf16, 618475601920 : i64>"
      }
    ],
    "results": [
      {
        "address": 1536,
        "layout": "compact",
        "memory_type": "<1x96x1x96xf16>",
        "name": "load_151_Conv_filter_reorderd",
        "reshape": "<1x96x1x1x96>",
        "shape": [
          1,
          96,
          1,
          96
        ],
        "slice": "[0:1, 0:96, 0:1, 0:1, 0:96]",
        "type": "tensor<1x96x1x96xf16>"
      }
    ],
    "buffers": []
  },
  {
    "file-line": 263,
    "subnet_id": 0,
    "core_id": 0,
    "opcode": "tpu.Load",
    "is_local": true,
    "tiu_dma_id(before)": [
      98,
      120
    ],
    "tiu_dma_id(after)": [
      98,
      121
    ],
    "operands": [
      {
        "address": 618475597824,
        "layout": "continuous",
        "memory_type": "<1x96x1x1xf32>",
        "name": "blaze_face.backbone2.2.convs.1.bias",
        "reshape": "<1x96x1x1x1>",
        "shape": [
          1,
          96,
          1,
          1
        ],
        "slice": "[0:1, 0:96, 0:1, 0:1, 0:1]",
        "type": "tensor<1x96x1x1xf32, 618475597824 : i64>"
      }
    ],
    "results": [
      {
        "address": 49152,
        "layout": "compact",
        "memory_type": "<1x96x1x1xf32>",
        "name": "load_blaze_face.backbone2.2.convs.1.bias",
        "reshape": "<1x96x1x1x1>",
        "shape": [
          1,
          96,
          1,
          1
        ],
        "slice": "[0:1, 0:96, 0:1, 0:1, 0:1]",
        "type": "tensor<1x96x1x1xf32>"
      }
    ],
    "buffers": []
  },
  {
    "file-line": 267,
    "subnet_id": 0,
    "core_id": 0,
    "opcode": "tpu.Conv2D",
    "is_local": true,
    "tiu_dma_id(before)": [
      100,
      121
    ],
    "tiu_dma_id(after)": [
      102,
      121
    ],
    "operands": [
      {
        "address": 16384,
        "layout": "eu_align",
        "memory_type": "<1x96x8x8xf16>",
        "name": "150_Conv",
        "reshape": "<1x96x1x8x8>",
        "shape": [
          1,
          96,
          8,
          8
        ],
        "slice": "[0:1, 0:96, 0:1, 0:8, 0:8]",
        "type": "tensor<1x96x8x8xf16>"
      },
      {
        "address": 1536,
        "layout": "compact",
        "memory_type": "<1x96x1x96xf16>",
        "name": "load_151_Conv_filter_reorderd",
        "reshape": "<1x96x1x1x96>",
        "shape": [
          1,
          96,
          1,
          96
        ],
        "slice": "[0:1, 0:96, 0:1, 0:1, 0:96]",
        "type": "tensor<1x96x1x96xf16>"
      },
      {
        "address": 49152,
        "layout": "compact",
        "memory_type": "<1x96x1x1xf32>",
        "name": "load_blaze_face.backbone2.2.convs.1.bias",
        "reshape": "<1x96x1x1x1>",
        "shape": [
          1,
          96,
          1,
          1
        ],
        "slice": "[0:1, 0:96, 0:1, 0:1, 0:1]",
        "type": "tensor<1x96x1x1xf32>"
      }
    ],
    "results": [
      {
        "address": 8576,
        "layout": "eu_align",
        "memory_type": "<1x96x8x8xf16>",
        "name": "151_Conv",
        "reshape": "<1x96x1x8x8>",
        "shape": [
          1,
          96,
          8,
          8
        ],
        "slice": "[0:1, 0:96, 0:1, 0:8, 0:8]",
        "type": "tensor<1x96x8x8xf16>"
      }
    ],
    "buffers": []
  },
  {
    "file-line": 268,
    "subnet_id": 0,
    "core_id": 0,
    "opcode": "tpu.Add",
    "is_local": true,
    "tiu_dma_id(before)": [
      102,
      121
    ],
    "tiu_dma_id(after)": [
      104,
      121
    ],
    "operands": [
      {
        "address": 8576,
        "layout": "eu_align",
        "memory_type": "<1x96x8x8xf16>",
        "name": "151_Conv",
        "reshape": "<1x96x1x8x8>",
        "shape": [
          1,
          96,
          8,
          8
        ],
        "slice": "[0:1, 0:96, 0:1, 0:8, 0:8]",
        "type": "tensor<1x96x8x8xf16>"
      },
      {
        "address": 24576,
        "layout": "eu_align",
        "memory_type": "<1x96x8x8xf16>",
        "name": "149_Relu",
        "reshape": "<1x96x1x8x8>",
        "shape": [
          1,
          96,
          8,
          8
        ],
        "slice": "[0:1, 0:96, 0:1, 0:8, 0:8]",
        "type": "tensor<1x96x8x8xf16>"
      }
    ],
    "results": [
      {
        "address": 8192,
        "layout": "eu_align",
        "memory_type": "<1x96x8x8xf16>",
        "name": "153_Relu",
        "reshape": "<1x96x1x8x8>",
        "shape": [
          1,
          96,
          8,
          8
        ],
        "slice": "[0:1, 0:96, 0:1, 0:8, 0:8]",
        "type": "tensor<1x96x8x8xf16>"
      }
    ],
    "buffers": []
  },
  {
    "file-line": 265,
    "subnet_id": 0,
    "core_id": 0,
    "opcode": "tpu.Load",
    "is_local": true,
    "tiu_dma_id(before)": [
      100,
      121
    ],
    "tiu_dma_id(after)": [
      100,
      122
    ],
    "operands": [
      {
        "address": 618475626496,
        "layout": "continuous",
        "memory_type": "<1x96x1x1xf16>",
        "name": "154_Conv_reordered",
        "reshape": "<1x96x1x1x1>",
        "shape": [
          1,
          96,
          1,
          1
        ],
        "slice": "[0:1, 0:96, 0:1, 0:1, 0:1]",
        "type": "tensor<1x96x1x1xf16, 618475626496 : i64>"
      }
    ],
    "results": [
      {
        "address": 57344,
        "layout": "compact",
        "memory_type": "<1x96x1x1xf16>",
        "name": "load_154_Conv_reordered",
        "reshape": "<1x96x1x1x1>",
        "shape": [
          1,
          96,
          1,
          1
        ],
        "slice": "[0:1, 0:96, 0:1, 0:1, 0:1]",
        "type": "tensor<1x96x1x1xf16>"
      }
    ],
    "buffers": []
  },
  {
    "file-line": 266,
    "subnet_id": 0,
    "core_id": 0,
    "opcode": "tpu.Load",
    "is_local": true,
    "tiu_dma_id(before)": [
      100,
      122
    ],
    "tiu_dma_id(after)": [
      100,
      123
    ],
    "operands": [
      {
        "address": 618475622400,
        "layout": "continuous",
        "memory_type": "<1x96x3x3xf16>",
        "name": "154_Convblaze_face.backbone2.3.convs.0.weight_f16",
        "reshape": "<1x96x1x3x3>",
        "shape": [
          1,
          96,
          3,
          3
        ],
        "slice": "[0:1, 0:96, 0:1, 0:3, 0:3]",
        "type": "tensor<1x96x3x3xf16, 618475622400 : i64>"
      }
    ],
    "results": [
      {
        "address": 32768,
        "layout": "compact",
        "memory_type": "<1x96x3x3xf16>",
        "name": "load_154_Convblaze_face.backbone2.3.convs.0.weight_f16",
        "reshape": "<1x96x1x3x3>",
        "shape": [
          1,
          96,
          3,
          3
        ],
        "slice": "[0:1, 0:96, 0:1, 0:3, 0:3]",
        "type": "tensor<1x96x3x3xf16>"
      }
    ],
    "buffers": []
  },
  {
    "file-line": 271,
    "subnet_id": 0,
    "core_id": 0,
    "opcode": "tpu.Conv2D",
    "is_local": true,
    "tiu_dma_id(before)": [
      104,
      123
    ],
    "tiu_dma_id(after)": [
      106,
      123
    ],
    "operands": [
      {
        "address": 8192,
        "layout": "eu_align",
        "memory_type": "<1x96x8x8xf16>",
        "name": "153_Relu",
        "reshape": "<1x96x1x8x8>",
        "shape": [
          1,
          96,
          8,
          8
        ],
        "slice": "[0:1, 0:96, 0:1, 0:8, 0:8]",
        "type": "tensor<1x96x8x8xf16>"
      },
      {
        "address": 32768,
        "layout": "compact",
        "memory_type": "<1x96x3x3xf16>",
        "name": "load_154_Convblaze_face.backbone2.3.convs.0.weight_f16",
        "reshape": "<1x96x1x3x3>",
        "shape": [
          1,
          96,
          3,
          3
        ],
        "slice": "[0:1, 0:96, 0:1, 0:3, 0:3]",
        "type": "tensor<1x96x3x3xf16>"
      },
      {
        "address": 57344,
        "layout": "compact",
        "memory_type": "<1x96x1x1xf16>",
        "name": "load_154_Conv_reordered",
        "reshape": "<1x96x1x1x1>",
        "shape": [
          1,
          96,
          1,
          1
        ],
        "slice": "[0:1, 0:96, 0:1, 0:1, 0:1]",
        "type": "tensor<1x96x1x1xf16>"
      }
    ],
    "results": [
      {
        "address": 24576,
        "layout": "eu_align",
        "memory_type": "<1x96x8x8xf16>",
        "name": "154_Conv",
        "reshape": "<1x96x1x8x8>",
        "shape": [
          1,
          96,
          8,
          8
        ],
        "slice": "[0:1, 0:96, 0:1, 0:8, 0:8]",
        "type": "tensor<1x96x8x8xf16>"
      }
    ],
    "buffers": [
      {
        "address": 16384,
        "size": 927
      }
    ]
  },
  {
    "file-line": 269,
    "subnet_id": 0,
    "core_id": 0,
    "opcode": "tpu.Load",
    "is_local": true,
    "tiu_dma_id(before)": [
      104,
      123
    ],
    "tiu_dma_id(after)": [
      104,
      124
    ],
    "operands": [
      {
        "address": 618475634688,
        "layout": "continuous",
        "memory_type": "<1x96x1x96xf16>",
        "name": "155_Conv_filter_reorderd",
        "reshape": "<1x96x1x1x96>",
        "shape": [
          1,
          96,
          1,
          96
        ],
        "slice": "[0:1, 0:96, 0:1, 0:1, 0:96]",
        "type": "tensor<1x96x1x96xf16, 618475634688 : i64>"
      }
    ],
    "results": [
      {
        "address": 1536,
        "layout": "compact",
        "memory_type": "<1x96x1x96xf16>",
        "name": "load_155_Conv_filter_reorderd",
        "reshape": "<1x96x1x1x96>",
        "shape": [
          1,
          96,
          1,
          96
        ],
        "slice": "[0:1, 0:96, 0:1, 0:1, 0:96]",
        "type": "tensor<1x96x1x96xf16>"
      }
    ],
    "buffers": []
  },
  {
    "file-line": 270,
    "subnet_id": 0,
    "core_id": 0,
    "opcode": "tpu.Load",
    "is_local": true,
    "tiu_dma_id(before)": [
      104,
      124
    ],
    "tiu_dma_id(after)": [
      104,
      125
    ],
    "operands": [
      {
        "address": 618475630592,
        "layout": "continuous",
        "memory_type": "<1x96x1x1xf32>",
        "name": "blaze_face.backbone2.3.convs.1.bias",
        "reshape": "<1x96x1x1x1>",
        "shape": [
          1,
          96,
          1,
          1
        ],
        "slice": "[0:1, 0:96, 0:1, 0:1, 0:1]",
        "type": "tensor<1x96x1x1xf32, 618475630592 : i64>"
      }
    ],
    "results": [
      {
        "address": 40960,
        "layout": "compact",
        "memory_type": "<1x96x1x1xf32>",
        "name": "load_blaze_face.backbone2.3.convs.1.bias",
        "reshape": "<1x96x1x1x1>",
        "shape": [
          1,
          96,
          1,
          1
        ],
        "slice": "[0:1, 0:96, 0:1, 0:1, 0:1]",
        "type": "tensor<1x96x1x1xf32>"
      }
    ],
    "buffers": []
  },
  {
    "file-line": 274,
    "subnet_id": 0,
    "core_id": 0,
    "opcode": "tpu.Conv2D",
    "is_local": true,
    "tiu_dma_id(before)": [
      106,
      125
    ],
    "tiu_dma_id(after)": [
      108,
      125
    ],
    "operands": [
      {
        "address": 24576,
        "layout": "eu_align",
        "memory_type": "<1x96x8x8xf16>",
        "name": "154_Conv",
        "reshape": "<1x96x1x8x8>",
        "shape": [
          1,
          96,
          8,
          8
        ],
        "slice": "[0:1, 0:96, 0:1, 0:8, 0:8]",
        "type": "tensor<1x96x8x8xf16>"
      },
      {
        "address": 1536,
        "layout": "compact",
        "memory_type": "<1x96x1x96xf16>",
        "name": "load_155_Conv_filter_reorderd",
        "reshape": "<1x96x1x1x96>",
        "shape": [
          1,
          96,
          1,
          96
        ],
        "slice": "[0:1, 0:96, 0:1, 0:1, 0:96]",
        "type": "tensor<1x96x1x96xf16>"
      },
      {
        "address": 40960,
        "layout": "compact",
        "memory_type": "<1x96x1x1xf32>",
        "name": "load_blaze_face.backbone2.3.convs.1.bias",
        "reshape": "<1x96x1x1x1>",
        "shape": [
          1,
          96,
          1,
          1
        ],
        "slice": "[0:1, 0:96, 0:1, 0:1, 0:1]",
        "type": "tensor<1x96x1x1xf32>"
      }
    ],
    "results": [
      {
        "address": 8576,
        "layout": "eu_align",
        "memory_type": "<1x96x8x8xf16>",
        "name": "155_Conv",
        "reshape": "<1x96x1x8x8>",
        "shape": [
          1,
          96,
          8,
          8
        ],
        "slice": "[0:1, 0:96, 0:1, 0:8, 0:8]",
        "type": "tensor<1x96x8x8xf16>"
      }
    ],
    "buffers": []
  },
  {
    "file-line": 275,
    "subnet_id": 0,
    "core_id": 0,
    "opcode": "tpu.Add",
    "is_local": true,
    "tiu_dma_id(before)": [
      108,
      125
    ],
    "tiu_dma_id(after)": [
      110,
      125
    ],
    "operands": [
      {
        "address": 8576,
        "layout": "eu_align",
        "memory_type": "<1x96x8x8xf16>",
        "name": "155_Conv",
        "reshape": "<1x96x1x8x8>",
        "shape": [
          1,
          96,
          8,
          8
        ],
        "slice": "[0:1, 0:96, 0:1, 0:8, 0:8]",
        "type": "tensor<1x96x8x8xf16>"
      },
      {
        "address": 8192,
        "layout": "eu_align",
        "memory_type": "<1x96x8x8xf16>",
        "name": "153_Relu",
        "reshape": "<1x96x1x8x8>",
        "shape": [
          1,
          96,
          8,
          8
        ],
        "slice": "[0:1, 0:96, 0:1, 0:8, 0:8]",
        "type": "tensor<1x96x8x8xf16>"
      }
    ],
    "results": [
      {
        "address": 16384,
        "layout": "eu_align",
        "memory_type": "<1x96x8x8xf16>",
        "name": "157_Relu",
        "reshape": "<1x96x1x8x8>",
        "shape": [
          1,
          96,
          8,
          8
        ],
        "slice": "[0:1, 0:96, 0:1, 0:8, 0:8]",
        "type": "tensor<1x96x8x8xf16>"
      }
    ],
    "buffers": []
  },
  {
    "file-line": 272,
    "subnet_id": 0,
    "core_id": 0,
    "opcode": "tpu.Load",
    "is_local": true,
    "tiu_dma_id(before)": [
      106,
      125
    ],
    "tiu_dma_id(after)": [
      106,
      126
    ],
    "operands": [
      {
        "address": 618475659264,
        "layout": "continuous",
        "memory_type": "<1x96x1x1xf16>",
        "name": "158_Conv_reordered",
        "reshape": "<1x96x1x1x1>",
        "shape": [
          1,
          96,
          1,
          1
        ],
        "slice": "[0:1, 0:96, 0:1, 0:1, 0:1]",
        "type": "tensor<1x96x1x1xf16, 618475659264 : i64>"
      }
    ],
    "results": [
      {
        "address": 49152,
        "layout": "compact",
        "memory_type": "<1x96x1x1xf16>",
        "name": "load_158_Conv_reordered",
        "reshape": "<1x96x1x1x1>",
        "shape": [
          1,
          96,
          1,
          1
        ],
        "slice": "[0:1, 0:96, 0:1, 0:1, 0:1]",
        "type": "tensor<1x96x1x1xf16>"
      }
    ],
    "buffers": []
  },
  {
    "file-line": 273,
    "subnet_id": 0,
    "core_id": 0,
    "opcode": "tpu.Load",
    "is_local": true,
    "tiu_dma_id(before)": [
      106,
      126
    ],
    "tiu_dma_id(after)": [
      106,
      127
    ],
    "operands": [
      {
        "address": 618475655168,
        "layout": "continuous",
        "memory_type": "<1x96x3x3xf16>",
        "name": "158_Convblaze_face.backbone2.4.convs.0.weight_f16",
        "reshape": "<1x96x1x3x3>",
        "shape": [
          1,
          96,
          3,
          3
        ],
        "slice": "[0:1, 0:96, 0:1, 0:3, 0:3]",
        "type": "tensor<1x96x3x3xf16, 618475655168 : i64>"
      }
    ],
    "results": [
      {
        "address": 32768,
        "layout": "compact",
        "memory_type": "<1x96x3x3xf16>",
        "name": "load_158_Convblaze_face.backbone2.4.convs.0.weight_f16",
        "reshape": "<1x96x1x3x3>",
        "shape": [
          1,
          96,
          3,
          3
        ],
        "slice": "[0:1, 0:96, 0:1, 0:3, 0:3]",
        "type": "tensor<1x96x3x3xf16>"
      }
    ],
    "buffers": []
  },
  {
    "file-line": 278,
    "subnet_id": 0,
    "core_id": 0,
    "opcode": "tpu.Conv2D",
    "is_local": true,
    "tiu_dma_id(before)": [
      110,
      127
    ],
    "tiu_dma_id(after)": [
      112,
      127
    ],
    "operands": [
      {
        "address": 16384,
        "layout": "eu_align",
        "memory_type": "<1x96x8x8xf16>",
        "name": "157_Relu",
        "reshape": "<1x96x1x8x8>",
        "shape": [
          1,
          96,
          8,
          8
        ],
        "slice": "[0:1, 0:96, 0:1, 0:8, 0:8]",
        "type": "tensor<1x96x8x8xf16>"
      },
      {
        "address": 32768,
        "layout": "compact",
        "memory_type": "<1x96x3x3xf16>",
        "name": "load_158_Convblaze_face.backbone2.4.convs.0.weight_f16",
        "reshape": "<1x96x1x3x3>",
        "shape": [
          1,
          96,
          3,
          3
        ],
        "slice": "[0:1, 0:96, 0:1, 0:3, 0:3]",
        "type": "tensor<1x96x3x3xf16>"
      },
      {
        "address": 49152,
        "layout": "compact",
        "memory_type": "<1x96x1x1xf16>",
        "name": "load_158_Conv_reordered",
        "reshape": "<1x96x1x1x1>",
        "shape": [
          1,
          96,
          1,
          1
        ],
        "slice": "[0:1, 0:96, 0:1, 0:1, 0:1]",
        "type": "tensor<1x96x1x1xf16>"
      }
    ],
    "results": [
      {
        "address": 8192,
        "layout": "eu_align",
        "memory_type": "<1x96x8x8xf16>",
        "name": "158_Conv",
        "reshape": "<1x96x1x8x8>",
        "shape": [
          1,
          96,
          8,
          8
        ],
        "slice": "[0:1, 0:96, 0:1, 0:8, 0:8]",
        "type": "tensor<1x96x8x8xf16>"
      }
    ],
    "buffers": [
      {
        "address": 24576,
        "size": 927
      }
    ]
  },
  {
    "file-line": 276,
    "subnet_id": 0,
    "core_id": 0,
    "opcode": "tpu.Load",
    "is_local": true,
    "tiu_dma_id(before)": [
      110,
      127
    ],
    "tiu_dma_id(after)": [
      110,
      128
    ],
    "operands": [
      {
        "address": 618475667456,
        "layout": "continuous",
        "memory_type": "<1x96x1x96xf16>",
        "name": "159_Conv_filter_reorderd",
        "reshape": "<1x96x1x1x96>",
        "shape": [
          1,
          96,
          1,
          96
        ],
        "slice": "[0:1, 0:96, 0:1, 0:1, 0:96]",
        "type": "tensor<1x96x1x96xf16, 618475667456 : i64>"
      }
    ],
    "results": [
      {
        "address": 1536,
        "layout": "compact",
        "memory_type": "<1x96x1x96xf16>",
        "name": "load_159_Conv_filter_reorderd",
        "reshape": "<1x96x1x1x96>",
        "shape": [
          1,
          96,
          1,
          96
        ],
        "slice": "[0:1, 0:96, 0:1, 0:1, 0:96]",
        "type": "tensor<1x96x1x96xf16>"
      }
    ],
    "buffers": []
  },
  {
    "file-line": 277,
    "subnet_id": 0,
    "core_id": 0,
    "opcode": "tpu.Load",
    "is_local": true,
    "tiu_dma_id(before)": [
      110,
      128
    ],
    "tiu_dma_id(after)": [
      110,
      129
    ],
    "operands": [
      {
        "address": 618475663360,
        "layout": "continuous",
        "memory_type": "<1x96x1x1xf32>",
        "name": "blaze_face.backbone2.4.convs.1.bias",
        "reshape": "<1x96x1x1x1>",
        "shape": [
          1,
          96,
          1,
          1
        ],
        "slice": "[0:1, 0:96, 0:1, 0:1, 0:1]",
        "type": "tensor<1x96x1x1xf32, 618475663360 : i64>"
      }
    ],
    "results": [
      {
        "address": 40960,
        "layout": "compact",
        "memory_type": "<1x96x1x1xf32>",
        "name": "load_blaze_face.backbone2.4.convs.1.bias",
        "reshape": "<1x96x1x1x1>",
        "shape": [
          1,
          96,
          1,
          1
        ],
        "slice": "[0:1, 0:96, 0:1, 0:1, 0:1]",
        "type": "tensor<1x96x1x1xf32>"
      }
    ],
    "buffers": []
  },
  {
    "file-line": 281,
    "subnet_id": 0,
    "core_id": 0,
    "opcode": "tpu.Conv2D",
    "is_local": true,
    "tiu_dma_id(before)": [
      112,
      129
    ],
    "tiu_dma_id(after)": [
      114,
      129
    ],
    "operands": [
      {
        "address": 8192,
        "layout": "eu_align",
        "memory_type": "<1x96x8x8xf16>",
        "name": "158_Conv",
        "reshape": "<1x96x1x8x8>",
        "shape": [
          1,
          96,
          8,
          8
        ],
        "slice": "[0:1, 0:96, 0:1, 0:8, 0:8]",
        "type": "tensor<1x96x8x8xf16>"
      },
      {
        "address": 1536,
        "layout": "compact",
        "memory_type": "<1x96x1x96xf16>",
        "name": "load_159_Conv_filter_reorderd",
        "reshape": "<1x96x1x1x96>",
        "shape": [
          1,
          96,
          1,
          96
        ],
        "slice": "[0:1, 0:96, 0:1, 0:1, 0:96]",
        "type": "tensor<1x96x1x96xf16>"
      },
      {
        "address": 40960,
        "layout": "compact",
        "memory_type": "<1x96x1x1xf32>",
        "name": "load_blaze_face.backbone2.4.convs.1.bias",
        "reshape": "<1x96x1x1x1>",
        "shape": [
          1,
          96,
          1,
          1
        ],
        "slice": "[0:1, 0:96, 0:1, 0:1, 0:1]",
        "type": "tensor<1x96x1x1xf32>"
      }
    ],
    "results": [
      {
        "address": 16768,
        "layout": "eu_align",
        "memory_type": "<1x96x8x8xf16>",
        "name": "159_Conv",
        "reshape": "<1x96x1x8x8>",
        "shape": [
          1,
          96,
          8,
          8
        ],
        "slice": "[0:1, 0:96, 0:1, 0:8, 0:8]",
        "type": "tensor<1x96x8x8xf16>"
      }
    ],
    "buffers": []
  },
  {
    "file-line": 282,
    "subnet_id": 0,
    "core_id": 0,
    "opcode": "tpu.Add",
    "is_local": true,
    "tiu_dma_id(before)": [
      114,
      129
    ],
    "tiu_dma_id(after)": [
      116,
      129
    ],
    "operands": [
      {
        "address": 16768,
        "layout": "eu_align",
        "memory_type": "<1x96x8x8xf16>",
        "name": "159_Conv",
        "reshape": "<1x96x1x8x8>",
        "shape": [
          1,
          96,
          8,
          8
        ],
        "slice": "[0:1, 0:96, 0:1, 0:8, 0:8]",
        "type": "tensor<1x96x8x8xf16>"
      },
      {
        "address": 16384,
        "layout": "eu_align",
        "memory_type": "<1x96x8x8xf16>",
        "name": "157_Relu",
        "reshape": "<1x96x1x8x8>",
        "shape": [
          1,
          96,
          8,
          8
        ],
        "slice": "[0:1, 0:96, 0:1, 0:8, 0:8]",
        "type": "tensor<1x96x8x8xf16>"
      }
    ],
    "results": [
      {
        "address": 24576,
        "layout": "eu_align",
        "memory_type": "<1x96x8x8xf16>",
        "name": "161_Relu",
        "reshape": "<1x96x1x8x8>",
        "shape": [
          1,
          96,
          8,
          8
        ],
        "slice": "[0:1, 0:96, 0:1, 0:8, 0:8]",
        "type": "tensor<1x96x8x8xf16>"
      }
    ],
    "buffers": []
  },
  {
    "file-line": 279,
    "subnet_id": 0,
    "core_id": 0,
    "opcode": "tpu.Load",
    "is_local": true,
    "tiu_dma_id(before)": [
      112,
      129
    ],
    "tiu_dma_id(after)": [
      112,
      130
    ],
    "operands": [
      {
        "address": 618475692032,
        "layout": "continuous",
        "memory_type": "<1x2x1x96xf16>",
        "name": "162_Conv_filter_reorderd",
        "reshape": "<1x2x1x1x96>",
        "shape": [
          1,
          2,
          1,
          96
        ],
        "slice": "[0:1, 0:2, 0:1, 0:1, 0:96]",
        "type": "tensor<1x2x1x96xf16, 618475692032 : i64>"
      }
    ],
    "results": [
      {
        "address": 32768,
        "layout": "compact",
        "memory_type": "<1x2x1x96xf16>",
        "name": "load_162_Conv_filter_reorderd",
        "reshape": "<1x2x1x1x96>",
        "shape": [
          1,
          2,
          1,
          96
        ],
        "slice": "[0:1, 0:2, 0:1, 0:1, 0:96]",
        "type": "tensor<1x2x1x96xf16>"
      }
    ],
    "buffers": []
  },
  {
    "file-line": 280,
    "subnet_id": 0,
    "core_id": 0,
    "opcode": "tpu.Load",
    "is_local": true,
    "tiu_dma_id(before)": [
      112,
      130
    ],
    "tiu_dma_id(after)": [
      112,
      131
    ],
    "operands": [
      {
        "address": 618475687936,
        "layout": "continuous",
        "memory_type": "<1x2x1x1xf32>",
        "name": "blaze_face.classifier_8.bias",
        "reshape": "<1x2x1x1x1>",
        "shape": [
          1,
          2,
          1,
          1
        ],
        "slice": "[0:1, 0:2, 0:1, 0:1, 0:1]",
        "type": "tensor<1x2x1x1xf32, 618475687936 : i64>"
      }
    ],
    "results": [
      {
        "address": 49152,
        "layout": "compact",
        "memory_type": "<1x2x1x1xf32>",
        "name": "load_blaze_face.classifier_8.bias",
        "reshape": "<1x2x1x1x1>",
        "shape": [
          1,
          2,
          1,
          1
        ],
        "slice": "[0:1, 0:2, 0:1, 0:1, 0:1]",
        "type": "tensor<1x2x1x1xf32>"
      }
    ],
    "buffers": []
  },
  {
    "file-line": 284,
    "subnet_id": 0,
    "core_id": 0,
    "opcode": "tpu.Conv2D",
    "is_local": true,
    "tiu_dma_id(before)": [
      116,
      131
    ],
    "tiu_dma_id(after)": [
      118,
      131
    ],
    "operands": [
      {
        "address": 0,
        "layout": "eu_align",
        "memory_type": "<1x88x16x16xf16>",
        "name": "load_138_Relu",
        "reshape": "<1x88x1x16x16>",
        "shape": [
          1,
          88,
          16,
          16
        ],
        "slice": "[0:1, 0:88, 0:1, 0:16, 0:16]",
        "type": "tensor<1x88x16x16xf16>"
      },
      {
        "address": 32768,
        "layout": "compact",
        "memory_type": "<1x2x1x96xf16>",
        "name": "load_162_Conv_filter_reorderd",
        "reshape": "<1x2x1x1x96>",
        "shape": [
          1,
          2,
          1,
          96
        ],
        "slice": "[0:1, 0:2, 0:1, 0:1, 0:96]",
        "type": "tensor<1x2x1x96xf16>"
      },
      {
        "address": 49152,
        "layout": "compact",
        "memory_type": "<1x2x1x1xf32>",
        "name": "load_blaze_face.classifier_8.bias",
        "reshape": "<1x2x1x1x1>",
        "shape": [
          1,
          2,
          1,
          1
        ],
        "slice": "[0:1, 0:2, 0:1, 0:1, 0:1]",
        "type": "tensor<1x2x1x1xf32>"
      }
    ],
    "results": [
      {
        "address": 8192,
        "layout": "eu_align",
        "memory_type": "<1x2x16x16xf16>",
        "name": "162_Conv",
        "reshape": "<1x2x1x16x16>",
        "shape": [
          1,
          2,
          16,
          16
        ],
        "slice": "[0:1, 0:2, 0:1, 0:16, 0:16]",
        "type": "tensor<1x2x16x16xf16>"
      }
    ],
    "buffers": []
  },
  {
    "file-line": 283,
    "subnet_id": 0,
    "core_id": 0,
    "opcode": "tpu.Store",
    "is_local": true,
    "tiu_dma_id(before)": [
      116,
      131
    ],
    "tiu_dma_id(after)": [
      116,
      132
    ],
    "operands": [
      {
        "address": 24576,
        "layout": "eu_align",
        "memory_type": "<1x96x8x8xf16>",
        "name": "161_Relu",
        "reshape": "<1x96x1x8x8>",
        "shape": [
          1,
          96,
          8,
          8
        ],
        "slice": "[0:1, 0:96, 0:1, 0:8, 0:8]",
        "type": "tensor<1x96x8x8xf16>"
      },
      {}
    ],
    "results": [
      {
        "address": 687194812416,
        "layout": "continuous",
        "memory_type": "<1x96x8x8xf16>",
        "name": "161_Relu",
        "reshape": "<1x96x1x8x8>",
        "shape": [
          1,
          96,
          8,
          8
        ],
        "slice": "[0:1, 0:96, 0:1, 0:8, 0:8]",
        "type": "tensor<1x96x8x8xf16, 687194812416 : i64>"
      }
    ],
    "buffers": []
  },
  {
    "file-line": 285,
    "subnet_id": 0,
    "core_id": 0,
    "opcode": "tpu.Store",
    "is_local": true,
    "tiu_dma_id(before)": [
      118,
      132
    ],
    "tiu_dma_id(after)": [
      118,
      133
    ],
    "operands": [
      {
        "address": 8192,
        "layout": "eu_align",
        "memory_type": "<1x2x16x16xf16>",
        "name": "162_Conv",
        "reshape": "<1x2x1x16x16>",
        "shape": [
          1,
          2,
          16,
          16
        ],
        "slice": "[0:1, 0:2, 0:1, 0:16, 0:16]",
        "type": "tensor<1x2x16x16xf16>"
      },
      {}
    ],
    "results": [
      {
        "address": 687194836992,
        "layout": "continuous",
        "memory_type": "<1x2x16x16xf16>",
        "name": "162_Conv",
        "reshape": "<1x2x1x16x16>",
        "shape": [
          1,
          2,
          16,
          16
        ],
        "slice": "[0:1, 0:2, 0:1, 0:16, 0:16]",
        "type": "tensor<1x2x16x16xf16, 687194836992 : i64>"
      }
    ],
    "buffers": []
  },
  {
    "file-line": 288,
    "subnet_id": 0,
    "core_id": 0,
    "opcode": "tpu.Permute",
    "is_local": false,
    "tiu_dma_id(before)": [
      118,
      133
    ],
    "tiu_dma_id(after)": [
      119,
      135
    ],
    "operands": [
      {
        "address": 687194836992,
        "layout": "continuous",
        "memory_type": "<1x2x16x16xf16>",
        "name": "162_Conv",
        "reshape": "",
        "shape": [
          1,
          2,
          16,
          16
        ],
        "slice": "[...]",
        "type": "tensor<1x2x16x16xf16, 687194836992 : i64>"
      },
      {}
    ],
    "results": [
      {
        "address": 687194832896,
        "layout": "continuous",
        "memory_type": "<1x16x16x2xf16>",
        "name": "163_Transpose",
        "reshape": "",
        "shape": [
          1,
          16,
          16,
          2
        ],
        "slice": "[...]",
        "type": "tensor<1x16x16x2xf16, 687194832896 : i64>"
      }
    ],
    "buffers": []
  },
  {
    "file-line": 289,
    "subnet_id": 0,
    "core_id": 0,
    "opcode": "tpu.Reshape",
    "is_local": false,
    "tiu_dma_id(before)": [
      119,
      135
    ],
    "tiu_dma_id(after)": [
      119,
      135
    ],
    "operands": [
      {
        "address": 687194832896,
        "layout": "continuous",
        "memory_type": "<1x16x16x2xf16>",
        "name": "163_Transpose",
        "reshape": "",
        "shape": [
          1,
          16,
          16,
          2
        ],
        "slice": "[...]",
        "type": "tensor<1x16x16x2xf16, 687194832896 : i64>"
      }
    ],
    "results": [
      {
        "address": 687194832896,
        "layout": "continuous",
        "memory_type": "<1x512x1xf16>",
        "name": "170_Reshape",
        "reshape": "",
        "shape": [
          1,
          512,
          1
        ],
        "slice": "[...]",
        "type": "tensor<1x512x1xf16, 687194832896 : i64>"
      }
    ],
    "buffers": []
  },
  {
    "file-line": 292,
    "subnet_id": 0,
    "core_id": 0,
    "opcode": "tpu.Conv2D",
    "is_local": false,
    "tiu_dma_id(before)": [
      119,
      135
    ],
    "tiu_dma_id(after)": [
      121,
      139
    ],
    "operands": [
      {
        "address": 687194812416,
        "layout": "continuous",
        "memory_type": "<1x96x8x8xf16>",
        "name": "161_Relu",
        "reshape": "",
        "shape": [
          1,
          96,
          8,
          8
        ],
        "slice": "[...]",
        "type": "tensor<1x96x8x8xf16, 687194812416 : i64>"
      },
      {
        "address": 618475700224,
        "layout": "continuous",
        "memory_type": "<1x6x1x96xf16>",
        "name": "171_Conv_filter_reorderd",
        "reshape": "",
        "shape": [
          1,
          6,
          1,
          96
        ],
        "slice": "[...]",
        "type": "tensor<1x6x1x96xf16, 618475700224 : i64>"
      },
      {
        "address": 618475696128,
        "layout": "continuous",
        "memory_type": "<1x6x1x1xf32>",
        "name": "blaze_face.classifier_16.bias",
        "reshape": "",
        "shape": [
          1,
          6,
          1,
          1
        ],
        "slice": "[...]",
        "type": "tensor<1x6x1x1xf32, 618475696128 : i64>"
      }
    ],
    "results": [
      {
        "address": 687194824704,
        "layout": "continuous",
        "memory_type": "<1x6x8x8xf16>",
        "name": "171_Conv",
        "reshape": "",
        "shape": [
          1,
          6,
          8,
          8
        ],
        "slice": "[...]",
        "type": "tensor<1x6x8x8xf16, 687194824704 : i64>"
      }
    ],
    "buffers": []
  },
  {
    "file-line": 293,
    "subnet_id": 0,
    "core_id": 0,
    "opcode": "tpu.Permute",
    "is_local": false,
    "tiu_dma_id(before)": [
      121,
      139
    ],
    "tiu_dma_id(after)": [
      122,
      141
    ],
    "operands": [
      {
        "address": 687194824704,
        "layout": "continuous",
        "memory_type": "<1x6x8x8xf16>",
        "name": "171_Conv",
        "reshape": "",
        "shape": [
          1,
          6,
          8,
          8
        ],
        "slice": "[...]",
        "type": "tensor<1x6x8x8xf16, 687194824704 : i64>"
      },
      {}
    ],
    "results": [
      {
        "address": 687194828800,
        "layout": "continuous",
        "memory_type": "<1x8x8x6xf16>",
        "name": "172_Transpose",
        "reshape": "",
        "shape": [
          1,
          8,
          8,
          6
        ],
        "slice": "[...]",
        "type": "tensor<1x8x8x6xf16, 687194828800 : i64>"
      }
    ],
    "buffers": []
  },
  {
    "file-line": 294,
    "subnet_id": 0,
    "core_id": 0,
    "opcode": "tpu.Reshape",
    "is_local": false,
    "tiu_dma_id(before)": [
      122,
      141
    ],
    "tiu_dma_id(after)": [
      122,
      141
    ],
    "operands": [
      {
        "address": 687194828800,
        "layout": "continuous",
        "memory_type": "<1x8x8x6xf16>",
        "name": "172_Transpose",
        "reshape": "",
        "shape": [
          1,
          8,
          8,
          6
        ],
        "slice": "[...]",
        "type": "tensor<1x8x8x6xf16, 687194828800 : i64>"
      }
    ],
    "results": [
      {
        "address": 687194828800,
        "layout": "continuous",
        "memory_type": "<1x384x1xf16>",
        "name": "179_Reshape",
        "reshape": "",
        "shape": [
          1,
          384,
          1
        ],
        "slice": "[...]",
        "type": "tensor<1x384x1xf16, 687194828800 : i64>"
      }
    ],
    "buffers": []
  },
  {
    "file-line": 295,
    "subnet_id": 0,
    "core_id": 0,
    "opcode": "tpu.Concat",
    "is_local": false,
    "tiu_dma_id(before)": [
      122,
      141
    ],
    "tiu_dma_id(after)": [
      122,
      143
    ],
    "operands": [
      {
        "address": 687194832896,
        "layout": "continuous",
        "memory_type": "<1x512x1xf16>",
        "name": "170_Reshape",
        "reshape": "",
        "shape": [
          1,
          512,
          1
        ],
        "slice": "[...]",
        "type": "tensor<1x512x1xf16, 687194832896 : i64>"
      },
      {
        "address": 687194828800,
        "layout": "continuous",
        "memory_type": "<1x384x1xf16>",
        "name": "179_Reshape",
        "reshape": "",
        "shape": [
          1,
          384,
          1
        ],
        "slice": "[...]",
        "type": "tensor<1x384x1xf16, 687194828800 : i64>"
      }
    ],
    "results": [
      {
        "address": 687194824704,
        "layout": "continuous",
        "memory_type": "<1x896x1xf16>",
        "name": "180_Concat",
        "reshape": "",
        "shape": [
          1,
          896,
          1
        ],
        "slice": "[...]",
        "type": "tensor<1x896x1xf16, 687194824704 : i64>"
      }
    ],
    "buffers": []
  },
  {
    "file-line": 296,
    "subnet_id": 0,
    "core_id": 0,
    "opcode": "tpu.Cast",
    "is_local": false,
    "tiu_dma_id(before)": [
      122,
      143
    ],
    "tiu_dma_id(after)": [
      123,
      145
    ],
    "operands": [
      {
        "address": 687194824704,
        "layout": "continuous",
        "memory_type": "<1x896x1xf16>",
        "name": "180_Concat",
        "reshape": "",
        "shape": [
          1,
          896,
          1
        ],
        "slice": "[...]",
        "type": "tensor<1x896x1xf16, 687194824704 : i64>"
      }
    ],
    "results": [
      {
        "address": 687194857472,
        "layout": "continuous",
        "memory_type": "<1x896x1xf32>",
        "name": "180_Concat_f32",
        "reshape": "",
        "shape": [
          1,
          896,
          1
        ],
        "slice": "[...]",
        "type": "tensor<1x896x1xf32, 687194857472 : i64>"
      }
    ],
    "buffers": []
  },
  {
    "file-line": 299,
    "subnet_id": 0,
    "core_id": 0,
    "opcode": "tpu.Conv2D",
    "is_local": false,
    "tiu_dma_id(before)": [
      123,
      145
    ],
    "tiu_dma_id(after)": [
      125,
      149
    ],
    "operands": [
      {
        "address": 687194767360,
        "layout": "continuous",
        "memory_type": "<1x88x16x16xf16>",
        "name": "138_Relu",
        "reshape": "",
        "shape": [
          1,
          88,
          16,
          16
        ],
        "slice": "[...]",
        "type": "tensor<1x88x16x16xf16, 687194767360 : i64>"
      },
      {
        "address": 618475708416,
        "layout": "continuous",
        "memory_type": "<1x32x1x96xf16>",
        "name": "181_Conv_filter_reorderd",
        "reshape": "",
        "shape": [
          1,
          32,
          1,
          96
        ],
        "slice": "[...]",
        "type": "tensor<1x32x1x96xf16, 618475708416 : i64>"
      },
      {
        "address": 618475704320,
        "layout": "continuous",
        "memory_type": "<1x32x1x1xf32>",
        "name": "blaze_face.regressor_8.bias",
        "reshape": "",
        "shape": [
          1,
          32,
          1,
          1
        ],
        "slice": "[...]",
        "type": "tensor<1x32x1x1xf32, 618475704320 : i64>"
      }
    ],
    "results": [
      {
        "address": 687194841088,
        "layout": "continuous",
        "memory_type": "<1x32x16x16xf16>",
        "name": "181_Conv",
        "reshape": "",
        "shape": [
          1,
          32,
          16,
          16
        ],
        "slice": "[...]",
        "type": "tensor<1x32x16x16xf16, 687194841088 : i64>"
      }
    ],
    "buffers": []
  },
  {
    "file-line": 300,
    "subnet_id": 0,
    "core_id": 0,
    "opcode": "tpu.Permute",
    "is_local": false,
    "tiu_dma_id(before)": [
      125,
      149
    ],
    "tiu_dma_id(after)": [
      126,
      151
    ],
    "operands": [
      {
        "address": 687194841088,
        "layout": "continuous",
        "memory_type": "<1x32x16x16xf16>",
        "name": "181_Conv",
        "reshape": "",
        "shape": [
          1,
          32,
          16,
          16
        ],
        "slice": "[...]",
        "type": "tensor<1x32x16x16xf16, 687194841088 : i64>"
      },
      {}
    ],
    "results": [
      {
        "address": 687194824704,
        "layout": "continuous",
        "memory_type": "<1x16x16x32xf16>",
        "name": "182_Transpose",
        "reshape": "",
        "shape": [
          1,
          16,
          16,
          32
        ],
        "slice": "[...]",
        "type": "tensor<1x16x16x32xf16, 687194824704 : i64>"
      }
    ],
    "buffers": []
  },
  {
    "file-line": 301,
    "subnet_id": 0,
    "core_id": 0,
    "opcode": "tpu.Reshape",
    "is_local": false,
    "tiu_dma_id(before)": [
      126,
      151
    ],
    "tiu_dma_id(after)": [
      126,
      151
    ],
    "operands": [
      {
        "address": 687194824704,
        "layout": "continuous",
        "memory_type": "<1x16x16x32xf16>",
        "name": "182_Transpose",
        "reshape": "",
        "shape": [
          1,
          16,
          16,
          32
        ],
        "slice": "[...]",
        "type": "tensor<1x16x16x32xf16, 687194824704 : i64>"
      }
    ],
    "results": [
      {
        "address": 687194824704,
        "layout": "continuous",
        "memory_type": "<1x512x16xf16>",
        "name": "189_Reshape",
        "reshape": "",
        "shape": [
          1,
          512,
          16
        ],
        "slice": "[...]",
        "type": "tensor<1x512x16xf16, 687194824704 : i64>"
      }
    ],
    "buffers": []
  },
  {
    "file-line": 304,
    "subnet_id": 0,
    "core_id": 0,
    "opcode": "tpu.Conv2D",
    "is_local": false,
    "tiu_dma_id(before)": [
      126,
      151
    ],
    "tiu_dma_id(after)": [
      132,
      161
    ],
    "operands": [
      {
        "address": 687194812416,
        "layout": "continuous",
        "memory_type": "<1x96x8x8xf16>",
        "name": "161_Relu",
        "reshape": "",
        "shape": [
          1,
          96,
          8,
          8
        ],
        "slice": "[...]",
        "type": "tensor<1x96x8x8xf16, 687194812416 : i64>"
      },
      {
        "address": 618475720704,
        "layout": "continuous",
        "memory_type": "<1x96x1x96xf16>",
        "name": "190_Conv_filter_reorderd",
        "reshape": "",
        "shape": [
          1,
          96,
          1,
          96
        ],
        "slice": "[...]",
        "type": "tensor<1x96x1x96xf16, 618475720704 : i64>"
      },
      {
        "address": 618475716608,
        "layout": "continuous",
        "memory_type": "<1x96x1x1xf32>",
        "name": "blaze_face.regressor_16.bias",
        "reshape": "",
        "shape": [
          1,
          96,
          1,
          1
        ],
        "slice": "[...]",
        "type": "tensor<1x96x1x1xf32, 618475716608 : i64>"
      }
    ],
    "results": [
      {
        "address": 687194767360,
        "layout": "continuous",
        "memory_type": "<1x96x8x8xf16>",
        "name": "190_Conv",
        "reshape": "",
        "shape": [
          1,
          96,
          8,
          8
        ],
        "slice": "[...]",
        "type": "tensor<1x96x8x8xf16, 687194767360 : i64>"
      }
    ],
    "buffers": []
  },
  {
    "file-line": 305,
    "subnet_id": 0,
    "core_id": 0,
    "opcode": "tpu.Permute",
    "is_local": false,
    "tiu_dma_id(before)": [
      132,
      161
    ],
    "tiu_dma_id(after)": [
      133,
      163
    ],
    "operands": [
      {
        "address": 687194767360,
        "layout": "continuous",
        "memory_type": "<1x96x8x8xf16>",
        "name": "190_Conv",
        "reshape": "",
        "shape": [
          1,
          96,
          8,
          8
        ],
        "slice": "[...]",
        "type": "tensor<1x96x8x8xf16, 687194767360 : i64>"
      },
      {}
    ],
    "results": [
      {
        "address": 687194841088,
        "layout": "continuous",
        "memory_type": "<1x8x8x96xf16>",
        "name": "191_Transpose",
        "reshape": "",
        "shape": [
          1,
          8,
          8,
          96
        ],
        "slice": "[...]",
        "type": "tensor<1x8x8x96xf16, 687194841088 : i64>"
      }
    ],
    "buffers": []
  },
  {
    "file-line": 306,
    "subnet_id": 0,
    "core_id": 0,
    "opcode": "tpu.Reshape",
    "is_local": false,
    "tiu_dma_id(before)": [
      133,
      163
    ],
    "tiu_dma_id(after)": [
      133,
      163
    ],
    "operands": [
      {
        "address": 687194841088,
        "layout": "continuous",
        "memory_type": "<1x8x8x96xf16>",
        "name": "191_Transpose",
        "reshape": "",
        "shape": [
          1,
          8,
          8,
          96
        ],
        "slice": "[...]",
        "type": "tensor<1x8x8x96xf16, 687194841088 : i64>"
      }
    ],
    "results": [
      {
        "address": 687194841088,
        "layout": "continuous",
        "memory_type": "<1x384x16xf16>",
        "name": "198_Reshape",
        "reshape": "",
        "shape": [
          1,
          384,
          16
        ],
        "slice": "[...]",
        "type": "tensor<1x384x16xf16, 687194841088 : i64>"
      }
    ],
    "buffers": []
  },
  {
    "file-line": 308,
    "subnet_id": 0,
    "core_id": 0,
    "opcode": "tpu.Load",
    "is_local": true,
    "tiu_dma_id(before)": [
      133,
      163
    ],
    "tiu_dma_id(after)": [
      133,
      164
    ],
    "operands": [
      {
        "address": 687194824704,
        "layout": "continuous",
        "memory_type": "<1x512x16x1xf16>",
        "name": "189_Reshape",
        "reshape": "<1x512x1x16x1>",
        "shape": [
          1,
          512,
          16
        ],
        "slice": "[0:1, 0:512, 0:1, 0:16, 0:1]",
        "type": "tensor<1x512x16xf16, 687194824704 : i64>"
      }
    ],
    "results": [
      {
        "address": 16384,
        "layout": "eu_align",
        "memory_type": "<1x512x16x1xf16>",
        "name": "load_189_Reshape",
        "reshape": "<1x512x1x16x1>",
        "shape": [
          1,
          512,
          16
        ],
        "slice": "[0:1, 0:512, 0:1, 0:16, 0:1]",
        "type": "tensor<1x512x16xf16>"
      }
    ],
    "buffers": []
  },
  {
    "file-line": 309,
    "subnet_id": 0,
    "core_id": 0,
    "opcode": "tpu.Load",
    "is_local": true,
    "tiu_dma_id(before)": [
      133,
      164
    ],
    "tiu_dma_id(after)": [
      133,
      165
    ],
    "operands": [
      {
        "address": 687194841088,
        "layout": "continuous",
        "memory_type": "<1x384x16x1xf16>",
        "name": "198_Reshape",
        "reshape": "<1x384x1x16x1>",
        "shape": [
          1,
          384,
          16
        ],
        "slice": "[0:1, 0:384, 0:1, 0:16, 0:1]",
        "type": "tensor<1x384x16xf16, 687194841088 : i64>"
      }
    ],
    "results": [
      {
        "address": 24576,
        "layout": "eu_align",
        "memory_type": "<1x384x16x1xf16>",
        "name": "load_198_Reshape",
        "reshape": "<1x384x1x16x1>",
        "shape": [
          1,
          384,
          16
        ],
        "slice": "[0:1, 0:384, 0:1, 0:16, 0:1]",
        "type": "tensor<1x384x16xf16>"
      }
    ],
    "buffers": []
  },
  {
    "file-line": 310,
    "subnet_id": 0,
    "core_id": 0,
    "opcode": "tpu.Concat",
    "is_local": true,
    "tiu_dma_id(before)": [
      133,
      165
    ],
    "tiu_dma_id(after)": [
      135,
      165
    ],
    "operands": [
      {
        "address": 16384,
        "layout": "eu_align",
        "memory_type": "<1x512x16x1xf16>",
        "name": "load_189_Reshape",
        "reshape": "<1x512x1x16x1>",
        "shape": [
          1,
          512,
          16
        ],
        "slice": "[0:1, 0:512, 0:1, 0:16, 0:1]",
        "type": "tensor<1x512x16xf16>"
      },
      {
        "address": 24576,
        "layout": "eu_align",
        "memory_type": "<1x384x16x1xf16>",
        "name": "load_198_Reshape",
        "reshape": "<1x384x1x16x1>",
        "shape": [
          1,
          384,
          16
        ],
        "slice": "[0:1, 0:384, 0:1, 0:16, 0:1]",
        "type": "tensor<1x384x16xf16>"
      }
    ],
    "results": [
      {
        "address": 8192,
        "layout": "eu_align",
        "memory_type": "<1x896x16x1xf16>",
        "name": "199_Concat",
        "reshape": "<1x896x1x16x1>",
        "shape": [
          1,
          896,
          16
        ],
        "slice": "[0:1, 0:896, 0:1, 0:16, 0:1]",
        "type": "tensor<1x896x16xf16>"
      }
    ],
    "buffers": []
  },
  {
    "file-line": 311,
    "subnet_id": 0,
    "core_id": 0,
    "opcode": "tpu.Cast",
    "is_local": true,
    "tiu_dma_id(before)": [
      135,
      165
    ],
    "tiu_dma_id(after)": [
      136,
      165
    ],
    "operands": [
      {
        "address": 8192,
        "layout": "eu_align",
        "memory_type": "<1x896x16x1xf16>",
        "name": "199_Concat",
        "reshape": "<1x896x1x16x1>",
        "shape": [
          1,
          896,
          16
        ],
        "slice": "[0:1, 0:896, 0:1, 0:16, 0:1]",
        "type": "tensor<1x896x16xf16>"
      }
    ],
    "results": [
      {
        "address": 0,
        "layout": "eu_align",
        "memory_type": "<1x896x16x1xf32>",
        "name": "199_Concat_f32",
        "reshape": "<1x896x1x16x1>",
        "shape": [
          1,
          896,
          16
        ],
        "slice": "[0:1, 0:896, 0:1, 0:16, 0:1]",
        "type": "tensor<1x896x16xf32>"
      }
    ],
    "buffers": []
  },
  {
    "file-line": 312,
    "subnet_id": 0,
    "core_id": 0,
    "opcode": "tpu.Store",
    "is_local": true,
    "tiu_dma_id(before)": [
      136,
      165
    ],
    "tiu_dma_id(after)": [
      136,
      166
    ],
    "operands": [
      {
        "address": 0,
        "layout": "eu_align",
        "memory_type": "<1x896x16x1xf32>",
        "name": "199_Concat_f32",
        "reshape": "<1x896x1x16x1>",
        "shape": [
          1,
          896,
          16
        ],
        "slice": "[0:1, 0:896, 0:1, 0:16, 0:1]",
        "type": "tensor<1x896x16xf32>"
      },
      {}
    ],
    "results": [
      {
        "address": 687194767360,
        "layout": "continuous",
        "memory_type": "<1x896x16x1xf32>",
        "name": "199_Concat_f32",
        "reshape": "<1x896x1x16x1>",
        "shape": [
          1,
          896,
          16
        ],
        "slice": "[0:1, 0:896, 0:1, 0:16, 0:1]",
        "type": "tensor<1x896x16xf32, 687194767360 : i64>"
      }
    ],
    "buffers": []
  }
]