[%R0, %D1 = "dma.tensor"(%G42172416, %B0) {decompress = False} : (memref<1x3x110x322xf32, strides: [1228800, 409600, 640, 1]>, none) -> (memref<1x3x110x322xf32, strides: [35424, 35424, 322, 1]>, none), %R15.2688, %D2 = "dma.tensor"(%G0, %B0) {decompress = False} : (memref<1x32x3x36xf32, strides: [3456, 108, 36, 1]>, none) -> (memref<1x32x3x36xf32, strides: [108, 108, 36, 1]>, none), %R9.10176, %D3 = "dma.tensor"(%G16384, %B0) {decompress = False} : (memref<1x32x1x1xf32, strides: [32, 1, 1, 1]>, none) -> (memref<1x32x1x1xf32, strides: [1, 1, 1, 1]>, none), %R10, %B1 = "conv.normal"(%R0, %R15.2688, %R9.10176, %C0.0, %D3) {kernel = [6, 6], stride = [2, 2], in_zero = [0, 0], ke_zero = [0, 0], kernel_rotate = False, pad_mode = 0, pad = [2, 0, 2, 0], res_add = False} : (memref<1x3x110x322xf32, strides: [35424, 35424, 322, 1]>, memref<32x3x6x6xf32>, memref<1x32x1x1xf32, strides: [1, 1, 1, 1]>, f32, none) -> (memref<1x32x54x160xf32, strides: [8640, 8640, 160, 1]>, none), %R4.3584, %B2 = "tsbc.s_bc"(%S1024, %D3) : (memref<1x64x1x10xf32>, none) -> (memref<1x64x1x10xf32, strides: [16, 16, 10, 1]>, none), %R2.1792, %B3 = "arith.sub"(%C0.0, %R10, %D3) {round_mode = 0} : (f32, memref<1x32x54x160xf32, strides: [8640, 8640, 160, 1]>, none) -> (memref<1x32x54x160xf32, strides: [8640, 8640, 160, 1]>, none), %R2.1792, %B4 = "arith.max"(%R2.1792, %C-3.4028198694267105e+35, %D3) {round_mode = 0} : (memref<1x32x54x160xf32, strides: [8640, 8640, 160, 1]>, f32, none) -> (memref<1x32x54x160xf32, strides: [8640, 8640, 160, 1]>, none), %R0, %B5 = "arith.mul"(%R2.1792, %C1.4426950216293335, %D3) {round_mode = 0} : (memref<1x32x54x160xf32, strides: [8640, 8640, 160, 1]>, f32, none) -> (memref<1x32x54x160xf32, strides: [8640, 8640, 160, 1]>, none), %R13, %B6 = "arith.cast"(%R0, %D3) {round_mode = 3} : (memref<1x32x54x160xf32, strides: [8640, 8640, 160, 1]>, none) -> (memref<1x32x54x160xf32, strides: [8640, 8640, 160, 1]>, none), %R0, %B7 = "arith.mul"(%R13, %C0.6931471824645996, %D3) {round_mode = 0} : (memref<1x32x54x160xf32, strides: [8640, 8640, 160, 1]>, f32, none) -> (memref<1x32x54x160xf32, strides: [8640, 8640, 160, 1]>, none), %R0, %B8 = "arith.sub"(%R2.1792, %R0, %D3) {round_mode = 0} : (memref<1x32x54x160xf32, strides: [8640, 8640, 160, 1]>, memref<1x32x54x160xf32, strides: [8640, 8640, 160, 1]>, none) -> (memref<1x32x54x160xf32, strides: [8640, 8640, 160, 1]>, none), %R2.1792, %B9 = "arith.cast"(%R13, %D3) {round_mode = 1} : (memref<1x32x54x160xf32, strides: [8640, 8640, 160, 1]>, none) -> (memref<1x32x54x160xsi16, strides: [8640, 8640, 160, 1]>, none), %R13, %B10 = "arith.min"(%R2.1792, %C127, %D3) {round_mode = 0} : (memref<1x32x54x160xsi16, strides: [8640, 8640, 160, 1]>, si16, none) -> (memref<1x32x54x160xsi16, strides: [8640, 8640, 160, 1]>, none), %R2.1792, %B11 = "arith.max"(%R13, %C-127, %D3) {round_mode = 0} : (memref<1x32x54x160xsi16, strides: [8640, 8640, 160, 1]>, si16, none) -> (memref<1x32x54x160xsi16, strides: [8640, 8640, 160, 1]>, none), %R13, %B12 = "arith.adds"(%R2.1792, %C127, %C23, %D3) {round_mode = 1} : (memref<1x32x54x160xsi16, strides: [8640, 8640, 160, 1]>, si16, ui8, none) -> (memref<1x32x54x160xsi32, strides: [8640, 8640, 160, 1]>, none), %R2.1792, %B13 = "sfu.taylor_4x"(%R0, %R4.3584, %D3) : (memref<1x32x54x160xf32, strides: [8640, 8640, 160, 1]>, memref<1x32x1x10xf32, strides: [0, 0, 10, 1]>, none) -> (memref<1x32x54x160xf32, strides: [8640, 8640, 160, 1]>, none), %R13, %B14 = "arith.mul"(%R2.1792, %R13, %D3) {round_mode = 0} : (memref<1x32x54x160xf32, strides: [8640, 8640, 160, 1]>, memref<1x32x54x160xf32, strides: [8640, 8640, 160, 1]>, none) -> (memref<1x32x54x160xf32, strides: [8640, 8640, 160, 1]>, none), %R0, %B15 = "arith.add"(%R13, %C1.0, %D3) {round_mode = 0} : (memref<1x32x54x160xf32, strides: [8640, 8640, 160, 1]>, f32, none) -> (memref<1x32x54x160xf32, strides: [8640, 8640, 160, 1]>, none), %R13, %B16 = "arith.div"(%C1.0, %R0, %D3) {iter = 3} : (f32, memref<1x32x54x160xf32, strides: [8640, 8640, 160, 1]>, none) -> (memref<1x32x54x160xf32, strides: [8640, 8640, 160, 1]>, none), %R13, %B17 = "arith.mul"(%R13, %R10, %D3) {round_mode = 0} : (memref<1x32x54x160xf32, strides: [8640, 8640, 160, 1]>, memref<1x32x54x160xf32, strides: [8640, 8640, 160, 1]>, none) -> (memref<1x32x54x160xf32, strides: [8640, 8640, 160, 1]>, none), %R9.8960, %D4 = "dma.tensor"(%G20480, %B1) {decompress = False} : (memref<1x64x32x9xf32, strides: [18432, 288, 9, 1]>, none) -> (memref<1x64x32x9xf32, strides: [288, 288, 9, 1]>, none), %R9.10112, %D5 = "dma.tensor"(%G94208, %B1) {decompress = False} : (memref<1x64x1x1xf32, strides: [64, 1, 1, 1]>, none) -> (memref<1x64x1x1xf32, strides: [1, 1, 1, 1]>, none), %R10, %B18 = "conv.normal"(%R13, %R9.8960, %R9.10112, %C0.0, %D5) {kernel = [3, 3], stride = [2, 2], in_zero = [0, 0], ke_zero = [0, 0], kernel_rotate = False, pad_mode = 0, pad = [1, 0, 1, 0], res_add = False} : (memref<1x32x54x160xf32, strides: [8640, 8640, 160, 1]>, memref<64x32x3x3xf32>, memref<1x64x1x1xf32, strides: [1, 1, 1, 1]>, f32, none) -> (memref<1x64x27x80xf32, strides: [2160, 2160, 80, 1]>, none), %R0, %D6 = "dma.tensor"(%G42173680, %B17) {decompress = False} : (memref<1x3x110x324xf32, strides: [1228800, 409600, 640, 1]>, none) -> (memref<1x3x110x324xf32, strides: [35648, 35648, 324, 1]>, none), %R12.896, %B19 = "tsbc.s_bc"(%S1024, %D6) : (memref<1x64x1x10xf32>, none) -> (memref<1x64x1x10xf32, strides: [16, 16, 10, 1]>, none), %R11.8640, %B20 = "arith.sub"(%C0.0, %R10, %D6) {round_mode = 0} : (f32, memref<1x64x27x80xf32, strides: [2160, 2160, 80, 1]>, none) -> (memref<1x64x27x80xf32, strides: [2160, 2160, 80, 1]>, none), %R11.8640, %B21 = "arith.max"(%R11.8640, %C-3.4028198694267105e+35, %D6) {round_mode = 0} : (memref<1x64x27x80xf32, strides: [2160, 2160, 80, 1]>, f32, none) -> (memref<1x64x27x80xf32, strides: [2160, 2160, 80, 1]>, none), %R11, %B22 = "arith.mul"(%R11.8640, %C1.4426950216293335, %D6) {round_mode = 0} : (memref<1x64x27x80xf32, strides: [2160, 2160, 80, 1]>, f32, none) -> (memref<1x64x27x80xf32, strides: [2160, 2160, 80, 1]>, none), %R9.320, %B23 = "arith.cast"(%R11, %D6) {round_mode = 3} : (memref<1x64x27x80xf32, strides: [2160, 2160, 80, 1]>, none) -> (memref<1x64x27x80xf32, strides: [2160, 2160, 80, 1]>, none), %R11, %B24 = "arith.mul"(%R9.320, %C0.6931471824645996, %D6) {round_mode = 0} : (memref<1x64x27x80xf32, strides: [2160, 2160, 80, 1]>, f32, none) -> (memref<1x64x27x80xf32, strides: [2160, 2160, 80, 1]>, none), %R11, %B25 = "arith.sub"(%R11.8640, %R11, %D6) {round_mode = 0} : (memref<1x64x27x80xf32, strides: [2160, 2160, 80, 1]>, memref<1x64x27x80xf32, strides: [2160, 2160, 80, 1]>, none) -> (memref<1x64x27x80xf32, strides: [2160, 2160, 80, 1]>, none), %R11.8640, %B26 = "arith.cast"(%R9.320, %D6) {round_mode = 1} : (memref<1x64x27x80xf32, strides: [2160, 2160, 80, 1]>, none) -> (memref<1x64x27x80xsi16, strides: [2176, 2176, 80, 1]>, none), %R9.320, %B27 = "arith.min"(%R11.8640, %C127, %D6) {round_mode = 0} : (memref<1x64x27x80xsi16, strides: [2176, 2176, 80, 1]>, si16, none) -> (memref<1x64x27x80xsi16, strides: [2176, 2176, 80, 1]>, none), %R11.8640, %B28 = "arith.max"(%R9.320, %C-127, %D6) {round_mode = 0} : (memref<1x64x27x80xsi16, strides: [2176, 2176, 80, 1]>, si16, none) -> (memref<1x64x27x80xsi16, strides: [2176, 2176, 80, 1]>, none), %R9.320, %B29 = "arith.adds"(%R11.8640, %C127, %C23, %D6) {round_mode = 1} : (memref<1x64x27x80xsi16, strides: [2176, 2176, 80, 1]>, si16, ui8, none) -> (memref<1x64x27x80xsi32, strides: [2160, 2160, 80, 1]>, none), %R11.8640, %B30 = "sfu.taylor_4x"(%R11, %R12.896, %D6) : (memref<1x64x27x80xf32, strides: [2160, 2160, 80, 1]>, memref<1x64x1x10xf32, strides: [0, 0, 10, 1]>, none) -> (memref<1x64x27x80xf32, strides: [2160, 2160, 80, 1]>, none), %R9.320, %B31 = "arith.mul"(%R11.8640, %R9.320, %D6) {round_mode = 0} : (memref<1x64x27x80xf32, strides: [2160, 2160, 80, 1]>, memref<1x64x27x80xf32, strides: [2160, 2160, 80, 1]>, none) -> (memref<1x64x27x80xf32, strides: [2160, 2160, 80, 1]>, none), %R11, %B32 = "arith.add"(%R9.320, %C1.0, %D6) {round_mode = 0} : (memref<1x64x27x80xf32, strides: [2160, 2160, 80, 1]>, f32, none) -> (memref<1x64x27x80xf32, strides: [2160, 2160, 80, 1]>, none), %R9.320, %B33 = "arith.div"(%C1.0, %R11, %D6) {iter = 3} : (f32, memref<1x64x27x80xf32, strides: [2160, 2160, 80, 1]>, none) -> (memref<1x64x27x80xf32, strides: [2160, 2160, 80, 1]>, none), %R9.320, %B34 = "arith.mul"(%R9.320, %R10, %D6) {round_mode = 0} : (memref<1x64x27x80xf32, strides: [2160, 2160, 80, 1]>, memref<1x64x27x80xf32, strides: [2160, 2160, 80, 1]>, none) -> (memref<1x64x27x80xf32, strides: [2160, 2160, 80, 1]>, none), %R15.3136, %D7 = "dma.tensor"(%G98304, %B18) {decompress = False} : (memref<1x32x64x1xf32, strides: [2048, 64, 1, 1]>, none) -> (memref<1x32x64x1xf32, strides: [64, 64, 1, 1]>, none), %R9.10240, %D8 = "dma.tensor"(%G106496, %B18) {decompress = False} : (memref<1x32x1x1xf32, strides: [32, 1, 1, 1]>, none) -> (memref<1x32x1x1xf32, strides: [1, 1, 1, 1]>, none), %R10, %B35 = "conv.normal"(%R9.320, %R15.3136, %R9.10240, %C0.0, %D8) {kernel = [1, 1], stride = [1, 1], in_zero = [0, 0], ke_zero = [0, 0], kernel_rotate = False, pad_mode = 0, pad = [0, 0, 0, 0], res_add = False} : (memref<1x64x27x80xf32, strides: [2160, 2160, 80, 1]>, memref<32x64x1x1xf32>, memref<1x32x1x1xf32, strides: [1, 1, 1, 1]>, f32, none) -> (memref<1x32x27x80xf32, strides: [2160, 2160, 80, 1]>, none), %G29114368, %D9 = "dma.tensor"(%R9.320, %B34) {decompress = False} : (memref<1x64x27x80xf32, strides: [2160, 2160, 80, 1]>, none) -> (memref<1x64x27x80xf32, strides: [1638400, 25600, 160, 1]>, none), %R12.896, %B36 = "tsbc.s_bc"(%S1024, %D9) : (memref<1x64x1x10xf32>, none) -> (memref<1x64x1x10xf32, strides: [16, 16, 10, 1]>, none), %R11.8640, %B37 = "arith.sub"(%C0.0, %R10, %D9) {round_mode = 0} : (f32, memref<1x32x27x80xf32, strides: [2160, 2160, 80, 1]>, none) -> (memref<1x32x27x80xf32, strides: [2160, 2160, 80, 1]>, none), %R11.8640, %B38 = "arith.max"(%R11.8640, %C-3.4028198694267105e+35, %D9) {round_mode = 0} : (memref<1x32x27x80xf32, strides: [2160, 2160, 80, 1]>, f32, none) -> (memref<1x32x27x80xf32, strides: [2160, 2160, 80, 1]>, none), %R11, %B39 = "arith.mul"(%R11.8640, %C1.4426950216293335, %D9) {round_mode = 0} : (memref<1x32x27x80xf32, strides: [2160, 2160, 80, 1]>, f32, none) -> (memref<1x32x27x80xf32, strides: [2160, 2160, 80, 1]>, none), %R9.320, %B40 = "arith.cast"(%R11, %D9) {round_mode = 3} : (memref<1x32x27x80xf32, strides: [2160, 2160, 80, 1]>, none) -> (memref<1x32x27x80xf32, strides: [2160, 2160, 80, 1]>, none), %R11, %B41 = "arith.mul"(%R9.320, %C0.6931471824645996, %D9) {round_mode = 0} : (memref<1x32x27x80xf32, strides: [2160, 2160, 80, 1]>, f32, none) -> (memref<1x32x27x80xf32, strides: [2160, 2160, 80, 1]>, none), %R11, %B42 = "arith.sub"(%R11.8640, %R11, %D9) {round_mode = 0} : (memref<1x32x27x80xf32, strides: [2160, 2160, 80, 1]>, memref<1x32x27x80xf32, strides: [2160, 2160, 80, 1]>, none) -> (memref<1x32x27x80xf32, strides: [2160, 2160, 80, 1]>, none), %R11.8640, %B43 = "arith.cast"(%R9.320, %D9) {round_mode = 1} : (memref<1x32x27x80xf32, strides: [2160, 2160, 80, 1]>, none) -> (memref<1x32x27x80xsi16, strides: [2176, 2176, 80, 1]>, none), %R9.320, %B44 = "arith.min"(%R11.8640, %C127, %D9) {round_mode = 0} : (memref<1x32x27x80xsi16, strides: [2176, 2176, 80, 1]>, si16, none) -> (memref<1x32x27x80xsi16, strides: [2176, 2176, 80, 1]>, none), %R11.8640, %B45 = "arith.max"(%R9.320, %C-127, %D9) {round_mode = 0} : (memref<1x32x27x80xsi16, strides: [2176, 2176, 80, 1]>, si16, none) -> (memref<1x32x27x80xsi16, strides: [2176, 2176, 80, 1]>, none), %R9.320, %B46 = "arith.adds"(%R11.8640, %C127, %C23, %D9) {round_mode = 1} : (memref<1x32x27x80xsi16, strides: [2176, 2176, 80, 1]>, si16, ui8, none) -> (memref<1x32x27x80xsi32, strides: [2160, 2160, 80, 1]>, none), %R11.8640, %B47 = "sfu.taylor_4x"(%R11, %R12.896, %D9) : (memref<1x32x27x80xf32, strides: [2160, 2160, 80, 1]>, memref<1x32x1x10xf32, strides: [0, 0, 10, 1]>, none) -> (memref<1x32x27x80xf32, strides: [2160, 2160, 80, 1]>, none), %R9.320, %B48 = "arith.mul"(%R11.8640, %R9.320, %D9) {round_mode = 0} : (memref<1x32x27x80xf32, strides: [2160, 2160, 80, 1]>, memref<1x32x27x80xf32, strides: [2160, 2160, 80, 1]>, none) -> (memref<1x32x27x80xf32, strides: [2160, 2160, 80, 1]>, none), %R11, %B49 = "arith.add"(%R9.320, %C1.0, %D9) {round_mode = 0} : (memref<1x32x27x80xf32, strides: [2160, 2160, 80, 1]>, f32, none) -> (memref<1x32x27x80xf32, strides: [2160, 2160, 80, 1]>, none), %R9.320, %B50 = "arith.div"(%C1.0, %R11, %D9) {iter = 3} : (f32, memref<1x32x27x80xf32, strides: [2160, 2160, 80, 1]>, none) -> (memref<1x32x27x80xf32, strides: [2160, 2160, 80, 1]>, none), %R9.320, %B51 = "arith.mul"(%R9.320, %R10, %D9) {round_mode = 0} : (memref<1x32x27x80xf32, strides: [2160, 2160, 80, 1]>, memref<1x32x27x80xf32, strides: [2160, 2160, 80, 1]>, none) -> (memref<1x32x27x80xf32, strides: [2160, 2160, 80, 1]>, none), %R15.3392, %D10 = "dma.tensor"(%G110592, %B35) {decompress = False} : (memref<1x32x32x1xf32, strides: [1024, 32, 1, 1]>, none) -> (memref<1x32x32x1xf32, strides: [32, 32, 1, 1]>, none), %R9.10304, %D11 = "dma.tensor"(%G114688, %B35) {decompress = False} : (memref<1x32x1x1xf32, strides: [32, 1, 1, 1]>, none) -> (memref<1x32x1x1xf32, strides: [1, 1, 1, 1]>, none), %R10, %B52 = "conv.normal"(%R9.320, %R15.3392, %R9.10304, %C0.0, %D11) {kernel = [1, 1], stride = [1, 1], in_zero = [0, 0], ke_zero = [0, 0], kernel_rotate = False, pad_mode = 0, pad = [0, 0, 0, 0], res_add = False} : (memref<1x32x27x80xf32, strides: [2160, 2160, 80, 1]>, memref<32x32x1x1xf32>, memref<1x32x1x1xf32, strides: [1, 1, 1, 1]>, f32, none) -> (memref<1x32x27x80xf32, strides: [2160, 2160, 80, 1]>, none), %R12.896, %B53 = "tsbc.s_bc"(%S1024, %D11) : (memref<1x64x1x10xf32>, none) -> (memref<1x64x1x10xf32, strides: [16, 16, 10, 1]>, none), %R11.8640, %B54 = "arith.sub"(%C0.0, %R10, %D11) {round_mode = 0} : (f32, memref<1x32x27x80xf32, strides: [2160, 2160, 80, 1]>, none) -> (memref<1x32x27x80xf32, strides: [2160, 2160, 80, 1]>, none), %R11.8640, %B55 = "arith.max"(%R11.8640, %C-3.4028198694267105e+35, %D11) {round_mode = 0} : (memref<1x32x27x80xf32, strides: [2160, 2160, 80, 1]>, f32, none) -> (memref<1x32x27x80xf32, strides: [2160, 2160, 80, 1]>, none), %R11, %B56 = "arith.mul"(%R11.8640, %C1.4426950216293335, %D11) {round_mode = 0} : (memref<1x32x27x80xf32, strides: [2160, 2160, 80, 1]>, f32, none) -> (memref<1x32x27x80xf32, strides: [2160, 2160, 80, 1]>, none), %R13, %B57 = "arith.cast"(%R11, %D11) {round_mode = 3} : (memref<1x32x27x80xf32, strides: [2160, 2160, 80, 1]>, none) -> (memref<1x32x27x80xf32, strides: [2160, 2160, 80, 1]>, none), %R11, %B58 = "arith.mul"(%R13, %C0.6931471824645996, %D11) {round_mode = 0} : (memref<1x32x27x80xf32, strides: [2160, 2160, 80, 1]>, f32, none) -> (memref<1x32x27x80xf32, strides: [2160, 2160, 80, 1]>, none), %R11, %B59 = "arith.sub"(%R11.8640, %R11, %D11) {round_mode = 0} : (memref<1x32x27x80xf32, strides: [2160, 2160, 80, 1]>, memref<1x32x27x80xf32, strides: [2160, 2160, 80, 1]>, none) -> (memref<1x32x27x80xf32, strides: [2160, 2160, 80, 1]>, none), %R11.8640, %B60 = "arith.cast"(%R13, %D11) {round_mode = 1} : (memref<1x32x27x80xf32, strides: [2160, 2160, 80, 1]>, none) -> (memref<1x32x27x80xsi16, strides: [2176, 2176, 80, 1]>, none), %R13, %B61 = "arith.min"(%R11.8640, %C127, %D11) {round_mode = 0} : (memref<1x32x27x80xsi16, strides: [2176, 2176, 80, 1]>, si16, none) -> (memref<1x32x27x80xsi16, strides: [2176, 2176, 80, 1]>, none), %R11.8640, %B62 = "arith.max"(%R13, %C-127, %D11) {round_mode = 0} : (memref<1x32x27x80xsi16, strides: [2176, 2176, 80, 1]>, si16, none) -> (memref<1x32x27x80xsi16, strides: [2176, 2176, 80, 1]>, none), %R13, %B63 = "arith.adds"(%R11.8640, %C127, %C23, %D11) {round_mode = 1} : (memref<1x32x27x80xsi16, strides: [2176, 2176, 80, 1]>, si16, ui8, none) -> (memref<1x32x27x80xsi32, strides: [2160, 2160, 80, 1]>, none), %R11.8640, %B64 = "sfu.taylor_4x"(%R11, %R12.896, %D11) : (memref<1x32x27x80xf32, strides: [2160, 2160, 80, 1]>, memref<1x32x1x10xf32, strides: [0, 0, 10, 1]>, none) -> (memref<1x32x27x80xf32, strides: [2160, 2160, 80, 1]>, none), %R13, %B65 = "arith.mul"(%R11.8640, %R13, %D11) {round_mode = 0} : (memref<1x32x27x80xf32, strides: [2160, 2160, 80, 1]>, memref<1x32x27x80xf32, strides: [2160, 2160, 80, 1]>, none) -> (memref<1x32x27x80xf32, strides: [2160, 2160, 80, 1]>, none), %R11, %B66 = "arith.add"(%R13, %C1.0, %D11) {round_mode = 0} : (memref<1x32x27x80xf32, strides: [2160, 2160, 80, 1]>, f32, none) -> (memref<1x32x27x80xf32, strides: [2160, 2160, 80, 1]>, none), %R13, %B67 = "arith.div"(%C1.0, %R11, %D11) {iter = 3} : (f32, memref<1x32x27x80xf32, strides: [2160, 2160, 80, 1]>, none) -> (memref<1x32x27x80xf32, strides: [2160, 2160, 80, 1]>, none), %R13, %B68 = "arith.mul"(%R13, %R10, %D11) {round_mode = 0} : (memref<1x32x27x80xf32, strides: [2160, 2160, 80, 1]>, memref<1x32x27x80xf32, strides: [2160, 2160, 80, 1]>, none) -> (memref<1x32x27x80xf32, strides: [2160, 2160, 80, 1]>, none), %G50364416, %D12 = "dma.tensor"(%R9.320, %B52) {decompress = False} : (memref<1x32x27x80xf32, strides: [2160, 2160, 80, 1]>, none) -> (memref<1x32x27x80xf32, strides: [819200, 25600, 160, 1]>, none), %R10, %B69 = "conv.normal"(%R0, %R15.2688, %R9.10176, %C0.0, %D12) {kernel = [6, 6], stride = [2, 2], in_zero = [0, 0], ke_zero = [0, 0], kernel_rotate = False, pad_mode = 0, pad = [2, 0, 0, 2], res_add = False} : (memref<1x3x110x324xf32, strides: [35648, 35648, 324, 1]>, memref<32x3x6x6xf32>, memref<1x32x1x1xf32, strides: [1, 1, 1, 1]>, f32, none) -> (memref<1x32x54x161xf32, strides: [8704, 8704, 161, 1]>, none), %G47087616, %D13 = "dma.tensor"(%R13, %B68) {decompress = False} : (memref<1x32x27x80xf32, strides: [2160, 2160, 80, 1]>, none) -> (memref<1x32x27x80xf32, strides: [819200, 25600, 160, 1]>, none), %R4.4096, %B70 = "tsbc.s_bc"(%S1024, %D13) : (memref<1x64x1x10xf32>, none) -> (memref<1x64x1x10xf32, strides: [16, 16, 10, 1]>, none), %R2.2048, %B71 = "arith.sub"(%C0.0, %R10, %D13) {round_mode = 0} : (f32, memref<1x32x54x161xf32, strides: [8704, 8704, 161, 1]>, none) -> (memref<1x32x54x161xf32, strides: [8704, 8704, 161, 1]>, none), %R2.2048, %B72 = "arith.max"(%R2.2048, %C-3.4028198694267105e+35, %D13) {round_mode = 0} : (memref<1x32x54x161xf32, strides: [8704, 8704, 161, 1]>, f32, none) -> (memref<1x32x54x161xf32, strides: [8704, 8704, 161, 1]>, none), %R0, %B73 = "arith.mul"(%R2.2048, %C1.4426950216293335, %D13) {round_mode = 0} : (memref<1x32x54x161xf32, strides: [8704, 8704, 161, 1]>, f32, none) -> (memref<1x32x54x161xf32, strides: [8704, 8704, 161, 1]>, none), %R13, %B74 = "arith.cast"(%R0, %D13) {round_mode = 3} : (memref<1x32x54x161xf32, strides: [8704, 8704, 161, 1]>, none) -> (memref<1x32x54x161xf32, strides: [8704, 8704, 161, 1]>, none), %R0, %B75 = "arith.mul"(%R13, %C0.6931471824645996, %D13) {round_mode = 0} : (memref<1x32x54x161xf32, strides: [8704, 8704, 161, 1]>, f32, none) -> (memref<1x32x54x161xf32, strides: [8704, 8704, 161, 1]>, none), %R0, %B76 = "arith.sub"(%R2.2048, %R0, %D13) {round_mode = 0} : (memref<1x32x54x161xf32, strides: [8704, 8704, 161, 1]>, memref<1x32x54x161xf32, strides: [8704, 8704, 161, 1]>, none) -> (memref<1x32x54x161xf32, strides: [8704, 8704, 161, 1]>, none), %R2.2048, %B77 = "arith.cast"(%R13, %D13) {round_mode = 1} : (memref<1x32x54x161xf32, strides: [8704, 8704, 161, 1]>, none) -> (memref<1x32x54x161xsi16, strides: [8704, 8704, 161, 1]>, none), %R13, %B78 = "arith.min"(%R2.2048, %C127, %D13) {round_mode = 0} : (memref<1x32x54x161xsi16, strides: [8704, 8704, 161, 1]>, si16, none) -> (memref<1x32x54x161xsi16, strides: [8704, 8704, 161, 1]>, none), %R2.2048, %B79 = "arith.max"(%R13, %C-127, %D13) {round_mode = 0} : (memref<1x32x54x161xsi16, strides: [8704, 8704, 161, 1]>, si16, none) -> (memref<1x32x54x161xsi16, strides: [8704, 8704, 161, 1]>, none), %R13, %B80 = "arith.adds"(%R2.2048, %C127, %C23, %D13) {round_mode = 1} : (memref<1x32x54x161xsi16, strides: [8704, 8704, 161, 1]>, si16, ui8, none) -> (memref<1x32x54x161xsi32, strides: [8704, 8704, 161, 1]>, none), %R2.2048, %B81 = "sfu.taylor_4x"(%R0, %R4.4096, %D13) : (memref<1x32x54x161xf32, strides: [8704, 8704, 161, 1]>, memref<1x32x1x10xf32, strides: [0, 0, 10, 1]>, none) -> (memref<1x32x54x161xf32, strides: [8704, 8704, 161, 1]>, none), %R13, %B82 = "arith.mul"(%R2.2048, %R13, %D13) {round_mode = 0} : (memref<1x32x54x161xf32, strides: [8704, 8704, 161, 1]>, memref<1x32x54x161xf32, strides: [8704, 8704, 161, 1]>, none) -> (memref<1x32x54x161xf32, strides: [8704, 8704, 161, 1]>, none), %R0, %B83 = "arith.add"(%R13, %C1.0, %D13) {round_mode = 0} : (memref<1x32x54x161xf32, strides: [8704, 8704, 161, 1]>, f32, none) -> (memref<1x32x54x161xf32, strides: [8704, 8704, 161, 1]>, none), %R13, %B84 = "arith.div"(%C1.0, %R0, %D13) {iter = 3} : (f32, memref<1x32x54x161xf32, strides: [8704, 8704, 161, 1]>, none) -> (memref<1x32x54x161xf32, strides: [8704, 8704, 161, 1]>, none), %R13, %B85 = "arith.mul"(%R13, %R10, %D13) {round_mode = 0} : (memref<1x32x54x161xf32, strides: [8704, 8704, 161, 1]>, memref<1x32x54x161xf32, strides: [8704, 8704, 161, 1]>, none) -> (memref<1x32x54x161xf32, strides: [8704, 8704, 161, 1]>, none), %R10, %B86 = "conv.normal"(%R13, %R9.8960, %R9.10112, %C0.0, %D13) {kernel = [3, 3], stride = [2, 2], in_zero = [0, 0], ke_zero = [0, 0], kernel_rotate = False, pad_mode = 0, pad = [1, 0, 0, 1], res_add = False} : (memref<1x32x54x161xf32, strides: [8704, 8704, 161, 1]>, memref<64x32x3x3xf32>, memref<1x64x1x1xf32, strides: [1, 1, 1, 1]>, f32, none) -> (memref<1x64x27x80xf32, strides: [2160, 2160, 80, 1]>, none), %R0, %D14 = "dma.tensor"(%G42438656, %B85) {decompress = False} : (memref<1x3x114x322xf32, strides: [1228800, 409600, 640, 1]>, none) -> (memref<1x3x114x322xf32, strides: [36720, 36720, 322, 1]>, none), %R12.896, %B87 = "tsbc.s_bc"(%S1024, %D14) : (memref<1x64x1x10xf32>, none) -> (memref<1x64x1x10xf32, strides: [16, 16, 10, 1]>, none), %R11.8640, %B88 = "arith.sub"(%C0.0, %R10, %D14) {round_mode = 0} : (f32, memref<1x64x27x80xf32, strides: [2160, 2160, 80, 1]>, none) -> (memref<1x64x27x80xf32, strides: [2160, 2160, 80, 1]>, none), %R11.8640, %B89 = "arith.max"(%R11.8640, %C-3.4028198694267105e+35, %D14) {round_mode = 0} : (memref<1x64x27x80xf32, strides: [2160, 2160, 80, 1]>, f32, none) -> (memref<1x64x27x80xf32, strides: [2160, 2160, 80, 1]>, none), %R11, %B90 = "arith.mul"(%R11.8640, %C1.4426950216293335, %D14) {round_mode = 0} : (memref<1x64x27x80xf32, strides: [2160, 2160, 80, 1]>, f32, none) -> (memref<1x64x27x80xf32, strides: [2160, 2160, 80, 1]>, none), %R9.320, %B91 = "arith.cast"(%R11, %D14) {round_mode = 3} : (memref<1x64x27x80xf32, strides: [2160, 2160, 80, 1]>, none) -> (memref<1x64x27x80xf32, strides: [2160, 2160, 80, 1]>, none), %R11, %B92 = "arith.mul"(%R9.320, %C0.6931471824645996, %D14) {round_mode = 0} : (memref<1x64x27x80xf32, strides: [2160, 2160, 80, 1]>, f32, none) -> (memref<1x64x27x80xf32, strides: [2160, 2160, 80, 1]>, none), %R11, %B93 = "arith.sub"(%R11.8640, %R11, %D14) {round_mode = 0} : (memref<1x64x27x80xf32, strides: [2160, 2160, 80, 1]>, memref<1x64x27x80xf32, strides: [2160, 2160, 80, 1]>, none) -> (memref<1x64x27x80xf32, strides: [2160, 2160, 80, 1]>, none), %R11.8640, %B94 = "arith.cast"(%R9.320, %D14) {round_mode = 1} : (memref<1x64x27x80xf32, strides: [2160, 2160, 80, 1]>, none) -> (memref<1x64x27x80xsi16, strides: [2176, 2176, 80, 1]>, none), %R9.320, %B95 = "arith.min"(%R11.8640, %C127, %D14) {round_mode = 0} : (memref<1x64x27x80xsi16, strides: [2176, 2176, 80, 1]>, si16, none) -> (memref<1x64x27x80xsi16, strides: [2176, 2176, 80, 1]>, none), %R11.8640, %B96 = "arith.max"(%R9.320, %C-127, %D14) {round_mode = 0} : (memref<1x64x27x80xsi16, strides: [2176, 2176, 80, 1]>, si16, none) -> (memref<1x64x27x80xsi16, strides: [2176, 2176, 80, 1]>, none), %R9.320, %B97 = "arith.adds"(%R11.8640, %C127, %C23, %D14) {round_mode = 1} : (memref<1x64x27x80xsi16, strides: [2176, 2176, 80, 1]>, si16, ui8, none) -> (memref<1x64x27x80xsi32, strides: [2160, 2160, 80, 1]>, none), %R11.8640, %B98 = "sfu.taylor_4x"(%R11, %R12.896, %D14) : (memref<1x64x27x80xf32, strides: [2160, 2160, 80, 1]>, memref<1x64x1x10xf32, strides: [0, 0, 10, 1]>, none) -> (memref<1x64x27x80xf32, strides: [2160, 2160, 80, 1]>, none), %R9.320, %B99 = "arith.mul"(%R11.8640, %R9.320, %D14) {round_mode = 0} : (memref<1x64x27x80xf32, strides: [2160, 2160, 80, 1]>, memref<1x64x27x80xf32, strides: [2160, 2160, 80, 1]>, none) -> (memref<1x64x27x80xf32, strides: [2160, 2160, 80, 1]>, none), %R11, %B100 = "arith.add"(%R9.320, %C1.0, %D14) {round_mode = 0} : (memref<1x64x27x80xf32, strides: [2160, 2160, 80, 1]>, f32, none) -> (memref<1x64x27x80xf32, strides: [2160, 2160, 80, 1]>, none), %R9.320, %B101 = "arith.div"(%C1.0, %R11, %D14) {iter = 3} : (f32, memref<1x64x27x80xf32, strides: [2160, 2160, 80, 1]>, none) -> (memref<1x64x27x80xf32, strides: [2160, 2160, 80, 1]>, none), %R9.320, %B102 = "arith.mul"(%R9.320, %R10, %D14) {round_mode = 0} : (memref<1x64x27x80xf32, strides: [2160, 2160, 80, 1]>, memref<1x64x27x80xf32, strides: [2160, 2160, 80, 1]>, none) -> (memref<1x64x27x80xf32, strides: [2160, 2160, 80, 1]>, none), %R10, %B103 = "conv.normal"(%R9.320, %R15.3136, %R9.10240, %C0.0, %D14) {kernel = [1, 1], stride = [1, 1], in_zero = [0, 0], ke_zero = [0, 0], kernel_rotate = False, pad_mode = 0, pad = [0, 0, 0, 0], res_add = False} : (memref<1x64x27x80xf32, strides: [2160, 2160, 80, 1]>, memref<32x64x1x1xf32>, memref<1x32x1x1xf32, strides: [1, 1, 1, 1]>, f32, none) -> (memref<1x32x27x80xf32, strides: [2160, 2160, 80, 1]>, none), %G29114688, %D15 = "dma.tensor"(%R9.320, %B102) {decompress = False} : (memref<1x64x27x80xf32, strides: [2160, 2160, 80, 1]>, none) -> (memref<1x64x27x80xf32, strides: [1638400, 25600, 160, 1]>, none), %R12.896, %B104 = "tsbc.s_bc"(%S1024, %D15) : (memref<1x64x1x10xf32>, none) -> (memref<1x64x1x10xf32, strides: [16, 16, 10, 1]>, none), %R11.8640, %B105 = "arith.sub"(%C0.0, %R10, %D15) {round_mode = 0} : (f32, memref<1x32x27x80xf32, strides: [2160, 2160, 80, 1]>, none) -> (memref<1x32x27x80xf32, strides: [2160, 2160, 80, 1]>, none), %R11.8640, %B106 = "arith.max"(%R11.8640, %C-3.4028198694267105e+35, %D15) {round_mode = 0} : (memref<1x32x27x80xf32, strides: [2160, 2160, 80, 1]>, f32, none) -> (memref<1x32x27x80xf32, strides: [2160, 2160, 80, 1]>, none), %R11, %B107 = "arith.mul"(%R11.8640, %C1.4426950216293335, %D15) {round_mode = 0} : (memref<1x32x27x80xf32, strides: [2160, 2160, 80, 1]>, f32, none) -> (memref<1x32x27x80xf32, strides: [2160, 2160, 80, 1]>, none), %R9.320, %B108 = "arith.cast"(%R11, %D15) {round_mode = 3} : (memref<1x32x27x80xf32, strides: [2160, 2160, 80, 1]>, none) -> (memref<1x32x27x80xf32, strides: [2160, 2160, 80, 1]>, none), %R11, %B109 = "arith.mul"(%R9.320, %C0.6931471824645996, %D15) {round_mode = 0} : (memref<1x32x27x80xf32, strides: [2160, 2160, 80, 1]>, f32, none) -> (memref<1x32x27x80xf32, strides: [2160, 2160, 80, 1]>, none), %R11, %B110 = "arith.sub"(%R11.8640, %R11, %D15) {round_mode = 0} : (memref<1x32x27x80xf32, strides: [2160, 2160, 80, 1]>, memref<1x32x27x80xf32, strides: [2160, 2160, 80, 1]>, none) -> (memref<1x32x27x80xf32, strides: [2160, 2160, 80, 1]>, none), %R11.8640, %B111 = "arith.cast"(%R9.320, %D15) {round_mode = 1} : (memref<1x32x27x80xf32, strides: [2160, 2160, 80, 1]>, none) -> (memref<1x32x27x80xsi16, strides: [2176, 2176, 80, 1]>, none), %R9.320, %B112 = "arith.min"(%R11.8640, %C127, %D15) {round_mode = 0} : (memref<1x32x27x80xsi16, strides: [2176, 2176, 80, 1]>, si16, none) -> (memref<1x32x27x80xsi16, strides: [2176, 2176, 80, 1]>, none), %R11.8640, %B113 = "arith.max"(%R9.320, %C-127, %D15) {round_mode = 0} : (memref<1x32x27x80xsi16, strides: [2176, 2176, 80, 1]>, si16, none) -> (memref<1x32x27x80xsi16, strides: [2176, 2176, 80, 1]>, none), %R9.320, %B114 = "arith.adds"(%R11.8640, %C127, %C23, %D15) {round_mode = 1} : (memref<1x32x27x80xsi16, strides: [2176, 2176, 80, 1]>, si16, ui8, none) -> (memref<1x32x27x80xsi32, strides: [2160, 2160, 80, 1]>, none), %R11.8640, %B115 = "sfu.taylor_4x"(%R11, %R12.896, %D15) : (memref<1x32x27x80xf32, strides: [2160, 2160, 80, 1]>, memref<1x32x1x10xf32, strides: [0, 0, 10, 1]>, none) -> (memref<1x32x27x80xf32, strides: [2160, 2160, 80, 1]>, none), %R9.320, %B116 = "arith.mul"(%R11.8640, %R9.320, %D15) {round_mode = 0} : (memref<1x32x27x80xf32, strides: [2160, 2160, 80, 1]>, memref<1x32x27x80xf32, strides: [2160, 2160, 80, 1]>, none) -> (memref<1x32x27x80xf32, strides: [2160, 2160, 80, 1]>, none), %R11, %B117 = "arith.add"(%R9.320, %C1.0, %D15) {round_mode = 0} : (memref<1x32x27x80xf32, strides: [2160, 2160, 80, 1]>, f32, none) -> (memref<1x32x27x80xf32, strides: [2160, 2160, 80, 1]>, none), %R9.320, %B118 = "arith.div"(%C1.0, %R11, %D15) {iter = 3} : (f32, memref<1x32x27x80xf32, strides: [2160, 2160, 80, 1]>, none) -> (memref<1x32x27x80xf32, strides: [2160, 2160, 80, 1]>, none), %R9.320, %B119 = "arith.mul"(%R9.320, %R10, %D15) {round_mode = 0} : (memref<1x32x27x80xf32, strides: [2160, 2160, 80, 1]>, memref<1x32x27x80xf32, strides: [2160, 2160, 80, 1]>, none) -> (memref<1x32x27x80xf32, strides: [2160, 2160, 80, 1]>, none), %R10, %B120 = "conv.normal"(%R9.320, %R15.3392, %R9.10304, %C0.0, %D15) {kernel = [1, 1], stride = [1, 1], in_zero = [0, 0], ke_zero = [0, 0], kernel_rotate = False, pad_mode = 0, pad = [0, 0, 0, 0], res_add = False} : (memref<1x32x27x80xf32, strides: [2160, 2160, 80, 1]>, memref<32x32x1x1xf32>, memref<1x32x1x1xf32, strides: [1, 1, 1, 1]>, f32, none) -> (memref<1x32x27x80xf32, strides: [2160, 2160, 80, 1]>, none), %R12.896, %B121 = "tsbc.s_bc"(%S1024, %D15) : (memref<1x64x1x10xf32>, none) -> (memref<1x64x1x10xf32, strides: [16, 16, 10, 1]>, none), %R11.8640, %B122 = "arith.sub"(%C0.0, %R10, %D15) {round_mode = 0} : (f32, memref<1x32x27x80xf32, strides: [2160, 2160, 80, 1]>, none) -> (memref<1x32x27x80xf32, strides: [2160, 2160, 80, 1]>, none), %R11.8640, %B123 = "arith.max"(%R11.8640, %C-3.4028198694267105e+35, %D15) {round_mode = 0} : (memref<1x32x27x80xf32, strides: [2160, 2160, 80, 1]>, f32, none) -> (memref<1x32x27x80xf32, strides: [2160, 2160, 80, 1]>, none), %R11, %B124 = "arith.mul"(%R11.8640, %C1.4426950216293335, %D15) {round_mode = 0} : (memref<1x32x27x80xf32, strides: [2160, 2160, 80, 1]>, f32, none) -> (memref<1x32x27x80xf32, strides: [2160, 2160, 80, 1]>, none), %R13, %B125 = "arith.cast"(%R11, %D15) {round_mode = 3} : (memref<1x32x27x80xf32, strides: [2160, 2160, 80, 1]>, none) -> (memref<1x32x27x80xf32, strides: [2160, 2160, 80, 1]>, none), %R11, %B126 = "arith.mul"(%R13, %C0.6931471824645996, %D15) {round_mode = 0} : (memref<1x32x27x80xf32, strides: [2160, 2160, 80, 1]>, f32, none) -> (memref<1x32x27x80xf32, strides: [2160, 2160, 80, 1]>, none), %R11, %B127 = "arith.sub"(%R11.8640, %R11, %D15) {round_mode = 0} : (memref<1x32x27x80xf32, strides: [2160, 2160, 80, 1]>, memref<1x32x27x80xf32, strides: [2160, 2160, 80, 1]>, none) -> (memref<1x32x27x80xf32, strides: [2160, 2160, 80, 1]>, none), %R11.8640, %B128 = "arith.cast"(%R13, %D15) {round_mode = 1} : (memref<1x32x27x80xf32, strides: [2160, 2160, 80, 1]>, none) -> (memref<1x32x27x80xsi16, strides: [2176, 2176, 80, 1]>, none), %R13, %B129 = "arith.min"(%R11.8640, %C127, %D15) {round_mode = 0} : (memref<1x32x27x80xsi16, strides: [2176, 2176, 80, 1]>, si16, none) -> (memref<1x32x27x80xsi16, strides: [2176, 2176, 80, 1]>, none), %R11.8640, %B130 = "arith.max"(%R13, %C-127, %D15) {round_mode = 0} : (memref<1x32x27x80xsi16, strides: [2176, 2176, 80, 1]>, si16, none) -> (memref<1x32x27x80xsi16, strides: [2176, 2176, 80, 1]>, none), %R13, %B131 = "arith.adds"(%R11.8640, %C127, %C23, %D15) {round_mode = 1} : (memref<1x32x27x80xsi16, strides: [2176, 2176, 80, 1]>, si16, ui8, none) -> (memref<1x32x27x80xsi32, strides: [2160, 2160, 80, 1]>, none), %R11.8640, %B132 = "sfu.taylor_4x"(%R11, %R12.896, %D15) : (memref<1x32x27x80xf32, strides: [2160, 2160, 80, 1]>, memref<1x32x1x10xf32, strides: [0, 0, 10, 1]>, none) -> (memref<1x32x27x80xf32, strides: [2160, 2160, 80, 1]>, none), %R13, %B133 = "arith.mul"(%R11.8640, %R13, %D15) {round_mode = 0} : (memref<1x32x27x80xf32, strides: [2160, 2160, 80, 1]>, memref<1x32x27x80xf32, strides: [2160, 2160, 80, 1]>, none) -> (memref<1x32x27x80xf32, strides: [2160, 2160, 80, 1]>, none), %R11, %B134 = "arith.add"(%R13, %C1.0, %D15) {round_mode = 0} : (memref<1x32x27x80xf32, strides: [2160, 2160, 80, 1]>, f32, none) -> (memref<1x32x27x80xf32, strides: [2160, 2160, 80, 1]>, none), %R13, %B135 = "arith.div"(%C1.0, %R11, %D15) {iter = 3} : (f32, memref<1x32x27x80xf32, strides: [2160, 2160, 80, 1]>, none) -> (memref<1x32x27x80xf32, strides: [2160, 2160, 80, 1]>, none), %R13, %B136 = "arith.mul"(%R13, %R10, %D15) {round_mode = 0} : (memref<1x32x27x80xf32, strides: [2160, 2160, 80, 1]>, memref<1x32x27x80xf32, strides: [2160, 2160, 80, 1]>, none) -> (memref<1x32x27x80xf32, strides: [2160, 2160, 80, 1]>, none), %G50364736, %D16 = "dma.tensor"(%R9.320, %B120) {decompress = False} : (memref<1x32x27x80xf32, strides: [2160, 2160, 80, 1]>, none) -> (memref<1x32x27x80xf32, strides: [819200, 25600, 160, 1]>, none), %R10, %B137 = "conv.normal"(%R0, %R15.2688, %R9.10176, %C0.0, %D16) {kernel = [6, 6], stride = [2, 2], in_zero = [0, 0], ke_zero = [0, 0], kernel_rotate = False, pad_mode = 0, pad = [0, 0, 2, 0], res_add = False} : (memref<1x3x114x322xf32, strides: [36720, 36720, 322, 1]>, memref<32x3x6x6xf32>, memref<1x32x1x1xf32, strides: [1, 1, 1, 1]>, f32, none) -> (memref<1x32x55x160xf32, strides: [8800, 8800, 160, 1]>, none), %G47087936, %D17 = "dma.tensor"(%R13, %B136) {decompress = False} : (memref<1x32x27x80xf32, strides: [2160, 2160, 80, 1]>, none) -> (memref<1x32x27x80xf32, strides: [819200, 25600, 160, 1]>, none), %R4.4864, %B138 = "tsbc.s_bc"(%S1024, %D17) : (memref<1x64x1x10xf32>, none) -> (memref<1x64x1x10xf32, strides: [16, 16, 10, 1]>, none), %R2.2432, %B139 = "arith.sub"(%C0.0, %R10, %D17) {round_mode = 0} : (f32, memref<1x32x55x160xf32, strides: [8800, 8800, 160, 1]>, none) -> (memref<1x32x55x160xf32, strides: [8800, 8800, 160, 1]>, none), %R2.2432, %B140 = "arith.max"(%R2.2432, %C-3.4028198694267105e+35, %D17) {round_mode = 0} : (memref<1x32x55x160xf32, strides: [8800, 8800, 160, 1]>, f32, none) -> (memref<1x32x55x160xf32, strides: [8800, 8800, 160, 1]>, none), %R0, %B141 = "arith.mul"(%R2.2432, %C1.4426950216293335, %D17) {round_mode = 0} : (memref<1x32x55x160xf32, strides: [8800, 8800, 160, 1]>, f32, none) -> (memref<1x32x55x160xf32, strides: [8800, 8800, 160, 1]>, none), %R13, %B142 = "arith.cast"(%R0, %D17) {round_mode = 3} : (memref<1x32x55x160xf32, strides: [8800, 8800, 160, 1]>, none) -> (memref<1x32x55x160xf32, strides: [8800, 8800, 160, 1]>, none), %R0, %B143 = "arith.mul"(%R13, %C0.6931471824645996, %D17) {round_mode = 0} : (memref<1x32x55x160xf32, strides: [8800, 8800, 160, 1]>, f32, none) -> (memref<1x32x55x160xf32, strides: [8800, 8800, 160, 1]>, none), %R0, %B144 = "arith.sub"(%R2.2432, %R0, %D17) {round_mode = 0} : (memref<1x32x55x160xf32, strides: [8800, 8800, 160, 1]>, memref<1x32x55x160xf32, strides: [8800, 8800, 160, 1]>, none) -> (memref<1x32x55x160xf32, strides: [8800, 8800, 160, 1]>, none), %R2.2432, %B145 = "arith.cast"(%R13, %D17) {round_mode = 1} : (memref<1x32x55x160xf32, strides: [8800, 8800, 160, 1]>, none) -> (memref<1x32x55x160xsi16, strides: [8800, 8800, 160, 1]>, none), %R13, %B146 = "arith.min"(%R2.2432, %C127, %D17) {round_mode = 0} : (memref<1x32x55x160xsi16, strides: [8800, 8800, 160, 1]>, si16, none) -> (memref<1x32x55x160xsi16, strides: [8800, 8800, 160, 1]>, none), %R2.2432, %B147 = "arith.max"(%R13, %C-127, %D17) {round_mode = 0} : (memref<1x32x55x160xsi16, strides: [8800, 8800, 160, 1]>, si16, none) -> (memref<1x32x55x160xsi16, strides: [8800, 8800, 160, 1]>, none), %R13, %B148 = "arith.adds"(%R2.2432, %C127, %C23, %D17) {round_mode = 1} : (memref<1x32x55x160xsi16, strides: [8800, 8800, 160, 1]>, si16, ui8, none) -> (memref<1x32x55x160xsi32, strides: [8800, 8800, 160, 1]>, none), %R2.2432, %B149 = "sfu.taylor_4x"(%R0, %R4.4864, %D17) : (memref<1x32x55x160xf32, strides: [8800, 8800, 160, 1]>, memref<1x32x1x10xf32, strides: [0, 0, 10, 1]>, none) -> (memref<1x32x55x160xf32, strides: [8800, 8800, 160, 1]>, none), %R13, %B150 = "arith.mul"(%R2.2432, %R13, %D17) {round_mode = 0} : (memref<1x32x55x160xf32, strides: [8800, 8800, 160, 1]>, memref<1x32x55x160xf32, strides: [8800, 8800, 160, 1]>, none) -> (memref<1x32x55x160xf32, strides: [8800, 8800, 160, 1]>, none), %R0, %B151 = "arith.add"(%R13, %C1.0, %D17) {round_mode = 0} : (memref<1x32x55x160xf32, strides: [8800, 8800, 160, 1]>, f32, none) -> (memref<1x32x55x160xf32, strides: [8800, 8800, 160, 1]>, none), %R13, %B152 = "arith.div"(%C1.0, %R0, %D17) {iter = 3} : (f32, memref<1x32x55x160xf32, strides: [8800, 8800, 160, 1]>, none) -> (memref<1x32x55x160xf32, strides: [8800, 8800, 160, 1]>, none), %R13, %B153 = "arith.mul"(%R13, %R10, %D17) {round_mode = 0} : (memref<1x32x55x160xf32, strides: [8800, 8800, 160, 1]>, memref<1x32x55x160xf32, strides: [8800, 8800, 160, 1]>, none) -> (memref<1x32x55x160xf32, strides: [8800, 8800, 160, 1]>, none), %R10, %B154 = "conv.normal"(%R13, %R9.8960, %R9.10112, %C0.0, %D17) {kernel = [3, 3], stride = [2, 2], in_zero = [0, 0], ke_zero = [0, 0], kernel_rotate = False, pad_mode = 0, pad = [0, 0, 1, 0], res_add = False} : (memref<1x32x55x160xf32, strides: [8800, 8800, 160, 1]>, memref<64x32x3x3xf32>, memref<1x64x1x1xf32, strides: [1, 1, 1, 1]>, f32, none) -> (memref<1x64x27x80xf32, strides: [2160, 2160, 80, 1]>, none), %R0, %D18 = "dma.tensor"(%G42439920, %B153) {decompress = False} : (memref<1x3x114x324xf32, strides: [1228800, 409600, 640, 1]>, none) -> (memref<1x3x114x324xf32, strides: [36944, 36944, 324, 1]>, none), %R12.896, %B155 = "tsbc.s_bc"(%S1024, %D18) : (memref<1x64x1x10xf32>, none) -> (memref<1x64x1x10xf32, strides: [16, 16, 10, 1]>, none), %R11.8640, %B156 = "arith.sub"(%C0.0, %R10, %D18) {round_mode = 0} : (f32, memref<1x64x27x80xf32, strides: [2160, 2160, 80, 1]>, none) -> (memref<1x64x27x80xf32, strides: [2160, 2160, 80, 1]>, none), %R11.8640, %B157 = "arith.max"(%R11.8640, %C-3.4028198694267105e+35, %D18) {round_mode = 0} : (memref<1x64x27x80xf32, strides: [2160, 2160, 80, 1]>, f32, none) -> (memref<1x64x27x80xf32, strides: [2160, 2160, 80, 1]>, none), %R11, %B158 = "arith.mul"(%R11.8640, %C1.4426950216293335, %D18) {round_mode = 0} : (memref<1x64x27x80xf32, strides: [2160, 2160, 80, 1]>, f32, none) -> (memref<1x64x27x80xf32, strides: [2160, 2160, 80, 1]>, none), %R9.320, %B159 = "arith.cast"(%R11, %D18) {round_mode = 3} : (memref<1x64x27x80xf32, strides: [2160, 2160, 80, 1]>, none) -> (memref<1x64x27x80xf32, strides: [2160, 2160, 80, 1]>, none), %R11, %B160 = "arith.mul"(%R9.320, %C0.6931471824645996, %D18) {round_mode = 0} : (memref<1x64x27x80xf32, strides: [2160, 2160, 80, 1]>, f32, none) -> (memref<1x64x27x80xf32, strides: [2160, 2160, 80, 1]>, none), %R11, %B161 = "arith.sub"(%R11.8640, %R11, %D18) {round_mode = 0} : (memref<1x64x27x80xf32, strides: [2160, 2160, 80, 1]>, memref<1x64x27x80xf32, strides: [2160, 2160, 80, 1]>, none) -> (memref<1x64x27x80xf32, strides: [2160, 2160, 80, 1]>, none), %R11.8640, %B162 = "arith.cast"(%R9.320, %D18) {round_mode = 1} : (memref<1x64x27x80xf32, strides: [2160, 2160, 80, 1]>, none) -> (memref<1x64x27x80xsi16, strides: [2176, 2176, 80, 1]>, none), %R9.320, %B163 = "arith.min"(%R11.8640, %C127, %D18) {round_mode = 0} : (memref<1x64x27x80xsi16, strides: [2176, 2176, 80, 1]>, si16, none) -> (memref<1x64x27x80xsi16, strides: [2176, 2176, 80, 1]>, none), %R11.8640, %B164 = "arith.max"(%R9.320, %C-127, %D18) {round_mode = 0} : (memref<1x64x27x80xsi16, strides: [2176, 2176, 80, 1]>, si16, none) -> (memref<1x64x27x80xsi16, strides: [2176, 2176, 80, 1]>, none), %R9.320, %B165 = "arith.adds"(%R11.8640, %C127, %C23, %D18) {round_mode = 1} : (memref<1x64x27x80xsi16, strides: [2176, 2176, 80, 1]>, si16, ui8, none) -> (memref<1x64x27x80xsi32, strides: [2160, 2160, 80, 1]>, none), %R11.8640, %B166 = "sfu.taylor_4x"(%R11, %R12.896, %D18) : (memref<1x64x27x80xf32, strides: [2160, 2160, 80, 1]>, memref<1x64x1x10xf32, strides: [0, 0, 10, 1]>, none) -> (memref<1x64x27x80xf32, strides: [2160, 2160, 80, 1]>, none), %R9.320, %B167 = "arith.mul"(%R11.8640, %R9.320, %D18) {round_mode = 0} : (memref<1x64x27x80xf32, strides: [2160, 2160, 80, 1]>, memref<1x64x27x80xf32, strides: [2160, 2160, 80, 1]>, none) -> (memref<1x64x27x80xf32, strides: [2160, 2160, 80, 1]>, none), %R11, %B168 = "arith.add"(%R9.320, %C1.0, %D18) {round_mode = 0} : (memref<1x64x27x80xf32, strides: [2160, 2160, 80, 1]>, f32, none) -> (memref<1x64x27x80xf32, strides: [2160, 2160, 80, 1]>, none), %R9.320, %B169 = "arith.div"(%C1.0, %R11, %D18) {iter = 3} : (f32, memref<1x64x27x80xf32, strides: [2160, 2160, 80, 1]>, none) -> (memref<1x64x27x80xf32, strides: [2160, 2160, 80, 1]>, none), %R9.320, %B170 = "arith.mul"(%R9.320, %R10, %D18) {round_mode = 0} : (memref<1x64x27x80xf32, strides: [2160, 2160, 80, 1]>, memref<1x64x27x80xf32, strides: [2160, 2160, 80, 1]>, none) -> (memref<1x64x27x80xf32, strides: [2160, 2160, 80, 1]>, none), %R10, %B171 = "conv.normal"(%R9.320, %R15.3136, %R9.10240, %C0.0, %D18) {kernel = [1, 1], stride = [1, 1], in_zero = [0, 0], ke_zero = [0, 0], kernel_rotate = False, pad_mode = 0, pad = [0, 0, 0, 0], res_add = False} : (memref<1x64x27x80xf32, strides: [2160, 2160, 80, 1]>, memref<32x64x1x1xf32>, memref<1x32x1x1xf32, strides: [1, 1, 1, 1]>, f32, none) -> (memref<1x32x27x80xf32, strides: [2160, 2160, 80, 1]>, none), %G29131648, %D19 = "dma.tensor"(%R9.320, %B170) {decompress = False} : (memref<1x64x27x80xf32, strides: [2160, 2160, 80, 1]>, none) -> (memref<1x64x27x80xf32, strides: [1638400, 25600, 160, 1]>, none), %R12.896, %B172 = "tsbc.s_bc"(%S1024, %D19) : (memref<1x64x1x10xf32>, none) -> (memref<1x64x1x10xf32, strides: [16, 16, 10, 1]>, none), %R11.8640, %B173 = "arith.sub"(%C0.0, %R10, %D19) {round_mode = 0} : (f32, memref<1x32x27x80xf32, strides: [2160, 2160, 80, 1]>, none) -> (memref<1x32x27x80xf32, strides: [2160, 2160, 80, 1]>, none), %R11.8640, %B174 = "arith.max"(%R11.8640, %C-3.4028198694267105e+35, %D19) {round_mode = 0} : (memref<1x32x27x80xf32, strides: [2160, 2160, 80, 1]>, f32, none) -> (memref<1x32x27x80xf32, strides: [2160, 2160, 80, 1]>, none), %R11, %B175 = "arith.mul"(%R11.8640, %C1.4426950216293335, %D19) {round_mode = 0} : (memref<1x32x27x80xf32, strides: [2160, 2160, 80, 1]>, f32, none) -> (memref<1x32x27x80xf32, strides: [2160, 2160, 80, 1]>, none), %R9.320, %B176 = "arith.cast"(%R11, %D19) {round_mode = 3} : (memref<1x32x27x80xf32, strides: [2160, 2160, 80, 1]>, none) -> (memref<1x32x27x80xf32, strides: [2160, 2160, 80, 1]>, none), %R11, %B177 = "arith.mul"(%R9.320, %C0.6931471824645996, %D19) {round_mode = 0} : (memref<1x32x27x80xf32, strides: [2160, 2160, 80, 1]>, f32, none) -> (memref<1x32x27x80xf32, strides: [2160, 2160, 80, 1]>, none), %R11, %B178 = "arith.sub"(%R11.8640, %R11, %D19) {round_mode = 0} : (memref<1x32x27x80xf32, strides: [2160, 2160, 80, 1]>, memref<1x32x27x80xf32, strides: [2160, 2160, 80, 1]>, none) -> (memref<1x32x27x80xf32, strides: [2160, 2160, 80, 1]>, none), %R11.8640, %B179 = "arith.cast"(%R9.320, %D19) {round_mode = 1} : (memref<1x32x27x80xf32, strides: [2160, 2160, 80, 1]>, none) -> (memref<1x32x27x80xsi16, strides: [2176, 2176, 80, 1]>, none), %R9.320, %B180 = "arith.min"(%R11.8640, %C127, %D19) {round_mode = 0} : (memref<1x32x27x80xsi16, strides: [2176, 2176, 80, 1]>, si16, none) -> (memref<1x32x27x80xsi16, strides: [2176, 2176, 80, 1]>, none), %R11.8640, %B181 = "arith.max"(%R9.320, %C-127, %D19) {round_mode = 0} : (memref<1x32x27x80xsi16, strides: [2176, 2176, 80, 1]>, si16, none) -> (memref<1x32x27x80xsi16, strides: [2176, 2176, 80, 1]>, none), %R9.320, %B182 = "arith.adds"(%R11.8640, %C127, %C23, %D19) {round_mode = 1} : (memref<1x32x27x80xsi16, strides: [2176, 2176, 80, 1]>, si16, ui8, none) -> (memref<1x32x27x80xsi32, strides: [2160, 2160, 80, 1]>, none), %R11.8640, %B183 = "sfu.taylor_4x"(%R11, %R12.896, %D19) : (memref<1x32x27x80xf32, strides: [2160, 2160, 80, 1]>, memref<1x32x1x10xf32, strides: [0, 0, 10, 1]>, none) -> (memref<1x32x27x80xf32, strides: [2160, 2160, 80, 1]>, none), %R9.320, %B184 = "arith.mul"(%R11.8640, %R9.320, %D19) {round_mode = 0} : (memref<1x32x27x80xf32, strides: [2160, 2160, 80, 1]>, memref<1x32x27x80xf32, strides: [2160, 2160, 80, 1]>, none) -> (memref<1x32x27x80xf32, strides: [2160, 2160, 80, 1]>, none), %R11, %B185 = "arith.add"(%R9.320, %C1.0, %D19) {round_mode = 0} : (memref<1x32x27x80xf32, strides: [2160, 2160, 80, 1]>, f32, none) -> (memref<1x32x27x80xf32, strides: [2160, 2160, 80, 1]>, none), %R9.320, %B186 = "arith.div"(%C1.0, %R11, %D19) {iter = 3} : (f32, memref<1x32x27x80xf32, strides: [2160, 2160, 80, 1]>, none) -> (memref<1x32x27x80xf32, strides: [2160, 2160, 80, 1]>, none), %R9.320, %B187 = "arith.mul"(%R9.320, %R10, %D19) {round_mode = 0} : (memref<1x32x27x80xf32, strides: [2160, 2160, 80, 1]>, memref<1x32x27x80xf32, strides: [2160, 2160, 80, 1]>, none) -> (memref<1x32x27x80xf32, strides: [2160, 2160, 80, 1]>, none), %R10, %B188 = "conv.normal"(%R9.320, %R15.3392, %R9.10304, %C0.0, %D19) {kernel = [1, 1], stride = [1, 1], in_zero = [0, 0], ke_zero = [0, 0], kernel_rotate = False, pad_mode = 0, pad = [0, 0, 0, 0], res_add = False} : (memref<1x32x27x80xf32, strides: [2160, 2160, 80, 1]>, memref<32x32x1x1xf32>, memref<1x32x1x1xf32, strides: [1, 1, 1, 1]>, f32, none) -> (memref<1x32x27x80xf32, strides: [2160, 2160, 80, 1]>, none), %R12.896, %B189 = "tsbc.s_bc"(%S1024, %D19) : (memref<1x64x1x10xf32>, none) -> (memref<1x64x1x10xf32, strides: [16, 16, 10, 1]>, none), %R11.8640, %B190 = "arith.sub"(%C0.0, %R10, %D19) {round_mode = 0} : (f32, memref<1x32x27x80xf32, strides: [2160, 2160, 80, 1]>, none) -> (memref<1x32x27x80xf32, strides: [2160, 2160, 80, 1]>, none), %R11.8640, %B191 = "arith.max"(%R11.8640, %C-3.4028198694267105e+35, %D19) {round_mode = 0} : (memref<1x32x27x80xf32, strides: [2160, 2160, 80, 1]>, f32, none) -> (memref<1x32x27x80xf32, strides: [2160, 2160, 80, 1]>, none), %R11, %B192 = "arith.mul"(%R11.8640, %C1.4426950216293335, %D19) {round_mode = 0} : (memref<1x32x27x80xf32, strides: [2160, 2160, 80, 1]>, f32, none) -> (memref<1x32x27x80xf32, strides: [2160, 2160, 80, 1]>, none), %R13, %B193 = "arith.cast"(%R11, %D19) {round_mode = 3} : (memref<1x32x27x80xf32, strides: [2160, 2160, 80, 1]>, none) -> (memref<1x32x27x80xf32, strides: [2160, 2160, 80, 1]>, none), %R11, %B194 = "arith.mul"(%R13, %C0.6931471824645996, %D19) {round_mode = 0} : (memref<1x32x27x80xf32, strides: [2160, 2160, 80, 1]>, f32, none) -> (memref<1x32x27x80xf32, strides: [2160, 2160, 80, 1]>, none), %R11, %B195 = "arith.sub"(%R11.8640, %R11, %D19) {round_mode = 0} : (memref<1x32x27x80xf32, strides: [2160, 2160, 80, 1]>, memref<1x32x27x80xf32, strides: [2160, 2160, 80, 1]>, none) -> (memref<1x32x27x80xf32, strides: [2160, 2160, 80, 1]>, none), %R11.8640, %B196 = "arith.cast"(%R13, %D19) {round_mode = 1} : (memref<1x32x27x80xf32, strides: [2160, 2160, 80, 1]>, none) -> (memref<1x32x27x80xsi16, strides: [2176, 2176, 80, 1]>, none), %R13, %B197 = "arith.min"(%R11.8640, %C127, %D19) {round_mode = 0} : (memref<1x32x27x80xsi16, strides: [2176, 2176, 80, 1]>, si16, none) -> (memref<1x32x27x80xsi16, strides: [2176, 2176, 80, 1]>, none), %R11.8640, %B198 = "arith.max"(%R13, %C-127, %D19) {round_mode = 0} : (memref<1x32x27x80xsi16, strides: [2176, 2176, 80, 1]>, si16, none) -> (memref<1x32x27x80xsi16, strides: [2176, 2176, 80, 1]>, none), %R13, %B199 = "arith.adds"(%R11.8640, %C127, %C23, %D19) {round_mode = 1} : (memref<1x32x27x80xsi16, strides: [2176, 2176, 80, 1]>, si16, ui8, none) -> (memref<1x32x27x80xsi32, strides: [2160, 2160, 80, 1]>, none), %R11.8640, %B200 = "sfu.taylor_4x"(%R11, %R12.896, %D19) : (memref<1x32x27x80xf32, strides: [2160, 2160, 80, 1]>, memref<1x32x1x10xf32, strides: [0, 0, 10, 1]>, none) -> (memref<1x32x27x80xf32, strides: [2160, 2160, 80, 1]>, none), %R13, %B201 = "arith.mul"(%R11.8640, %R13, %D19) {round_mode = 0} : (memref<1x32x27x80xf32, strides: [2160, 2160, 80, 1]>, memref<1x32x27x80xf32, strides: [2160, 2160, 80, 1]>, none) -> (memref<1x32x27x80xf32, strides: [2160, 2160, 80, 1]>, none), %R11, %B202 = "arith.add"(%R13, %C1.0, %D19) {round_mode = 0} : (memref<1x32x27x80xf32, strides: [2160, 2160, 80, 1]>, f32, none) -> (memref<1x32x27x80xf32, strides: [2160, 2160, 80, 1]>, none), %R13, %B203 = "arith.div"(%C1.0, %R11, %D19) {iter = 3} : (f32, memref<1x32x27x80xf32, strides: [2160, 2160, 80, 1]>, none) -> (memref<1x32x27x80xf32, strides: [2160, 2160, 80, 1]>, none), %R13, %B204 = "arith.mul"(%R13, %R10, %D19) {round_mode = 0} : (memref<1x32x27x80xf32, strides: [2160, 2160, 80, 1]>, memref<1x32x27x80xf32, strides: [2160, 2160, 80, 1]>, none) -> (memref<1x32x27x80xf32, strides: [2160, 2160, 80, 1]>, none), %G50381696, %D20 = "dma.tensor"(%R9.320, %B188) {decompress = False} : (memref<1x32x27x80xf32, strides: [2160, 2160, 80, 1]>, none) -> (memref<1x32x27x80xf32, strides: [819200, 25600, 160, 1]>, none), %R10, %B205 = "conv.normal"(%R0, %R15.2688, %R9.10176, %C0.0, %D20) {kernel = [6, 6], stride = [2, 2], in_zero = [0, 0], ke_zero = [0, 0], kernel_rotate = False, pad_mode = 0, pad = [0, 0, 0, 2], res_add = False} : (memref<1x3x114x324xf32, strides: [36944, 36944, 324, 1]>, memref<32x3x6x6xf32>, memref<1x32x1x1xf32, strides: [1, 1, 1, 1]>, f32, none) -> (memref<1x32x55x161xf32, strides: [8864, 8864, 161, 1]>, none), %G47104896, %D21 = "dma.tensor"(%R13, %B204) {decompress = False} : (memref<1x32x27x80xf32, strides: [2160, 2160, 80, 1]>, none) -> (memref<1x32x27x80xf32, strides: [819200, 25600, 160, 1]>, none), %R4.5376, %B206 = "tsbc.s_bc"(%S1024, %D21) : (memref<1x64x1x10xf32>, none) -> (memref<1x64x1x10xf32, strides: [16, 16, 10, 1]>, none), %R2.2688, %B207 = "arith.sub"(%C0.0, %R10, %D21) {round_mode = 0} : (f32, memref<1x32x55x161xf32, strides: [8864, 8864, 161, 1]>, none) -> (memref<1x32x55x161xf32, strides: [8864, 8864, 161, 1]>, none), %R2.2688, %B208 = "arith.max"(%R2.2688, %C-3.4028198694267105e+35, %D21) {round_mode = 0} : (memref<1x32x55x161xf32, strides: [8864, 8864, 161, 1]>, f32, none) -> (memref<1x32x55x161xf32, strides: [8864, 8864, 161, 1]>, none), %R0, %B209 = "arith.mul"(%R2.2688, %C1.4426950216293335, %D21) {round_mode = 0} : (memref<1x32x55x161xf32, strides: [8864, 8864, 161, 1]>, f32, none) -> (memref<1x32x55x161xf32, strides: [8864, 8864, 161, 1]>, none), %R13, %B210 = "arith.cast"(%R0, %D21) {round_mode = 3} : (memref<1x32x55x161xf32, strides: [8864, 8864, 161, 1]>, none) -> (memref<1x32x55x161xf32, strides: [8864, 8864, 161, 1]>, none), %R0, %B211 = "arith.mul"(%R13, %C0.6931471824645996, %D21) {round_mode = 0} : (memref<1x32x55x161xf32, strides: [8864, 8864, 161, 1]>, f32, none) -> (memref<1x32x55x161xf32, strides: [8864, 8864, 161, 1]>, none), %R0, %B212 = "arith.sub"(%R2.2688, %R0, %D21) {round_mode = 0} : (memref<1x32x55x161xf32, strides: [8864, 8864, 161, 1]>, memref<1x32x55x161xf32, strides: [8864, 8864, 161, 1]>, none) -> (memref<1x32x55x161xf32, strides: [8864, 8864, 161, 1]>, none), %R2.2688, %B213 = "arith.cast"(%R13, %D21) {round_mode = 1} : (memref<1x32x55x161xf32, strides: [8864, 8864, 161, 1]>, none) -> (memref<1x32x55x161xsi16, strides: [8864, 8864, 161, 1]>, none), %R13, %B214 = "arith.min"(%R2.2688, %C127, %D21) {round_mode = 0} : (memref<1x32x55x161xsi16, strides: [8864, 8864, 161, 1]>, si16, none) -> (memref<1x32x55x161xsi16, strides: [8864, 8864, 161, 1]>, none), %R2.2688, %B215 = "arith.max"(%R13, %C-127, %D21) {round_mode = 0} : (memref<1x32x55x161xsi16, strides: [8864, 8864, 161, 1]>, si16, none) -> (memref<1x32x55x161xsi16, strides: [8864, 8864, 161, 1]>, none), %R13, %B216 = "arith.adds"(%R2.2688, %C127, %C23, %D21) {round_mode = 1} : (memref<1x32x55x161xsi16, strides: [8864, 8864, 161, 1]>, si16, ui8, none) -> (memref<1x32x55x161xsi32, strides: [8864, 8864, 161, 1]>, none), %R2.2688, %B217 = "sfu.taylor_4x"(%R0, %R4.5376, %D21) : (memref<1x32x55x161xf32, strides: [8864, 8864, 161, 1]>, memref<1x32x1x10xf32, strides: [0, 0, 10, 1]>, none) -> (memref<1x32x55x161xf32, strides: [8864, 8864, 161, 1]>, none), %R13, %B218 = "arith.mul"(%R2.2688, %R13, %D21) {round_mode = 0} : (memref<1x32x55x161xf32, strides: [8864, 8864, 161, 1]>, memref<1x32x55x161xf32, strides: [8864, 8864, 161, 1]>, none) -> (memref<1x32x55x161xf32, strides: [8864, 8864, 161, 1]>, none), %R0, %B219 = "arith.add"(%R13, %C1.0, %D21) {round_mode = 0} : (memref<1x32x55x161xf32, strides: [8864, 8864, 161, 1]>, f32, none) -> (memref<1x32x55x161xf32, strides: [8864, 8864, 161, 1]>, none), %R13, %B220 = "arith.div"(%C1.0, %R0, %D21) {iter = 3} : (f32, memref<1x32x55x161xf32, strides: [8864, 8864, 161, 1]>, none) -> (memref<1x32x55x161xf32, strides: [8864, 8864, 161, 1]>, none), %R13, %B221 = "arith.mul"(%R13, %R10, %D21) {round_mode = 0} : (memref<1x32x55x161xf32, strides: [8864, 8864, 161, 1]>, memref<1x32x55x161xf32, strides: [8864, 8864, 161, 1]>, none) -> (memref<1x32x55x161xf32, strides: [8864, 8864, 161, 1]>, none), %R10, %B222 = "conv.normal"(%R13, %R9.8960, %R9.10112, %C0.0, %D21) {kernel = [3, 3], stride = [2, 2], in_zero = [0, 0], ke_zero = [0, 0], kernel_rotate = False, pad_mode = 0, pad = [0, 0, 0, 1], res_add = False} : (memref<1x32x55x161xf32, strides: [8864, 8864, 161, 1]>, memref<64x32x3x3xf32>, memref<1x64x1x1xf32, strides: [1, 1, 1, 1]>, f32, none) -> (memref<1x64x27x80xf32, strides: [2160, 2160, 80, 1]>, none), %R0, %D22 = "dma.tensor"(%G42715136, %B221) {decompress = False} : (memref<1x3x114x322xf32, strides: [1228800, 409600, 640, 1]>, none) -> (memref<1x3x114x322xf32, strides: [36720, 36720, 322, 1]>, none), %R12.896, %B223 = "tsbc.s_bc"(%S1024, %D22) : (memref<1x64x1x10xf32>, none) -> (memref<1x64x1x10xf32, strides: [16, 16, 10, 1]>, none), %R11.8640, %B224 = "arith.sub"(%C0.0, %R10, %D22) {round_mode = 0} : (f32, memref<1x64x27x80xf32, strides: [2160, 2160, 80, 1]>, none) -> (memref<1x64x27x80xf32, strides: [2160, 2160, 80, 1]>, none), %R11.8640, %B225 = "arith.max"(%R11.8640, %C-3.4028198694267105e+35, %D22) {round_mode = 0} : (memref<1x64x27x80xf32, strides: [2160, 2160, 80, 1]>, f32, none) -> (memref<1x64x27x80xf32, strides: [2160, 2160, 80, 1]>, none), %R11, %B226 = "arith.mul"(%R11.8640, %C1.4426950216293335, %D22) {round_mode = 0} : (memref<1x64x27x80xf32, strides: [2160, 2160, 80, 1]>, f32, none) -> (memref<1x64x27x80xf32, strides: [2160, 2160, 80, 1]>, none), %R9.320, %B227 = "arith.cast"(%R11, %D22) {round_mode = 3} : (memref<1x64x27x80xf32, strides: [2160, 2160, 80, 1]>, none) -> (memref<1x64x27x80xf32, strides: [2160, 2160, 80, 1]>, none), %R11, %B228 = "arith.mul"(%R9.320, %C0.6931471824645996, %D22) {round_mode = 0} : (memref<1x64x27x80xf32, strides: [2160, 2160, 80, 1]>, f32, none) -> (memref<1x64x27x80xf32, strides: [2160, 2160, 80, 1]>, none), %R11, %B229 = "arith.sub"(%R11.8640, %R11, %D22) {round_mode = 0} : (memref<1x64x27x80xf32, strides: [2160, 2160, 80, 1]>, memref<1x64x27x80xf32, strides: [2160, 2160, 80, 1]>, none) -> (memref<1x64x27x80xf32, strides: [2160, 2160, 80, 1]>, none), %R11.8640, %B230 = "arith.cast"(%R9.320, %D22) {round_mode = 1} : (memref<1x64x27x80xf32, strides: [2160, 2160, 80, 1]>, none) -> (memref<1x64x27x80xsi16, strides: [2176, 2176, 80, 1]>, none), %R9.320, %B231 = "arith.min"(%R11.8640, %C127, %D22) {round_mode = 0} : (memref<1x64x27x80xsi16, strides: [2176, 2176, 80, 1]>, si16, none) -> (memref<1x64x27x80xsi16, strides: [2176, 2176, 80, 1]>, none), %R11.8640, %B232 = "arith.max"(%R9.320, %C-127, %D22) {round_mode = 0} : (memref<1x64x27x80xsi16, strides: [2176, 2176, 80, 1]>, si16, none) -> (memref<1x64x27x80xsi16, strides: [2176, 2176, 80, 1]>, none), %R9.320, %B233 = "arith.adds"(%R11.8640, %C127, %C23, %D22) {round_mode = 1} : (memref<1x64x27x80xsi16, strides: [2176, 2176, 80, 1]>, si16, ui8, none) -> (memref<1x64x27x80xsi32, strides: [2160, 2160, 80, 1]>, none), %R11.8640, %B234 = "sfu.taylor_4x"(%R11, %R12.896, %D22) : (memref<1x64x27x80xf32, strides: [2160, 2160, 80, 1]>, memref<1x64x1x10xf32, strides: [0, 0, 10, 1]>, none) -> (memref<1x64x27x80xf32, strides: [2160, 2160, 80, 1]>, none), %R9.320, %B235 = "arith.mul"(%R11.8640, %R9.320, %D22) {round_mode = 0} : (memref<1x64x27x80xf32, strides: [2160, 2160, 80, 1]>, memref<1x64x27x80xf32, strides: [2160, 2160, 80, 1]>, none) -> (memref<1x64x27x80xf32, strides: [2160, 2160, 80, 1]>, none), %R11, %B236 = "arith.add"(%R9.320, %C1.0, %D22) {round_mode = 0} : (memref<1x64x27x80xf32, strides: [2160, 2160, 80, 1]>, f32, none) -> (memref<1x64x27x80xf32, strides: [2160, 2160, 80, 1]>, none), %R9.320, %B237 = "arith.div"(%C1.0, %R11, %D22) {iter = 3} : (f32, memref<1x64x27x80xf32, strides: [2160, 2160, 80, 1]>, none) -> (memref<1x64x27x80xf32, strides: [2160, 2160, 80, 1]>, none), %R9.320, %B238 = "arith.mul"(%R9.320, %R10, %D22) {round_mode = 0} : (memref<1x64x27x80xf32, strides: [2160, 2160, 80, 1]>, memref<1x64x27x80xf32, strides: [2160, 2160, 80, 1]>, none) -> (memref<1x64x27x80xf32, strides: [2160, 2160, 80, 1]>, none), %R10, %B239 = "conv.normal"(%R9.320, %R15.3136, %R9.10240, %C0.0, %D22) {kernel = [1, 1], stride = [1, 1], in_zero = [0, 0], ke_zero = [0, 0], kernel_rotate = False, pad_mode = 0, pad = [0, 0, 0, 0], res_add = False} : (memref<1x64x27x80xf32, strides: [2160, 2160, 80, 1]>, memref<32x64x1x1xf32>, memref<1x32x1x1xf32, strides: [1, 1, 1, 1]>, f32, none) -> (memref<1x32x27x80xf32, strides: [2160, 2160, 80, 1]>, none), %G29131968, %D23 = "dma.tensor"(%R9.320, %B238) {decompress = False} : (memref<1x64x27x80xf32, strides: [2160, 2160, 80, 1]>, none) -> (memref<1x64x27x80xf32, strides: [1638400, 25600, 160, 1]>, none), %R12.896, %B240 = "tsbc.s_bc"(%S1024, %D23) : (memref<1x64x1x10xf32>, none) -> (memref<1x64x1x10xf32, strides: [16, 16, 10, 1]>, none), %R11.8640, %B241 = "arith.sub"(%C0.0, %R10, %D23) {round_mode = 0} : (f32, memref<1x32x27x80xf32, strides: [2160, 2160, 80, 1]>, none) -> (memref<1x32x27x80xf32, strides: [2160, 2160, 80, 1]>, none), %R11.8640, %B242 = "arith.max"(%R11.8640, %C-3.4028198694267105e+35, %D23) {round_mode = 0} : (memref<1x32x27x80xf32, strides: [2160, 2160, 80, 1]>, f32, none) -> (memref<1x32x27x80xf32, strides: [2160, 2160, 80, 1]>, none), %R11, %B243 = "arith.mul"(%R11.8640, %C1.4426950216293335, %D23) {round_mode = 0} : (memref<1x32x27x80xf32, strides: [2160, 2160, 80, 1]>, f32, none) -> (memref<1x32x27x80xf32, strides: [2160, 2160, 80, 1]>, none), %R9.320, %B244 = "arith.cast"(%R11, %D23) {round_mode = 3} : (memref<1x32x27x80xf32, strides: [2160, 2160, 80, 1]>, none) -> (memref<1x32x27x80xf32, strides: [2160, 2160, 80, 1]>, none), %R11, %B245 = "arith.mul"(%R9.320, %C0.6931471824645996, %D23) {round_mode = 0} : (memref<1x32x27x80xf32, strides: [2160, 2160, 80, 1]>, f32, none) -> (memref<1x32x27x80xf32, strides: [2160, 2160, 80, 1]>, none), %R11, %B246 = "arith.sub"(%R11.8640, %R11, %D23) {round_mode = 0} : (memref<1x32x27x80xf32, strides: [2160, 2160, 80, 1]>, memref<1x32x27x80xf32, strides: [2160, 2160, 80, 1]>, none) -> (memref<1x32x27x80xf32, strides: [2160, 2160, 80, 1]>, none), %R11.8640, %B247 = "arith.cast"(%R9.320, %D23) {round_mode = 1} : (memref<1x32x27x80xf32, strides: [2160, 2160, 80, 1]>, none) -> (memref<1x32x27x80xsi16, strides: [2176, 2176, 80, 1]>, none), %R9.320, %B248 = "arith.min"(%R11.8640, %C127, %D23) {round_mode = 0} : (memref<1x32x27x80xsi16, strides: [2176, 2176, 80, 1]>, si16, none) -> (memref<1x32x27x80xsi16, strides: [2176, 2176, 80, 1]>, none), %R11.8640, %B249 = "arith.max"(%R9.320, %C-127, %D23) {round_mode = 0} : (memref<1x32x27x80xsi16, strides: [2176, 2176, 80, 1]>, si16, none) -> (memref<1x32x27x80xsi16, strides: [2176, 2176, 80, 1]>, none), %R9.320, %B250 = "arith.adds"(%R11.8640, %C127, %C23, %D23) {round_mode = 1} : (memref<1x32x27x80xsi16, strides: [2176, 2176, 80, 1]>, si16, ui8, none) -> (memref<1x32x27x80xsi32, strides: [2160, 2160, 80, 1]>, none), %R11.8640, %B251 = "sfu.taylor_4x"(%R11, %R12.896, %D23) : (memref<1x32x27x80xf32, strides: [2160, 2160, 80, 1]>, memref<1x32x1x10xf32, strides: [0, 0, 10, 1]>, none) -> (memref<1x32x27x80xf32, strides: [2160, 2160, 80, 1]>, none), %R9.320, %B252 = "arith.mul"(%R11.8640, %R9.320, %D23) {round_mode = 0} : (memref<1x32x27x80xf32, strides: [2160, 2160, 80, 1]>, memref<1x32x27x80xf32, strides: [2160, 2160, 80, 1]>, none) -> (memref<1x32x27x80xf32, strides: [2160, 2160, 80, 1]>, none), %R11, %B253 = "arith.add"(%R9.320, %C1.0, %D23) {round_mode = 0} : (memref<1x32x27x80xf32, strides: [2160, 2160, 80, 1]>, f32, none) -> (memref<1x32x27x80xf32, strides: [2160, 2160, 80, 1]>, none), %R9.320, %B254 = "arith.div"(%C1.0, %R11, %D23) {iter = 3} : (f32, memref<1x32x27x80xf32, strides: [2160, 2160, 80, 1]>, none) -> (memref<1x32x27x80xf32, strides: [2160, 2160, 80, 1]>, none), %R9.320, %B255 = "arith.mul"(%R9.320, %R10, %D23) {round_mode = 0} : (memref<1x32x27x80xf32, strides: [2160, 2160, 80, 1]>, memref<1x32x27x80xf32, strides: [2160, 2160, 80, 1]>, none) -> (memref<1x32x27x80xf32, strides: [2160, 2160, 80, 1]>, none), %R10, %B256 = "conv.normal"(%R9.320, %R15.3392, %R9.10304, %C0.0, %D23) {kernel = [1, 1], stride = [1, 1], in_zero = [0, 0], ke_zero = [0, 0], kernel_rotate = False, pad_mode = 0, pad = [0, 0, 0, 0], res_add = False} : (memref<1x32x27x80xf32, strides: [2160, 2160, 80, 1]>, memref<32x32x1x1xf32>, memref<1x32x1x1xf32, strides: [1, 1, 1, 1]>, f32, none) -> (memref<1x32x27x80xf32, strides: [2160, 2160, 80, 1]>, none), %R12.896, %B257 = "tsbc.s_bc"(%S1024, %D23) : (memref<1x64x1x10xf32>, none) -> (memref<1x64x1x10xf32, strides: [16, 16, 10, 1]>, none), %R11.8640, %B258 = "arith.sub"(%C0.0, %R10, %D23) {round_mode = 0} : (f32, memref<1x32x27x80xf32, strides: [2160, 2160, 80, 1]>, none) -> (memref<1x32x27x80xf32, strides: [2160, 2160, 80, 1]>, none), %R11.8640, %B259 = "arith.max"(%R11.8640, %C-3.4028198694267105e+35, %D23) {round_mode = 0} : (memref<1x32x27x80xf32, strides: [2160, 2160, 80, 1]>, f32, none) -> (memref<1x32x27x80xf32, strides: [2160, 2160, 80, 1]>, none), %R11, %B260 = "arith.mul"(%R11.8640, %C1.4426950216293335, %D23) {round_mode = 0} : (memref<1x32x27x80xf32, strides: [2160, 2160, 80, 1]>, f32, none) -> (memref<1x32x27x80xf32, strides: [2160, 2160, 80, 1]>, none), %R13, %B261 = "arith.cast"(%R11, %D23) {round_mode = 3} : (memref<1x32x27x80xf32, strides: [2160, 2160, 80, 1]>, none) -> (memref<1x32x27x80xf32, strides: [2160, 2160, 80, 1]>, none), %R11, %B262 = "arith.mul"(%R13, %C0.6931471824645996, %D23) {round_mode = 0} : (memref<1x32x27x80xf32, strides: [2160, 2160, 80, 1]>, f32, none) -> (memref<1x32x27x80xf32, strides: [2160, 2160, 80, 1]>, none), %R11, %B263 = "arith.sub"(%R11.8640, %R11, %D23) {round_mode = 0} : (memref<1x32x27x80xf32, strides: [2160, 2160, 80, 1]>, memref<1x32x27x80xf32, strides: [2160, 2160, 80, 1]>, none) -> (memref<1x32x27x80xf32, strides: [2160, 2160, 80, 1]>, none), %R11.8640, %B264 = "arith.cast"(%R13, %D23) {round_mode = 1} : (memref<1x32x27x80xf32, strides: [2160, 2160, 80, 1]>, none) -> (memref<1x32x27x80xsi16, strides: [2176, 2176, 80, 1]>, none), %R13, %B265 = "arith.min"(%R11.8640, %C127, %D23) {round_mode = 0} : (memref<1x32x27x80xsi16, strides: [2176, 2176, 80, 1]>, si16, none) -> (memref<1x32x27x80xsi16, strides: [2176, 2176, 80, 1]>, none), %R11.8640, %B266 = "arith.max"(%R13, %C-127, %D23) {round_mode = 0} : (memref<1x32x27x80xsi16, strides: [2176, 2176, 80, 1]>, si16, none) -> (memref<1x32x27x80xsi16, strides: [2176, 2176, 80, 1]>, none), %R13, %B267 = "arith.adds"(%R11.8640, %C127, %C23, %D23) {round_mode = 1} : (memref<1x32x27x80xsi16, strides: [2176, 2176, 80, 1]>, si16, ui8, none) -> (memref<1x32x27x80xsi32, strides: [2160, 2160, 80, 1]>, none), %R11.8640, %B268 = "sfu.taylor_4x"(%R11, %R12.896, %D23) : (memref<1x32x27x80xf32, strides: [2160, 2160, 80, 1]>, memref<1x32x1x10xf32, strides: [0, 0, 10, 1]>, none) -> (memref<1x32x27x80xf32, strides: [2160, 2160, 80, 1]>, none), %R13, %B269 = "arith.mul"(%R11.8640, %R13, %D23) {round_mode = 0} : (memref<1x32x27x80xf32, strides: [2160, 2160, 80, 1]>, memref<1x32x27x80xf32, strides: [2160, 2160, 80, 1]>, none) -> (memref<1x32x27x80xf32, strides: [2160, 2160, 80, 1]>, none), %R11, %B270 = "arith.add"(%R13, %C1.0, %D23) {round_mode = 0} : (memref<1x32x27x80xf32, strides: [2160, 2160, 80, 1]>, f32, none) -> (memref<1x32x27x80xf32, strides: [2160, 2160, 80, 1]>, none), %R13, %B271 = "arith.div"(%C1.0, %R11, %D23) {iter = 3} : (f32, memref<1x32x27x80xf32, strides: [2160, 2160, 80, 1]>, none) -> (memref<1x32x27x80xf32, strides: [2160, 2160, 80, 1]>, none), %R13, %B272 = "arith.mul"(%R13, %R10, %D23) {round_mode = 0} : (memref<1x32x27x80xf32, strides: [2160, 2160, 80, 1]>, memref<1x32x27x80xf32, strides: [2160, 2160, 80, 1]>, none) -> (memref<1x32x27x80xf32, strides: [2160, 2160, 80, 1]>, none), %G50382016, %D24 = "dma.tensor"(%R9.320, %B256) {decompress = False} : (memref<1x32x27x80xf32, strides: [2160, 2160, 80, 1]>, none) -> (memref<1x32x27x80xf32, strides: [819200, 25600, 160, 1]>, none), %R10, %B273 = "conv.normal"(%R0, %R15.2688, %R9.10176, %C0.0, %D24) {kernel = [6, 6], stride = [2, 2], in_zero = [0, 0], ke_zero = [0, 0], kernel_rotate = False, pad_mode = 0, pad = [0, 0, 2, 0], res_add = False} : (memref<1x3x114x322xf32, strides: [36720, 36720, 322, 1]>, memref<32x3x6x6xf32>, memref<1x32x1x1xf32, strides: [1, 1, 1, 1]>, f32, none) -> (memref<1x32x55x160xf32, strides: [8800, 8800, 160, 1]>, none), %G47105216, %D25 = "dma.tensor"(%R13, %B272) {decompress = False} : (memref<1x32x27x80xf32, strides: [2160, 2160, 80, 1]>, none) -> (memref<1x32x27x80xf32, strides: [819200, 25600, 160, 1]>, none), %R4.4864, %B274 = "tsbc.s_bc"(%S1024, %D25) : (memref<1x64x1x10xf32>, none) -> (memref<1x64x1x10xf32, strides: [16, 16, 10, 1]>, none), %R2.2432, %B275 = "arith.sub"(%C0.0, %R10, %D25) {round_mode = 0} : (f32, memref<1x32x55x160xf32, strides: [8800, 8800, 160, 1]>, none) -> (memref<1x32x55x160xf32, strides: [8800, 8800, 160, 1]>, none), %R2.2432, %B276 = "arith.max"(%R2.2432, %C-3.4028198694267105e+35, %D25) {round_mode = 0} : (memref<1x32x55x160xf32, strides: [8800, 8800, 160, 1]>, f32, none) -> (memref<1x32x55x160xf32, strides: [8800, 8800, 160, 1]>, none), %R0, %B277 = "arith.mul"(%R2.2432, %C1.4426950216293335, %D25) {round_mode = 0} : (memref<1x32x55x160xf32, strides: [8800, 8800, 160, 1]>, f32, none) -> (memref<1x32x55x160xf32, strides: [8800, 8800, 160, 1]>, none), %R13, %B278 = "arith.cast"(%R0, %D25) {round_mode = 3} : (memref<1x32x55x160xf32, strides: [8800, 8800, 160, 1]>, none) -> (memref<1x32x55x160xf32, strides: [8800, 8800, 160, 1]>, none), %R0, %B279 = "arith.mul"(%R13, %C0.6931471824645996, %D25) {round_mode = 0} : (memref<1x32x55x160xf32, strides: [8800, 8800, 160, 1]>, f32, none) -> (memref<1x32x55x160xf32, strides: [8800, 8800, 160, 1]>, none), %R0, %B280 = "arith.sub"(%R2.2432, %R0, %D25) {round_mode = 0} : (memref<1x32x55x160xf32, strides: [8800, 8800, 160, 1]>, memref<1x32x55x160xf32, strides: [8800, 8800, 160, 1]>, none) -> (memref<1x32x55x160xf32, strides: [8800, 8800, 160, 1]>, none), %R2.2432, %B281 = "arith.cast"(%R13, %D25) {round_mode = 1} : (memref<1x32x55x160xf32, strides: [8800, 8800, 160, 1]>, none) -> (memref<1x32x55x160xsi16, strides: [8800, 8800, 160, 1]>, none), %R13, %B282 = "arith.min"(%R2.2432, %C127, %D25) {round_mode = 0} : (memref<1x32x55x160xsi16, strides: [8800, 8800, 160, 1]>, si16, none) -> (memref<1x32x55x160xsi16, strides: [8800, 8800, 160, 1]>, none), %R2.2432, %B283 = "arith.max"(%R13, %C-127, %D25) {round_mode = 0} : (memref<1x32x55x160xsi16, strides: [8800, 8800, 160, 1]>, si16, none) -> (memref<1x32x55x160xsi16, strides: [8800, 8800, 160, 1]>, none), %R13, %B284 = "arith.adds"(%R2.2432, %C127, %C23, %D25) {round_mode = 1} : (memref<1x32x55x160xsi16, strides: [8800, 8800, 160, 1]>, si16, ui8, none) -> (memref<1x32x55x160xsi32, strides: [8800, 8800, 160, 1]>, none), %R2.2432, %B285 = "sfu.taylor_4x"(%R0, %R4.4864, %D25) : (memref<1x32x55x160xf32, strides: [8800, 8800, 160, 1]>, memref<1x32x1x10xf32, strides: [0, 0, 10, 1]>, none) -> (memref<1x32x55x160xf32, strides: [8800, 8800, 160, 1]>, none), %R13, %B286 = "arith.mul"(%R2.2432, %R13, %D25) {round_mode = 0} : (memref<1x32x55x160xf32, strides: [8800, 8800, 160, 1]>, memref<1x32x55x160xf32, strides: [8800, 8800, 160, 1]>, none) -> (memref<1x32x55x160xf32, strides: [8800, 8800, 160, 1]>, none), %R0, %B287 = "arith.add"(%R13, %C1.0, %D25) {round_mode = 0} : (memref<1x32x55x160xf32, strides: [8800, 8800, 160, 1]>, f32, none) -> (memref<1x32x55x160xf32, strides: [8800, 8800, 160, 1]>, none), %R13, %B288 = "arith.div"(%C1.0, %R0, %D25) {iter = 3} : (f32, memref<1x32x55x160xf32, strides: [8800, 8800, 160, 1]>, none) -> (memref<1x32x55x160xf32, strides: [8800, 8800, 160, 1]>, none), %R13, %B289 = "arith.mul"(%R13, %R10, %D25) {round_mode = 0} : (memref<1x32x55x160xf32, strides: [8800, 8800, 160, 1]>, memref<1x32x55x160xf32, strides: [8800, 8800, 160, 1]>, none) -> (memref<1x32x55x160xf32, strides: [8800, 8800, 160, 1]>, none), %R10, %B290 = "conv.normal"(%R13, %R9.8960, %R9.10112, %C0.0, %D25) {kernel = [3, 3], stride = [2, 2], in_zero = [0, 0], ke_zero = [0, 0], kernel_rotate = False, pad_mode = 0, pad = [0, 0, 1, 0], res_add = False} : (memref<1x32x55x160xf32, strides: [8800, 8800, 160, 1]>, memref<64x32x3x3xf32>, memref<1x64x1x1xf32, strides: [1, 1, 1, 1]>, f32, none) -> (memref<1x64x27x80xf32, strides: [2160, 2160, 80, 1]>, none), %R0, %D26 = "dma.tensor"(%G42716400, %B289) {decompress = False} : (memref<1x3x114x324xf32, strides: [1228800, 409600, 640, 1]>, none) -> (memref<1x3x114x324xf32, strides: [36944, 36944, 324, 1]>, none), %R12.896, %B291 = "tsbc.s_bc"(%S1024, %D26) : (memref<1x64x1x10xf32>, none) -> (memref<1x64x1x10xf32, strides: [16, 16, 10, 1]>, none), %R11.8640, %B292 = "arith.sub"(%C0.0, %R10, %D26) {round_mode = 0} : (f32, memref<1x64x27x80xf32, strides: [2160, 2160, 80, 1]>, none) -> (memref<1x64x27x80xf32, strides: [2160, 2160, 80, 1]>, none), %R11.8640, %B293 = "arith.max"(%R11.8640, %C-3.4028198694267105e+35, %D26) {round_mode = 0} : (memref<1x64x27x80xf32, strides: [2160, 2160, 80, 1]>, f32, none) -> (memref<1x64x27x80xf32, strides: [2160, 2160, 80, 1]>, none), %R11, %B294 = "arith.mul"(%R11.8640, %C1.4426950216293335, %D26) {round_mode = 0} : (memref<1x64x27x80xf32, strides: [2160, 2160, 80, 1]>, f32, none) -> (memref<1x64x27x80xf32, strides: [2160, 2160, 80, 1]>, none), %R9.320, %B295 = "arith.cast"(%R11, %D26) {round_mode = 3} : (memref<1x64x27x80xf32, strides: [2160, 2160, 80, 1]>, none) -> (memref<1x64x27x80xf32, strides: [2160, 2160, 80, 1]>, none), %R11, %B296 = "arith.mul"(%R9.320, %C0.6931471824645996, %D26) {round_mode = 0} : (memref<1x64x27x80xf32, strides: [2160, 2160, 80, 1]>, f32, none) -> (memref<1x64x27x80xf32, strides: [2160, 2160, 80, 1]>, none), %R11, %B297 = "arith.sub"(%R11.8640, %R11, %D26) {round_mode = 0} : (memref<1x64x27x80xf32, strides: [2160, 2160, 80, 1]>, memref<1x64x27x80xf32, strides: [2160, 2160, 80, 1]>, none) -> (memref<1x64x27x80xf32, strides: [2160, 2160, 80, 1]>, none), %R11.8640, %B298 = "arith.cast"(%R9.320, %D26) {round_mode = 1} : (memref<1x64x27x80xf32, strides: [2160, 2160, 80, 1]>, none) -> (memref<1x64x27x80xsi16, strides: [2176, 2176, 80, 1]>, none), %R9.320, %B299 = "arith.min"(%R11.8640, %C127, %D26) {round_mode = 0} : (memref<1x64x27x80xsi16, strides: [2176, 2176, 80, 1]>, si16, none) -> (memref<1x64x27x80xsi16, strides: [2176, 2176, 80, 1]>, none), %R11.8640, %B300 = "arith.max"(%R9.320, %C-127, %D26) {round_mode = 0} : (memref<1x64x27x80xsi16, strides: [2176, 2176, 80, 1]>, si16, none) -> (memref<1x64x27x80xsi16, strides: [2176, 2176, 80, 1]>, none), %R9.320, %B301 = "arith.adds"(%R11.8640, %C127, %C23, %D26) {round_mode = 1} : (memref<1x64x27x80xsi16, strides: [2176, 2176, 80, 1]>, si16, ui8, none) -> (memref<1x64x27x80xsi32, strides: [2160, 2160, 80, 1]>, none), %R11.8640, %B302 = "sfu.taylor_4x"(%R11, %R12.896, %D26) : (memref<1x64x27x80xf32, strides: [2160, 2160, 80, 1]>, memref<1x64x1x10xf32, strides: [0, 0, 10, 1]>, none) -> (memref<1x64x27x80xf32, strides: [2160, 2160, 80, 1]>, none), %R9.320, %B303 = "arith.mul"(%R11.8640, %R9.320, %D26) {round_mode = 0} : (memref<1x64x27x80xf32, strides: [2160, 2160, 80, 1]>, memref<1x64x27x80xf32, strides: [2160, 2160, 80, 1]>, none) -> (memref<1x64x27x80xf32, strides: [2160, 2160, 80, 1]>, none), %R11, %B304 = "arith.add"(%R9.320, %C1.0, %D26) {round_mode = 0} : (memref<1x64x27x80xf32, strides: [2160, 2160, 80, 1]>, f32, none) -> (memref<1x64x27x80xf32, strides: [2160, 2160, 80, 1]>, none), %R9.320, %B305 = "arith.div"(%C1.0, %R11, %D26) {iter = 3} : (f32, memref<1x64x27x80xf32, strides: [2160, 2160, 80, 1]>, none) -> (memref<1x64x27x80xf32, strides: [2160, 2160, 80, 1]>, none), %R9.320, %B306 = "arith.mul"(%R9.320, %R10, %D26) {round_mode = 0} : (memref<1x64x27x80xf32, strides: [2160, 2160, 80, 1]>, memref<1x64x27x80xf32, strides: [2160, 2160, 80, 1]>, none) -> (memref<1x64x27x80xf32, strides: [2160, 2160, 80, 1]>, none), %R10, %B307 = "conv.normal"(%R9.320, %R15.3136, %R9.10240, %C0.0, %D26) {kernel = [1, 1], stride = [1, 1], in_zero = [0, 0], ke_zero = [0, 0], kernel_rotate = False, pad_mode = 0, pad = [0, 0, 0, 0], res_add = False} : (memref<1x64x27x80xf32, strides: [2160, 2160, 80, 1]>, memref<32x64x1x1xf32>, memref<1x32x1x1xf32, strides: [1, 1, 1, 1]>, f32, none) -> (memref<1x32x27x80xf32, strides: [2160, 2160, 80, 1]>, none), %G29148928, %D27 = "dma.tensor"(%R9.320, %B306) {decompress = False} : (memref<1x64x27x80xf32, strides: [2160, 2160, 80, 1]>, none) -> (memref<1x64x27x80xf32, strides: [1638400, 25600, 160, 1]>, none), %R12.896, %B308 = "tsbc.s_bc"(%S1024, %D27) : (memref<1x64x1x10xf32>, none) -> (memref<1x64x1x10xf32, strides: [16, 16, 10, 1]>, none), %R11.8640, %B309 = "arith.sub"(%C0.0, %R10, %D27) {round_mode = 0} : (f32, memref<1x32x27x80xf32, strides: [2160, 2160, 80, 1]>, none) -> (memref<1x32x27x80xf32, strides: [2160, 2160, 80, 1]>, none), %R11.8640, %B310 = "arith.max"(%R11.8640, %C-3.4028198694267105e+35, %D27) {round_mode = 0} : (memref<1x32x27x80xf32, strides: [2160, 2160, 80, 1]>, f32, none) -> (memref<1x32x27x80xf32, strides: [2160, 2160, 80, 1]>, none), %R11, %B311 = "arith.mul"(%R11.8640, %C1.4426950216293335, %D27) {round_mode = 0} : (memref<1x32x27x80xf32, strides: [2160, 2160, 80, 1]>, f32, none) -> (memref<1x32x27x80xf32, strides: [2160, 2160, 80, 1]>, none), %R9.320, %B312 = "arith.cast"(%R11, %D27) {round_mode = 3} : (memref<1x32x27x80xf32, strides: [2160, 2160, 80, 1]>, none) -> (memref<1x32x27x80xf32, strides: [2160, 2160, 80, 1]>, none), %R11, %B313 = "arith.mul"(%R9.320, %C0.6931471824645996, %D27) {round_mode = 0} : (memref<1x32x27x80xf32, strides: [2160, 2160, 80, 1]>, f32, none) -> (memref<1x32x27x80xf32, strides: [2160, 2160, 80, 1]>, none), %R11, %B314 = "arith.sub"(%R11.8640, %R11, %D27) {round_mode = 0} : (memref<1x32x27x80xf32, strides: [2160, 2160, 80, 1]>, memref<1x32x27x80xf32, strides: [2160, 2160, 80, 1]>, none) -> (memref<1x32x27x80xf32, strides: [2160, 2160, 80, 1]>, none), %R11.8640, %B315 = "arith.cast"(%R9.320, %D27) {round_mode = 1} : (memref<1x32x27x80xf32, strides: [2160, 2160, 80, 1]>, none) -> (memref<1x32x27x80xsi16, strides: [2176, 2176, 80, 1]>, none), %R9.320, %B316 = "arith.min"(%R11.8640, %C127, %D27) {round_mode = 0} : (memref<1x32x27x80xsi16, strides: [2176, 2176, 80, 1]>, si16, none) -> (memref<1x32x27x80xsi16, strides: [2176, 2176, 80, 1]>, none), %R11.8640, %B317 = "arith.max"(%R9.320, %C-127, %D27) {round_mode = 0} : (memref<1x32x27x80xsi16, strides: [2176, 2176, 80, 1]>, si16, none) -> (memref<1x32x27x80xsi16, strides: [2176, 2176, 80, 1]>, none), %R9.320, %B318 = "arith.adds"(%R11.8640, %C127, %C23, %D27) {round_mode = 1} : (memref<1x32x27x80xsi16, strides: [2176, 2176, 80, 1]>, si16, ui8, none) -> (memref<1x32x27x80xsi32, strides: [2160, 2160, 80, 1]>, none), %R11.8640, %B319 = "sfu.taylor_4x"(%R11, %R12.896, %D27) : (memref<1x32x27x80xf32, strides: [2160, 2160, 80, 1]>, memref<1x32x1x10xf32, strides: [0, 0, 10, 1]>, none) -> (memref<1x32x27x80xf32, strides: [2160, 2160, 80, 1]>, none), %R9.320, %B320 = "arith.mul"(%R11.8640, %R9.320, %D27) {round_mode = 0} : (memref<1x32x27x80xf32, strides: [2160, 2160, 80, 1]>, memref<1x32x27x80xf32, strides: [2160, 2160, 80, 1]>, none) -> (memref<1x32x27x80xf32, strides: [2160, 2160, 80, 1]>, none), %R11, %B321 = "arith.add"(%R9.320, %C1.0, %D27) {round_mode = 0} : (memref<1x32x27x80xf32, strides: [2160, 2160, 80, 1]>, f32, none) -> (memref<1x32x27x80xf32, strides: [2160, 2160, 80, 1]>, none), %R9.320, %B322 = "arith.div"(%C1.0, %R11, %D27) {iter = 3} : (f32, memref<1x32x27x80xf32, strides: [2160, 2160, 80, 1]>, none) -> (memref<1x32x27x80xf32, strides: [2160, 2160, 80, 1]>, none), %R9.320, %B323 = "arith.mul"(%R9.320, %R10, %D27) {round_mode = 0} : (memref<1x32x27x80xf32, strides: [2160, 2160, 80, 1]>, memref<1x32x27x80xf32, strides: [2160, 2160, 80, 1]>, none) -> (memref<1x32x27x80xf32, strides: [2160, 2160, 80, 1]>, none), %R10, %B324 = "conv.normal"(%R9.320, %R15.3392, %R9.10304, %C0.0, %D27) {kernel = [1, 1], stride = [1, 1], in_zero = [0, 0], ke_zero = [0, 0], kernel_rotate = False, pad_mode = 0, pad = [0, 0, 0, 0], res_add = False} : (memref<1x32x27x80xf32, strides: [2160, 2160, 80, 1]>, memref<32x32x1x1xf32>, memref<1x32x1x1xf32, strides: [1, 1, 1, 1]>, f32, none) -> (memref<1x32x27x80xf32, strides: [2160, 2160, 80, 1]>, none), %R12.896, %B325 = "tsbc.s_bc"(%S1024, %D27) : (memref<1x64x1x10xf32>, none) -> (memref<1x64x1x10xf32, strides: [16, 16, 10, 1]>, none), %R11.8640, %B326 = "arith.sub"(%C0.0, %R10, %D27) {round_mode = 0} : (f32, memref<1x32x27x80xf32, strides: [2160, 2160, 80, 1]>, none) -> (memref<1x32x27x80xf32, strides: [2160, 2160, 80, 1]>, none), %R11.8640, %B327 = "arith.max"(%R11.8640, %C-3.4028198694267105e+35, %D27) {round_mode = 0} : (memref<1x32x27x80xf32, strides: [2160, 2160, 80, 1]>, f32, none) -> (memref<1x32x27x80xf32, strides: [2160, 2160, 80, 1]>, none), %R11, %B328 = "arith.mul"(%R11.8640, %C1.4426950216293335, %D27) {round_mode = 0} : (memref<1x32x27x80xf32, strides: [2160, 2160, 80, 1]>, f32, none) -> (memref<1x32x27x80xf32, strides: [2160, 2160, 80, 1]>, none), %R13, %B329 = "arith.cast"(%R11, %D27) {round_mode = 3} : (memref<1x32x27x80xf32, strides: [2160, 2160, 80, 1]>, none) -> (memref<1x32x27x80xf32, strides: [2160, 2160, 80, 1]>, none), %R11, %B330 = "arith.mul"(%R13, %C0.6931471824645996, %D27) {round_mode = 0} : (memref<1x32x27x80xf32, strides: [2160, 2160, 80, 1]>, f32, none) -> (memref<1x32x27x80xf32, strides: [2160, 2160, 80, 1]>, none), %R11, %B331 = "arith.sub"(%R11.8640, %R11, %D27) {round_mode = 0} : (memref<1x32x27x80xf32, strides: [2160, 2160, 80, 1]>, memref<1x32x27x80xf32, strides: [2160, 2160, 80, 1]>, none) -> (memref<1x32x27x80xf32, strides: [2160, 2160, 80, 1]>, none), %R11.8640, %B332 = "arith.cast"(%R13, %D27) {round_mode = 1} : (memref<1x32x27x80xf32, strides: [2160, 2160, 80, 1]>, none) -> (memref<1x32x27x80xsi16, strides: [2176, 2176, 80, 1]>, none), %R13, %B333 = "arith.min"(%R11.8640, %C127, %D27) {round_mode = 0} : (memref<1x32x27x80xsi16, strides: [2176, 2176, 80, 1]>, si16, none) -> (memref<1x32x27x80xsi16, strides: [2176, 2176, 80, 1]>, none), %R11.8640, %B334 = "arith.max"(%R13, %C-127, %D27) {round_mode = 0} : (memref<1x32x27x80xsi16, strides: [2176, 2176, 80, 1]>, si16, none) -> (memref<1x32x27x80xsi16, strides: [2176, 2176, 80, 1]>, none), %R13, %B335 = "arith.adds"(%R11.8640, %C127, %C23, %D27) {round_mode = 1} : (memref<1x32x27x80xsi16, strides: [2176, 2176, 80, 1]>, si16, ui8, none) -> (memref<1x32x27x80xsi32, strides: [2160, 2160, 80, 1]>, none), %R11.8640, %B336 = "sfu.taylor_4x"(%R11, %R12.896, %D27) : (memref<1x32x27x80xf32, strides: [2160, 2160, 80, 1]>, memref<1x32x1x10xf32, strides: [0, 0, 10, 1]>, none) -> (memref<1x32x27x80xf32, strides: [2160, 2160, 80, 1]>, none), %R13, %B337 = "arith.mul"(%R11.8640, %R13, %D27) {round_mode = 0} : (memref<1x32x27x80xf32, strides: [2160, 2160, 80, 1]>, memref<1x32x27x80xf32, strides: [2160, 2160, 80, 1]>, none) -> (memref<1x32x27x80xf32, strides: [2160, 2160, 80, 1]>, none), %R11, %B338 = "arith.add"(%R13, %C1.0, %D27) {round_mode = 0} : (memref<1x32x27x80xf32, strides: [2160, 2160, 80, 1]>, f32, none) -> (memref<1x32x27x80xf32, strides: [2160, 2160, 80, 1]>, none), %R13, %B339 = "arith.div"(%C1.0, %R11, %D27) {iter = 3} : (f32, memref<1x32x27x80xf32, strides: [2160, 2160, 80, 1]>, none) -> (memref<1x32x27x80xf32, strides: [2160, 2160, 80, 1]>, none), %R13, %B340 = "arith.mul"(%R13, %R10, %D27) {round_mode = 0} : (memref<1x32x27x80xf32, strides: [2160, 2160, 80, 1]>, memref<1x32x27x80xf32, strides: [2160, 2160, 80, 1]>, none) -> (memref<1x32x27x80xf32, strides: [2160, 2160, 80, 1]>, none), %G50398976, %D28 = "dma.tensor"(%R9.320, %B324) {decompress = False} : (memref<1x32x27x80xf32, strides: [2160, 2160, 80, 1]>, none) -> (memref<1x32x27x80xf32, strides: [819200, 25600, 160, 1]>, none), %R10, %B341 = "conv.normal"(%R0, %R15.2688, %R9.10176, %C0.0, %D28) {kernel = [6, 6], stride = [2, 2], in_zero = [0, 0], ke_zero = [0, 0], kernel_rotate = False, pad_mode = 0, pad = [0, 0, 0, 2], res_add = False} : (memref<1x3x114x324xf32, strides: [36944, 36944, 324, 1]>, memref<32x3x6x6xf32>, memref<1x32x1x1xf32, strides: [1, 1, 1, 1]>, f32, none) -> (memref<1x32x55x161xf32, strides: [8864, 8864, 161, 1]>, none), %G47122176, %D29 = "dma.tensor"(%R13, %B340) {decompress = False} : (memref<1x32x27x80xf32, strides: [2160, 2160, 80, 1]>, none) -> (memref<1x32x27x80xf32, strides: [819200, 25600, 160, 1]>, none), %R4.5376, %B342 = "tsbc.s_bc"(%S1024, %D29) : (memref<1x64x1x10xf32>, none) -> (memref<1x64x1x10xf32, strides: [16, 16, 10, 1]>, none), %R2.2688, %B343 = "arith.sub"(%C0.0, %R10, %D29) {round_mode = 0} : (f32, memref<1x32x55x161xf32, strides: [8864, 8864, 161, 1]>, none) -> (memref<1x32x55x161xf32, strides: [8864, 8864, 161, 1]>, none), %R2.2688, %B344 = "arith.max"(%R2.2688, %C-3.4028198694267105e+35, %D29) {round_mode = 0} : (memref<1x32x55x161xf32, strides: [8864, 8864, 161, 1]>, f32, none) -> (memref<1x32x55x161xf32, strides: [8864, 8864, 161, 1]>, none), %R0, %B345 = "arith.mul"(%R2.2688, %C1.4426950216293335, %D29) {round_mode = 0} : (memref<1x32x55x161xf32, strides: [8864, 8864, 161, 1]>, f32, none) -> (memref<1x32x55x161xf32, strides: [8864, 8864, 161, 1]>, none), %R13, %B346 = "arith.cast"(%R0, %D29) {round_mode = 3} : (memref<1x32x55x161xf32, strides: [8864, 8864, 161, 1]>, none) -> (memref<1x32x55x161xf32, strides: [8864, 8864, 161, 1]>, none), %R0, %B347 = "arith.mul"(%R13, %C0.6931471824645996, %D29) {round_mode = 0} : (memref<1x32x55x161xf32, strides: [8864, 8864, 161, 1]>, f32, none) -> (memref<1x32x55x161xf32, strides: [8864, 8864, 161, 1]>, none), %R0, %B348 = "arith.sub"(%R2.2688, %R0, %D29) {round_mode = 0} : (memref<1x32x55x161xf32, strides: [8864, 8864, 161, 1]>, memref<1x32x55x161xf32, strides: [8864, 8864, 161, 1]>, none) -> (memref<1x32x55x161xf32, strides: [8864, 8864, 161, 1]>, none), %R2.2688, %B349 = "arith.cast"(%R13, %D29) {round_mode = 1} : (memref<1x32x55x161xf32, strides: [8864, 8864, 161, 1]>, none) -> (memref<1x32x55x161xsi16, strides: [8864, 8864, 161, 1]>, none), %R13, %B350 = "arith.min"(%R2.2688, %C127, %D29) {round_mode = 0} : (memref<1x32x55x161xsi16, strides: [8864, 8864, 161, 1]>, si16, none) -> (memref<1x32x55x161xsi16, strides: [8864, 8864, 161, 1]>, none), %R2.2688, %B351 = "arith.max"(%R13, %C-127, %D29) {round_mode = 0} : (memref<1x32x55x161xsi16, strides: [8864, 8864, 161, 1]>, si16, none) -> (memref<1x32x55x161xsi16, strides: [8864, 8864, 161, 1]>, none), %R13, %B352 = "arith.adds"(%R2.2688, %C127, %C23, %D29) {round_mode = 1} : (memref<1x32x55x161xsi16, strides: [8864, 8864, 161, 1]>, si16, ui8, none) -> (memref<1x32x55x161xsi32, strides: [8864, 8864, 161, 1]>, none), %R2.2688, %B353 = "sfu.taylor_4x"(%R0, %R4.5376, %D29) : (memref<1x32x55x161xf32, strides: [8864, 8864, 161, 1]>, memref<1x32x1x10xf32, strides: [0, 0, 10, 1]>, none) -> (memref<1x32x55x161xf32, strides: [8864, 8864, 161, 1]>, none), %R13, %B354 = "arith.mul"(%R2.2688, %R13, %D29) {round_mode = 0} : (memref<1x32x55x161xf32, strides: [8864, 8864, 161, 1]>, memref<1x32x55x161xf32, strides: [8864, 8864, 161, 1]>, none) -> (memref<1x32x55x161xf32, strides: [8864, 8864, 161, 1]>, none), %R0, %B355 = "arith.add"(%R13, %C1.0, %D29) {round_mode = 0} : (memref<1x32x55x161xf32, strides: [8864, 8864, 161, 1]>, f32, none) -> (memref<1x32x55x161xf32, strides: [8864, 8864, 161, 1]>, none), %R13, %B356 = "arith.div"(%C1.0, %R0, %D29) {iter = 3} : (f32, memref<1x32x55x161xf32, strides: [8864, 8864, 161, 1]>, none) -> (memref<1x32x55x161xf32, strides: [8864, 8864, 161, 1]>, none), %R13, %B357 = "arith.mul"(%R13, %R10, %D29) {round_mode = 0} : (memref<1x32x55x161xf32, strides: [8864, 8864, 161, 1]>, memref<1x32x55x161xf32, strides: [8864, 8864, 161, 1]>, none) -> (memref<1x32x55x161xf32, strides: [8864, 8864, 161, 1]>, none), %R10, %B358 = "conv.normal"(%R13, %R9.8960, %R9.10112, %C0.0, %D29) {kernel = [3, 3], stride = [2, 2], in_zero = [0, 0], ke_zero = [0, 0], kernel_rotate = False, pad_mode = 0, pad = [0, 0, 0, 1], res_add = False} : (memref<1x32x55x161xf32, strides: [8864, 8864, 161, 1]>, memref<64x32x3x3xf32>, memref<1x64x1x1xf32, strides: [1, 1, 1, 1]>, f32, none) -> (memref<1x64x27x80xf32, strides: [2160, 2160, 80, 1]>, none), %R0, %D30 = "dma.tensor"(%G42991616, %B357) {decompress = False} : (memref<1x3x114x322xf32, strides: [1228800, 409600, 640, 1]>, none) -> (memref<1x3x114x322xf32, strides: [36720, 36720, 322, 1]>, none), %R12.896, %B359 = "tsbc.s_bc"(%S1024, %D30) : (memref<1x64x1x10xf32>, none) -> (memref<1x64x1x10xf32, strides: [16, 16, 10, 1]>, none), %R11.8640, %B360 = "arith.sub"(%C0.0, %R10, %D30) {round_mode = 0} : (f32, memref<1x64x27x80xf32, strides: [2160, 2160, 80, 1]>, none) -> (memref<1x64x27x80xf32, strides: [2160, 2160, 80, 1]>, none), %R11.8640, %B361 = "arith.max"(%R11.8640, %C-3.4028198694267105e+35, %D30) {round_mode = 0} : (memref<1x64x27x80xf32, strides: [2160, 2160, 80, 1]>, f32, none) -> (memref<1x64x27x80xf32, strides: [2160, 2160, 80, 1]>, none), %R11, %B362 = "arith.mul"(%R11.8640, %C1.4426950216293335, %D30) {round_mode = 0} : (memref<1x64x27x80xf32, strides: [2160, 2160, 80, 1]>, f32, none) -> (memref<1x64x27x80xf32, strides: [2160, 2160, 80, 1]>, none), %R9.320, %B363 = "arith.cast"(%R11, %D30) {round_mode = 3} : (memref<1x64x27x80xf32, strides: [2160, 2160, 80, 1]>, none) -> (memref<1x64x27x80xf32, strides: [2160, 2160, 80, 1]>, none), %R11, %B364 = "arith.mul"(%R9.320, %C0.6931471824645996, %D30) {round_mode = 0} : (memref<1x64x27x80xf32, strides: [2160, 2160, 80, 1]>, f32, none) -> (memref<1x64x27x80xf32, strides: [2160, 2160, 80, 1]>, none), %R11, %B365 = "arith.sub"(%R11.8640, %R11, %D30) {round_mode = 0} : (memref<1x64x27x80xf32, strides: [2160, 2160, 80, 1]>, memref<1x64x27x80xf32, strides: [2160, 2160, 80, 1]>, none) -> (memref<1x64x27x80xf32, strides: [2160, 2160, 80, 1]>, none), %R11.8640, %B366 = "arith.cast"(%R9.320, %D30) {round_mode = 1} : (memref<1x64x27x80xf32, strides: [2160, 2160, 80, 1]>, none) -> (memref<1x64x27x80xsi16, strides: [2176, 2176, 80, 1]>, none), %R9.320, %B367 = "arith.min"(%R11.8640, %C127, %D30) {round_mode = 0} : (memref<1x64x27x80xsi16, strides: [2176, 2176, 80, 1]>, si16, none) -> (memref<1x64x27x80xsi16, strides: [2176, 2176, 80, 1]>, none), %R11.8640, %B368 = "arith.max"(%R9.320, %C-127, %D30) {round_mode = 0} : (memref<1x64x27x80xsi16, strides: [2176, 2176, 80, 1]>, si16, none) -> (memref<1x64x27x80xsi16, strides: [2176, 2176, 80, 1]>, none), %R9.320, %B369 = "arith.adds"(%R11.8640, %C127, %C23, %D30) {round_mode = 1} : (memref<1x64x27x80xsi16, strides: [2176, 2176, 80, 1]>, si16, ui8, none) -> (memref<1x64x27x80xsi32, strides: [2160, 2160, 80, 1]>, none), %R11.8640, %B370 = "sfu.taylor_4x"(%R11, %R12.896, %D30) : (memref<1x64x27x80xf32, strides: [2160, 2160, 80, 1]>, memref<1x64x1x10xf32, strides: [0, 0, 10, 1]>, none) -> (memref<1x64x27x80xf32, strides: [2160, 2160, 80, 1]>, none), %R9.320, %B371 = "arith.mul"(%R11.8640, %R9.320, %D30) {round_mode = 0} : (memref<1x64x27x80xf32, strides: [2160, 2160, 80, 1]>, memref<1x64x27x80xf32, strides: [2160, 2160, 80, 1]>, none) -> (memref<1x64x27x80xf32, strides: [2160, 2160, 80, 1]>, none), %R11, %B372 = "arith.add"(%R9.320, %C1.0, %D30) {round_mode = 0} : (memref<1x64x27x80xf32, strides: [2160, 2160, 80, 1]>, f32, none) -> (memref<1x64x27x80xf32, strides: [2160, 2160, 80, 1]>, none), %R9.320, %B373 = "arith.div"(%C1.0, %R11, %D30) {iter = 3} : (f32, memref<1x64x27x80xf32, strides: [2160, 2160, 80, 1]>, none) -> (memref<1x64x27x80xf32, strides: [2160, 2160, 80, 1]>, none), %R9.320, %B374 = "arith.mul"(%R9.320, %R10, %D30) {round_mode = 0} : (memref<1x64x27x80xf32, strides: [2160, 2160, 80, 1]>, memref<1x64x27x80xf32, strides: [2160, 2160, 80, 1]>, none) -> (memref<1x64x27x80xf32, strides: [2160, 2160, 80, 1]>, none), %R10, %B375 = "conv.normal"(%R9.320, %R15.3136, %R9.10240, %C0.0, %D30) {kernel = [1, 1], stride = [1, 1], in_zero = [0, 0], ke_zero = [0, 0], kernel_rotate = False, pad_mode = 0, pad = [0, 0, 0, 0], res_add = False} : (memref<1x64x27x80xf32, strides: [2160, 2160, 80, 1]>, memref<32x64x1x1xf32>, memref<1x32x1x1xf32, strides: [1, 1, 1, 1]>, f32, none) -> (memref<1x32x27x80xf32, strides: [2160, 2160, 80, 1]>, none), %G29149248, %D31 = "dma.tensor"(%R9.320, %B374) {decompress = False} : (memref<1x64x27x80xf32, strides: [2160, 2160, 80, 1]>, none) -> (memref<1x64x27x80xf32, strides: [1638400, 25600, 160, 1]>, none), %R12.896, %B376 = "tsbc.s_bc"(%S1024, %D31) : (memref<1x64x1x10xf32>, none) -> (memref<1x64x1x10xf32, strides: [16, 16, 10, 1]>, none), %R11.8640, %B377 = "arith.sub"(%C0.0, %R10, %D31) {round_mode = 0} : (f32, memref<1x32x27x80xf32, strides: [2160, 2160, 80, 1]>, none) -> (memref<1x32x27x80xf32, strides: [2160, 2160, 80, 1]>, none), %R11.8640, %B378 = "arith.max"(%R11.8640, %C-3.4028198694267105e+35, %D31) {round_mode = 0} : (memref<1x32x27x80xf32, strides: [2160, 2160, 80, 1]>, f32, none) -> (memref<1x32x27x80xf32, strides: [2160, 2160, 80, 1]>, none), %R11, %B379 = "arith.mul"(%R11.8640, %C1.4426950216293335, %D31) {round_mode = 0} : (memref<1x32x27x80xf32, strides: [2160, 2160, 80, 1]>, f32, none) -> (memref<1x32x27x80xf32, strides: [2160, 2160, 80, 1]>, none), %R9.320, %B380 = "arith.cast"(%R11, %D31) {round_mode = 3} : (memref<1x32x27x80xf32, strides: [2160, 2160, 80, 1]>, none) -> (memref<1x32x27x80xf32, strides: [2160, 2160, 80, 1]>, none), %R11, %B381 = "arith.mul"(%R9.320, %C0.6931471824645996, %D31) {round_mode = 0} : (memref<1x32x27x80xf32, strides: [2160, 2160, 80, 1]>, f32, none) -> (memref<1x32x27x80xf32, strides: [2160, 2160, 80, 1]>, none), %R11, %B382 = "arith.sub"(%R11.8640, %R11, %D31) {round_mode = 0} : (memref<1x32x27x80xf32, strides: [2160, 2160, 80, 1]>, memref<1x32x27x80xf32, strides: [2160, 2160, 80, 1]>, none) -> (memref<1x32x27x80xf32, strides: [2160, 2160, 80, 1]>, none), %R11.8640, %B383 = "arith.cast"(%R9.320, %D31) {round_mode = 1} : (memref<1x32x27x80xf32, strides: [2160, 2160, 80, 1]>, none) -> (memref<1x32x27x80xsi16, strides: [2176, 2176, 80, 1]>, none), %R9.320, %B384 = "arith.min"(%R11.8640, %C127, %D31) {round_mode = 0} : (memref<1x32x27x80xsi16, strides: [2176, 2176, 80, 1]>, si16, none) -> (memref<1x32x27x80xsi16, strides: [2176, 2176, 80, 1]>, none), %R11.8640, %B385 = "arith.max"(%R9.320, %C-127, %D31) {round_mode = 0} : (memref<1x32x27x80xsi16, strides: [2176, 2176, 80, 1]>, si16, none) -> (memref<1x32x27x80xsi16, strides: [2176, 2176, 80, 1]>, none), %R9.320, %B386 = "arith.adds"(%R11.8640, %C127, %C23, %D31) {round_mode = 1} : (memref<1x32x27x80xsi16, strides: [2176, 2176, 80, 1]>, si16, ui8, none) -> (memref<1x32x27x80xsi32, strides: [2160, 2160, 80, 1]>, none), %R11.8640, %B387 = "sfu.taylor_4x"(%R11, %R12.896, %D31) : (memref<1x32x27x80xf32, strides: [2160, 2160, 80, 1]>, memref<1x32x1x10xf32, strides: [0, 0, 10, 1]>, none) -> (memref<1x32x27x80xf32, strides: [2160, 2160, 80, 1]>, none), %R9.320, %B388 = "arith.mul"(%R11.8640, %R9.320, %D31) {round_mode = 0} : (memref<1x32x27x80xf32, strides: [2160, 2160, 80, 1]>, memref<1x32x27x80xf32, strides: [2160, 2160, 80, 1]>, none) -> (memref<1x32x27x80xf32, strides: [2160, 2160, 80, 1]>, none), %R11, %B389 = "arith.add"(%R9.320, %C1.0, %D31) {round_mode = 0} : (memref<1x32x27x80xf32, strides: [2160, 2160, 80, 1]>, f32, none) -> (memref<1x32x27x80xf32, strides: [2160, 2160, 80, 1]>, none), %R9.320, %B390 = "arith.div"(%C1.0, %R11, %D31) {iter = 3} : (f32, memref<1x32x27x80xf32, strides: [2160, 2160, 80, 1]>, none) -> (memref<1x32x27x80xf32, strides: [2160, 2160, 80, 1]>, none), %R9.320, %B391 = "arith.mul"(%R9.320, %R10, %D31) {round_mode = 0} : (memref<1x32x27x80xf32, strides: [2160, 2160, 80, 1]>, memref<1x32x27x80xf32, strides: [2160, 2160, 80, 1]>, none) -> (memref<1x32x27x80xf32, strides: [2160, 2160, 80, 1]>, none), %R10, %B392 = "conv.normal"(%R9.320, %R15.3392, %R9.10304, %C0.0, %D31) {kernel = [1, 1], stride = [1, 1], in_zero = [0, 0], ke_zero = [0, 0], kernel_rotate = False, pad_mode = 0, pad = [0, 0, 0, 0], res_add = False} : (memref<1x32x27x80xf32, strides: [2160, 2160, 80, 1]>, memref<32x32x1x1xf32>, memref<1x32x1x1xf32, strides: [1, 1, 1, 1]>, f32, none) -> (memref<1x32x27x80xf32, strides: [2160, 2160, 80, 1]>, none), %R12.896, %B393 = "tsbc.s_bc"(%S1024, %D31) : (memref<1x64x1x10xf32>, none) -> (memref<1x64x1x10xf32, strides: [16, 16, 10, 1]>, none), %R11.8640, %B394 = "arith.sub"(%C0.0, %R10, %D31) {round_mode = 0} : (f32, memref<1x32x27x80xf32, strides: [2160, 2160, 80, 1]>, none) -> (memref<1x32x27x80xf32, strides: [2160, 2160, 80, 1]>, none), %R11.8640, %B395 = "arith.max"(%R11.8640, %C-3.4028198694267105e+35, %D31) {round_mode = 0} : (memref<1x32x27x80xf32, strides: [2160, 2160, 80, 1]>, f32, none) -> (memref<1x32x27x80xf32, strides: [2160, 2160, 80, 1]>, none), %R11, %B396 = "arith.mul"(%R11.8640, %C1.4426950216293335, %D31) {round_mode = 0} : (memref<1x32x27x80xf32, strides: [2160, 2160, 80, 1]>, f32, none) -> (memref<1x32x27x80xf32, strides: [2160, 2160, 80, 1]>, none), %R13, %B397 = "arith.cast"(%R11, %D31) {round_mode = 3} : (memref<1x32x27x80xf32, strides: [2160, 2160, 80, 1]>, none) -> (memref<1x32x27x80xf32, strides: [2160, 2160, 80, 1]>, none), %R11, %B398 = "arith.mul"(%R13, %C0.6931471824645996, %D31) {round_mode = 0} : (memref<1x32x27x80xf32, strides: [2160, 2160, 80, 1]>, f32, none) -> (memref<1x32x27x80xf32, strides: [2160, 2160, 80, 1]>, none), %R11, %B399 = "arith.sub"(%R11.8640, %R11, %D31) {round_mode = 0} : (memref<1x32x27x80xf32, strides: [2160, 2160, 80, 1]>, memref<1x32x27x80xf32, strides: [2160, 2160, 80, 1]>, none) -> (memref<1x32x27x80xf32, strides: [2160, 2160, 80, 1]>, none), %R11.8640, %B400 = "arith.cast"(%R13, %D31) {round_mode = 1} : (memref<1x32x27x80xf32, strides: [2160, 2160, 80, 1]>, none) -> (memref<1x32x27x80xsi16, strides: [2176, 2176, 80, 1]>, none), %R13, %B401 = "arith.min"(%R11.8640, %C127, %D31) {round_mode = 0} : (memref<1x32x27x80xsi16, strides: [2176, 2176, 80, 1]>, si16, none) -> (memref<1x32x27x80xsi16, strides: [2176, 2176, 80, 1]>, none), %R11.8640, %B402 = "arith.max"(%R13, %C-127, %D31) {round_mode = 0} : (memref<1x32x27x80xsi16, strides: [2176, 2176, 80, 1]>, si16, none) -> (memref<1x32x27x80xsi16, strides: [2176, 2176, 80, 1]>, none), %R13, %B403 = "arith.adds"(%R11.8640, %C127, %C23, %D31) {round_mode = 1} : (memref<1x32x27x80xsi16, strides: [2176, 2176, 80, 1]>, si16, ui8, none) -> (memref<1x32x27x80xsi32, strides: [2160, 2160, 80, 1]>, none), %R11.8640, %B404 = "sfu.taylor_4x"(%R11, %R12.896, %D31) : (memref<1x32x27x80xf32, strides: [2160, 2160, 80, 1]>, memref<1x32x1x10xf32, strides: [0, 0, 10, 1]>, none) -> (memref<1x32x27x80xf32, strides: [2160, 2160, 80, 1]>, none), %R13, %B405 = "arith.mul"(%R11.8640, %R13, %D31) {round_mode = 0} : (memref<1x32x27x80xf32, strides: [2160, 2160, 80, 1]>, memref<1x32x27x80xf32, strides: [2160, 2160, 80, 1]>, none) -> (memref<1x32x27x80xf32, strides: [2160, 2160, 80, 1]>, none), %R11, %B406 = "arith.add"(%R13, %C1.0, %D31) {round_mode = 0} : (memref<1x32x27x80xf32, strides: [2160, 2160, 80, 1]>, f32, none) -> (memref<1x32x27x80xf32, strides: [2160, 2160, 80, 1]>, none), %R13, %B407 = "arith.div"(%C1.0, %R11, %D31) {iter = 3} : (f32, memref<1x32x27x80xf32, strides: [2160, 2160, 80, 1]>, none) -> (memref<1x32x27x80xf32, strides: [2160, 2160, 80, 1]>, none), %R13, %B408 = "arith.mul"(%R13, %R10, %D31) {round_mode = 0} : (memref<1x32x27x80xf32, strides: [2160, 2160, 80, 1]>, memref<1x32x27x80xf32, strides: [2160, 2160, 80, 1]>, none) -> (memref<1x32x27x80xf32, strides: [2160, 2160, 80, 1]>, none), %G50399296, %D32 = "dma.tensor"(%R9.320, %B392) {decompress = False} : (memref<1x32x27x80xf32, strides: [2160, 2160, 80, 1]>, none) -> (memref<1x32x27x80xf32, strides: [819200, 25600, 160, 1]>, none), %R10, %B409 = "conv.normal"(%R0, %R15.2688, %R9.10176, %C0.0, %D32) {kernel = [6, 6], stride = [2, 2], in_zero = [0, 0], ke_zero = [0, 0], kernel_rotate = False, pad_mode = 0, pad = [0, 0, 2, 0], res_add = False} : (memref<1x3x114x322xf32, strides: [36720, 36720, 322, 1]>, memref<32x3x6x6xf32>, memref<1x32x1x1xf32, strides: [1, 1, 1, 1]>, f32, none) -> (memref<1x32x55x160xf32, strides: [8800, 8800, 160, 1]>, none), %G47122496, %D33 = "dma.tensor"(%R13, %B408) {decompress = False} : (memref<1x32x27x80xf32, strides: [2160, 2160, 80, 1]>, none) -> (memref<1x32x27x80xf32, strides: [819200, 25600, 160, 1]>, none), %R4.4864, %B410 = "tsbc.s_bc"(%S1024, %D33) : (memref<1x64x1x10xf32>, none) -> (memref<1x64x1x10xf32, strides: [16, 16, 10, 1]>, none), %R2.2432, %B411 = "arith.sub"(%C0.0, %R10, %D33) {round_mode = 0} : (f32, memref<1x32x55x160xf32, strides: [8800, 8800, 160, 1]>, none) -> (memref<1x32x55x160xf32, strides: [8800, 8800, 160, 1]>, none), %R2.2432, %B412 = "arith.max"(%R2.2432, %C-3.4028198694267105e+35, %D33) {round_mode = 0} : (memref<1x32x55x160xf32, strides: [8800, 8800, 160, 1]>, f32, none) -> (memref<1x32x55x160xf32, strides: [8800, 8800, 160, 1]>, none), %R0, %B413 = "arith.mul"(%R2.2432, %C1.4426950216293335, %D33) {round_mode = 0} : (memref<1x32x55x160xf32, strides: [8800, 8800, 160, 1]>, f32, none) -> (memref<1x32x55x160xf32, strides: [8800, 8800, 160, 1]>, none), %R13, %B414 = "arith.cast"(%R0, %D33) {round_mode = 3} : (memref<1x32x55x160xf32, strides: [8800, 8800, 160, 1]>, none) -> (memref<1x32x55x160xf32, strides: [8800, 8800, 160, 1]>, none), %R0, %B415 = "arith.mul"(%R13, %C0.6931471824645996, %D33) {round_mode = 0} : (memref<1x32x55x160xf32, strides: [8800, 8800, 160, 1]>, f32, none) -> (memref<1x32x55x160xf32, strides: [8800, 8800, 160, 1]>, none), %R0, %B416 = "arith.sub"(%R2.2432, %R0, %D33) {round_mode = 0} : (memref<1x32x55x160xf32, strides: [8800, 8800, 160, 1]>, memref<1x32x55x160xf32, strides: [8800, 8800, 160, 1]>, none) -> (memref<1x32x55x160xf32, strides: [8800, 8800, 160, 1]>, none), %R2.2432, %B417 = "arith.cast"(%R13, %D33) {round_mode = 1} : (memref<1x32x55x160xf32, strides: [8800, 8800, 160, 1]>, none) -> (memref<1x32x55x160xsi16, strides: [8800, 8800, 160, 1]>, none), %R13, %B418 = "arith.min"(%R2.2432, %C127, %D33) {round_mode = 0} : (memref<1x32x55x160xsi16, strides: [8800, 8800, 160, 1]>, si16, none) -> (memref<1x32x55x160xsi16, strides: [8800, 8800, 160, 1]>, none), %R2.2432, %B419 = "arith.max"(%R13, %C-127, %D33) {round_mode = 0} : (memref<1x32x55x160xsi16, strides: [8800, 8800, 160, 1]>, si16, none) -> (memref<1x32x55x160xsi16, strides: [8800, 8800, 160, 1]>, none), %R13, %B420 = "arith.adds"(%R2.2432, %C127, %C23, %D33) {round_mode = 1} : (memref<1x32x55x160xsi16, strides: [8800, 8800, 160, 1]>, si16, ui8, none) -> (memref<1x32x55x160xsi32, strides: [8800, 8800, 160, 1]>, none), %R2.2432, %B421 = "sfu.taylor_4x"(%R0, %R4.4864, %D33) : (memref<1x32x55x160xf32, strides: [8800, 8800, 160, 1]>, memref<1x32x1x10xf32, strides: [0, 0, 10, 1]>, none) -> (memref<1x32x55x160xf32, strides: [8800, 8800, 160, 1]>, none), %R13, %B422 = "arith.mul"(%R2.2432, %R13, %D33) {round_mode = 0} : (memref<1x32x55x160xf32, strides: [8800, 8800, 160, 1]>, memref<1x32x55x160xf32, strides: [8800, 8800, 160, 1]>, none) -> (memref<1x32x55x160xf32, strides: [8800, 8800, 160, 1]>, none), %R0, %B423 = "arith.add"(%R13, %C1.0, %D33) {round_mode = 0} : (memref<1x32x55x160xf32, strides: [8800, 8800, 160, 1]>, f32, none) -> (memref<1x32x55x160xf32, strides: [8800, 8800, 160, 1]>, none), %R13, %B424 = "arith.div"(%C1.0, %R0, %D33) {iter = 3} : (f32, memref<1x32x55x160xf32, strides: [8800, 8800, 160, 1]>, none) -> (memref<1x32x55x160xf32, strides: [8800, 8800, 160, 1]>, none), %R13, %B425 = "arith.mul"(%R13, %R10, %D33) {round_mode = 0} : (memref<1x32x55x160xf32, strides: [8800, 8800, 160, 1]>, memref<1x32x55x160xf32, strides: [8800, 8800, 160, 1]>, none) -> (memref<1x32x55x160xf32, strides: [8800, 8800, 160, 1]>, none), %R10, %B426 = "conv.normal"(%R13, %R9.8960, %R9.10112, %C0.0, %D33) {kernel = [3, 3], stride = [2, 2], in_zero = [0, 0], ke_zero = [0, 0], kernel_rotate = False, pad_mode = 0, pad = [0, 0, 1, 0], res_add = False} : (memref<1x32x55x160xf32, strides: [8800, 8800, 160, 1]>, memref<64x32x3x3xf32>, memref<1x64x1x1xf32, strides: [1, 1, 1, 1]>, f32, none) -> (memref<1x64x27x80xf32, strides: [2160, 2160, 80, 1]>, none), %R0, %D34 = "dma.tensor"(%G42992880, %B425) {decompress = False} : (memref<1x3x114x324xf32, strides: [1228800, 409600, 640, 1]>, none) -> (memref<1x3x114x324xf32, strides: [36944, 36944, 324, 1]>, none), %R12.896, %B427 = "tsbc.s_bc"(%S1024, %D34) : (memref<1x64x1x10xf32>, none) -> (memref<1x64x1x10xf32, strides: [16, 16, 10, 1]>, none), %R11.8640, %B428 = "arith.sub"(%C0.0, %R10, %D34) {round_mode = 0} : (f32, memref<1x64x27x80xf32, strides: [2160, 2160, 80, 1]>, none) -> (memref<1x64x27x80xf32, strides: [2160, 2160, 80, 1]>, none), %R11.8640, %B429 = "arith.max"(%R11.8640, %C-3.4028198694267105e+35, %D34) {round_mode = 0} : (memref<1x64x27x80xf32, strides: [2160, 2160, 80, 1]>, f32, none) -> (memref<1x64x27x80xf32, strides: [2160, 2160, 80, 1]>, none), %R11, %B430 = "arith.mul"(%R11.8640, %C1.4426950216293335, %D34) {round_mode = 0} : (memref<1x64x27x80xf32, strides: [2160, 2160, 80, 1]>, f32, none) -> (memref<1x64x27x80xf32, strides: [2160, 2160, 80, 1]>, none), %R9.320, %B431 = "arith.cast"(%R11, %D34) {round_mode = 3} : (memref<1x64x27x80xf32, strides: [2160, 2160, 80, 1]>, none) -> (memref<1x64x27x80xf32, strides: [2160, 2160, 80, 1]>, none), %R11, %B432 = "arith.mul"(%R9.320, %C0.6931471824645996, %D34) {round_mode = 0} : (memref<1x64x27x80xf32, strides: [2160, 2160, 80, 1]>, f32, none) -> (memref<1x64x27x80xf32, strides: [2160, 2160, 80, 1]>, none), %R11, %B433 = "arith.sub"(%R11.8640, %R11, %D34) {round_mode = 0} : (memref<1x64x27x80xf32, strides: [2160, 2160, 80, 1]>, memref<1x64x27x80xf32, strides: [2160, 2160, 80, 1]>, none) -> (memref<1x64x27x80xf32, strides: [2160, 2160, 80, 1]>, none), %R11.8640, %B434 = "arith.cast"(%R9.320, %D34) {round_mode = 1} : (memref<1x64x27x80xf32, strides: [2160, 2160, 80, 1]>, none) -> (memref<1x64x27x80xsi16, strides: [2176, 2176, 80, 1]>, none), %R9.320, %B435 = "arith.min"(%R11.8640, %C127, %D34) {round_mode = 0} : (memref<1x64x27x80xsi16, strides: [2176, 2176, 80, 1]>, si16, none) -> (memref<1x64x27x80xsi16, strides: [2176, 2176, 80, 1]>, none), %R11.8640, %B436 = "arith.max"(%R9.320, %C-127, %D34) {round_mode = 0} : (memref<1x64x27x80xsi16, strides: [2176, 2176, 80, 1]>, si16, none) -> (memref<1x64x27x80xsi16, strides: [2176, 2176, 80, 1]>, none), %R9.320, %B437 = "arith.adds"(%R11.8640, %C127, %C23, %D34) {round_mode = 1} : (memref<1x64x27x80xsi16, strides: [2176, 2176, 80, 1]>, si16, ui8, none) -> (memref<1x64x27x80xsi32, strides: [2160, 2160, 80, 1]>, none), %R11.8640, %B438 = "sfu.taylor_4x"(%R11, %R12.896, %D34) : (memref<1x64x27x80xf32, strides: [2160, 2160, 80, 1]>, memref<1x64x1x10xf32, strides: [0, 0, 10, 1]>, none) -> (memref<1x64x27x80xf32, strides: [2160, 2160, 80, 1]>, none), %R9.320, %B439 = "arith.mul"(%R11.8640, %R9.320, %D34) {round_mode = 0} : (memref<1x64x27x80xf32, strides: [2160, 2160, 80, 1]>, memref<1x64x27x80xf32, strides: [2160, 2160, 80, 1]>, none) -> (memref<1x64x27x80xf32, strides: [2160, 2160, 80, 1]>, none), %R11, %B440 = "arith.add"(%R9.320, %C1.0, %D34) {round_mode = 0} : (memref<1x64x27x80xf32, strides: [2160, 2160, 80, 1]>, f32, none) -> (memref<1x64x27x80xf32, strides: [2160, 2160, 80, 1]>, none), %R9.320, %B441 = "arith.div"(%C1.0, %R11, %D34) {iter = 3} : (f32, memref<1x64x27x80xf32, strides: [2160, 2160, 80, 1]>, none) -> (memref<1x64x27x80xf32, strides: [2160, 2160, 80, 1]>, none), %R9.320, %B442 = "arith.mul"(%R9.320, %R10, %D34) {round_mode = 0} : (memref<1x64x27x80xf32, strides: [2160, 2160, 80, 1]>, memref<1x64x27x80xf32, strides: [2160, 2160, 80, 1]>, none) -> (memref<1x64x27x80xf32, strides: [2160, 2160, 80, 1]>, none), %R10, %B443 = "conv.normal"(%R9.320, %R15.3136, %R9.10240, %C0.0, %D34) {kernel = [1, 1], stride = [1, 1], in_zero = [0, 0], ke_zero = [0, 0], kernel_rotate = False, pad_mode = 0, pad = [0, 0, 0, 0], res_add = False} : (memref<1x64x27x80xf32, strides: [2160, 2160, 80, 1]>, memref<32x64x1x1xf32>, memref<1x32x1x1xf32, strides: [1, 1, 1, 1]>, f32, none) -> (memref<1x32x27x80xf32, strides: [2160, 2160, 80, 1]>, none), %G29166208, %D35 = "dma.tensor"(%R9.320, %B442) {decompress = False} : (memref<1x64x27x80xf32, strides: [2160, 2160, 80, 1]>, none) -> (memref<1x64x27x80xf32, strides: [1638400, 25600, 160, 1]>, none), %R12.896, %B444 = "tsbc.s_bc"(%S1024, %D35) : (memref<1x64x1x10xf32>, none) -> (memref<1x64x1x10xf32, strides: [16, 16, 10, 1]>, none), %R11.8640, %B445 = "arith.sub"(%C0.0, %R10, %D35) {round_mode = 0} : (f32, memref<1x32x27x80xf32, strides: [2160, 2160, 80, 1]>, none) -> (memref<1x32x27x80xf32, strides: [2160, 2160, 80, 1]>, none), %R11.8640, %B446 = "arith.max"(%R11.8640, %C-3.4028198694267105e+35, %D35) {round_mode = 0} : (memref<1x32x27x80xf32, strides: [2160, 2160, 80, 1]>, f32, none) -> (memref<1x32x27x80xf32, strides: [2160, 2160, 80, 1]>, none), %R11, %B447 = "arith.mul"(%R11.8640, %C1.4426950216293335, %D35) {round_mode = 0} : (memref<1x32x27x80xf32, strides: [2160, 2160, 80, 1]>, f32, none) -> (memref<1x32x27x80xf32, strides: [2160, 2160, 80, 1]>, none), %R9.320, %B448 = "arith.cast"(%R11, %D35) {round_mode = 3} : (memref<1x32x27x80xf32, strides: [2160, 2160, 80, 1]>, none) -> (memref<1x32x27x80xf32, strides: [2160, 2160, 80, 1]>, none), %R11, %B449 = "arith.mul"(%R9.320, %C0.6931471824645996, %D35) {round_mode = 0} : (memref<1x32x27x80xf32, strides: [2160, 2160, 80, 1]>, f32, none) -> (memref<1x32x27x80xf32, strides: [2160, 2160, 80, 1]>, none), %R11, %B450 = "arith.sub"(%R11.8640, %R11, %D35) {round_mode = 0} : (memref<1x32x27x80xf32, strides: [2160, 2160, 80, 1]>, memref<1x32x27x80xf32, strides: [2160, 2160, 80, 1]>, none) -> (memref<1x32x27x80xf32, strides: [2160, 2160, 80, 1]>, none), %R11.8640, %B451 = "arith.cast"(%R9.320, %D35) {round_mode = 1} : (memref<1x32x27x80xf32, strides: [2160, 2160, 80, 1]>, none) -> (memref<1x32x27x80xsi16, strides: [2176, 2176, 80, 1]>, none), %R9.320, %B452 = "arith.min"(%R11.8640, %C127, %D35) {round_mode = 0} : (memref<1x32x27x80xsi16, strides: [2176, 2176, 80, 1]>, si16, none) -> (memref<1x32x27x80xsi16, strides: [2176, 2176, 80, 1]>, none), %R11.8640, %B453 = "arith.max"(%R9.320, %C-127, %D35) {round_mode = 0} : (memref<1x32x27x80xsi16, strides: [2176, 2176, 80, 1]>, si16, none) -> (memref<1x32x27x80xsi16, strides: [2176, 2176, 80, 1]>, none), %R9.320, %B454 = "arith.adds"(%R11.8640, %C127, %C23, %D35) {round_mode = 1} : (memref<1x32x27x80xsi16, strides: [2176, 2176, 80, 1]>, si16, ui8, none) -> (memref<1x32x27x80xsi32, strides: [2160, 2160, 80, 1]>, none), %R11.8640, %B455 = "sfu.taylor_4x"(%R11, %R12.896, %D35) : (memref<1x32x27x80xf32, strides: [2160, 2160, 80, 1]>, memref<1x32x1x10xf32, strides: [0, 0, 10, 1]>, none) -> (memref<1x32x27x80xf32, strides: [2160, 2160, 80, 1]>, none), %R9.320, %B456 = "arith.mul"(%R11.8640, %R9.320, %D35) {round_mode = 0} : (memref<1x32x27x80xf32, strides: [2160, 2160, 80, 1]>, memref<1x32x27x80xf32, strides: [2160, 2160, 80, 1]>, none) -> (memref<1x32x27x80xf32, strides: [2160, 2160, 80, 1]>, none), %R11, %B457 = "arith.add"(%R9.320, %C1.0, %D35) {round_mode = 0} : (memref<1x32x27x80xf32, strides: [2160, 2160, 80, 1]>, f32, none) -> (memref<1x32x27x80xf32, strides: [2160, 2160, 80, 1]>, none), %R9.320, %B458 = "arith.div"(%C1.0, %R11, %D35) {iter = 3} : (f32, memref<1x32x27x80xf32, strides: [2160, 2160, 80, 1]>, none) -> (memref<1x32x27x80xf32, strides: [2160, 2160, 80, 1]>, none), %R9.320, %B459 = "arith.mul"(%R9.320, %R10, %D35) {round_mode = 0} : (memref<1x32x27x80xf32, strides: [2160, 2160, 80, 1]>, memref<1x32x27x80xf32, strides: [2160, 2160, 80, 1]>, none) -> (memref<1x32x27x80xf32, strides: [2160, 2160, 80, 1]>, none), %R10, %B460 = "conv.normal"(%R9.320, %R15.3392, %R9.10304, %C0.0, %D35) {kernel = [1, 1], stride = [1, 1], in_zero = [0, 0], ke_zero = [0, 0], kernel_rotate = False, pad_mode = 0, pad = [0, 0, 0, 0], res_add = False} : (memref<1x32x27x80xf32, strides: [2160, 2160, 80, 1]>, memref<32x32x1x1xf32>, memref<1x32x1x1xf32, strides: [1, 1, 1, 1]>, f32, none) -> (memref<1x32x27x80xf32, strides: [2160, 2160, 80, 1]>, none), %R12.896, %B461 = "tsbc.s_bc"(%S1024, %D35) : (memref<1x64x1x10xf32>, none) -> (memref<1x64x1x10xf32, strides: [16, 16, 10, 1]>, none), %R11.8640, %B462 = "arith.sub"(%C0.0, %R10, %D35) {round_mode = 0} : (f32, memref<1x32x27x80xf32, strides: [2160, 2160, 80, 1]>, none) -> (memref<1x32x27x80xf32, strides: [2160, 2160, 80, 1]>, none), %R11.8640, %B463 = "arith.max"(%R11.8640, %C-3.4028198694267105e+35, %D35) {round_mode = 0} : (memref<1x32x27x80xf32, strides: [2160, 2160, 80, 1]>, f32, none) -> (memref<1x32x27x80xf32, strides: [2160, 2160, 80, 1]>, none), %R11, %B464 = "arith.mul"(%R11.8640, %C1.4426950216293335, %D35) {round_mode = 0} : (memref<1x32x27x80xf32, strides: [2160, 2160, 80, 1]>, f32, none) -> (memref<1x32x27x80xf32, strides: [2160, 2160, 80, 1]>, none), %R13, %B465 = "arith.cast"(%R11, %D35) {round_mode = 3} : (memref<1x32x27x80xf32, strides: [2160, 2160, 80, 1]>, none) -> (memref<1x32x27x80xf32, strides: [2160, 2160, 80, 1]>, none), %R11, %B466 = "arith.mul"(%R13, %C0.6931471824645996, %D35) {round_mode = 0} : (memref<1x32x27x80xf32, strides: [2160, 2160, 80, 1]>, f32, none) -> (memref<1x32x27x80xf32, strides: [2160, 2160, 80, 1]>, none), %R11, %B467 = "arith.sub"(%R11.8640, %R11, %D35) {round_mode = 0} : (memref<1x32x27x80xf32, strides: [2160, 2160, 80, 1]>, memref<1x32x27x80xf32, strides: [2160, 2160, 80, 1]>, none) -> (memref<1x32x27x80xf32, strides: [2160, 2160, 80, 1]>, none), %R11.8640, %B468 = "arith.cast"(%R13, %D35) {round_mode = 1} : (memref<1x32x27x80xf32, strides: [2160, 2160, 80, 1]>, none) -> (memref<1x32x27x80xsi16, strides: [2176, 2176, 80, 1]>, none), %R13, %B469 = "arith.min"(%R11.8640, %C127, %D35) {round_mode = 0} : (memref<1x32x27x80xsi16, strides: [2176, 2176, 80, 1]>, si16, none) -> (memref<1x32x27x80xsi16, strides: [2176, 2176, 80, 1]>, none), %R11.8640, %B470 = "arith.max"(%R13, %C-127, %D35) {round_mode = 0} : (memref<1x32x27x80xsi16, strides: [2176, 2176, 80, 1]>, si16, none) -> (memref<1x32x27x80xsi16, strides: [2176, 2176, 80, 1]>, none), %R13, %B471 = "arith.adds"(%R11.8640, %C127, %C23, %D35) {round_mode = 1} : (memref<1x32x27x80xsi16, strides: [2176, 2176, 80, 1]>, si16, ui8, none) -> (memref<1x32x27x80xsi32, strides: [2160, 2160, 80, 1]>, none), %R11.8640, %B472 = "sfu.taylor_4x"(%R11, %R12.896, %D35) : (memref<1x32x27x80xf32, strides: [2160, 2160, 80, 1]>, memref<1x32x1x10xf32, strides: [0, 0, 10, 1]>, none) -> (memref<1x32x27x80xf32, strides: [2160, 2160, 80, 1]>, none), %R13, %B473 = "arith.mul"(%R11.8640, %R13, %D35) {round_mode = 0} : (memref<1x32x27x80xf32, strides: [2160, 2160, 80, 1]>, memref<1x32x27x80xf32, strides: [2160, 2160, 80, 1]>, none) -> (memref<1x32x27x80xf32, strides: [2160, 2160, 80, 1]>, none), %R11, %B474 = "arith.add"(%R13, %C1.0, %D35) {round_mode = 0} : (memref<1x32x27x80xf32, strides: [2160, 2160, 80, 1]>, f32, none) -> (memref<1x32x27x80xf32, strides: [2160, 2160, 80, 1]>, none), %R13, %B475 = "arith.div"(%C1.0, %R11, %D35) {iter = 3} : (f32, memref<1x32x27x80xf32, strides: [2160, 2160, 80, 1]>, none) -> (memref<1x32x27x80xf32, strides: [2160, 2160, 80, 1]>, none), %R13, %B476 = "arith.mul"(%R13, %R10, %D35) {round_mode = 0} : (memref<1x32x27x80xf32, strides: [2160, 2160, 80, 1]>, memref<1x32x27x80xf32, strides: [2160, 2160, 80, 1]>, none) -> (memref<1x32x27x80xf32, strides: [2160, 2160, 80, 1]>, none), %G50416256, %D36 = "dma.tensor"(%R9.320, %B460) {decompress = False} : (memref<1x32x27x80xf32, strides: [2160, 2160, 80, 1]>, none) -> (memref<1x32x27x80xf32, strides: [819200, 25600, 160, 1]>, none), %R10, %B477 = "conv.normal"(%R0, %R15.2688, %R9.10176, %C0.0, %D36) {kernel = [6, 6], stride = [2, 2], in_zero = [0, 0], ke_zero = [0, 0], kernel_rotate = False, pad_mode = 0, pad = [0, 0, 0, 2], res_add = False} : (memref<1x3x114x324xf32, strides: [36944, 36944, 324, 1]>, memref<32x3x6x6xf32>, memref<1x32x1x1xf32, strides: [1, 1, 1, 1]>, f32, none) -> (memref<1x32x55x161xf32, strides: [8864, 8864, 161, 1]>, none), %G47139456, %D37 = "dma.tensor"(%R13, %B476) {decompress = False} : (memref<1x32x27x80xf32, strides: [2160, 2160, 80, 1]>, none) -> (memref<1x32x27x80xf32, strides: [819200, 25600, 160, 1]>, none), %R4.5376, %B478 = "tsbc.s_bc"(%S1024, %D37) : (memref<1x64x1x10xf32>, none) -> (memref<1x64x1x10xf32, strides: [16, 16, 10, 1]>, none), %R2.2688, %B479 = "arith.sub"(%C0.0, %R10, %D37) {round_mode = 0} : (f32, memref<1x32x55x161xf32, strides: [8864, 8864, 161, 1]>, none) -> (memref<1x32x55x161xf32, strides: [8864, 8864, 161, 1]>, none), %R2.2688, %B480 = "arith.max"(%R2.2688, %C-3.4028198694267105e+35, %D37) {round_mode = 0} : (memref<1x32x55x161xf32, strides: [8864, 8864, 161, 1]>, f32, none) -> (memref<1x32x55x161xf32, strides: [8864, 8864, 161, 1]>, none), %R0, %B481 = "arith.mul"(%R2.2688, %C1.4426950216293335, %D37) {round_mode = 0} : (memref<1x32x55x161xf32, strides: [8864, 8864, 161, 1]>, f32, none) -> (memref<1x32x55x161xf32, strides: [8864, 8864, 161, 1]>, none), %R13, %B482 = "arith.cast"(%R0, %D37) {round_mode = 3} : (memref<1x32x55x161xf32, strides: [8864, 8864, 161, 1]>, none) -> (memref<1x32x55x161xf32, strides: [8864, 8864, 161, 1]>, none), %R0, %B483 = "arith.mul"(%R13, %C0.6931471824645996, %D37) {round_mode = 0} : (memref<1x32x55x161xf32, strides: [8864, 8864, 161, 1]>, f32, none) -> (memref<1x32x55x161xf32, strides: [8864, 8864, 161, 1]>, none), %R0, %B484 = "arith.sub"(%R2.2688, %R0, %D37) {round_mode = 0} : (memref<1x32x55x161xf32, strides: [8864, 8864, 161, 1]>, memref<1x32x55x161xf32, strides: [8864, 8864, 161, 1]>, none) -> (memref<1x32x55x161xf32, strides: [8864, 8864, 161, 1]>, none), %R2.2688, %B485 = "arith.cast"(%R13, %D37) {round_mode = 1} : (memref<1x32x55x161xf32, strides: [8864, 8864, 161, 1]>, none) -> (memref<1x32x55x161xsi16, strides: [8864, 8864, 161, 1]>, none), %R13, %B486 = "arith.min"(%R2.2688, %C127, %D37) {round_mode = 0} : (memref<1x32x55x161xsi16, strides: [8864, 8864, 161, 1]>, si16, none) -> (memref<1x32x55x161xsi16, strides: [8864, 8864, 161, 1]>, none), %R2.2688, %B487 = "arith.max"(%R13, %C-127, %D37) {round_mode = 0} : (memref<1x32x55x161xsi16, strides: [8864, 8864, 161, 1]>, si16, none) -> (memref<1x32x55x161xsi16, strides: [8864, 8864, 161, 1]>, none), %R13, %B488 = "arith.adds"(%R2.2688, %C127, %C23, %D37) {round_mode = 1} : (memref<1x32x55x161xsi16, strides: [8864, 8864, 161, 1]>, si16, ui8, none) -> (memref<1x32x55x161xsi32, strides: [8864, 8864, 161, 1]>, none), %R2.2688, %B489 = "sfu.taylor_4x"(%R0, %R4.5376, %D37) : (memref<1x32x55x161xf32, strides: [8864, 8864, 161, 1]>, memref<1x32x1x10xf32, strides: [0, 0, 10, 1]>, none) -> (memref<1x32x55x161xf32, strides: [8864, 8864, 161, 1]>, none), %R13, %B490 = "arith.mul"(%R2.2688, %R13, %D37) {round_mode = 0} : (memref<1x32x55x161xf32, strides: [8864, 8864, 161, 1]>, memref<1x32x55x161xf32, strides: [8864, 8864, 161, 1]>, none) -> (memref<1x32x55x161xf32, strides: [8864, 8864, 161, 1]>, none), %R0, %B491 = "arith.add"(%R13, %C1.0, %D37) {round_mode = 0} : (memref<1x32x55x161xf32, strides: [8864, 8864, 161, 1]>, f32, none) -> (memref<1x32x55x161xf32, strides: [8864, 8864, 161, 1]>, none), %R13, %B492 = "arith.div"(%C1.0, %R0, %D37) {iter = 3} : (f32, memref<1x32x55x161xf32, strides: [8864, 8864, 161, 1]>, none) -> (memref<1x32x55x161xf32, strides: [8864, 8864, 161, 1]>, none), %R13, %B493 = "arith.mul"(%R13, %R10, %D37) {round_mode = 0} : (memref<1x32x55x161xf32, strides: [8864, 8864, 161, 1]>, memref<1x32x55x161xf32, strides: [8864, 8864, 161, 1]>, none) -> (memref<1x32x55x161xf32, strides: [8864, 8864, 161, 1]>, none), %R10, %B494 = "conv.normal"(%R13, %R9.8960, %R9.10112, %C0.0, %D37) {kernel = [3, 3], stride = [2, 2], in_zero = [0, 0], ke_zero = [0, 0], kernel_rotate = False, pad_mode = 0, pad = [0, 0, 0, 1], res_add = False} : (memref<1x32x55x161xf32, strides: [8864, 8864, 161, 1]>, memref<64x32x3x3xf32>, memref<1x64x1x1xf32, strides: [1, 1, 1, 1]>, f32, none) -> (memref<1x64x27x80xf32, strides: [2160, 2160, 80, 1]>, none), %R0, %D38 = "dma.tensor"(%G43268096, %B493) {decompress = False} : (memref<1x3x110x322xf32, strides: [1228800, 409600, 640, 1]>, none) -> (memref<1x3x110x322xf32, strides: [35424, 35424, 322, 1]>, none), %R12.896, %B495 = "tsbc.s_bc"(%S1024, %D38) : (memref<1x64x1x10xf32>, none) -> (memref<1x64x1x10xf32, strides: [16, 16, 10, 1]>, none), %R11.8640, %B496 = "arith.sub"(%C0.0, %R10, %D38) {round_mode = 0} : (f32, memref<1x64x27x80xf32, strides: [2160, 2160, 80, 1]>, none) -> (memref<1x64x27x80xf32, strides: [2160, 2160, 80, 1]>, none), %R11.8640, %B497 = "arith.max"(%R11.8640, %C-3.4028198694267105e+35, %D38) {round_mode = 0} : (memref<1x64x27x80xf32, strides: [2160, 2160, 80, 1]>, f32, none) -> (memref<1x64x27x80xf32, strides: [2160, 2160, 80, 1]>, none), %R11, %B498 = "arith.mul"(%R11.8640, %C1.4426950216293335, %D38) {round_mode = 0} : (memref<1x64x27x80xf32, strides: [2160, 2160, 80, 1]>, f32, none) -> (memref<1x64x27x80xf32, strides: [2160, 2160, 80, 1]>, none), %R9.320, %B499 = "arith.cast"(%R11, %D38) {round_mode = 3} : (memref<1x64x27x80xf32, strides: [2160, 2160, 80, 1]>, none) -> (memref<1x64x27x80xf32, strides: [2160, 2160, 80, 1]>, none), %R11, %B500 = "arith.mul"(%R9.320, %C0.6931471824645996, %D38) {round_mode = 0} : (memref<1x64x27x80xf32, strides: [2160, 2160, 80, 1]>, f32, none) -> (memref<1x64x27x80xf32, strides: [2160, 2160, 80, 1]>, none), %R11, %B501 = "arith.sub"(%R11.8640, %R11, %D38) {round_mode = 0} : (memref<1x64x27x80xf32, strides: [2160, 2160, 80, 1]>, memref<1x64x27x80xf32, strides: [2160, 2160, 80, 1]>, none) -> (memref<1x64x27x80xf32, strides: [2160, 2160, 80, 1]>, none), %R11.8640, %B502 = "arith.cast"(%R9.320, %D38) {round_mode = 1} : (memref<1x64x27x80xf32, strides: [2160, 2160, 80, 1]>, none) -> (memref<1x64x27x80xsi16, strides: [2176, 2176, 80, 1]>, none), %R9.320, %B503 = "arith.min"(%R11.8640, %C127, %D38) {round_mode = 0} : (memref<1x64x27x80xsi16, strides: [2176, 2176, 80, 1]>, si16, none) -> (memref<1x64x27x80xsi16, strides: [2176, 2176, 80, 1]>, none), %R11.8640, %B504 = "arith.max"(%R9.320, %C-127, %D38) {round_mode = 0} : (memref<1x64x27x80xsi16, strides: [2176, 2176, 80, 1]>, si16, none) -> (memref<1x64x27x80xsi16, strides: [2176, 2176, 80, 1]>, none), %R9.320, %B505 = "arith.adds"(%R11.8640, %C127, %C23, %D38) {round_mode = 1} : (memref<1x64x27x80xsi16, strides: [2176, 2176, 80, 1]>, si16, ui8, none) -> (memref<1x64x27x80xsi32, strides: [2160, 2160, 80, 1]>, none), %R11.8640, %B506 = "sfu.taylor_4x"(%R11, %R12.896, %D38) : (memref<1x64x27x80xf32, strides: [2160, 2160, 80, 1]>, memref<1x64x1x10xf32, strides: [0, 0, 10, 1]>, none) -> (memref<1x64x27x80xf32, strides: [2160, 2160, 80, 1]>, none), %R9.320, %B507 = "arith.mul"(%R11.8640, %R9.320, %D38) {round_mode = 0} : (memref<1x64x27x80xf32, strides: [2160, 2160, 80, 1]>, memref<1x64x27x80xf32, strides: [2160, 2160, 80, 1]>, none) -> (memref<1x64x27x80xf32, strides: [2160, 2160, 80, 1]>, none), %R11, %B508 = "arith.add"(%R9.320, %C1.0, %D38) {round_mode = 0} : (memref<1x64x27x80xf32, strides: [2160, 2160, 80, 1]>, f32, none) -> (memref<1x64x27x80xf32, strides: [2160, 2160, 80, 1]>, none), %R9.320, %B509 = "arith.div"(%C1.0, %R11, %D38) {iter = 3} : (f32, memref<1x64x27x80xf32, strides: [2160, 2160, 80, 1]>, none) -> (memref<1x64x27x80xf32, strides: [2160, 2160, 80, 1]>, none), %R9.320, %B510 = "arith.mul"(%R9.320, %R10, %D38) {round_mode = 0} : (memref<1x64x27x80xf32, strides: [2160, 2160, 80, 1]>, memref<1x64x27x80xf32, strides: [2160, 2160, 80, 1]>, none) -> (memref<1x64x27x80xf32, strides: [2160, 2160, 80, 1]>, none), %R10, %B511 = "conv.normal"(%R9.320, %R15.3136, %R9.10240, %C0.0, %D38) {kernel = [1, 1], stride = [1, 1], in_zero = [0, 0], ke_zero = [0, 0], kernel_rotate = False, pad_mode = 0, pad = [0, 0, 0, 0], res_add = False} : (memref<1x64x27x80xf32, strides: [2160, 2160, 80, 1]>, memref<32x64x1x1xf32>, memref<1x32x1x1xf32, strides: [1, 1, 1, 1]>, f32, none) -> (memref<1x32x27x80xf32, strides: [2160, 2160, 80, 1]>, none), %G29166528, %D39 = "dma.tensor"(%R9.320, %B510) {decompress = False} : (memref<1x64x27x80xf32, strides: [2160, 2160, 80, 1]>, none) -> (memref<1x64x27x80xf32, strides: [1638400, 25600, 160, 1]>, none), %R12.896, %B512 = "tsbc.s_bc"(%S1024, %D39) : (memref<1x64x1x10xf32>, none) -> (memref<1x64x1x10xf32, strides: [16, 16, 10, 1]>, none), %R11.8640, %B513 = "arith.sub"(%C0.0, %R10, %D39) {round_mode = 0} : (f32, memref<1x32x27x80xf32, strides: [2160, 2160, 80, 1]>, none) -> (memref<1x32x27x80xf32, strides: [2160, 2160, 80, 1]>, none), %R11.8640, %B514 = "arith.max"(%R11.8640, %C-3.4028198694267105e+35, %D39) {round_mode = 0} : (memref<1x32x27x80xf32, strides: [2160, 2160, 80, 1]>, f32, none) -> (memref<1x32x27x80xf32, strides: [2160, 2160, 80, 1]>, none), %R11, %B515 = "arith.mul"(%R11.8640, %C1.4426950216293335, %D39) {round_mode = 0} : (memref<1x32x27x80xf32, strides: [2160, 2160, 80, 1]>, f32, none) -> (memref<1x32x27x80xf32, strides: [2160, 2160, 80, 1]>, none), %R9.320, %B516 = "arith.cast"(%R11, %D39) {round_mode = 3} : (memref<1x32x27x80xf32, strides: [2160, 2160, 80, 1]>, none) -> (memref<1x32x27x80xf32, strides: [2160, 2160, 80, 1]>, none), %R11, %B517 = "arith.mul"(%R9.320, %C0.6931471824645996, %D39) {round_mode = 0} : (memref<1x32x27x80xf32, strides: [2160, 2160, 80, 1]>, f32, none) -> (memref<1x32x27x80xf32, strides: [2160, 2160, 80, 1]>, none), %R11, %B518 = "arith.sub"(%R11.8640, %R11, %D39) {round_mode = 0} : (memref<1x32x27x80xf32, strides: [2160, 2160, 80, 1]>, memref<1x32x27x80xf32, strides: [2160, 2160, 80, 1]>, none) -> (memref<1x32x27x80xf32, strides: [2160, 2160, 80, 1]>, none), %R11.8640, %B519 = "arith.cast"(%R9.320, %D39) {round_mode = 1} : (memref<1x32x27x80xf32, strides: [2160, 2160, 80, 1]>, none) -> (memref<1x32x27x80xsi16, strides: [2176, 2176, 80, 1]>, none), %R9.320, %B520 = "arith.min"(%R11.8640, %C127, %D39) {round_mode = 0} : (memref<1x32x27x80xsi16, strides: [2176, 2176, 80, 1]>, si16, none) -> (memref<1x32x27x80xsi16, strides: [2176, 2176, 80, 1]>, none), %R11.8640, %B521 = "arith.max"(%R9.320, %C-127, %D39) {round_mode = 0} : (memref<1x32x27x80xsi16, strides: [2176, 2176, 80, 1]>, si16, none) -> (memref<1x32x27x80xsi16, strides: [2176, 2176, 80, 1]>, none), %R9.320, %B522 = "arith.adds"(%R11.8640, %C127, %C23, %D39) {round_mode = 1} : (memref<1x32x27x80xsi16, strides: [2176, 2176, 80, 1]>, si16, ui8, none) -> (memref<1x32x27x80xsi32, strides: [2160, 2160, 80, 1]>, none), %R11.8640, %B523 = "sfu.taylor_4x"(%R11, %R12.896, %D39) : (memref<1x32x27x80xf32, strides: [2160, 2160, 80, 1]>, memref<1x32x1x10xf32, strides: [0, 0, 10, 1]>, none) -> (memref<1x32x27x80xf32, strides: [2160, 2160, 80, 1]>, none), %R9.320, %B524 = "arith.mul"(%R11.8640, %R9.320, %D39) {round_mode = 0} : (memref<1x32x27x80xf32, strides: [2160, 2160, 80, 1]>, memref<1x32x27x80xf32, strides: [2160, 2160, 80, 1]>, none) -> (memref<1x32x27x80xf32, strides: [2160, 2160, 80, 1]>, none), %R11, %B525 = "arith.add"(%R9.320, %C1.0, %D39) {round_mode = 0} : (memref<1x32x27x80xf32, strides: [2160, 2160, 80, 1]>, f32, none) -> (memref<1x32x27x80xf32, strides: [2160, 2160, 80, 1]>, none), %R9.320, %B526 = "arith.div"(%C1.0, %R11, %D39) {iter = 3} : (f32, memref<1x32x27x80xf32, strides: [2160, 2160, 80, 1]>, none) -> (memref<1x32x27x80xf32, strides: [2160, 2160, 80, 1]>, none), %R9.320, %B527 = "arith.mul"(%R9.320, %R10, %D39) {round_mode = 0} : (memref<1x32x27x80xf32, strides: [2160, 2160, 80, 1]>, memref<1x32x27x80xf32, strides: [2160, 2160, 80, 1]>, none) -> (memref<1x32x27x80xf32, strides: [2160, 2160, 80, 1]>, none), %R10, %B528 = "conv.normal"(%R9.320, %R15.3392, %R9.10304, %C0.0, %D39) {kernel = [1, 1], stride = [1, 1], in_zero = [0, 0], ke_zero = [0, 0], kernel_rotate = False, pad_mode = 0, pad = [0, 0, 0, 0], res_add = False} : (memref<1x32x27x80xf32, strides: [2160, 2160, 80, 1]>, memref<32x32x1x1xf32>, memref<1x32x1x1xf32, strides: [1, 1, 1, 1]>, f32, none) -> (memref<1x32x27x80xf32, strides: [2160, 2160, 80, 1]>, none), %R12.896, %B529 = "tsbc.s_bc"(%S1024, %D39) : (memref<1x64x1x10xf32>, none) -> (memref<1x64x1x10xf32, strides: [16, 16, 10, 1]>, none), %R11.8640, %B530 = "arith.sub"(%C0.0, %R10, %D39) {round_mode = 0} : (f32, memref<1x32x27x80xf32, strides: [2160, 2160, 80, 1]>, none) -> (memref<1x32x27x80xf32, strides: [2160, 2160, 80, 1]>, none), %R11.8640, %B531 = "arith.max"(%R11.8640, %C-3.4028198694267105e+35, %D39) {round_mode = 0} : (memref<1x32x27x80xf32, strides: [2160, 2160, 80, 1]>, f32, none) -> (memref<1x32x27x80xf32, strides: [2160, 2160, 80, 1]>, none), %R11, %B532 = "arith.mul"(%R11.8640, %C1.4426950216293335, %D39) {round_mode = 0} : (memref<1x32x27x80xf32, strides: [2160, 2160, 80, 1]>, f32, none) -> (memref<1x32x27x80xf32, strides: [2160, 2160, 80, 1]>, none), %R13, %B533 = "arith.cast"(%R11, %D39) {round_mode = 3} : (memref<1x32x27x80xf32, strides: [2160, 2160, 80, 1]>, none) -> (memref<1x32x27x80xf32, strides: [2160, 2160, 80, 1]>, none), %R11, %B534 = "arith.mul"(%R13, %C0.6931471824645996, %D39) {round_mode = 0} : (memref<1x32x27x80xf32, strides: [2160, 2160, 80, 1]>, f32, none) -> (memref<1x32x27x80xf32, strides: [2160, 2160, 80, 1]>, none), %R11, %B535 = "arith.sub"(%R11.8640, %R11, %D39) {round_mode = 0} : (memref<1x32x27x80xf32, strides: [2160, 2160, 80, 1]>, memref<1x32x27x80xf32, strides: [2160, 2160, 80, 1]>, none) -> (memref<1x32x27x80xf32, strides: [2160, 2160, 80, 1]>, none), %R11.8640, %B536 = "arith.cast"(%R13, %D39) {round_mode = 1} : (memref<1x32x27x80xf32, strides: [2160, 2160, 80, 1]>, none) -> (memref<1x32x27x80xsi16, strides: [2176, 2176, 80, 1]>, none), %R13, %B537 = "arith.min"(%R11.8640, %C127, %D39) {round_mode = 0} : (memref<1x32x27x80xsi16, strides: [2176, 2176, 80, 1]>, si16, none) -> (memref<1x32x27x80xsi16, strides: [2176, 2176, 80, 1]>, none), %R11.8640, %B538 = "arith.max"(%R13, %C-127, %D39) {round_mode = 0} : (memref<1x32x27x80xsi16, strides: [2176, 2176, 80, 1]>, si16, none) -> (memref<1x32x27x80xsi16, strides: [2176, 2176, 80, 1]>, none), %R13, %B539 = "arith.adds"(%R11.8640, %C127, %C23, %D39) {round_mode = 1} : (memref<1x32x27x80xsi16, strides: [2176, 2176, 80, 1]>, si16, ui8, none) -> (memref<1x32x27x80xsi32, strides: [2160, 2160, 80, 1]>, none), %R11.8640, %B540 = "sfu.taylor_4x"(%R11, %R12.896, %D39) : (memref<1x32x27x80xf32, strides: [2160, 2160, 80, 1]>, memref<1x32x1x10xf32, strides: [0, 0, 10, 1]>, none) -> (memref<1x32x27x80xf32, strides: [2160, 2160, 80, 1]>, none), %R13, %B541 = "arith.mul"(%R11.8640, %R13, %D39) {round_mode = 0} : (memref<1x32x27x80xf32, strides: [2160, 2160, 80, 1]>, memref<1x32x27x80xf32, strides: [2160, 2160, 80, 1]>, none) -> (memref<1x32x27x80xf32, strides: [2160, 2160, 80, 1]>, none), %R11, %B542 = "arith.add"(%R13, %C1.0, %D39) {round_mode = 0} : (memref<1x32x27x80xf32, strides: [2160, 2160, 80, 1]>, f32, none) -> (memref<1x32x27x80xf32, strides: [2160, 2160, 80, 1]>, none), %R13, %B543 = "arith.div"(%C1.0, %R11, %D39) {iter = 3} : (f32, memref<1x32x27x80xf32, strides: [2160, 2160, 80, 1]>, none) -> (memref<1x32x27x80xf32, strides: [2160, 2160, 80, 1]>, none), %R13, %B544 = "arith.mul"(%R13, %R10, %D39) {round_mode = 0} : (memref<1x32x27x80xf32, strides: [2160, 2160, 80, 1]>, memref<1x32x27x80xf32, strides: [2160, 2160, 80, 1]>, none) -> (memref<1x32x27x80xf32, strides: [2160, 2160, 80, 1]>, none), %G50416576, %D40 = "dma.tensor"(%R9.320, %B528) {decompress = False} : (memref<1x32x27x80xf32, strides: [2160, 2160, 80, 1]>, none) -> (memref<1x32x27x80xf32, strides: [819200, 25600, 160, 1]>, none), %R10, %B545 = "conv.normal"(%R0, %R15.2688, %R9.10176, %C0.0, %D40) {kernel = [6, 6], stride = [2, 2], in_zero = [0, 0], ke_zero = [0, 0], kernel_rotate = False, pad_mode = 0, pad = [0, 0, 2, 0], res_add = False} : (memref<1x3x110x322xf32, strides: [35424, 35424, 322, 1]>, memref<32x3x6x6xf32>, memref<1x32x1x1xf32, strides: [1, 1, 1, 1]>, f32, none) -> (memref<1x32x53x160xf32, strides: [8480, 8480, 160, 1]>, none), %G47139776, %D41 = "dma.tensor"(%R13, %B544) {decompress = False} : (memref<1x32x27x80xf32, strides: [2160, 2160, 80, 1]>, none) -> (memref<1x32x27x80xf32, strides: [819200, 25600, 160, 1]>, none), %R4.2304, %B546 = "tsbc.s_bc"(%S1024, %D41) : (memref<1x64x1x10xf32>, none) -> (memref<1x64x1x10xf32, strides: [16, 16, 10, 1]>, none), %R2.1152, %B547 = "arith.sub"(%C0.0, %R10, %D41) {round_mode = 0} : (f32, memref<1x32x53x160xf32, strides: [8480, 8480, 160, 1]>, none) -> (memref<1x32x53x160xf32, strides: [8480, 8480, 160, 1]>, none), %R2.1152, %B548 = "arith.max"(%R2.1152, %C-3.4028198694267105e+35, %D41) {round_mode = 0} : (memref<1x32x53x160xf32, strides: [8480, 8480, 160, 1]>, f32, none) -> (memref<1x32x53x160xf32, strides: [8480, 8480, 160, 1]>, none), %R0, %B549 = "arith.mul"(%R2.1152, %C1.4426950216293335, %D41) {round_mode = 0} : (memref<1x32x53x160xf32, strides: [8480, 8480, 160, 1]>, f32, none) -> (memref<1x32x53x160xf32, strides: [8480, 8480, 160, 1]>, none), %R13, %B550 = "arith.cast"(%R0, %D41) {round_mode = 3} : (memref<1x32x53x160xf32, strides: [8480, 8480, 160, 1]>, none) -> (memref<1x32x53x160xf32, strides: [8480, 8480, 160, 1]>, none), %R0, %B551 = "arith.mul"(%R13, %C0.6931471824645996, %D41) {round_mode = 0} : (memref<1x32x53x160xf32, strides: [8480, 8480, 160, 1]>, f32, none) -> (memref<1x32x53x160xf32, strides: [8480, 8480, 160, 1]>, none), %R0, %B552 = "arith.sub"(%R2.1152, %R0, %D41) {round_mode = 0} : (memref<1x32x53x160xf32, strides: [8480, 8480, 160, 1]>, memref<1x32x53x160xf32, strides: [8480, 8480, 160, 1]>, none) -> (memref<1x32x53x160xf32, strides: [8480, 8480, 160, 1]>, none), %R2.1152, %B553 = "arith.cast"(%R13, %D41) {round_mode = 1} : (memref<1x32x53x160xf32, strides: [8480, 8480, 160, 1]>, none) -> (memref<1x32x53x160xsi16, strides: [8480, 8480, 160, 1]>, none), %R13, %B554 = "arith.min"(%R2.1152, %C127, %D41) {round_mode = 0} : (memref<1x32x53x160xsi16, strides: [8480, 8480, 160, 1]>, si16, none) -> (memref<1x32x53x160xsi16, strides: [8480, 8480, 160, 1]>, none), %R2.1152, %B555 = "arith.max"(%R13, %C-127, %D41) {round_mode = 0} : (memref<1x32x53x160xsi16, strides: [8480, 8480, 160, 1]>, si16, none) -> (memref<1x32x53x160xsi16, strides: [8480, 8480, 160, 1]>, none), %R13, %B556 = "arith.adds"(%R2.1152, %C127, %C23, %D41) {round_mode = 1} : (memref<1x32x53x160xsi16, strides: [8480, 8480, 160, 1]>, si16, ui8, none) -> (memref<1x32x53x160xsi32, strides: [8480, 8480, 160, 1]>, none), %R2.1152, %B557 = "sfu.taylor_4x"(%R0, %R4.2304, %D41) : (memref<1x32x53x160xf32, strides: [8480, 8480, 160, 1]>, memref<1x32x1x10xf32, strides: [0, 0, 10, 1]>, none) -> (memref<1x32x53x160xf32, strides: [8480, 8480, 160, 1]>, none), %R13, %B558 = "arith.mul"(%R2.1152, %R13, %D41) {round_mode = 0} : (memref<1x32x53x160xf32, strides: [8480, 8480, 160, 1]>, memref<1x32x53x160xf32, strides: [8480, 8480, 160, 1]>, none) -> (memref<1x32x53x160xf32, strides: [8480, 8480, 160, 1]>, none), %R0, %B559 = "arith.add"(%R13, %C1.0, %D41) {round_mode = 0} : (memref<1x32x53x160xf32, strides: [8480, 8480, 160, 1]>, f32, none) -> (memref<1x32x53x160xf32, strides: [8480, 8480, 160, 1]>, none), %R13, %B560 = "arith.div"(%C1.0, %R0, %D41) {iter = 3} : (f32, memref<1x32x53x160xf32, strides: [8480, 8480, 160, 1]>, none) -> (memref<1x32x53x160xf32, strides: [8480, 8480, 160, 1]>, none), %R13, %B561 = "arith.mul"(%R13, %R10, %D41) {round_mode = 0} : (memref<1x32x53x160xf32, strides: [8480, 8480, 160, 1]>, memref<1x32x53x160xf32, strides: [8480, 8480, 160, 1]>, none) -> (memref<1x32x53x160xf32, strides: [8480, 8480, 160, 1]>, none), %R10, %B562 = "conv.normal"(%R13, %R9.8960, %R9.10112, %C0.0, %D41) {kernel = [3, 3], stride = [2, 2], in_zero = [0, 0], ke_zero = [0, 0], kernel_rotate = False, pad_mode = 0, pad = [0, 0, 1, 0], res_add = False} : (memref<1x32x53x160xf32, strides: [8480, 8480, 160, 1]>, memref<64x32x3x3xf32>, memref<1x64x1x1xf32, strides: [1, 1, 1, 1]>, f32, none) -> (memref<1x64x26x80xf32, strides: [2080, 2080, 80, 1]>, none), %R0, %D42 = "dma.tensor"(%G43269360, %B561) {decompress = False} : (memref<1x3x110x324xf32, strides: [1228800, 409600, 640, 1]>, none) -> (memref<1x3x110x324xf32, strides: [35648, 35648, 324, 1]>, none), %R12.256, %B563 = "tsbc.s_bc"(%S1024, %D42) : (memref<1x64x1x10xf32>, none) -> (memref<1x64x1x10xf32, strides: [16, 16, 10, 1]>, none), %R11.8320, %B564 = "arith.sub"(%C0.0, %R10, %D42) {round_mode = 0} : (f32, memref<1x64x26x80xf32, strides: [2080, 2080, 80, 1]>, none) -> (memref<1x64x26x80xf32, strides: [2080, 2080, 80, 1]>, none), %R11.8320, %B565 = "arith.max"(%R11.8320, %C-3.4028198694267105e+35, %D42) {round_mode = 0} : (memref<1x64x26x80xf32, strides: [2080, 2080, 80, 1]>, f32, none) -> (memref<1x64x26x80xf32, strides: [2080, 2080, 80, 1]>, none), %R11, %B566 = "arith.mul"(%R11.8320, %C1.4426950216293335, %D42) {round_mode = 0} : (memref<1x64x26x80xf32, strides: [2080, 2080, 80, 1]>, f32, none) -> (memref<1x64x26x80xf32, strides: [2080, 2080, 80, 1]>, none), %R9.320, %B567 = "arith.cast"(%R11, %D42) {round_mode = 3} : (memref<1x64x26x80xf32, strides: [2080, 2080, 80, 1]>, none) -> (memref<1x64x26x80xf32, strides: [2080, 2080, 80, 1]>, none), %R11, %B568 = "arith.mul"(%R9.320, %C0.6931471824645996, %D42) {round_mode = 0} : (memref<1x64x26x80xf32, strides: [2080, 2080, 80, 1]>, f32, none) -> (memref<1x64x26x80xf32, strides: [2080, 2080, 80, 1]>, none), %R11, %B569 = "arith.sub"(%R11.8320, %R11, %D42) {round_mode = 0} : (memref<1x64x26x80xf32, strides: [2080, 2080, 80, 1]>, memref<1x64x26x80xf32, strides: [2080, 2080, 80, 1]>, none) -> (memref<1x64x26x80xf32, strides: [2080, 2080, 80, 1]>, none), %R11.8320, %B570 = "arith.cast"(%R9.320, %D42) {round_mode = 1} : (memref<1x64x26x80xf32, strides: [2080, 2080, 80, 1]>, none) -> (memref<1x64x26x80xsi16, strides: [2080, 2080, 80, 1]>, none), %R9.320, %B571 = "arith.min"(%R11.8320, %C127, %D42) {round_mode = 0} : (memref<1x64x26x80xsi16, strides: [2080, 2080, 80, 1]>, si16, none) -> (memref<1x64x26x80xsi16, strides: [2080, 2080, 80, 1]>, none), %R11.8320, %B572 = "arith.max"(%R9.320, %C-127, %D42) {round_mode = 0} : (memref<1x64x26x80xsi16, strides: [2080, 2080, 80, 1]>, si16, none) -> (memref<1x64x26x80xsi16, strides: [2080, 2080, 80, 1]>, none), %R9.320, %B573 = "arith.adds"(%R11.8320, %C127, %C23, %D42) {round_mode = 1} : (memref<1x64x26x80xsi16, strides: [2080, 2080, 80, 1]>, si16, ui8, none) -> (memref<1x64x26x80xsi32, strides: [2080, 2080, 80, 1]>, none), %R11.8320, %B574 = "sfu.taylor_4x"(%R11, %R12.256, %D42) : (memref<1x64x26x80xf32, strides: [2080, 2080, 80, 1]>, memref<1x64x1x10xf32, strides: [0, 0, 10, 1]>, none) -> (memref<1x64x26x80xf32, strides: [2080, 2080, 80, 1]>, none), %R9.320, %B575 = "arith.mul"(%R11.8320, %R9.320, %D42) {round_mode = 0} : (memref<1x64x26x80xf32, strides: [2080, 2080, 80, 1]>, memref<1x64x26x80xf32, strides: [2080, 2080, 80, 1]>, none) -> (memref<1x64x26x80xf32, strides: [2080, 2080, 80, 1]>, none), %R11, %B576 = "arith.add"(%R9.320, %C1.0, %D42) {round_mode = 0} : (memref<1x64x26x80xf32, strides: [2080, 2080, 80, 1]>, f32, none) -> (memref<1x64x26x80xf32, strides: [2080, 2080, 80, 1]>, none), %R9.320, %B577 = "arith.div"(%C1.0, %R11, %D42) {iter = 3} : (f32, memref<1x64x26x80xf32, strides: [2080, 2080, 80, 1]>, none) -> (memref<1x64x26x80xf32, strides: [2080, 2080, 80, 1]>, none), %R9.320, %B578 = "arith.mul"(%R9.320, %R10, %D42) {round_mode = 0} : (memref<1x64x26x80xf32, strides: [2080, 2080, 80, 1]>, memref<1x64x26x80xf32, strides: [2080, 2080, 80, 1]>, none) -> (memref<1x64x26x80xf32, strides: [2080, 2080, 80, 1]>, none), %R10, %B579 = "conv.normal"(%R9.320, %R15.3136, %R9.10240, %C0.0, %D42) {kernel = [1, 1], stride = [1, 1], in_zero = [0, 0], ke_zero = [0, 0], kernel_rotate = False, pad_mode = 0, pad = [0, 0, 0, 0], res_add = False} : (memref<1x64x26x80xf32, strides: [2080, 2080, 80, 1]>, memref<32x64x1x1xf32>, memref<1x32x1x1xf32, strides: [1, 1, 1, 1]>, f32, none) -> (memref<1x32x26x80xf32, strides: [2080, 2080, 80, 1]>, none), %G29183488, %D43 = "dma.tensor"(%R9.320, %B578) {decompress = False} : (memref<1x64x26x80xf32, strides: [2080, 2080, 80, 1]>, none) -> (memref<1x64x26x80xf32, strides: [1638400, 25600, 160, 1]>, none), %R12.256, %B580 = "tsbc.s_bc"(%S1024, %D43) : (memref<1x64x1x10xf32>, none) -> (memref<1x64x1x10xf32, strides: [16, 16, 10, 1]>, none), %R11.8320, %B581 = "arith.sub"(%C0.0, %R10, %D43) {round_mode = 0} : (f32, memref<1x32x26x80xf32, strides: [2080, 2080, 80, 1]>, none) -> (memref<1x32x26x80xf32, strides: [2080, 2080, 80, 1]>, none), %R11.8320, %B582 = "arith.max"(%R11.8320, %C-3.4028198694267105e+35, %D43) {round_mode = 0} : (memref<1x32x26x80xf32, strides: [2080, 2080, 80, 1]>, f32, none) -> (memref<1x32x26x80xf32, strides: [2080, 2080, 80, 1]>, none), %R11, %B583 = "arith.mul"(%R11.8320, %C1.4426950216293335, %D43) {round_mode = 0} : (memref<1x32x26x80xf32, strides: [2080, 2080, 80, 1]>, f32, none) -> (memref<1x32x26x80xf32, strides: [2080, 2080, 80, 1]>, none), %R9.320, %B584 = "arith.cast"(%R11, %D43) {round_mode = 3} : (memref<1x32x26x80xf32, strides: [2080, 2080, 80, 1]>, none) -> (memref<1x32x26x80xf32, strides: [2080, 2080, 80, 1]>, none), %R11, %B585 = "arith.mul"(%R9.320, %C0.6931471824645996, %D43) {round_mode = 0} : (memref<1x32x26x80xf32, strides: [2080, 2080, 80, 1]>, f32, none) -> (memref<1x32x26x80xf32, strides: [2080, 2080, 80, 1]>, none), %R11, %B586 = "arith.sub"(%R11.8320, %R11, %D43) {round_mode = 0} : (memref<1x32x26x80xf32, strides: [2080, 2080, 80, 1]>, memref<1x32x26x80xf32, strides: [2080, 2080, 80, 1]>, none) -> (memref<1x32x26x80xf32, strides: [2080, 2080, 80, 1]>, none), %R11.8320, %B587 = "arith.cast"(%R9.320, %D43) {round_mode = 1} : (memref<1x32x26x80xf32, strides: [2080, 2080, 80, 1]>, none) -> (memref<1x32x26x80xsi16, strides: [2080, 2080, 80, 1]>, none), %R9.320, %B588 = "arith.min"(%R11.8320, %C127, %D43) {round_mode = 0} : (memref<1x32x26x80xsi16, strides: [2080, 2080, 80, 1]>, si16, none) -> (memref<1x32x26x80xsi16, strides: [2080, 2080, 80, 1]>, none), %R11.8320, %B589 = "arith.max"(%R9.320, %C-127, %D43) {round_mode = 0} : (memref<1x32x26x80xsi16, strides: [2080, 2080, 80, 1]>, si16, none) -> (memref<1x32x26x80xsi16, strides: [2080, 2080, 80, 1]>, none), %R9.320, %B590 = "arith.adds"(%R11.8320, %C127, %C23, %D43) {round_mode = 1} : (memref<1x32x26x80xsi16, strides: [2080, 2080, 80, 1]>, si16, ui8, none) -> (memref<1x32x26x80xsi32, strides: [2080, 2080, 80, 1]>, none), %R11.8320, %B591 = "sfu.taylor_4x"(%R11, %R12.256, %D43) : (memref<1x32x26x80xf32, strides: [2080, 2080, 80, 1]>, memref<1x32x1x10xf32, strides: [0, 0, 10, 1]>, none) -> (memref<1x32x26x80xf32, strides: [2080, 2080, 80, 1]>, none), %R9.320, %B592 = "arith.mul"(%R11.8320, %R9.320, %D43) {round_mode = 0} : (memref<1x32x26x80xf32, strides: [2080, 2080, 80, 1]>, memref<1x32x26x80xf32, strides: [2080, 2080, 80, 1]>, none) -> (memref<1x32x26x80xf32, strides: [2080, 2080, 80, 1]>, none), %R11, %B593 = "arith.add"(%R9.320, %C1.0, %D43) {round_mode = 0} : (memref<1x32x26x80xf32, strides: [2080, 2080, 80, 1]>, f32, none) -> (memref<1x32x26x80xf32, strides: [2080, 2080, 80, 1]>, none), %R9.320, %B594 = "arith.div"(%C1.0, %R11, %D43) {iter = 3} : (f32, memref<1x32x26x80xf32, strides: [2080, 2080, 80, 1]>, none) -> (memref<1x32x26x80xf32, strides: [2080, 2080, 80, 1]>, none), %R9.320, %B595 = "arith.mul"(%R9.320, %R10, %D43) {round_mode = 0} : (memref<1x32x26x80xf32, strides: [2080, 2080, 80, 1]>, memref<1x32x26x80xf32, strides: [2080, 2080, 80, 1]>, none) -> (memref<1x32x26x80xf32, strides: [2080, 2080, 80, 1]>, none), %R10, %B596 = "conv.normal"(%R9.320, %R15.3392, %R9.10304, %C0.0, %D43) {kernel = [1, 1], stride = [1, 1], in_zero = [0, 0], ke_zero = [0, 0], kernel_rotate = False, pad_mode = 0, pad = [0, 0, 0, 0], res_add = False} : (memref<1x32x26x80xf32, strides: [2080, 2080, 80, 1]>, memref<32x32x1x1xf32>, memref<1x32x1x1xf32, strides: [1, 1, 1, 1]>, f32, none) -> (memref<1x32x26x80xf32, strides: [2080, 2080, 80, 1]>, none), %R12.256, %B597 = "tsbc.s_bc"(%S1024, %D43) : (memref<1x64x1x10xf32>, none) -> (memref<1x64x1x10xf32, strides: [16, 16, 10, 1]>, none), %R11.8320, %B598 = "arith.sub"(%C0.0, %R10, %D43) {round_mode = 0} : (f32, memref<1x32x26x80xf32, strides: [2080, 2080, 80, 1]>, none) -> (memref<1x32x26x80xf32, strides: [2080, 2080, 80, 1]>, none), %R11.8320, %B599 = "arith.max"(%R11.8320, %C-3.4028198694267105e+35, %D43) {round_mode = 0} : (memref<1x32x26x80xf32, strides: [2080, 2080, 80, 1]>, f32, none) -> (memref<1x32x26x80xf32, strides: [2080, 2080, 80, 1]>, none), %R11, %B600 = "arith.mul"(%R11.8320, %C1.4426950216293335, %D43) {round_mode = 0} : (memref<1x32x26x80xf32, strides: [2080, 2080, 80, 1]>, f32, none) -> (memref<1x32x26x80xf32, strides: [2080, 2080, 80, 1]>, none), %R13, %B601 = "arith.cast"(%R11, %D43) {round_mode = 3} : (memref<1x32x26x80xf32, strides: [2080, 2080, 80, 1]>, none) -> (memref<1x32x26x80xf32, strides: [2080, 2080, 80, 1]>, none), %R11, %B602 = "arith.mul"(%R13, %C0.6931471824645996, %D43) {round_mode = 0} : (memref<1x32x26x80xf32, strides: [2080, 2080, 80, 1]>, f32, none) -> (memref<1x32x26x80xf32, strides: [2080, 2080, 80, 1]>, none), %R11, %B603 = "arith.sub"(%R11.8320, %R11, %D43) {round_mode = 0} : (memref<1x32x26x80xf32, strides: [2080, 2080, 80, 1]>, memref<1x32x26x80xf32, strides: [2080, 2080, 80, 1]>, none) -> (memref<1x32x26x80xf32, strides: [2080, 2080, 80, 1]>, none), %R11.8320, %B604 = "arith.cast"(%R13, %D43) {round_mode = 1} : (memref<1x32x26x80xf32, strides: [2080, 2080, 80, 1]>, none) -> (memref<1x32x26x80xsi16, strides: [2080, 2080, 80, 1]>, none), %R13, %B605 = "arith.min"(%R11.8320, %C127, %D43) {round_mode = 0} : (memref<1x32x26x80xsi16, strides: [2080, 2080, 80, 1]>, si16, none) -> (memref<1x32x26x80xsi16, strides: [2080, 2080, 80, 1]>, none), %R11.8320, %B606 = "arith.max"(%R13, %C-127, %D43) {round_mode = 0} : (memref<1x32x26x80xsi16, strides: [2080, 2080, 80, 1]>, si16, none) -> (memref<1x32x26x80xsi16, strides: [2080, 2080, 80, 1]>, none), %R13, %B607 = "arith.adds"(%R11.8320, %C127, %C23, %D43) {round_mode = 1} : (memref<1x32x26x80xsi16, strides: [2080, 2080, 80, 1]>, si16, ui8, none) -> (memref<1x32x26x80xsi32, strides: [2080, 2080, 80, 1]>, none), %R11.8320, %B608 = "sfu.taylor_4x"(%R11, %R12.256, %D43) : (memref<1x32x26x80xf32, strides: [2080, 2080, 80, 1]>, memref<1x32x1x10xf32, strides: [0, 0, 10, 1]>, none) -> (memref<1x32x26x80xf32, strides: [2080, 2080, 80, 1]>, none), %R13, %B609 = "arith.mul"(%R11.8320, %R13, %D43) {round_mode = 0} : (memref<1x32x26x80xf32, strides: [2080, 2080, 80, 1]>, memref<1x32x26x80xf32, strides: [2080, 2080, 80, 1]>, none) -> (memref<1x32x26x80xf32, strides: [2080, 2080, 80, 1]>, none), %R11, %B610 = "arith.add"(%R13, %C1.0, %D43) {round_mode = 0} : (memref<1x32x26x80xf32, strides: [2080, 2080, 80, 1]>, f32, none) -> (memref<1x32x26x80xf32, strides: [2080, 2080, 80, 1]>, none), %R13, %B611 = "arith.div"(%C1.0, %R11, %D43) {iter = 3} : (f32, memref<1x32x26x80xf32, strides: [2080, 2080, 80, 1]>, none) -> (memref<1x32x26x80xf32, strides: [2080, 2080, 80, 1]>, none), %R13, %B612 = "arith.mul"(%R13, %R10, %D43) {round_mode = 0} : (memref<1x32x26x80xf32, strides: [2080, 2080, 80, 1]>, memref<1x32x26x80xf32, strides: [2080, 2080, 80, 1]>, none) -> (memref<1x32x26x80xf32, strides: [2080, 2080, 80, 1]>, none), %G50433536, %D44 = "dma.tensor"(%R9.320, %B596) {decompress = False} : (memref<1x32x26x80xf32, strides: [2080, 2080, 80, 1]>, none) -> (memref<1x32x26x80xf32, strides: [819200, 25600, 160, 1]>, none), %R10, %B613 = "conv.normal"(%R0, %R15.2688, %R9.10176, %C0.0, %D44) {kernel = [6, 6], stride = [2, 2], in_zero = [0, 0], ke_zero = [0, 0], kernel_rotate = False, pad_mode = 0, pad = [0, 0, 0, 2], res_add = False} : (memref<1x3x110x324xf32, strides: [35648, 35648, 324, 1]>, memref<32x3x6x6xf32>, memref<1x32x1x1xf32, strides: [1, 1, 1, 1]>, f32, none) -> (memref<1x32x53x161xf32, strides: [8544, 8544, 161, 1]>, none), %G47156736, %D45 = "dma.tensor"(%R13, %B612) {decompress = False} : (memref<1x32x26x80xf32, strides: [2080, 2080, 80, 1]>, none) -> (memref<1x32x26x80xf32, strides: [819200, 25600, 160, 1]>, none), %R4.2816, %B614 = "tsbc.s_bc"(%S1024, %D45) : (memref<1x64x1x10xf32>, none) -> (memref<1x64x1x10xf32, strides: [16, 16, 10, 1]>, none), %R2.1408, %B615 = "arith.sub"(%C0.0, %R10, %D45) {round_mode = 0} : (f32, memref<1x32x53x161xf32, strides: [8544, 8544, 161, 1]>, none) -> (memref<1x32x53x161xf32, strides: [8544, 8544, 161, 1]>, none), %R2.1408, %B616 = "arith.max"(%R2.1408, %C-3.4028198694267105e+35, %D45) {round_mode = 0} : (memref<1x32x53x161xf32, strides: [8544, 8544, 161, 1]>, f32, none) -> (memref<1x32x53x161xf32, strides: [8544, 8544, 161, 1]>, none), %R0, %B617 = "arith.mul"(%R2.1408, %C1.4426950216293335, %D45) {round_mode = 0} : (memref<1x32x53x161xf32, strides: [8544, 8544, 161, 1]>, f32, none) -> (memref<1x32x53x161xf32, strides: [8544, 8544, 161, 1]>, none), %R13, %B618 = "arith.cast"(%R0, %D45) {round_mode = 3} : (memref<1x32x53x161xf32, strides: [8544, 8544, 161, 1]>, none) -> (memref<1x32x53x161xf32, strides: [8544, 8544, 161, 1]>, none), %R0, %B619 = "arith.mul"(%R13, %C0.6931471824645996, %D45) {round_mode = 0} : (memref<1x32x53x161xf32, strides: [8544, 8544, 161, 1]>, f32, none) -> (memref<1x32x53x161xf32, strides: [8544, 8544, 161, 1]>, none), %R0, %B620 = "arith.sub"(%R2.1408, %R0, %D45) {round_mode = 0} : (memref<1x32x53x161xf32, strides: [8544, 8544, 161, 1]>, memref<1x32x53x161xf32, strides: [8544, 8544, 161, 1]>, none) -> (memref<1x32x53x161xf32, strides: [8544, 8544, 161, 1]>, none), %R2.1408, %B621 = "arith.cast"(%R13, %D45) {round_mode = 1} : (memref<1x32x53x161xf32, strides: [8544, 8544, 161, 1]>, none) -> (memref<1x32x53x161xsi16, strides: [8544, 8544, 161, 1]>, none), %R13, %B622 = "arith.min"(%R2.1408, %C127, %D45) {round_mode = 0} : (memref<1x32x53x161xsi16, strides: [8544, 8544, 161, 1]>, si16, none) -> (memref<1x32x53x161xsi16, strides: [8544, 8544, 161, 1]>, none), %R2.1408, %B623 = "arith.max"(%R13, %C-127, %D45) {round_mode = 0} : (memref<1x32x53x161xsi16, strides: [8544, 8544, 161, 1]>, si16, none) -> (memref<1x32x53x161xsi16, strides: [8544, 8544, 161, 1]>, none), %R13, %B624 = "arith.adds"(%R2.1408, %C127, %C23, %D45) {round_mode = 1} : (memref<1x32x53x161xsi16, strides: [8544, 8544, 161, 1]>, si16, ui8, none) -> (memref<1x32x53x161xsi32, strides: [8544, 8544, 161, 1]>, none), %R2.1408, %B625 = "sfu.taylor_4x"(%R0, %R4.2816, %D45) : (memref<1x32x53x161xf32, strides: [8544, 8544, 161, 1]>, memref<1x32x1x10xf32, strides: [0, 0, 10, 1]>, none) -> (memref<1x32x53x161xf32, strides: [8544, 8544, 161, 1]>, none), %R13, %B626 = "arith.mul"(%R2.1408, %R13, %D45) {round_mode = 0} : (memref<1x32x53x161xf32, strides: [8544, 8544, 161, 1]>, memref<1x32x53x161xf32, strides: [8544, 8544, 161, 1]>, none) -> (memref<1x32x53x161xf32, strides: [8544, 8544, 161, 1]>, none), %R0, %B627 = "arith.add"(%R13, %C1.0, %D45) {round_mode = 0} : (memref<1x32x53x161xf32, strides: [8544, 8544, 161, 1]>, f32, none) -> (memref<1x32x53x161xf32, strides: [8544, 8544, 161, 1]>, none), %R13, %B628 = "arith.div"(%C1.0, %R0, %D45) {iter = 3} : (f32, memref<1x32x53x161xf32, strides: [8544, 8544, 161, 1]>, none) -> (memref<1x32x53x161xf32, strides: [8544, 8544, 161, 1]>, none), %R13, %B629 = "arith.mul"(%R13, %R10, %D45) {round_mode = 0} : (memref<1x32x53x161xf32, strides: [8544, 8544, 161, 1]>, memref<1x32x53x161xf32, strides: [8544, 8544, 161, 1]>, none) -> (memref<1x32x53x161xf32, strides: [8544, 8544, 161, 1]>, none), %R10, %B630 = "conv.normal"(%R13, %R9.8960, %R9.10112, %C0.0, %D45) {kernel = [3, 3], stride = [2, 2], in_zero = [0, 0], ke_zero = [0, 0], kernel_rotate = False, pad_mode = 0, pad = [0, 0, 0, 1], res_add = False} : (memref<1x32x53x161xf32, strides: [8544, 8544, 161, 1]>, memref<64x32x3x3xf32>, memref<1x64x1x1xf32, strides: [1, 1, 1, 1]>, f32, none) -> (memref<1x64x26x80xf32, strides: [2080, 2080, 80, 1]>, none), %R0, %D46 = "dma.tensor"(%G43534336, %B629) {decompress = False} : (memref<1x3x108x322xf32, strides: [1228800, 409600, 640, 1]>, none) -> (memref<1x3x108x322xf32, strides: [34784, 34784, 322, 1]>, none), %R12.256, %B631 = "tsbc.s_bc"(%S1024, %D46) : (memref<1x64x1x10xf32>, none) -> (memref<1x64x1x10xf32, strides: [16, 16, 10, 1]>, none), %R11.8320, %B632 = "arith.sub"(%C0.0, %R10, %D46) {round_mode = 0} : (f32, memref<1x64x26x80xf32, strides: [2080, 2080, 80, 1]>, none) -> (memref<1x64x26x80xf32, strides: [2080, 2080, 80, 1]>, none), %R11.8320, %B633 = "arith.max"(%R11.8320, %C-3.4028198694267105e+35, %D46) {round_mode = 0} : (memref<1x64x26x80xf32, strides: [2080, 2080, 80, 1]>, f32, none) -> (memref<1x64x26x80xf32, strides: [2080, 2080, 80, 1]>, none), %R11, %B634 = "arith.mul"(%R11.8320, %C1.442…
20082688, %B1745) {decompress = False} : (memref<1x128x1x1xf32, strides: [128, 1, 1, 1]>, none) -> (memref<1x128x1x1xf32, strides: [2, 1, 1, 1]>, none), %R3, %B1762 = "conv.normal"(%R1.9216, %R6, %R7, %C0.0, %D167) {kernel = [1, 1], stride = [1, 1], in_zero = [0, 0], ke_zero = [0, 0], kernel_rotate = False, pad_mode = 0, pad = [0, 0, 0, 0], res_add = False} : (memref<1x128x40x40xf32, strides: [3200, 1600, 40, 1]>, memref<128x128x1x1xf32>, memref<1x128x1x1xf32, strides: [2, 1, 1, 1]>, f32, none) -> (memref<1x128x40x40xf32, strides: [3200, 1600, 40, 1]>, none), %R5.9344, %D168 = "dma.tensor"(%G20676608, %B1761) {decompress = False} : (memref<1x128x1x1xf32, strides: [128, 1, 1, 1]>, none) -> (memref<1x128x1x1xf32, strides: [2, 1, 1, 1]>, none), %R5.9216, %B1763 = "tsbc.s_bc"(%S1024, %D168) : (memref<1x64x1x10xf32>, none) -> (memref<1x64x1x10xf32, strides: [16, 16, 10, 1]>, none), %R4.12800, %B1764 = "arith.sub"(%C0.0, %R3, %D168) {round_mode = 0} : (f32, memref<1x128x40x40xf32, strides: [3200, 1600, 40, 1]>, none) -> (memref<1x128x40x40xf32, strides: [3200, 1600, 40, 1]>, none), %R4.12800, %B1765 = "arith.max"(%R4.12800, %C-3.4028198694267105e+35, %D168) {round_mode = 0} : (memref<1x128x40x40xf32, strides: [3200, 1600, 40, 1]>, f32, none) -> (memref<1x128x40x40xf32, strides: [3200, 1600, 40, 1]>, none), %R4, %B1766 = "arith.mul"(%R4.12800, %C1.4426950216293335, %D168) {round_mode = 0} : (memref<1x128x40x40xf32, strides: [3200, 1600, 40, 1]>, f32, none) -> (memref<1x128x40x40xf32, strides: [3200, 1600, 40, 1]>, none), %R1.9216, %B1767 = "arith.cast"(%R4, %D168) {round_mode = 3} : (memref<1x128x40x40xf32, strides: [3200, 1600, 40, 1]>, none) -> (memref<1x128x40x40xf32, strides: [3200, 1600, 40, 1]>, none), %R4, %B1768 = "arith.mul"(%R1.9216, %C0.6931471824645996, %D168) {round_mode = 0} : (memref<1x128x40x40xf32, strides: [3200, 1600, 40, 1]>, f32, none) -> (memref<1x128x40x40xf32, strides: [3200, 1600, 40, 1]>, none), %R4, %B1769 = "arith.sub"(%R4.12800, %R4, %D168) {round_mode = 0} : (memref<1x128x40x40xf32, strides: [3200, 1600, 40, 1]>, memref<1x128x40x40xf32, strides: [3200, 1600, 40, 1]>, none) -> (memref<1x128x40x40xf32, strides: [3200, 1600, 40, 1]>, none), %R4.12800, %B1770 = "arith.cast"(%R1.9216, %D168) {round_mode = 1} : (memref<1x128x40x40xf32, strides: [3200, 1600, 40, 1]>, none) -> (memref<1x128x40x40xsi16, strides: [3200, 1600, 40, 1]>, none), %R1.9216, %B1771 = "arith.min"(%R4.12800, %C127, %D168) {round_mode = 0} : (memref<1x128x40x40xsi16, strides: [3200, 1600, 40, 1]>, si16, none) -> (memref<1x128x40x40xsi16, strides: [3200, 1600, 40, 1]>, none), %R4.12800, %B1772 = "arith.max"(%R1.9216, %C-127, %D168) {round_mode = 0} : (memref<1x128x40x40xsi16, strides: [3200, 1600, 40, 1]>, si16, none) -> (memref<1x128x40x40xsi16, strides: [3200, 1600, 40, 1]>, none), %R1.9216, %B1773 = "arith.adds"(%R4.12800, %C127, %C23, %D168) {round_mode = 1} : (memref<1x128x40x40xsi16, strides: [3200, 1600, 40, 1]>, si16, ui8, none) -> (memref<1x128x40x40xsi32, strides: [3200, 1600, 40, 1]>, none), %R4.12800, %B1774 = "sfu.taylor_4x"(%R4, %R5.9216, %D168) : (memref<1x128x40x40xf32, strides: [3200, 1600, 40, 1]>, memref<1x64x1x10xf32, strides: [0, 0, 10, 1]>, none) -> (memref<1x128x40x40xf32, strides: [3200, 1600, 40, 1]>, none), %R1.9216, %B1775 = "arith.mul"(%R4.12800, %R1.9216, %D168) {round_mode = 0} : (memref<1x128x40x40xf32, strides: [3200, 1600, 40, 1]>, memref<1x128x40x40xf32, strides: [3200, 1600, 40, 1]>, none) -> (memref<1x128x40x40xf32, strides: [3200, 1600, 40, 1]>, none), %R4, %B1776 = "arith.add"(%R1.9216, %C1.0, %D168) {round_mode = 0} : (memref<1x128x40x40xf32, strides: [3200, 1600, 40, 1]>, f32, none) -> (memref<1x128x40x40xf32, strides: [3200, 1600, 40, 1]>, none), %R1.9216, %B1777 = "arith.div"(%C1.0, %R4, %D168) {iter = 3} : (f32, memref<1x128x40x40xf32, strides: [3200, 1600, 40, 1]>, none) -> (memref<1x128x40x40xf32, strides: [3200, 1600, 40, 1]>, none), %R1.9216, %B1778 = "arith.mul"(%R1.9216, %R3, %D168) {round_mode = 0} : (memref<1x128x40x40xf32, strides: [3200, 1600, 40, 1]>, memref<1x128x40x40xf32, strides: [3200, 1600, 40, 1]>, none) -> (memref<1x128x40x40xf32, strides: [3200, 1600, 40, 1]>, none), %R6, %D169 = "dma.tensor"(%G20086784, %B1762) {decompress = False} : (memref<1x128x128x9xf32, strides: [147456, 1152, 9, 1]>, none) -> (memref<1x128x128x9xf32, strides: [2304, 1152, 9, 1]>, none), %R4, %B1779 = "conv.normal"(%R1.9216, %R6, %R5.9344, %C0.0, %D169) {kernel = [3, 3], stride = [1, 1], in_zero = [0, 0], ke_zero = [0, 0], kernel_rotate = False, pad_mode = 0, pad = [1, 1, 1, 1], res_add = False} : (memref<1x128x40x40xf32, strides: [3200, 1600, 40, 1]>, memref<128x128x3x3xf32>, memref<1x128x1x1xf32, strides: [2, 1, 1, 1]>, f32, none) -> (memref<1x128x40x40xf32, strides: [3200, 1600, 40, 1]>, none), %R3.2048, %B1780 = "tsbc.s_bc"(%S1024, %D169) : (memref<1x64x1x10xf32>, none) -> (memref<1x64x1x10xf32, strides: [16, 16, 10, 1]>, none), %R2.5632, %B1781 = "arith.sub"(%C0.0, %R4, %D169) {round_mode = 0} : (f32, memref<1x128x40x40xf32, strides: [3200, 1600, 40, 1]>, none) -> (memref<1x128x40x40xf32, strides: [3200, 1600, 40, 1]>, none), %R2.5632, %B1782 = "arith.max"(%R2.5632, %C-3.4028198694267105e+35, %D169) {round_mode = 0} : (memref<1x128x40x40xf32, strides: [3200, 1600, 40, 1]>, f32, none) -> (memref<1x128x40x40xf32, strides: [3200, 1600, 40, 1]>, none), %R1.9216, %B1783 = "arith.mul"(%R2.5632, %C1.4426950216293335, %D169) {round_mode = 0} : (memref<1x128x40x40xf32, strides: [3200, 1600, 40, 1]>, f32, none) -> (memref<1x128x40x40xf32, strides: [3200, 1600, 40, 1]>, none), %R5, %B1784 = "arith.cast"(%R1.9216, %D169) {round_mode = 3} : (memref<1x128x40x40xf32, strides: [3200, 1600, 40, 1]>, none) -> (memref<1x128x40x40xf32, strides: [3200, 1600, 40, 1]>, none), %R1.9216, %B1785 = "arith.mul"(%R5, %C0.6931471824645996, %D169) {round_mode = 0} : (memref<1x128x40x40xf32, strides: [3200, 1600, 40, 1]>, f32, none) -> (memref<1x128x40x40xf32, strides: [3200, 1600, 40, 1]>, none), %R1.9216, %B1786 = "arith.sub"(%R2.5632, %R1.9216, %D169) {round_mode = 0} : (memref<1x128x40x40xf32, strides: [3200, 1600, 40, 1]>, memref<1x128x40x40xf32, strides: [3200, 1600, 40, 1]>, none) -> (memref<1x128x40x40xf32, strides: [3200, 1600, 40, 1]>, none), %R2.5632, %B1787 = "arith.cast"(%R5, %D169) {round_mode = 1} : (memref<1x128x40x40xf32, strides: [3200, 1600, 40, 1]>, none) -> (memref<1x128x40x40xsi16, strides: [3200, 1600, 40, 1]>, none), %R5, %B1788 = "arith.min"(%R2.5632, %C127, %D169) {round_mode = 0} : (memref<1x128x40x40xsi16, strides: [3200, 1600, 40, 1]>, si16, none) -> (memref<1x128x40x40xsi16, strides: [3200, 1600, 40, 1]>, none), %R2.5632, %B1789 = "arith.max"(%R5, %C-127, %D169) {round_mode = 0} : (memref<1x128x40x40xsi16, strides: [3200, 1600, 40, 1]>, si16, none) -> (memref<1x128x40x40xsi16, strides: [3200, 1600, 40, 1]>, none), %R5, %B1790 = "arith.adds"(%R2.5632, %C127, %C23, %D169) {round_mode = 1} : (memref<1x128x40x40xsi16, strides: [3200, 1600, 40, 1]>, si16, ui8, none) -> (memref<1x128x40x40xsi32, strides: [3200, 1600, 40, 1]>, none), %R2.5632, %B1791 = "sfu.taylor_4x"(%R1.9216, %R3.2048, %D169) : (memref<1x128x40x40xf32, strides: [3200, 1600, 40, 1]>, memref<1x64x1x10xf32, strides: [0, 0, 10, 1]>, none) -> (memref<1x128x40x40xf32, strides: [3200, 1600, 40, 1]>, none), %R5, %B1792 = "arith.mul"(%R2.5632, %R5, %D169) {round_mode = 0} : (memref<1x128x40x40xf32, strides: [3200, 1600, 40, 1]>, memref<1x128x40x40xf32, strides: [3200, 1600, 40, 1]>, none) -> (memref<1x128x40x40xf32, strides: [3200, 1600, 40, 1]>, none), %R1.9216, %B1793 = "arith.add"(%R5, %C1.0, %D169) {round_mode = 0} : (memref<1x128x40x40xf32, strides: [3200, 1600, 40, 1]>, f32, none) -> (memref<1x128x40x40xf32, strides: [3200, 1600, 40, 1]>, none), %R5, %B1794 = "arith.div"(%C1.0, %R1.9216, %D169) {iter = 3} : (f32, memref<1x128x40x40xf32, strides: [3200, 1600, 40, 1]>, none) -> (memref<1x128x40x40xf32, strides: [3200, 1600, 40, 1]>, none), %R5, %B1795 = "arith.mul"(%R5, %R4, %D169) {round_mode = 0} : (memref<1x128x40x40xf32, strides: [3200, 1600, 40, 1]>, memref<1x128x40x40xf32, strides: [3200, 1600, 40, 1]>, none) -> (memref<1x128x40x40xf32, strides: [3200, 1600, 40, 1]>, none), %R6, %D170 = "dma.tensor"(%G20680704, %B1779) {decompress = False} : (memref<1x128x256x1xf32, strides: [32768, 256, 1, 1]>, none) -> (memref<1x128x256x1xf32, strides: [512, 256, 1, 1]>, none), %R7, %D171 = "dma.tensor"(%G20811776, %B1779) {decompress = False} : (memref<1x128x1x1xf32, strides: [128, 1, 1, 1]>, none) -> (memref<1x128x1x1xf32, strides: [2, 1, 1, 1]>, none), %R3, %B1796 = "conv.normal"(%R0, %R6, %R7, %C0.0, %D171) {kernel = [1, 1], stride = [1, 1], in_zero = [0, 0], ke_zero = [0, 0], kernel_rotate = False, pad_mode = 0, pad = [0, 0, 0, 0], res_add = False} : (memref<1x256x40x40xf32, strides: [6400, 1600, 40, 1]>, memref<128x256x1x1xf32>, memref<1x128x1x1xf32, strides: [2, 1, 1, 1]>, f32, none) -> (memref<1x128x40x40xf32, strides: [3200, 1600, 40, 1]>, none), %R2.9216, %B1797 = "tsbc.s_bc"(%S1024, %D171) : (memref<1x64x1x10xf32>, none) -> (memref<1x64x1x10xf32, strides: [16, 16, 10, 1]>, none), %R1.12800, %B1798 = "arith.sub"(%C0.0, %R3, %D171) {round_mode = 0} : (f32, memref<1x128x40x40xf32, strides: [3200, 1600, 40, 1]>, none) -> (memref<1x128x40x40xf32, strides: [3200, 1600, 40, 1]>, none), %R1.12800, %B1799 = "arith.max"(%R1.12800, %C-3.4028198694267105e+35, %D171) {round_mode = 0} : (memref<1x128x40x40xf32, strides: [3200, 1600, 40, 1]>, f32, none) -> (memref<1x128x40x40xf32, strides: [3200, 1600, 40, 1]>, none), %R1, %B1800 = "arith.mul"(%R1.12800, %C1.4426950216293335, %D171) {round_mode = 0} : (memref<1x128x40x40xf32, strides: [3200, 1600, 40, 1]>, f32, none) -> (memref<1x128x40x40xf32, strides: [3200, 1600, 40, 1]>, none), %R0, %B1801 = "arith.cast"(%R1, %D171) {round_mode = 3} : (memref<1x128x40x40xf32, strides: [3200, 1600, 40, 1]>, none) -> (memref<1x128x40x40xf32, strides: [3200, 1600, 40, 1]>, none), %R1, %B1802 = "arith.mul"(%R0, %C0.6931471824645996, %D171) {round_mode = 0} : (memref<1x128x40x40xf32, strides: [3200, 1600, 40, 1]>, f32, none) -> (memref<1x128x40x40xf32, strides: [3200, 1600, 40, 1]>, none), %R1, %B1803 = "arith.sub"(%R1.12800, %R1, %D171) {round_mode = 0} : (memref<1x128x40x40xf32, strides: [3200, 1600, 40, 1]>, memref<1x128x40x40xf32, strides: [3200, 1600, 40, 1]>, none) -> (memref<1x128x40x40xf32, strides: [3200, 1600, 40, 1]>, none), %R1.12800, %B1804 = "arith.cast"(%R0, %D171) {round_mode = 1} : (memref<1x128x40x40xf32, strides: [3200, 1600, 40, 1]>, none) -> (memref<1x128x40x40xsi16, strides: [3200, 1600, 40, 1]>, none), %R0, %B1805 = "arith.min"(%R1.12800, %C127, %D171) {round_mode = 0} : (memref<1x128x40x40xsi16, strides: [3200, 1600, 40, 1]>, si16, none) -> (memref<1x128x40x40xsi16, strides: [3200, 1600, 40, 1]>, none), %R1.12800, %B1806 = "arith.max"(%R0, %C-127, %D171) {round_mode = 0} : (memref<1x128x40x40xsi16, strides: [3200, 1600, 40, 1]>, si16, none) -> (memref<1x128x40x40xsi16, strides: [3200, 1600, 40, 1]>, none), %R0, %B1807 = "arith.adds"(%R1.12800, %C127, %C23, %D171) {round_mode = 1} : (memref<1x128x40x40xsi16, strides: [3200, 1600, 40, 1]>, si16, ui8, none) -> (memref<1x128x40x40xsi32, strides: [3200, 1600, 40, 1]>, none), %R1.12800, %B1808 = "sfu.taylor_4x"(%R1, %R2.9216, %D171) : (memref<1x128x40x40xf32, strides: [3200, 1600, 40, 1]>, memref<1x64x1x10xf32, strides: [0, 0, 10, 1]>, none) -> (memref<1x128x40x40xf32, strides: [3200, 1600, 40, 1]>, none), %R0, %B1809 = "arith.mul"(%R1.12800, %R0, %D171) {round_mode = 0} : (memref<1x128x40x40xf32, strides: [3200, 1600, 40, 1]>, memref<1x128x40x40xf32, strides: [3200, 1600, 40, 1]>, none) -> (memref<1x128x40x40xf32, strides: [3200, 1600, 40, 1]>, none), %R1, %B1810 = "arith.add"(%R0, %C1.0, %D171) {round_mode = 0} : (memref<1x128x40x40xf32, strides: [3200, 1600, 40, 1]>, f32, none) -> (memref<1x128x40x40xf32, strides: [3200, 1600, 40, 1]>, none), %R0, %B1811 = "arith.div"(%C1.0, %R1, %D171) {iter = 3} : (f32, memref<1x128x40x40xf32, strides: [3200, 1600, 40, 1]>, none) -> (memref<1x128x40x40xf32, strides: [3200, 1600, 40, 1]>, none), %R0, %B1812 = "arith.mul"(%R0, %R3, %D171) {round_mode = 0} : (memref<1x128x40x40xf32, strides: [3200, 1600, 40, 1]>, memref<1x128x40x40xf32, strides: [3200, 1600, 40, 1]>, none) -> (memref<1x128x40x40xf32, strides: [3200, 1600, 40, 1]>, none), %R7, %D172 = "dma.tensor"(%G21078016, %B1796) {decompress = False} : (memref<1x256x1x1xf32, strides: [256, 1, 1, 1]>, none) -> (memref<1x256x1x1xf32, strides: [4, 1, 1, 1]>, none), %R5.12800, %D173 = "dma.tensor"(%G20815872, %B1796) {decompress = False} : (memref<1x256x256x1xf32, strides: [65536, 256, 1, 1]>, none) -> (memref<1x256x256x1xf32, strides: [1024, 256, 1, 1]>, none), %R3, %B1813 = "arith.copy"(%R5, %D173) {round_mode = 0} : (memref<1x128x40x40xf32, strides: [3200, 1600, 40, 1]>, none) -> (memref<1x128x40x40xf32, strides: [6400, 1600, 40, 1]>, none), %R3.12800, %B1814 = "arith.copy"(%R0, %D173) {round_mode = 0} : (memref<1x128x40x40xf32, strides: [3200, 1600, 40, 1]>, none) -> (memref<1x128x40x40xf32, strides: [6400, 1600, 40, 1]>, none), %R8, %B1815 = "conv.normal"(%R3, %R5.12800, %R7, %C0.0, %D173) {kernel = [1, 1], stride = [1, 1], in_zero = [0, 0], ke_zero = [0, 0], kernel_rotate = False, pad_mode = 0, pad = [0, 0, 0, 0], res_add = False} : (memref<1x256x40x40xf32, strides: [6400, 1600, 40, 1]>, memref<256x256x1x1xf32>, memref<1x256x1x1xf32, strides: [4, 1, 1, 1]>, f32, none) -> (memref<1x256x40x40xf32, strides: [6400, 1600, 40, 1]>, none), %R0, %D174 = "dma.tensor"(%G21082112, %B1814) {decompress = False} : (memref<1x256x256x9xf32, strides: [589824, 2304, 9, 1]>, none) -> (memref<1x256x256x9xf32, strides: [9216, 2304, 9, 1]>, none), %R5.6144, %B1816 = "tsbc.s_bc"(%S1024, %D174) : (memref<1x64x1x10xf32>, none) -> (memref<1x64x1x10xf32, strides: [16, 16, 10, 1]>, none), %R3.13312, %B1817 = "arith.sub"(%C0.0, %R8, %D174) {round_mode = 0} : (f32, memref<1x256x40x40xf32, strides: [6400, 1600, 40, 1]>, none) -> (memref<1x256x40x40xf32, strides: [6400, 1600, 40, 1]>, none), %R3.13312, %B1818 = "arith.max"(%R3.13312, %C-3.4028198694267105e+35, %D174) {round_mode = 0} : (memref<1x256x40x40xf32, strides: [6400, 1600, 40, 1]>, f32, none) -> (memref<1x256x40x40xf32, strides: [6400, 1600, 40, 1]>, none), %R2.4096, %B1819 = "arith.mul"(%R3.13312, %C1.4426950216293335, %D174) {round_mode = 0} : (memref<1x256x40x40xf32, strides: [6400, 1600, 40, 1]>, f32, none) -> (memref<1x256x40x40xf32, strides: [6400, 1600, 40, 1]>, none), %R6, %B1820 = "arith.cast"(%R2.4096, %D174) {round_mode = 3} : (memref<1x256x40x40xf32, strides: [6400, 1600, 40, 1]>, none) -> (memref<1x256x40x40xf32, strides: [6400, 1600, 40, 1]>, none), %R2.4096, %B1821 = "arith.mul"(%R6, %C0.6931471824645996, %D174) {round_mode = 0} : (memref<1x256x40x40xf32, strides: [6400, 1600, 40, 1]>, f32, none) -> (memref<1x256x40x40xf32, strides: [6400, 1600, 40, 1]>, none), %R2.4096, %B1822 = "arith.sub"(%R3.13312, %R2.4096, %D174) {round_mode = 0} : (memref<1x256x40x40xf32, strides: [6400, 1600, 40, 1]>, memref<1x256x40x40xf32, strides: [6400, 1600, 40, 1]>, none) -> (memref<1x256x40x40xf32, strides: [6400, 1600, 40, 1]>, none), %R3.13312, %B1823 = "arith.cast"(%R6, %D174) {round_mode = 1} : (memref<1x256x40x40xf32, strides: [6400, 1600, 40, 1]>, none) -> (memref<1x256x40x40xsi16, strides: [6400, 1600, 40, 1]>, none), %R6, %B1824 = "arith.min"(%R3.13312, %C127, %D174) {round_mode = 0} : (memref<1x256x40x40xsi16, strides: [6400, 1600, 40, 1]>, si16, none) -> (memref<1x256x40x40xsi16, strides: [6400, 1600, 40, 1]>, none), %R3.13312, %B1825 = "arith.max"(%R6, %C-127, %D174) {round_mode = 0} : (memref<1x256x40x40xsi16, strides: [6400, 1600, 40, 1]>, si16, none) -> (memref<1x256x40x40xsi16, strides: [6400, 1600, 40, 1]>, none), %R6, %B1826 = "arith.adds"(%R3.13312, %C127, %C23, %D174) {round_mode = 1} : (memref<1x256x40x40xsi16, strides: [6400, 1600, 40, 1]>, si16, ui8, none) -> (memref<1x256x40x40xsi32, strides: [6400, 1600, 40, 1]>, none), %R3.13312, %B1827 = "sfu.taylor_4x"(%R2.4096, %R5.6144, %D174) : (memref<1x256x40x40xf32, strides: [6400, 1600, 40, 1]>, memref<1x64x1x10xf32, strides: [0, 0, 10, 1]>, none) -> (memref<1x256x40x40xf32, strides: [6400, 1600, 40, 1]>, none), %R6, %B1828 = "arith.mul"(%R3.13312, %R6, %D174) {round_mode = 0} : (memref<1x256x40x40xf32, strides: [6400, 1600, 40, 1]>, memref<1x256x40x40xf32, strides: [6400, 1600, 40, 1]>, none) -> (memref<1x256x40x40xf32, strides: [6400, 1600, 40, 1]>, none), %R2.4096, %B1829 = "arith.add"(%R6, %C1.0, %D174) {round_mode = 0} : (memref<1x256x40x40xf32, strides: [6400, 1600, 40, 1]>, f32, none) -> (memref<1x256x40x40xf32, strides: [6400, 1600, 40, 1]>, none), %R6, %B1830 = "arith.div"(%C1.0, %R2.4096, %D174) {iter = 3} : (f32, memref<1x256x40x40xf32, strides: [6400, 1600, 40, 1]>, none) -> (memref<1x256x40x40xf32, strides: [6400, 1600, 40, 1]>, none), %R6, %B1831 = "arith.mul"(%R6, %R8, %D174) {round_mode = 0} : (memref<1x256x40x40xf32, strides: [6400, 1600, 40, 1]>, memref<1x256x40x40xf32, strides: [6400, 1600, 40, 1]>, none) -> (memref<1x256x40x40xf32, strides: [6400, 1600, 40, 1]>, none), %R10, %D175 = "dma.tensor"(%G23441408, %B1815) {decompress = False} : (memref<1x256x1x1xf32, strides: [256, 1, 1, 1]>, none) -> (memref<1x256x1x1xf32, strides: [4, 1, 1, 1]>, none), %R4, %B1832 = "conv.normal"(%R6, %R0, %R10, %C0.0, %D175) {kernel = [3, 3], stride = [2, 2], in_zero = [0, 0], ke_zero = [0, 0], kernel_rotate = False, pad_mode = 0, pad = [1, 1, 1, 1], res_add = False} : (memref<1x256x40x40xf32, strides: [6400, 1600, 40, 1]>, memref<256x256x3x3xf32>, memref<1x256x1x1xf32, strides: [4, 1, 1, 1]>, f32, none) -> (memref<1x256x20x20xf32, strides: [1600, 400, 20, 1]>, none), %G47087616, %D176 = "dma.tensor"(%R6, %B1831) {decompress = False} : (memref<1x256x40x40xf32, strides: [6400, 1600, 40, 1]>, none) -> (memref<1x256x40x40xf32, strides: [409600, 1600, 40, 1]>, none), %R0.12800, %B1833 = "tsbc.s_bc"(%S1024, %D176) : (memref<1x64x1x10xf32>, none) -> (memref<1x64x1x10xf32, strides: [16, 16, 10, 1]>, none), %R0.6400, %B1834 = "arith.sub"(%C0.0, %R4, %D176) {round_mode = 0} : (f32, memref<1x256x20x20xf32, strides: [1600, 400, 20, 1]>, none) -> (memref<1x256x20x20xf32, strides: [1600, 400, 20, 1]>, none), %R0.6400, %B1835 = "arith.max"(%R0.6400, %C-3.4028198694267105e+35, %D176) {round_mode = 0} : (memref<1x256x20x20xf32, strides: [1600, 400, 20, 1]>, f32, none) -> (memref<1x256x20x20xf32, strides: [1600, 400, 20, 1]>, none), %R0, %B1836 = "arith.mul"(%R0.6400, %C1.4426950216293335, %D176) {round_mode = 0} : (memref<1x256x20x20xf32, strides: [1600, 400, 20, 1]>, f32, none) -> (memref<1x256x20x20xf32, strides: [1600, 400, 20, 1]>, none), %R2.12800, %B1837 = "arith.cast"(%R0, %D176) {round_mode = 3} : (memref<1x256x20x20xf32, strides: [1600, 400, 20, 1]>, none) -> (memref<1x256x20x20xf32, strides: [1600, 400, 20, 1]>, none), %R0, %B1838 = "arith.mul"(%R2.12800, %C0.6931471824645996, %D176) {round_mode = 0} : (memref<1x256x20x20xf32, strides: [1600, 400, 20, 1]>, f32, none) -> (memref<1x256x20x20xf32, strides: [1600, 400, 20, 1]>, none), %R0, %B1839 = "arith.sub"(%R0.6400, %R0, %D176) {round_mode = 0} : (memref<1x256x20x20xf32, strides: [1600, 400, 20, 1]>, memref<1x256x20x20xf32, strides: [1600, 400, 20, 1]>, none) -> (memref<1x256x20x20xf32, strides: [1600, 400, 20, 1]>, none), %R0.6400, %B1840 = "arith.cast"(%R2.12800, %D176) {round_mode = 1} : (memref<1x256x20x20xf32, strides: [1600, 400, 20, 1]>, none) -> (memref<1x256x20x20xsi16, strides: [1664, 416, 20, 1]>, none), %R2.12800, %B1841 = "arith.min"(%R0.6400, %C127, %D176) {round_mode = 0} : (memref<1x256x20x20xsi16, strides: [1664, 416, 20, 1]>, si16, none) -> (memref<1x256x20x20xsi16, strides: [1664, 416, 20, 1]>, none), %R0.6400, %B1842 = "arith.max"(%R2.12800, %C-127, %D176) {round_mode = 0} : (memref<1x256x20x20xsi16, strides: [1664, 416, 20, 1]>, si16, none) -> (memref<1x256x20x20xsi16, strides: [1664, 416, 20, 1]>, none), %R2.12800, %B1843 = "arith.adds"(%R0.6400, %C127, %C23, %D176) {round_mode = 1} : (memref<1x256x20x20xsi16, strides: [1664, 416, 20, 1]>, si16, ui8, none) -> (memref<1x256x20x20xsi32, strides: [1600, 400, 20, 1]>, none), %R0.6400, %B1844 = "sfu.taylor_4x"(%R0, %R0.12800, %D176) : (memref<1x256x20x20xf32, strides: [1600, 400, 20, 1]>, memref<1x64x1x10xf32, strides: [0, 0, 10, 1]>, none) -> (memref<1x256x20x20xf32, strides: [1600, 400, 20, 1]>, none), %R2.12800, %B1845 = "arith.mul"(%R0.6400, %R2.12800, %D176) {round_mode = 0} : (memref<1x256x20x20xf32, strides: [1600, 400, 20, 1]>, memref<1x256x20x20xf32, strides: [1600, 400, 20, 1]>, none) -> (memref<1x256x20x20xf32, strides: [1600, 400, 20, 1]>, none), %R0, %B1846 = "arith.add"(%R2.12800, %C1.0, %D176) {round_mode = 0} : (memref<1x256x20x20xf32, strides: [1600, 400, 20, 1]>, f32, none) -> (memref<1x256x20x20xf32, strides: [1600, 400, 20, 1]>, none), %R2.12800, %B1847 = "arith.div"(%C1.0, %R0, %D176) {iter = 3} : (f32, memref<1x256x20x20xf32, strides: [1600, 400, 20, 1]>, none) -> (memref<1x256x20x20xf32, strides: [1600, 400, 20, 1]>, none), %R2.12800, %B1848 = "arith.mul"(%R2.12800, %R4, %D176) {round_mode = 0} : (memref<1x256x20x20xf32, strides: [1600, 400, 20, 1]>, memref<1x256x20x20xf32, strides: [1600, 400, 20, 1]>, none) -> (memref<1x256x20x20xf32, strides: [1600, 400, 20, 1]>, none), %G48726016, %D177 = "dma.tensor"(%R2.12800, %B1848) {decompress = False} : (memref<1x256x20x20xf32, strides: [1600, 400, 20, 1]>, none) -> (memref<1x256x20x20xf32, strides: [102400, 400, 20, 1]>, none), %R0, %D178 = "dma.tensor"(%G23445504, %B1848) {decompress = False} : (memref<1x255x128x1xf32, strides: [32640, 128, 1, 1]>, none) -> (memref<1x255x128x1xf32, strides: [512, 128, 1, 1]>, none), %R0.2048, %D179 = "dma.tensor"(%G23576576, %B1848) {decompress = False} : (memref<1x255x1x1xf32, strides: [255, 1, 1, 1]>, none) -> (memref<1x255x1x1xf32, strides: [4, 1, 1, 1]>, none), %R1, %D180 = "dma.tensor"(%G29114368, %B1848) {decompress = False} : (memref<1x128x40x80xf32, strides: [819200, 6400, 80, 1]>, none) -> (memref<1x128x40x80xf32, strides: [6400, 3200, 80, 1]>, none), %R5, %B1849 = "conv.normal"(%R1, %R0, %R0.2048, %C0.0, %D180) {kernel = [1, 1], stride = [1, 1], in_zero = [0, 0], ke_zero = [0, 0], kernel_rotate = False, pad_mode = 0, pad = [0, 0, 0, 0], res_add = False} : (memref<1x128x40x80xf32, strides: [6400, 3200, 80, 1]>, memref<255x128x1x1xf32>, memref<1x255x1x1xf32, strides: [4, 1, 1, 1]>, f32, none) -> (memref<1x255x40x80xf32, strides: [12800, 3200, 80, 1]>, none), %R3, %D181 = "dma.tensor"(%G29127168, %B1848) {decompress = False} : (memref<1x128x40x80xf32, strides: [819200, 6400, 80, 1]>, none) -> (memref<1x128x40x80xf32, strides: [6400, 3200, 80, 1]>, none), %R9, %B1850 = "conv.normal"(%R3, %R0, %R0.2048, %C0.0, %D181) {kernel = [1, 1], stride = [1, 1], in_zero = [0, 0], ke_zero = [0, 0], kernel_rotate = False, pad_mode = 0, pad = [0, 0, 0, 0], res_add = False} : (memref<1x128x40x80xf32, strides: [6400, 3200, 80, 1]>, memref<255x128x1x1xf32>, memref<1x255x1x1xf32, strides: [4, 1, 1, 1]>, f32, none) -> (memref<1x255x40x80xf32, strides: [12800, 3200, 80, 1]>, none), %G35643392, %D182 = "dma.tensor"(%R5, %B1849) {decompress = False} : (memref<1x255x40x80xf32, strides: [12800, 3200, 80, 1]>, none) -> (memref<1x255x40x80xf32, strides: [1632000, 6400, 80, 1]>, none), %G35656192, %D183 = "dma.tensor"(%R9, %B1850) {decompress = False} : (memref<1x255x40x80xf32, strides: [12800, 3200, 80, 1]>, none) -> (memref<1x255x40x80xf32, strides: [1632000, 6400, 80, 1]>, none), %R0, %D184 = "dma.tensor"(%G35643392, %B1850) {decompress = False} : (memref<85x64x100x1xf32, strides: [6400, 100, 1, 1]>, none) -> (memref<85x64x100x1xf32, strides: [100, 100, 1, 1]>, none), %R8, %B1851 = "arith.copy"(%R0, %D184) {round_mode = 0} : (memref<1x64x100x85xf32, strides: [8500, 100, 1, 100]>, none) -> (memref<1x64x100x85xf32, strides: [8500, 8500, 85, 1]>, none), %R4, %D185 = "dma.tensor"(%G37819392, %B1850) {decompress = False} : (memref<85x64x100x1xf32, strides: [6400, 100, 1, 1]>, none) -> (memref<85x64x100x1xf32, strides: [100, 100, 1, 1]>, none), %R12, %B1852 = "arith.copy"(%R4, %D185) {round_mode = 0} : (memref<1x64x100x85xf32, strides: [8500, 100, 1, 100]>, none) -> (memref<1x64x100x85xf32, strides: [8500, 8500, 85, 1]>, none), %G29114368, %D186 = "dma.tensor"(%R8, %B1851) {decompress = False} : (memref<1x64x100x85xf32, strides: [8500, 8500, 85, 1]>, none) -> (memref<1x64x100x85xf32, strides: [544000, 8500, 85, 1]>, none), %R0, %D187 = "dma.tensor"(%G39995392, %B1851) {decompress = False} : (memref<85x64x100x1xf32, strides: [6400, 100, 1, 1]>, none) -> (memref<85x64x100x1xf32, strides: [100, 100, 1, 1]>, none), %R8, %B1853 = "arith.copy"(%R0, %D187) {round_mode = 0} : (memref<1x64x100x85xf32, strides: [8500, 100, 1, 100]>, none) -> (memref<1x64x100x85xf32, strides: [8500, 8500, 85, 1]>, none), %G31290368, %D188 = "dma.tensor"(%R12, %B1852) {decompress = False} : (memref<1x64x100x85xf32, strides: [8500, 8500, 85, 1]>, none) -> (memref<1x64x100x85xf32, strides: [544000, 8500, 85, 1]>, none), %G33466368, %D189 = "dma.tensor"(%R8, %B1853) {decompress = False} : (memref<1x64x100x85xf32, strides: [8500, 8500, 85, 1]>, none) -> (memref<1x64x100x85xf32, strides: [544000, 8500, 85, 1]>, none), %R0, %D190 = "dma.tensor"(%G23580672, %B1853) {decompress = False} : (memref<1x255x256x1xf32, strides: [65280, 256, 1, 1]>, none) -> (memref<1x255x256x1xf32, strides: [1024, 256, 1, 1]>, none), %R0.4096, %D191 = "dma.tensor"(%G23842816, %B1853) {decompress = False} : (memref<1x255x1x1xf32, strides: [255, 1, 1, 1]>, none) -> (memref<1x255x1x1xf32, strides: [4, 1, 1, 1]>, none), %R1, %D192 = "dma.tensor"(%G47087616, %B1853) {decompress = False} : (memref<1x256x40x40xf32, strides: [409600, 1600, 40, 1]>, none) -> (memref<1x256x40x40xf32, strides: [6400, 1600, 40, 1]>, none), %R5, %B1854 = "conv.normal"(%R1, %R0, %R0.4096, %C0.0, %D192) {kernel = [1, 1], stride = [1, 1], in_zero = [0, 0], ke_zero = [0, 0], kernel_rotate = False, pad_mode = 0, pad = [0, 0, 0, 0], res_add = False} : (memref<1x256x40x40xf32, strides: [6400, 1600, 40, 1]>, memref<255x256x1x1xf32>, memref<1x255x1x1xf32, strides: [4, 1, 1, 1]>, f32, none) -> (memref<1x255x40x40xf32, strides: [6400, 1600, 40, 1]>, none), %G37277696, %D193 = "dma.tensor"(%R5, %B1854) {decompress = False} : (memref<1x255x40x40xf32, strides: [6400, 1600, 40, 1]>, none) -> (memref<1x255x40x40xf32, strides: [408000, 1600, 40, 1]>, none), %R0, %D194 = "dma.tensor"(%G37277696, %B1854) {decompress = False} : (memref<255x64x25x1xf32, strides: [1600, 25, 1, 1]>, none) -> (memref<255x64x25x1xf32, strides: [25, 25, 1, 1]>, none), %R8, %B1855 = "arith.copy"(%R0, %D194) {round_mode = 0} : (memref<3x64x25x85xf32, strides: [2125, 25, 1, 25]>, none) -> (memref<3x64x25x85xf32, strides: [2125, 2125, 85, 1]>, none), %G35643392, %D195 = "dma.tensor"(%R8, %B1855) {decompress = False} : (memref<3x64x25x85xf32, strides: [2125, 2125, 85, 1]>, none) -> (memref<3x64x25x85xf32, strides: [136000, 2125, 85, 1]>, none), %R4, %D196 = "dma.tensor"(%G48726016, %B1855) {decompress = False} : (memref<1x512x20x20xf32, strides: [204800, 400, 20, 1]>, none) -> (memref<1x512x20x20xf32, strides: [3200, 400, 20, 1]>, none), %R5, %D197 = "dma.tensor"(%G23846912, %B1855) {decompress = False} : (memref<1x256x512x1xf32, strides: [131072, 512, 1, 1]>, none) -> (memref<1x256x512x1xf32, strides: [2048, 512, 1, 1]>, none), %R8, %D198 = "dma.tensor"(%G24371200, %B1855) {decompress = False} : (memref<1x256x1x1xf32, strides: [256, 1, 1, 1]>, none) -> (memref<1x256x1x1xf32, strides: [4, 1, 1, 1]>, none), %R3.6400, %B1856 = "conv.normal"(%R4, %R5, %R8, %C0.0, %D198) {kernel = [1, 1], stride = [1, 1], in_zero = [0, 0], ke_zero = [0, 0], kernel_rotate = False, pad_mode = 0, pad = [0, 0, 0, 0], res_add = False} : (memref<1x512x20x20xf32, strides: [3200, 400, 20, 1]>, memref<256x512x1x1xf32>, memref<1x256x1x1xf32, strides: [4, 1, 1, 1]>, f32, none) -> (memref<1x256x20x20xf32, strides: [1600, 400, 20, 1]>, none), %R7, %D199 = "dma.tensor"(%G24637440, %B1855) {decompress = False} : (memref<1x256x1x1xf32, strides: [256, 1, 1, 1]>, none) -> (memref<1x256x1x1xf32, strides: [4, 1, 1, 1]>, none), %R0, %D200 = "dma.tensor"(%G24641536, %B1855) {decompress = False} : (memref<1x256x256x9xf32, strides: [589824, 2304, 9, 1]>, none) -> (memref<1x256x256x9xf32, strides: [9216, 2304, 9, 1]>, none), %R5.9216, %B1857 = "tsbc.s_bc"(%S1024, %D200) : (memref<1x64x1x10xf32>, none) -> (memref<1x64x1x10xf32, strides: [16, 16, 10, 1]>, none), %R5.2816, %B1858 = "arith.sub"(%C0.0, %R3.6400, %D200) {round_mode = 0} : (f32, memref<1x256x20x20xf32, strides: [1600, 400, 20, 1]>, none) -> (memref<1x256x20x20xf32, strides: [1600, 400, 20, 1]>, none), %R5.2816, %B1859 = "arith.max"(%R5.2816, %C-3.4028198694267105e+35, %D200) {round_mode = 0} : (memref<1x256x20x20xf32, strides: [1600, 400, 20, 1]>, f32, none) -> (memref<1x256x20x20xf32, strides: [1600, 400, 20, 1]>, none), %R4.12800, %B1860 = "arith.mul"(%R5.2816, %C1.4426950216293335, %D200) {round_mode = 0} : (memref<1x256x20x20xf32, strides: [1600, 400, 20, 1]>, f32, none) -> (memref<1x256x20x20xf32, strides: [1600, 400, 20, 1]>, none), %R2.4096, %B1861 = "arith.cast"(%R4.12800, %D200) {round_mode = 3} : (memref<1x256x20x20xf32, strides: [1600, 400, 20, 1]>, none) -> (memref<1x256x20x20xf32, strides: [1600, 400, 20, 1]>, none), %R4.12800, %B1862 = "arith.mul"(%R2.4096, %C0.6931471824645996, %D200) {round_mode = 0} : (memref<1x256x20x20xf32, strides: [1600, 400, 20, 1]>, f32, none) -> (memref<1x256x20x20xf32, strides: [1600, 400, 20, 1]>, none), %R4.12800, %B1863 = "arith.sub"(%R5.2816, %R4.12800, %D200) {round_mode = 0} : (memref<1x256x20x20xf32, strides: [1600, 400, 20, 1]>, memref<1x256x20x20xf32, strides: [1600, 400, 20, 1]>, none) -> (memref<1x256x20x20xf32, strides: [1600, 400, 20, 1]>, none), %R5.2816, %B1864 = "arith.cast"(%R2.4096, %D200) {round_mode = 1} : (memref<1x256x20x20xf32, strides: [1600, 400, 20, 1]>, none) -> (memref<1x256x20x20xsi16, strides: [1664, 416, 20, 1]>, none), %R2.4096, %B1865 = "arith.min"(%R5.2816, %C127, %D200) {round_mode = 0} : (memref<1x256x20x20xsi16, strides: [1664, 416, 20, 1]>, si16, none) -> (memref<1x256x20x20xsi16, strides: [1664, 416, 20, 1]>, none), %R5.2816, %B1866 = "arith.max"(%R2.4096, %C-127, %D200) {round_mode = 0} : (memref<1x256x20x20xsi16, strides: [1664, 416, 20, 1]>, si16, none) -> (memref<1x256x20x20xsi16, strides: [1664, 416, 20, 1]>, none), %R2.4096, %B1867 = "arith.adds"(%R5.2816, %C127, %C23, %D200) {round_mode = 1} : (memref<1x256x20x20xsi16, strides: [1664, 416, 20, 1]>, si16, ui8, none) -> (memref<1x256x20x20xsi32, strides: [1600, 400, 20, 1]>, none), %R5.2816, %B1868 = "sfu.taylor_4x"(%R4.12800, %R5.9216, %D200) : (memref<1x256x20x20xf32, strides: [1600, 400, 20, 1]>, memref<1x64x1x10xf32, strides: [0, 0, 10, 1]>, none) -> (memref<1x256x20x20xf32, strides: [1600, 400, 20, 1]>, none), %R2.4096, %B1869 = "arith.mul"(%R5.2816, %R2.4096, %D200) {round_mode = 0} : (memref<1x256x20x20xf32, strides: [1600, 400, 20, 1]>, memref<1x256x20x20xf32, strides: [1600, 400, 20, 1]>, none) -> (memref<1x256x20x20xf32, strides: [1600, 400, 20, 1]>, none), %R4.12800, %B1870 = "arith.add"(%R2.4096, %C1.0, %D200) {round_mode = 0} : (memref<1x256x20x20xf32, strides: [1600, 400, 20, 1]>, f32, none) -> (memref<1x256x20x20xf32, strides: [1600, 400, 20, 1]>, none), %R2.4096, %B1871 = "arith.div"(%C1.0, %R4.12800, %D200) {iter = 3} : (f32, memref<1x256x20x20xf32, strides: [1600, 400, 20, 1]>, none) -> (memref<1x256x20x20xf32, strides: [1600, 400, 20, 1]>, none), %R2.4096, %B1872 = "arith.mul"(%R2.4096, %R3.6400, %D200) {round_mode = 0} : (memref<1x256x20x20xf32, strides: [1600, 400, 20, 1]>, memref<1x256x20x20xf32, strides: [1600, 400, 20, 1]>, none) -> (memref<1x256x20x20xf32, strides: [1600, 400, 20, 1]>, none), %R6, %D201 = "dma.tensor"(%G24375296, %B1856) {decompress = False} : (memref<1x256x256x1xf32, strides: [65536, 256, 1, 1]>, none) -> (memref<1x256x256x1xf32, strides: [1024, 256, 1, 1]>, none), %R4.12800, %B1873 = "conv.normal"(%R2.4096, %R6, %R7, %C0.0, %D201) {kernel = [1, 1], stride = [1, 1], in_zero = [0, 0], ke_zero = [0, 0], kernel_rotate = False, pad_mode = 0, pad = [0, 0, 0, 0], res_add = False} : (memref<1x256x20x20xf32, strides: [1600, 400, 20, 1]>, memref<256x256x1x1xf32>, memref<1x256x1x1xf32, strides: [4, 1, 1, 1]>, f32, none) -> (memref<1x256x20x20xf32, strides: [1600, 400, 20, 1]>, none), %R3.512, %B1874 = "tsbc.s_bc"(%S1024, %D201) : (memref<1x64x1x10xf32>, none) -> (memref<1x64x1x10xf32, strides: [16, 16, 10, 1]>, none), %R2.10496, %B1875 = "arith.sub"(%C0.0, %R4.12800, %D201) {round_mode = 0} : (f32, memref<1x256x20x20xf32, strides: [1600, 400, 20, 1]>, none) -> (memref<1x256x20x20xf32, strides: [1600, 400, 20, 1]>, none), %R2.10496, %B1876 = "arith.max"(%R2.10496, %C-3.4028198694267105e+35, %D201) {round_mode = 0} : (memref<1x256x20x20xf32, strides: [1600, 400, 20, 1]>, f32, none) -> (memref<1x256x20x20xf32, strides: [1600, 400, 20, 1]>, none), %R2.4096, %B1877 = "arith.mul"(%R2.10496, %C1.4426950216293335, %D201) {round_mode = 0} : (memref<1x256x20x20xf32, strides: [1600, 400, 20, 1]>, f32, none) -> (memref<1x256x20x20xf32, strides: [1600, 400, 20, 1]>, none), %R6, %B1878 = "arith.cast"(%R2.4096, %D201) {round_mode = 3} : (memref<1x256x20x20xf32, strides: [1600, 400, 20, 1]>, none) -> (memref<1x256x20x20xf32, strides: [1600, 400, 20, 1]>, none), %R2.4096, %B1879 = "arith.mul"(%R6, %C0.6931471824645996, %D201) {round_mode = 0} : (memref<1x256x20x20xf32, strides: [1600, 400, 20, 1]>, f32, none) -> (memref<1x256x20x20xf32, strides: [1600, 400, 20, 1]>, none), %R2.4096, %B1880 = "arith.sub"(%R2.10496, %R2.4096, %D201) {round_mode = 0} : (memref<1x256x20x20xf32, strides: [1600, 400, 20, 1]>, memref<1x256x20x20xf32, strides: [1600, 400, 20, 1]>, none) -> (memref<1x256x20x20xf32, strides: [1600, 400, 20, 1]>, none), %R2.10496, %B1881 = "arith.cast"(%R6, %D201) {round_mode = 1} : (memref<1x256x20x20xf32, strides: [1600, 400, 20, 1]>, none) -> (memref<1x256x20x20xsi16, strides: [1664, 416, 20, 1]>, none), %R6, %B1882 = "arith.min"(%R2.10496, %C127, %D201) {round_mode = 0} : (memref<1x256x20x20xsi16, strides: [1664, 416, 20, 1]>, si16, none) -> (memref<1x256x20x20xsi16, strides: [1664, 416, 20, 1]>, none), %R2.10496, %B1883 = "arith.max"(%R6, %C-127, %D201) {round_mode = 0} : (memref<1x256x20x20xsi16, strides: [1664, 416, 20, 1]>, si16, none) -> (memref<1x256x20x20xsi16, strides: [1664, 416, 20, 1]>, none), %R6, %B1884 = "arith.adds"(%R2.10496, %C127, %C23, %D201) {round_mode = 1} : (memref<1x256x20x20xsi16, strides: [1664, 416, 20, 1]>, si16, ui8, none) -> (memref<1x256x20x20xsi32, strides: [1600, 400, 20, 1]>, none), %R2.10496, %B1885 = "sfu.taylor_4x"(%R2.4096, %R3.512, %D201) : (memref<1x256x20x20xf32, strides: [1600, 400, 20, 1]>, memref<1x64x1x10xf32, strides: [0, 0, 10, 1]>, none) -> (memref<1x256x20x20xf32, strides: [1600, 400, 20, 1]>, none), %R6, %B1886 = "arith.mul"(%R2.10496, %R6, %D201) {round_mode = 0} : (memref<1x256x20x20xf32, strides: [1600, 400, 20, 1]>, memref<1x256x20x20xf32, strides: [1600, 400, 20, 1]>, none) -> (memref<1x256x20x20xf32, strides: [1600, 400, 20, 1]>, none), %R2.4096, %B1887 = "arith.add"(%R6, %C1.0, %D201) {round_mode = 0} : (memref<1x256x20x20xf32, strides: [1600, 400, 20, 1]>, f32, none) -> (memref<1x256x20x20xf32, strides: [1600, 400, 20, 1]>, none), %R6, %B1888 = "arith.div"(%C1.0, %R2.4096, %D201) {iter = 3} : (f32, memref<1x256x20x20xf32, strides: [1600, 400, 20, 1]>, none) -> (memref<1x256x20x20xf32, strides: [1600, 400, 20, 1]>, none), %R6, %B1889 = "arith.mul"(%R6, %R4.12800, %D201) {round_mode = 0} : (memref<1x256x20x20xf32, strides: [1600, 400, 20, 1]>, memref<1x256x20x20xf32, strides: [1600, 400, 20, 1]>, none) -> (memref<1x256x20x20xf32, strides: [1600, 400, 20, 1]>, none), %R7, %D202 = "dma.tensor"(%G27000832, %B1873) {decompress = False} : (memref<1x256x1x1xf32, strides: [256, 1, 1, 1]>, none) -> (memref<1x256x1x1xf32, strides: [4, 1, 1, 1]>, none), %R4.12800, %B1890 = "conv.normal"(%R6, %R0, %R7, %C0.0, %D202) {kernel = [3, 3], stride = [1, 1], in_zero = [0, 0], ke_zero = [0, 0], kernel_rotate = False, pad_mode = 0, pad = [1, 1, 1, 1], res_add = False} : (memref<1x256x20x20xf32, strides: [1600, 400, 20, 1]>, memref<256x256x3x3xf32>, memref<1x256x1x1xf32, strides: [4, 1, 1, 1]>, f32, none) -> (memref<1x256x20x20xf32, strides: [1600, 400, 20, 1]>, none), %R3, %D203 = "dma.tensor"(%G27004928, %B1889) {decompress = False} : (memref<1x256x512x1xf32, strides: [131072, 512, 1, 1]>, none) -> (memref<1x256x512x1xf32, strides: [2048, 512, 1, 1]>, none), %R0.12800, %B1891 = "tsbc.s_bc"(%S1024, %D203) : (memref<1x64x1x10xf32>, none) -> (memref<1x64x1x10xf32, strides: [16, 16, 10, 1]>, none), %R0.6400, %B1892 = "arith.sub"(%C0.0, %R4.12800, %D203) {round_mode = 0} : (f32, memref<1x256x20x20xf32, strides: [1600, 400, 20, 1]>, none) -> (memref<1x256x20x20xf32, strides: [1600, 400, 20, 1]>, none), %R0.6400, %B1893 = "arith.max"(%R0.6400, %C-3.4028198694267105e+35, %D203) {round_mode = 0} : (memref<1x256x20x20xf32, strides: [1600, 400, 20, 1]>, f32, none) -> (memref<1x256x20x20xf32, strides: [1600, 400, 20, 1]>, none), %R0, %B1894 = "arith.mul"(%R0.6400, %C1.4426950216293335, %D203) {round_mode = 0} : (memref<1x256x20x20xf32, strides: [1600, 400, 20, 1]>, f32, none) -> (memref<1x256x20x20xf32, strides: [1600, 400, 20, 1]>, none), %R1, %B1895 = "arith.cast"(%R0, %D203) {round_mode = 3} : (memref<1x256x20x20xf32, strides: [1600, 400, 20, 1]>, none) -> (memref<1x256x20x20xf32, strides: [1600, 400, 20, 1]>, none), %R0, %B1896 = "arith.mul"(%R1, %C0.6931471824645996, %D203) {round_mode = 0} : (memref<1x256x20x20xf32, strides: [1600, 400, 20, 1]>, f32, none) -> (memref<1x256x20x20xf32, strides: [1600, 400, 20, 1]>, none), %R0, %B1897 = "arith.sub"(%R0.6400, %R0, %D203) {round_mode = 0} : (memref<1x256x20x20xf32, strides: [1600, 400, 20, 1]>, memref<1x256x20x20xf32, strides: [1600, 400, 20, 1]>, none) -> (memref<1x256x20x20xf32, strides: [1600, 400, 20, 1]>, none), %R0.6400, %B1898 = "arith.cast"(%R1, %D203) {round_mode = 1} : (memref<1x256x20x20xf32, strides: [1600, 400, 20, 1]>, none) -> (memref<1x256x20x20xsi16, strides: [1664, 416, 20, 1]>, none), %R1, %B1899 = "arith.min"(%R0.6400, %C127, %D203) {round_mode = 0} : (memref<1x256x20x20xsi16, strides: [1664, 416, 20, 1]>, si16, none) -> (memref<1x256x20x20xsi16, strides: [1664, 416, 20, 1]>, none), %R0.6400, %B1900 = "arith.max"(%R1, %C-127, %D203) {round_mode = 0} : (memref<1x256x20x20xsi16, strides: [1664, 416, 20, 1]>, si16, none) -> (memref<1x256x20x20xsi16, strides: [1664, 416, 20, 1]>, none), %R1, %B1901 = "arith.adds"(%R0.6400, %C127, %C23, %D203) {round_mode = 1} : (memref<1x256x20x20xsi16, strides: [1664, 416, 20, 1]>, si16, ui8, none) -> (memref<1x256x20x20xsi32, strides: [1600, 400, 20, 1]>, none), %R0.6400, %B1902 = "sfu.taylor_4x"(%R0, %R0.12800, %D203) : (memref<1x256x20x20xf32, strides: [1600, 400, 20, 1]>, memref<1x64x1x10xf32, strides: [0, 0, 10, 1]>, none) -> (memref<1x256x20x20xf32, strides: [1600, 400, 20, 1]>, none), %R1, %B1903 = "arith.mul"(%R0.6400, %R1, %D203) {round_mode = 0} : (memref<1x256x20x20xf32, strides: [1600, 400, 20, 1]>, memref<1x256x20x20xf32, strides: [1600, 400, 20, 1]>, none) -> (memref<1x256x20x20xf32, strides: [1600, 400, 20, 1]>, none), %R0, %B1904 = "arith.add"(%R1, %C1.0, %D203) {round_mode = 0} : (memref<1x256x20x20xf32, strides: [1600, 400, 20, 1]>, f32, none) -> (memref<1x256x20x20xf32, strides: [1600, 400, 20, 1]>, none), %R1, %B1905 = "arith.div"(%C1.0, %R0, %D203) {iter = 3} : (f32, memref<1x256x20x20xf32, strides: [1600, 400, 20, 1]>, none) -> (memref<1x256x20x20xf32, strides: [1600, 400, 20, 1]>, none), %R1, %B1906 = "arith.mul"(%R1, %R4.12800, %D203) {round_mode = 0} : (memref<1x256x20x20xf32, strides: [1600, 400, 20, 1]>, memref<1x256x20x20xf32, strides: [1600, 400, 20, 1]>, none) -> (memref<1x256x20x20xf32, strides: [1600, 400, 20, 1]>, none), %R2, %D204 = "dma.tensor"(%G27529216, %B1890) {decompress = False} : (memref<1x256x1x1xf32, strides: [256, 1, 1, 1]>, none) -> (memref<1x256x1x1xf32, strides: [4, 1, 1, 1]>, none), %R1.6400, %B1907 = "conv.normal"(%R4, %R3, %R2, %C0.0, %D204) {kernel = [1, 1], stride = [1, 1], in_zero = [0, 0], ke_zero = [0, 0], kernel_rotate = False, pad_mode = 0, pad = [0, 0, 0, 0], res_add = False} : (memref<1x512x20x20xf32, strides: [3200, 400, 20, 1]>, memref<256x512x1x1xf32>, memref<1x256x1x1xf32, strides: [4, 1, 1, 1]>, f32, none) -> (memref<1x256x20x20xf32, strides: [1600, 400, 20, 1]>, none), %R0, %D205 = "dma.tensor"(%G27533312, %B1906) {decompress = False} : (memref<1x512x512x1xf32, strides: [262144, 512, 1, 1]>, none) -> (memref<1x512x512x1xf32, strides: [4096, 512, 1, 1]>, none), %R5, %D206 = "dma.tensor"(%G28581888, %B1906) {decompress = False} : (memref<1x512x1x1xf32, strides: [512, 1, 1, 1]>, none) -> (memref<1x512x1x1xf32, strides: [8, 1, 1, 1]>, none), %R2.12800, %B1908 = "tsbc.s_bc"(%S1024, %D206) : (memref<1x64x1x10xf32>, none) -> (memref<1x64x1x10xf32, strides: [16, 16, 10, 1]>, none), %R2.6400, %B1909 = "arith.sub"(%C0.0, %R1.6400, %D206) {round_mode = 0} : (f32, memref<1x256x20x20xf32, strides: [1600, 400, 20, 1]>, none) -> (memref<1x256x20x20xf32, strides: [1600, 400, 20, 1]>, none), %R2.6400, %B1910 = "arith.max"(%R2.6400, %C-3.4028198694267105e+35, %D206) {round_mode = 0} : (memref<1x256x20x20xf32, strides: [1600, 400, 20, 1]>, f32, none) -> (memref<1x256x20x20xf32, strides: [1600, 400, 20, 1]>, none), %R2, %B1911 = "arith.mul"(%R2.6400, %C1.4426950216293335, %D206) {round_mode = 0} : (memref<1x256x20x20xf32, strides: [1600, 400, 20, 1]>, f32, none) -> (memref<1x256x20x20xf32, strides: [1600, 400, 20, 1]>, none), %R3, %B1912 = "arith.cast"(%R2, %D206) {round_mode = 3} : (memref<1x256x20x20xf32, strides: [1600, 400, 20, 1]>, none) -> (memref<1x256x20x20xf32, strides: [1600, 400, 20, 1]>, none), %R2, %B1913 = "arith.mul"(%R3, %C0.6931471824645996, %D206) {round_mode = 0} : (memref<1x256x20x20xf32, strides: [1600, 400, 20, 1]>, f32, none) -> (memref<1x256x20x20xf32, strides: [1600, 400, 20, 1]>, none), %R2, %B1914 = "arith.sub"(%R2.6400, %R2, %D206) {round_mode = 0} : (memref<1x256x20x20xf32, strides: [1600, 400, 20, 1]>, memref<1x256x20x20xf32, strides: [1600, 400, 20, 1]>, none) -> (memref<1x256x20x20xf32, strides: [1600, 400, 20, 1]>, none), %R2.6400, %B1915 = "arith.cast"(%R3, %D206) {round_mode = 1} : (memref<1x256x20x20xf32, strides: [1600, 400, 20, 1]>, none) -> (memref<1x256x20x20xsi16, strides: [1664, 416, 20, 1]>, none), %R3, %B1916 = "arith.min"(%R2.6400, %C127, %D206) {round_mode = 0} : (memref<1x256x20x20xsi16, strides: [1664, 416, 20, 1]>, si16, none) -> (memref<1x256x20x20xsi16, strides: [1664, 416, 20, 1]>, none), %R2.6400, %B1917 = "arith.max"(%R3, %C-127, %D206) {round_mode = 0} : (memref<1x256x20x20xsi16, strides: [1664, 416, 20, 1]>, si16, none) -> (memref<1x256x20x20xsi16, strides: [1664, 416, 20, 1]>, none), %R3, %B1918 = "arith.adds"(%R2.6400, %C127, %C23, %D206) {round_mode = 1} : (memref<1x256x20x20xsi16, strides: [1664, 416, 20, 1]>, si16, ui8, none) -> (memref<1x256x20x20xsi32, strides: [1600, 400, 20, 1]>, none), %R2.6400, %B1919 = "sfu.taylor_4x"(%R2, %R2.12800, %D206) : (memref<1x256x20x20xf32, strides: [1600, 400, 20, 1]>, memref<1x64x1x10xf32, strides: [0, 0, 10, 1]>, none) -> (memref<1x256x20x20xf32, strides: [1600, 400, 20, 1]>, none), %R3, %B1920 = "arith.mul"(%R2.6400, %R3, %D206) {round_mode = 0} : (memref<1x256x20x20xf32, strides: [1600, 400, 20, 1]>, memref<1x256x20x20xf32, strides: [1600, 400, 20, 1]>, none) -> (memref<1x256x20x20xf32, strides: [1600, 400, 20, 1]>, none), %R2, %B1921 = "arith.add"(%R3, %C1.0, %D206) {round_mode = 0} : (memref<1x256x20x20xf32, strides: [1600, 400, 20, 1]>, f32, none) -> (memref<1x256x20x20xf32, strides: [1600, 400, 20, 1]>, none), %R3, %B1922 = "arith.div"(%C1.0, %R2, %D206) {iter = 3} : (f32, memref<1x256x20x20xf32, strides: [1600, 400, 20, 1]>, none) -> (memref<1x256x20x20xf32, strides: [1600, 400, 20, 1]>, none), %R3, %B1923 = "arith.mul"(%R3, %R1.6400, %D206) {round_mode = 0} : (memref<1x256x20x20xf32, strides: [1600, 400, 20, 1]>, memref<1x256x20x20xf32, strides: [1600, 400, 20, 1]>, none) -> (memref<1x256x20x20xf32, strides: [1600, 400, 20, 1]>, none), %R2, %B1924 = "arith.copy"(%R1, %D206) {round_mode = 0} : (memref<1x256x20x20xf32, strides: [1600, 400, 20, 1]>, none) -> (memref<1x256x20x20xf32, strides: [3200, 400, 20, 1]>, none), %R2.6400, %B1925 = "arith.copy"(%R3, %D206) {round_mode = 0} : (memref<1x256x20x20xf32, strides: [1600, 400, 20, 1]>, none) -> (memref<1x256x20x20xf32, strides: [3200, 400, 20, 1]>, none), %R1, %B1926 = "conv.normal"(%R2, %R0, %R5, %C0.0, %D206) {kernel = [1, 1], stride = [1, 1], in_zero = [0, 0], ke_zero = [0, 0], kernel_rotate = False, pad_mode = 0, pad = [0, 0, 0, 0], res_add = False} : (memref<1x512x20x20xf32, strides: [3200, 400, 20, 1]>, memref<512x512x1x1xf32>, memref<1x512x1x1xf32, strides: [8, 1, 1, 1]>, f32, none) -> (memref<1x512x20x20xf32, strides: [3200, 400, 20, 1]>, none), %R6, %D207 = "dma.tensor"(%G29110272, %B1925) {decompress = False} : (memref<1x255x1x1xf32, strides: [255, 1, 1, 1]>, none) -> (memref<1x255x1x1xf32, strides: [4, 1, 1, 1]>, none), %R4.9216, %B1927 = "tsbc.s_bc"(%S1024, %D207) : (memref<1x64x1x10xf32>, none) -> (memref<1x64x1x10xf32, strides: [16, 16, 10, 1]>, none), %R3.12800, %B1928 = "arith.sub"(%C0.0, %R1, %D207) {round_mode = 0} : (f32, memref<1x512x20x20xf32, strides: [3200, 400, 20, 1]>, none) -> (memref<1x512x20x20xf32, strides: [3200, 400, 20, 1]>, none), %R3.12800, %B1929 = "arith.max"(%R3.12800, %C-3.4028198694267105e+35, %D207) {round_mode = 0} : (memref<1x512x20x20xf32, strides: [3200, 400, 20, 1]>, f32, none) -> (memref<1x512x20x20xf32, strides: [3200, 400, 20, 1]>, none), %R3, %B1930 = "arith.mul"(%R3.12800, %C1.4426950216293335, %D207) {round_mode = 0} : (memref<1x512x20x20xf32, strides: [3200, 400, 20, 1]>, f32, none) -> (memref<1x512x20x20xf32, strides: [3200, 400, 20, 1]>, none), %R0, %B1931 = "arith.cast"(%R3, %D207) {round_mode = 3} : (memref<1x512x20x20xf32, strides: [3200, 400, 20, 1]>, none) -> (memref<1x512x20x20xf32, strides: [3200, 400, 20, 1]>, none), %R3, %B1932 = "arith.mul"(%R0, %C0.6931471824645996, %D207) {round_mode = 0} : (memref<1x512x20x20xf32, strides: [3200, 400, 20, 1]>, f32, none) -> (memref<1x512x20x20xf32, strides: [3200, 400, 20, 1]>, none), %R3, %B1933 = "arith.sub"(%R3.12800, %R3, %D207) {round_mode = 0} : (memref<1x512x20x20xf32, strides: [3200, 400, 20, 1]>, memref<1x512x20x20xf32, strides: [3200, 400, 20, 1]>, none) -> (memref<1x512x20x20xf32, strides: [3200, 400, 20, 1]>, none), %R3.12800, %B1934 = "arith.cast"(%R0, %D207) {round_mode = 1} : (memref<1x512x20x20xf32, strides: [3200, 400, 20, 1]>, none) -> (memref<1x512x20x20xsi16, strides: [3328, 416, 20, 1]>, none), %R0, %B1935 = "arith.min"(%R3.12800, %C127, %D207) {round_mode = 0} : (memref<1x512x20x20xsi16, strides: [3328, 416, 20, 1]>, si16, none) -> (memref<1x512x20x20xsi16, strides: [3328, 416, 20, 1]>, none), %R3.12800, %B1936 = "arith.max"(%R0, %C-127, %D207) {round_mode = 0} : (memref<1x512x20x20xsi16, strides: [3328, 416, 20, 1]>, si16, none) -> (memref<1x512x20x20xsi16, strides: [3328, 416, 20, 1]>, none), %R0, %B1937 = "arith.adds"(%R3.12800, %C127, %C23, %D207) {round_mode = 1} : (memref<1x512x20x20xsi16, strides: [3328, 416, 20, 1]>, si16, ui8, none) -> (memref<1x512x20x20xsi32, strides: [3200, 400, 20, 1]>, none), %R3.12800, %B1938 = "sfu.taylor_4x"(%R3, %R4.9216, %D207) : (memref<1x512x20x20xf32, strides: [3200, 400, 20, 1]>, memref<1x64x1x10xf32, strides: [0, 0, 10, 1]>, none) -> (memref<1x512x20x20xf32, strides: [3200, 400, 20, 1]>, none), %R0, %B1939 = "arith.mul"(%R3.12800, %R0, %D207) {round_mode = 0} : (memref<1x512x20x20xf32, strides: [3200, 400, 20, 1]>, memref<1x512x20x20xf32, strides: [3200, 400, 20, 1]>, none) -> (memref<1x512x20x20xf32, strides: [3200, 400, 20, 1]>, none), %R3, %B1940 = "arith.add"(%R0, %C1.0, %D207) {round_mode = 0} : (memref<1x512x20x20xf32, strides: [3200, 400, 20, 1]>, f32, none) -> (memref<1x512x20x20xf32, strides: [3200, 400, 20, 1]>, none), %R0, %B1941 = "arith.div"(%C1.0, %R3, %D207) {iter = 3} : (f32, memref<1x512x20x20xf32, strides: [3200, 400, 20, 1]>, none) -> (memref<1x512x20x20xf32, strides: [3200, 400, 20, 1]>, none), %R0, %B1942 = "arith.mul"(%R0, %R1, %D207) {round_mode = 0} : (memref<1x512x20x20xf32, strides: [3200, 400, 20, 1]>, memref<1x512x20x20xf32, strides: [3200, 400, 20, 1]>, none) -> (memref<1x512x20x20xf32, strides: [3200, 400, 20, 1]>, none), %R2, %D208 = "dma.tensor"(%G28585984, %B1926) {decompress = False} : (memref<1x255x512x1xf32, strides: [130560, 512, 1, 1]>, none) -> (memref<1x255x512x1xf32, strides: [2048, 512, 1, 1]>, none), %R3, %B1943 = "conv.normal"(%R0, %R2, %R6, %C0.0, %D208) {kernel = [1, 1], stride = [1, 1], in_zero = [0, 0], ke_zero = [0, 0], kernel_rotate = False, pad_mode = 0, pad = [0, 0, 0, 0], res_add = False} : (memref<1x512x20x20xf32, strides: [3200, 400, 20, 1]>, memref<255x512x1x1xf32>, memref<1x255x1x1xf32, strides: [4, 1, 1, 1]>, f32, none) -> (memref<1x255x20x20xf32, strides: [1600, 400, 20, 1]>, none), %G47087616, %D209 = "dma.tensor"(%R3, %B1943) {decompress = False} : (memref<1x255x20x20xf32, strides: [1600, 400, 20, 1]>, none) -> (memref<1x255x20x20xf32, strides: [102000, 400, 20, 1]>, none), %R0, %D210 = "dma.tensor"(%G47087616, %B1943) {decompress = False} : (memref<255x50x8x1xf32, strides: [400, 8, 1, 1]>, none) -> (memref<255x50x8x1xf32, strides: [8, 8, 1, 1]>, none), %R8, %B1944 = "arith.copy"(%R0, %D210) {round_mode = 0} : (memref<3x50x8x85xf32, strides: [680, 8, 1, 8]>, none) -> (memref<3x50x8x85xf32, strides: [680, 680, 85, 1]>, none), %G37277696, %D211 = "dma.tensor"(%R8, %B1944) {decompress = False} : (memref<3x50x8x85xf32, strides: [680, 680, 85, 1]>, none) -> (memref<3x50x8x85xf32, strides: [34000, 680, 85, 1]>, none)]