[%R0, %D0 = "dma.tensor"(%G13058048, %B0) : (memref<1x3x66x322xf32, strides: [1228800, 409600, 640, 1]>, none) -> (memref<1x3x66x322xf32, strides: [21252, 21252, 322, 1]>, none), %R11.3296, %D0 = "dma.tensor"(%G0, %B0) : (memref<1x32x3x36xf32, strides: [3456, 108, 36, 1]>, none) -> (memref<1x32x3x36xf32, strides: [108, 108, 36, 1]>, none), %R11.3728, %D0 = "dma.tensor"(%G16384, %B0) : (memref<1x32x1x1xf32, strides: [32, 1, 1, 1]>, none) -> (memref<1x32x1x1xf32, strides: [1, 1, 1, 1]>, none), %R12, %B1 = "conv.normal"(%R0, %R11.3296, %R11.3728, %C0.0, %D3) {kernel = [6, 6], stride = [2, 2], in_zero = [0, 0], ke_zero = [0, 0], opt_kernel_rotate = False, pad_mode = 0, pad = [2, 0, 2, 0], opt_res_add = False, do_relu = False, sym_range = False, do_rq = False, round_mode = 0} : (memref<1x3x66x322xf32, strides: [21252, 21252, 322, 1]>, memref<32x3x6x6xf32>, memref<1x32x1x1xui32, strides: [1, 1, 1, 1]>, f32, none) -> (memref<1x32x32x160xf32, strides: [5120, 5120, 160, 1]>, none), %R8, %B1 = "tsbc.s_bc"(%R0, %D3) : (memref<1x32x1x10xf32, strides: [12, 12, 10, 1]>, none) -> (memref<1x32x1x10xf32, strides: [12, 12, 10, 1]>, none), %R5.4096, %B1 = "arith.sub"(%C0.0, %R12, %D3) {round_mode = 0} : (f32, memref<1x32x32x160xf32, strides: [5120, 5120, 160, 1]>, none) -> (memref<1x32x32x160xf32, strides: [5120, 5120, 160, 1]>, none), %R5.4096, %B1 = "arith.max"(%R5.4096, %C-3.4028198694267105e+35, %D3) {round_mode = 0} : (memref<1x32x32x160xf32, strides: [5120, 5120, 160, 1]>, f32, none) -> (memref<1x32x32x160xf32, strides: [5120, 5120, 160, 1]>, none), %R3, %B1 = "arith.mul"(%R5.4096, %C1.4426950216293335, %D3) {round_mode = 0} : (memref<1x32x32x160xf32, strides: [5120, 5120, 160, 1]>, f32, none) -> (memref<1x32x32x160xf32, strides: [5120, 5120, 160, 1]>, none), %R0, %B1 = "arith.cast"(%R3, %D3) {round_mode = 3} : (memref<1x32x32x160xf32, strides: [5120, 5120, 160, 1]>, none) -> (memref<1x32x32x160xf32, strides: [5120, 5120, 160, 1]>, none), %R3, %B1 = "arith.mul"(%R0, %C0.6931471824645996, %D3) {round_mode = 0} : (memref<1x32x32x160xf32, strides: [5120, 5120, 160, 1]>, f32, none) -> (memref<1x32x32x160xf32, strides: [5120, 5120, 160, 1]>, none), %R3, %B1 = "arith.sub"(%R5.4096, %R3, %D3) {round_mode = 0} : (memref<1x32x32x160xf32, strides: [5120, 5120, 160, 1]>, memref<1x32x32x160xf32, strides: [5120, 5120, 160, 1]>, none) -> (memref<1x32x32x160xf32, strides: [5120, 5120, 160, 1]>, none), %R5.4096, %B1 = "arith.cast"(%R0, %D3) {round_mode = 1} : (memref<1x32x32x160xf32, strides: [5120, 5120, 160, 1]>, none) -> (memref<1x32x32x160xsi16, strides: [5120, 5120, 160, 1]>, none), %R0, %B1 = "arith.min"(%R5.4096, %C127, %D3) {round_mode = 0} : (memref<1x32x32x160xsi16, strides: [5120, 5120, 160, 1]>, si16, none) -> (memref<1x32x32x160xsi16, strides: [5120, 5120, 160, 1]>, none), %R5.4096, %B1 = "arith.max"(%R0, %C-127, %D3) {round_mode = 0} : (memref<1x32x32x160xsi16, strides: [5120, 5120, 160, 1]>, si16, none) -> (memref<1x32x32x160xsi16, strides: [5120, 5120, 160, 1]>, none), %R0, %B1 = "arith.add_satu"(%R5.4096, %C127, %C23, %D3) {round_mode = 1} : (memref<1x32x32x160xsi16, strides: [5120, 5120, 160, 1]>, si16, ui8, none) -> (memref<1x32x32x160xsi32, strides: [5120, 5120, 160, 1]>, none), %R5.4096, %B1 = "sfu.taylor_4x"(%R3, %R8, %D3) : (memref<1x32x32x160xf32, strides: [5120, 5120, 160, 1]>, memref<1x32x1x10xf32, strides: [0, 0, 10, 1]>, none) -> (memref<1x32x32x160xf32, strides: [5120, 5120, 160, 1]>, none), %R0, %B1 = "arith.mul"(%R5.4096, %R0, %D3) {round_mode = 0} : (memref<1x32x32x160xf32, strides: [5120, 5120, 160, 1]>, memref<1x32x32x160xf32, strides: [5120, 5120, 160, 1]>, none) -> (memref<1x32x32x160xf32, strides: [5120, 5120, 160, 1]>, none), %R3, %B1 = "arith.add"(%R0, %C1.0, %D3) {round_mode = 0} : (memref<1x32x32x160xf32, strides: [5120, 5120, 160, 1]>, f32, none) -> (memref<1x32x32x160xf32, strides: [5120, 5120, 160, 1]>, none), %R0, %B1 = "arith.div"(%C1.0, %R3, %D3) {iter = 3} : (f32, memref<1x32x32x160xf32, strides: [5120, 5120, 160, 1]>, none) -> (memref<1x32x32x160xf32, strides: [5120, 5120, 160, 1]>, none), %R0, %B1 = "arith.mul"(%R0, %R12, %D3) {round_mode = 0} : (memref<1x32x32x160xf32, strides: [5120, 5120, 160, 1]>, memref<1x32x32x160xf32, strides: [5120, 5120, 160, 1]>, none) -> (memref<1x32x32x160xf32, strides: [5120, 5120, 160, 1]>, none), %R11.608, %D0 = "dma.tensor"(%G20480, %B1) : (memref<1x64x32x9xf32, strides: [18432, 288, 9, 1]>, none) -> (memref<1x64x32x9xf32, strides: [576, 288, 9, 1]>, none), %R15.5120, %D0 = "dma.tensor"(%G94208, %B1) : (memref<1x64x1x1xf32, strides: [64, 1, 1, 1]>, none) -> (memref<1x64x1x1xf32, strides: [2, 1, 1, 1]>, none), %R5, %B1 = "conv.normal"(%R0, %R11.608, %R15.5120, %C0.0, %D5) {kernel = [3, 3], stride = [2, 2], in_zero = [0, 0], ke_zero = [0, 0], opt_kernel_rotate = False, pad_mode = 0, pad = [1, 0, 1, 0], opt_res_add = False, do_relu = False, sym_range = False, do_rq = False, round_mode = 0} : (memref<1x32x32x160xf32, strides: [5120, 5120, 160, 1]>, memref<64x32x3x3xf32>, memref<1x64x1x1xui32, strides: [2, 1, 1, 1]>, f32, none) -> (memref<1x64x16x80xf32, strides: [2560, 1280, 80, 1]>, none), %R4.4096, %B1 = "tsbc.s_bc"(%R0, %D5) : (memref<1x32x1x10xf32, strides: [12, 12, 10, 1]>, none) -> (memref<1x32x1x10xf32, strides: [12, 12, 10, 1]>, none), %R3.2048, %B1 = "arith.sub"(%C0.0, %R5, %D5) {round_mode = 0} : (f32, memref<1x64x16x80xf32, strides: [2560, 1280, 80, 1]>, none) -> (memref<1x64x16x80xf32, strides: [2560, 1280, 80, 1]>, none), %R3.2048, %B1 = "arith.max"(%R3.2048, %C-3.4028198694267105e+35, %D5) {round_mode = 0} : (memref<1x64x16x80xf32, strides: [2560, 1280, 80, 1]>, f32, none) -> (memref<1x64x16x80xf32, strides: [2560, 1280, 80, 1]>, none), %R2, %B1 = "arith.mul"(%R3.2048, %C1.4426950216293335, %D5) {round_mode = 0} : (memref<1x64x16x80xf32, strides: [2560, 1280, 80, 1]>, f32, none) -> (memref<1x64x16x80xf32, strides: [2560, 1280, 80, 1]>, none), %R0, %B1 = "arith.cast"(%R2, %D5) {round_mode = 3} : (memref<1x64x16x80xf32, strides: [2560, 1280, 80, 1]>, none) -> (memref<1x64x16x80xf32, strides: [2560, 1280, 80, 1]>, none), %R2, %B1 = "arith.mul"(%R0, %C0.6931471824645996, %D5) {round_mode = 0} : (memref<1x64x16x80xf32, strides: [2560, 1280, 80, 1]>, f32, none) -> (memref<1x64x16x80xf32, strides: [2560, 1280, 80, 1]>, none), %R2, %B1 = "arith.sub"(%R3.2048, %R2, %D5) {round_mode = 0} : (memref<1x64x16x80xf32, strides: [2560, 1280, 80, 1]>, memref<1x64x16x80xf32, strides: [2560, 1280, 80, 1]>, none) -> (memref<1x64x16x80xf32, strides: [2560, 1280, 80, 1]>, none), %R3.2048, %B1 = "arith.cast"(%R0, %D5) {round_mode = 1} : (memref<1x64x16x80xf32, strides: [2560, 1280, 80, 1]>, none) -> (memref<1x64x16x80xsi16, strides: [2560, 1280, 80, 1]>, none), %R0, %B1 = "arith.min"(%R3.2048, %C127, %D5) {round_mode = 0} : (memref<1x64x16x80xsi16, strides: [2560, 1280, 80, 1]>, si16, none) -> (memref<1x64x16x80xsi16, strides: [2560, 1280, 80, 1]>, none), %R3.2048, %B1 = "arith.max"(%R0, %C-127, %D5) {round_mode = 0} : (memref<1x64x16x80xsi16, strides: [2560, 1280, 80, 1]>, si16, none) -> (memref<1x64x16x80xsi16, strides: [2560, 1280, 80, 1]>, none), %R0, %B1 = "arith.add_satu"(%R3.2048, %C127, %C23, %D5) {round_mode = 1} : (memref<1x64x16x80xsi16, strides: [2560, 1280, 80, 1]>, si16, ui8, none) -> (memref<1x64x16x80xsi32, strides: [2560, 1280, 80, 1]>, none), %R3.2048, %B1 = "sfu.taylor_4x"(%R2, %R4.4096, %D5) : (memref<1x64x16x80xf32, strides: [2560, 1280, 80, 1]>, memref<1x64x1x10xf32, strides: [0, 0, 10, 1]>, none) -> (memref<1x64x16x80xf32, strides: [2560, 1280, 80, 1]>, none), %R0, %B1 = "arith.mul"(%R3.2048, %R0, %D5) {round_mode = 0} : (memref<1x64x16x80xf32, strides: [2560, 1280, 80, 1]>, memref<1x64x16x80xf32, strides: [2560, 1280, 80, 1]>, none) -> (memref<1x64x16x80xf32, strides: [2560, 1280, 80, 1]>, none), %R2, %B1 = "arith.add"(%R0, %C1.0, %D5) {round_mode = 0} : (memref<1x64x16x80xf32, strides: [2560, 1280, 80, 1]>, f32, none) -> (memref<1x64x16x80xf32, strides: [2560, 1280, 80, 1]>, none), %R0, %B1 = "arith.div"(%C1.0, %R2, %D5) {iter = 3} : (f32, memref<1x64x16x80xf32, strides: [2560, 1280, 80, 1]>, none) -> (memref<1x64x16x80xf32, strides: [2560, 1280, 80, 1]>, none), %R0, %B1 = "arith.mul"(%R0, %R5, %D5) {round_mode = 0} : (memref<1x64x16x80xf32, strides: [2560, 1280, 80, 1]>, memref<1x64x16x80xf32, strides: [2560, 1280, 80, 1]>, none) -> (memref<1x64x16x80xf32, strides: [2560, 1280, 80, 1]>, none), %R11.2912, %D0 = "dma.tensor"(%G98304, %B18) : (memref<1x32x64x1xf32, strides: [2048, 64, 1, 1]>, none) -> (memref<1x32x64x1xf32, strides: [64, 64, 1, 1]>, none), %R14.4880, %D0 = "dma.tensor"(%G106496, %B18) : (memref<1x32x1x1xf32, strides: [32, 1, 1, 1]>, none) -> (memref<1x32x1x1xf32, strides: [1, 1, 1, 1]>, none), %R3, %B1 = "conv.normal"(%R0, %R11.2912, %R14.4880, %C0.0, %D7) {kernel = [1, 1], stride = [1, 1], in_zero = [0, 0], ke_zero = [0, 0], opt_kernel_rotate = False, pad_mode = 0, pad = [0, 0, 0, 0], opt_res_add = False, do_relu = False, sym_range = False, do_rq = False, round_mode = 0} : (memref<1x64x16x80xf32, strides: [2560, 1280, 80, 1]>, memref<32x64x1x1xf32>, memref<1x32x1x1xui32, strides: [1, 1, 1, 1]>, f32, none) -> (memref<1x32x16x80xf32, strides: [1280, 1280, 80, 1]>, none), %G0, %D0 = "dma.tensor"(%R0, %B34) : (memref<1x64x16x80xf32, strides: [2560, 1280, 80, 1]>, none) -> (memref<1x64x16x80xf32, strides: [1638400, 25600, 160, 1]>, none), %R2.2048, %B1 = "tsbc.s_bc"(%R0, %D8) : (memref<1x32x1x10xf32, strides: [12, 12, 10, 1]>, none) -> (memref<1x32x1x10xf32, strides: [12, 12, 10, 1]>, none), %R1.5120, %B1 = "arith.sub"(%C0.0, %R3, %D8) {round_mode = 0} : (f32, memref<1x32x16x80xf32, strides: [1280, 1280, 80, 1]>, none) -> (memref<1x32x16x80xf32, strides: [1280, 1280, 80, 1]>, none), %R1.5120, %B1 = "arith.max"(%R1.5120, %C-3.4028198694267105e+35, %D8) {round_mode = 0} : (memref<1x32x16x80xf32, strides: [1280, 1280, 80, 1]>, f32, none) -> (memref<1x32x16x80xf32, strides: [1280, 1280, 80, 1]>, none), %R1, %B1 = "arith.mul"(%R1.5120, %C1.4426950216293335, %D8) {round_mode = 0} : (memref<1x32x16x80xf32, strides: [1280, 1280, 80, 1]>, f32, none) -> (memref<1x32x16x80xf32, strides: [1280, 1280, 80, 1]>, none), %R0, %B1 = "arith.cast"(%R1, %D8) {round_mode = 3} : (memref<1x32x16x80xf32, strides: [1280, 1280, 80, 1]>, none) -> (memref<1x32x16x80xf32, strides: [1280, 1280, 80, 1]>, none), %R1, %B1 = "arith.mul"(%R0, %C0.6931471824645996, %D8) {round_mode = 0} : (memref<1x32x16x80xf32, strides: [1280, 1280, 80, 1]>, f32, none) -> (memref<1x32x16x80xf32, strides: [1280, 1280, 80, 1]>, none), %R1, %B1 = "arith.sub"(%R1.5120, %R1, %D8) {round_mode = 0} : (memref<1x32x16x80xf32, strides: [1280, 1280, 80, 1]>, memref<1x32x16x80xf32, strides: [1280, 1280, 80, 1]>, none) -> (memref<1x32x16x80xf32, strides: [1280, 1280, 80, 1]>, none), %R1.5120, %B1 = "arith.cast"(%R0, %D8) {round_mode = 1} : (memref<1x32x16x80xf32, strides: [1280, 1280, 80, 1]>, none) -> (memref<1x32x16x80xsi16, strides: [1280, 1280, 80, 1]>, none), %R0, %B1 = "arith.min"(%R1.5120, %C127, %D8) {round_mode = 0} : (memref<1x32x16x80xsi16, strides: [1280, 1280, 80, 1]>, si16, none) -> (memref<1x32x16x80xsi16, strides: [1280, 1280, 80, 1]>, none), %R1.5120, %B1 = "arith.max"(%R0, %C-127, %D8) {round_mode = 0} : (memref<1x32x16x80xsi16, strides: [1280, 1280, 80, 1]>, si16, none) -> (memref<1x32x16x80xsi16, strides: [1280, 1280, 80, 1]>, none), %R0, %B1 = "arith.add_satu"(%R1.5120, %C127, %C23, %D8) {round_mode = 1} : (memref<1x32x16x80xsi16, strides: [1280, 1280, 80, 1]>, si16, ui8, none) -> (memref<1x32x16x80xsi32, strides: [1280, 1280, 80, 1]>, none), %R1.5120, %B1 = "sfu.taylor_4x"(%R1, %R2.2048, %D8) : (memref<1x32x16x80xf32, strides: [1280, 1280, 80, 1]>, memref<1x32x1x10xf32, strides: [0, 0, 10, 1]>, none) -> (memref<1x32x16x80xf32, strides: [1280, 1280, 80, 1]>, none), %R0, %B1 = "arith.mul"(%R1.5120, %R0, %D8) {round_mode = 0} : (memref<1x32x16x80xf32, strides: [1280, 1280, 80, 1]>, memref<1x32x16x80xf32, strides: [1280, 1280, 80, 1]>, none) -> (memref<1x32x16x80xf32, strides: [1280, 1280, 80, 1]>, none), %R1, %B1 = "arith.add"(%R0, %C1.0, %D8) {round_mode = 0} : (memref<1x32x16x80xf32, strides: [1280, 1280, 80, 1]>, f32, none) -> (memref<1x32x16x80xf32, strides: [1280, 1280, 80, 1]>, none), %R0, %B1 = "arith.div"(%C1.0, %R1, %D8) {iter = 3} : (f32, memref<1x32x16x80xf32, strides: [1280, 1280, 80, 1]>, none) -> (memref<1x32x16x80xf32, strides: [1280, 1280, 80, 1]>, none), %R0, %B1 = "arith.mul"(%R0, %R3, %D8) {round_mode = 0} : (memref<1x32x16x80xf32, strides: [1280, 1280, 80, 1]>, memref<1x32x16x80xf32, strides: [1280, 1280, 80, 1]>, none) -> (memref<1x32x16x80xf32, strides: [1280, 1280, 80, 1]>, none), %R11.3168, %D0 = "dma.tensor"(%G110592, %B35) : (memref<1x32x32x1xf32, strides: [1024, 32, 1, 1]>, none) -> (memref<1x32x32x1xf32, strides: [32, 32, 1, 1]>, none), %R14.4896, %D0 = "dma.tensor"(%G114688, %B35) : (memref<1x32x1x1xf32, strides: [32, 1, 1, 1]>, none) -> (memref<1x32x1x1xf32, strides: [1, 1, 1, 1]>, none), %R12, %B1 = "conv.normal"(%R0, %R11.3168, %R14.4896, %C0.0, %D10) {kernel = [1, 1], stride = [1, 1], in_zero = [0, 0], ke_zero = [0, 0], opt_kernel_rotate = False, pad_mode = 0, pad = [0, 0, 0, 0], opt_res_add = False, do_relu = False, sym_range = False, do_rq = False, round_mode = 0} : (memref<1x32x16x80xf32, strides: [1280, 1280, 80, 1]>, memref<32x32x1x1xf32>, memref<1x32x1x1xui32, strides: [1, 1, 1, 1]>, f32, none) -> (memref<1x32x16x80xf32, strides: [1280, 1280, 80, 1]>, none), %G21250048, %D0 = "dma.tensor"(%R0, %B51) : (memref<1x32x16x80xf32, strides: [1280, 1280, 80, 1]>, none) -> (memref<1x32x16x80xf32, strides: [819200, 25600, 160, 1]>, none), %R14.2048, %B1 = "tsbc.s_bc"(%R0, %D11) : (memref<1x32x1x10xf32, strides: [12, 12, 10, 1]>, none) -> (memref<1x32x1x10xf32, strides: [12, 12, 10, 1]>, none), %R13.5120, %B1 = "arith.sub"(%C0.0, %R12, %D11) {round_mode = 0} : (f32, memref<1x32x16x80xf32, strides: [1280, 1280, 80, 1]>, none) -> (memref<1x32x16x80xf32, strides: [1280, 1280, 80, 1]>, none), %R13.5120, %B1 = "arith.max"(%R13.5120, %C-3.4028198694267105e+35, %D11) {round_mode = 0} : (memref<1x32x16x80xf32, strides: [1280, 1280, 80, 1]>, f32, none) -> (memref<1x32x16x80xf32, strides: [1280, 1280, 80, 1]>, none), %R13, %B1 = "arith.mul"(%R13.5120, %C1.4426950216293335, %D11) {round_mode = 0} : (memref<1x32x16x80xf32, strides: [1280, 1280, 80, 1]>, f32, none) -> (memref<1x32x16x80xf32, strides: [1280, 1280, 80, 1]>, none), %R15, %B1 = "arith.cast"(%R13, %D11) {round_mode = 3} : (memref<1x32x16x80xf32, strides: [1280, 1280, 80, 1]>, none) -> (memref<1x32x16x80xf32, strides: [1280, 1280, 80, 1]>, none), %R13, %B1 = "arith.mul"(%R15, %C0.6931471824645996, %D11) {round_mode = 0} : (memref<1x32x16x80xf32, strides: [1280, 1280, 80, 1]>, f32, none) -> (memref<1x32x16x80xf32, strides: [1280, 1280, 80, 1]>, none), %R13, %B1 = "arith.sub"(%R13.5120, %R13, %D11) {round_mode = 0} : (memref<1x32x16x80xf32, strides: [1280, 1280, 80, 1]>, memref<1x32x16x80xf32, strides: [1280, 1280, 80, 1]>, none) -> (memref<1x32x16x80xf32, strides: [1280, 1280, 80, 1]>, none), %R13.5120, %B1 = "arith.cast"(%R15, %D11) {round_mode = 1} : (memref<1x32x16x80xf32, strides: [1280, 1280, 80, 1]>, none) -> (memref<1x32x16x80xsi16, strides: [1280, 1280, 80, 1]>, none), %R15, %B1 = "arith.min"(%R13.5120, %C127, %D11) {round_mode = 0} : (memref<1x32x16x80xsi16, strides: [1280, 1280, 80, 1]>, si16, none) -> (memref<1x32x16x80xsi16, strides: [1280, 1280, 80, 1]>, none), %R13.5120, %B1 = "arith.max"(%R15, %C-127, %D11) {round_mode = 0} : (memref<1x32x16x80xsi16, strides: [1280, 1280, 80, 1]>, si16, none) -> (memref<1x32x16x80xsi16, strides: [1280, 1280, 80, 1]>, none), %R15, %B1 = "arith.add_satu"(%R13.5120, %C127, %C23, %D11) {round_mode = 1} : (memref<1x32x16x80xsi16, strides: [1280, 1280, 80, 1]>, si16, ui8, none) -> (memref<1x32x16x80xsi32, strides: [1280, 1280, 80, 1]>, none), %R13.5120, %B1 = "sfu.taylor_4x"(%R13, %R14.2048, %D11) : (memref<1x32x16x80xf32, strides: [1280, 1280, 80, 1]>, memref<1x32x1x10xf32, strides: [0, 0, 10, 1]>, none) -> (memref<1x32x16x80xf32, strides: [1280, 1280, 80, 1]>, none), %R15, %B1 = "arith.mul"(%R13.5120, %R15, %D11) {round_mode = 0} : (memref<1x32x16x80xf32, strides: [1280, 1280, 80, 1]>, memref<1x32x16x80xf32, strides: [1280, 1280, 80, 1]>, none) -> (memref<1x32x16x80xf32, strides: [1280, 1280, 80, 1]>, none), %R13, %B1 = "arith.add"(%R15, %C1.0, %D11) {round_mode = 0} : (memref<1x32x16x80xf32, strides: [1280, 1280, 80, 1]>, f32, none) -> (memref<1x32x16x80xf32, strides: [1280, 1280, 80, 1]>, none), %R15, %B1 = "arith.div"(%C1.0, %R13, %D11) {iter = 3} : (f32, memref<1x32x16x80xf32, strides: [1280, 1280, 80, 1]>, none) -> (memref<1x32x16x80xf32, strides: [1280, 1280, 80, 1]>, none), %R15, %B1 = "arith.mul"(%R15, %R12, %D11) {round_mode = 0} : (memref<1x32x16x80xf32, strides: [1280, 1280, 80, 1]>, memref<1x32x16x80xf32, strides: [1280, 1280, 80, 1]>, none) -> (memref<1x32x16x80xf32, strides: [1280, 1280, 80, 1]>, none), %R0, %D0 = "dma.tensor"(%G13059312, %B52) : (memref<1x3x66x324xf32, strides: [1228800, 409600, 640, 1]>, none) -> (memref<1x3x66x324xf32, strides: [21384, 21384, 324, 1]>, none), %R12, %B1 = "conv.normal"(%R0, %R11.3296, %R11.3728, %C0.0, %D12) {kernel = [6, 6], stride = [2, 2], in_zero = [0, 0], ke_zero = [0, 0], opt_kernel_rotate = False, pad_mode = 0, pad = [2, 0, 0, 2], opt_res_add = False, do_relu = False, sym_range = False, do_rq = False, round_mode = 0} : (memref<1x3x66x324xf32, strides: [21384, 21384, 324, 1]>, memref<32x3x6x6xf32>, memref<1x32x1x1xui32, strides: [1, 1, 1, 1]>, f32, none) -> (memref<1x32x32x161xf32, strides: [5152, 5152, 161, 1]>, none), %G6553600, %D0 = "dma.tensor"(%R15, %B68) : (memref<1x32x16x80xf32, strides: [1280, 1280, 80, 1]>, none) -> (memref<1x32x16x80xf32, strides: [819200, 25600, 160, 1]>, none), %R8.256, %B1 = "tsbc.s_bc"(%R0, %D13) : (memref<1x32x1x10xf32, strides: [12, 12, 10, 1]>, none) -> (memref<1x32x1x10xf32, strides: [12, 12, 10, 1]>, none), %R5.4224, %B1 = "arith.sub"(%C0.0, %R12, %D13) {round_mode = 0} : (f32, memref<1x32x32x161xf32, strides: [5152, 5152, 161, 1]>, none) -> (memref<1x32x32x161xf32, strides: [5152, 5152, 161, 1]>, none), %R5.4224, %B1 = "arith.max"(%R5.4224, %C-3.4028198694267105e+35, %D13) {round_mode = 0} : (memref<1x32x32x161xf32, strides: [5152, 5152, 161, 1]>, f32, none) -> (memref<1x32x32x161xf32, strides: [5152, 5152, 161, 1]>, none), %R3, %B1 = "arith.mul"(%R5.4224, %C1.4426950216293335, %D13) {round_mode = 0} : (memref<1x32x32x161xf32, strides: [5152, 5152, 161, 1]>, f32, none) -> (memref<1x32x32x161xf32, strides: [5152, 5152, 161, 1]>, none), %R0, %B1 = "arith.cast"(%R3, %D13) {round_mode = 3} : (memref<1x32x32x161xf32, strides: [5152, 5152, 161, 1]>, none) -> (memref<1x32x32x161xf32, strides: [5152, 5152, 161, 1]>, none), %R3, %B1 = "arith.mul"(%R0, %C0.6931471824645996, %D13) {round_mode = 0} : (memref<1x32x32x161xf32, strides: [5152, 5152, 161, 1]>, f32, none) -> (memref<1x32x32x161xf32, strides: [5152, 5152, 161, 1]>, none), %R3, %B1 = "arith.sub"(%R5.4224, %R3, %D13) {round_mode = 0} : (memref<1x32x32x161xf32, strides: [5152, 5152, 161, 1]>, memref<1x32x32x161xf32, strides: [5152, 5152, 161, 1]>, none) -> (memref<1x32x32x161xf32, strides: [5152, 5152, 161, 1]>, none), %R5.4224, %B1 = "arith.cast"(%R0, %D13) {round_mode = 1} : (memref<1x32x32x161xf32, strides: [5152, 5152, 161, 1]>, none) -> (memref<1x32x32x161xsi16, strides: [5152, 5152, 161, 1]>, none), %R0, %B1 = "arith.min"(%R5.4224, %C127, %D13) {round_mode = 0} : (memref<1x32x32x161xsi16, strides: [5152, 5152, 161, 1]>, si16, none) -> (memref<1x32x32x161xsi16, strides: [5152, 5152, 161, 1]>, none), %R5.4224, %B1 = "arith.max"(%R0, %C-127, %D13) {round_mode = 0} : (memref<1x32x32x161xsi16, strides: [5152, 5152, 161, 1]>, si16, none) -> (memref<1x32x32x161xsi16, strides: [5152, 5152, 161, 1]>, none), %R0, %B1 = "arith.add_satu"(%R5.4224, %C127, %C23, %D13) {round_mode = 1} : (memref<1x32x32x161xsi16, strides: [5152, 5152, 161, 1]>, si16, ui8, none) -> (memref<1x32x32x161xsi32, strides: [5152, 5152, 161, 1]>, none), %R5.4224, %B1 = "sfu.taylor_4x"(%R3, %R8.256, %D13) : (memref<1x32x32x161xf32, strides: [5152, 5152, 161, 1]>, memref<1x32x1x10xf32, strides: [0, 0, 10, 1]>, none) -> (memref<1x32x32x161xf32, strides: [5152, 5152, 161, 1]>, none), %R0, %B1 = "arith.mul"(%R5.4224, %R0, %D13) {round_mode = 0} : (memref<1x32x32x161xf32, strides: [5152, 5152, 161, 1]>, memref<1x32x32x161xf32, strides: [5152, 5152, 161, 1]>, none) -> (memref<1x32x32x161xf32, strides: [5152, 5152, 161, 1]>, none), %R3, %B1 = "arith.add"(%R0, %C1.0, %D13) {round_mode = 0} : (memref<1x32x32x161xf32, strides: [5152, 5152, 161, 1]>, f32, none) -> (memref<1x32x32x161xf32, strides: [5152, 5152, 161, 1]>, none), %R0, %B1 = "arith.div"(%C1.0, %R3, %D13) {iter = 3} : (f32, memref<1x32x32x161xf32, strides: [5152, 5152, 161, 1]>, none) -> (memref<1x32x32x161xf32, strides: [5152, 5152, 161, 1]>, none), %R0, %B1 = "arith.mul"(%R0, %R12, %D13) {round_mode = 0} : (memref<1x32x32x161xf32, strides: [5152, 5152, 161, 1]>, memref<1x32x32x161xf32, strides: [5152, 5152, 161, 1]>, none) -> (memref<1x32x32x161xf32, strides: [5152, 5152, 161, 1]>, none), %R5, %B1 = "conv.normal"(%R0, %R11.608, %R15.5120, %C0.0, %D13) {kernel = [3, 3], stride = [2, 2], in_zero = [0, 0], ke_zero = [0, 0], opt_kernel_rotate = False, pad_mode = 0, pad = [1, 0, 0, 1], opt_res_add = False, do_relu = False, sym_range = False, do_rq = False, round_mode = 0} : (memref<1x32x32x161xf32, strides: [5152, 5152, 161, 1]>, memref<64x32x3x3xf32>, memref<1x64x1x1xui32, strides: [2, 1, 1, 1]>, f32, none) -> (memref<1x64x16x80xf32, strides: [2560, 1280, 80, 1]>, none), %R4.4096, %B1 = "tsbc.s_bc"(%R0, %D13) : (memref<1x32x1x10xf32, strides: [12, 12, 10, 1]>, none) -> (memref<1x32x1x10xf32, strides: [12, 12, 10, 1]>, none), %R3.2048, %B1 = "arith.sub"(%C0.0, %R5, %D13) {round_mode = 0} : (f32, memref<1x64x16x80xf32, strides: [2560, 1280, 80, 1]>, none) -> (memref<1x64x16x80xf32, strides: [2560, 1280, 80, 1]>, none), %R3.2048, %B1 = "arith.max"(%R3.2048, %C-3.4028198694267105e+35, %D13) {round_mode = 0} : (memref<1x64x16x80xf32, strides: [2560, 1280, 80, 1]>, f32, none) -> (memref<1x64x16x80xf32, strides: [2560, 1280, 80, 1]>, none), %R2, %B1 = "arith.mul"(%R3.2048, %C1.4426950216293335, %D13) {round_mode = 0} : (memref<1x64x16x80xf32, strides: [2560, 1280, 80, 1]>, f32, none) -> (memref<1x64x16x80xf32, strides: [2560, 1280, 80, 1]>, none), %R0, %B1 = "arith.cast"(%R2, %D13) {round_mode = 3} : (memref<1x64x16x80xf32, strides: [2560, 1280, 80, 1]>, none) -> (memref<1x64x16x80xf32, strides: [2560, 1280, 80, 1]>, none), %R2, %B1 = "arith.mul"(%R0, %C0.6931471824645996, %D13) {round_mode = 0} : (memref<1x64x16x80xf32, strides: [2560, 1280, 80, 1]>, f32, none) -> (memref<1x64x16x80xf32, strides: [2560, 1280, 80, 1]>, none), %R2, %B1 = "arith.sub"(%R3.2048, %R2, %D13) {round_mode = 0} : (memref<1x64x16x80xf32, strides: [2560, 1280, 80, 1]>, memref<1x64x16x80xf32, strides: [2560, 1280, 80, 1]>, none) -> (memref<1x64x16x80xf32, strides: [2560, 1280, 80, 1]>, none), %R3.2048, %B1 = "arith.cast"(%R0, %D13) {round_mode = 1} : (memref<1x64x16x80xf32, strides: [2560, 1280, 80, 1]>, none) -> (memref<1x64x16x80xsi16, strides: [2560, 1280, 80, 1]>, none), %R0, %B1 = "arith.min"(%R3.2048, %C127, %D13) {round_mode = 0} : (memref<1x64x16x80xsi16, strides: [2560, 1280, 80, 1]>, si16, none) -> (memref<1x64x16x80xsi16, strides: [2560, 1280, 80, 1]>, none), %R3.2048, %B1 = "arith.max"(%R0, %C-127, %D13) {round_mode = 0} : (memref<1x64x16x80xsi16, strides: [2560, 1280, 80, 1]>, si16, none) -> (memref<1x64x16x80xsi16, strides: [2560, 1280, 80, 1]>, none), %R0, %B1 = "arith.add_satu"(%R3.2048, %C127, %C23, %D13) {round_mode = 1} : (memref<1x64x16x80xsi16, strides: [2560, 1280, 80, 1]>, si16, ui8, none) -> (memref<1x64x16x80xsi32, strides: [2560, 1280, 80, 1]>, none), %R3.2048, %B1 = "sfu.taylor_4x"(%R2, %R4.4096, %D13) : (memref<1x64x16x80xf32, strides: [2560, 1280, 80, 1]>, memref<1x64x1x10xf32, strides: [0, 0, 10, 1]>, none) -> (memref<1x64x16x80xf32, strides: [2560, 1280, 80, 1]>, none), %R0, %B1 = "arith.mul"(%R3.2048, %R0, %D13) {round_mode = 0} : (memref<1x64x16x80xf32, strides: [2560, 1280, 80, 1]>, memref<1x64x16x80xf32, strides: [2560, 1280, 80, 1]>, none) -> (memref<1x64x16x80xf32, strides: [2560, 1280, 80, 1]>, none), %R2, %B1 = "arith.add"(%R0, %C1.0, %D13) {round_mode = 0} : (memref<1x64x16x80xf32, strides: [2560, 1280, 80, 1]>, f32, none) -> (memref<1x64x16x80xf32, strides: [2560, 1280, 80, 1]>, none), %R0, %B1 = "arith.div"(%C1.0, %R2, %D13) {iter = 3} : (f32, memref<1x64x16x80xf32, strides: [2560, 1280, 80, 1]>, none) -> (memref<1x64x16x80xf32, strides: [2560, 1280, 80, 1]>, none), %R0, %B1 = "arith.mul"(%R0, %R5, %D13) {round_mode = 0} : (memref<1x64x16x80xf32, strides: [2560, 1280, 80, 1]>, memref<1x64x16x80xf32, strides: [2560, 1280, 80, 1]>, none) -> (memref<1x64x16x80xf32, strides: [2560, 1280, 80, 1]>, none), %R3, %B1 = "conv.normal"(%R0, %R11.2912, %R14.4880, %C0.0, %D13) {kernel = [1, 1], stride = [1, 1], in_zero = [0, 0], ke_zero = [0, 0], opt_kernel_rotate = False, pad_mode = 0, pad = [0, 0, 0, 0], opt_res_add = False, do_relu = False, sym_range = False, do_rq = False, round_mode = 0} : (memref<1x64x16x80xf32, strides: [2560, 1280, 80, 1]>, memref<32x64x1x1xf32>, memref<1x32x1x1xui32, strides: [1, 1, 1, 1]>, f32, none) -> (memref<1x32x16x80xf32, strides: [1280, 1280, 80, 1]>, none), %G320, %D0 = "dma.tensor"(%R0, %B102) : (memref<1x64x16x80xf32, strides: [2560, 1280, 80, 1]>, none) -> (memref<1x64x16x80xf32, strides: [1638400, 25600, 160, 1]>, none), %R2.2048, %B1 = "tsbc.s_bc"(%R0, %D14) : (memref<1x32x1x10xf32, strides: [12, 12, 10, 1]>, none) -> (memref<1x32x1x10xf32, strides: [12, 12, 10, 1]>, none), %R1.5120, %B1 = "arith.sub"(%C0.0, %R3, %D14) {round_mode = 0} : (f32, memref<1x32x16x80xf32, strides: [1280, 1280, 80, 1]>, none) -> (memref<1x32x16x80xf32, strides: [1280, 1280, 80, 1]>, none), %R1.5120, %B1 = "arith.max"(%R1.5120, %C-3.4028198694267105e+35, %D14) {round_mode = 0} : (memref<1x32x16x80xf32, strides: [1280, 1280, 80, 1]>, f32, none) -> (memref<1x32x16x80xf32, strides: [1280, 1280, 80, 1]>, none), %R1, %B1 = "arith.mul"(%R1.5120, %C1.4426950216293335, %D14) {round_mode = 0} : (memref<1x32x16x80xf32, strides: [1280, 1280, 80, 1]>, f32, none) -> (memref<1x32x16x80xf32, strides: [1280, 1280, 80, 1]>, none), %R0, %B1 = "arith.cast"(%R1, %D14) {round_mode = 3} : (memref<1x32x16x80xf32, strides: [1280, 1280, 80, 1]>, none) -> (memref<1x32x16x80xf32, strides: [1280, 1280, 80, 1]>, none), %R1, %B1 = "arith.mul"(%R0, %C0.6931471824645996, %D14) {round_mode = 0} : (memref<1x32x16x80xf32, strides: [1280, 1280, 80, 1]>, f32, none) -> (memref<1x32x16x80xf32, strides: [1280, 1280, 80, 1]>, none), %R1, %B1 = "arith.sub"(%R1.5120, %R1, %D14) {round_mode = 0} : (memref<1x32x16x80xf32, strides: [1280, 1280, 80, 1]>, memref<1x32x16x80xf32, strides: [1280, 1280, 80, 1]>, none) -> (memref<1x32x16x80xf32, strides: [1280, 1280, 80, 1]>, none), %R1.5120, %B1 = "arith.cast"(%R0, %D14) {round_mode = 1} : (memref<1x32x16x80xf32, strides: [1280, 1280, 80, 1]>, none) -> (memref<1x32x16x80xsi16, strides: [1280, 1280, 80, 1]>, none), %R0, %B1 = "arith.min"(%R1.5120, %C127, %D14) {round_mode = 0} : (memref<1x32x16x80xsi16, strides: [1280, 1280, 80, 1]>, si16, none) -> (memref<1x32x16x80xsi16, strides: [1280, 1280, 80, 1]>, none), %R1.5120, %B1 = "arith.max"(%R0, %C-127, %D14) {round_mode = 0} : (memref<1x32x16x80xsi16, strides: [1280, 1280, 80, 1]>, si16, none) -> (memref<1x32x16x80xsi16, strides: [1280, 1280, 80, 1]>, none), %R0, %B1 = "arith.add_satu"(%R1.5120, %C127, %C23, %D14) {round_mode = 1} : (memref<1x32x16x80xsi16, strides: [1280, 1280, 80, 1]>, si16, ui8, none) -> (memref<1x32x16x80xsi32, strides: [1280, 1280, 80, 1]>, none), %R1.5120, %B1 = "sfu.taylor_4x"(%R1, %R2.2048, %D14) : (memref<1x32x16x80xf32, strides: [1280, 1280, 80, 1]>, memref<1x32x1x10xf32, strides: [0, 0, 10, 1]>, none) -> (memref<1x32x16x80xf32, strides: [1280, 1280, 80, 1]>, none), %R0, %B1 = "arith.mul"(%R1.5120, %R0, %D14) {round_mode = 0} : (memref<1x32x16x80xf32, strides: [1280, 1280, 80, 1]>, memref<1x32x16x80xf32, strides: [1280, 1280, 80, 1]>, none) -> (memref<1x32x16x80xf32, strides: [1280, 1280, 80, 1]>, none), %R1, %B1 = "arith.add"(%R0, %C1.0, %D14) {round_mode = 0} : (memref<1x32x16x80xf32, strides: [1280, 1280, 80, 1]>, f32, none) -> (memref<1x32x16x80xf32, strides: [1280, 1280, 80, 1]>, none), %R0, %B1 = "arith.div"(%C1.0, %R1, %D14) {iter = 3} : (f32, memref<1x32x16x80xf32, strides: [1280, 1280, 80, 1]>, none) -> (memref<1x32x16x80xf32, strides: [1280, 1280, 80, 1]>, none), %R0, %B1 = "arith.mul"(%R0, %R3, %D14) {round_mode = 0} : (memref<1x32x16x80xf32, strides: [1280, 1280, 80, 1]>, memref<1x32x16x80xf32, strides: [1280, 1280, 80, 1]>, none) -> (memref<1x32x16x80xf32, strides: [1280, 1280, 80, 1]>, none), %R12, %B1 = "conv.normal"(%R0, %R11.3168, %R14.4896, %C0.0, %D14) {kernel = [1, 1], stride = [1, 1], in_zero = [0, 0], ke_zero = [0, 0], opt_kernel_rotate = False, pad_mode = 0, pad = [0, 0, 0, 0], opt_res_add = False, do_relu = False, sym_range = False, do_rq = False, round_mode = 0} : (memref<1x32x16x80xf32, strides: [1280, 1280, 80, 1]>, memref<32x32x1x1xf32>, memref<1x32x1x1xui32, strides: [1, 1, 1, 1]>, f32, none) -> (memref<1x32x16x80xf32, strides: [1280, 1280, 80, 1]>, none), %G21250368, %D0 = "dma.tensor"(%R0, %B119) : (memref<1x32x16x80xf32, strides: [1280, 1280, 80, 1]>, none) -> (memref<1x32x16x80xf32, strides: [819200, 25600, 160, 1]>, none), %R14.2048, %B1 = "tsbc.s_bc"(%R0, %D15) : (memref<1x32x1x10xf32, strides: [12, 12, 10, 1]>, none) -> (memref<1x32x1x10xf32, strides: [12, 12, 10, 1]>, none), %R13.5120, %B1 = "arith.sub"(%C0.0, %R12, %D15) {round_mode = 0} : (f32, memref<1x32x16x80xf32, strides: [1280, 1280, 80, 1]>, none) -> (memref<1x32x16x80xf32, strides: [1280, 1280, 80, 1]>, none), %R13.5120, %B1 = "arith.max"(%R13.5120, %C-3.4028198694267105e+35, %D15) {round_mode = 0} : (memref<1x32x16x80xf32, strides: [1280, 1280, 80, 1]>, f32, none) -> (memref<1x32x16x80xf32, strides: [1280, 1280, 80, 1]>, none), %R13, %B1 = "arith.mul"(%R13.5120, %C1.4426950216293335, %D15) {round_mode = 0} : (memref<1x32x16x80xf32, strides: [1280, 1280, 80, 1]>, f32, none) -> (memref<1x32x16x80xf32, strides: [1280, 1280, 80, 1]>, none), %R15, %B1 = "arith.cast"(%R13, %D15) {round_mode = 3} : (memref<1x32x16x80xf32, strides: [1280, 1280, 80, 1]>, none) -> (memref<1x32x16x80xf32, strides: [1280, 1280, 80, 1]>, none), %R13, %B1 = "arith.mul"(%R15, %C0.6931471824645996, %D15) {round_mode = 0} : (memref<1x32x16x80xf32, strides: [1280, 1280, 80, 1]>, f32, none) -> (memref<1x32x16x80xf32, strides: [1280, 1280, 80, 1]>, none), %R13, %B1 = "arith.sub"(%R13.5120, %R13, %D15) {round_mode = 0} : (memref<1x32x16x80xf32, strides: [1280, 1280, 80, 1]>, memref<1x32x16x80xf32, strides: [1280, 1280, 80, 1]>, none) -> (memref<1x32x16x80xf32, strides: [1280, 1280, 80, 1]>, none), %R13.5120, %B1 = "arith.cast"(%R15, %D15) {round_mode = 1} : (memref<1x32x16x80xf32, strides: [1280, 1280, 80, 1]>, none) -> (memref<1x32x16x80xsi16, strides: [1280, 1280, 80, 1]>, none), %R15, %B1 = "arith.min"(%R13.5120, %C127, %D15) {round_mode = 0} : (memref<1x32x16x80xsi16, strides: [1280, 1280, 80, 1]>, si16, none) -> (memref<1x32x16x80xsi16, strides: [1280, 1280, 80, 1]>, none), %R13.5120, %B1 = "arith.max"(%R15, %C-127, %D15) {round_mode = 0} : (memref<1x32x16x80xsi16, strides: [1280, 1280, 80, 1]>, si16, none) -> (memref<1x32x16x80xsi16, strides: [1280, 1280, 80, 1]>, none), %R15, %B1 = "arith.add_satu"(%R13.5120, %C127, %C23, %D15) {round_mode = 1} : (memref<1x32x16x80xsi16, strides: [1280, 1280, 80, 1]>, si16, ui8, none) -> (memref<1x32x16x80xsi32, strides: [1280, 1280, 80, 1]>, none), %R13.5120, %B1 = "sfu.taylor_4x"(%R13, %R14.2048, %D15) : (memref<1x32x16x80xf32, strides: [1280, 1280, 80, 1]>, memref<1x32x1x10xf32, strides: [0, 0, 10, 1]>, none) -> (memref<1x32x16x80xf32, strides: [1280, 1280, 80, 1]>, none), %R15, %B1 = "arith.mul"(%R13.5120, %R15, %D15) {round_mode = 0} : (memref<1x32x16x80xf32, strides: [1280, 1280, 80, 1]>, memref<1x32x16x80xf32, strides: [1280, 1280, 80, 1]>, none) -> (memref<1x32x16x80xf32, strides: [1280, 1280, 80, 1]>, none), %R13, %B1 = "arith.add"(%R15, %C1.0, %D15) {round_mode = 0} : (memref<1x32x16x80xf32, strides: [1280, 1280, 80, 1]>, f32, none) -> (memref<1x32x16x80xf32, strides: [1280, 1280, 80, 1]>, none), %R15, %B1 = "arith.div"(%C1.0, %R13, %D15) {iter = 3} : (f32, memref<1x32x16x80xf32, strides: [1280, 1280, 80, 1]>, none) -> (memref<1x32x16x80xf32, strides: [1280, 1280, 80, 1]>, none), %R15, %B1 = "arith.mul"(%R15, %R12, %D15) {round_mode = 0} : (memref<1x32x16x80xf32, strides: [1280, 1280, 80, 1]>, memref<1x32x16x80xf32, strides: [1280, 1280, 80, 1]>, none) -> (memref<1x32x16x80xf32, strides: [1280, 1280, 80, 1]>, none), %R0, %D0 = "dma.tensor"(%G13211648, %B120) : (memref<1x3x70x322xf32, strides: [1228800, 409600, 640, 1]>, none) -> (memref<1x3x70x322xf32, strides: [22540, 22540, 322, 1]>, none), %R12, %B1 = "conv.normal"(%R0, %R11.3296, %R11.3728, %C0.0, %D16) {kernel = [6, 6], stride = [2, 2], in_zero = [0, 0], ke_zero = [0, 0], opt_kernel_rotate = False, pad_mode = 0, pad = [0, 0, 2, 0], opt_res_add = False, do_relu = False, sym_range = False, do_rq = False, round_mode = 0} : (memref<1x3x70x322xf32, strides: [22540, 22540, 322, 1]>, memref<32x3x6x6xf32>, memref<1x32x1x1xui32, strides: [1, 1, 1, 1]>, f32, none) -> (memref<1x32x33x160xf32, strides: [5280, 5280, 160, 1]>, none), %G6553920, %D0 = "dma.tensor"(%R15, %B136) : (memref<1x32x16x80xf32, strides: [1280, 1280, 80, 1]>, none) -> (memref<1x32x16x80xf32, strides: [819200, 25600, 160, 1]>, none), %R8.1280, %B1 = "tsbc.s_bc"(%R0, %D17) : (memref<1x32x1x10xf32, strides: [12, 12, 10, 1]>, none) -> (memref<1x32x1x10xf32, strides: [12, 12, 10, 1]>, none), %R5.4736, %B1 = "arith.sub"(%C0.0, %R12, %D17) {round_mode = 0} : (f32, memref<1x32x33x160xf32, strides: [5280, 5280, 160, 1]>, none) -> (memref<1x32x33x160xf32, strides: [5280, 5280, 160, 1]>, none), %R5.4736, %B1 = "arith.max"(%R5.4736, %C-3.4028198694267105e+35, %D17) {round_mode = 0} : (memref<1x32x33x160xf32, strides: [5280, 5280, 160, 1]>, f32, none) -> (memref<1x32x33x160xf32, strides: [5280, 5280, 160, 1]>, none), %R3, %B1 = "arith.mul"(%R5.4736, %C1.4426950216293335, %D17) {round_mode = 0} : (memref<1x32x33x160xf32, strides: [5280, 5280, 160, 1]>, f32, none) -> (memref<1x32x33x160xf32, strides: [5280, 5280, 160, 1]>, none), %R0, %B1 = "arith.cast"(%R3, %D17) {round_mode = 3} : (memref<1x32x33x160xf32, strides: [5280, 5280, 160, 1]>, none) -> (memref<1x32x33x160xf32, strides: [5280, 5280, 160, 1]>, none), %R3, %B1 = "arith.mul"(%R0, %C0.6931471824645996, %D17) {round_mode = 0} : (memref<1x32x33x160xf32, strides: [5280, 5280, 160, 1]>, f32, none) -> (memref<1x32x33x160xf32, strides: [5280, 5280, 160, 1]>, none), %R3, %B1 = "arith.sub"(%R5.4736, %R3, %D17) {round_mode = 0} : (memref<1x32x33x160xf32, strides: [5280, 5280, 160, 1]>, memref<1x32x33x160xf32, strides: [5280, 5280, 160, 1]>, none) -> (memref<1x32x33x160xf32, strides: [5280, 5280, 160, 1]>, none), %R5.4736, %B1 = "arith.cast"(%R0, %D17) {round_mode = 1} : (memref<1x32x33x160xf32, strides: [5280, 5280, 160, 1]>, none) -> (memref<1x32x33x160xsi16, strides: [5280, 5280, 160, 1]>, none), %R0, %B1 = "arith.min"(%R5.4736, %C127, %D17) {round_mode = 0} : (memref<1x32x33x160xsi16, strides: [5280, 5280, 160, 1]>, si16, none) -> (memref<1x32x33x160xsi16, strides: [5280, 5280, 160, 1]>, none), %R5.4736, %B1 = "arith.max"(%R0, %C-127, %D17) {round_mode = 0} : (memref<1x32x33x160xsi16, strides: [5280, 5280, 160, 1]>, si16, none) -> (memref<1x32x33x160xsi16, strides: [5280, 5280, 160, 1]>, none), %R0, %B1 = "arith.add_satu"(%R5.4736, %C127, %C23, %D17) {round_mode = 1} : (memref<1x32x33x160xsi16, strides: [5280, 5280, 160, 1]>, si16, ui8, none) -> (memref<1x32x33x160xsi32, strides: [5280, 5280, 160, 1]>, none), %R5.4736, %B1 = "sfu.taylor_4x"(%R3, %R8.1280, %D17) : (memref<1x32x33x160xf32, strides: [5280, 5280, 160, 1]>, memref<1x32x1x10xf32, strides: [0, 0, 10, 1]>, none) -> (memref<1x32x33x160xf32, strides: [5280, 5280, 160, 1]>, none), %R0, %B1 = "arith.mul"(%R5.4736, %R0, %D17) {round_mode = 0} : (memref<1x32x33x160xf32, strides: [5280, 5280, 160, 1]>, memref<1x32x33x160xf32, strides: [5280, 5280, 160, 1]>, none) -> (memref<1x32x33x160xf32, strides: [5280, 5280, 160, 1]>, none), %R3, %B1 = "arith.add"(%R0, %C1.0, %D17) {round_mode = 0} : (memref<1x32x33x160xf32, strides: [5280, 5280, 160, 1]>, f32, none) -> (memref<1x32x33x160xf32, strides: [5280, 5280, 160, 1]>, none), %R0, %B1 = "arith.div"(%C1.0, %R3, %D17) {iter = 3} : (f32, memref<1x32x33x160xf32, strides: [5280, 5280, 160, 1]>, none) -> (memref<1x32x33x160xf32, strides: [5280, 5280, 160, 1]>, none), %R0, %B1 = "arith.mul"(%R0, %R12, %D17) {round_mode = 0} : (memref<1x32x33x160xf32, strides: [5280, 5280, 160, 1]>, memref<1x32x33x160xf32, strides: [5280, 5280, 160, 1]>, none) -> (memref<1x32x33x160xf32, strides: [5280, 5280, 160, 1]>, none), %R5, %B1 = "conv.normal"(%R0, %R11.608, %R15.5120, %C0.0, %D17) {kernel = [3, 3], stride = [2, 2], in_zero = [0, 0], ke_zero = [0, 0], opt_kernel_rotate = False, pad_mode = 0, pad = [0, 0, 1, 0], opt_res_add = False, do_relu = False, sym_range = False, do_rq = False, round_mode = 0} : (memref<1x32x33x160xf32, strides: [5280, 5280, 160, 1]>, memref<64x32x3x3xf32>, memref<1x64x1x1xui32, strides: [2, 1, 1, 1]>, f32, none) -> (memref<1x64x16x80xf32, strides: [2560, 1280, 80, 1]>, none), %R4.4096, %B1 = "tsbc.s_bc"(%R0, %D17) : (memref<1x32x1x10xf32, strides: [12, 12, 10, 1]>, none) -> (memref<1x32x1x10xf32, strides: [12, 12, 10, 1]>, none), %R3.2048, %B1 = "arith.sub"(%C0.0, %R5, %D17) {round_mode = 0} : (f32, memref<1x64x16x80xf32, strides: [2560, 1280, 80, 1]>, none) -> (memref<1x64x16x80xf32, strides: [2560, 1280, 80, 1]>, none), %R3.2048, %B1 = "arith.max"(%R3.2048, %C-3.4028198694267105e+35, %D17) {round_mode = 0} : (memref<1x64x16x80xf32, strides: [2560, 1280, 80, 1]>, f32, none) -> (memref<1x64x16x80xf32, strides: [2560, 1280, 80, 1]>, none), %R2, %B1 = "arith.mul"(%R3.2048, %C1.4426950216293335, %D17) {round_mode = 0} : (memref<1x64x16x80xf32, strides: [2560, 1280, 80, 1]>, f32, none) -> (memref<1x64x16x80xf32, strides: [2560, 1280, 80, 1]>, none), %R0, %B1 = "arith.cast"(%R2, %D17) {round_mode = 3} : (memref<1x64x16x80xf32, strides: [2560, 1280, 80, 1]>, none) -> (memref<1x64x16x80xf32, strides: [2560, 1280, 80, 1]>, none), %R2, %B1 = "arith.mul"(%R0, %C0.6931471824645996, %D17) {round_mode = 0} : (memref<1x64x16x80xf32, strides: [2560, 1280, 80, 1]>, f32, none) -> (memref<1x64x16x80xf32, strides: [2560, 1280, 80, 1]>, none), %R2, %B1 = "arith.sub"(%R3.2048, %R2, %D17) {round_mode = 0} : (memref<1x64x16x80xf32, strides: [2560, 1280, 80, 1]>, memref<1x64x16x80xf32, strides: [2560, 1280, 80, 1]>, none) -> (memref<1x64x16x80xf32, strides: [2560, 1280, 80, 1]>, none), %R3.2048, %B1 = "arith.cast"(%R0, %D17) {round_mode = 1} : (memref<1x64x16x80xf32, strides: [2560, 1280, 80, 1]>, none) -> (memref<1x64x16x80xsi16, strides: [2560, 1280, 80, 1]>, none), %R0, %B1 = "arith.min"(%R3.2048, %C127, %D17) {round_mode = 0} : (memref<1x64x16x80xsi16, strides: [2560, 1280, 80, 1]>, si16, none) -> (memref<1x64x16x80xsi16, strides: [2560, 1280, 80, 1]>, none), %R3.2048, %B1 = "arith.max"(%R0, %C-127, %D17) {round_mode = 0} : (memref<1x64x16x80xsi16, strides: [2560, 1280, 80, 1]>, si16, none) -> (memref<1x64x16x80xsi16, strides: [2560, 1280, 80, 1]>, none), %R0, %B1 = "arith.add_satu"(%R3.2048, %C127, %C23, %D17) {round_mode = 1} : (memref<1x64x16x80xsi16, strides: [2560, 1280, 80, 1]>, si16, ui8, none) -> (memref<1x64x16x80xsi32, strides: [2560, 1280, 80, 1]>, none), %R3.2048, %B1 = "sfu.taylor_4x"(%R2, %R4.4096, %D17) : (memref<1x64x16x80xf32, strides: [2560, 1280, 80, 1]>, memref<1x64x1x10xf32, strides: [0, 0, 10, 1]>, none) -> (memref<1x64x16x80xf32, strides: [2560, 1280, 80, 1]>, none), %R0, %B1 = "arith.mul"(%R3.2048, %R0, %D17) {round_mode = 0} : (memref<1x64x16x80xf32, strides: [2560, 1280, 80, 1]>, memref<1x64x16x80xf32, strides: [2560, 1280, 80, 1]>, none) -> (memref<1x64x16x80xf32, strides: [2560, 1280, 80, 1]>, none), %R2, %B1 = "arith.add"(%R0, %C1.0, %D17) {round_mode = 0} : (memref<1x64x16x80xf32, strides: [2560, 1280, 80, 1]>, f32, none) -> (memref<1x64x16x80xf32, strides: [2560, 1280, 80, 1]>, none), %R0, %B1 = "arith.div"(%C1.0, %R2, %D17) {iter = 3} : (f32, memref<1x64x16x80xf32, strides: [2560, 1280, 80, 1]>, none) -> (memref<1x64x16x80xf32, strides: [2560, 1280, 80, 1]>, none), %R0, %B1 = "arith.mul"(%R0, %R5, %D17) {round_mode = 0} : (memref<1x64x16x80xf32, strides: [2560, 1280, 80, 1]>, memref<1x64x16x80xf32, strides: [2560, 1280, 80, 1]>, none) -> (memref<1x64x16x80xf32, strides: [2560, 1280, 80, 1]>, none), %R3, %B1 = "conv.normal"(%R0, %R11.2912, %R14.4880, %C0.0, %D17) {kernel = [1, 1], stride = [1, 1], in_zero = [0, 0], ke_zero = [0, 0], opt_kernel_rotate = False, pad_mode = 0, pad = [0, 0, 0, 0], opt_res_add = False, do_relu = False, sym_range = False, do_rq = False, round_mode = 0} : (memref<1x64x16x80xf32, strides: [2560, 1280, 80, 1]>, memref<32x64x1x1xf32>, memref<1x32x1x1xui32, strides: [1, 1, 1, 1]>, f32, none) -> (memref<1x32x16x80xf32, strides: [1280, 1280, 80, 1]>, none), %G10240, %D0 = "dma.tensor"(%R0, %B170) : (memref<1x64x16x80xf32, strides: [2560, 1280, 80, 1]>, none) -> (memref<1x64x16x80xf32, strides: [1638400, 25600, 160, 1]>, none), %R2.2048, %B1 = "tsbc.s_bc"(%R0, %D18) : (memref<1x32x1x10xf32, strides: [12, 12, 10, 1]>, none) -> (memref<1x32x1x10xf32, strides: [12, 12, 10, 1]>, none), %R1.5120, %B1 = "arith.sub"(%C0.0, %R3, %D18) {round_mode = 0} : (f32, memref<1x32x16x80xf32, strides: [1280, 1280, 80, 1]>, none) -> (memref<1x32x16x80xf32, strides: [1280, 1280, 80, 1]>, none), %R1.5120, %B1 = "arith.max"(%R1.5120, %C-3.4028198694267105e+35, %D18) {round_mode = 0} : (memref<1x32x16x80xf32, strides: [1280, 1280, 80, 1]>, f32, none) -> (memref<1x32x16x80xf32, strides: [1280, 1280, 80, 1]>, none), %R1, %B1 = "arith.mul"(%R1.5120, %C1.4426950216293335, %D18) {round_mode = 0} : (memref<1x32x16x80xf32, strides: [1280, 1280, 80, 1]>, f32, none) -> (memref<1x32x16x80xf32, strides: [1280, 1280, 80, 1]>, none), %R0, %B1 = "arith.cast"(%R1, %D18) {round_mode = 3} : (memref<1x32x16x80xf32, strides: [1280, 1280, 80, 1]>, none) -> (memref<1x32x16x80xf32, strides: [1280, 1280, 80, 1]>, none), %R1, %B1 = "arith.mul"(%R0, %C0.6931471824645996, %D18) {round_mode = 0} : (memref<1x32x16x80xf32, strides: [1280, 1280, 80, 1]>, f32, none) -> (memref<1x32x16x80xf32, strides: [1280, 1280, 80, 1]>, none), %R1, %B1 = "arith.sub"(%R1.5120, %R1, %D18) {round_mode = 0} : (memref<1x32x16x80xf32, strides: [1280, 1280, 80, 1]>, memref<1x32x16x80xf32, strides: [1280, 1280, 80, 1]>, none) -> (memref<1x32x16x80xf32, strides: [1280, 1280, 80, 1]>, none), %R1.5120, %B1 = "arith.cast"(%R0, %D18) {round_mode = 1} : (memref<1x32x16x80xf32, strides: [1280, 1280, 80, 1]>, none) -> (memref<1x32x16x80xsi16, strides: [1280, 1280, 80, 1]>, none), %R0, %B1 = "arith.min"(%R1.5120, %C127, %D18) {round_mode = 0} : (memref<1x32x16x80xsi16, strides: [1280, 1280, 80, 1]>, si16, none) -> (memref<1x32x16x80xsi16, strides: [1280, 1280, 80, 1]>, none), %R1.5120, %B1 = "arith.max"(%R0, %C-127, %D18) {round_mode = 0} : (memref<1x32x16x80xsi16, strides: [1280, 1280, 80, 1]>, si16, none) -> (memref<1x32x16x80xsi16, strides: [1280, 1280, 80, 1]>, none), %R0, %B1 = "arith.add_satu"(%R1.5120, %C127, %C23, %D18) {round_mode = 1} : (memref<1x32x16x80xsi16, strides: [1280, 1280, 80, 1]>, si16, ui8, none) -> (memref<1x32x16x80xsi32, strides: [1280, 1280, 80, 1]>, none), %R1.5120, %B1 = "sfu.taylor_4x"(%R1, %R2.2048, %D18) : (memref<1x32x16x80xf32, strides: [1280, 1280, 80, 1]>, memref<1x32x1x10xf32, strides: [0, 0, 10, 1]>, none) -> (memref<1x32x16x80xf32, strides: [1280, 1280, 80, 1]>, none), %R0, %B1 = "arith.mul"(%R1.5120, %R0, %D18) {round_mode = 0} : (memref<1x32x16x80xf32, strides: [1280, 1280, 80, 1]>, memref<1x32x16x80xf32, strides: [1280, 1280, 80, 1]>, none) -> (memref<1x32x16x80xf32, strides: [1280, 1280, 80, 1]>, none), %R1, %B1 = "arith.add"(%R0, %C1.0, %D18) {round_mode = 0} : (memref<1x32x16x80xf32, strides: [1280, 1280, 80, 1]>, f32, none) -> (memref<1x32x16x80xf32, strides: [1280, 1280, 80, 1]>, none), %R0, %B1 = "arith.div"(%C1.0, %R1, %D18) {iter = 3} : (f32, memref<1x32x16x80xf32, strides: [1280, 1280, 80, 1]>, none) -> (memref<1x32x16x80xf32, strides: [1280, 1280, 80, 1]>, none), %R0, %B1 = "arith.mul"(%R0, %R3, %D18) {round_mode = 0} : (memref<1x32x16x80xf32, strides: [1280, 1280, 80, 1]>, memref<1x32x16x80xf32, strides: [1280, 1280, 80, 1]>, none) -> (memref<1x32x16x80xf32, strides: [1280, 1280, 80, 1]>, none), %R12, %B1 = "conv.normal"(%R0, %R11.3168, %R14.4896, %C0.0, %D18) {kernel = [1, 1], stride = [1, 1], in_zero = [0, 0], ke_zero = [0, 0], opt_kernel_rotate = False, pad_mode = 0, pad = [0, 0, 0, 0], opt_res_add = False, do_relu = False, sym_range = False, do_rq = False, round_mode = 0} : (memref<1x32x16x80xf32, strides: [1280, 1280, 80, 1]>, memref<32x32x1x1xf32>, memref<1x32x1x1xui32, strides: [1, 1, 1, 1]>, f32, none) -> (memref<1x32x16x80xf32, strides: [1280, 1280, 80, 1]>, none), %G21260288, %D0 = "dma.tensor"(%R0, %B187) : (memref<1x32x16x80xf32, strides: [1280, 1280, 80, 1]>, none) -> (memref<1x32x16x80xf32, strides: [819200, 25600, 160, 1]>, none), %R14.2048, %B1 = "tsbc.s_bc"(%R0, %D19) : (memref<1x32x1x10xf32, strides: [12, 12, 10, 1]>, none) -> (memref<1x32x1x10xf32, strides: [12, 12, 10, 1]>, none), %R13.5120, %B1 = "arith.sub"(%C0.0, %R12, %D19) {round_mode = 0} : (f32, memref<1x32x16x80xf32, strides: [1280, 1280, 80, 1]>, none) -> (memref<1x32x16x80xf32, strides: [1280, 1280, 80, 1]>, none), %R13.5120, %B1 = "arith.max"(%R13.5120, %C-3.4028198694267105e+35, %D19) {round_mode = 0} : (memref<1x32x16x80xf32, strides: [1280, 1280, 80, 1]>, f32, none) -> (memref<1x32x16x80xf32, strides: [1280, 1280, 80, 1]>, none), %R13, %B1 = "arith.mul"(%R13.5120, %C1.4426950216293335, %D19) {round_mode = 0} : (memref<1x32x16x80xf32, strides: [1280, 1280, 80, 1]>, f32, none) -> (memref<1x32x16x80xf32, strides: [1280, 1280, 80, 1]>, none), %R15, %B1 = "arith.cast"(%R13, %D19) {round_mode = 3} : (memref<1x32x16x80xf32, strides: [1280, 1280, 80, 1]>, none) -> (memref<1x32x16x80xf32, strides: [1280, 1280, 80, 1]>, none), %R13, %B1 = "arith.mul"(%R15, %C0.6931471824645996, %D19) {round_mode = 0} : (memref<1x32x16x80xf32, strides: [1280, 1280, 80, 1]>, f32, none) -> (memref<1x32x16x80xf32, strides: [1280, 1280, 80, 1]>, none), %R13, %B1 = "arith.sub"(%R13.5120, %R13, %D19) {round_mode = 0} : (memref<1x32x16x80xf32, strides: [1280, 1280, 80, 1]>, memref<1x32x16x80xf32, strides: [1280, 1280, 80, 1]>, none) -> (memref<1x32x16x80xf32, strides: [1280, 1280, 80, 1]>, none), %R13.5120, %B1 = "arith.cast"(%R15, %D19) {round_mode = 1} : (memref<1x32x16x80xf32, strides: [1280, 1280, 80, 1]>, none) -> (memref<1x32x16x80xsi16, strides: [1280, 1280, 80, 1]>, none), %R15, %B1 = "arith.min"(%R13.5120, %C127, %D19) {round_mode = 0} : (memref<1x32x16x80xsi16, strides: [1280, 1280, 80, 1]>, si16, none) -> (memref<1x32x16x80xsi16, strides: [1280, 1280, 80, 1]>, none), %R13.5120, %B1 = "arith.max"(%R15, %C-127, %D19) {round_mode = 0} : (memref<1x32x16x80xsi16, strides: [1280, 1280, 80, 1]>, si16, none) -> (memref<1x32x16x80xsi16, strides: [1280, 1280, 80, 1]>, none), %R15, %B1 = "arith.add_satu"(%R13.5120, %C127, %C23, %D19) {round_mode = 1} : (memref<1x32x16x80xsi16, strides: [1280, 1280, 80, 1]>, si16, ui8, none) -> (memref<1x32x16x80xsi32, strides: [1280, 1280, 80, 1]>, none), %R13.5120, %B1 = "sfu.taylor_4x"(%R13, %R14.2048, %D19) : (memref<1x32x16x80xf32, strides: [1280, 1280, 80, 1]>, memref<1x32x1x10xf32, strides: [0, 0, 10, 1]>, none) -> (memref<1x32x16x80xf32, strides: [1280, 1280, 80, 1]>, none), %R15, %B1 = "arith.mul"(%R13.5120, %R15, %D19) {round_mode = 0} : (memref<1x32x16x80xf32, strides: [1280, 1280, 80, 1]>, memref<1x32x16x80xf32, strides: [1280, 1280, 80, 1]>, none) -> (memref<1x32x16x80xf32, strides: [1280, 1280, 80, 1]>, none), %R13, %B1 = "arith.add"(%R15, %C1.0, %D19) {round_mode = 0} : (memref<1x32x16x80xf32, strides: [1280, 1280, 80, 1]>, f32, none) -> (memref<1x32x16x80xf32, strides: [1280, 1280, 80, 1]>, none), %R15, %B1 = "arith.div"(%C1.0, %R13, %D19) {iter = 3} : (f32, memref<1x32x16x80xf32, strides: [1280, 1280, 80, 1]>, none) -> (memref<1x32x16x80xf32, strides: [1280, 1280, 80, 1]>, none), %R15, %B1 = "arith.mul"(%R15, %R12, %D19) {round_mode = 0} : (memref<1x32x16x80xf32, strides: [1280, 1280, 80, 1]>, memref<1x32x16x80xf32, strides: [1280, 1280, 80, 1]>, none) -> (memref<1x32x16x80xf32, strides: [1280, 1280, 80, 1]>, none), %R0, %D0 = "dma.tensor"(%G13212912, %B188) : (memref<1x3x70x324xf32, strides: [1228800, 409600, 640, 1]>, none) -> (memref<1x3x70x324xf32, strides: [22680, 22680, 324, 1]>, none), %R12, %B1 = "conv.normal"(%R0, %R11.3296, %R11.3728, %C0.0, %D20) {kernel = [6, 6], stride = [2, 2], in_zero = [0, 0], ke_zero = [0, 0], opt_kernel_rotate = False, pad_mode = 0, pad = [0, 0, 0, 2], opt_res_add = False, do_relu = False, sym_range = False, do_rq = False, round_mode = 0} : (memref<1x3x70x324xf32, strides: [22680, 22680, 324, 1]>, memref<32x3x6x6xf32>, memref<1x32x1x1xui32, strides: [1, 1, 1, 1]>, f32, none) -> (memref<1x32x33x161xf32, strides: [5316, 5316, 161, 1]>, none), %G6563840, %D0 = "dma.tensor"(%R15, %B204) : (memref<1x32x16x80xf32, strides: [1280, 1280, 80, 1]>, none) -> (memref<1x32x16x80xf32, strides: [819200, 25600, 160, 1]>, none), %R8.1568, %B1 = "tsbc.s_bc"(%R0, %D21) : (memref<1x32x1x10xf32, strides: [12, 12, 10, 1]>, none) -> (memref<1x32x1x10xf32, strides: [12, 12, 10, 1]>, none), %R5.4880, %B1 = "arith.sub"(%C0.0, %R12, %D21) {round_mode = 0} : (f32, memref<1x32x33x161xf32, strides: [5316, 5316, 161, 1]>, none) -> (memref<1x32x33x161xf32, strides: [5316, 5316, 161, 1]>, none), %R5.4880, %B1 = "arith.max"(%R5.4880, %C-3.4028198694267105e+35, %D21) {round_mode = 0} : (memref<1x32x33x161xf32, strides: [5316, 5316, 161, 1]>, f32, none) -> (memref<1x32x33x161xf32, strides: [5316, 5316, 161, 1]>, none), %R3, %B1 = "arith.mul"(%R5.4880, %C1.4426950216293335, %D21) {round_mode = 0} : (memref<1x32x33x161xf32, strides: [5316, 5316, 161, 1]>, f32, none) -> (memref<1x32x33x161xf32, strides: [5316, 5316, 161, 1]>, none), %R0, %B1 = "arith.cast"(%R3, %D21) {round_mode = 3} : (memref<1x32x33x161xf32, strides: [5316, 5316, 161, 1]>, none) -> (memref<1x32x33x161xf32, strides: [5316, 5316, 161, 1]>, none), %R3, %B1 = "arith.mul"(%R0, %C0.6931471824645996, %D21) {round_mode = 0} : (memref<1x32x33x161xf32, strides: [5316, 5316, 161, 1]>, f32, none) -> (memref<1x32x33x161xf32, strides: [5316, 5316, 161, 1]>, none), %R3, %B1 = "arith.sub"(%R5.4880, %R3, %D21) {round_mode = 0} : (memref<1x32x33x161xf32, strides: [5316, 5316, 161, 1]>, memref<1x32x33x161xf32, strides: [5316, 5316, 161, 1]>, none) -> (memref<1x32x33x161xf32, strides: [5316, 5316, 161, 1]>, none), %R5.4880, %B1 = "arith.cast"(%R0, %D21) {round_mode = 1} : (memref<1x32x33x161xf32, strides: [5316, 5316, 161, 1]>, none) -> (memref<1x32x33x161xsi16, strides: [5320, 5320, 161, 1]>, none), %R0, %B1 = "arith.min"(%R5.4880, %C127, %D21) {round_mode = 0} : (memref<1x32x33x161xsi16, strides: [5320, 5320, 161, 1]>, si16, none) -> (memref<1x32x33x161xsi16, strides: [5320, 5320, 161, 1]>, none), %R5.4880, %B1 = "arith.max"(%R0, %C-127, %D21) {round_mode = 0} : (memref<1x32x33x161xsi16, strides: [5320, 5320, 161, 1]>, si16, none) -> (memref<1x32x33x161xsi16, strides: [5320, 5320, 161, 1]>, none), %R0, %B1 = "arith.add_satu"(%R5.4880, %C127, %C23, %D21) {round_mode = 1} : (memref<1x32x33x161xsi16, strides: [5320, 5320, 161, 1]>, si16, ui8, none) -> (memref<1x32x33x161xsi32, strides: [5316, 5316, 161, 1]>, none), %R5.4880, %B1 = "sfu.taylor_4x"(%R3, %R8.1568, %D21) : (memref<1x32x33x161xf32, strides: [5316, 5316, 161, 1]>, memref<1x32x1x10xf32, strides: [0, 0, 10, 1]>, none) -> (memref<1x32x33x161xf32, strides: [5316, 5316, 161, 1]>, none), %R0, %B1 = "arith.mul"(%R5.4880, %R0, %D21) {round_mode = 0} : (memref<1x32x33x161xf32, strides: [5316, 5316, 161, 1]>, memref<1x32x33x161xf32, strides: [5316, 5316, 161, 1]>, none) -> (memref<1x32x33x161xf32, strides: [5316, 5316, 161, 1]>, none), %R3, %B1 = "arith.add"(%R0, %C1.0, %D21) {round_mode = 0} : (memref<1x32x33x161xf32, strides: [5316, 5316, 161, 1]>, f32, none) -> (memref<1x32x33x161xf32, strides: [5316, 5316, 161, 1]>, none), %R0, %B1 = "arith.div"(%C1.0, %R3, %D21) {iter = 3} : (f32, memref<1x32x33x161xf32, strides: [5316, 5316, 161, 1]>, none) -> (memref<1x32x33x161xf32, strides: [5316, 5316, 161, 1]>, none), %R0, %B1 = "arith.mul"(%R0, %R12, %D21) {round_mode = 0} : (memref<1x32x33x161xf32, strides: [5316, 5316, 161, 1]>, memref<1x32x33x161xf32, strides: [5316, 5316, 161, 1]>, none) -> (memref<1x32x33x161xf32, strides: [5316, 5316, 161, 1]>, none), %R5, %B1 = "conv.normal"(%R0, %R11.608, %R15.5120, %C0.0, %D21) {kernel = [3, 3], stride = [2, 2], in_zero = [0, 0], ke_zero = [0, 0], opt_kernel_rotate = False, pad_mode = 0, pad = [0, 0, 0, 1], opt_res_add = False, do_relu = False, sym_range = False, do_rq = False, round_mode = 0} : (memref<1x32x33x161xf32, strides: [5316, 5316, 161, 1]>, memref<64x32x3x3xf32>, memref<1x64x1x1xui32, strides: [2, 1, 1, 1]>, f32, none) -> (memref<1x64x16x80xf32, strides: [2560, 1280, 80, 1]>, none), %R4.4096, %B1 = "tsbc.s_bc"(%R0, %D21) : (memref<1x32x1x10xf32, strides: [12, 12, 10, 1]>, none) -> (memref<1x32x1x10xf32, strides: [12, 12, 10, 1]>, none), %R3.2048, %B1 = "arith.sub"(%C0.0, %R5, %D21) {round_mode = 0} : (f32, memref<1x64x16x80xf32, strides: [2560, 1280, 80, 1]>, none) -> (memref<1x64x16x80xf32, strides: [2560, 1280, 80, 1]>, none), %R3.2048, %B1 = "arith.max"(%R3.2048, %C-3.4028198694267105e+35, %D21) {round_mode = 0} : (memref<1x64x16x80xf32, strides: [2560, 1280, 80, 1]>, f32, none) -> (memref<1x64x16x80xf32, strides: [2560, 1280, 80, 1]>, none), %R2, %B1 = "arith.mul"(%R3.2048, %C1.4426950216293335, %D21) {round_mode = 0} : (memref<1x64x16x80xf32, strides: [2560, 1280, 80, 1]>, f32, none) -> (memref<1x64x16x80xf32, strides: [2560, 1280, 80, 1]>, none), %R0, %B1 = "arith.cast"(%R2, %D21) {round_mode = 3} : (memref<1x64x16x80xf32, strides: [2560, 1280, 80, 1]>, none) -> (memref<1x64x16x80xf32, strides: [2560, 1280, 80, 1]>, none), %R2, %B1 = "arith.mul"(%R0, %C0.6931471824645996, %D21) {round_mode = 0} : (memref<1x64x16x80xf32, strides: [2560, 1280, 80, 1]>, f32, none) -> (memref<1x64x16x80xf32, strides: [2560, 1280, 80, 1]>, none), %R2, %B1 = "arith.sub"(%R3.2048, %R2, %D21) {round_mode = 0} : (memref<1x64x16x80xf32, strides: [2560, 1280, 80, 1]>, memref<1x64x16x80xf32, strides: [2560, 1280, 80, 1]>, none) -> (memref<1x64x16x80xf32, strides: [2560, 1280, 80, 1]>, none), %R3.2048, %B1 = "arith.cast"(%R0, %D21) {round_mode = 1} : (memref<1x64x16x80xf32, strides: [2560, 1280, 80, 1]>, none) -> (memref<1x64x16x80xsi16, strides: [2560, 1280, 80, 1]>, none), %R0, %B1 = "arith.min"(%R3.2048, %C127, %D21) {round_mode = 0} : (memref<1x64x16x80xsi16, strides: [2560, 1280, 80, 1]>, si16, none) -> (memref<1x64x16x80xsi16, strides: [2560, 1280, 80, 1]>, none), %R3.2048, %B1 = "arith.max"(%R0, %C-127, %D21) {round_mode = 0} : (memref<1x64x16x80xsi16, strides: [2560, 1280, 80, 1]>, si16, none) -> (memref<1x64x16x80xsi16, strides: [2560, 1280, 80, 1]>, none), %R0, %B1 = "arith.add_satu"(%R3.2048, %C127, %C23, %D21) {round_mode = 1} : (memref<1x64x16x80xsi16, strides: [2560, 1280, 80, 1]>, si16, ui8, none) -> (memref<1x64x16x80xsi32, strides: [2560, 1280, 80, 1]>, none), %R3.2048, %B1 = "sfu.taylor_4x"(%R2, %R4.4096, %D21) : (memref<1x64x16x80xf32, strides: [2560, 1280, 80, 1]>, memref<1x64x1x10xf32, strides: [0, 0, 10, 1]>, none) -> (memref<1x64x16x80xf32, strides: [2560, 1280, 80, 1]>, none), %R0, %B1 = "arith.mul"(%R3.2048, %R0, %D21) {round_mode = 0} : (memref<1x64x16x80xf32, strides: [2560, 1280, 80, 1]>, memref<1x64x16x80xf32, strides: [2560, 1280, 80, 1]>, none) -> (memref<1x64x16x80xf32, strides: [2560, 1280, 80, 1]>, none), %R2, %B1 = "arith.add"(%R0, %C1.0, %D21) {round_mode = 0} : (memref<1x64x16x80xf32, strides: [2560, 1280, 80, 1]>, f32, none) -> (memref<1x64x16x80xf32, strides: [2560, 1280, 80, 1]>, none), %R0, %B1 = "arith.div"(%C1.0, %R2, %D21) {iter = 3} : (f32, memref<1x64x16x80xf32, strides: [2560, 1280, 80, 1]>, none) -> (memref<1x64x16x80xf32, strides: [2560, 1280, 80, 1]>, none), %R0, %B1 = "arith.mul"(%R0, %R5, %D21) {round_mode = 0} : (memref<1x64x16x80xf32, strides: [2560, 1280, 80, 1]>, memref<1x64x16x80xf32, strides: [2560, 1280, 80, 1]>, none) -> (memref<1x64x16x80xf32, strides: [2560, 1280, 80, 1]>, none), %R3, %B1 = "conv.normal"(%R0, %R11.2912, %R14.4880, %C0.0, %D21) {kernel = [1, 1], stride = [1, 1], in_zero = [0, 0], ke_zero = [0, 0], opt_kernel_rotate = False, pad_mode = 0, pad = [0, 0, 0, 0], opt_res_add = False, do_relu = False, sym_range = False, do_rq = False, round_mode = 0} : (memref<1x64x16x80xf32, strides: [2560, 1280, 80, 1]>, memref<32x64x1x1xf32>, memref<1x32x1x1xui32, strides: [1, 1, 1, 1]>, f32, none) -> (memref<1x32x16x80xf32, strides: [1280, 1280, 80, 1]>, none), %G10560, %D0 = "dma.tensor"(%R0, %B238) : (memref<1x64x16x80xf32, strides: [2560, 1280, 80, 1]>, none) -> (memref<1x64x16x80xf32, strides: [1638400, 25600, 160, 1]>, none), %R2.2048, %B1 = "tsbc.s_bc"(%R0, %D22) : (memref<1x32x1x10xf32, strides: [12, 12, 10, 1]>, none) -> (memref<1x32x1x10xf32, strides: [12, 12, 10, 1]>, none), %R1.5120, %B1 = "arith.sub"(%C0.0, %R3, %D22) {round_mode = 0} : (f32, memref<1x32x16x80xf32, strides: [1280, 1280, 80, 1]>, none) -> (memref<1x32x16x80xf32, strides: [1280, 1280, 80, 1]>, none), %R1.5120, %B1 = "arith.max"(%R1.5120, %C-3.4028198694267105e+35, %D22) {round_mode = 0} : (memref<1x32x16x80xf32, strides: [1280, 1280, 80, 1]>, f32, none) -> (memref<1x32x16x80xf32, strides: [1280, 1280, 80, 1]>, none), %R1, %B1 = "arith.mul"(%R1.5120, %C1.4426950216293335, %D22) {round_mode = 0} : (memref<1x32x16x80xf32, strides: [1280, 1280, 80, 1]>, f32, none) -> (memref<1x32x16x80xf32, strides: [1280, 1280, 80, 1]>, none), %R0, %B1 = "arith.cast"(%R1, %D22) {round_mode = 3} : (memref<1x32x16x80xf32, strides: [1280, 1280, 80, 1]>, none) -> (memref<1x32x16x80xf32, strides: [1280, 1280, 80, 1]>, none), %R1, %B1 = "arith.mul"(%R0, %C0.6931471824645996, %D22) {round_mode = 0} : (memref<1x32x16x80xf32, strides: [1280, 1280, 80, 1]>, f32, none) -> (memref<1x32x16x80xf32, strides: [1280, 1280, 80, 1]>, none), %R1, %B1 = "arith.sub"(%R1.5120, %R1, %D22) {round_mode = 0} : (memref<1x32x16x80xf32, strides: [1280, 1280, 80, 1]>, memref<1x32x16x80xf32, strides: [1280, 1280, 80, 1]>, none) -> (memref<1x32x16x80xf32, strides: [1280, 1280, 80, 1]>, none), %R1.5120, %B1 = "arith.cast"(%R0, %D22) {round_mode = 1} : (memref<1x32x16x80xf32, strides: [1280, 1280, 80, 1]>, none) -> (memref<1x32x16x80xsi16, strides: [1280, 1280, 80, 1]>, none), %R0, %B1 = "arith.min"(%R1.5120, %C127, %D22) {round_mode = 0} : (memref<1x32x16x80xsi16, strides: [1280, 1280, 80, 1]>, si16, none) -> (memref<1x32x16x80xsi16, strides: [1280, 1280, 80, 1]>, none), %R1.5120, %B1 = "arith.max"(%R0, %C-127, %D22) {round_mode = 0} : (memref<1x32x16x80xsi16, strides: [1280, 1280, 80, 1]>, si16, none) -> (memref<1x32x16x80xsi16, strides: [1280, 1280, 80, 1]>, none), %R0, %B1 = "arith.add_satu"(%R1.5120, %C127, %C23, %D22) {round_mode = 1} : (memref<1x32x16x80xsi16, strides: [1280, 1280, 80, 1]>, si16, ui8, none) -> (memref<1x32x16x80xsi32, strides: [1280, 1280, 80, 1]>, none), %R1.5120, %B1 = "sfu.taylor_4x"(%R1, %R2.2048, %D22) : (memref<1x32x16x80xf32, strides: [1280, 1280, 80, 1]>, memref<1x32x1x10xf32, strides: [0, 0, 10, 1]>, none) -> (memref<1x32x16x80xf32, strides: [1280, 1280, 80, 1]>, none), %R0, %B1 = "arith.mul"(%R1.5120, %R0, %D22) {round_mode = 0} : (memref<1x32x16x80xf32, strides: [1280, 1280, 80, 1]>, memref<1x32x16x80xf32, strides: [1280, 1280, 80, 1]>, none) -> (memref<1x32x16x80xf32, strides: [1280, 1280, 80, 1]>, none), %R1, %B1 = "arith.add"(%R0, %C1.0, %D22) {round_mode = 0} : (memref<1x32x16x80xf32, strides: [1280, 1280, 80, 1]>, f32, none) -> (memref<1x32x16x80xf32, strides: [1280, 1280, 80, 1]>, none), %R0, %B1 = "arith.div"(%C1.0, %R1, %D22) {iter = 3} : (f32, memref<1x32x16x80xf32, strides: [1280, 1280, 80, 1]>, none) -> (memref<1x32x16x80xf32, strides: [1280, 1280, 80, 1]>, none), %R0, %B1 = "arith.mul"(%R0, %R3, %D22) {round_mode = 0} : (memref<1x32x16x80xf32, strides: [1280, 1280, 80, 1]>, memref<1x32x16x80xf32, strides: [1280, 1280, 80, 1]>, none) -> (memref<1x32x16x80xf32, strides: [1280, 1280, 80, 1]>, none), %R12, %B1 = "conv.normal"(%R0, %R11.3168, %R14.4896, %C0.0, %D22) {kernel = [1, 1], stride = [1, 1], in_zero = [0, 0], ke_zero = [0, 0], opt_kernel_rotate = False, pad_mode = 0, pad = [0, 0, 0, 0], opt_res_add = False, do_relu = False, sym_range = False, do_rq = False, round_mode = 0} : (memref<1x32x16x80xf32, strides: [1280, 1280, 80, 1]>, memref<32x32x1x1xf32>, memref<1x32x1x1xui32, strides: [1, 1, 1, 1]>, f32, none) -> (memref<1x32x16x80xf32, strides: [1280, 1280, 80, 1]>, none), %G21260608, %D0 = "dma.tensor"(%R0, %B255) : (memref<1x32x16x80xf32, strides: [1280, 1280, 80, 1]>, none) -> (memref<1x32x16x80xf32, strides: [819200, 25600, 160, 1]>, none), %R14.2048, %B1 = "tsbc.s_bc"(%R0, %D23) : (memref<1x32x1x10xf32, strides: [12, 12, 10, 1]>, none) -> (memref<1x32x1x10xf32, strides: [12, 12, 10, 1]>, none), %R13.5120, %B1 = "arith.sub"(%C0.0, %R12, %D23) {round_mode = 0} : (f32, memref<1x32x16x80xf32, strides: [1280, 1280, 80, 1]>, none) -> (memref<1x32x16x80xf32, strides: [1280, 1280, 80, 1]>, none), %R13.5120, %B1 = "arith.max"(%R13.5120, %C-3.4028198694267105e+35, %D23) {round_mode = 0} : (memref<1x32x16x80xf32, strides: [1280, 1280, 80, 1]>, f32, none) -> (memref<1x32x16x80xf32, strides: [1280, 1280, 80, 1]>, none), %R13, %B1 = "arith.mul"(%R13.5120, %C1.4426950216293335, %D23) {round_mode = 0} : (memref<1x32x16x80xf32, strides: [1280, 1280, 80, 1]>, f32, none) -> (memref<1x32x16x80xf32, strides: [1280, 1280, 80, 1]>, none), %R15, %B1 = "arith.cast"(%R13, %D23) {round_mode = 3} : (memref<1x32x16x80xf32, strides: [1280, 1280, 80, 1]>, none) -> (memref<1x32x16x80xf32, strides: [1280, 1280, 80, 1]>, none), %R13, %B1 = "arith.mul"(%R15, %C0.6931471824645996, %D23) {round_mode = 0} : (memref<1x32x16x80xf32, strides: [1280, 1280, 80, 1]>, f32, none) -> (memref<1x32x16x80xf32, strides: [1280, 1280, 80, 1]>, none), %R13, %B1 = "arith.sub"(%R13.5120, %R13, %D23) {round_mode = 0} : (memref<1x32x16x80xf32, strides: [1280, 1280, 80, 1]>, memref<1x32x16x80xf32, strides: [1280, 1280, 80, 1]>, none) -> (memref<1x32x16x80xf32, strides: [1280, 1280, 80, 1]>, none), %R13.5120, %B1 = "arith.cast"(%R15, %D23) {round_mode = 1} : (memref<1x32x16x80xf32, strides: [1280, 1280, 80, 1]>, none) -> (memref<1x32x16x80xsi16, strides: [1280, 1280, 80, 1]>, none), %R15, %B1 = "arith.min"(%R13.5120, %C127, %D23) {round_mode = 0} : (memref<1x32x16x80xsi16, strides: [1280, 1280, 80, 1]>, si16, none) -> (memref<1x32x16x80xsi16, strides: [1280, 1280, 80, 1]>, none), %R13.5120, %B1 = "arith.max"(%R15, %C-127, %D23) {round_mode = 0} : (memref<1x32x16x80xsi16, strides: [1280, 1280, 80, 1]>, si16, none) -> (memref<1x32x16x80xsi16, strides: [1280, 1280, 80, 1]>, none), %R15, %B1 = "arith.add_satu"(%R13.5120, %C127, %C23, %D23) {round_mode = 1} : (memref<1x32x16x80xsi16, strides: [1280, 1280, 80, 1]>, si16, ui8, none) -> (memref<1x32x16x80xsi32, strides: [1280, 1280, 80, 1]>, none), %R13.5120, %B1 = "sfu.taylor_4x"(%R13, %R14.2048, %D23) : (memref<1x32x16x80xf32, strides: [1280, 1280, 80, 1]>, memref<1x32x1x10xf32, strides: [0, 0, 10, 1]>, none) -> (memref<1x32x16x80xf32, strides: [1280, 1280, 80, 1]>, none), %R15, %B1 = "arith.mul"(%R13.5120, %R15, %D23) {round_mode = 0} : (memref<1x32x16x80xf32, strides: [1280, 1280, 80, 1]>, memref<1x32x16x80xf32, strides: [1280, 1280, 80, 1]>, none) -> (memref<1x32x16x80xf32, strides: [1280, 1280, 80, 1]>, none), %R13, %B1 = "arith.add"(%R15, %C1.0, %D23) {round_mode = 0} : (memref<1x32x16x80xf32, strides: [1280, 1280, 80, 1]>, f32, none) -> (memref<1x32x16x80xf32, strides: [1280, 1280, 80, 1]>, none), %R15, %B1 = "arith.div"(%C1.0, %R13, %D23) {iter = 3} : (f32, memref<1x32x16x80xf32, strides: [1280, 1280, 80, 1]>, none) -> (memref<1x32x16x80xf32, strides: [1280, 1280, 80, 1]>, none), %R15, %B1 = "arith.mul"(%R15, %R12, %D23) {round_mode = 0} : (memref<1x32x16x80xf32, strides: [1280, 1280, 80, 1]>, memref<1x32x16x80xf32, strides: [1280, 1280, 80, 1]>, none) -> (memref<1x32x16x80xf32, strides: [1280, 1280, 80, 1]>, none), %R0, %D0 = "dma.tensor"(%G13375488, %B256) : (memref<1x3x70x322xf32, strides: [1228800, 409600, 640, 1]>, none) -> (memref<1x3x70x322xf32, strides: [22540, 22540, 322, 1]>, none), %R12, %B1 = "conv.normal"(%R0, %R11.3296, %R11.3728, %C0.0, %D24) {kernel = [6, 6], stride = [2, 2], in_zero = [0, 0], ke_zero = [0, 0], opt_kernel_rotate = False, pad_mode = 0, pad = [0, 0, 2, 0], opt_res_add = False, do_relu = False, sym_range = False, do_rq = False, round_mode = 0} : (memref<1x3x70x322xf32, strides: [22540, 22540, 322, 1]>, memref<32x3x6x6xf32>, memref<1x32x1x1xui32, strides: [1, 1, 1, 1]>, f32, none) -> (memref<1x32x33x160xf32, strides: [5280, 5280, 160, 1]>, none), %G6564160, %D0 = "dma.tensor"(%R15, %B272) : (memref<1x32x16x80xf32, strides: [1280, 1280, 80, 1]>, none) -> (memref<1x32x16x80xf32, strides: [819200, 25600, 160, 1]>, none), %R8.1280, %B1 = "tsbc.s_bc"(%R0, %D25) : (memref<1x32x1x10xf32, strides: [12, 12, 10, 1]>, none) -> (memref<1x32x1x10xf32, strides: [12, 12, 10, 1]>, none), %R5.4736, %B1 = "arith.sub"(%C0.0, %R12, %D25) {round_mode = 0} : (f32, memref<1x32x33x160xf32, strides: [5280, 5280, 160, 1]>, none) -> (memref<1x32x33x160xf32, strides: [5280, 5280, 160, 1]>, none), %R5.4736, %B1 = "arith.max"(%R5.4736, %C-3.4028198694267105e+35, %D25) {round_mode = 0} : (memref<1x32x33x160xf32, strides: [5280, 5280, 160, 1]>, f32, none) -> (memref<1x32x33x160xf32, strides: [5280, 5280, 160, 1]>, none), %R3, %B1 = "arith.mul"(%R5.4736, %C1.4426950216293335, %D25) {round_mode = 0} : (memref<1x32x33x160xf32, strides: [5280, 5280, 160, 1]>, f32, none) -> (memref<1x32x33x160xf32, strides: [5280, 5280, 160, 1]>, none), %R0, %B1 = "arith.cast"(%R3, %D25) {round_mode = 3} : (memref<1x32x33x160xf32, strides: [5280, 5280, 160, 1]>, none) -> (memref<1x32x33x160xf32, strides: [5280, 5280, 160, 1]>, none), %R3, %B1 = "arith.mul"(%R0, %C0.6931471824645996, %D25) {round_mode = 0} : (memref<1x32x33x160xf32, strides: [5280, 5280, 160, 1]>, f32, none) -> (memref<1x32x33x160xf32, strides: [5280, 5280, 160, 1]>, none), %R3, %B1 = "arith.sub"(%R5.4736, %R3, %D25) {round_mode = 0} : (memref<1x32x33x160xf32, strides: [5280, 5280, 160, 1]>, memref<1x32x33x160xf32, strides: [5280, 5280, 160, 1]>, none) -> (memref<1x32x33x160xf32, strides: [5280, 5280, 160, 1]>, none), %R5.4736, %B1 = "arith.cast"(%R0, %D25) {round_mode = 1} : (memref<1x32x33x160xf32, strides: [5280, 5280, 160, 1]>, none) -> (memref<1x32x33x160xsi16, strides: [5280, 5280, 160, 1]>, none), %R0, %B1 = "arith.min"(%R5.4736, %C127, %D25) {round_mode = 0} : (memref<1x32x33x160xsi16, strides: [5280, 5280, 160, 1]>, si16, none) -> (memref<1x32x33x160xsi16, strides: [5280, 5280, 160, 1]>, none), %R5.4736, %B1 = "arith.max"(%R0, %C-127, %D25) {round_mode = 0} : (memref<1x32x33x160xsi16, strides: [5280, 5280, 160, 1]>, si16, none) -> (memref<1x32x33x160xsi16, strides: [5280, 5280, 160, 1]>, none), %R0, %B1 = "arith.add_satu"(%R5.4736, %C127, %C23, %D25) {round_mode = 1} : (memref<1x32x33x160xsi16, strides: [5280, 5280, 160, 1]>, si16, ui8, none) -> (memref<1x32x33x160xsi32, strides: [5280, 5280, 160, 1]>, none), %R5.4736, %B1 = "sfu.taylor_4x"(%R3, %R8.1280, %D25) : (memref<1x32x33x160xf32, strides: [5280, 5280, 160, 1]>, memref<1x32x1x10xf32, strides: [0, 0, 10, 1]>, none) -> (memref<1x32x33x160xf32, strides: [5280, 5280, 160, 1]>, none), %R0, %B1 = "arith.mul"(%R5.4736, %R0, %D25) {round_mode = 0} : (memref<1x32x33x160xf32, strides: [5280, 5280, 160, 1]>, memref<1x32x33x160xf32, strides: [5280, 5280, 160, 1]>, none) -> (memref<1x32x33x160xf32, strides: [5280, 5280, 160, 1]>, none), %R3, %B1 = "arith.add"(%R0, %C1.0, %D25) {round_mode = 0} : (memref<1x32x33x160xf32, strides: [5280, 5280, 160, 1]>, f32, none) -> (memref<1x32x33x160xf32, strides: [5280, 5280, 160, 1]>, none), %R0, %B1 = "arith.div"(%C1.0, %R3, %D25) {iter = 3} : (f32, memref<1x32x33x160xf32, strides: [5280, 5280, 160, 1]>, none) -> (memref<1x32x33x160xf32, strides: [5280, 5280, 160, 1]>, none), %R0, %B1 = "arith.mul"(%R0, %R12, %D25) {round_mode = 0} : (memref<1x32x33x160xf32, strides: [5280, 5280, 160, 1]>, memref<1x32x33x160xf32, strides: [5280, 5280, 160, 1]>, none) -> (memref<1x32x33x160xf32, strides: [5280, 5280, 160, 1]>, none), %R5, %B1 = "conv.normal"(%R0, %R11.608, %R15.5120, %C0.0, %D25) {kernel = [3, 3], stride = [2, 2], in_zero = [0, 0], ke_zero = [0, 0], opt_kernel_rotate = False, pad_mode = 0, pad = [0, 0, 1, 0], opt_res_add = False, do_relu = False, sym_range = False, do_rq = False, round_mode = 0} : (memref<1x32x33x160xf32, strides: [5280, 5280, 160, 1]>, memref<64x32x3x3xf32>, memref<1x64x1x1xui32, strides: [2, 1, 1, 1]>, f32, none) -> (memref<1x64x16x80xf32, strides: [2560, 1280, 80, 1]>, none), %R4.4096, %B1 = "tsbc.s_bc"(%R0, %D25) : (memref<1x32x1x10xf32, strides: [12, 12, 10, 1]>, none) -> (memref<1x32x1x10xf32, strides: [12, 12, 10, 1]>, none), %R3.2048, %B1 = "arith.sub"(%C0.0, %R5, %D25) {round_mode = 0} : (f32, memref<1x64x16x80xf32, strides: [2560, 1280, 80, 1]>, none) -> (memref<1x64x16x80xf32, strides: [2560, 1280, 80, 1]>, none), %R3.2048, %B1 = "arith.max"(%R3.2048, %C-3.4028198694267105e+35, %D25) {round_mode = 0} : (memref<1x64x16x80xf32, strides: [2560, 1280, 80, 1]>, f32, none) -> (memref<1x64x16x80xf32, strides: [2560, 1280, 80, 1]>, none), %R2, %B1 = "arith.mul"(%R3.2048, %C1.4426950216293335, %D25) {round_mode = 0} : (memref<1x64x16x80xf32, strides: [2560, 1280, 80, 1]>, f32, none) -> (memref<1x64x16x80xf32, strides: [2560, 1280, 80, 1]>, none), %R0, %B1 = "arith.cast"(%R2, %D25) {round_mode = 3} : (memref<1x64x16x80xf32, strides: [2560, 1280, 80, 1]>, none) -> (memref<1x64x16x80xf32, strides: [2560, 1280, 80, 1]>, none), %R2, %B1 = "arith.mul"(%R0, %C0.6931471824645996, %D25) {round_mode = 0} : (memref<1x64x16x80xf32, strides: [2560, 1280, 80, 1]>, f32, none) -> (memref<1x64x16x80xf32, strides: [2560, 1280, 80, 1]>, none), %R2, %B1 = "arith.sub"(%R3.2048, %R2, %D25) {round_mode = 0} : (memref<1x64x16x80xf32, strides: [2560, 1280, 80, 1]>, memref<1x64x16x80xf32, strides: [2560, 1280, 80, 1]>, none) -> (memref<1x64x16x80xf32, strides: [2560, 1280, 80, 1]>, none), %R3.2048, %B1 = "arith.cast"(%R0, %D25) {round_mode = 1} : (memref<1x64x16x80xf32, strides: [2560, 1280, 80, 1]>, none) -> (memref<1x64x16x80xsi16, strides: [2560, 1280, 80, 1]>, none), %R0, %B1 = "arith.min"(%R3.2048, %C127, %D25) {round_mode = 0} : (memref<1x64x16x80xsi16, strides: [2560, 1280, 80, 1]>, si16, none) -> (memref<1x64x16x80xsi16, strides: [2560, 1280, 80, 1]>, none), %R3.2048, %B1 = "arith.max"(%R0, %C-127, %D25) {round_mode = 0} : (memref<1x64x16x80xsi16, strides: [2560, 1280, 80, 1]>, si16, none) -> (memref<1x64x16x80xsi16, strides: [2560, 1280, 80, 1]>, none), %R0, %B1 = "arith.add_satu"(%R3.2048, %C127, %C23, %D25) {round_mode = 1} : (memref<1x64x16x80xsi16, strides: [2560, 1280, 80, 1]>, si16, ui8, none) -> (memref<1x64x16x80xsi32, strides: [2560, 1280, 80, 1]>, none), %R3.2048, %B1 = "sfu.taylor_4x"(%R2, %R4.4096, %D25) : (memref<1x64x16x80xf32, strides: [2560, 1280, 80, 1]>, memref<1x64x1x10xf32, strides: [0, 0, 10, 1]>, none) -> (memref<1x64x16x80xf32, strides: [2560, 1280, 80, 1]>, none), %R0, %B1 = "arith.mul"(%R3.2048, %R0, %D25) {round_mode = 0} : (memref<1x64x16x80xf32, strides: [2560, 1280, 80, 1]>, memref<1x64x16x80xf32, strides: [2560, 1280, 80, 1]>, none) -> (memref<1x64x16x80xf32, strides: [2560, 1280, 80, 1]>, none), %R2, %B1 = "arith.add"(%R0, %C1.0, %D25) {round_mode = 0} : (memref<1x64x16x80xf32, strides: [2560, 1280, 80, 1]>, f32, none) -> (memref<1x64x16x80xf32, strides: [2560, 1280, 80, 1]>, none), %R0, %B1 = "arith.div"(%C1.0, %R2, %D25) {iter = 3} : (f32, memref<1x64x16x80xf32, strides: [2560, 1280, 80, 1]>, none) -> (memref<1x64x16x80xf32, strides: [2560, 1280, 80, 1]>, none), %R0, %B1 = "arith.mul"(%R0, %R5, %D25) {round_mode = 0} : (memref<1x64x16x80xf32, strides: [2560, 1280, 80, 1]>, memref<1x64x16x80xf32, strides: [2560, 1280, 80, 1]>, none) -> (memref<1x64x16x80xf32, strides: [2560, 1280, 80, 1]>, none), %R3, %B1 = "conv.normal"(%R0, %R11.2912, %R14.4880, %C0.0, %D25) {kernel = [1, 1], stride = [1, 1], in_zero = [0, 0], ke_zero = [0, 0], opt_kernel_rotate = False, pad_mode = 0, pad = [0, 0, 0, 0], opt_res_add = False, do_relu = False, sym_range = False, do_rq = False, round_mode = 0} : (memref<1x64x16x80xf32, strides: [2560, 1280, 80, 1]>, memref<32x64x1x1xf32>, memref<1x32x1x1xui32, strides: [1, 1, 1, 1]>, f32, none) -> (memref<1x32x16x80xf32, strides: [1280, 1280, 80, 1]>, none), %G20480, %D0 = "dma.tensor"(%R0, %B306) : (memref<1x64x16x80xf32, strides: [2560, 1280, 80, 1]>, none) -> (memref<1x64x16x80xf32, strides: [1638400, 25600, 160, 1]>, none), %R2.2048, %B1 = "tsbc.s_bc"(%R0, %D26) : (memref<1x32x1x10xf32, strides: [12, 12, 10, 1]>, none) -> (memref<1x32x1x10xf32, strides: [12, 12, 10, 1]>, none), %R1.5120, %B1 = "arith.sub"(%C0.0, %R3, %D26) {round_mode = 0} : (f32, memref<1x32x16x80xf32, strides: [1280, 1280, 80, 1]>, none) -> (memref<1x32x16x80xf32, strides: [1280, 1280, 80, 1]>, none), %R1.5120, %B1 = "arith.max"(%R1.5120, %C-3.4028198694267105e+35, %D26) {round_mode = 0} : (memref<1x32x16x80xf32, strides: [1280, 1280, 80, 1]>, f32, none) -> (memref<1x32x16x80xf32, strides: [1280, 1280, 80, 1]>, none), %R1, %B1 = "arith.mul"(%R1.5120, %C1.4426950216293335, %D26) {round_mode = 0} : (memref<1x32x16x80xf32, strides: [1280, 1280, 80, 1]>, f32, none) -> (memref<1x32x16x80xf32, strides: [1280, 1280, 80, 1]>, none), %R0, %B1 = "arith.cast"(%R1, %D26) {round_mode = 3} : (memref<1x32x16x80xf32, strides: [1280, 1280, 80, 1]>, none) -> (memref<1x32x16x80xf32, strides: [1280, 1280, 80, 1]>, none), %R1, %B1 = "arith.mul"(%R0, %C0.6931471824645996, %D26) {round_mode = 0} : (memref<1x32x16x80xf32, strides: [1280, 1280, 80, 1]>, f32, none) -> (memref<1x32x16x80xf32, strides: [1280, 1280, 80, 1]>, none), %R1, %B1 = "arith.sub"(%R1.5120, %R1, %D26) {round_mode = 0} : (memref<1x32x16x80xf32, strides: [1280, 1280, 80, 1]>, memref<1x32x16x80xf32, strides: [1280, 1280, 80, 1]>, none) -> (memref<1x32x16x80xf32, strides: [1280, 1280, 80, 1]>, none), %R1.5120, %B1 = "arith.cast"(%R0, %D26) {round_mode = 1} : (memref<1x32x16x80xf32, strides: [1280, 1280, 80, 1]>, none) -> (memref<1x32x16x80xsi16, strides: [1280, 1280, 80, 1]>, none), %R0, %B1 = "arith.min"(%R1.5120, %C127, %D26) {round_mode = 0} : (memref<1x32x16x80xsi16, strides: [1280, 1280, 80, 1]>, si16, none) -> (memref<1x32x16x80xsi16, strides: [1280, 1280, 80, 1]>, none), %R1.5120, %B1 = "arith.max"(%R0, %C-127, %D26) {round_mode = 0} : (memref<1x32x16x80xsi16, strides: [1280, 1280, 80, 1]>, si16, none) -> (memref<1x32x16x80xsi16, strides: [1280, 1280, 80, 1]>, none), %R0, %B1 = "arith.add_satu"(%R1.5120, %C127, %C23, %D26) {round_mode = 1} : (memref<1x32x16x80xsi16, strides: [1280, 1280, 80, 1]>, si16, ui8, none) -> (memref<1x32x16x80xsi32, strides: [1280, 1280, 80, 1]>, none), %R1.5120, %B1 = "sfu.taylor_4x"(%R1, %R2.2048, %D26) : (memref<1x32x16x80xf32, strides: [1280, 1280, 80, 1]>, memref<1x32x1x10xf32, strides: [0, 0, 10, 1]>, none) -> (memref<1x32x16x80xf32, strides: [1280, 1280, 80, 1]>, none), %R0, %B1 = "arith.mul"(%R1.5120, %R0, %D26) {round_mode = 0} : (memref<1x32x16x80xf32, strides: [1280, 1280, 80, 1]>, memref<1x32x16x80xf32, strides: [1280, 1280, 80, 1]>, none) -> (memref<1x32x16x80xf32, strides: [1280, 1280, 80, 1]>, none), %R1, %B1 = "arith.add"(%R0, %C1.0, %D26) {round_mode = 0} : (memref<1x32x16x80xf32, strides: [1280, 1280, 80, 1]>, f32, none) -> (memref<1x32x16x80xf32, strides: [1280, 1280, 80, 1]>, none), %R0, %B1 = "arith.div"(%C1.0, %R1, %D26) {iter = 3} : (f32, memref<1x32x16x80xf32, strides: [1280, 1280, 80, 1]>, none) -> (memref<1x32x16x80xf32, strides: [1280, 1280, 80, 1]>, none), %R0, %B1 = "arith.mul"(%R0, %R3, %D26) {round_mode = 0} : (memref<1x32x16x80xf32, strides: [1280, 1280, 80, 1]>, memref<1x32x16x80xf32, strides: [1280, 1280, 80, 1]>, none) -> (memref<1x32x16x80xf32, strides: [1280, 1280, 80, 1]>, none), %R12, %B1 = "conv.normal"(%R0, %R11.3168, %R14.4896, %C0.0, %D26) {kernel = [1, 1], stride = [1, 1], in_zero = [0, 0], ke_zero = [0, 0], opt_kernel_rotate = False, pad_mode = 0, pad = [0, 0, 0, 0], opt_res_add = False, do_relu = False, sym_range = False, do_rq = False, round_mode = 0} : (memref<1x32x16x80xf32, strides: [1280, 1280, 80, 1]>, memref<32x32x1x1xf32>, memref<1x32x1x1xui32, strides: [1, 1, 1, 1]>, f32, none) -> (memref<1x32x16x80xf32, strides: [1280, 1280, 80, 1]>, none), %G21270528, %D0 = "dma.tensor"(%R0, %B323) : (memref<1x32x16x80xf32, strides: [1280, 1280, 80, 1]>, none) -> (memref<1x32x16x80xf32, strides: [819200, 25600, 160, 1]>, none), %R14.2048, %B1 = "tsbc.s_bc"(%R0, %D27) : (memref<1x32x1x10xf32, strides: [12, 12, 10, 1]>, none) -> (memref<1x32x1x10xf32, strides: [12, 12, 10, 1]>, none), %R13.5120, %B1 = "arith.sub"(%C0.0, %R12, %D27) {round_mode = 0} : (f32, memref<1x32x16x80xf32, strides: [1280, 1280, 80, 1]>, none) -> (memref<1x32x16x80xf32, strides: [1280, 1280, 80, 1]>, none), %R13.5120, %B1 = "arith.max"(%R13.5120, %C-3.4028198694267105e+35, %D27) {round_mode = 0} : (memref<1x32x16x80xf32, strides: [1280, 1280, 80, 1]>, f32, none) -> (memref<1x32x16x80xf32, strides: [1280, 1280, 80, 1]>, none), %R13, %B1 = "arith.mul"(%R13.5120, %C1.4426950216293335, %D27) {round_mode = 0} : (memref<1x32x16x80xf32, strides: [1280, 1280, 80, 1]>, f32, none) -> (memref<1x32x16x80xf32, strides: [1280, 1280, 80, 1]>, none), %R15, %B1 = "arith.cast"(%R13, %D27) {round_mode = 3} : (memref<1x32x16x80xf32, strides: [1280, 1280, 80, 1]>, none) -> (memref<1x32x16x80xf32, strides: [1280, 1280, 80, 1]>, none), %R13, %B1 = "arith.mul"(%R15, %C0.6931471824645996, %D27) {round_mode = 0} : (memref<1x32x16x80xf32, strides: [1280, 1280, 80, 1]>, f32, none) -> (memref<1x32x16x80xf32, strides: [1280, 1280, 80, 1]>, none), %R13, %B1 = "arith.sub"(%R13.5120, %R13, %D27) {round_mode = 0} : (memref<1x32x16x80xf32, strides: [1280, 1280, 80, 1]>, memref<1x32x16x80xf32, strides: [1280, 1280, 80, 1]>, none) -> (memref<1x32x16x80xf32, strides: [1280, 1280, 80, 1]>, none), %R13.5120, %B1 = "arith.cast"(%R15, %D27) {round_mode = 1} : (memref<1x32x16x80xf32, strides: [1280, 1280, 80, 1]>, none) -> (memref<1x32x16x80xsi16, strides: [1280, 1280, 80, 1]>, none), %R15, %B1 = "arith.min"(%R13.5120, %C127, %D27) {round_mode = 0} : (memref<1x32x16x80xsi16, strides: [1280, 1280, 80, 1]>, si16, none) -> (memref<1x32x16x80xsi16, strides: [1280, 1280, 80, 1]>, none), %R13.5120, %B1 = "arith.max"(%R15, %C-127, %D27) {round_mode = 0} : (memref<1x32x16x80xsi16, strides: [1280, 1280, 80, 1]>, si16, none) -> (memref<1x32x16x80xsi16, strides: [1280, 1280, 80, 1]>, none), %R15, %B1 = "arith.add_satu"(%R13.5120, %C127, %C23, %D27) {round_mode = 1} : (memref<1x32x16x80xsi16, strides: [1280, 1280, 80, 1]>, si16, ui8, none) -> (memref<1x32x16x80xsi32, strides: [1280, 1280, 80, 1]>, none), %R13.5120, %B1 = "sfu.taylor_4x"(%R13, %R14.2048, %D27) : (memref<1x32x16x80xf32, strides: [1280, 1280, 80, 1]>, memref<1x32x1x10xf32, strides: [0, 0, 10, 1]>, none) -> (memref<1x32x16x80xf32, strides: [1280, 1280, 80, 1]>, none), %R15, %B1 = "arith.mul"(%R13.5120, %R15, %D27) {round_mode = 0} : (memref<1x32x16x80xf32, strides: [1280, 1280, 80, 1]>, memref<1x32x16x80xf32, strides: [1280, 1280, 80, 1]>, none) -> (memref<1x32x16x80xf32, strides: [1280, 1280, 80, 1]>, none), %R13, %B1 = "arith.add"(%R15, %C1.0, %D27) {round_mode = 0} : (memref<1x32x16x80xf32, strides: [1280, 1280, 80, 1]>, f32, none) -> (memref<1x32x16x80xf32, strides: [1280, 1280, 80, 1]>, none), %R15, %B1 = "arith.div"(%C1.0, %R13, %D27) {iter = 3} : (f32, memref<1x32x16x80xf32, strides: [1280, 1280, 80, 1]>, none) -> (memref<1x32x16x80xf32, strides: [1280, 1280, 80, 1]>, none), %R15, %B1 = "arith.mul"(%R15, %R12, %D27) {round_mode = 0} : (memref<1x32x16x80xf32, strides: [1280, 1280, 80, 1]>, memref<1x32x16x80xf32, strides: [1280, 1280, 80, 1]>, none) -> (memref<1x32x16x80xf32, strides: [1280, 1280, 80, 1]>, none), %R0, %D0 = "dma.tensor"(%G13376752, %B324) : (memref<1x3x70x324xf32, strides: [1228800, 409600, 640, 1]>, none) -> (memref<1x3x70x324xf32, strides: [22680, 22680, 324, 1]>, none), %R12, %B1 = "conv.normal"(%R0, %R11.3296, %R11.3728, %C0.0, %D28) {kernel = [6, 6], stride = [2, 2], in_zero = [0, 0], ke_zero = [0, 0], opt_kernel_rotate = False, pad_mode = 0, pad = [0, 0, 0, 2], opt_res_add = False, do_relu = False, sym_range = False, do_rq = False, round_mode = 0} : (memref<1x3x70x324xf32, strides: [22680, 22680, 324, 1]>, memref<32x3x6x6xf32>, memref<1x32x1x1xui32, strides: [1, 1, 1, 1]>, f32, none) -> (memref<1x32x33x161xf32, strides: [5316, 5316, 161, 1]>, none), %G6574080, %D0 = "dma.tensor"(%R15, %B340) : (memref<1x32x16x80xf32, strides: [1280, 1280, 80, 1]>, none) -> (memref<1x32x16x80xf32, strides: [819200, 25600, 160, 1]>, none), %R8.1568, %B1 = "tsbc.s_bc"(%R0, %D29) : (memref<1x32x1x10xf32, strides: [12, 12, 10, 1]>, none) -> (memref<1x32x1x10xf32, strides: [12, 12, 10, 1]>, none), %R5.4880, %B1 = "arith.sub"(%C0.0, %R12, %D29) {round_mode = 0} : (f32, memref<1x32x33x161xf32, strides: [5316, 5316, 161, 1]>, none) -> (memref<1x32x33x161xf32, strides: [5316, 5316, 161, 1]>, none), %R5.4880, %B1 = "arith.max"(%R5.4880, %C-3.4028198694267105e+35, %D29) {round_mode = 0} : (memref<1x32x33x161xf32, strides: [5316, 5316, 161, 1]>, f32, none) -> (memref<1x32x33x161xf32, strides: [5316, 5316, 161, 1]>, none), %R3, %B1 = "arith.mul"(%R5.4880, %C1.4426950216293335, %D29) {round_mode = 0} : (memref<1x32x33x161xf32, strides: [5316, 5316, 161, 1]>, f32, none) -> (memref<1x32x33x161xf32, strides: [5316, 5316, 161, 1]>, none), %R0, %B1 = "arith.cast"(%R3, %D29) {round_mode = 3} : (memref<1x32x33x161xf32, strides: [5316, 5316, 161, 1]>, none) -> (memref<1x32x33x161xf32, strides: [5316, 5316, 161, 1]>, none), %R3, %B1 = "arith.mul"(%R0, %C0.6931471824645996, %D29) {round_mode = 0} : (memref<1x32x33x161xf32, strides: [5316, 5316, 161, 1]>, f32, none) -> (memref<1x32x33x161xf32, strides: [5316, 5316, 161, 1]>, none), %R3, %B1 = "arith.sub"(%R5.4880, %R3, %D29) {round_mode = 0} : (memref<1x32x33x161xf32, strides: [5316, 5316, 161, 1]>, memref<1x32x33x161xf32, strides: [5316, 5316, 161, 1]>, none) -> (memref<1x32x33x161xf32, strides: [5316, 5316, 161, 1]>, none), %R5.4880, %B1 = "arith.cast"(%R0, %D29) {round_mode = 1} : (memref<1x32x33x161xf32, strides: [5316, 5316, 161, 1]>, none) -> (memref<1x32x33x161xsi16, strides: [5320, 5320, 161, 1]>, none), %R0, %B1 = "arith.min"(%R5.4880, %C127, %D29) {round_mode = 0} : (memref<1x32x33x161xsi16, strides: [5320, 5320, 161, 1]>, si16, none) -> (memref<1x32x33x161xsi16, strides: [5320, 5320, 161, 1]>, none), %R5.4880, %B1 = "arith.max"(%R0, %C-127, %D29) {round_mode = 0} : (memref<1x32x33x161xsi16, strides: [5320, 5320, 161, 1]>, si16, none) -> (memref<1x32x33x161xsi16, strides: [5320, 5320, 161, 1]>, none), %R0, %B1 = "arith.add_satu"(%R5.4880, %C127, %C23, %D29) {round_mode = 1} : (memref<1x32x33x161xsi16, strides: [5320, 5320, 161, 1]>, si16, ui8, none) -> (memref<1x32x33x161xsi32, strides: [5316, 5316, 161, 1]>, none), %R5.4880, %B1 = "sfu.taylor_4x"(%R3, %R8.1568, %D29) : (memref<1x32x33x161xf32, strides: [5316, 5316, 161, 1]>, memref<1x32x1x10xf32, strides: [0, 0, 10, 1]>, none) -> (memref<1x32x33x161xf32, strides: [5316, 5316, 161, 1]>, none), %R0, %B1 = "arith.mul"(%R5.4880, %R0, %D29) {round_mode = 0} : (memref<1x32x33x161xf32, strides: [5316, 5316, 161, 1]>, memref<1x32x33x161xf32, strides: [5316, 5316, 161, 1]>, none) -> (memref<1x32x33x161xf32, strides: [5316, 5316, 161, 1]>, none), %R3, %B1 = "arith.add"(%R0, %C1.0, %D29) {round_mode = 0} : (memref<1x32x33x161xf32, strides: [5316, 5316, 161, 1]>, f32, none) -> (memref<1x32x33x161xf32, strides: [5316, 5316, 161, 1]>, none), %R0, %B1 = "arith.div"(%C1.0, %R3, %D29) {iter = 3} : (f32, memref<1x32x33x161xf32, strides: [5316, 5316, 161, 1]>, none) -> (memref<1x32x33x161xf32, strides: [5316, 5316, 161, 1]>, none), %R0, %B1 = "arith.mul"(%R0, %R12, %D29) {round_mode = 0} : (memref<1x32x33x161xf32, strides: [5316, 5316, 161, 1]>, memref<1x32x33x161xf32, strides: [5316, 5316, 161, 1]>, none) -> (memref<1x32x33x161xf32, strides: [5316, 5316, 161, 1]>, none), %R5, %B1 = "conv.normal"(%R0, %R11.608, %R15.5120, %C0.0, %D29) {kernel = [3, 3], stride = [2, 2], in_zero = [0, 0], ke_zero = [0, 0], opt_kernel_rotate = False, pad_mode = 0, pad = [0, 0, 0, 1], opt_res_add = False, do_relu = False, sym_range = False, do_rq = False, round_mode = 0} : (memref<1x32x33x161xf32, strides: [5316, 5316, 161, 1]>, memref<64x32x3x3xf32>, memref<1x64x1x1xui32, strides: [2, 1, 1, 1]>, f32, none) -> (memref<1x64x16x80xf32, strides: [2560, 1280, 80, 1]>, none), %R4.4096, %B1 = "tsbc.s_bc"(%R0, %D29) : (memref<1x32x1x10xf32, strides: [12, 12, 10, 1]>, none) -> (memref<1x32x1x10xf32, strides: [12, 12, 10, 1]>, none), %R3.2048, %B1 = "arith.sub"(%C0.0, %R5, %D29) {round_mode = 0} : (f32, memref<1x64x16x80xf32, strides: [2560, 1280, 80, 1]>, none) -> (memref<1x64x16x80xf32, strides: [2560, 1280, 80, 1]>, none), %R3.2048, %B1 = "arith.max"(%R3.2048, %C-3.4028198694267105e+35, %D29) {round_mode = 0} : (memref<1x64x16x80xf32, strides: [2560, 1280, 80, 1]>, f32, none) -> (memref<1x64x16x80xf32, strides: [2560, 1280, 80, 1]>, none), %R2, %B1 = "arith.mul"(%R3.2048, %C1.4426950216293335, %D29) {round_mode = 0} : (memref<1x64x16x80xf32, strides: [2560, 1280, 80, 1]>, f32, none) -> (memref<1x64x16x80xf32, strides: [2560, 1280, 80, 1]>, none), %R0, %B1 = "arith.cast"(%R2, %D29) {round_mode = 3} : (memref<1x64x16x80xf32, strides: [2560, 1280, 80, 1]>, none) -> (memref<1x64x16x80xf32, strides: [2560, 1280, 80, 1]>, none), %R2, %B1 = "arith.mul"(%R0, %C0.6931471824645996, %D29) {round_mode = 0} : (memref<1x64x16x80xf32, strides: [2560, 1280, 80, 1]>, f32, none) -> (memref<1x64x16x80xf32, strides: [2560, 1280, 80, 1]>, none), %R2, %B1 = "arith.sub"(%R3.2048, %R2, %D29) {round_mode = 0} : (memref<1x64x16x80xf32, strides: [2560, 1280, 80, 1]>, memref<1x64x16x80xf32, strides: [2560, 1280, 80, 1]>, none) -> (memref<1x64x16x80xf32, strides: [2560, 1280, 80, 1]>, none), %R3.2048, %B1 = "arith.cast"(%R0, %D29) {round_mode = 1} : (memref<1x64x16x80xf32, strides: [2560, 1280, 80, 1]>, none) -> (memref<1x64x16x80xsi16, strides: [2560, 1280, 80, 1]>, none), %R0, %B1 = "arith.min"(%R3.2048, %C127, %D29) {round_mode = 0} : (memref<1x64x16x80xsi16, strides: [2560, 1280, 80, 1]>, si16, none) -> (memref<1x64x16x80xsi16, strides: [2560, 1280, 80, 1]>, none), %R3.2048, %B1 = "arith.max"(%R0, %C-127, %D29) {round_mode = 0} : (memref<1x64x16x80xsi16, strides: [2560, 1280, 80, 1]>, si16, none) -> (memref<1x64x16x80xsi16, strides: [2560, 1280, 80, 1]>, none), %R0, %B1 = "arith.add_satu"(%R3.2048, %C127, %C23, %D29) {round_mode = 1} : (memref<1x64x16x80xsi16, strides: [2560, 1280, 80, 1]>, si16, ui8, none) -> (memref<1x64x16x80xsi32, strides: [2560, 1280, 80, 1]>, none), %R3.2048, %B1 = "sfu.taylor_4x"(%R2, %R4.4096, %D29) : (memref<1x64x16x80xf32, strides: [2560, 1280, 80, 1]>, memref<1x64x1x10xf32, strides: [0, 0, 10, 1]>, none) -> (memref<1x64x16x80xf32, strides: [2560, 1280, 80, 1]>, none), %R0, %B1 = "arith.mul"(%R3.2048, %R0, %D29) {round_mode = 0} : (memref<1x64x16x80xf32, strides: [2560, 1280, 80, 1]>, memref<1x64x16x80xf32, strides: [2560, 1280, 80, 1]>, none) -> (memref<1x64x16x80xf32, strides: [2560, 1280, 80, 1]>, none), %R2, %B1 = "arith.add"(%R0, %C1.0, %D29) {round_mode = 0} : (memref<1x64x16x80xf32, strides: [2560, 1280, 80, 1]>, f32, none) -> (memref<1x64x16x80xf32, strides: [2560, 1280, 80, 1]>, none), %R0, %B1 = "arith.div"(%C1.0, %R2, %D29) {iter = 3} : (f32, memref<1x64x16x80xf32, strides: [2560, 1280, 80, 1]>, none) -> (memref<1x64x16x80xf32, strides: [2560, 1280, 80, 1]>, none), %R0, %B1 = "arith.mul"(%R0, %R5, %D29) {round_mode = 0} : (memref<1x64x16x80xf32, strides: [2560, 1280, 80, 1]>, memref<1x64x16x80xf32, strides: [2560, 1280, 80, 1]>, none) -> (memref<1x64x16x80xf32, strides: [2560, 1280, 80, 1]>, none), %R3, %B1 = "conv.normal"(%R0, %R11.2912, %R14.4880, %C0.0, %D29) {kernel = [1, 1], stride = [1, 1], in_zero = [0, 0], ke_zero = [0, 0], opt_kernel_rotate = False, pad_mode = 0, pad = [0, 0, 0, 0], opt_res_add = False, do_relu = False, sym_range = False, do_rq = False, round_mode = 0} : (memref<1x64x16x80xf32, strides: [2560, 1280, 80, 1]>, memref<32x64x1x1xf32>, memref<1x32x1x1xui32, strides: [1, 1, 1, 1]>, f32, none) -> (memref<1x32x16x80xf32, strides: [1280, 1280, 80, 1]>, none), %G20800, %D0 = "dma.tensor"(%R0, %B374) : (memref<1x64x16x80xf32, strides: [2560, 1280, 80, 1]>, none) -> (memref<1x64x16x80xf32, strides: [1638400, 25600, 160, 1]>, none), %R2.2048, %B1 = "tsbc.s_bc"(%R0, %D30) : (memref<1x32x1x10xf32, strides: [12, 12, 10, 1]>, none) -> (memref<1x32x1x10xf32, strides: [12, 12, 10, 1]>, none), %R1.5120, %B1 = "arith.sub"(%C0.0, %R3, %D30) {round_mode = 0} : (f32, memref<1x32x16x80xf32, strides: [1280, 1280, 80, 1]>, none) -> (memref<1x32x16x80xf32, strides: [1280, 1280, 80, 1]>, none), %R1.5120, %B1 = "arith.max"(%R1.5120, %C-3.4028198694267105e+35, %D30) {round_mode = 0} : (memref<1x32x16x80xf32, strides: [1280, 1280, 80, 1]>, f32, none) -> (memref<1x32x16x80xf32, strides: [1280, 1280, 80, 1]>, none), %R1, %B1 = "arith.mul"(%R1.5120, %C1.4426950216293335, %D30) {round_mode = 0} : (memref<1x32x16x80xf32, strides: [1280, 1280, 80, 1]>, f32, none) -> (memref<1x32x16x80xf32, strides: [1280, 1280, 80, 1]>, none), %R0, %B1 = "arith.cast"(%R1, %D30) {round_mode = 3} : (memref<1x32x16x80xf32, strides: [1280, 1280, 80, 1]>, none) -> (memref<1x32x16x80xf32, strides: [1280, 1280, 80, 1]>, none), %R1, %B1 = "arith.mul"(%R0, %C0.6931471824645996, %D30) {round_mode = 0} : (memref<1x32x16x80xf32, strides: [1280, 1280, 80, 1]>, f32, none) -> (memref<1x32x16x80xf32, strides: [1280, 1280, 80, 1]>, none), %R1, %B1 = "arith.sub"(%R1.5120, %R1, %D30) {round_mode = 0} : (memref<1x32x16x80xf32, strides: [1280, 1280, 80, 1]>, memref<1x32x16x80xf32, strides: [1280, 1280, 80, 1]>, none) -> (memref<1x32x16x80xf32, strides: [1280, 1280, 80, 1]>, none), %R1.5120, %B1 = "arith.cast"(%R0, %D30) {round_mode = 1} : (memref<1x32x16x80xf32, strides: [1280, 1280, 80, 1]>, none) -> (memref<1x32x16x80xsi16, strides: [1280, 1280, 80, 1]>, none), %R0, %B1 = "arith.min"(%R1.5120, %C127, %D30) {round_mode = 0} : (memref<1x32x16x80xsi16, strides: [1280, 1280, 80, 1]>, si16, none) -> (memref<1x32x16x80xsi16, strides: [1280, 1280, 80, 1]>, none), %R1.5120, %B1 = "arith.max"(%R0, %C-127, %D30) {round_mode = 0} : (memref<1x32x16x80xsi16, strides: [1280, 1280, 80, 1]>, si16, none) -> (memref<1x32x16x80xsi16, strides: [1280, 1280, 80, 1]>, none), %R0, %B1 = "arith.add_satu"(%R1.5120, %C127, %C23, %D30) {round_mode = 1} : (memref<1x32x16x80xsi16, strides: [1280, 1280, 80, 1]>, si16, ui8, none) -> (memref<1x32x16x80xsi32, strides: [1280, 1280, 80, 1]>, none), %R1.5120, %B1 = "sfu.taylor_4x"(%R1, %R2.2048, %D30) : (memref<1x32x16x80xf32, strides: [1280, 1280, 80, 1]>, memref<1x32x1x10xf32, strides: [0, 0, 10, 1]>, none) -> (memref<1x32x16x80xf32, strides: [1280, 1280, 80, 1]>, none), %R0, %B1 = "arith.mul"(%R1.5120, %R0, %D30) {round_mode = 0} : (memref<1x32x16x80xf32, strides: [1280, 1280, 80, 1]>, memref<1x32x16x80xf32, strides: [1280, 1280, 80, 1]>, none) -> (memref<1x32x16x80xf32, strides: [1280, 1280, 80, 1]>, none), %R1, %B1 = "arith.add"(%R0, %C1.0, %D30) {round_mode = 0} : (memref<1x32x16x80xf32, strides: [1280, 1280, 80, 1]>, f32, none) -> (memref<1x32x16x80xf32, strides: [1280, 1280, 80, 1]>, none), %R0, %B1 = "arith.div"(%C1.0, %R1, %D30) {iter = 3} : (f32, memref<1x32x16x80xf32, strides: [1280, 1280, 80, 1]>, none) -> (memref<1x32x16x80xf32, strides: [1280, 1280, 80, 1]>, none), %R0, %B1 = "arith.mul"(%R0, %R3, %D30) {round_mode = 0} : (memref<1x32x16x80xf32, strides: [1280, 1280, 80, 1]>, memref<1x32x16x80xf32, strides: [1280, 1280, 80, 1]>, none) -> (memref<1x32x16x80xf32, strides: [1280, 1280, 80, 1]>, none), %R12, %B1 = "conv.normal"(%R0, %R11.3168, %R14.4896, %C0.0, %D30) {kernel = [1, 1], stride = [1, 1], in_zero = [0, 0], ke_zero = [0, 0], opt_kernel_rotate = False, pad_mode = 0, pad = [0, 0, 0, 0], opt_res_add = False, do_relu = False, sym_range = False, do_rq = False, round_mode = 0} : (memref<1x32x16x80xf32, strides: [1280, 1280, 80, 1]>, memref<32x32x1x1xf32>, memref<1x32x1x1xui32, strides: [1, 1, 1, 1]>, f32, none) -> (memref<1x32x16x80xf32, strides: [1280, 1280, 80, 1]>, none), %G21270848, %D0 = "dma.tensor"(%R0, %B391) : (memref<1x32x16x80xf32, strides: [1280, 1280, 80, 1]>, none) -> (memref<1x32x16x80xf32, strides: [819200, 25600, 160, 1]>, none), %R14.2048, %B1 = "tsbc.s_bc"(%R0, %D31) : (memref<1x32x1x10xf32, strides: [12, 12, 10, 1]>, none) -> (memref<1x32x1x10xf32, strides: [12, 12, 10, 1]>, none), %R13.5120, %B1 = "arith.sub"(%C0.0, %R12, %D31) {round_mode = 0} : (f32, memref<1x32x16x80xf32, strides: [1280, 1280, 80, 1]>, none) -> (memref<1x32x16x80xf32, strides: [1280, 1280, 80, 1]>, none), %R13.5120, %B1 = "arith.max"(%R13.5120, %C-3.4028198694267105e+35, %D31) {round_mode = 0} : (memref<1x32x16x80xf32, strides: [1280, 1280, 80, 1]>, f32, none) -> (memref<1x32x16x80xf32, strides: [1280, 1280, 80, 1]>, none), %R13, %B1 = "arith.mul"(%R13.5120, %C1.4426950216293335, %D31) {round_mode = 0} : (memref<1x32x16x80xf32, strides: [1280, 1280, 80, 1]>, f32, none) -> (memref<1x32x16x80xf32, strides: [1280, 1280, 80, 1]>, none), %R15, %B1 = "arith.cast"(%R13, %D31) {round_mode = 3} : (memref<1x32x16x80xf32, strides: [1280, 1280, 80, 1]>, none) -> (memref<1x32x16x80xf32, strides: [1280, 1280, 80, 1]>, none), %R13, %B1 = "arith.mul"(%R15, %C0.6931471824645996, %D31) {round_mode = 0} : (memref<1x32x16x80xf32, strides: [1280, 1280, 80, 1]>, f32, none) -> (memref<1x32x16x80xf32, strides: [1280, 1280, 80, 1]>, none), %R13, %B1 = "arith.sub"(%R13.5120, %R13, %D31) {round_mode = 0} : (memref<1x32x16x80xf32, strides: [1280, 1280, 80, 1]>, memref<1x32x16x80xf32, strides: [1280, 1280, 80, 1]>, none) -> (memref<1x32x16x80xf32, strides: [1280, 1280, 80, 1]>, none), %R13.5120, %B1 = "arith.cast"(%R15, %D31) {round_mode = 1} : (memref<1x32x16x80xf32, strides: [1280, 1280, 80, 1]>, none) -> (memref<1x32x16x80xsi16, strides: [1280, 1280, 80, 1]>, none), %R15, %B1 = "arith.min"(%R13.5120, %C127, %D31) {round_mode = 0} : (memref<1x32x16x80xsi16, strides: [1280, 1280, 80, 1]>, si16, none) -> (memref<1x32x16x80xsi16, strides: [1280, 1280, 80, 1]>, none), %R13.5120, %B1 = "arith.max"(%R15, %C-127, %D31) {round_mode = 0} : (memref<1x32x16x80xsi16, strides: [1280, 1280, 80, 1]>, si16, none) -> (memref<1x32x16x80xsi16, strides: [1280, 1280, 80, 1]>, none), %R15, %B1 = "arith.add_satu"(%R13.5120, %C127, %C23, %D31) {round_mode = 1} : (memref<1x32x16x80xsi16, strides: [1280, 1280, 80, 1]>, si16, ui8, none) -> (memref<1x32x16x80xsi32, strides: [1280, 1280, 80, 1]>, none), %R13.5120, %B1 = "sfu.taylor_4x"(%R13, %R14.2048, %D31) : (memref<1x32x16x80xf32, strides: [1280, 1280, 80, 1]>, memref<1x32x1x10xf32, strides: [0, 0, 10, 1]>, none) -> (memref<1x32x16x80xf32, strides: [1280, 1280, 80, 1]>, none), %R15, %B1 = "arith.mul"(%R13.5120, %R15, %D31) {round_mode = 0} : (memref<1x32x16x80xf32, strides: [1280, 1280, 80, 1]>, memref<1x32x16x80xf32, strides: [1280, 1280, 80, 1]>, none) -> (memref<1x32x16x80xf32, strides: [1280, 1280, 80, 1]>, none), %R13, %B1 = "arith.add"(%R15, %C1.0, %D31) {round_mode = 0} : (memref<1x32x16x80xf32, strides: [1280, 1280, 80, 1]>, f32, none) -> (memref<1x32x16x80xf32, strides: [1280, 1280, 80, 1]>, none), %R15, %B1 = "arith.div"(%C1.0, %R13, %D31) {iter = 3} : (f32, memref<1x32x16x80xf32, strides: [1280, 1280, 80, 1]>, none) -> (memref<1x32x16x80xf32, strides: [1280, 1280, 80, 1]>, none), %R15, %B1 = "arith.mul"(%R15, %R12, %D31) {round_mode = 0} : (memref<1x32x16x80xf32, strides: [1280, 1280, 80, 1]>, memref<1x32x16x80xf32, strides: [1280, 1280, 80, 1]>, none) -> (memref<1x32x16x80xf32, strides: [1280, 1280, 80, 1]>, none), %R0, %D0 = "dma.tensor"(%G13539328, %B392) : (memref<1x3x70x322xf32, strides: [1228800, 409600, 640, 1]>, none) -> (memref<1x3x70x322xf32, strides: [22540, 22540, 322, 1]>, none), %R12, %B1 = "conv.normal"(%R0, %R11.3296, %R11.3728, %C0.0, %D32) {kernel = [6, 6], stride = [2, 2], in_zero = [0, 0], ke_zero = [0, 0], opt_kernel_rotate = False, pad_mode = 0, pad = [0, 0, 2, 0], opt_res_add = False, do_relu = False, sym_range = False, do_rq = False, round_mode = 0} : (memref<1x3x70x322xf32, strides: [22540, 22540, 322, 1]>, memref<32x3x6x6xf32>, memref<1x32x1x1xui32, strides: [1, 1, 1, 1]>, f32, none) -> (memref<1x32x33x160xf32, strides: [5280, 5280, 160, 1]>, none), %G6574400, %D0 = "dma.tensor"(%R15, %B408) : (memref<1x32x16x80xf32, strides: [1280, 1280, 80, 1]>, none) -> (memref<1x32x16x80xf32, strides: [819200, 25600, 160, 1]>, none), %R8.1280, %B1 = "tsbc.s_bc"(%R0, %D33) : (memref<1x32x1x10xf32, strides: [12, 12, 10, 1]>, none) -> (memref<1x32x1x10xf32, strides: [12, 12, 10, 1]>, none), %R5.4736, %B1 = "arith.sub"(%C0.0, %R12, %D33) {round_mode = 0} : (f32, memref<1x32x33x160xf32, strides: [5280, 5280, 160, 1]>, none) -> (memref<1x32x33x160xf32, strides: [5280, 5280, 160, 1]>, none), %R5.4736, %B1 = "arith.max"(%R5.4736, %C-3.4028198694267105e+35, %D33) {round_mode = 0} : (memref<1x32x33x160xf32, strides: [5280, 5280, 160, 1]>, f32, none) -> (memref<1x32x33x160xf32, strides: [5280, 5280, 160, 1]>, none), %R3, %B1 = "arith.mul"(%R5.4736, %C1.4426950216293335, %D33) {round_mode = 0} : (memref<1x32x33x160xf32, strides: [5280, 5280, 160, 1]>, f32, none) -> (memref<1x32x33x160xf32, strides: [5280, 5280, 160, 1]>, none), %R0, %B1 = "arith.cast"(%R3, %D33) {round_mode = 3} : (memref<1x32x33x160xf32, strides: [5280, 5280, 160, 1]>, none) -> (memref<1x32x33x160xf32, strides: [5280, 5280, 160, 1]>, none), %R3, %B1 = "arith.mul"(%R0, %C0.6931471824645996, %D33) {round_mode = 0} : (memref<1x32x33x160xf32, strides: [5280, 5280, 160, 1]>, f32, none) -> (memref<1x32x33x160xf32, strides: [5280, 5280, 160, 1]>, none), %R3, %B1 = "arith.sub"(%R5.4736, %R3, %D33) {round_mode = 0} : (memref<1x32x33x160xf32, strides: [5280, 5280, 160, 1]>, memref<1x32x33x160xf32, strides: [5280, 5280, 160, 1]>, none) -> (memref<1x32x33x160xf32, strides: [5280, 5280, 160, 1]>, none), %R5.4736, %B1 = "arith.cast"(%R0, %D33) {round_mode = 1} : (memref<1x32x33x160xf32, strides: [5280, 5280, 160, 1]>, none) -> (memref<1x32x33x160xsi16, strides: [5280, 5280, 160, 1]>, none), %R0, %B1 = "arith.min"(%R5.4736, %C127, %D33) {round_mode = 0} : (memref<1x32x33x160xsi16, strides: [5280, 5280, 160, 1]>, si16, none) -> (memref<1x32x33x160xsi16, strides: [5280, 5280, 160, 1]>, none), %R5.4736, %B1 = "arith.max"(%R0, %C-127, %D33) {round_mode = 0} : (memref<1x32x33x160xsi16, strides: [5280, 5280, 160, 1]>, si16, none) -> (memref<1x32x33x160xsi16, strides: [5280, 5280, 160, 1]>, none), %R0, %B1 = "arith.add_satu"(%R5.4736, %C127, %C23, %D33) {round_mode = 1} : (memref<1x32x33x160xsi16, strides: [5280, 5280, 160, 1]>, si16, ui8, none) -> (memref<1x32x33x160xsi32, strides: [5280, 5280, 160, 1]>, none), %R5.4736, %B1 = "sfu.taylor_4x"(%R3, %R8.1280, %D33) : (memref<1x32x33x160xf32, strides: [5280, 5280, 160, 1]>, memref<1x32x1x10xf32, strides: [0, 0, 10, 1]>, none) -> (memref<1x32x33x160xf32, strides: [5280, 5280, 160, 1]>, none), %R0, %B1 = "arith.mul"(%R5.4736, %R0, %D33) {round_mode = 0} : (memref<1x32x33x160xf32, strides: [5280, 5280, 160, 1]>, memref<1x32x33x160xf32, strides: [5280, 5280, 160, 1]>, none) -> (memref<1x32x33x160xf32, strides: [5280, 5280, 160, 1]>, none), %R3, %B1 = "arith.add"(%R0, %C1.0, %D33) {round_mode = 0} : (memref<1x32x33x160xf32, strides: [5280, 5280, 160, 1]>, f32, none) -> (memref<1x32x33x160xf32, strides: [5280, 5280, 160, 1]>, none), %R0, %B1 = "arith.div"(%C1.0, %R3, %D33) {iter = 3} : (f32, memref<1x32x33x160xf32, strides: [5280, 5280, 160, 1]>, none) -> (memref<1x32x33x160xf32, strides: [5280, 5280, 160, 1]>, none), %R0, %B1 = "arith.mul"(%R0, %R12, %D33) {round_mode = 0} : (memref<1x32x33x160xf32, strides: [5280, 5280, 160, 1]>, memref<1x32x33x160xf32, strides: [5280, 5280, 160, 1]>, none) -> (memref<1x32x33x160xf32, strides: [5280, 5280, 160, 1]>, none), %R5, %B1 = "conv.normal"(%R0, %R11.608, %R15.5120, %C0.0, %D33) {kernel = [3, 3], stride = [2, 2], in_zero = [0, 0], ke_zero = [0, 0], opt_kernel_rotate = False, pad_mode = 0, pad = [0, 0, 1, 0], opt_res_add = False, do_relu = False, sym_range = False, do_rq = False, round_mode = 0} : (memref<1x32x33x160xf32, strides: [5280, 5280, 160, 1]>, memref<64x32x3x3xf32>, memref<1x64x1x1xui32, strides: [2, 1, 1, 1]>, f32, none) -> (memref<1x64x16x80xf32, strides: [2560, 1280, 80, 1]>, none), %R4.4096, %B1 = "tsbc.s_bc"(%R0, %D33) : (memref<1x32x1x10xf32, strides: [12, 12, 10, 1]>, none) -> (memref<1x32x1x10xf32, strides: [12, 12, 10, 1]>, none), %R3.2048, %B1 = "arith.sub"(%C0.0, %R5, %D33) {round_mode = 0} : (f32, memref<1x64x16x80xf32, strides: [2560, 1280, 80, 1]>, none) -> (memref<1x64x16x80xf32, strides: [2560, 1280, 80, 1]>, none), %R3.2048, %B1 = "arith.max"(%R3.2048, %C-3.4028198694267105e+35, %D33) {round_mode = 0} : (memref<1x64x16x80xf32, strides: [2560, 1280, 80, 1]>, f32, none) -> (memref<1x64x16x80xf32, strides: [2560, 1280, 80, 1]>, none), %R2, %B1 = "arith.mul"(%R3.2048, %C1.4426950216293335, %D33) {round_mode = 0} : (memref<1x64x16x80xf32, strides: [2560, 1280, 80, 1]>, f32, none) -> (memref<1x64x16x80xf32, strides: [2560, 1280, 80, 1]>, none), %R0, %B1 = "arith.cast"(%R2, %D33) {round_mode = 3} : (memref<1x64x16x80xf32, strides: [2560, 1280, 80, 1]>, none) -> (memref<1x64x16x80xf32, strides: [2560, 1280, 80, 1]>, none), %R2, %B1 = "arith.mul"(%R0, %C0.6931471824645996, %D33) {round_mode = 0} : (memref<1x64x16x80xf32, strides: [2560, 1280, 80, 1]>, f32, none) -> (memref<1x64x16x80xf32, strides: [2560, 1280, 80, 1]>, none), %R2, %B1 = "arith.sub"(%R3.2048, %R2, %D33) {round_mode = 0} : (memref<1x64x16x80xf32, strides: [2560, 1280, 80, 1]>, memref<1x64x16x80xf32, strides: [2560, 1280, 80, 1]>, none) -> (memref<1x64x16x80xf32, strides: [2560, 1280, 80, 1]>, none), %R3.2048, %B1 = "arith.cast"(%R0, %D33) {round_mode = 1} : (memref<1x64x16x80xf32, strides: [2560, 1280, 80, 1]>, none) -> (memref<1x64x16x80xsi16, strides: [2560, 1280, 80, 1]>, none), %R0, %B1 = "arith.min"(%R3.2048, %C127, %D33) {round_mode = 0} : (memref<1x64x16x80xsi16, strides: [2560, 1280, 80, 1]>, si16, none) -> (memref<1x64x16x80xsi16, strides: [2560, 1280, 80, 1]>, none), %R3.2048, %B1 = "arith.max"(%R0, %C-127, %D33) {round_mode = 0} : (memref<1x64x16x80xsi16, strides: [2560, 1280, 80, 1]>, si16, none) -> (memref<1x64x16x80xsi16, strides: [2560, 1280, 80, 1]>, none), %R0, %B1 = "arith.add_satu"(%R3.2048, %C127, %C23, %D33) {round_mode = 1} : (memref<1x64x16x80xsi16, strides: [2560, 1280, 80, 1]>, si16, ui8, none) -> (memref<1x64x16x80xsi32, strides: [2560, 1280, 80, 1]>, none), %R3.2048, %B1 = "sfu.taylor_4x"(%R2, %R4.4096, %D33) : (memref<1x64x16x80xf32, strides: [2560, 1280, 80, 1]>, memref<1x64x1x10xf32, strides: [0, 0, 10, 1]>, none) -> (memref<1x64x16x80xf32, strides: [2560, 1280, 80, 1]>, none), %R0, %B1 = "arith.mul"(%R3.2048, %R0, %D33) {round_mode = 0} : (memref<1x64x16x80xf32, strides: [2560, 1280, 80, 1]>, memref<1x64x16x80xf32, strides: [2560, 1280, 80, 1]>, none) -> (memref<1x64x16x80xf32, strides: [2560, 1280, 80, 1]>, none), %R2, %B1 = "arith.add"(%R0, %C1.0, %D33) {round_mode = 0} : (memref<1x64x16x80xf32, strides: [2560, 1280, 80, 1]>, f32, none) -> (memref<1x64x16x80xf32, strides: [2560, 1280, 80, 1]>, none), %R0, %B1 = "arith.div"(%C1.0, %R2, %D33) {iter = 3} : (f32, memref<1x64x16x80xf32, strides: [2560, 1280, 80, 1]>, none) -> (memref<1x64x16x80xf32, strides: [2560, 1280, 80, 1]>, none), %R0, %B1 = "arith.mul"(%R0, %R5, %D33) {round_mode = 0} : (memref<1x64x16x80xf32, strides: [2560, 1280, 80, 1]>, memref<1x64x16x80xf32, strides: [2560, 1280, 80, 1]>, none) -> (memref<1x64x16x80xf32, strides: [2560, 1280, 80, 1]>, none), %R3, %B1 = "conv.normal"(%R0, %R11.2912, %R14.4880, %C0.0, %D33) {kernel = [1, 1], stride = [1, 1], in_zero = [0, 0], ke_zero = [0, 0], opt_kernel_rotate = False, pad_mode = 0, pad = [0, 0, 0, 0], opt_res_add = False, do_relu = False, sym_range = False, do_rq = False, round_mode = 0} : (memref<1x64x16x80xf32, strides: [2560, 1280, 80, 1]>, memref<32x64x1x1xf32>, memref<1x32x1x1xui32, strides: [1, 1, 1, 1]>, f32, none) -> (memref<1x32x16x80xf32, strides: [1280, 1280, 80, 1]>, none), %G30720, %D0 = "dma.tensor"(%R0, %B442) : (memref<1x64x16x80xf32, strides: [2560, 1280, 80, 1]>, none) -> (memref<1x64x16x80xf32, strides: [1638400, 25600, 160, 1]>, none), %R2.2048, %B1 = "tsbc.s_bc"(%R0, %D34) : (memref<1x32x1x10xf32, strides: [12, 12, 10, 1]>, none) -> (memref<1x32x1x10xf32, strides: [12, 12, 10, 1]>, none), %R1.5120, %B1 = "arith.sub"(%C0.0, %R3, %D34) {round_mode = 0} : (f32, memref<1x32x16x80xf32, strides: [1280, 1280, 80, 1]>, none) -> (memref<1x32x16x80xf32, strides: [1280, 1280, 80, 1]>, none), %R1.5120, %B1 = "arith.max"(%R1.5120, %C-3.4028198694267105e+35, %D34) {round_mode = 0} : (memref<1x32x16x80xf32, strides: [1280, 1280, 80, 1]>, f32, none) -> (memref<1x32x16x80xf32, strides: [1280, 1280, 80, 1]>, none), %R1, %B1 = "arith.mul"(%R1.5120, %C1.4426950216293335, %D34) {round_mode = 0} : (memref<1x32x16x80xf32, strides: [1280, 1280, 80, 1]>, f32, none) -> (memref<1x32x16x80xf32, strides: [1280, 1280, 80, 1]>, none), %R0, %B1 = "arith.cast"(%R1, %D34) {round_mode = 3} : (memref<1x32x16x80xf32, strides: [1280, 1280, 80, 1]>, none) -> (memref<1x32x16x80xf32, strides: [1280, 1280, 80, 1]>, none), %R1, %B1 = "arith.mul"(%R0, %C0.6931471824645996, %D34) {round_mode = 0} : (memref<1x32x16x80xf32, strides: [1280, 1280, 80, 1]>, f32, none) -> (memref<1x32x16x80xf32, strides: [1280, 1280, 80, 1]>, none), %R1, %B1 = "arith.sub"(%R1.5120, %R1, %D34) {round_mode = 0} : (memref<1x32x16x80xf32, strides: [1280, 1280, 80, 1]>, memref<1x32x16x80xf32, strides: [1280, 1280, 80, 1]>, none) -> (memref<1x32x16x80xf32, strides: [1280, 1280, 80, 1]>, none), %R1.5120, %B1 = "arith.cast"(%R0, %D34) {round_mode = 1} : (memref<1x32x16x80xf32, strides: [1280, 1280, 80, 1]>, none) -> (memref<1x32x16x80xsi16, strides: [1280, 1280, 80, 1]>, none), %R0, %B1 = "arith.min"(%R1.5120, %C127, %D34) {round_mode = 0} : (memref<1x32x16x80xsi16, strides: [1280, 1280, 80, 1]>, si16, none) -> (memref<1x32x16x80xsi16, strides: [1280, 1280, 80, 1]>, none), %R1.5120, %B1 = "arith.max"(%R0, %C-127, %D34) {round_mode = 0} : (memref<1x32x16x80xsi16, strides: [1280, 1280, 80, 1]>, si16, none) -> (memref<1x32x16x80xsi16, strides: [1280, 1280, 80, 1]>, none), %R0, %B1 = "arith.add_satu"(%R1.5120, %C127, %C23, %D34) {round_mode = 1} : (memref<1x32x16x80xsi16, strides: [1280, 1280, 80, 1]>, si16, ui8, none) -> (memref<1x32x16x80xsi32, strides: [1280, 1280, 80, 1]>, none), %R1.5120, %B1 = "sfu.taylor_4x"(%R1, %R2.2048, %D34) : (memref<1x32x16x80xf32, strides: [1280, 1280, 80, 1]>, memref<1x32x1x10xf32, strides: [0, 0, 10, 1]>, none) -> (memref<1x32x16x80xf32, strides: [1280, 1280, 80, 1]>, none), %R0, %B1 = "arith.mul"(%R1.5120, %R0, %D34) {round_mode = 0} : (memref<1x32x16x80xf32, strides: [1280, 1280, 80, 1]>, memref<1x32x16x80xf32, strides: [1280, 1280, 80, 1]>, none) -> (memref<1x32x16x80xf32, strides: [1280, 1280, 80, 1]>, none), %R1, %B1 = "arith.add"(%R0, %C1.0, %D34) {round_mode = 0} : (memref<1x32x16x80xf32, strides: [1280, 1280, 80, 1]>, f32, none) -> (memref<1x32x16x80xf32, strides: [1280, 1280, 80, 1]>, none), %R0, %B1 = "arith.div"(%C1.0, %R1, %D34) {iter = 3} : (f32, memref<1x32x16x80xf32, strides: [1280, 1280, 80, 1]>, none) -> (memref<1x32x16x80xf32, strides: [1280, 1280, 80, 1]>, none), %R0, %B1 = "arith.mul"(%R0, %R3, %D34) {round_mode = 0} : (memref<1x32x16x80xf32, strides: [1280, 1280, 80, 1]>, memref<1x32x16x80xf32, strides: [1280, 1280, 80, 1]>, none) -> (memref<1x32x16x80xf32, strides: [1280, 1280, 80, 1]>, none), %R12, %B1 = "conv.normal"(%R0, %R11.3168, %R14.4896, %C0.0, %D34) {kernel = [1, 1], stride = [1, 1], in_zero = [0, 0], ke_zero = [0, 0], opt_kernel_rotate = False, pad_mode = 0, pad = [0, 0, 0, 0], opt_res_add = False, do_relu = False, sym_range = False, do_rq = False, round_mode = 0} : (memref<1x32x16x80xf32, strides: [1280, 1280, 80, 1]>, memref<32x32x1x1xf32>, memref<1x32x1x1xui32, strides: [1, 1, 1, 1]>, f32, none) -> (memref<1x32x16x80xf32, strides: [1280, 1280, 80, 1]>, none), %G21280768, %D0 = "dma.tensor"(%R0, %B459) : (memref<1x32x16x80xf32, strides: [1280, 1280, 80, 1]>, none) -> (memref<1x32x16x80xf32, strides: [819200, 25600, 160, 1]>, none), %R14.2048, %B1 = "tsbc.s_bc"(%R0, %D35) : (memref<1x32x1x10xf32, strides: [12, 12, 10, 1]>, none) -> (memref<1x32x1x10xf32, strides: [12, 12, 10, 1]>, none), %R13.5120, %B1 = "arith.sub"(%C0.0, %R12, %D35) {round_mode = 0} : (f32, memref<1x32x16x80xf32, strides: [1280, 1280, 80, 1]>, none) -> (memref<1x32x16x80xf32, strides: [1280, 1280, 80, 1]>, none), %R13.5120, %B1 = "arith.max"(%R13.5120, %C-3.4028198694267105e+35, %D35) {round_mode = 0} : (memref<1x32x16x80xf32, strides: [1280, 1280, 80, 1]>, f32, none) -> (memref<1x32x16x80xf32, strides: [1280, 1280, 80, 1]>, none), %R13, %B1 = "arith.mul"(%R13.5120, %C1.4426950216293335, %D35) {round_mode = 0} : (memref<1x32x16x80xf32, strides: [1280, 1280, 80, 1]>, f32, none) -> (memref<1x32x16x80xf32, strides: [1280, 1280, 80, 1]>, none), %R15, %B1 = "arith.cast"(%R13, %D35) {round_mode = 3} : (memref<1x32x16x80xf32, strides: [1280, 1280, 80, 1]>, none) -> (memref<1x32x16x80xf32, strides: [1280, 1280, 80, 1]>, none), %R13, %B1 = "arith.mul"(%R15, %C0.6931471824645996, %D35) {round_mode = 0} : (memref<1x32x16x80xf32, strides: [1280, 1280, 80, 1]>, f32, none) -> (memref<1x32x16x80xf32, strides: [1280, 1280, 80, 1]>, none), %R13, %B1 = "arith.sub"(%R13.5120, %R13, %D35) {round_mode = 0} : (memref<1x32x16x80xf32, strides: [1280, 1280, 80, 1]>, memref<1x32x16x80xf32, strides: [1280, 1280, 80, 1]>, none) -> (memref<1x32x16x80xf32, strides: [1280, 1280, 80, 1]>, none), %R13.5120, %B1 = "arith.cast"(%R15, %D35) {round_mode = 1} : (memref<1x32x16x80xf32, strides: [1280, 1280, 80, 1]>, none) -> (memref<1x32x16x80xsi16, strides: [1280, 1280, 80, 1]>, none), %R15, %B1 = "arith.min"(%R13.5120, %C127, %D35) {round_mode = 0} : (memref<1x32x16x80xsi16, strides: [1280, 1280, 80, 1]>, si16, none) -> (memref<1x32x16x80xsi16, strides: [1280, 1280, 80, 1]>, none), %R13.5120, %B1 = "arith.max"(%R15, %C-127, %D35) {round_mode = 0} : (memref<1x32x16x80xsi16, strides: [1280, 1280, 80, 1]>, si16, none) -> (memref<1x32x16x80xsi16, strides: [1280, 1280, 80, 1]>, none), %R15, %B1 = "arith.add_satu"(%R13.5120, %C127, %C23, %D35) {round_mode = 1} : (memref<1x32x16x80xsi16, strides: [1280, 1280, 80, 1]>, si16, ui8, none) -> (memref<1x32x16x80xsi32, strides: [1280, 1280, 80, 1]>, none), %R13.5120, %B1 = "sfu.taylor_4x"(%R13, %R14.2048, %D35) : (memref<1x32x16x80xf32, strides: [1280, 1280, 80, 1]>, memref<1x32x1x10xf32, strides: [0, 0, 10, 1]>, none) -> (memref<1x32x16x80xf32, strides: [1280, 1280, 80, 1]>, none), %R15, %B1 = "arith.mul"(%R13.5120, %R15, %D35) {round_mode = 0} : (memref<1x32x16x80xf32, strides: [1280, 1280, 80, 1]>, memref<1x32x16x80xf32, strides: [1280, 1280, 80, 1]>, none) -> (memref<1x32x16x80xf32, strides: [1280, 1280, 80, 1]>, none), %R13, %B1 = "arith.add"(%R15, %C1.0, %D35) {round_mode = 0} : (memref<1x32x16x80xf32, strides: [1280, 1280, 80, 1]>, f32, none) -> (memref<1x32x16x80xf32, strides: [1280, 1280, 80, 1]>, none), %R15, %B1 = "arith.div"(%C1.0, %R13, %D35) {iter = 3} : (f32, memref<1x32x16x80xf32, strides: [1280, 1280, 80, 1]>, none) -> (memref<1x32x16x80xf32, strides: [1280, 1280, 80, 1]>, none), %R15, %B1 = "arith.mul"(%R15, %R12, %D35) {round_mode = 0} : (memref<1x32x16x80xf32, strides: [1280, 1280, 80, 1]>, memref<1x32x16x80xf32, strides: [1280, 1280, 80, 1]>, none) -> (memref<1x32x16x80xf32, strides: [1280, 1280, 80, 1]>, none), %R0, %D0 = "dma.tensor"(%G13540592, %B460) : (memref<1x3x70x324xf32, strides: [1228800, 409600, 640, 1]>, none) -> (memref<1x3x70x324xf32, strides: [22680, 22680, 324, 1]>, none), %R12, %B1 = "conv.normal"(%R0, %R11.3296, %R11.3728, %C0.0, %D36) {kernel = [6, 6], stride = [2, 2], in_zero = [0, 0], ke_zero = [0, 0], opt_kernel_rotate = False, pad_mode = 0, pad = [0, 0, 0, 2], opt_res_add = False, do_relu = False, sym_range = False, do_rq = False, round_mode = 0} : (memref<1x3x70x324xf32, strides: [22680, 22680, 324, 1]>, memref<32x3x6x6xf32>, memref<1x32x1x1xui32, strides: [1, 1, 1, 1]>, f32, none) -> (memref<1x32x33x161xf32, strides: [5316, 5316, 161, 1]>, none), %G6584320, %D0 = "dma.tensor"(%R15, %B476) : (memref<1x32x16x80xf32, strides: [1280, 1280, 80, 1]>, none) -> (memref<1x32x16x80xf32, strides: [819200, 25600, 160, 1]>, none), %R8.1568, %B1 = "tsbc.s_bc"(%R0, %D37) : (memref<1x32x1x10xf32, strides: [12, 12, 10, 1]>, none) -> (memref<1x32x1x10xf32, strides: [12, 12, 10, 1]>, none), %R5.4880, %B1 = "arith.sub"(%C0.0, %R12, %D37) {round_mode = 0} : (f32, memref<1x32x33x161xf32, strides: [5316, 5316, 161, 1]>, none) -> (memref<1x32x33x161xf32, strides: [5316, 5316, 161, 1]>, none), %R5.4880, %B1 = "arith.max"(%R5.4880, %C-3.4028198694267105e+35, %D37) {round_mode = 0} : (memref<1x32x33x161xf32, strides: [5316, 5316, 161, 1]>, f32, none) -> (memref<1x32x33x161xf32, strides: [5316, 5316, 161, 1]>, none), %R3, %B1 = "arith.mul"(%R5.4880, %C1.4426950216293335, %D37) {round_mode = 0} : (memref<1x32x33x161xf32, strides: [5316, 5316, 161, 1]>, f32, none) -> (memref<1x32x33x161xf32, strides: [5316, 5316, 161, 1]>, none), %R0, %B1 = "arith.cast"(%R3, %D37) {round_mode = 3} : (memref<1x32x33x161xf32, strides: [5316, 5316, 161, 1]>, none) -> (memref<1x32x33x161xf32, strides: [5316, 5316, 161, 1]>, none), %R3, %B1 = "arith.mul"(%R0, %C0.6931471824645996, %D37) {round_mode = 0} : (memref<1x32x33x161xf32, strides: [5316, 5316, 161, 1]>, f32, none) -> (memref<1x32x33x161xf32, strides: [5316, 5316, 161, 1]>, none), %R3, %B1 = "arith.sub"(%R5.4880, %R3, %D37) {round_mode = 0} : (memref<1x32x33x161xf32, strides: [5316, 5316, 161, 1]>, memref<1x32x33x161xf32, strides: [5316, 5316, 161, 1]>, none) -> (memref<1x32x33x161xf32, strides: [5316, 5316, 161, 1]>, none), %R5.4880, %B1 = "arith.cast"(%R0, %D37) {round_mode = 1} : (memref<1x32x33x161xf32, strides: [5316, 5316, 161, 1]>, none) -> (memref<1x32x33x161xsi16, strides: [5320, 5320, 161, 1]>, none), %R0, %B1 = "arith.min"(%R5.4880, %C127, %D37) {round_mode = 0} : (memref<1x32x33x161xsi16, strides: [5320, 5320, 161, 1]>, si16, none) -> (memref<1x32x33x161xsi16, strides: [5320, 5320, 161, 1]>, none), %R5.4880, %B1 = "arith.max"(%R0, %C-127, %D37) {round_mode = 0} : (memref<1x32x33x161xsi16, strides: [5320, 5320, 161, 1]>, si16, none) -> (memref<1x32x33x161xsi16, strides: [5320, 5320, 161, 1]>, none), %R0, %B1 = "arith.add_satu"(%R5.4880, %C127, %C23, %D37) {round_mode = 1} : (memref<1x32x33x161xsi16, strides: [5320, 5320, 161, 1]>, si16, ui8, none) -> (memref<1x32x33x161xsi32, strides: [5316, 5316, 161, 1]>, none), %R5.4880, %B1 = "sfu.taylor_4x"(%R3, %R8.1568, %D37) : (memref<1x32x33x161xf32, strides: [5316, 5316, 161, 1]>, memref<1x32x1x10xf32, strides: [0, 0, 10, 1]>, none) -> (memref<1x32x33x161xf32, strides: [5316, 5316, 161, 1]>, none), %R0, %B1 = "arith.mul"(%R5.4880, %R0, %D37) {round_mode = 0} : (memref<1x32x33x161xf32, strides: [5316, 5316, 161, 1]>, memref<1x32x33x161xf32, strides: [5316, 5316, 161, 1]>, none) -> (memref<1x32x33x161xf32, strides: [5316, 5316, 161, 1]>, none), %R3, %B1 = "arith.add"(%R0, %C1.0, %D37) {round_mode = 0} : (memref<1x32x33x161xf32, strides: [5316, 5316, 161, 1]>, f32, none) -> (memref<1x32x33x161xf32, strides: [5316, 5316, 161, 1]>, none), %R0, %B1 = "arith.div"(%C1.0, %R3, %D37) {iter = 3} : (f32, memref<1x32x33x161xf32, strides: [5316, 5316, 161, 1]>, none) -> (memref<1x32x33x161xf32, strides: [5316, 5316, 161, 1]>, none), %R0, %B1 = "arith.mul"(%R0, %R12, %D37) {round_mode = 0} : (memref<1x32x33x161xf32, strides: [5316, 5316, 161, 1]>, memref<1x32x33x161xf32, strides: [5316, 5316, 161, 1]>, none) -> (memref<1x32x33x161xf32, strides: [5316, 5316, 161, 1]>, none), %R5, %B1 = "conv.normal"(%R0, %R11.608, %R15.5120, %C0.0, %D37) {kernel = [3, 3], stride = [2, 2], in_zero = [0, 0], ke_zero = [0, 0], opt_kernel_rotate = False, pad_mode = 0, pad = [0, 0, 0, 1], opt_res_add = False, do_relu = False, sym_range = False, do_rq = False, round_mode = 0} : (memref<1x32x33x161xf32, strides: [5316, 5316, 161, 1]>, memref<64x32x3x3xf32>, memref<1x64x1x1xui32, strides: [2, 1, 1, 1]>, f32, none) -> (memref<1x64x16x80xf32, strides: [2560, 1280, 80, 1]>, none), %R4.4096, %B1 = "tsbc.s_bc"(%R0, %D37) : (memref<1x32x1x10xf32, strides: [12, 12, 10, 1]>, none) -> (memref<1x32x1x10xf32, strides: [12, 12, 10, 1]>, none), %R3.2048, %B1 = "arith.sub"(%C0.0, %R5, %D37) {round_mode = 0} : (f32, memref<1x64x16x80xf32, strides: [2560, 1280, 80, 1]>, none) -> (memref<1x64x16x80xf32, strides: [2560, 1280, 80, 1]>, none), %R3.2048, %B1 = "arith.max"(%R3.2048, %C-3.4028198694267105e+35, %D37) {round_mode = 0} : (memref<1x64x16x80xf32, strides: [2560, 1280, 80, 1]>, f32, none) -> (memref<1x64x16x80xf32, strides: [2560, 1280, 80, 1]>, none), %R2, %B1 = "arith.mul"(%R3.2048, %C1.4426950216293335, %D37) {round_mode = 0} : (memref<1x64x16x80xf32, strides: [2560, 1280, 80, 1]>, f32, none) -> (memref<1x64x16x80xf32, strides: [2560, 1280, 80, 1]>, none), %R0, %B1 = "arith.cast"(%R2, %D37) {round_mode = 3} : (memref<1x64x16x80xf32, strides: [2560, 1280, 80, 1]>, none) -> (memref<1x64x16x80xf32, strides: [2560, 1280, 80, 1]>, none), %R2, %B1 = "arith.mul"(%R0, %C0.6931471824645996, %D37) {round_mode = 0} : (memref<1x64x16x80xf32, strides: [2560, 1280, 80, 1]>, f32, none) -> (memref<1x64x16x80xf32, strides: [2560, 1280, 80, 1]>, none), %R2, %B1 = "arith.sub"(%R3.2048, %R2, %D37) {round_mode = 0} : (memref<1x64x16x80xf32, strides: [2560, 1280, 80, 1]>, memref<1x64x16x80xf32, strides: [2560, 1280, 80, 1]>, none) -> (memref<1x64x16x80xf32, strides: [2560, 1280, 80, 1]>, none), %R3.2048, %B1 = "arith.cast"(%R0, %D37) {round_mode = 1} : (memref<1x64x16x80xf32, strides: [2560, 1280, 80, 1]>, none) -> (memref<1x64x16x80xsi16, strides: [2560, 1280, 80, 1]>, none), %R0, %B1 = "arith.min"(%R3.2048, %C127, %D37) {round_mode = 0} : (memref<1x64x16x80xsi16, strides: [2560, 1280, 80, 1]>, si16, none) -> (memref<1x64x16x80xsi16, strides: [2560, 1280, 80, 1]>, none), %R3.2048, %B1 = "arith.max"(%R0, %C-127, %D37) {round_mode = 0} : (memref<1x64x16x80xsi16, strides: [2560, 1280, 80, 1]>, si16, none) -> (memref<1x64x16x80xsi16, strides: [2560, 1280, 80, 1]>, none), %R0, %B1 = "arith.add_satu"(%R3.2048, %C127, %C23, %D37) {round_mode = 1} : (memref<1x64x16x80xsi16, strides: [2560, 1280, 80, 1]>, si16, ui8, none) -> (memref<1x64x16x80xsi32, strides: [2560, 1280, 80, 1]>, none), %R3.2048, %B1 = "sfu.taylor_4x"(%R2, %R4.4096, %D37) : (memref<1x64x16x80xf32, strides: [2560, 1280, 80, 1]>, memref<1x64x1x10xf32, strides: [0, 0, 10, 1]>, none) -> (memref<1x64x16x80xf32, strides: [2560, 1280, 80, 1]>, none), %R0, %B1 = "arith.mul"(%R3.2048, %R0, %D37) {round_mode = 0} : (memref<1x64x16x80xf32, strides: [2560, 1280, 80, 1]>, memref<1x64x16x80xf32, strides: [2560, 1280, 80, 1]>, none) -> (memref<1x64x16x80xf32, strides: [2560, 1280, 80, 1]>, none), %R2, %B1 = "arith.add"(%R0, %C1.0, %D37) {round_mode = 0} : (memref<1x64x16x80xf32, strides: [2560, 1280, 80, 1]>, f32, none) -> (memref<1x64x16x80xf32, strides: [2560, 1280, 80, 1]>, none), %R0, %B1 = "arith.div"(%C1.0, %R2, %D37) {iter = 3} : (f32, memref<1x64x16x80xf32, strides: [2560, 1280, 80, 1]>, none) -> (memref<1x64x16x80xf32, strides: [2560, 1280, 80, 1]>, none), %R0, %B1 = "arith.mul"(%R0, %R5, %D37) {round_mode = 0} : (memref<1x64x16x80xf32, strides: [2560, 1280, 80, 1]>, memref<1x64x16x80xf32, strides: [2560, 1280, 80, 1]>, none) -> (memref<1x64x16x80xf32, strides: [2560, 1280, 80, 1]>, none), %R3, %B1 = "conv.normal"(%R0, %R11.2912, %R14.4880, %C0.0, %D37) {kernel = [1, 1], stride = [1, 1], in_zero = [0, 0], ke_zero = [0, 0], opt_kernel_rotate = False, pad_mode = 0, pad = [0, 0, 0, 0], opt_res_add = False, do_relu = False, sym_range = False, do_rq = False, round_mode = 0} : (memref<1x64x16x80xf32, strides: [2560, 1280, 80, 1]>, memref<32x64x1x1xf32>, memref<1x32x1x1xui32, strides: [1, 1, 1, 1]>, f32, none) -> (memref<1x32x16x80xf32, strides: [1280, 1280, 80, 1]>, none), %G31040, %D0 = "dma.tensor"(%R0, %B510) : (memref<1x64x16x80xf32, strides: [2560, 1280, 80, 1]>, none) -> (memref<1x64x16x80xf32, strides: [1638400, 25600, 160, 1]>, none), %R2.2048, %B1 = "tsbc.s_bc"(%R0, %D38) : (memref<1x32x1x10xf32, strides: [12, 12, 10, 1]>, none) -> (memref<1x32x1x10xf32, strides: [12, 12, 10, 1]>, none), %R1.5120, %B1 = "arith.sub"(%C0.0, %R3, %D38) {round_mode = 0} : (f32, memref<1x32x16x80xf32, strides: [1280, 1280, 80, 1]>, none) -> (memref<1x32x16x80xf32, strides: [1280, 1280, 80, 1]>, none), %R1.5120, %B1 = "arith.max"(%R1.5120, %C-3.4028198694267105e+35, %D38) {round_mode = 0} : (memref<1x32x16x80xf32, strides: [1280, 1280, 80, 1]>, f32, none) -> (memref<1x32x16x80xf32, strides: [1280, 1280, 80, 1]>, none), %R1, %B1 = "arith.mul"(%R1.5120, %C1.4426950216293335, %D38) {round_mode = 0} : (memref<1x32x16x80xf32, strides: [1280, 1280, 80, 1]>, f32, none) -> (memref<1x32x16x80xf32, strides: [1280, 1280, 80, 1]>, none), %R0, %B1 = "arith.cast"(%R1, %D38) {round_mode = 3} : (memref<1x32x16x80xf32, strides: [1280, 1280, 80, 1]>, none) -> (memref<1x32x16x80xf32, strides: [1280, 1280, 80, 1]>, none), %R1, %B1 = "arith.mul"(%R0, %C0.6931471824645996, %D38) {round_mode = 0} : (memref<1x32x16x80xf32, strides: [1280, 1280, 80, 1]>, f32, none) -> (memref<1x32x16x80xf32, strides: [1280, 1280, 80, 1]>, none), %R1, %B1 = "arith.sub"(%R1.5120, %R1, %D38) {round_mode = 0} : (memref<1x32x16x80xf32, strides: [1280, 1280, 80, 1]>, memref<1x32x16x80xf32, strides: [1280, 1280, 80, 1]>, none) -> (memref<1x32x16x80xf32, strides: [1280, 1280, 80, 1]>, none), %R1.5120, %B1 = "arith.cast"(%R0, %D38) {round_mode = 1} : (memref<1x32x16x80xf32, strides: [1280, 1280, 80, 1]>, none) -> (memref<1x32x16x80xsi16, strides: [1280, 1280, 80, 1]>, none), %R0, %B1 = "arith.min"(%R1.5120, %C127, %D38) {round_mode = 0} : (memref<1x32x16x80xsi16, strides: [1280, 1280, 80, 1]>, si16, none) -> (memref<1x32x16x80xsi16, strides: [1280, 1280, 80, 1]>, none), %R1.5120, %B1 = "arith.max"(%R0, %C-127, %D38) {round_mode = 0} : (memref<1x32x16x80xsi16, strides: [1280, 1280, 80, 1]>, si16, none) -> (memref<1x32x16x80xsi16, strides: [1280, 1280, 80, 1]>, none), %R0, %B1 = "arith.add_satu"(%R1.5120, %C127, %C23, %D38) {round_mode = 1} : (memref<1x32x16x80xsi16, strides: [1280, 1280, 80, 1]>, si16, ui8, none) -> (memref<1x32x16x80xsi32, strides: [1280, 1280, 80, 1]>, none), %R1.5120, %B1 = "sfu.taylor_4x"(%R1, %R2.2048, %D38) : (memref<1x32x16x80xf32, strides: [1280, 1280, 80, 1]>, memref<1x32x1x10xf32, strides: [0, 0, 10, 1]>, none) -> (memref<1x32x16x80xf32, strides: [1280, 1280, 80, 1]>, none), %R0, %B1 = "arith.mul"(%R1.5120, %R0, %D38) {round_mode = 0} : (memref<1x32x16x80xf32, strides: [1280, 1280, 80, 1]>, memref<1x32x16x80xf32, strides: [1280, 1280, 80, 1]>, none) -> (memref<1x32x16x80xf32, strides: [1280, 1280, 80, 1]>, none), %R1, %B1 = "arith.add"(%R0, %C1.0, %D38) {round_mode = 0} : (memref<1x32x16x80xf32, strides: [1280, 1280, 80, 1]>, f32, none) -> (memref<1x32x16x80xf32, strides: [1280, 1280, 80, 1]>, none), %R0, %B1 = "arith.div"(%C1.0, %R1, %D38) {iter = 3} : (f32, memref<1x32x16x80xf32, strides: [1280, 1280, 80, 1]>, none) -> (memref<1x32x16x80xf32, strides: [1280, 1280, 80, 1]>, none), %R0, %B1 = "arith.mul"(%R0, %R3, %D38) {round_mode = 0} : (memref<1x32x16x80xf32, strides: [1280, 1280, 80, 1]>, memref<1x32x16x80xf32, strides: [1280, 1280, 80, 1]>, none) -> (memref<1x32x16x80xf32, strides: [1280, 1280, 80, 1]>, none), %R12, %B1 = "conv.normal"(%R0, %R11.3168, %R14.4896, %C0.0, %D38) {kernel = [1, 1], stride = [1, 1], in_zero = [0, 0], ke_zero = [0, 0], opt_kernel_rotate = False, pad_mode = 0, pad = [0, 0, 0, 0], opt_res_add = False, do_relu = False, sym_range = False, do_rq = False, round_mode = 0} : (memref<1x32x16x80xf32, strides: [1280, 1280, 80, 1]>, memref<32x32x1x1xf32>, memref<1x32x1x1xui32, strides: [1, 1, 1, 1]>, f32, none) -> (memref<1x32x16x80xf32, strides: [1280, 1280, 80, 1]>, none), %G21281088, %D0 = "dma.tensor"(%R0, %B527) : (memref<1x32x16x80xf32, strides: [1280, 1280, 80, 1]>, none) -> (memref<1x32x16x80xf32, strides: [819200, 25600, 160, 1]>, none), %R14.2048, %B1 = "tsbc.s_bc"(%R0, %D39) : (memref<1x32x1x10xf32, strides: [12, 12, 10, 1]>, none) -> (memref<1x32x1x10xf32, strides: [12, 12, 10, 1]>, none), %R13.5120, %B1 = "arith.sub"(%C0.0, %R12, %D39) {round_mode = 0} : (f32, memref<1x32x16x80xf32, strides: [1280, 1280, 80, 1]>, none) -> (memref<1x32x16x80xf32, strides: [1280, 1280, 80, 1]>, none), %R13.5120, %B1 = "arith.max"(%R13.5120, %C-3.4028198694267105e+35, %D39) {round_mode = 0} : (memref<1x32x16x80xf32, strides: [1280, 1280, 80, 1]>, f32, none) -> (memref<1x32x16x80xf32, strides: [1280, 1280, 80, 1]>, none), %R13, %B1 = "arith.mul"(%R13.5120, %C1.4426950216293335, %D39) {round_mode = 0} : (memref<1x32x16x80xf32, strides: [1280, 1280, 80, 1]>, f32, none) -> (memref<1x32x16x80xf32, strides: [1280, 1280, 80, 1]>, none), %R15, %B1 = "arith.cast"(%R13, %D39) {round_mode = 3} : (memref<1x32x16x80xf32, strides: [1280, 1280, 80, 1]>, none) -> (memref<1x32x16x80xf32, strides: [1280, 1280, 80, 1]>, none), %R13, %B1 = "arith.mul"(%R15, %C0.6931471824645996, %D39) {round_mode = 0} : (memref<1x32x16x80xf32, strides: [1280, 1280, 80, 1]>, f32, none) -> (memref<1x32x16x80xf32, strides: [1280, 1280, 80, 1]>, none), %R13, %B1 = "arith.sub"(%R13.5120, %R13, %D39) {round_mode = 0} : (memref<1x32x16x80xf32, strides: [1280, 1280, 80, 1]>, memref<1x32x16x80xf32, strides: [1280, 1280, 80, 1]>, none) -> (memref<1x32x16x80xf32, strides: [1280, 1280, 80, 1]>, none), %R13.5120, %B1 = "arith.cast"(%R15, %D39) {round_mode = 1} : (memref<1x32x16x80xf32, strides: [1280, 1280, 80, 1]>, none) -> (memref<1x32x16x80xsi16, strides: [1280, 1280, 80, 1]>, none), %R15, %B1 = "arith.min"(%R13.5120, %C127, %D39) {round_mode = 0} : (memref<1x32x16x80xsi16, strides: [1280, 1280, 80, 1]>, si16, none) -> (memref<1x32x16x80xsi16, strides: [1280, 1280, 80, 1]>, none), %R13.5120, %B1 = "arith.max"(%R15, %C-127, %D39) {round_mode = 0} : (memref<1x32x16x80xsi16, strides: [1280, 1280, 80, 1]>, si16, none) -> (memref<1x32x16x80xsi16, strides: [1280, 1280, 80, 1]>, none), %R15, %B1 = "arith.add_satu"(%R13.5120, %C127, %C23, %D39) {round_mode = 1} : (memref<1x32x16x80xsi16, strides: [1280, 1280, 80, 1]>, si16, ui8, none) -> (memref<1x32x16x80xsi32, strides: [1280, 1280, 80, 1]>, none), %R13.5120, %B1 = "sfu.taylor_4x"(%R13, %R14.2048, %D39) : (memref<1x32x16x80xf32, strides: [1280, 1280, 80, 1]>, memref<1x32x1x10xf32, strides: [0, 0, 10, 1]>, none) -> (memref<1x32x16x80xf32, strides: [1280, 1280, 80, 1]>, none), %R15, %B1 = "arith.mul"(%R13.5120, %R15, %D39) {round_mode = 0} : (memref<1x32x16x80xf32, strides: [1280, 1280, 80, 1]>, memref<1x32x16x80xf32, strides: [1280, 1280, 80, 1]>, none) -> (memref<1x32x16x80xf32, strides: [1280, 1280, 80, 1]>, none), %R13, %B1 = "arith.add"(%R15, %C1.0, %D39) {round_mode = 0} : (memref<1x32x16x80xf32, strides: [1280, 1280, 80, 1]>, f32, none) -> (memref<1x32x16x80xf32, strides: [1280, 1280, 80, 1]>, none), %R15, %B1 = "arith.div"(%C1.0, %R13, %D39) {iter = 3} : (f32, memref<1x32x16x80xf32, strides: [1280, 1280, 80, 1]>, none) -> (memref<1x32x16x80xf32, strides: [1280, 1280, 80, 1]>, none), %R15, %B1 = "arith.mul"(%R15, %R12, %D39) {round_mode = 0} : (memref<1x32x16x80xf32, strides: [1280, 1280, 80, 1]>, memref<1x32x16x80xf32, strides: [1280, 1280, 80, 1]>, none) -> (memref<1x32x16x80xf32, strides: [1280, 1280, 80, 1]>, none), %R0, %D0 = "dma.tensor"(%G13703168, %B528) : (memref<1x3x70x322xf32, strides: [1228800, 409600, 640, 1]>, none) -> (memref<1x3x70x322xf32, strides: [22540, 22540, 322, 1]>, none), %R12, %B1 = "conv.normal"(%R0, %R11.3296, %R11.3728, %C0.0, %D40) {kernel = [6, 6], stride = [2, 2], in_zero = [0, 0], ke_zero = [0, 0], opt_kernel_rotate = False, pad_mode = 0, pad = [0, 0, 2, 0], opt_res_add = False, do_relu = False, sym_range = False, do_rq = False, round_mode = 0} : (memref<1x3x70x322xf32, strides: [22540, 22540, 322, 1]>, memref<32x3x6x6xf32>, memref<1x32x1x1xui32, strides: [1, 1, 1, 1]>, f32, none) -> (memref<1x32x33x160xf32, strides: [5280, 5280, 160, 1]>, none), %G6584640, %D0 = "dma.tensor"(%R15, %B544) : (memref<1x32x16x80xf32, strides: [1280, 1280, 80, 1]>, none) -> (memref<1x32x16x80xf32, strides: [819200, 25600, 160, 1]>, none), %R8.1280, %B1 = "tsbc.s_bc"(%R0, %D41) : (memref<1x32x1x10xf32, strides: [12, 12, 10, 1]>, none) -> (memref<1x32x1x10xf32, strides: [12, 12, 10, 1]>, none), %R5.4736, %B1 = "arith.sub"(%C0.0, %R12, %D41) {round_mode = 0} : (f32, memref<1x32x33x160xf32, strides: [5280, 5280, 160, 1]>, none) -> (memref<1x32x33x160xf32, strides: [5280, 5280, 160, 1]>, none), %R5.4736, %B1 = "arith.max"(%R5.4736, %C-3.4028198694267105e+35, %D41) {round_mode = 0} : (memref<1x32x33x160xf32, strides: [5280, 5280, 160, 1]>, f32, none) -> (memref<1x32x33x160xf32, strides: [5280, 5280, 160, 1]>, none), %R3, %B1 = "arith.mul"(%R5.4736, %C1.4426950216293335, %D41) {round_mode = 0} : (memref<1x32x33x160xf32, strides: [5280, 5280, 160, 1]>, f32, none) -> (memref<1x32x33x160xf32, strides: [5280, 5280, 160, 1]>, none), %R0, %B1 = "arith.cast"(%R3, %D41) {round_mode = 3} : (memref<1x32x33x160xf32, strides: [5280, 5280, 160, 1]>, none) -> (memref<1x32x33x160xf32, strides: [5280, 5280, 160, 1]>, none), %R3, %B1 = "arith.mul"(%R0, %C0.6931471824645996, %D41) {round_mode = 0} : (memref<1x32x33x160xf32, strides: [5280, 5280, 160, 1]>, f32, none) -> (memref<1x32x33x160xf32, strides: [5280, 5280, 160, 1]>, none), %R3, %B1 = "arith.sub"(%R5.4736, %R3, %D41) {round_mode = 0} : (memref<1x32x33x160xf32, strides: [5280, 5280, 160, 1]>, memref<1x32x33x160xf32, strides: [5280, 5280, 160, 1]>, none) -> (memref<1x32x33x160xf32, strides: [5280, 5280, 160, 1]>, none), %R5.4736, %B1 = "arith.cast"(%R0, %D41) {round_mode = 1} : (memref<1x32x33x160xf32, strides: [5280, 5280, 160, 1]>, none) -> (memref<1x32x33x160xsi16, strides: [5280, 5280, 160, 1]>, none), %R0, %B1 = "arith.min"(%R5.4736, %C127, %D41) {round_mode = 0} : (memref<1x32x33x160xsi16, strides: [5280, 5280, 160, 1]>, si16, none) -> (memref<1x32x33x160xsi16, strides: [5280, 5280, 160, 1]>, none), %R5.4736, %B1 = "arith.max"(%R0, %C-127, %D41) {round_mode = 0} : (memref<1x32x33x160xsi16, strides: [5280, 5280, 160, 1]>, si16, none) -> (memref<1x32x33x160xsi16, strides: [5280, 5280, 160, 1]>, none), %R0, %B1 = "arith.add_satu"(%R5.4736, %C127, %C23, %D41) {round_mode = 1} : (memref<1x32x33x160xsi16, strides: [5280, 5280, 160, 1]>, si16, ui8, none) -> (memref<1x32x33x160xsi32, strides: [5280, 5280, 160, 1]>, none), %R5.4736, %B1 = "sfu.taylor_4x"(%R3, %R8.1280, %D41) : (memref<1x32x33x160xf32, strides: [5280, 5280, 160, 1]>, memref<1x32x1x10xf32, strides: [0, 0, 10, 1]>, none) -> (memref<1x32x33x160xf32, strides: [5280, 5280, 160, 1]>, none), %R0, %B1 = "arith.mul"(%R5.4736, %R0, %D41) {round_mode = 0} : (memref<1x32x33x160xf32, strides: [5280, 5280, 160, 1]>, memref<1x32x33x160xf32, strides: [5280, 5280, 160, 1]>, none) -> (memref<1x32x33x160xf32, strides: [5280, 5280, 160, 1]>, none), %R3, %B1 = "arith.add"(%R0, %C1.0, %D41) {round_mode = 0} : (memref<1x32x33x160xf32, strides: [5280, 5280, 160, 1]>, f32, none) -> (memref<1x32x33x160xf32, strides: [5280, 5280, 160, 1]>, none), %R0, %B1 = "arith.div"(%C1.0, %R3, %D41) {iter = 3} : (f32, memref<1x32x33x160xf32, strides: [5280, 5280, 160, 1]>, none) -> (memref<1x32x33x160xf32, strides: [5280, 5280, 160, 1]>, none), %R0, %B1 = "arith.mul"(%R0, %R12, %D41) {round_mode = 0} : (memref<1x32x33x160xf32, strides: [5280, 5280, 160, 1]>, memref<1x32x33x160xf32, strides: [5280, 5280, 160, 1]>, none) -> (memref<1x32x33x160xf32, strides: [5280, 5280, 160, 1]>, none), %R5, %B1 = "conv.normal"(%R0, %R11.608, %R15.5120, %C0.0, %D41) {kernel = [3, 3], stride = [2, 2], in_zero = [0, 0], ke_zero = [0, 0], opt_kernel_rotate = False, pad_mode = 0, pad = [0, 0, 1, 0], opt_res_add = False, do_relu = False, sym_range = False, do_rq = False, round_mode = 0} : (memref<1x32x33x160xf32, strides: [5280, 5280, 160, 1]>, memref<64x32x3x3xf32>, memref<1x64x1x1xui32, strides: [2, 1, 1, 1]>, f32, none) -> (memref<1x64x16x80xf32, strides: [2560, 1280, 80, 1]>, none), %R4.4096, %B1 = "tsbc.s_bc"(%R0, %D41) : (memref<1x32x1x10xf32, strides: [12, 12, 10, 1]>, none) -> (memref<1x32x1x10xf32, strides: [12, 12, 10, 1]>, none), %R3.2048, %B1 = "arith.sub"(%C0.0, %R5, %D41) {round_mode = 0} : (f32, memref<1x64x16x80xf32, strides: [2560, 1280, 80, 1]>, none) -> (memref<1x64x16x80xf32, strides: [2560, 1280, 80, 1]>, none), %R3.2048, %B1 = "arith.max"(%R3.2048, %C-3.4028198694267105e+35, %D41) {round_mode = 0} : (memref<1x64x16x80xf32, strides: [2560, 1280, 80, 1]>, f32, none) -> (memref<1x64x16x80xf32, strides: [2560, 1280, 80, 1]>, none), %R2, %B1 = "arith.mul"(%R3.2048, %C1.4426950216293335, %D41) {round_mode = 0} : (memref<1x64x16x80xf32, strides: [2560, 1280, 80, 1]>, f32, none) -> (memref<1x64x16x80xf32, strides: [2560, 1280, 80, 1]>, none), %R0, %B1 = "arith.cast"(%R2, %D41) {round_mode = 3} : (memref<1x64x16x80xf32, strides: [2560, 1280, 80, 1]>, none) -> (memref<1x64x16x80xf32, strides: [2560, 1280, 80, 1]>, none), %R2, %B1 = "arith.mul"(%R0, %C0.6931471824645996, %D41) {round_mode = 0} : (memref<1x64x16x80xf32, strides: [2560, 1280, 80, 1]>, f32, none) -> (memref<1x64x16x80xf32, strides: [2560, 1280, 80, 1]>, none), %R2, %B1 = "arith.sub"(%R3.2048, %R2, %D41) {round_mode = 0} : (memref<1x64x16x80xf32, strides: [2560, 1280, 80, 1]>, memref<1x64x16x80xf32, strides: [2560, 1280, 80, 1]>, none) -> (memref<1x64x16x80xf32, strides: [2560, 1280, 80, 1]>, none), %R3.2048, %B1 = "arith.cast"(%R0, %D41) {round_mode = 1} : (memref<1x64x16x80xf32, strides: [2560, 1280, 80, 1]>, none) -> (memref<1x64x16x80xsi16, strides: [2560, 1280, 80, 1]>, none), %R0, %B1 = "arith.min"(%R3.2048, %C127, %D41) {round_mode = 0} : (memref<1x64x16x80xsi16, strides: [2560, 1280, 80, 1]>, si16, none) -> (memref<1x64x16x80xsi16, strides: [2560, 1280, 80, 1]>, none), %R3.2048, %B1 = "arith.max"(%R0, %C-127, %D41) {round_mode = 0} : (memref<1x64x16x80xsi16, strides: [2560, 1280, 80, 1]>, si16, none) -> (memref<1x64x16x80xsi16, strides: [2560, 1280, 80, 1]>, none), %R0, %B1 = "arith.add_satu"(%R3.2048, %C127, %C23, %D41) {round_mode = 1} : (memref<1x64x16x80xsi16, strides: [2560, 1280, 80, 1]>, si16, ui8, none) -> (memref<1x64x16x80xsi32, strides: [2560, 1280, 80, 1]>, none), %R3.2048, %B1 = "sfu.taylor_4x"(%R2, %R4.4096, %D41) : (memref<1x64x16x80xf32, strides: [2560, 1280, 80, 1]>, memref<1x64x1x10xf32, strides: [0, 0, 10, 1]>, none) -> (memref<1x64x16x80xf32, strides: [2560, 1280, 80, 1]>, none), %R0, %B1 = "arith.mul"(%R3.2048, %R0, %D41) {round_mode = 0} : (memref<1x64x16x80xf32, strides: [2560, 1280, 80, 1]>, memref<1x64x16x80xf32, strides: [2560, 1280, 80, 1]>, none) -> (memref<1x64x16x80xf32, strides: [2560, 1280, 80, 1]>, none), %R2, %B1 = "arith.add"(%R0, %C1.0, %D41) {round_mode = 0} : (memref<1x64x16x80xf32, strides: [2560, 1280, 80, 1]>, f32, none) -> (memref<1x64x16x80xf32, strides: [2560, 1280, 80, 1]>, none), %R0, %B1 = "arith.div"(%C1.0, %R2, %D41) {iter = 3} : (f32, memref<1x64x16x80xf32, strides: [2560, 1280, 80, 1]>, none) -> (memref<1x64x16x80xf32, strides: [2560, 1280, 80, 1]>, none), %R0, %B1 = "arith.mul"(%R0, %R5, %D41) {round_mode = 0} : (memref<1x64x16x80xf32, strides: [2560, 1280, 80, 1]>, memref<1x64x16x80xf32, strides: [2560, 1280, 80, 1]>, none) -> (memref<1x64x16x80xf32, strides: [2560, 1280, 80, 1]>, none), %R3, %B1 = "conv.normal"(%R0, %R11.2912, %R14.4880, %C0.0, %D41) {kernel = [1, 1], stride = [1, 1], in_zero = [0, 0], ke_zero = [0, 0], opt_kernel_rotate = False, pad_mode = 0, pad = [0, 0, 0, 0], opt_res_add = False, do_relu = False, sym_range = False, do_rq = False, round_mode = 0} : (memref<1x64x16x80xf32, strides: [2560, 1280, 80, 1]>, memref<32x64x1x1xf32>, memref<1x32x1x1xui32, strides: [1, 1, 1, 1]>, f32, none) -> (memref<1x32x16x80xf32, strides: [1280, 1280, 80, 1]>, none), %G40960, %D0 = "dma.tensor"(%R0, %B578) : (memref<1x64x16x80xf32, strides: [2560, 1280, 80, 1]>, none) -> (memref<1x64x16x80xf32, strides: [1638400, 25600, 160, 1]>, none), %R2.2048, %B1 = "tsbc.s_bc"(%R0, %D42) : (memref<1x32x1x10xf32, strides: [12, 12, 10, 1]>, none) -> (memref<1x32x1x10xf32, strides: [12, 12, 10, 1]>, none), %R1.5120, %B1 = "arith.sub"(%C0.0, %R3, %D42) {round_mode = 0} : (f32, memref<1x32x16x80xf32, strides: [1280, 1280, 80, 1]>, none) -> (memref<1x32x16x80xf32, strides: [1280, 1280, 80, 1]>, none), %R1.5120, %B1 = "arith.max"(%R1.5120, %C-3.4028198694267105e+35, %D42) {round_mode = 0} : (memref<1x32x16x80xf32, strides: [1280, 1280, 80, 1]>, f32, none) -> (memref<1x32x16x80xf32, strides: [1280, 1280, 80, 1]>, none), %R1, %B1 = "arith.mul"(%R1.5120, %C1.4426950216293335, %D42) {round_mode = 0} : (memref<1x32x16x80xf32, strides: [1280, 1280, 80, 1]>, f32, none) -> (memref<1x32x16x80xf32, strides: [1280, 1280, 80, 1]>, none), %R0, %B1 = "arith.cast"(%R1, %D42) {round_mode = 3} : (memref<1x32x16x80xf32, strides: [1280, 1280, 80, 1]>, none) -> (memref<1x32x16x80xf32, strides: [1280, 1280, 80, 1]>, none), %R1, %B1 = "arith.mul"(%R0, %C0.6931471824645996, %D42) {round_mode = 0} : (memref<1x32x16x80xf32, strides: [1280, 1280, 80, 1]>, f32, none) -> (memref<1x32x16x80xf32, strides: [1280, 1280, 80, 1]>, none), %R1, %B1 = "arith.sub"(%R1.5120, %R1, %D42) {round_mode = 0} : (memref<1x32x16x80xf32, strides: [1280, 1280, 80, 1]>, memref<1x32x16x80xf32, strides: [1280, 1280, 80, 1]>, none) -> (memref<1x32x16x80xf32, strides: [1280, 1280, 80, 1]>, none), %R1.5120, %B1 = "arith.cast"(%R0, %D42) {round_mode = 1} : (memref<1x32x16x80xf32, strides: [1280, 1280, 80, 1]>, none) -> (memref<1x32x16x80xsi16, strides: [1280, 1280, 80, 1]>, none), %R0, %B1 = "arith.min"(%R1.5120, %C127, %D42) {round_mode = 0} : (memref<1x32x16x80xsi16, strides: [1280, 1280, 80, 1]>, si16, none) -> (memref<1x32x16x80xsi16, strides: [1280, 1280, 80, 1]>, none), %R1.5120, %B1 = "arith.max"(%R0, %C-127, %D42) {round_mode = 0} : (memref<1x32x16x80xsi16, strides: [1280, 1280, 80, 1]>, si16, none) -> (memref<1x32x16x80xsi16, strides: [1280, 1280, 80, 1]>, none), %R0, %B1 = "arith.add_satu"(%R1.5120, %C127, %C23, %D42) {round_mode = 1} : (memref<1x32x16x80xsi16, strides: [1280, 1280, 80, 1]>, si16, ui8, none) -> (memref<1x32x16x80xsi32, strides: [1280, 1280, 80, 1]>, none), %R1.5120, %B1 = "sfu.taylor_4x"(%R1, %R2.2048, %D42) : (memref<1x32x16x80xf32, strides: [1280, 1280, 80, 1]>, memref<1x32x1x10xf32, strides: [0, 0, 10, 1]>, none) -> (memref<1x32x16x80xf32, strides: [1280, 1280, 80, 1]>, none), %R0, %B1 = "arith.mul"(%R1.5120, %R0, %D42) {round_mode = 0} : (memref<1x32x16x80xf32, strides: [1280, 1280, 80, 1]>, memref<1x32x16x80xf32, strides: [1280, 1280, 80, 1]>, none) -> (memref<1x32x16x80xf32, strides: [1280, 1280, 80, 1]>, none), %R1, %B1 = "arith.add"(%R0, %C1.0, %D42) {round_mode = 0} : (memref<1x32x16x80xf32, strides: [1280, 1280, 80, 1]>, f32, none) -> (memref<1x32x16x80xf32, strides: [1280, 1280, 80, 1]>, none), %R0, %B1 = "arith.div"(%C1.0, %R1, %D42) {iter = 3} : (f32, memref<1x32x16x80xf32, strides: [1280, 1280, 80, 1]>, none) -> (memref<1x32x16x80xf32, strides: [1280, 1280, 80, 1]>, none), %R0, %B1 = "arith.mul"(%R0, %R3, %D42) {round_mode = 0} : (memref<1x32x16x80xf32, strides: [1280, 1280, 80, 1]>, memref<1x32x16x80xf32, strides: [1280, 1280, 80, 1]>, none) -> (memref<1x32x16x80xf32, strides: [1280, 1280, 80, 1]>, none), %R12, %B1 = "conv.normal"(%R0, %R11.3168, %R14.4896, %C0.0, %D42) {kernel = [1, 1], stride = [1, 1], in_zero = [0, 0], ke_zero = [0, 0], opt_kernel_rotate = False, pad_mode = 0, pad = [0, 0, 0, 0], opt_res_add = False, do_relu = False, sym_range = False, do_rq = False, round_mode = 0} : (memref<1x32x16x80xf32, strides: [1280, 1280, 80, 1]>, memref<32x32x1x1xf32>, memref<1x32x1x1xui32, strides: [1, 1, 1, 1]>, f32, none) -> (memref<1x32x16x80xf32, strides: [1280, 1280, 80, 1]>, none), %G21291008, %D0 = "dma.tensor"(%R0, %B595) : (memref<1x32x16x80xf32, strides: [1280, 1280, 80, 1]>, none) -> (memref<1x32x16x80xf32, strides: [819200, 25600, 160, 1]>, none), %R14.2048, %B1 = "tsbc.s_bc"(%R0, %D43) : (memref<1x32x1x10xf32, strides: [12, 12, 10, 1]>, none) -> (memref<1x32x1x10xf32, strides: [12, 12, 10, 1]>, none), %R13.5120, %B1 = "arith.sub"(%C0.0, %R12, %D43) {round_mode = 0} : (f32, memref<1x32x16x80xf32, strides: [1280, 1280, 80, 1]>, none) -> (memref<1x32x16x80xf32, strides: [1280, 1280, 80, 1]>, none), %R13.5120, %B1 = "arith.max"(%R13.5120, %C-3.4028198694267105e+35, %D43) {round_mode = 0} : (memref<1x32x16x80xf32, strides: [1280, 1280, 80, 1]>, f32, none) -> (memref<1x32x16x80xf32, strides: [1280, 1280, 80, 1]>, none), %R13, %B1 = "arith.mul"(%R13.5120, %C1.4426950216293335, %D43) {round_mode = 0} : (memref<1x32x16x80xf32, strides: [1280, 1280, 80, 1]>, f32, none) -> (memref<1x32x16x80xf32, strides: [1280, 1280, 80, 1]>, none), %R15, %B1 = "arith.cast"(%R13, %D43) {round_mode = 3} : (memref<1x32x16x80xf32, strides: [1280, 1280, 80, 1]>, none) -> (memref<1x32x16x80xf32, strides: [1280, 1280, 80, 1]>, none), %R13, %B1 = "arith.mul"(%R15, %C0.6931471824645996, %D43) {round_mode = 0} : (memref<1x32x16x80xf32, strides: [1280, 1280, 80, 1]>, f32, none) -> (memref<1x32x16x80xf32, strides: [1280, 1280, 80, 1]>, none), %R13, %B1 = "arith.sub"(%R13.5120, %R13, %D43) {round_mode = 0} : (memref<1x32x16x80xf32, strides: [1280, 1280, 80, 1]>, memref<1x32x16x80xf32, strides: [1280, 1280, 80, 1]>, none) -> (memref<1x32x16x80xf32, strides: [1280, 1280, 80, 1]>, none), %R13.5120, %B1 = "arith.cast"(%R15, %D43) {round_mode = 1} : (memref<1x32x16x80xf32, strides: [1280, 1280, 80, 1]>, none) -> (memref<1x32x16x80xsi16, strides: [1280, 1280, 80, 1]>, none), %R15, %B1 = "arith.min"(%R13.5120, %C127, %D43) {round_mode = 0} : (memref<1x32x16x80xsi16, strides: [1280, 1280, 80, 1]>, si16, none) -> (memref<1x32x16x80xsi16, strides: [1280, 1280, 80, 1]>, none), %R13.5120, %B1 = "arith.max"(%R15, %C-127, %D43) {round_mode = 0} : (memref<1x32x16x80xsi16, strides: [1280, 1280, 80, 1]>, si16, none) -> (memref<1x32x16x80xsi16, strides: [1280, 1280, 80, 1]>, none), %R15, %B1 = "arith.add_satu"(%R13.5120, %C127, %C23, %D43) {round_mode = 1} : (memref<1x32x16x80xsi16, strides: [1280, 1280, 80, 1]>, si16, ui8, none) -> (memref<1x32x16x80xsi32, strides: [1280, 1280, 80, 1]>, none), %R13.5120, %B1 = "sfu.taylor_4x"(%R13, %R14.2048, %D43) : (memref<1x32x16x80xf32, strides: [1280, 1280, 80, 1]>, memref<1x32x1x10xf32, strides: [0, 0, 10, 1]>, none) -> (memref<1x32x16x80xf32, strides: [1280, 1280, 80, 1]>, none), %R15, %B1 = "arith.mul"(%R13.5120, %R15, %D43) {round_mode = 0} : (memref<1x32x16x80xf32, strides: [1280, 1280, 80, 1]>, memref<1x32x16x80xf32, strides: [1280, 1280, 80, 1]>, none) -> (memref<1x32x16x80xf32, strides: [1280, 1280, 80, 1]>, none), %R13, %B1 = "arith.add"(%R15, %C1.0, %D43) {round_mode = 0} : (memref<1x32x16x80xf32, strides: [1280, 1280, 80, 1]>, f32, none) -> (memref<1x32x16x80xf32, strides: [1280, 1280, 80, 1]>, none), %R15, %B1 = "arith.div"(%C1.0, %R13, %D43) {iter = 3} : (f32, memref<1x32x16x80xf32, strides: [1280, 1280, 80, 1]>, none) -> (memref<1x32x16x80xf32, strides: [1280, 1280, 80, 1]>, none), %R15, %B1 = "arith.mul"(%R15, %R12, %D43) {round_mode = 0} : (memref<1x32x16x80xf32, strides: [1280, 1280, 80, 1]>, memref<1x32x16x80xf32, strides: [1280, 1280, 80, 1]>, none) -> (memref<1x32x16x80xf32, strides: [1280, 1280, 80, 1]>, none), %R0, %D0 = "dma.tensor"(%G13704432, %B596) : (memref<1x3x70x324xf32, strides: [1228800, 409600, 640, 1]>, none) -> (memref<1x3x70x324xf32, strides: [22680, 22680, 324, 1]>, none), %R12, %B1 = "conv.normal"(%R0, %R11.3296, %R11.3728, %C0.0, %D44) {kernel = [6, 6], stride = [2, 2], in_zero = [0, 0], ke_zero = [0, 0], opt_kernel_rotate = False, pad_mode = 0, pad = [0, 0, 0, 2], opt_res_add = False, do_relu = False, sym_range = False, do_rq = False, round_mode = 0} : (memref<1x3x70x324xf32, strides: [22680, 22680, 324, 1]>, memref<32x3x6x6xf32>, memref<1x32x1x1xui32, strides: [1, 1, 1, 1]>, f32, none) -> (memref<1x32x33x161xf32, strides: [5316, 5316, 161, 1]>, none), %G6594560, %D0 = "dma.tensor"(%R15, %B612) : (memref<1x32x16x80xf32, strides: [1280, 1280, 80, 1]>, none) -> (memref<1x32x16x80xf32, strides: [819200, 25600, 160, 1]>, none), %R8.1568, %B1 = "tsbc.s_bc"(%R0, %D45) : (memref<1x32x1x10xf32, strides: [12, 12, 10, 1]>, none) -> (memref<1x32x1x10xf32, strides: [12, 12, 10, 1]>, none), %R5.4880, %B1 = "arith.sub"(%C0.0, %R12, %D45) {round_mode = 0} : (f32, memref<1x32x33x161xf32, strides: [5316, 5316, 161, 1]>, none) -> (memref<1x32x33x161xf32, strides: [5316, 5316, 161, 1]>, none), %R5.4880, %B1 = "arith.max"(%R5.4880, %C-3.4028198694267105e+35, %D45) {round_mode = 0} : (memref<1x32x33x161xf32, strides: [5316, 5316, 161, 1]>, f32, none) -> (memref<1x32x33x161xf32, strides: [5316, 5316, 161, 1]>, none), %R3, %B1 = "arith.mul"(%R5.4880, %C1.4426950216293335, %D45) {round_mode = 0} : (memref<1x32x33x161xf32, strides: [5316, 5316, 161, 1]>, f32, none) -> (memref<1x32x33x161xf32, strides: [5316, 5316, 161, 1]>, none), %R0, %B1 = "arith.cast"(%R3, %D45) {round_mode = 3} : (memref<1x32x33x161xf32, strides: [5316, 5316, 161, 1]>, none) -> (memref<1x32x33x161xf32, strides: [5316, 5316, 161, 1]>, none), %R3, %B1 = "arith.mul"(%R0, %C0.6931471824645996, %D45) {round_mode = 0} : (memref<1x32x33x161xf32, strides: [5316, 5316, 161, 1]>, f32, none) -> (memref<1x32x33x161xf32, strides: [5316, 5316, 161, 1]>, none), %R3, %B1 = "arith.sub"(%R5.4880, %R3, %D45) {round_mode = 0} : (memref<1x32x33x161xf32, strides: [5316, 5316, 161, 1]>, memref<1x32x33x161xf32, strides: [5316, 5316, 161, 1]>, none) -> (memref<1x32x33x161xf32, strides: [5316, 5316, 161, 1]>, none), %R5.4880, %B1 = "arith.cast"(%R0, %D45) {round_mode = 1} : (memref<1x32x33x161xf32, strides: [5316, 5316, 161, 1]>, none) -> (memref<1x32x33x161xsi16, strides: [5320, 5320, 161, 1]>, none), %R0, %B1 = "arith.min"(%R5.4880, %C127, %D45) {round_mode = 0} : (memref<1x32x33x161xsi16, strides: [5320, 5320, 161, 1]>, si16, none) -> (memref<1x32x33x161xsi16, strides: [5320, 5320, 161, 1]>, none), %R5.4880, %B1 = "arith.max"(%R0, %C-127, %D45) {round_mode = 0} : (memref<1x32x33x161xsi16, strides: [5320, 5320, 161, 1]>, si16, none) -> (memref<1x32x33x161xsi16, strides: [5320, 5320, 161, 1]>, none), %R0, %B1 = "arith.add_satu"(%R5.4880, %C127, %C23, %D45) {round_mode = 1} : (memref<1x32x33x161xsi16, strides: [5320, 5320, 161, 1]>, si16, ui8, none) -> (memref<1x32x33x161xsi32, strides: [5316, 5316, 161, 1]>, none), %R5.4880, %B1 = "sfu.taylor_4x"(%R3, %R8.1568, %D45) : (memref<1x32x33x161xf32, strides: [5316, 5316, 161, 1]>, memref<1x32x1x10xf32, strides: [0, 0, 10, 1]>, none) -> (memref<1x32x33x161xf32, strides: [5316, 5316, 161, 1]>, none), %R0, %B1 = "arith.mul"(%R5.4880, %R0, %D45) {round_mode = 0} : (memref<1x32x33x161xf32, strides: [5316, 5316, 161, 1]>, memref<1x32x33x161xf32, strides: [5316, 5316, 161, 1]>, none) -> (memref<1x32x33x161xf32, strides: [5316, 5316, 161, 1]>, none), %R3, %B1 = "arith.add"(%R0, %C1.0, %D45) {round_mode = 0} : (memref<1x32x33x161xf32, strides: [5316, 5316, 161, 1]>, f32, none) -> (memref<1x32x33x161xf32, strides: [5316, 5316, 161, 1]>, none), %R0, %B1 = "arith.div"(%C1.0, %R3, %D45) {iter = 3} : (f32, memref<1x32x33x161xf32, strides: [5316, 5316, 161, 1]>, none) -> (memref<1x32x33x161xf32, strides: [5316, 5316, 161, 1]>, none), %R0, %B1 = "arith.mul"(%R0, %R12, %D45) {round_mode = 0} : (memref<1x32x33x161xf32, strides: [5316, 5316, 161, 1]>, memref<1x32x33x161xf32, strides: [5316, 5316, 161, 1]>, none) -> (memref<1x32x33x161xf32, strides: [5316, 5316, 161, 1]>, none), %R5, %B1 = "conv.normal"(%R0, %R11.608, %R15.5120, %C0.0, %D45) {kernel = [3, 3], stride = [2, 2], in_zero = [0, 0], ke_zero = [0, 0], opt_kernel_rotate = False, pad_mode = 0, pad = [0, 0, 0, 1], opt_res_add = False, do_relu = False, sym_range = False, do_rq = False, round_mode = 0} : (memref<1x32x33x161xf32, strides: [5316, 5316, 161, 1]>, memref<64x32x3x3xf32>, memref<1x64x1x1xui32, strides: [2, 1, 1, 1]>, f32, none) -> (memref<1x64x16x80xf32, strides: [2560, 1280, 80, 1]>, none), %R4.4096, %B1 = "tsbc.s_bc"(%R0, %D45) : (memref<1x32x1x10xf32, strides: [12, 12, 10, 1]>, none) -> (memref<1x32x1x10xf32, strides: [12, 12, 10, 1]>, none), %R3.2048, %B1 = "arith.sub"(%C0.0, %R5, %D45) {round_mode = 0} : (f32, memref<1x64x16x80xf32, strides: [2560, 1280, 80, 1]>, none) -> (memref<1x64x16x80xf32, strides: [2560, 1280, 80, 1]>, none), %R3.2048, %B1 = "arith.max"(%R3.2048, %C-3.4028198694267105e+35, %D45) {round_mode = 0} : (memref<1x64x16x80xf32, strides: [2560, 1280, 80, 1]>, f32, none) -> (memref<1x64x16x80xf32, strides: [2560, 1280, 80, 1]>, none), %R2, %B1 = "arith.mul"(%R3.2048, %C1.4426950216293335, %D45) {round_mode = 0} : (…
931471824645996, %D533) {round_mode = 0} : (memref<1x256x2x20xf32, strides: [320, 40, 20, 1]>, f32, none) -> (memref<1x256x2x20xf32, strides: [320, 40, 20, 1]>, none), %R12, %B1 = "arith.sub"(%R12.1280, %R12, %D533) {round_mode = 0} : (memref<1x256x2x20xf32, strides: [320, 40, 20, 1]>, memref<1x256x2x20xf32, strides: [320, 40, 20, 1]>, none) -> (memref<1x256x2x20xf32, strides: [320, 40, 20, 1]>, none), %R12.1280, %B1 = "arith.cast"(%R10.2048, %D533) {round_mode = 1} : (memref<1x256x2x20xf32, strides: [320, 40, 20, 1]>, none) -> (memref<1x256x2x20xsi16, strides: [320, 40, 20, 1]>, none), %R10.2048, %B1 = "arith.min"(%R12.1280, %C127, %D533) {round_mode = 0} : (memref<1x256x2x20xsi16, strides: [320, 40, 20, 1]>, si16, none) -> (memref<1x256x2x20xsi16, strides: [320, 40, 20, 1]>, none), %R12.1280, %B1 = "arith.max"(%R10.2048, %C-127, %D533) {round_mode = 0} : (memref<1x256x2x20xsi16, strides: [320, 40, 20, 1]>, si16, none) -> (memref<1x256x2x20xsi16, strides: [320, 40, 20, 1]>, none), %R10.2048, %B1 = "arith.add_satu"(%R12.1280, %C127, %C23, %D533) {round_mode = 1} : (memref<1x256x2x20xsi16, strides: [320, 40, 20, 1]>, si16, ui8, none) -> (memref<1x256x2x20xsi32, strides: [320, 40, 20, 1]>, none), %R12.1280, %B1 = "sfu.taylor_4x"(%R12, %R12.2560, %D533) : (memref<1x256x2x20xf32, strides: [320, 40, 20, 1]>, memref<1x64x1x10xf32, strides: [0, 0, 10, 1]>, none) -> (memref<1x256x2x20xf32, strides: [320, 40, 20, 1]>, none), %R10.2048, %B1 = "arith.mul"(%R12.1280, %R10.2048, %D533) {round_mode = 0} : (memref<1x256x2x20xf32, strides: [320, 40, 20, 1]>, memref<1x256x2x20xf32, strides: [320, 40, 20, 1]>, none) -> (memref<1x256x2x20xf32, strides: [320, 40, 20, 1]>, none), %R12, %B1 = "arith.add"(%R10.2048, %C1.0, %D533) {round_mode = 0} : (memref<1x256x2x20xf32, strides: [320, 40, 20, 1]>, f32, none) -> (memref<1x256x2x20xf32, strides: [320, 40, 20, 1]>, none), %R10.2048, %B1 = "arith.div"(%C1.0, %R12, %D533) {iter = 3} : (f32, memref<1x256x2x20xf32, strides: [320, 40, 20, 1]>, none) -> (memref<1x256x2x20xf32, strides: [320, 40, 20, 1]>, none), %R10.2048, %B1 = "arith.mul"(%R10.2048, %R10.3328, %D533) {round_mode = 0} : (memref<1x256x2x20xf32, strides: [320, 40, 20, 1]>, memref<1x256x2x20xf32, strides: [320, 40, 20, 1]>, none) -> (memref<1x256x2x20xf32, strides: [320, 40, 20, 1]>, none), %R11, %D0 = "dma.tensor"(%G23708928, %B4719) : (memref<1x256x2x20xf32, strides: [102400, 400, 20, 1]>, none) -> (memref<1x256x2x20xf32, strides: [320, 40, 20, 1]>, none), %R10.3328, %B1 = "arith.copy"(%R10.2048, %D534) {round_mode = 0} : (memref<1x256x2x20xf32, strides: [320, 40, 20, 1]>, none) -> (memref<1x256x2x20xf32, strides: [640, 40, 20, 1]>, none), %R10.4608, %B1 = "arith.copy"(%R11, %D534) {round_mode = 0} : (memref<1x256x2x20xf32, strides: [320, 40, 20, 1]>, none) -> (memref<1x256x2x20xf32, strides: [640, 40, 20, 1]>, none), %R11, %B1 = "conv.normal"(%R9, %R14, %R10.5888, %C0.0, %D534) {kernel = [1, 1], stride = [1, 1], in_zero = [0, 0], ke_zero = [0, 0], opt_kernel_rotate = False, pad_mode = 0, pad = [0, 0, 0, 0], opt_res_add = False, do_relu = False, sym_range = False, do_rq = False, round_mode = 0} : (memref<1x128x8x80xf32, strides: [2560, 640, 80, 1]>, memref<255x128x1x1xf32>, memref<1x255x1x1xui32, strides: [8, 1, 1, 1]>, f32, none) -> (memref<1x255x8x80xf32, strides: [5120, 640, 80, 1]>, none), %G22889728, %D0 = "dma.tensor"(%R10.3328, %B4737) : (memref<1x512x2x20xf32, strides: [640, 40, 20, 1]>, none) -> (memref<1x512x2x20xf32, strides: [204800, 400, 20, 1]>, none), %R15, %D0 = "dma.tensor"(%G21255648, %B4737) : (memref<1x256x5x40xf32, strides: [409600, 1600, 40, 1]>, none) -> (memref<1x256x5x40xf32, strides: [1600, 200, 40, 1]>, none), %R10.3328, %B1 = "conv.normal"(%R15, %R0, %R10.5920, %C0.0, %D536) {kernel = [3, 3], stride = [2, 2], in_zero = [0, 0], ke_zero = [0, 0], opt_kernel_rotate = False, pad_mode = 0, pad = [0, 1, 1, 1], opt_res_add = False, do_relu = False, sym_range = False, do_rq = False, round_mode = 0} : (memref<1x256x5x40xf32, strides: [1600, 200, 40, 1]>, memref<256x256x3x3xf32>, memref<1x256x1x1xui32, strides: [8, 1, 1, 1]>, f32, none) -> (memref<1x256x2x20xf32, strides: [320, 40, 20, 1]>, none), %G6549504, %D0 = "dma.tensor"(%R11, %B4738) : (memref<1x255x8x80xf32, strides: [5120, 640, 80, 1]>, none) -> (memref<1x255x8x80xf32, strides: [1632000, 6400, 80, 1]>, none), %R9, %D0 = "dma.tensor"(%G17996288, %B4738) : (memref<1x128x8x80xf32, strides: [819200, 6400, 80, 1]>, none) -> (memref<1x128x8x80xf32, strides: [2560, 640, 80, 1]>, none), %R12.2560, %B1 = "tsbc.s_bc"(%R0, %D538) : (memref<1x32x1x10xf32, strides: [12, 12, 10, 1]>, none) -> (memref<1x32x1x10xf32, strides: [12, 12, 10, 1]>, none), %R12.1280, %B1 = "arith.sub"(%C0.0, %R10.3328, %D538) {round_mode = 0} : (f32, memref<1x256x2x20xf32, strides: [320, 40, 20, 1]>, none) -> (memref<1x256x2x20xf32, strides: [320, 40, 20, 1]>, none), %R12.1280, %B1 = "arith.max"(%R12.1280, %C-3.4028198694267105e+35, %D538) {round_mode = 0} : (memref<1x256x2x20xf32, strides: [320, 40, 20, 1]>, f32, none) -> (memref<1x256x2x20xf32, strides: [320, 40, 20, 1]>, none), %R12, %B1 = "arith.mul"(%R12.1280, %C1.4426950216293335, %D538) {round_mode = 0} : (memref<1x256x2x20xf32, strides: [320, 40, 20, 1]>, f32, none) -> (memref<1x256x2x20xf32, strides: [320, 40, 20, 1]>, none), %R10.2048, %B1 = "arith.cast"(%R12, %D538) {round_mode = 3} : (memref<1x256x2x20xf32, strides: [320, 40, 20, 1]>, none) -> (memref<1x256x2x20xf32, strides: [320, 40, 20, 1]>, none), %R12, %B1 = "arith.mul"(%R10.2048, %C0.6931471824645996, %D538) {round_mode = 0} : (memref<1x256x2x20xf32, strides: [320, 40, 20, 1]>, f32, none) -> (memref<1x256x2x20xf32, strides: [320, 40, 20, 1]>, none), %R12, %B1 = "arith.sub"(%R12.1280, %R12, %D538) {round_mode = 0} : (memref<1x256x2x20xf32, strides: [320, 40, 20, 1]>, memref<1x256x2x20xf32, strides: [320, 40, 20, 1]>, none) -> (memref<1x256x2x20xf32, strides: [320, 40, 20, 1]>, none), %R12.1280, %B1 = "arith.cast"(%R10.2048, %D538) {round_mode = 1} : (memref<1x256x2x20xf32, strides: [320, 40, 20, 1]>, none) -> (memref<1x256x2x20xsi16, strides: [320, 40, 20, 1]>, none), %R10.2048, %B1 = "arith.min"(%R12.1280, %C127, %D538) {round_mode = 0} : (memref<1x256x2x20xsi16, strides: [320, 40, 20, 1]>, si16, none) -> (memref<1x256x2x20xsi16, strides: [320, 40, 20, 1]>, none), %R12.1280, %B1 = "arith.max"(%R10.2048, %C-127, %D538) {round_mode = 0} : (memref<1x256x2x20xsi16, strides: [320, 40, 20, 1]>, si16, none) -> (memref<1x256x2x20xsi16, strides: [320, 40, 20, 1]>, none), %R10.2048, %B1 = "arith.add_satu"(%R12.1280, %C127, %C23, %D538) {round_mode = 1} : (memref<1x256x2x20xsi16, strides: [320, 40, 20, 1]>, si16, ui8, none) -> (memref<1x256x2x20xsi32, strides: [320, 40, 20, 1]>, none), %R12.1280, %B1 = "sfu.taylor_4x"(%R12, %R12.2560, %D538) : (memref<1x256x2x20xf32, strides: [320, 40, 20, 1]>, memref<1x64x1x10xf32, strides: [0, 0, 10, 1]>, none) -> (memref<1x256x2x20xf32, strides: [320, 40, 20, 1]>, none), %R10.2048, %B1 = "arith.mul"(%R12.1280, %R10.2048, %D538) {round_mode = 0} : (memref<1x256x2x20xf32, strides: [320, 40, 20, 1]>, memref<1x256x2x20xf32, strides: [320, 40, 20, 1]>, none) -> (memref<1x256x2x20xf32, strides: [320, 40, 20, 1]>, none), %R12, %B1 = "arith.add"(%R10.2048, %C1.0, %D538) {round_mode = 0} : (memref<1x256x2x20xf32, strides: [320, 40, 20, 1]>, f32, none) -> (memref<1x256x2x20xf32, strides: [320, 40, 20, 1]>, none), %R10.2048, %B1 = "arith.div"(%C1.0, %R12, %D538) {iter = 3} : (f32, memref<1x256x2x20xf32, strides: [320, 40, 20, 1]>, none) -> (memref<1x256x2x20xf32, strides: [320, 40, 20, 1]>, none), %R10.2048, %B1 = "arith.mul"(%R10.2048, %R10.3328, %D538) {round_mode = 0} : (memref<1x256x2x20xf32, strides: [320, 40, 20, 1]>, memref<1x256x2x20xf32, strides: [320, 40, 20, 1]>, none) -> (memref<1x256x2x20xf32, strides: [320, 40, 20, 1]>, none), %R11, %D0 = "dma.tensor"(%G23709088, %B4739) : (memref<1x256x2x20xf32, strides: [102400, 400, 20, 1]>, none) -> (memref<1x256x2x20xf32, strides: [320, 40, 20, 1]>, none), %R10.3328, %B1 = "arith.copy"(%R10.2048, %D539) {round_mode = 0} : (memref<1x256x2x20xf32, strides: [320, 40, 20, 1]>, none) -> (memref<1x256x2x20xf32, strides: [640, 40, 20, 1]>, none), %R10.4608, %B1 = "arith.copy"(%R11, %D539) {round_mode = 0} : (memref<1x256x2x20xf32, strides: [320, 40, 20, 1]>, none) -> (memref<1x256x2x20xf32, strides: [640, 40, 20, 1]>, none), %R11, %B1 = "conv.normal"(%R9, %R14, %R10.5888, %C0.0, %D539) {kernel = [1, 1], stride = [1, 1], in_zero = [0, 0], ke_zero = [0, 0], opt_kernel_rotate = False, pad_mode = 0, pad = [0, 0, 0, 0], opt_res_add = False, do_relu = False, sym_range = False, do_rq = False, round_mode = 0} : (memref<1x128x8x80xf32, strides: [2560, 640, 80, 1]>, memref<255x128x1x1xf32>, memref<1x255x1x1xui32, strides: [8, 1, 1, 1]>, f32, none) -> (memref<1x255x8x80xf32, strides: [5120, 640, 80, 1]>, none), %G22889888, %D0 = "dma.tensor"(%R10.3328, %B4757) : (memref<1x512x2x20xf32, strides: [640, 40, 20, 1]>, none) -> (memref<1x512x2x20xf32, strides: [204800, 400, 20, 1]>, none), %G6552064, %D0 = "dma.tensor"(%R11, %B4758) : (memref<1x255x8x80xf32, strides: [5120, 640, 80, 1]>, none) -> (memref<1x255x8x80xf32, strides: [1632000, 6400, 80, 1]>, none), %R0, %D0 = "dma.tensor"(%G6529024, %B4758) : (memref<3x85x1x896xf32, strides: [544000, 6400, 6400, 1]>, none) -> (memref<3x85x1x896xf32, strides: [2688, 896, 896, 1]>, none), %R8, %B1 = "tsbc.wc_ts"(%R0, %D542) : (memref<3x85x1x896xf32, strides: [2688, 896, 896, 1]>, none) -> (memref<3x896x1x85xf32, strides: [2464, 88, 85, 1]>, none), %R4, %D0 = "dma.tensor"(%G6532608, %B4758) : (memref<3x85x1x896xf32, strides: [544000, 6400, 6400, 1]>, none) -> (memref<3x85x1x896xf32, strides: [2688, 896, 896, 1]>, none), %R12, %B1 = "tsbc.wc_ts"(%R4, %D543) : (memref<3x85x1x896xf32, strides: [2688, 896, 896, 1]>, none) -> (memref<3x896x1x85xf32, strides: [2464, 88, 85, 1]>, none), %G0, %D0 = "dma.tensor"(%R8, %B4759) : (memref<3x896x1x85xf32, strides: [2464, 88, 85, 1]>, none) -> (memref<3x896x1x85xf32, strides: [544000, 85, 85, 1]>, none), %R0, %D0 = "dma.tensor"(%G6536192, %B4759) : (memref<3x85x1x896xf32, strides: [544000, 6400, 6400, 1]>, none) -> (memref<3x85x1x896xf32, strides: [2688, 896, 896, 1]>, none), %R8, %B1 = "tsbc.wc_ts"(%R0, %D545) : (memref<3x85x1x896xf32, strides: [2688, 896, 896, 1]>, none) -> (memref<3x896x1x85xf32, strides: [2464, 88, 85, 1]>, none), %G304640, %D0 = "dma.tensor"(%R12, %B4760) : (memref<3x896x1x85xf32, strides: [2464, 88, 85, 1]>, none) -> (memref<3x896x1x85xf32, strides: [544000, 85, 85, 1]>, none), %R4, %D0 = "dma.tensor"(%G6539776, %B4760) : (memref<3x85x1x896xf32, strides: [544000, 6400, 6400, 1]>, none) -> (memref<3x85x1x896xf32, strides: [2688, 896, 896, 1]>, none), %R12, %B1 = "tsbc.wc_ts"(%R4, %D547) : (memref<3x85x1x896xf32, strides: [2688, 896, 896, 1]>, none) -> (memref<3x896x1x85xf32, strides: [2464, 88, 85, 1]>, none), %G609280, %D0 = "dma.tensor"(%R8, %B4761) : (memref<3x896x1x85xf32, strides: [2464, 88, 85, 1]>, none) -> (memref<3x896x1x85xf32, strides: [544000, 85, 85, 1]>, none), %R0, %D0 = "dma.tensor"(%G6543360, %B4761) : (memref<3x85x1x896xf32, strides: [544000, 6400, 6400, 1]>, none) -> (memref<3x85x1x896xf32, strides: [2688, 896, 896, 1]>, none), %R8, %B1 = "tsbc.wc_ts"(%R0, %D549) : (memref<3x85x1x896xf32, strides: [2688, 896, 896, 1]>, none) -> (memref<3x896x1x85xf32, strides: [2464, 88, 85, 1]>, none), %G913920, %D0 = "dma.tensor"(%R12, %B4762) : (memref<3x896x1x85xf32, strides: [2464, 88, 85, 1]>, none) -> (memref<3x896x1x85xf32, strides: [544000, 85, 85, 1]>, none), %R4, %D0 = "dma.tensor"(%G6546944, %B4762) : (memref<3x85x1x896xf32, strides: [544000, 6400, 6400, 1]>, none) -> (memref<3x85x1x896xf32, strides: [2688, 896, 896, 1]>, none), %R12, %B1 = "tsbc.wc_ts"(%R4, %D551) : (memref<3x85x1x896xf32, strides: [2688, 896, 896, 1]>, none) -> (memref<3x896x1x85xf32, strides: [2464, 88, 85, 1]>, none), %G1218560, %D0 = "dma.tensor"(%R8, %B4763) : (memref<3x896x1x85xf32, strides: [2464, 88, 85, 1]>, none) -> (memref<3x896x1x85xf32, strides: [544000, 85, 85, 1]>, none), %R0, %D0 = "dma.tensor"(%G6550528, %B4763) : (memref<3x85x1x896xf32, strides: [544000, 6400, 6400, 1]>, none) -> (memref<3x85x1x896xf32, strides: [2688, 896, 896, 1]>, none), %R8, %B1 = "tsbc.wc_ts"(%R0, %D553) : (memref<3x85x1x896xf32, strides: [2688, 896, 896, 1]>, none) -> (memref<3x896x1x85xf32, strides: [2464, 88, 85, 1]>, none), %G1523200, %D0 = "dma.tensor"(%R12, %B4764) : (memref<3x896x1x85xf32, strides: [2464, 88, 85, 1]>, none) -> (memref<3x896x1x85xf32, strides: [544000, 85, 85, 1]>, none), %R4, %D0 = "dma.tensor"(%G6554112, %B4764) : (memref<3x85x1x128xf32, strides: [544000, 6400, 6400, 1]>, none) -> (memref<3x85x1x128xf32, strides: [384, 128, 128, 1]>, none), %R12, %B1 = "tsbc.wc_ts"(%R4, %D555) : (memref<3x85x1x128xf32, strides: [384, 128, 128, 1]>, none) -> (memref<3x128x1x85xf32, strides: [352, 88, 85, 1]>, none), %G1827840, %D0 = "dma.tensor"(%R8, %B4765) : (memref<3x896x1x85xf32, strides: [2464, 88, 85, 1]>, none) -> (memref<3x896x1x85xf32, strides: [544000, 85, 85, 1]>, none), %G2132480, %D0 = "dma.tensor"(%R12, %B4766) : (memref<3x128x1x85xf32, strides: [352, 88, 85, 1]>, none) -> (memref<3x128x1x85xf32, strides: [544000, 85, 85, 1]>, none), %R0, %D0 = "dma.tensor"(%G23580672, %B4766) : (memref<1x255x256x1xf32, strides: [65280, 256, 1, 1]>, none) -> (memref<1x255x256x1xf32, strides: [2048, 256, 1, 1]>, none), %R1, %D0 = "dma.tensor"(%G23842816, %B4766) : (memref<1x255x1x1xf32, strides: [255, 1, 1, 1]>, none) -> (memref<1x255x1x1xf32, strides: [8, 1, 1, 1]>, none), %R2, %D0 = "dma.tensor"(%G21250048, %B4766) : (memref<1x256x14x40xf32, strides: [409600, 1600, 40, 1]>, none) -> (memref<1x256x14x40xf32, strides: [4480, 560, 40, 1]>, none), %R8, %B1 = "conv.normal"(%R2, %R0, %R1, %C0.0, %D560) {kernel = [1, 1], stride = [1, 1], in_zero = [0, 0], ke_zero = [0, 0], opt_kernel_rotate = False, pad_mode = 0, pad = [0, 0, 0, 0], opt_res_add = False, do_relu = False, sym_range = False, do_rq = False, round_mode = 0} : (memref<1x256x14x40xf32, strides: [4480, 560, 40, 1]>, memref<255x256x1x1xf32>, memref<1x255x1x1xui32, strides: [8, 1, 1, 1]>, f32, none) -> (memref<1x255x14x40xf32, strides: [4480, 560, 40, 1]>, none), %R5, %D0 = "dma.tensor"(%G21252288, %B4766) : (memref<1x256x13x40xf32, strides: [409600, 1600, 40, 1]>, none) -> (memref<1x256x13x40xf32, strides: [4160, 520, 40, 1]>, none), %R11, %B1 = "conv.normal"(%R5, %R0, %R1, %C0.0, %D561) {kernel = [1, 1], stride = [1, 1], in_zero = [0, 0], ke_zero = [0, 0], opt_kernel_rotate = False, pad_mode = 0, pad = [0, 0, 0, 0], opt_res_add = False, do_relu = False, sym_range = False, do_rq = False, round_mode = 0} : (memref<1x256x13x40xf32, strides: [4160, 520, 40, 1]>, memref<255x256x1x1xf32>, memref<1x255x1x1xui32, strides: [8, 1, 1, 1]>, f32, none) -> (memref<1x255x13x40xf32, strides: [4160, 520, 40, 1]>, none), %G17973248, %D0 = "dma.tensor"(%R8, %B4767) : (memref<1x255x14x40xf32, strides: [4480, 560, 40, 1]>, none) -> (memref<1x255x14x40xf32, strides: [408000, 1600, 40, 1]>, none), %R2, %D0 = "dma.tensor"(%G21254368, %B4767) : (memref<1x256x13x40xf32, strides: [409600, 1600, 40, 1]>, none) -> (memref<1x256x13x40xf32, strides: [4160, 520, 40, 1]>, none), %R8, %B1 = "conv.normal"(%R2, %R0, %R1, %C0.0, %D563) {kernel = [1, 1], stride = [1, 1], in_zero = [0, 0], ke_zero = [0, 0], opt_kernel_rotate = False, pad_mode = 0, pad = [0, 0, 0, 0], opt_res_add = False, do_relu = False, sym_range = False, do_rq = False, round_mode = 0} : (memref<1x256x13x40xf32, strides: [4160, 520, 40, 1]>, memref<255x256x1x1xf32>, memref<1x255x1x1xui32, strides: [8, 1, 1, 1]>, f32, none) -> (memref<1x255x13x40xf32, strides: [4160, 520, 40, 1]>, none), %G17975488, %D0 = "dma.tensor"(%R11, %B4768) : (memref<1x255x13x40xf32, strides: [4160, 520, 40, 1]>, none) -> (memref<1x255x13x40xf32, strides: [408000, 1600, 40, 1]>, none), %G17977568, %D0 = "dma.tensor"(%R8, %B4769) : (memref<1x255x13x40xf32, strides: [4160, 520, 40, 1]>, none) -> (memref<1x255x13x40xf32, strides: [408000, 1600, 40, 1]>, none), %R0, %D0 = "dma.tensor"(%G17973248, %B4769) : (memref<85x32x50x1xf32, strides: [1600, 50, 1, 1]>, none) -> (memref<85x32x50x1xf32, strides: [50, 50, 1, 1]>, none), %R8, %B1 = "arith.copy"(%R0, %D566) {round_mode = 0} : (memref<1x32x50x85xf32, strides: [4250, 50, 1, 50]>, none) -> (memref<1x32x50x85xf32, strides: [4250, 4250, 85, 1]>, none), %R4, %D0 = "dma.tensor"(%G18517248, %B4769) : (memref<85x32x50x1xf32, strides: [1600, 50, 1, 1]>, none) -> (memref<85x32x50x1xf32, strides: [50, 50, 1, 1]>, none), %R12, %B1 = "arith.copy"(%R4, %D567) {round_mode = 0} : (memref<1x32x50x85xf32, strides: [4250, 50, 1, 50]>, none) -> (memref<1x32x50x85xf32, strides: [4250, 4250, 85, 1]>, none), %G6529024, %D0 = "dma.tensor"(%R8, %B4770) : (memref<1x32x50x85xf32, strides: [4250, 4250, 85, 1]>, none) -> (memref<1x32x50x85xf32, strides: [136000, 4250, 85, 1]>, none), %R0, %D0 = "dma.tensor"(%G19061248, %B4770) : (memref<85x32x50x1xf32, strides: [1600, 50, 1, 1]>, none) -> (memref<85x32x50x1xf32, strides: [50, 50, 1, 1]>, none), %R8, %B1 = "arith.copy"(%R0, %D569) {round_mode = 0} : (memref<1x32x50x85xf32, strides: [4250, 50, 1, 50]>, none) -> (memref<1x32x50x85xf32, strides: [4250, 4250, 85, 1]>, none), %G7073024, %D0 = "dma.tensor"(%R12, %B4771) : (memref<1x32x50x85xf32, strides: [4250, 4250, 85, 1]>, none) -> (memref<1x32x50x85xf32, strides: [136000, 4250, 85, 1]>, none), %G7617024, %D0 = "dma.tensor"(%R8, %B4772) : (memref<1x32x50x85xf32, strides: [4250, 4250, 85, 1]>, none) -> (memref<1x32x50x85xf32, strides: [136000, 4250, 85, 1]>, none), %R11, %D0 = "dma.tensor"(%G23846912, %B4772) : (memref<1x256x512x1xf32, strides: [131072, 512, 1, 1]>, none) -> (memref<1x256x512x1xf32, strides: [4096, 512, 1, 1]>, none), %R0, %D0 = "dma.tensor"(%G22888448, %B4772) : (memref<1x512x20x20xf32, strides: [204800, 400, 20, 1]>, none) -> (memref<1x512x20x20xf32, strides: [6400, 400, 20, 1]>, none), %R10, %D0 = "dma.tensor"(%G24371200, %B4772) : (memref<1x256x1x1xf32, strides: [256, 1, 1, 1]>, none) -> (memref<1x256x1x1xf32, strides: [8, 1, 1, 1]>, none), %R4, %B1 = "conv.normal"(%R0, %R11, %R10, %C0.0, %D574) {kernel = [1, 1], stride = [1, 1], in_zero = [0, 0], ke_zero = [0, 0], opt_kernel_rotate = False, pad_mode = 0, pad = [0, 0, 0, 0], opt_res_add = False, do_relu = False, sym_range = False, do_rq = False, round_mode = 0} : (memref<1x512x20x20xf32, strides: [6400, 400, 20, 1]>, memref<256x512x1x1xf32>, memref<1x256x1x1xui32, strides: [8, 1, 1, 1]>, f32, none) -> (memref<1x256x20x20xf32, strides: [3200, 400, 20, 1]>, none), %R3.1024, %B1 = "tsbc.s_bc"(%R0, %D574) : (memref<1x32x1x10xf32, strides: [12, 12, 10, 1]>, none) -> (memref<1x32x1x10xf32, strides: [12, 12, 10, 1]>, none), %R1.4608, %B1 = "arith.sub"(%C0.0, %R4, %D574) {round_mode = 0} : (f32, memref<1x256x20x20xf32, strides: [3200, 400, 20, 1]>, none) -> (memref<1x256x20x20xf32, strides: [3200, 400, 20, 1]>, none), %R1.4608, %B1 = "arith.max"(%R1.4608, %C-3.4028198694267105e+35, %D574) {round_mode = 0} : (memref<1x256x20x20xf32, strides: [3200, 400, 20, 1]>, f32, none) -> (memref<1x256x20x20xf32, strides: [3200, 400, 20, 1]>, none), %R0, %B1 = "arith.mul"(%R1.4608, %C1.4426950216293335, %D574) {round_mode = 0} : (memref<1x256x20x20xf32, strides: [3200, 400, 20, 1]>, f32, none) -> (memref<1x256x20x20xf32, strides: [3200, 400, 20, 1]>, none), %R9, %B1 = "arith.cast"(%R0, %D574) {round_mode = 3} : (memref<1x256x20x20xf32, strides: [3200, 400, 20, 1]>, none) -> (memref<1x256x20x20xf32, strides: [3200, 400, 20, 1]>, none), %R0, %B1 = "arith.mul"(%R9, %C0.6931471824645996, %D574) {round_mode = 0} : (memref<1x256x20x20xf32, strides: [3200, 400, 20, 1]>, f32, none) -> (memref<1x256x20x20xf32, strides: [3200, 400, 20, 1]>, none), %R0, %B1 = "arith.sub"(%R1.4608, %R0, %D574) {round_mode = 0} : (memref<1x256x20x20xf32, strides: [3200, 400, 20, 1]>, memref<1x256x20x20xf32, strides: [3200, 400, 20, 1]>, none) -> (memref<1x256x20x20xf32, strides: [3200, 400, 20, 1]>, none), %R1.4608, %B1 = "arith.cast"(%R9, %D574) {round_mode = 1} : (memref<1x256x20x20xf32, strides: [3200, 400, 20, 1]>, none) -> (memref<1x256x20x20xsi16, strides: [3200, 400, 20, 1]>, none), %R9, %B1 = "arith.min"(%R1.4608, %C127, %D574) {round_mode = 0} : (memref<1x256x20x20xsi16, strides: [3200, 400, 20, 1]>, si16, none) -> (memref<1x256x20x20xsi16, strides: [3200, 400, 20, 1]>, none), %R1.4608, %B1 = "arith.max"(%R9, %C-127, %D574) {round_mode = 0} : (memref<1x256x20x20xsi16, strides: [3200, 400, 20, 1]>, si16, none) -> (memref<1x256x20x20xsi16, strides: [3200, 400, 20, 1]>, none), %R9, %B1 = "arith.add_satu"(%R1.4608, %C127, %C23, %D574) {round_mode = 1} : (memref<1x256x20x20xsi16, strides: [3200, 400, 20, 1]>, si16, ui8, none) -> (memref<1x256x20x20xsi32, strides: [3200, 400, 20, 1]>, none), %R1.4608, %B1 = "sfu.taylor_4x"(%R0, %R3.1024, %D574) : (memref<1x256x20x20xf32, strides: [3200, 400, 20, 1]>, memref<1x64x1x10xf32, strides: [0, 0, 10, 1]>, none) -> (memref<1x256x20x20xf32, strides: [3200, 400, 20, 1]>, none), %R9, %B1 = "arith.mul"(%R1.4608, %R9, %D574) {round_mode = 0} : (memref<1x256x20x20xf32, strides: [3200, 400, 20, 1]>, memref<1x256x20x20xf32, strides: [3200, 400, 20, 1]>, none) -> (memref<1x256x20x20xf32, strides: [3200, 400, 20, 1]>, none), %R0, %B1 = "arith.add"(%R9, %C1.0, %D574) {round_mode = 0} : (memref<1x256x20x20xf32, strides: [3200, 400, 20, 1]>, f32, none) -> (memref<1x256x20x20xf32, strides: [3200, 400, 20, 1]>, none), %R9, %B1 = "arith.div"(%C1.0, %R0, %D574) {iter = 3} : (f32, memref<1x256x20x20xf32, strides: [3200, 400, 20, 1]>, none) -> (memref<1x256x20x20xf32, strides: [3200, 400, 20, 1]>, none), %R9, %B1 = "arith.mul"(%R9, %R4, %D574) {round_mode = 0} : (memref<1x256x20x20xf32, strides: [3200, 400, 20, 1]>, memref<1x256x20x20xf32, strides: [3200, 400, 20, 1]>, none) -> (memref<1x256x20x20xf32, strides: [3200, 400, 20, 1]>, none), %R13, %D0 = "dma.tensor"(%G24375296, %B4773) : (memref<1x256x256x1xf32, strides: [65536, 256, 1, 1]>, none) -> (memref<1x256x256x1xf32, strides: [2048, 256, 1, 1]>, none), %R14, %D0 = "dma.tensor"(%G24637440, %B4773) : (memref<1x256x1x1xf32, strides: [256, 1, 1, 1]>, none) -> (memref<1x256x1x1xf32, strides: [8, 1, 1, 1]>, none), %R11, %B1 = "conv.normal"(%R9, %R13, %R14, %C0.0, %D576) {kernel = [1, 1], stride = [1, 1], in_zero = [0, 0], ke_zero = [0, 0], opt_kernel_rotate = False, pad_mode = 0, pad = [0, 0, 0, 0], opt_res_add = False, do_relu = False, sym_range = False, do_rq = False, round_mode = 0} : (memref<1x256x20x20xf32, strides: [3200, 400, 20, 1]>, memref<256x256x1x1xf32>, memref<1x256x1x1xui32, strides: [8, 1, 1, 1]>, f32, none) -> (memref<1x256x20x20xf32, strides: [3200, 400, 20, 1]>, none), %R0, %D0 = "dma.tensor"(%G24641536, %B4789) : (memref<1x256x256x9xf32, strides: [589824, 2304, 9, 1]>, none) -> (memref<1x256x256x9xf32, strides: [18432, 2304, 9, 1]>, none), %R15.5632, %B1 = "tsbc.s_bc"(%R0, %D577) : (memref<1x32x1x10xf32, strides: [12, 12, 10, 1]>, none) -> (memref<1x32x1x10xf32, strides: [12, 12, 10, 1]>, none), %R14.1024, %B1 = "arith.sub"(%C0.0, %R11, %D577) {round_mode = 0} : (f32, memref<1x256x20x20xf32, strides: [3200, 400, 20, 1]>, none) -> (memref<1x256x20x20xf32, strides: [3200, 400, 20, 1]>, none), %R14.1024, %B1 = "arith.max"(%R14.1024, %C-3.4028198694267105e+35, %D577) {round_mode = 0} : (memref<1x256x20x20xf32, strides: [3200, 400, 20, 1]>, f32, none) -> (memref<1x256x20x20xf32, strides: [3200, 400, 20, 1]>, none), %R12.4608, %B1 = "arith.mul"(%R14.1024, %C1.4426950216293335, %D577) {round_mode = 0} : (memref<1x256x20x20xf32, strides: [3200, 400, 20, 1]>, f32, none) -> (memref<1x256x20x20xf32, strides: [3200, 400, 20, 1]>, none), %R9, %B1 = "arith.cast"(%R12.4608, %D577) {round_mode = 3} : (memref<1x256x20x20xf32, strides: [3200, 400, 20, 1]>, none) -> (memref<1x256x20x20xf32, strides: [3200, 400, 20, 1]>, none), %R12.4608, %B1 = "arith.mul"(%R9, %C0.6931471824645996, %D577) {round_mode = 0} : (memref<1x256x20x20xf32, strides: [3200, 400, 20, 1]>, f32, none) -> (memref<1x256x20x20xf32, strides: [3200, 400, 20, 1]>, none), %R12.4608, %B1 = "arith.sub"(%R14.1024, %R12.4608, %D577) {round_mode = 0} : (memref<1x256x20x20xf32, strides: [3200, 400, 20, 1]>, memref<1x256x20x20xf32, strides: [3200, 400, 20, 1]>, none) -> (memref<1x256x20x20xf32, strides: [3200, 400, 20, 1]>, none), %R14.1024, %B1 = "arith.cast"(%R9, %D577) {round_mode = 1} : (memref<1x256x20x20xf32, strides: [3200, 400, 20, 1]>, none) -> (memref<1x256x20x20xsi16, strides: [3200, 400, 20, 1]>, none), %R9, %B1 = "arith.min"(%R14.1024, %C127, %D577) {round_mode = 0} : (memref<1x256x20x20xsi16, strides: [3200, 400, 20, 1]>, si16, none) -> (memref<1x256x20x20xsi16, strides: [3200, 400, 20, 1]>, none), %R14.1024, %B1 = "arith.max"(%R9, %C-127, %D577) {round_mode = 0} : (memref<1x256x20x20xsi16, strides: [3200, 400, 20, 1]>, si16, none) -> (memref<1x256x20x20xsi16, strides: [3200, 400, 20, 1]>, none), %R9, %B1 = "arith.add_satu"(%R14.1024, %C127, %C23, %D577) {round_mode = 1} : (memref<1x256x20x20xsi16, strides: [3200, 400, 20, 1]>, si16, ui8, none) -> (memref<1x256x20x20xsi32, strides: [3200, 400, 20, 1]>, none), %R14.1024, %B1 = "sfu.taylor_4x"(%R12.4608, %R15.5632, %D577) : (memref<1x256x20x20xf32, strides: [3200, 400, 20, 1]>, memref<1x64x1x10xf32, strides: [0, 0, 10, 1]>, none) -> (memref<1x256x20x20xf32, strides: [3200, 400, 20, 1]>, none), %R9, %B1 = "arith.mul"(%R14.1024, %R9, %D577) {round_mode = 0} : (memref<1x256x20x20xf32, strides: [3200, 400, 20, 1]>, memref<1x256x20x20xf32, strides: [3200, 400, 20, 1]>, none) -> (memref<1x256x20x20xf32, strides: [3200, 400, 20, 1]>, none), %R12.4608, %B1 = "arith.add"(%R9, %C1.0, %D577) {round_mode = 0} : (memref<1x256x20x20xf32, strides: [3200, 400, 20, 1]>, f32, none) -> (memref<1x256x20x20xf32, strides: [3200, 400, 20, 1]>, none), %R9, %B1 = "arith.div"(%C1.0, %R12.4608, %D577) {iter = 3} : (f32, memref<1x256x20x20xf32, strides: [3200, 400, 20, 1]>, none) -> (memref<1x256x20x20xf32, strides: [3200, 400, 20, 1]>, none), %R9, %B1 = "arith.mul"(%R9, %R11, %D577) {round_mode = 0} : (memref<1x256x20x20xf32, strides: [3200, 400, 20, 1]>, memref<1x256x20x20xf32, strides: [3200, 400, 20, 1]>, none) -> (memref<1x256x20x20xf32, strides: [3200, 400, 20, 1]>, none), %R10.4608, %D0 = "dma.tensor"(%G27000832, %B4790) : (memref<1x256x1x1xf32, strides: [256, 1, 1, 1]>, none) -> (memref<1x256x1x1xf32, strides: [8, 1, 1, 1]>, none), %R13, %B1 = "conv.normal"(%R9, %R0, %R10.4608, %C0.0, %D578) {kernel = [3, 3], stride = [1, 1], in_zero = [0, 0], ke_zero = [0, 0], opt_kernel_rotate = False, pad_mode = 0, pad = [1, 1, 1, 1], opt_res_add = False, do_relu = False, sym_range = False, do_rq = False, round_mode = 0} : (memref<1x256x20x20xf32, strides: [3200, 400, 20, 1]>, memref<256x256x3x3xf32>, memref<1x256x1x1xui32, strides: [8, 1, 1, 1]>, f32, none) -> (memref<1x256x20x20xf32, strides: [3200, 400, 20, 1]>, none), %R7.1024, %B1 = "tsbc.s_bc"(%R0, %D578) : (memref<1x32x1x10xf32, strides: [12, 12, 10, 1]>, none) -> (memref<1x32x1x10xf32, strides: [12, 12, 10, 1]>, none), %R5.4608, %B1 = "arith.sub"(%C0.0, %R13, %D578) {round_mode = 0} : (f32, memref<1x256x20x20xf32, strides: [3200, 400, 20, 1]>, none) -> (memref<1x256x20x20xf32, strides: [3200, 400, 20, 1]>, none), %R5.4608, %B1 = "arith.max"(%R5.4608, %C-3.4028198694267105e+35, %D578) {round_mode = 0} : (memref<1x256x20x20xf32, strides: [3200, 400, 20, 1]>, f32, none) -> (memref<1x256x20x20xf32, strides: [3200, 400, 20, 1]>, none), %R4, %B1 = "arith.mul"(%R5.4608, %C1.4426950216293335, %D578) {round_mode = 0} : (memref<1x256x20x20xf32, strides: [3200, 400, 20, 1]>, f32, none) -> (memref<1x256x20x20xf32, strides: [3200, 400, 20, 1]>, none), %R8, %B1 = "arith.cast"(%R4, %D578) {round_mode = 3} : (memref<1x256x20x20xf32, strides: [3200, 400, 20, 1]>, none) -> (memref<1x256x20x20xf32, strides: [3200, 400, 20, 1]>, none), %R4, %B1 = "arith.mul"(%R8, %C0.6931471824645996, %D578) {round_mode = 0} : (memref<1x256x20x20xf32, strides: [3200, 400, 20, 1]>, f32, none) -> (memref<1x256x20x20xf32, strides: [3200, 400, 20, 1]>, none), %R4, %B1 = "arith.sub"(%R5.4608, %R4, %D578) {round_mode = 0} : (memref<1x256x20x20xf32, strides: [3200, 400, 20, 1]>, memref<1x256x20x20xf32, strides: [3200, 400, 20, 1]>, none) -> (memref<1x256x20x20xf32, strides: [3200, 400, 20, 1]>, none), %R5.4608, %B1 = "arith.cast"(%R8, %D578) {round_mode = 1} : (memref<1x256x20x20xf32, strides: [3200, 400, 20, 1]>, none) -> (memref<1x256x20x20xsi16, strides: [3200, 400, 20, 1]>, none), %R8, %B1 = "arith.min"(%R5.4608, %C127, %D578) {round_mode = 0} : (memref<1x256x20x20xsi16, strides: [3200, 400, 20, 1]>, si16, none) -> (memref<1x256x20x20xsi16, strides: [3200, 400, 20, 1]>, none), %R5.4608, %B1 = "arith.max"(%R8, %C-127, %D578) {round_mode = 0} : (memref<1x256x20x20xsi16, strides: [3200, 400, 20, 1]>, si16, none) -> (memref<1x256x20x20xsi16, strides: [3200, 400, 20, 1]>, none), %R8, %B1 = "arith.add_satu"(%R5.4608, %C127, %C23, %D578) {round_mode = 1} : (memref<1x256x20x20xsi16, strides: [3200, 400, 20, 1]>, si16, ui8, none) -> (memref<1x256x20x20xsi32, strides: [3200, 400, 20, 1]>, none), %R5.4608, %B1 = "sfu.taylor_4x"(%R4, %R7.1024, %D578) : (memref<1x256x20x20xf32, strides: [3200, 400, 20, 1]>, memref<1x64x1x10xf32, strides: [0, 0, 10, 1]>, none) -> (memref<1x256x20x20xf32, strides: [3200, 400, 20, 1]>, none), %R8, %B1 = "arith.mul"(%R5.4608, %R8, %D578) {round_mode = 0} : (memref<1x256x20x20xf32, strides: [3200, 400, 20, 1]>, memref<1x256x20x20xf32, strides: [3200, 400, 20, 1]>, none) -> (memref<1x256x20x20xf32, strides: [3200, 400, 20, 1]>, none), %R4, %B1 = "arith.add"(%R8, %C1.0, %D578) {round_mode = 0} : (memref<1x256x20x20xf32, strides: [3200, 400, 20, 1]>, f32, none) -> (memref<1x256x20x20xf32, strides: [3200, 400, 20, 1]>, none), %R8, %B1 = "arith.div"(%C1.0, %R4, %D578) {iter = 3} : (f32, memref<1x256x20x20xf32, strides: [3200, 400, 20, 1]>, none) -> (memref<1x256x20x20xf32, strides: [3200, 400, 20, 1]>, none), %R8, %B1 = "arith.mul"(%R8, %R13, %D578) {round_mode = 0} : (memref<1x256x20x20xf32, strides: [3200, 400, 20, 1]>, memref<1x256x20x20xf32, strides: [3200, 400, 20, 1]>, none) -> (memref<1x256x20x20xf32, strides: [3200, 400, 20, 1]>, none), %G8163328, %D0 = "dma.tensor"(%R8, %B4823) : (memref<1x256x20x20xf32, strides: [3200, 400, 20, 1]>, none) -> (memref<1x256x20x20xf32, strides: [102400, 400, 20, 1]>, none), %R10, %D0 = "dma.tensor"(%G22888448, %B4823) : (memref<1x512x10x20xf32, strides: [204800, 400, 20, 1]>, none) -> (memref<1x512x10x20xf32, strides: [3200, 200, 20, 1]>, none), %R6, %D0 = "dma.tensor"(%G27004928, %B4823) : (memref<1x256x512x1xf32, strides: [131072, 512, 1, 1]>, none) -> (memref<1x256x512x1xf32, strides: [4096, 512, 1, 1]>, none), %R15.1216, %D0 = "dma.tensor"(%G27529216, %B4823) : (memref<1x256x1x1xf32, strides: [256, 1, 1, 1]>, none) -> (memref<1x256x1x1xf32, strides: [8, 1, 1, 1]>, none), %R8, %B1 = "conv.normal"(%R10, %R6, %R15.1216, %C0.0, %D582) {kernel = [1, 1], stride = [1, 1], in_zero = [0, 0], ke_zero = [0, 0], opt_kernel_rotate = False, pad_mode = 0, pad = [0, 0, 0, 0], opt_res_add = False, do_relu = False, sym_range = False, do_rq = False, round_mode = 0} : (memref<1x512x10x20xf32, strides: [3200, 200, 20, 1]>, memref<256x512x1x1xf32>, memref<1x256x1x1xui32, strides: [8, 1, 1, 1]>, f32, none) -> (memref<1x256x10x20xf32, strides: [1600, 200, 20, 1]>, none), %R0, %D0 = "dma.tensor"(%G27533312, %B4823) : (memref<1x512x512x1xf32, strides: [262144, 512, 1, 1]>, none) -> (memref<1x512x512x1xf32, strides: [8192, 512, 1, 1]>, none), %R10.4608, %B1 = "tsbc.s_bc"(%R0, %D583) : (memref<1x32x1x10xf32, strides: [12, 12, 10, 1]>, none) -> (memref<1x32x1x10xf32, strides: [12, 12, 10, 1]>, none), %R9.6400, %B1 = "arith.sub"(%C0.0, %R8, %D583) {round_mode = 0} : (f32, memref<1x256x10x20xf32, strides: [1600, 200, 20, 1]>, none) -> (memref<1x256x10x20xf32, strides: [1600, 200, 20, 1]>, none), %R9.6400, %B1 = "arith.max"(%R9.6400, %C-3.4028198694267105e+35, %D583) {round_mode = 0} : (memref<1x256x10x20xf32, strides: [1600, 200, 20, 1]>, f32, none) -> (memref<1x256x10x20xf32, strides: [1600, 200, 20, 1]>, none), %R9, %B1 = "arith.mul"(%R9.6400, %C1.4426950216293335, %D583) {round_mode = 0} : (memref<1x256x10x20xf32, strides: [1600, 200, 20, 1]>, f32, none) -> (memref<1x256x10x20xf32, strides: [1600, 200, 20, 1]>, none), %R12, %B1 = "arith.cast"(%R9, %D583) {round_mode = 3} : (memref<1x256x10x20xf32, strides: [1600, 200, 20, 1]>, none) -> (memref<1x256x10x20xf32, strides: [1600, 200, 20, 1]>, none), %R9, %B1 = "arith.mul"(%R12, %C0.6931471824645996, %D583) {round_mode = 0} : (memref<1x256x10x20xf32, strides: [1600, 200, 20, 1]>, f32, none) -> (memref<1x256x10x20xf32, strides: [1600, 200, 20, 1]>, none), %R9, %B1 = "arith.sub"(%R9.6400, %R9, %D583) {round_mode = 0} : (memref<1x256x10x20xf32, strides: [1600, 200, 20, 1]>, memref<1x256x10x20xf32, strides: [1600, 200, 20, 1]>, none) -> (memref<1x256x10x20xf32, strides: [1600, 200, 20, 1]>, none), %R9.6400, %B1 = "arith.cast"(%R12, %D583) {round_mode = 1} : (memref<1x256x10x20xf32, strides: [1600, 200, 20, 1]>, none) -> (memref<1x256x10x20xsi16, strides: [1600, 200, 20, 1]>, none), %R12, %B1 = "arith.min"(%R9.6400, %C127, %D583) {round_mode = 0} : (memref<1x256x10x20xsi16, strides: [1600, 200, 20, 1]>, si16, none) -> (memref<1x256x10x20xsi16, strides: [1600, 200, 20, 1]>, none), %R9.6400, %B1 = "arith.max"(%R12, %C-127, %D583) {round_mode = 0} : (memref<1x256x10x20xsi16, strides: [1600, 200, 20, 1]>, si16, none) -> (memref<1x256x10x20xsi16, strides: [1600, 200, 20, 1]>, none), %R12, %B1 = "arith.add_satu"(%R9.6400, %C127, %C23, %D583) {round_mode = 1} : (memref<1x256x10x20xsi16, strides: [1600, 200, 20, 1]>, si16, ui8, none) -> (memref<1x256x10x20xsi32, strides: [1600, 200, 20, 1]>, none), %R9.6400, %B1 = "sfu.taylor_4x"(%R9, %R10.4608, %D583) : (memref<1x256x10x20xf32, strides: [1600, 200, 20, 1]>, memref<1x64x1x10xf32, strides: [0, 0, 10, 1]>, none) -> (memref<1x256x10x20xf32, strides: [1600, 200, 20, 1]>, none), %R12, %B1 = "arith.mul"(%R9.6400, %R12, %D583) {round_mode = 0} : (memref<1x256x10x20xf32, strides: [1600, 200, 20, 1]>, memref<1x256x10x20xf32, strides: [1600, 200, 20, 1]>, none) -> (memref<1x256x10x20xf32, strides: [1600, 200, 20, 1]>, none), %R9, %B1 = "arith.add"(%R12, %C1.0, %D583) {round_mode = 0} : (memref<1x256x10x20xf32, strides: [1600, 200, 20, 1]>, f32, none) -> (memref<1x256x10x20xf32, strides: [1600, 200, 20, 1]>, none), %R12, %B1 = "arith.div"(%C1.0, %R9, %D583) {iter = 3} : (f32, memref<1x256x10x20xf32, strides: [1600, 200, 20, 1]>, none) -> (memref<1x256x10x20xf32, strides: [1600, 200, 20, 1]>, none), %R12, %B1 = "arith.mul"(%R12, %R8, %D583) {round_mode = 0} : (memref<1x256x10x20xf32, strides: [1600, 200, 20, 1]>, memref<1x256x10x20xf32, strides: [1600, 200, 20, 1]>, none) -> (memref<1x256x10x20xf32, strides: [1600, 200, 20, 1]>, none), %R11, %D0 = "dma.tensor"(%G8163328, %B4824) : (memref<1x256x10x20xf32, strides: [102400, 400, 20, 1]>, none) -> (memref<1x256x10x20xf32, strides: [1600, 200, 20, 1]>, none), %R15.1152, %D0 = "dma.tensor"(%G28581888, %B4824) : (memref<1x512x1x1xf32, strides: [512, 1, 1, 1]>, none) -> (memref<1x512x1x1xf32, strides: [16, 1, 1, 1]>, none), %R8, %B1 = "arith.copy"(%R11, %D585) {round_mode = 0} : (memref<1x256x10x20xf32, strides: [1600, 200, 20, 1]>, none) -> (memref<1x256x10x20xf32, strides: [3200, 200, 20, 1]>, none), %R8.6400, %B1 = "arith.copy"(%R12, %D585) {round_mode = 0} : (memref<1x256x10x20xf32, strides: [1600, 200, 20, 1]>, none) -> (memref<1x256x10x20xf32, strides: [3200, 200, 20, 1]>, none), %R10, %B1 = "conv.normal"(%R8, %R0, %R15.1152, %C0.0, %D585) {kernel = [1, 1], stride = [1, 1], in_zero = [0, 0], ke_zero = [0, 0], opt_kernel_rotate = False, pad_mode = 0, pad = [0, 0, 0, 0], opt_res_add = False, do_relu = False, sym_range = False, do_rq = False, round_mode = 0} : (memref<1x512x10x20xf32, strides: [3200, 200, 20, 1]>, memref<512x512x1x1xf32>, memref<1x512x1x1xui32, strides: [16, 1, 1, 1]>, f32, none) -> (memref<1x512x10x20xf32, strides: [3200, 200, 20, 1]>, none), %R15.1024, %B1 = "tsbc.s_bc"(%R0, %D585) : (memref<1x32x1x10xf32, strides: [12, 12, 10, 1]>, none) -> (memref<1x32x1x10xf32, strides: [12, 12, 10, 1]>, none), %R13.4608, %B1 = "arith.sub"(%C0.0, %R10, %D585) {round_mode = 0} : (f32, memref<1x512x10x20xf32, strides: [3200, 200, 20, 1]>, none) -> (memref<1x512x10x20xf32, strides: [3200, 200, 20, 1]>, none), %R13.4608, %B1 = "arith.max"(%R13.4608, %C-3.4028198694267105e+35, %D585) {round_mode = 0} : (memref<1x512x10x20xf32, strides: [3200, 200, 20, 1]>, f32, none) -> (memref<1x512x10x20xf32, strides: [3200, 200, 20, 1]>, none), %R12, %B1 = "arith.mul"(%R13.4608, %C1.4426950216293335, %D585) {round_mode = 0} : (memref<1x512x10x20xf32, strides: [3200, 200, 20, 1]>, f32, none) -> (memref<1x512x10x20xf32, strides: [3200, 200, 20, 1]>, none), %R8, %B1 = "arith.cast"(%R12, %D585) {round_mode = 3} : (memref<1x512x10x20xf32, strides: [3200, 200, 20, 1]>, none) -> (memref<1x512x10x20xf32, strides: [3200, 200, 20, 1]>, none), %R12, %B1 = "arith.mul"(%R8, %C0.6931471824645996, %D585) {round_mode = 0} : (memref<1x512x10x20xf32, strides: [3200, 200, 20, 1]>, f32, none) -> (memref<1x512x10x20xf32, strides: [3200, 200, 20, 1]>, none), %R12, %B1 = "arith.sub"(%R13.4608, %R12, %D585) {round_mode = 0} : (memref<1x512x10x20xf32, strides: [3200, 200, 20, 1]>, memref<1x512x10x20xf32, strides: [3200, 200, 20, 1]>, none) -> (memref<1x512x10x20xf32, strides: [3200, 200, 20, 1]>, none), %R13.4608, %B1 = "arith.cast"(%R8, %D585) {round_mode = 1} : (memref<1x512x10x20xf32, strides: [3200, 200, 20, 1]>, none) -> (memref<1x512x10x20xsi16, strides: [3200, 200, 20, 1]>, none), %R8, %B1 = "arith.min"(%R13.4608, %C127, %D585) {round_mode = 0} : (memref<1x512x10x20xsi16, strides: [3200, 200, 20, 1]>, si16, none) -> (memref<1x512x10x20xsi16, strides: [3200, 200, 20, 1]>, none), %R13.4608, %B1 = "arith.max"(%R8, %C-127, %D585) {round_mode = 0} : (memref<1x512x10x20xsi16, strides: [3200, 200, 20, 1]>, si16, none) -> (memref<1x512x10x20xsi16, strides: [3200, 200, 20, 1]>, none), %R8, %B1 = "arith.add_satu"(%R13.4608, %C127, %C23, %D585) {round_mode = 1} : (memref<1x512x10x20xsi16, strides: [3200, 200, 20, 1]>, si16, ui8, none) -> (memref<1x512x10x20xsi32, strides: [3200, 200, 20, 1]>, none), %R13.4608, %B1 = "sfu.taylor_4x"(%R12, %R15.1024, %D585) : (memref<1x512x10x20xf32, strides: [3200, 200, 20, 1]>, memref<1x64x1x10xf32, strides: [0, 0, 10, 1]>, none) -> (memref<1x512x10x20xf32, strides: [3200, 200, 20, 1]>, none), %R8, %B1 = "arith.mul"(%R13.4608, %R8, %D585) {round_mode = 0} : (memref<1x512x10x20xf32, strides: [3200, 200, 20, 1]>, memref<1x512x10x20xf32, strides: [3200, 200, 20, 1]>, none) -> (memref<1x512x10x20xf32, strides: [3200, 200, 20, 1]>, none), %R12, %B1 = "arith.add"(%R8, %C1.0, %D585) {round_mode = 0} : (memref<1x512x10x20xf32, strides: [3200, 200, 20, 1]>, f32, none) -> (memref<1x512x10x20xf32, strides: [3200, 200, 20, 1]>, none), %R8, %B1 = "arith.div"(%C1.0, %R12, %D585) {iter = 3} : (f32, memref<1x512x10x20xf32, strides: [3200, 200, 20, 1]>, none) -> (memref<1x512x10x20xf32, strides: [3200, 200, 20, 1]>, none), %R8, %B1 = "arith.mul"(%R8, %R10, %D585) {round_mode = 0} : (memref<1x512x10x20xf32, strides: [3200, 200, 20, 1]>, memref<1x512x10x20xf32, strides: [3200, 200, 20, 1]>, none) -> (memref<1x512x10x20xf32, strides: [3200, 200, 20, 1]>, none), %R4, %D0 = "dma.tensor"(%G28585984, %B4843) : (memref<1x255x512x1xf32, strides: [130560, 512, 1, 1]>, none) -> (memref<1x255x512x1xf32, strides: [4096, 512, 1, 1]>, none), %R11.6400, %D0 = "dma.tensor"(%G29110272, %B4843) : (memref<1x255x1x1xf32, strides: [255, 1, 1, 1]>, none) -> (memref<1x255x1x1xf32, strides: [8, 1, 1, 1]>, none), %R12, %B1 = "conv.normal"(%R8, %R4, %R11.6400, %C0.0, %D587) {kernel = [1, 1], stride = [1, 1], in_zero = [0, 0], ke_zero = [0, 0], opt_kernel_rotate = False, pad_mode = 0, pad = [0, 0, 0, 0], opt_res_add = False, do_relu = False, sym_range = False, do_rq = False, round_mode = 0} : (memref<1x512x10x20xf32, strides: [3200, 200, 20, 1]>, memref<255x512x1x1xf32>, memref<1x255x1x1xui32, strides: [8, 1, 1, 1]>, f32, none) -> (memref<1x255x10x20xf32, strides: [1600, 200, 20, 1]>, none), %R10, %D0 = "dma.tensor"(%G22889248, %B4859) : (memref<1x512x10x20xf32, strides: [204800, 400, 20, 1]>, none) -> (memref<1x512x10x20xf32, strides: [3200, 200, 20, 1]>, none), %R8, %B1 = "conv.normal"(%R10, %R6, %R15.1216, %C0.0, %D588) {kernel = [1, 1], stride = [1, 1], in_zero = [0, 0], ke_zero = [0, 0], opt_kernel_rotate = False, pad_mode = 0, pad = [0, 0, 0, 0], opt_res_add = False, do_relu = False, sym_range = False, do_rq = False, round_mode = 0} : (memref<1x512x10x20xf32, strides: [3200, 200, 20, 1]>, memref<256x512x1x1xf32>, memref<1x256x1x1xui32, strides: [8, 1, 1, 1]>, f32, none) -> (memref<1x256x10x20xf32, strides: [1600, 200, 20, 1]>, none), %G8572928, %D0 = "dma.tensor"(%R12, %B4860) : (memref<1x255x10x20xf32, strides: [1600, 200, 20, 1]>, none) -> (memref<1x255x10x20xf32, strides: [102000, 400, 20, 1]>, none), %R10.4608, %B1 = "tsbc.s_bc"(%R0, %D589) : (memref<1x32x1x10xf32, strides: [12, 12, 10, 1]>, none) -> (memref<1x32x1x10xf32, strides: [12, 12, 10, 1]>, none), %R9.6400, %B1 = "arith.sub"(%C0.0, %R8, %D589) {round_mode = 0} : (f32, memref<1x256x10x20xf32, strides: [1600, 200, 20, 1]>, none) -> (memref<1x256x10x20xf32, strides: [1600, 200, 20, 1]>, none), %R9.6400, %B1 = "arith.max"(%R9.6400, %C-3.4028198694267105e+35, %D589) {round_mode = 0} : (memref<1x256x10x20xf32, strides: [1600, 200, 20, 1]>, f32, none) -> (memref<1x256x10x20xf32, strides: [1600, 200, 20, 1]>, none), %R9, %B1 = "arith.mul"(%R9.6400, %C1.4426950216293335, %D589) {round_mode = 0} : (memref<1x256x10x20xf32, strides: [1600, 200, 20, 1]>, f32, none) -> (memref<1x256x10x20xf32, strides: [1600, 200, 20, 1]>, none), %R12, %B1 = "arith.cast"(%R9, %D589) {round_mode = 3} : (memref<1x256x10x20xf32, strides: [1600, 200, 20, 1]>, none) -> (memref<1x256x10x20xf32, strides: [1600, 200, 20, 1]>, none), %R9, %B1 = "arith.mul"(%R12, %C0.6931471824645996, %D589) {round_mode = 0} : (memref<1x256x10x20xf32, strides: [1600, 200, 20, 1]>, f32, none) -> (memref<1x256x10x20xf32, strides: [1600, 200, 20, 1]>, none), %R9, %B1 = "arith.sub"(%R9.6400, %R9, %D589) {round_mode = 0} : (memref<1x256x10x20xf32, strides: [1600, 200, 20, 1]>, memref<1x256x10x20xf32, strides: [1600, 200, 20, 1]>, none) -> (memref<1x256x10x20xf32, strides: [1600, 200, 20, 1]>, none), %R9.6400, %B1 = "arith.cast"(%R12, %D589) {round_mode = 1} : (memref<1x256x10x20xf32, strides: [1600, 200, 20, 1]>, none) -> (memref<1x256x10x20xsi16, strides: [1600, 200, 20, 1]>, none), %R12, %B1 = "arith.min"(%R9.6400, %C127, %D589) {round_mode = 0} : (memref<1x256x10x20xsi16, strides: [1600, 200, 20, 1]>, si16, none) -> (memref<1x256x10x20xsi16, strides: [1600, 200, 20, 1]>, none), %R9.6400, %B1 = "arith.max"(%R12, %C-127, %D589) {round_mode = 0} : (memref<1x256x10x20xsi16, strides: [1600, 200, 20, 1]>, si16, none) -> (memref<1x256x10x20xsi16, strides: [1600, 200, 20, 1]>, none), %R12, %B1 = "arith.add_satu"(%R9.6400, %C127, %C23, %D589) {round_mode = 1} : (memref<1x256x10x20xsi16, strides: [1600, 200, 20, 1]>, si16, ui8, none) -> (memref<1x256x10x20xsi32, strides: [1600, 200, 20, 1]>, none), %R9.6400, %B1 = "sfu.taylor_4x"(%R9, %R10.4608, %D589) : (memref<1x256x10x20xf32, strides: [1600, 200, 20, 1]>, memref<1x64x1x10xf32, strides: [0, 0, 10, 1]>, none) -> (memref<1x256x10x20xf32, strides: [1600, 200, 20, 1]>, none), %R12, %B1 = "arith.mul"(%R9.6400, %R12, %D589) {round_mode = 0} : (memref<1x256x10x20xf32, strides: [1600, 200, 20, 1]>, memref<1x256x10x20xf32, strides: [1600, 200, 20, 1]>, none) -> (memref<1x256x10x20xf32, strides: [1600, 200, 20, 1]>, none), %R9, %B1 = "arith.add"(%R12, %C1.0, %D589) {round_mode = 0} : (memref<1x256x10x20xf32, strides: [1600, 200, 20, 1]>, f32, none) -> (memref<1x256x10x20xf32, strides: [1600, 200, 20, 1]>, none), %R12, %B1 = "arith.div"(%C1.0, %R9, %D589) {iter = 3} : (f32, memref<1x256x10x20xf32, strides: [1600, 200, 20, 1]>, none) -> (memref<1x256x10x20xf32, strides: [1600, 200, 20, 1]>, none), %R12, %B1 = "arith.mul"(%R12, %R8, %D589) {round_mode = 0} : (memref<1x256x10x20xf32, strides: [1600, 200, 20, 1]>, memref<1x256x10x20xf32, strides: [1600, 200, 20, 1]>, none) -> (memref<1x256x10x20xf32, strides: [1600, 200, 20, 1]>, none), %R11, %D0 = "dma.tensor"(%G8164128, %B4861) : (memref<1x256x10x20xf32, strides: [102400, 400, 20, 1]>, none) -> (memref<1x256x10x20xf32, strides: [1600, 200, 20, 1]>, none), %R8, %B1 = "arith.copy"(%R11, %D590) {round_mode = 0} : (memref<1x256x10x20xf32, strides: [1600, 200, 20, 1]>, none) -> (memref<1x256x10x20xf32, strides: [3200, 200, 20, 1]>, none), %R8.6400, %B1 = "arith.copy"(%R12, %D590) {round_mode = 0} : (memref<1x256x10x20xf32, strides: [1600, 200, 20, 1]>, none) -> (memref<1x256x10x20xf32, strides: [3200, 200, 20, 1]>, none), %R10, %B1 = "conv.normal"(%R8, %R0, %R15.1152, %C0.0, %D590) {kernel = [1, 1], stride = [1, 1], in_zero = [0, 0], ke_zero = [0, 0], opt_kernel_rotate = False, pad_mode = 0, pad = [0, 0, 0, 0], opt_res_add = False, do_relu = False, sym_range = False, do_rq = False, round_mode = 0} : (memref<1x512x10x20xf32, strides: [3200, 200, 20, 1]>, memref<512x512x1x1xf32>, memref<1x512x1x1xui32, strides: [16, 1, 1, 1]>, f32, none) -> (memref<1x512x10x20xf32, strides: [3200, 200, 20, 1]>, none), %R15.1024, %B1 = "tsbc.s_bc"(%R0, %D590) : (memref<1x32x1x10xf32, strides: [12, 12, 10, 1]>, none) -> (memref<1x32x1x10xf32, strides: [12, 12, 10, 1]>, none), %R13.4608, %B1 = "arith.sub"(%C0.0, %R10, %D590) {round_mode = 0} : (f32, memref<1x512x10x20xf32, strides: [3200, 200, 20, 1]>, none) -> (memref<1x512x10x20xf32, strides: [3200, 200, 20, 1]>, none), %R13.4608, %B1 = "arith.max"(%R13.4608, %C-3.4028198694267105e+35, %D590) {round_mode = 0} : (memref<1x512x10x20xf32, strides: [3200, 200, 20, 1]>, f32, none) -> (memref<1x512x10x20xf32, strides: [3200, 200, 20, 1]>, none), %R12, %B1 = "arith.mul"(%R13.4608, %C1.4426950216293335, %D590) {round_mode = 0} : (memref<1x512x10x20xf32, strides: [3200, 200, 20, 1]>, f32, none) -> (memref<1x512x10x20xf32, strides: [3200, 200, 20, 1]>, none), %R8, %B1 = "arith.cast"(%R12, %D590) {round_mode = 3} : (memref<1x512x10x20xf32, strides: [3200, 200, 20, 1]>, none) -> (memref<1x512x10x20xf32, strides: [3200, 200, 20, 1]>, none), %R12, %B1 = "arith.mul"(%R8, %C0.6931471824645996, %D590) {round_mode = 0} : (memref<1x512x10x20xf32, strides: [3200, 200, 20, 1]>, f32, none) -> (memref<1x512x10x20xf32, strides: [3200, 200, 20, 1]>, none), %R12, %B1 = "arith.sub"(%R13.4608, %R12, %D590) {round_mode = 0} : (memref<1x512x10x20xf32, strides: [3200, 200, 20, 1]>, memref<1x512x10x20xf32, strides: [3200, 200, 20, 1]>, none) -> (memref<1x512x10x20xf32, strides: [3200, 200, 20, 1]>, none), %R13.4608, %B1 = "arith.cast"(%R8, %D590) {round_mode = 1} : (memref<1x512x10x20xf32, strides: [3200, 200, 20, 1]>, none) -> (memref<1x512x10x20xsi16, strides: [3200, 200, 20, 1]>, none), %R8, %B1 = "arith.min"(%R13.4608, %C127, %D590) {round_mode = 0} : (memref<1x512x10x20xsi16, strides: [3200, 200, 20, 1]>, si16, none) -> (memref<1x512x10x20xsi16, strides: [3200, 200, 20, 1]>, none), %R13.4608, %B1 = "arith.max"(%R8, %C-127, %D590) {round_mode = 0} : (memref<1x512x10x20xsi16, strides: [3200, 200, 20, 1]>, si16, none) -> (memref<1x512x10x20xsi16, strides: [3200, 200, 20, 1]>, none), %R8, %B1 = "arith.add_satu"(%R13.4608, %C127, %C23, %D590) {round_mode = 1} : (memref<1x512x10x20xsi16, strides: [3200, 200, 20, 1]>, si16, ui8, none) -> (memref<1x512x10x20xsi32, strides: [3200, 200, 20, 1]>, none), %R13.4608, %B1 = "sfu.taylor_4x"(%R12, %R15.1024, %D590) : (memref<1x512x10x20xf32, strides: [3200, 200, 20, 1]>, memref<1x64x1x10xf32, strides: [0, 0, 10, 1]>, none) -> (memref<1x512x10x20xf32, strides: [3200, 200, 20, 1]>, none), %R8, %B1 = "arith.mul"(%R13.4608, %R8, %D590) {round_mode = 0} : (memref<1x512x10x20xf32, strides: [3200, 200, 20, 1]>, memref<1x512x10x20xf32, strides: [3200, 200, 20, 1]>, none) -> (memref<1x512x10x20xf32, strides: [3200, 200, 20, 1]>, none), %R12, %B1 = "arith.add"(%R8, %C1.0, %D590) {round_mode = 0} : (memref<1x512x10x20xf32, strides: [3200, 200, 20, 1]>, f32, none) -> (memref<1x512x10x20xf32, strides: [3200, 200, 20, 1]>, none), %R8, %B1 = "arith.div"(%C1.0, %R12, %D590) {iter = 3} : (f32, memref<1x512x10x20xf32, strides: [3200, 200, 20, 1]>, none) -> (memref<1x512x10x20xf32, strides: [3200, 200, 20, 1]>, none), %R8, %B1 = "arith.mul"(%R8, %R10, %D590) {round_mode = 0} : (memref<1x512x10x20xf32, strides: [3200, 200, 20, 1]>, memref<1x512x10x20xf32, strides: [3200, 200, 20, 1]>, none) -> (memref<1x512x10x20xf32, strides: [3200, 200, 20, 1]>, none), %R12, %B1 = "conv.normal"(%R8, %R4, %R11.6400, %C0.0, %D590) {kernel = [1, 1], stride = [1, 1], in_zero = [0, 0], ke_zero = [0, 0], opt_kernel_rotate = False, pad_mode = 0, pad = [0, 0, 0, 0], opt_res_add = False, do_relu = False, sym_range = False, do_rq = False, round_mode = 0} : (memref<1x512x10x20xf32, strides: [3200, 200, 20, 1]>, memref<255x512x1x1xf32>, memref<1x255x1x1xui32, strides: [8, 1, 1, 1]>, f32, none) -> (memref<1x255x10x20xf32, strides: [1600, 200, 20, 1]>, none), %G8573728, %D0 = "dma.tensor"(%R12, %B4897) : (memref<1x255x10x20xf32, strides: [1600, 200, 20, 1]>, none) -> (memref<1x255x10x20xf32, strides: [102000, 400, 20, 1]>, none), %R0, %D0 = "dma.tensor"(%G8572928, %B4897) : (memref<255x25x16x1xf32, strides: [400, 16, 1, 1]>, none) -> (memref<255x25x16x1xf32, strides: [16, 16, 1, 1]>, none), %R8, %B1 = "arith.copy"(%R0, %D592) {round_mode = 0} : (memref<3x25x16x85xf32, strides: [1360, 16, 1, 16]>, none) -> (memref<3x25x16x85xf32, strides: [1360, 1360, 85, 1]>, none), %G8163328, %D0 = "dma.tensor"(%R8, %B4898) : (memref<3x25x16x85xf32, strides: [1360, 1360, 85, 1]>, none) -> (memref<3x25x16x85xf32, strides: [34000, 1360, 85, 1]>, none)]