module attributes {module.chip = "ALL", module.name = "resnet50", module.state = "TOP_QUANTIZED", module.weight_file = "resnet50_top_quantized_all_weight.npz"} {
  func @main(%arg0: tensor<4x3x224x224xf32>) -> tensor<4x1000xf32> {
    %0 = "quant.qcast"(%arg0) {name = "input_1_int8"} : (tensor<4x3x224x224xf32>) -> tensor<4x3x224x224x!quant.uniform<i8:f32, 1.0774157047271729:-13>>
    %1 = "top.Weight"() {name = "resnet50/conv1_conv/Conv2D;StatefulPartitionedCall/resnet50/conv1_conv/Conv2D"} : () -> tensor<64x3x7x7x!quant.uniform<i8<-127:127>:f32:0, {… >>
    %2 = "top.Weight"() {name = "resnet50/conv1_bn/FusedBatchNormV3;StatefulPartitionedCall/resnet50/conv1_bn/FusedBatchNormV3"} : () -> tensor<64x!quant.uniform<i32:f32:0, {… >>
    %3 = "top.Conv"(%0, %1, %2) {dilations = [1, 1], do_relu = true, kernel_shape = [7, 7], name = "resnet50/conv1_relu/Relu;StatefulPartitionedCall/resnet50/conv1_relu/Relu;resnet50/conv1_bn/FusedBatchNormV3;StatefulPartitionedCall/resnet50/conv1_bn/FusedBatchNormV3;unknown_0;resnet50/conv1_conv/BiasAdd;StatefulPartitionedCall/resnet50/conv1_conv/BiasAdd;resnet50/conv2_block3_2_conv/Conv2D;StatefulPartitionedCall/resnet50/conv2_block3_2_conv/Conv2D;resnet50/conv1_conv/Conv2D;StatefulPartitionedCall/resnet50/conv1_conv/Conv2D", pads = [3, 3, 3, 3], strides = [2, 2]} : (tensor<4x3x224x224x!quant.uniform<i8:f32, 1.0774157047271729:-13>>, tensor<64x3x7x7x!quant.uniform<i8<-127:127>:f32:0, {… >>, tensor<64x!quant.uniform<i32:f32:0, {… >>) -> tensor<4x64x112x112x!quant.uniform<i8:f32, 0.13142697513103485:-128>>
    %4 = "top.MaxPool"(%3) {kernel_shape = [3, 3], name = "resnet50/pool1_pool/MaxPool;StatefulPartitionedCall/resnet50/pool1_pool/MaxPool", pads = [1, 1, 1, 1], strides = [2, 2]} : (tensor<4x64x112x112x!quant.uniform<i8:f32, 0.13142697513103485:-128>>) -> tensor<4x64x56x56x!quant.uniform<i8:f32, 0.13142697513103485:-128>>
    %5 = "top.Weight"() {name = "resnet50/conv2_block1_0_conv/Conv2D;StatefulPartitionedCall/resnet50/conv2_block1_0_conv/Conv2D"} : () -> tensor<256x64x1x1x!quant.uniform<i8<-127:127>:f32:0, {… >>
    %6 = "top.Weight"() {name = "resnet50/conv2_block1_0_bn/FusedBatchNormV3;StatefulPartitionedCall/resnet50/conv2_block1_0_bn/FusedBatchNormV3;resnet50/conv4_block6_2_conv/Conv2D;StatefulPartitionedCall/resnet50/conv4_block6_2_conv/Conv2D;unknown_60;resnet50/conv2_block1_0_conv/BiasAdd;StatefulPartitionedCall/resnet50/conv2_block1_0_conv/BiasAdd"} : () -> tensor<256x!quant.uniform<i32:f32:0, {… >>
    %7 = "top.Conv"(%4, %5, %6) {dilations = [1, 1], do_relu = false, kernel_shape = [1, 1], name = "resnet50/conv2_block1_0_bn/FusedBatchNormV3;StatefulPartitionedCall/resnet50/conv2_block1_0_bn/FusedBatchNormV3;resnet50/conv4_block6_2_conv/Conv2D;StatefulPartitionedCall/resnet50/conv4_block6_2_conv/Conv2D;unknown_60;resnet50/conv2_block1_0_conv/BiasAdd;StatefulPartitionedCall/resnet50/conv2_block1_0_conv/BiasAdd;resnet50/conv4_block6_2_bn/FusedBatchNormV3;StatefulPartitionedCall/resnet50/conv4_block6_2_bn/FusedBatchNormV3;resnet50/conv4_block6_2_conv/BiasAdd;StatefulPartitionedCall/resnet50/conv4_block6_2_conv/BiasAdd;resnet50/conv2_block1_0_conv/Conv2D;StatefulPartitionedCall/resnet50/conv2_block1_0_conv/Conv2D", pads = [0, 0, 0, 0], strides = [1, 1]} : (tensor<4x64x56x56x!quant.uniform<i8:f32, 0.13142697513103485:-128>>, tensor<256x64x1x1x!quant.uniform<i8<-127:127>:f32:0, {… >>, tensor<256x!quant.uniform<i32:f32:0, {… >>) -> tensor<4x256x56x56x!quant.uniform<i8:f32, 0.17478941380977631:28>>
    %8 = "top.Weight"() {name = "resnet50/conv2_block1_1_conv/Conv2D;StatefulPartitionedCall/resnet50/conv2_block1_1_conv/Conv2D"} : () -> tensor<64x64x1x1x!quant.uniform<i8<-127:127>:f32:0, {… >>
    %9 = "top.Weight"() {name = "resnet50/conv2_block1_1_bn/FusedBatchNormV3;StatefulPartitionedCall/resnet50/conv2_block1_1_bn/FusedBatchNormV3"} : () -> tensor<64x!quant.uniform<i32:f32:0, {… >>
    %10 = "top.Conv"(%4, %8, %9) {dilations = [1, 1], do_relu = true, kernel_shape = [1, 1], name = "resnet50/conv2_block1_1_relu/Relu;StatefulPartitionedCall/resnet50/conv2_block1_1_relu/Relu;resnet50/conv2_block1_1_bn/FusedBatchNormV3;StatefulPartitionedCall/resnet50/conv2_block1_1_bn/FusedBatchNormV3;resnet50/conv2_block3_2_bn/FusedBatchNormV3;StatefulPartitionedCall/resnet50/conv2_block3_2_bn/FusedBatchNormV3;unknown_6;resnet50/conv2_block3_2_conv/BiasAdd;StatefulPartitionedCall/resnet50/conv2_block3_2_conv/BiasAdd;resnet50/conv2_block3_2_conv/Conv2D;StatefulPartitionedCall/resnet50/conv2_block3_2_conv/Conv2D;resnet50/conv2_block1_1_conv/BiasAdd;StatefulPartitionedCall/resnet50/conv2_block1_1_conv/BiasAdd;resnet50/conv2_block1_1_conv/Conv2D;StatefulPartitionedCall/resnet50/conv2_block1_1_conv/Conv2D", pads = [0, 0, 0, 0], strides = [1, 1]} : (tensor<4x64x56x56x!quant.uniform<i8:f32, 0.13142697513103485:-128>>, tensor<64x64x1x1x!quant.uniform<i8<-127:127>:f32:0, {… >>, tensor<64x!quant.uniform<i32:f32:0, {… >>) -> tensor<4x64x56x56x!quant.uniform<i8:f32, 0.058137226849794388:-128>>
    %11 = "top.Weight"() {name = "resnet50/conv2_block1_2_conv/Conv2D;StatefulPartitionedCall/resnet50/conv2_block1_2_conv/Conv2D"} : () -> tensor<64x64x3x3x!quant.uniform<i8<-127:127>:f32:0, {… >>
    %12 = "top.Weight"() {name = "resnet50/conv2_block1_2_bn/FusedBatchNormV3;StatefulPartitionedCall/resnet50/conv2_block1_2_bn/FusedBatchNormV3"} : () -> tensor<64x!quant.uniform<i32:f32:0, {… >>
    %13 = "top.Conv"(%10, %11, %12) {dilations = [1, 1], do_relu = true, kernel_shape = [3, 3], name = "resnet50/conv2_block1_2_relu/Relu;StatefulPartitionedCall/resnet50/conv2_block1_2_relu/Relu;resnet50/conv2_block1_2_bn/FusedBatchNormV3;StatefulPartitionedCall/resnet50/conv2_block1_2_bn/FusedBatchNormV3;resnet50/conv2_block3_2_bn/FusedBatchNormV3;StatefulPartitionedCall/resnet50/conv2_block3_2_bn/FusedBatchNormV3;unknown_6;resnet50/conv2_block3_2_conv/BiasAdd;StatefulPartitionedCall/resnet50/conv2_block3_2_conv/BiasAdd;resnet50/conv2_block3_2_conv/Conv2D;StatefulPartitionedCall/resnet50/conv2_block3_2_conv/Conv2D;resnet50/conv2_block1_2_conv/BiasAdd;StatefulPartitionedCall/resnet50/conv2_block1_2_conv/BiasAdd;resnet50/conv2_block1_2_conv/Conv2D;StatefulPartitionedCall/resnet50/conv2_block1_2_conv/Conv2D", pads = [0, 0, 0, 0], strides = [1, 1]} : (tensor<4x64x56x56x!quant.uniform<i8:f32, 0.058137226849794388:-128>>, tensor<64x64x3x3x!quant.uniform<i8<-127:127>:f32:0, {… >>, tensor<64x!quant.uniform<i32:f32:0, {… >>) -> tensor<4x64x56x56x!quant.uniform<i8:f32, 0.049302853643894196:-128>>
    %14 = "top.Weight"() {name = "resnet50/conv2_block1_3_conv/Conv2D;StatefulPartitionedCall/resnet50/conv2_block1_3_conv/Conv2D"} : () -> tensor<256x64x1x1x!quant.uniform<i8<-127:127>:f32:0, {… >>
    %15 = "top.Weight"() {name = "resnet50/conv2_block1_3_bn/FusedBatchNormV3;StatefulPartitionedCall/resnet50/conv2_block1_3_bn/FusedBatchNormV3;resnet50/conv4_block6_2_conv/Conv2D;StatefulPartitionedCall/resnet50/conv4_block6_2_conv/Conv2D;unknown_60;resnet50/conv2_block1_3_conv/BiasAdd;StatefulPartitionedCall/resnet50/conv2_block1_3_conv/BiasAdd"} : () -> tensor<256x!quant.uniform<i32:f32:0, {… >>
    %16 = "top.Conv"(%13, %14, %15) {dilations = [1, 1], do_relu = false, kernel_shape = [1, 1], name = "resnet50/conv2_block1_3_bn/FusedBatchNormV3;StatefulPartitionedCall/resnet50/conv2_block1_3_bn/FusedBatchNormV3;resnet50/conv4_block6_2_conv/Conv2D;StatefulPartitionedCall/resnet50/conv4_block6_2_conv/Conv2D;unknown_60;resnet50/conv2_block1_3_conv/BiasAdd;StatefulPartitionedCall/resnet50/conv2_block1_3_conv/BiasAdd;resnet50/conv4_block6_2_bn/FusedBatchNormV3;StatefulPartitionedCall/resnet50/conv4_block6_2_bn/FusedBatchNormV3;resnet50/conv4_block6_2_conv/BiasAdd;StatefulPartitionedCall/resnet50/conv4_block6_2_conv/BiasAdd;resnet50/conv2_block1_3_conv/Conv2D;StatefulPartitionedCall/resnet50/conv2_block1_3_conv/Conv2D", pads = [0, 0, 0, 0], strides = [1, 1]} : (tensor<4x64x56x56x!quant.uniform<i8:f32, 0.049302853643894196:-128>>, tensor<256x64x1x1x!quant.uniform<i8<-127:127>:f32:0, {… >>, tensor<256x!quant.uniform<i32:f32:0, {… >>) -> tensor<4x256x56x56x!quant.uniform<i8:f32, 0.10857866704463959:11>>
    %17 = "top.Add"(%7, %16) {name = "resnet50/conv2_block1_out/Relu;StatefulPartitionedCall/resnet50/conv2_block1_out/Relu;resnet50/conv2_block1_add/add;StatefulPartitionedCall/resnet50/conv2_block1_add/add"} : (tensor<4x256x56x56x!quant.uniform<i8:f32, 0.17478941380977631:28>>, tensor<4x256x56x56x!quant.uniform<i8:f32, 0.10857866704463959:11>>) -> tensor<4x256x56x56x!quant.uniform<i8:f32, 0.075033128261566162:-128>>
    %18 = "top.Weight"() {name = "resnet50/conv2_block2_1_conv/Conv2D;StatefulPartitionedCall/resnet50/conv2_block2_1_conv/Conv2D"} : () -> tensor<64x256x1x1x!quant.uniform<i8<-127:127>:f32:0, {… >>
    %19 = "top.Weight"() {name = "resnet50/conv2_block2_1_bn/FusedBatchNormV3;StatefulPartitionedCall/resnet50/conv2_block2_1_bn/FusedBatchNormV3"} : () -> tensor<64x!quant.uniform<i32:f32:0, {… >>
    %20 = "top.Conv"(%17, %18, %19) {dilations = [1, 1], do_relu = true, kernel_shape = [1, 1], name = "resnet50/conv2_block2_1_relu/Relu;StatefulPartitionedCall/resnet50/conv2_block2_1_relu/Relu;resnet50/conv2_block2_1_bn/FusedBatchNormV3;StatefulPartitionedCall/resnet50/conv2_block2_1_bn/FusedBatchNormV3;resnet50/conv2_block3_2_bn/FusedBatchNormV3;StatefulPartitionedCall/resnet50/conv2_block3_2_bn/FusedBatchNormV3;unknown_6;resnet50/conv2_block3_2_conv/BiasAdd;StatefulPartitionedCall/resnet50/conv2_block3_2_conv/BiasAdd;resnet50/conv2_block3_2_conv/Conv2D;StatefulPartitionedCall/resnet50/conv2_block3_2_conv/Conv2D;resnet50/conv2_block2_1_conv/BiasAdd;StatefulPartitionedCall/resnet50/conv2_block2_1_conv/BiasAdd;resnet50/conv2_block2_1_conv/Conv2D;StatefulPartitionedCall/resnet50/conv2_block2_1_conv/Conv2D", pads = [0, 0, 0, 0], strides = [1, 1]} : (tensor<4x256x56x56x!quant.uniform<i8:f32, 0.075033128261566162:-128>>, tensor<64x256x1x1x!quant.uniform<i8<-127:127>:f32:0, {… >>, tensor<64x!quant.uniform<i32:f32:0, {… >>) -> tensor<4x64x56x56x!quant.uniform<i8:f32, 0.047718118876218796:-128>>
    %21 = "top.Weight"() {name = "resnet50/conv2_block2_2_conv/Conv2D;StatefulPartitionedCall/resnet50/conv2_block2_2_conv/Conv2D"} : () -> tensor<64x64x3x3x!quant.uniform<i8<-127:127>:f32:0, {… >>
    %22 = "top.Weight"() {name = "resnet50/conv2_block2_2_bn/FusedBatchNormV3;StatefulPartitionedCall/resnet50/conv2_block2_2_bn/FusedBatchNormV3"} : () -> tensor<64x!quant.uniform<i32:f32:0, {… >>
    %23 = "top.Conv"(%20, %21, %22) {dilations = [1, 1], do_relu = true, kernel_shape = [3, 3], name = "resnet50/conv2_block2_2_relu/Relu;StatefulPartitionedCall/resnet50/conv2_block2_2_relu/Relu;resnet50/conv2_block2_2_bn/FusedBatchNormV3;StatefulPartitionedCall/resnet50/conv2_block2_2_bn/FusedBatchNormV3;resnet50/conv2_block3_2_bn/FusedBatchNormV3;StatefulPartitionedCall/resnet50/conv2_block3_2_bn/FusedBatchNormV3;unknown_6;resnet50/conv2_block3_2_conv/BiasAdd;StatefulPartitionedCall/resnet50/conv2_block3_2_conv/BiasAdd;resnet50/conv2_block3_2_conv/Conv2D;StatefulPartitionedCall/resnet50/conv2_block3_2_conv/Conv2D;resnet50/conv2_block2_2_conv/BiasAdd;StatefulPartitionedCall/resnet50/conv2_block2_2_conv/BiasAdd;resnet50/conv2_block2_2_conv/Conv2D;StatefulPartitionedCall/resnet50/conv2_block2_2_conv/Conv2D", pads = [0, 0, 0, 0], strides = [1, 1]} : (tensor<4x64x56x56x!quant.uniform<i8:f32, 0.047718118876218796:-128>>, tensor<64x64x3x3x!quant.uniform<i8<-127:127>:f32:0, {… >>, tensor<64x!quant.uniform<i32:f32:0, {… >>) -> tensor<4x64x56x56x!quant.uniform<i8:f32, 0.040254630148410797:-128>>
    %24 = "top.Weight"() {name = "resnet50/conv2_block2_3_conv/Conv2D;StatefulPartitionedCall/resnet50/conv2_block2_3_conv/Conv2D"} : () -> tensor<256x64x1x1x!quant.uniform<i8<-127:127>:f32:0, {… >>
    %25 = "top.Weight"() {name = "resnet50/conv2_block2_3_bn/FusedBatchNormV3;StatefulPartitionedCall/resnet50/conv2_block2_3_bn/FusedBatchNormV3;unknown_60;resnet50/conv2_block2_3_conv/BiasAdd;StatefulPartitionedCall/resnet50/conv2_block2_3_conv/BiasAdd"} : () -> tensor<256x!quant.uniform<i32:f32:0, {… >>
    %26 = "top.Conv"(%23, %24, %25) {dilations = [1, 1], do_relu = false, kernel_shape = [1, 1], name = "resnet50/conv2_block2_3_bn/FusedBatchNormV3;StatefulPartitionedCall/resnet50/conv2_block2_3_bn/FusedBatchNormV3;unknown_60;resnet50/conv2_block2_3_conv/BiasAdd;StatefulPartitionedCall/resnet50/conv2_block2_3_conv/BiasAdd;resnet50/conv4_block6_2_bn/FusedBatchNormV3;StatefulPartitionedCall/resnet50/conv4_block6_2_bn/FusedBatchNormV3;resnet50/conv4_block6_2_conv/BiasAdd;StatefulPartitionedCall/resnet50/conv4_block6_2_conv/BiasAdd;resnet50/conv4_block6_2_conv/Conv2D;StatefulPartitionedCall/resnet50/conv4_block6_2_conv/Conv2D;resnet50/conv2_block2_3_conv/Conv2D;StatefulPartitionedCall/resnet50/conv2_block2_3_conv/Conv2D", pads = [0, 0, 0, 0], strides = [1, 1]} : (tensor<4x64x56x56x!quant.uniform<i8:f32, 0.040254630148410797:-128>>, tensor<256x64x1x1x!quant.uniform<i8<-127:127>:f32:0, {… >>, tensor<256x!quant.uniform<i32:f32:0, {… >>) -> tensor<4x256x56x56x!quant.uniform<i8:f32, 0.12868364155292511:1>>
    %27 = "top.Add"(%17, %26) {name = "resnet50/conv2_block2_out/Relu;StatefulPartitionedCall/resnet50/conv2_block2_out/Relu;resnet50/conv2_block2_add/add;StatefulPartitionedCall/resnet50/conv2_block2_add/add"} : (tensor<4x256x56x56x!quant.uniform<i8:f32, 0.075033128261566162:-128>>, tensor<4x256x56x56x!quant.uniform<i8:f32, 0.12868364155292511:1>>) -> tensor<4x256x56x56x!quant.uniform<i8:f32, 0.076903246343135834:-128>>
    %28 = "top.Weight"() {name = "resnet50/conv2_block3_1_conv/Conv2D;StatefulPartitionedCall/resnet50/conv2_block3_1_conv/Conv2D"} : () -> tensor<64x256x1x1x!quant.uniform<i8<-127:127>:f32:0, {… >>
    %29 = "top.Weight"() {name = "resnet50/conv2_block3_1_bn/FusedBatchNormV3;StatefulPartitionedCall/resnet50/conv2_block3_1_bn/FusedBatchNormV3"} : () -> tensor<64x!quant.uniform<i32:f32:0, {… >>
    %30 = "top.Conv"(%27, %28, %29) {dilations = [1, 1], do_relu = true, kernel_shape = [1, 1], name = "resnet50/conv2_block3_1_relu/Relu;StatefulPartitionedCall/resnet50/conv2_block3_1_relu/Relu;resnet50/conv2_block3_1_bn/FusedBatchNormV3;StatefulPartitionedCall/resnet50/conv2_block3_1_bn/FusedBatchNormV3;resnet50/conv2_block3_2_bn/FusedBatchNormV3;StatefulPartitionedCall/resnet50/conv2_block3_2_bn/FusedBatchNormV3;unknown_6;resnet50/conv2_block3_2_conv/BiasAdd;StatefulPartitionedCall/resnet50/conv2_block3_2_conv/BiasAdd;resnet50/conv2_block3_2_conv/Conv2D;StatefulPartitionedCall/resnet50/conv2_block3_2_conv/Conv2D;resnet50/conv2_block3_1_conv/BiasAdd;StatefulPartitionedCall/resnet50/conv2_block3_1_conv/BiasAdd;resnet50/conv2_block3_1_conv/Conv2D;StatefulPartitionedCall/resnet50/conv2_block3_1_conv/Conv2D", pads = [0, 0, 0, 0], strides = [1, 1]} : (tensor<4x256x56x56x!quant.uniform<i8:f32, 0.076903246343135834:-128>>, tensor<64x256x1x1x!quant.uniform<i8<-127:127>:f32:0, {… >>, tensor<64x!quant.uniform<i32:f32:0, {… >>) -> tensor<4x64x56x56x!quant.uniform<i8:f32, 0.051252197474241257:-128>>
    %31 = "top.Weight"() {name = "resnet50/conv2_block3_2_conv/Conv2D;StatefulPartitionedCall/resnet50/conv2_block3_2_conv/Conv2D"} : () -> tensor<64x64x3x3x!quant.uniform<i8<-127:127>:f32:0, {… >>
    %32 = "top.Weight"() {name = "resnet50/conv2_block3_2_bn/FusedBatchNormV3;StatefulPartitionedCall/resnet50/conv2_block3_2_bn/FusedBatchNormV3"} : () -> tensor<64x!quant.uniform<i32:f32:0, {… >>
    %33 = "top.Conv"(%30, %31, %32) {dilations = [1, 1], do_relu = true, kernel_shape = [3, 3], name = "resnet50/conv2_block3_2_relu/Relu;StatefulPartitionedCall/resnet50/conv2_block3_2_relu/Relu;resnet50/conv2_block3_2_bn/FusedBatchNormV3;StatefulPartitionedCall/resnet50/conv2_block3_2_bn/FusedBatchNormV3;unknown_6;resnet50/conv2_block3_2_conv/BiasAdd;StatefulPartitionedCall/resnet50/conv2_block3_2_conv/BiasAdd;resnet50/conv2_block3_2_conv/Conv2D;StatefulPartitionedCall/resnet50/conv2_block3_2_conv/Conv2D", pads = [0, 0, 0, 0], strides = [1, 1]} : (tensor<4x64x56x56x!quant.uniform<i8:f32, 0.051252197474241257:-128>>, tensor<64x64x3x3x!quant.uniform<i8<-127:127>:f32:0, {… >>, tensor<64x!quant.uniform<i32:f32:0, {… >>) -> tensor<4x64x56x56x!quant.uniform<i8:f32, 0.05492861196398735:-128>>
    %34 = "top.Weight"() {name = "resnet50/conv2_block3_3_conv/Conv2D;StatefulPartitionedCall/resnet50/conv2_block3_3_conv/Conv2D"} : () -> tensor<256x64x1x1x!quant.uniform<i8<-127:127>:f32:0, {… >>
    %35 = "top.Weight"() {name = "resnet50/conv2_block3_3_bn/FusedBatchNormV3;StatefulPartitionedCall/resnet50/conv2_block3_3_bn/FusedBatchNormV3;unknown_60;resnet50/conv2_block3_3_conv/BiasAdd;StatefulPartitionedCall/resnet50/conv2_block3_3_conv/BiasAdd"} : () -> tensor<256x!quant.uniform<i32:f32:0, {… >>
    %36 = "top.Conv"(%33, %34, %35) {dilations = [1, 1], do_relu = false, kernel_shape = [1, 1], name = "resnet50/conv2_block3_3_bn/FusedBatchNormV3;StatefulPartitionedCall/resnet50/conv2_block3_3_bn/FusedBatchNormV3;unknown_60;resnet50/conv2_block3_3_conv/BiasAdd;StatefulPartitionedCall/resnet50/conv2_block3_3_conv/BiasAdd;resnet50/conv4_block6_2_bn/FusedBatchNormV3;StatefulPartitionedCall/resnet50/conv4_block6_2_bn/FusedBatchNormV3;resnet50/conv4_block6_2_conv/BiasAdd;StatefulPartitionedCall/resnet50/conv4_block6_2_conv/BiasAdd;resnet50/conv4_block6_2_conv/Conv2D;StatefulPartitionedCall/resnet50/conv4_block6_2_conv/Conv2D;resnet50/conv2_block3_3_conv/Conv2D;StatefulPartitionedCall/resnet50/conv2_block3_3_conv/Conv2D", pads = [0, 0, 0, 0], strides = [1, 1]} : (tensor<4x64x56x56x!quant.uniform<i8:f32, 0.05492861196398735:-128>>, tensor<256x64x1x1x!quant.uniform<i8<-127:127>:f32:0, {… >>, tensor<256x!quant.uniform<i32:f32:0, {… >>) -> tensor<4x256x56x56x!quant.uniform<i8:f32, 0.12156978249549866:7>>
    %37 = "top.Add"(%27, %36) {name = "resnet50/conv2_block3_out/Relu;StatefulPartitionedCall/resnet50/conv2_block3_out/Relu;resnet50/conv2_block3_add/add;StatefulPartitionedCall/resnet50/conv2_block3_add/add"} : (tensor<4x256x56x56x!quant.uniform<i8:f32, 0.076903246343135834:-128>>, tensor<4x256x56x56x!quant.uniform<i8:f32, 0.12156978249549866:7>>) -> tensor<4x256x56x56x!quant.uniform<i8:f32, 0.078102648258209228:-128>>
    %38 = "top.Weight"() {name = "resnet50/conv3_block1_0_conv/Conv2D;StatefulPartitionedCall/resnet50/conv3_block1_0_conv/Conv2D"} : () -> tensor<512x256x1x1x!quant.uniform<i8<-127:127>:f32:0, {… >>
    %39 = "top.Weight"() {name = "resnet50/conv3_block1_0_bn/FusedBatchNormV3;StatefulPartitionedCall/resnet50/conv3_block1_0_bn/FusedBatchNormV3;resnet50/conv5_block3_2_conv/Conv2D;StatefulPartitionedCall/resnet50/conv5_block3_2_conv/Conv2D;unknown_80;resnet50/conv3_block1_0_conv/BiasAdd;StatefulPartitionedCall/resnet50/conv3_block1_0_conv/BiasAdd"} : () -> tensor<512x!quant.uniform<i32:f32:0, {… >>
    %40 = "top.Conv"(%37, %38, %39) {dilations = [1, 1], do_relu = false, kernel_shape = [1, 1], name = "resnet50/conv3_block1_0_bn/FusedBatchNormV3;StatefulPartitionedCall/resnet50/conv3_block1_0_bn/FusedBatchNormV3;resnet50/conv5_block3_2_conv/Conv2D;StatefulPartitionedCall/resnet50/conv5_block3_2_conv/Conv2D;unknown_80;resnet50/conv3_block1_0_conv/BiasAdd;StatefulPartitionedCall/resnet50/conv3_block1_0_conv/BiasAdd;resnet50/conv5_block3_2_bn/FusedBatchNormV3;StatefulPartitionedCall/resnet50/conv5_block3_2_bn/FusedBatchNormV3;resnet50/conv5_block3_2_conv/BiasAdd;StatefulPartitionedCall/resnet50/conv5_block3_2_conv/BiasAdd;resnet50/conv3_block1_0_conv/Conv2D;StatefulPartitionedCall/resnet50/conv3_block1_0_conv/Conv2D", pads = [0, 0, 0, 0], strides = [2, 2]} : (tensor<4x256x56x56x!quant.uniform<i8:f32, 0.078102648258209228:-128>>, tensor<512x256x1x1x!quant.uniform<i8<-127:127>:f32:0, {… >>, tensor<512x!quant.uniform<i32:f32:0, {… >>) -> tensor<4x512x28x28x!quant.uniform<i8:f32, 0.12875053286552429:-2>>
    %41 = "top.Weight"() {name = "resnet50/conv3_block1_1_conv/Conv2D;StatefulPartitionedCall/resnet50/conv3_block1_1_conv/Conv2D"} : () -> tensor<128x256x1x1x!quant.uniform<i8<-127:127>:f32:0, {… >>
    %42 = "top.Weight"() {name = "resnet50/conv3_block1_1_bn/FusedBatchNormV3;StatefulPartitionedCall/resnet50/conv3_block1_1_bn/FusedBatchNormV3"} : () -> tensor<128x!quant.uniform<i32:f32:0, {… >>
    %43 = "top.Conv"(%37, %41, %42) {dilations = [1, 1], do_relu = true, kernel_shape = [1, 1], name = "resnet50/conv3_block1_1_relu/Relu;StatefulPartitionedCall/resnet50/conv3_block1_1_relu/Relu;resnet50/conv3_block1_1_bn/FusedBatchNormV3;StatefulPartitionedCall/resnet50/conv3_block1_1_bn/FusedBatchNormV3;resnet50/conv3_block4_2_bn/FusedBatchNormV3;StatefulPartitionedCall/resnet50/conv3_block4_2_bn/FusedBatchNormV3;unknown_96;resnet50/conv3_block4_2_conv/BiasAdd;StatefulPartitionedCall/resnet50/conv3_block4_2_conv/BiasAdd;resnet50/conv3_block4_2_conv/Conv2D;StatefulPartitionedCall/resnet50/conv3_block4_2_conv/Conv2D;resnet50/conv3_block1_1_conv/BiasAdd;StatefulPartitionedCall/resnet50/conv3_block1_1_conv/BiasAdd;resnet50/conv3_block1_1_conv/Conv2D;StatefulPartitionedCall/resnet50/conv3_block1_1_conv/Conv2D", pads = [0, 0, 0, 0], strides = [2, 2]} : (tensor<4x256x56x56x!quant.uniform<i8:f32, 0.078102648258209228:-128>>, tensor<128x256x1x1x!quant.uniform<i8<-127:127>:f32:0, {… >>, tensor<128x!quant.uniform<i32:f32:0, {… >>) -> tensor<4x128x28x28x!quant.uniform<i8:f32, 0.035487841814756393:-128>>
    %44 = "top.Weight"() {name = "resnet50/conv3_block1_2_conv/Conv2D;StatefulPartitionedCall/resnet50/conv3_block1_2_conv/Conv2D"} : () -> tensor<128x128x3x3x!quant.uniform<i8<-127:127>:f32:0, {… >>
    %45 = "top.Weight"() {name = "resnet50/conv3_block1_2_bn/FusedBatchNormV3;StatefulPartitionedCall/resnet50/conv3_block1_2_bn/FusedBatchNormV3"} : () -> tensor<128x!quant.uniform<i32:f32:0, {… >>
    %46 = "top.Conv"(%43, %44, %45) {dilations = [1, 1], do_relu = true, kernel_shape = [3, 3], name = "resnet50/conv3_block1_2_relu/Relu;StatefulPartitionedCall/resnet50/conv3_block1_2_relu/Relu;resnet50/conv3_block1_2_bn/FusedBatchNormV3;StatefulPartitionedCall/resnet50/conv3_block1_2_bn/FusedBatchNormV3;resnet50/conv3_block4_2_bn/FusedBatchNormV3;StatefulPartitionedCall/resnet50/conv3_block4_2_bn/FusedBatchNormV3;unknown_96;resnet50/conv3_block4_2_conv/BiasAdd;StatefulPartitionedCall/resnet50/conv3_block4_2_conv/BiasAdd;resnet50/conv3_block4_2_conv/Conv2D;StatefulPartitionedCall/resnet50/conv3_block4_2_conv/Conv2D;resnet50/conv3_block1_2_conv/BiasAdd;StatefulPartitionedCall/resnet50/conv3_block1_2_conv/BiasAdd;resnet50/conv3_block1_2_conv/Conv2D;StatefulPartitionedCall/resnet50/conv3_block1_2_conv/Conv2D", pads = [0, 0, 0, 0], strides = [1, 1]} : (tensor<4x128x28x28x!quant.uniform<i8:f32, 0.035487841814756393:-128>>, tensor<128x128x3x3x!quant.uniform<i8<-127:127>:f32:0, {… >>, tensor<128x!quant.uniform<i32:f32:0, {… >>) -> tensor<4x128x28x28x!quant.uniform<i8:f32, 0.034420710057020187:-128>>
    %47 = "top.Weight"() {name = "resnet50/conv3_block1_3_conv/Conv2D;StatefulPartitionedCall/resnet50/conv3_block1_3_conv/Conv2D"} : () -> tensor<512x128x1x1x!quant.uniform<i8<-127:127>:f32:0, {… >>
    %48 = "top.Weight"() {name = "resnet50/conv3_block1_3_bn/FusedBatchNormV3;StatefulPartitionedCall/resnet50/conv3_block1_3_bn/FusedBatchNormV3;unknown_80;resnet50/conv3_block1_3_conv/BiasAdd;StatefulPartitionedCall/resnet50/conv3_block1_3_conv/BiasAdd"} : () -> tensor<512x!quant.uniform<i32:f32:0, {… >>
    %49 = "top.Conv"(%46, %47, %48) {dilations = [1, 1], do_relu = false, kernel_shape = [1, 1], name = "resnet50/conv3_block1_3_bn/FusedBatchNormV3;StatefulPartitionedCall/resnet50/conv3_block1_3_bn/FusedBatchNormV3;unknown_80;resnet50/conv3_block1_3_conv/BiasAdd;StatefulPartitionedCall/resnet50/conv3_block1_3_conv/BiasAdd;resnet50/conv5_block3_2_bn/FusedBatchNormV3;StatefulPartitionedCall/resnet50/conv5_block3_2_bn/FusedBatchNormV3;resnet50/conv5_block3_2_conv/BiasAdd;StatefulPartitionedCall/resnet50/conv5_block3_2_conv/BiasAdd;resnet50/conv5_block3_2_conv/Conv2D;StatefulPartitionedCall/resnet50/conv5_block3_2_conv/Conv2D;resnet50/conv3_block1_3_conv/Conv2D;StatefulPartitionedCall/resnet50/conv3_block1_3_conv/Conv2D", pads = [0, 0, 0, 0], strides = [1, 1]} : (tensor<4x128x28x28x!quant.uniform<i8:f32, 0.034420710057020187:-128>>, tensor<512x128x1x1x!quant.uniform<i8<-127:127>:f32:0, {… >>, tensor<512x!quant.uniform<i32:f32:0, {… >>) -> tensor<4x512x28x28x!quant.uniform<i8:f32, 0.16662143170833588:13>>
    %50 = "top.Add"(%40, %49) {name = "resnet50/conv3_block1_out/Relu;StatefulPartitionedCall/resnet50/conv3_block1_out/Relu;resnet50/conv3_block1_add/add;StatefulPartitionedCall/resnet50/conv3_block1_add/add"} : (tensor<4x512x28x28x!quant.uniform<i8:f32, 0.12875053286552429:-2>>, tensor<4x512x28x28x!quant.uniform<i8:f32, 0.16662143170833588:13>>) -> tensor<4x512x28x28x!quant.uniform<i8:f32, 0.074619919061660767:-128>>
    %51 = "top.Weight"() {name = "resnet50/conv3_block2_1_conv/Conv2D;StatefulPartitionedCall/resnet50/conv3_block2_1_conv/Conv2D"} : () -> tensor<128x512x1x1x!quant.uniform<i8<-127:127>:f32:0, {… >>
    %52 = "top.Weight"() {name = "resnet50/conv3_block2_1_bn/FusedBatchNormV3;StatefulPartitionedCall/resnet50/conv3_block2_1_bn/FusedBatchNormV3"} : () -> tensor<128x!quant.uniform<i32:f32:0, {… >>
    %53 = "top.Conv"(%50, %51, %52) {dilations = [1, 1], do_relu = true, kernel_shape = [1, 1], name = "resnet50/conv3_block2_1_relu/Relu;StatefulPartitionedCall/resnet50/conv3_block2_1_relu/Relu;resnet50/conv3_block2_1_bn/FusedBatchNormV3;StatefulPartitionedCall/resnet50/conv3_block2_1_bn/FusedBatchNormV3;resnet50/conv3_block4_2_bn/FusedBatchNormV3;StatefulPartitionedCall/resnet50/conv3_block4_2_bn/FusedBatchNormV3;unknown_96;resnet50/conv3_block4_2_conv/BiasAdd;StatefulPartitionedCall/resnet50/conv3_block4_2_conv/BiasAdd;resnet50/conv3_block4_2_conv/Conv2D;StatefulPartitionedCall/resnet50/conv3_block4_2_conv/Conv2D;resnet50/conv3_block2_1_conv/BiasAdd;StatefulPartitionedCall/resnet50/conv3_block2_1_conv/BiasAdd;resnet50/conv3_block2_1_conv/Conv2D;StatefulPartitionedCall/resnet50/conv3_block2_1_conv/Conv2D", pads = [0, 0, 0, 0], strides = [1, 1]} : (tensor<4x512x28x28x!quant.uniform<i8:f32, 0.074619919061660767:-128>>, tensor<128x512x1x1x!quant.uniform<i8<-127:127>:f32:0, {… >>, tensor<128x!quant.uniform<i32:f32:0, {… >>) -> tensor<4x128x28x28x!quant.uniform<i8:f32, 0.03789466992020607:-128>>
    %54 = "top.Weight"() {name = "resnet50/conv3_block2_2_conv/Conv2D;StatefulPartitionedCall/resnet50/conv3_block2_2_conv/Conv2D"} : () -> tensor<128x128x3x3x!quant.uniform<i8<-127:127>:f32:0, {… >>
    %55 = "top.Weight"() {name = "resnet50/conv3_block2_2_bn/FusedBatchNormV3;StatefulPartitionedCall/resnet50/conv3_block2_2_bn/FusedBatchNormV3"} : () -> tensor<128x!quant.uniform<i32:f32:0, {… >>
    %56 = "top.Conv"(%53, %54, %55) {dilations = [1, 1], do_relu = true, kernel_shape = [3, 3], name = "resnet50/conv3_block2_2_relu/Relu;StatefulPartitionedCall/resnet50/conv3_block2_2_relu/Relu;resnet50/conv3_block2_2_bn/FusedBatchNormV3;StatefulPartitionedCall/resnet50/conv3_block2_2_bn/FusedBatchNormV3;resnet50/conv3_block4_2_bn/FusedBatchNormV3;StatefulPartitionedCall/resnet50/conv3_block4_2_bn/FusedBatchNormV3;unknown_96;resnet50/conv3_block4_2_conv/BiasAdd;StatefulPartitionedCall/resnet50/conv3_block4_2_conv/BiasAdd;resnet50/conv3_block4_2_conv/Conv2D;StatefulPartitionedCall/resnet50/conv3_block4_2_conv/Conv2D;resnet50/conv3_block2_2_conv/BiasAdd;StatefulPartitionedCall/resnet50/conv3_block2_2_conv/BiasAdd;resnet50/conv3_block2_2_conv/Conv2D;StatefulPartitionedCall/resnet50/conv3_block2_2_conv/Conv2D", pads = [0, 0, 0, 0], strides = [1, 1]} : (tensor<4x128x28x28x!quant.uniform<i8:f32, 0.03789466992020607:-128>>, tensor<128x128x3x3x!quant.uniform<i8<-127:127>:f32:0, {… >>, tensor<128x!quant.uniform<i32:f32:0, {… >>) -> tensor<4x128x28x28x!quant.uniform<i8:f32, 0.0398293137550354:-128>>
    %57 = "top.Weight"() {name = "resnet50/conv3_block2_3_conv/Conv2D;StatefulPartitionedCall/resnet50/conv3_block2_3_conv/Conv2D"} : () -> tensor<512x128x1x1x!quant.uniform<i8<-127:127>:f32:0, {… >>
    %58 = "top.Weight"() {name = "resnet50/conv3_block2_3_bn/FusedBatchNormV3;StatefulPartitionedCall/resnet50/conv3_block2_3_bn/FusedBatchNormV3;unknown_80;resnet50/conv3_block2_3_conv/BiasAdd;StatefulPartitionedCall/resnet50/conv3_block2_3_conv/BiasAdd"} : () -> tensor<512x!quant.uniform<i32:f32:0, {… >>
    %59 = "top.Conv"(%56, %57, %58) {dilations = [1, 1], do_relu = false, kernel_shape = [1, 1], name = "resnet50/conv3_block2_3_bn/FusedBatchNormV3;StatefulPartitionedCall/resnet50/conv3_block2_3_bn/FusedBatchNormV3;unknown_80;resnet50/conv3_block2_3_conv/BiasAdd;StatefulPartitionedCall/resnet50/conv3_block2_3_conv/BiasAdd;resnet50/conv5_block3_2_bn/FusedBatchNormV3;StatefulPartitionedCall/resnet50/conv5_block3_2_bn/FusedBatchNormV3;resnet50/conv5_block3_2_conv/BiasAdd;StatefulPartitionedCall/resnet50/conv5_block3_2_conv/BiasAdd;resnet50/conv5_block3_2_conv/Conv2D;StatefulPartitionedCall/resnet50/conv5_block3_2_conv/Conv2D;resnet50/conv3_block2_3_conv/Conv2D;StatefulPartitionedCall/resnet50/conv3_block2_3_conv/Conv2D", pads = [0, 0, 0, 0], strides = [1, 1]} : (tensor<4x128x28x28x!quant.uniform<i8:f32, 0.0398293137550354:-128>>, tensor<512x128x1x1x!quant.uniform<i8<-127:127>:f32:0, {… >>, tensor<512x!quant.uniform<i32:f32:0, {… >>) -> tensor<4x512x28x28x!quant.uniform<i8:f32, 0.13095104694366455:-26>>
    %60 = "top.Add"(%50, %59) {name = "resnet50/conv3_block2_out/Relu;StatefulPartitionedCall/resnet50/conv3_block2_out/Relu;resnet50/conv3_block2_add/add;StatefulPartitionedCall/resnet50/conv3_block2_add/add"} : (tensor<4x512x28x28x!quant.uniform<i8:f32, 0.074619919061660767:-128>>, tensor<4x512x28x28x!quant.uniform<i8:f32, 0.13095104694366455:-26>>) -> tensor<4x512x28x28x!quant.uniform<i8:f32, 0.078699856996536255:-128>>
    %61 = "top.Weight"() {name = "resnet50/conv3_block3_1_conv/Conv2D;StatefulPartitionedCall/resnet50/conv3_block3_1_conv/Conv2D"} : () -> tensor<128x512x1x1x!quant.uniform<i8<-127:127>:f32:0, {… >>
    %62 = "top.Weight"() {name = "resnet50/conv3_block3_1_bn/FusedBatchNormV3;StatefulPartitionedCall/resnet50/conv3_block3_1_bn/FusedBatchNormV3"} : () -> tensor<128x!quant.uniform<i32:f32:0, {… >>
    %63 = "top.Conv"(%60, %61, %62) {dilations = [1, 1], do_relu = true, kernel_shape = [1, 1], name = "resnet50/conv3_block3_1_relu/Relu;StatefulPartitionedCall/resnet50/conv3_block3_1_relu/Relu;resnet50/conv3_block3_1_bn/FusedBatchNormV3;StatefulPartitionedCall/resnet50/conv3_block3_1_bn/FusedBatchNormV3;resnet50/conv3_block4_2_bn/FusedBatchNormV3;StatefulPartitionedCall/resnet50/conv3_block4_2_bn/FusedBatchNormV3;unknown_96;resnet50/conv3_block4_2_conv/BiasAdd;StatefulPartitionedCall/resnet50/conv3_block4_2_conv/BiasAdd;resnet50/conv3_block4_2_conv/Conv2D;StatefulPartitionedCall/resnet50/conv3_block4_2_conv/Conv2D;resnet50/conv3_block3_1_conv/BiasAdd;StatefulPartitionedCall/resnet50/conv3_block3_1_conv/BiasAdd;resnet50/conv3_block3_1_conv/Conv2D;StatefulPartitionedCall/resnet50/conv3_block3_1_conv/Conv2D", pads = [0, 0, 0, 0], strides = [1, 1]} : (tensor<4x512x28x28x!quant.uniform<i8:f32, 0.078699856996536255:-128>>, tensor<128x512x1x1x!quant.uniform<i8<-127:127>:f32:0, {… >>, tensor<128x!quant.uniform<i32:f32:0, {… >>) -> tensor<4x128x28x28x!quant.uniform<i8:f32, 0.098208740353584289:-128>>
    %64 = "top.Weight"() {name = "resnet50/conv3_block3_2_conv/Conv2D;StatefulPartitionedCall/resnet50/conv3_block3_2_conv/Conv2D"} : () -> tensor<128x128x3x3x!quant.uniform<i8<-127:127>:f32:0, {… >>
    %65 = "top.Weight"() {name = "resnet50/conv3_block3_2_bn/FusedBatchNormV3;StatefulPartitionedCall/resnet50/conv3_block3_2_bn/FusedBatchNormV3"} : () -> tensor<128x!quant.uniform<i32:f32:0, {… >>
    %66 = "top.Conv"(%63, %64, %65) {dilations = [1, 1], do_relu = true, kernel_shape = [3, 3], name = "resnet50/conv3_block3_2_relu/Relu;StatefulPartitionedCall/resnet50/conv3_block3_2_relu/Relu;resnet50/conv3_block3_2_bn/FusedBatchNormV3;StatefulPartitionedCall/resnet50/conv3_block3_2_bn/FusedBatchNormV3;resnet50/conv3_block4_2_bn/FusedBatchNormV3;StatefulPartitionedCall/resnet50/conv3_block4_2_bn/FusedBatchNormV3;unknown_96;resnet50/conv3_block4_2_conv/BiasAdd;StatefulPartitionedCall/resnet50/conv3_block4_2_conv/BiasAdd;resnet50/conv3_block4_2_conv/Conv2D;StatefulPartitionedCall/resnet50/conv3_block4_2_conv/Conv2D;resnet50/conv3_block3_2_conv/BiasAdd;StatefulPartitionedCall/resnet50/conv3_block3_2_conv/BiasAdd;resnet50/conv3_block3_2_conv/Conv2D;StatefulPartitionedCall/resnet50/conv3_block3_2_conv/Conv2D", pads = [0, 0, 0, 0], strides = [1, 1]} : (tensor<4x128x28x28x!quant.uniform<i8:f32, 0.098208740353584289:-128>>, tensor<128x128x3x3x!quant.uniform<i8<-127:127>:f32:0, {… >>, tensor<128x!quant.uniform<i32:f32:0, {… >>) -> tensor<4x128x28x28x!quant.uniform<i8:f32, 0.24670413136482239:-128>>
    %67 = "top.Weight"() {name = "resnet50/conv3_block3_3_conv/Conv2D;StatefulPartitionedCall/resnet50/conv3_block3_3_conv/Conv2D"} : () -> tensor<512x128x1x1x!quant.uniform<i8<-127:127>:f32:0, {… >>
    %68 = "top.Weight"() {name = "resnet50/conv3_block3_3_bn/FusedBatchNormV3;StatefulPartitionedCall/resnet50/conv3_block3_3_bn/FusedBatchNormV3;unknown_80;resnet50/conv3_block3_3_conv/BiasAdd;StatefulPartitionedCall/resnet50/conv3_block3_3_conv/BiasAdd"} : () -> tensor<512x!quant.uniform<i32:f32:0, {… >>
    %69 = "top.Conv"(%66, %67, %68) {dilations = [1, 1], do_relu = false, kernel_shape = [1, 1], name = "resnet50/conv3_block3_3_bn/FusedBatchNormV3;StatefulPartitionedCall/resnet50/conv3_block3_3_bn/FusedBatchNormV3;unknown_80;resnet50/conv3_block3_3_conv/BiasAdd;StatefulPartitionedCall/resnet50/conv3_block3_3_conv/BiasAdd;resnet50/conv5_block3_2_bn/FusedBatchNormV3;StatefulPartitionedCall/resnet50/conv5_block3_2_bn/FusedBatchNormV3;resnet50/conv5_block3_2_conv/BiasAdd;StatefulPartitionedCall/resnet50/conv5_block3_2_conv/BiasAdd;resnet50/conv5_block3_2_conv/Conv2D;StatefulPartitionedCall/resnet50/conv5_block3_2_conv/Conv2D;resnet50/conv3_block3_3_conv/Conv2D;StatefulPartitionedCall/resnet50/conv3_block3_3_conv/Conv2D", pads = [0, 0, 0, 0], strides = [1, 1]} : (tensor<4x128x28x28x!quant.uniform<i8:f32, 0.24670413136482239:-128>>, tensor<512x128x1x1x!quant.uniform<i8<-127:127>:f32:0, {… >>, tensor<512x!quant.uniform<i32:f32:0, {… >>) -> tensor<4x512x28x28x!quant.uniform<i8:f32, 0.21352644264698029:34>>
    %70 = "top.Add"(%60, %69) {name = "resnet50/conv3_block3_out/Relu;StatefulPartitionedCall/resnet50/conv3_block3_out/Relu;resnet50/conv3_block3_add/add;StatefulPartitionedCall/resnet50/conv3_block3_add/add"} : (tensor<4x512x28x28x!quant.uniform<i8:f32, 0.078699856996536255:-128>>, tensor<4x512x28x28x!quant.uniform<i8:f32, 0.21352644264698029:34>>) -> tensor<4x512x28x28x!quant.uniform<i8:f32, 0.079672656953334808:-128>>
    %71 = "top.Weight"() {name = "resnet50/conv3_block4_1_conv/Conv2D;StatefulPartitionedCall/resnet50/conv3_block4_1_conv/Conv2D"} : () -> tensor<128x512x1x1x!quant.uniform<i8<-127:127>:f32:0, {… >>
    %72 = "top.Weight"() {name = "resnet50/conv3_block4_1_bn/FusedBatchNormV3;StatefulPartitionedCall/resnet50/conv3_block4_1_bn/FusedBatchNormV3"} : () -> tensor<128x!quant.uniform<i32:f32:0, {… >>
    %73 = "top.Conv"(%70, %71, %72) {dilations = [1, 1], do_relu = true, kernel_shape = [1, 1], name = "resnet50/conv3_block4_1_relu/Relu;StatefulPartitionedCall/resnet50/conv3_block4_1_relu/Relu;resnet50/conv3_block4_1_bn/FusedBatchNormV3;StatefulPartitionedCall/resnet50/conv3_block4_1_bn/FusedBatchNormV3;resnet50/conv3_block4_2_bn/FusedBatchNormV3;StatefulPartitionedCall/resnet50/conv3_block4_2_bn/FusedBatchNormV3;unknown_96;resnet50/conv3_block4_2_conv/BiasAdd;StatefulPartitionedCall/resnet50/conv3_block4_2_conv/BiasAdd;resnet50/conv3_block4_2_conv/Conv2D;StatefulPartitionedCall/resnet50/conv3_block4_2_conv/Conv2D;resnet50/conv3_block4_1_conv/BiasAdd;StatefulPartitionedCall/resnet50/conv3_block4_1_conv/BiasAdd;resnet50/conv3_block4_1_conv/Conv2D;StatefulPartitionedCall/resnet50/conv3_block4_1_conv/Conv2D", pads = [0, 0, 0, 0], strides = [1, 1]} : (tensor<4x512x28x28x!quant.uniform<i8:f32, 0.079672656953334808:-128>>, tensor<128x512x1x1x!quant.uniform<i8<-127:127>:f32:0, {… >>, tensor<128x!quant.uniform<i32:f32:0, {… >>) -> tensor<4x128x28x28x!quant.uniform<i8:f32, 0.1244414895772934:-128>>
    %74 = "top.Weight"() {name = "resnet50/conv3_block4_2_conv/Conv2D;StatefulPartitionedCall/resnet50/conv3_block4_2_conv/Conv2D"} : () -> tensor<128x128x3x3x!quant.uniform<i8<-127:127>:f32:0, {… >>
    %75 = "top.Weight"() {name = "resnet50/conv3_block4_2_bn/FusedBatchNormV3;StatefulPartitionedCall/resnet50/conv3_block4_2_bn/FusedBatchNormV3"} : () -> tensor<128x!quant.uniform<i32:f32:0, {… >>
    %76 = "top.Conv"(%73, %74, %75) {dilations = [1, 1], do_relu = true, kernel_shape = [3, 3], name = "resnet50/conv3_block4_2_relu/Relu;StatefulPartitionedCall/resnet50/conv3_block4_2_relu/Relu;resnet50/conv3_block4_2_bn/FusedBatchNormV3;StatefulPartitionedCall/resnet50/conv3_block4_2_bn/FusedBatchNormV3;unknown_96;resnet50/conv3_block4_2_conv/BiasAdd;StatefulPartitionedCall/resnet50/conv3_block4_2_conv/BiasAdd;resnet50/conv3_block4_2_conv/Conv2D;StatefulPartitionedCall/resnet50/conv3_block4_2_conv/Conv2D", pads = [0, 0, 0, 0], strides = [1, 1]} : (tensor<4x128x28x28x!quant.uniform<i8:f32, 0.1244414895772934:-128>>, tensor<128x128x3x3x!quant.uniform<i8<-127:127>:f32:0, {… >>, tensor<128x!quant.uniform<i32:f32:0, {… >>) -> tensor<4x128x28x28x!quant.uniform<i8:f32, 0.058760140091180801:-128>>
    %77 = "top.Weight"() {name = "resnet50/conv3_block4_3_conv/Conv2D;StatefulPartitionedCall/resnet50/conv3_block4_3_conv/Conv2D"} : () -> tensor<512x128x1x1x!quant.uniform<i8<-127:127>:f32:0, {… >>
    %78 = "top.Weight"() {name = "resnet50/conv3_block4_3_bn/FusedBatchNormV3;StatefulPartitionedCall/resnet50/conv3_block4_3_bn/FusedBatchNormV3;unknown_80;resnet50/conv3_block4_3_conv/BiasAdd;StatefulPartitionedCall/resnet50/conv3_block4_3_conv/BiasAdd"} : () -> tensor<512x!quant.uniform<i32:f32:0, {… >>
    %79 = "top.Conv"(%76, %77, %78) {dilations = [1, 1], do_relu = false, kernel_shape = [1, 1], name = "resnet50/conv3_block4_3_bn/FusedBatchNormV3;StatefulPartitionedCall/resnet50/conv3_block4_3_bn/FusedBatchNormV3;unknown_80;resnet50/conv3_block4_3_conv/BiasAdd;StatefulPartitionedCall/resnet50/conv3_block4_3_conv/BiasAdd;resnet50/conv5_block3_2_bn/FusedBatchNormV3;StatefulPartitionedCall/resnet50/conv5_block3_2_bn/FusedBatchNormV3;resnet50/conv5_block3_2_conv/BiasAdd;StatefulPartitionedCall/resnet50/conv5_block3_2_conv/BiasAdd;resnet50/conv5_block3_2_conv/Conv2D;StatefulPartitionedCall/resnet50/conv5_block3_2_conv/Conv2D;resnet50/conv3_block4_3_conv/Conv2D;StatefulPartitionedCall/resnet50/conv3_block4_3_conv/Conv2D", pads = [0, 0, 0, 0], strides = [1, 1]} : (tensor<4x128x28x28x!quant.uniform<i8:f32, 0.058760140091180801:-128>>, tensor<512x128x1x1x!quant.uniform<i8<-127:127>:f32:0, {… >>, tensor<512x!quant.uniform<i32:f32:0, {… >>) -> tensor<4x512x28x28x!quant.uniform<i8:f32, 0.12207212299108505>>
    %80 = "top.Add"(%70, %79) {name = "resnet50/conv3_block4_out/Relu;StatefulPartitionedCall/resnet50/conv3_block4_out/Relu;resnet50/conv3_block4_add/add;StatefulPartitionedCall/resnet50/conv3_block4_add/add"} : (tensor<4x512x28x28x!quant.uniform<i8:f32, 0.079672656953334808:-128>>, tensor<4x512x28x28x!quant.uniform<i8:f32, 0.12207212299108505>>) -> tensor<4x512x28x28x!quant.uniform<i8:f32, 0.092144824564456939:-128>>
    %81 = "top.Weight"() {name = "resnet50/conv4_block1_0_conv/Conv2D;StatefulPartitionedCall/resnet50/conv4_block1_0_conv/Conv2D"} : () -> tensor<1024x512x1x1x!quant.uniform<i8<-127:127>:f32:0, {… >>
    %82 = "top.Weight"() {name = "resnet50/conv4_block1_0_bn/FusedBatchNormV3;StatefulPartitionedCall/resnet50/conv4_block1_0_bn/FusedBatchNormV3;resnet50/conv4_block6_3_conv/Conv2D;StatefulPartitionedCall/resnet50/conv4_block6_3_conv/Conv2D;unknown_252;resnet50/conv4_block1_0_conv/BiasAdd;StatefulPartitionedCall/resnet50/conv4_block1_0_conv/BiasAdd"} : () -> tensor<1024x!quant.uniform<i32:f32:0, {… >>
    %83 = "top.Conv"(%80, %81, %82) {dilations = [1, 1], do_relu = false, kernel_shape = [1, 1], name = "resnet50/conv4_block1_0_bn/FusedBatchNormV3;StatefulPartitionedCall/resnet50/conv4_block1_0_bn/FusedBatchNormV3;resnet50/conv4_block6_3_conv/Conv2D;StatefulPartitionedCall/resnet50/conv4_block6_3_conv/Conv2D;unknown_252;resnet50/conv4_block1_0_conv/BiasAdd;StatefulPartitionedCall/resnet50/conv4_block1_0_conv/BiasAdd;resnet50/conv4_block1_0_conv/Conv2D;StatefulPartitionedCall/resnet50/conv4_block1_0_conv/Conv2D", pads = [0, 0, 0, 0], strides = [2, 2]} : (tensor<4x512x28x28x!quant.uniform<i8:f32, 0.092144824564456939:-128>>, tensor<1024x512x1x1x!quant.uniform<i8<-127:127>:f32:0, {… >>, tensor<1024x!quant.uniform<i32:f32:0, {… >>) -> tensor<4x1024x14x14x!quant.uniform<i8:f32, 0.16036412119865417:-13>>
    %84 = "top.Weight"() {name = "resnet50/conv4_block1_1_conv/Conv2D;StatefulPartitionedCall/resnet50/conv4_block1_1_conv/Conv2D"} : () -> tensor<256x512x1x1x!quant.uniform<i8<-127:127>:f32:0, {… >>
    %85 = "top.Weight"() {name = "resnet50/conv4_block1_1_bn/FusedBatchNormV3;StatefulPartitionedCall/resnet50/conv4_block1_1_bn/FusedBatchNormV3"} : () -> tensor<256x!quant.uniform<i32:f32:0, {… >>
    %86 = "top.Conv"(%80, %84, %85) {dilations = [1, 1], do_relu = true, kernel_shape = [1, 1], name = "resnet50/conv4_block1_1_relu/Relu;StatefulPartitionedCall/resnet50/conv4_block1_1_relu/Relu;resnet50/conv4_block1_1_bn/FusedBatchNormV3;StatefulPartitionedCall/resnet50/conv4_block1_1_bn/FusedBatchNormV3;resnet50/conv4_block6_2_bn/FusedBatchNormV3;StatefulPartitionedCall/resnet50/conv4_block6_2_bn/FusedBatchNormV3;unknown_60;resnet50/conv4_block6_2_conv/BiasAdd;StatefulPartitionedCall/resnet50/conv4_block6_2_conv/BiasAdd;resnet50/conv4_block6_2_conv/Conv2D;StatefulPartitionedCall/resnet50/conv4_block6_2_conv/Conv2D;resnet50/conv4_block1_1_conv/BiasAdd;StatefulPartitionedCall/resnet50/conv4_block1_1_conv/BiasAdd;resnet50/conv4_block1_1_conv/Conv2D;StatefulPartitionedCall/resnet50/conv4_block1_1_conv/Conv2D", pads = [0, 0, 0, 0], strides = [2, 2]} : (tensor<4x512x28x28x!quant.uniform<i8:f32, 0.092144824564456939:-128>>, tensor<256x512x1x1x!quant.uniform<i8<-127:127>:f32:0, {… >>, tensor<256x!quant.uniform<i32:f32:0, {… >>) -> tensor<4x256x14x14x!quant.uniform<i8:f32, 0.070716619491577148:-128>>
    %87 = "top.Weight"() {name = "resnet50/conv4_block1_2_conv/Conv2D;StatefulPartitionedCall/resnet50/conv4_block1_2_conv/Conv2D"} : () -> tensor<256x256x3x3x!quant.uniform<i8<-127:127>:f32:0, {… >>
    %88 = "top.Weight"() {name = "resnet50/conv4_block1_2_bn/FusedBatchNormV3;StatefulPartitionedCall/resnet50/conv4_block1_2_bn/FusedBatchNormV3"} : () -> tensor<256x!quant.uniform<i32:f32:0, {… >>
    %89 = "top.Conv"(%86, %87, %88) {dilations = [1, 1], do_relu = true, kernel_shape = [3, 3], name = "resnet50/conv4_block1_2_relu/Relu;StatefulPartitionedCall/resnet50/conv4_block1_2_relu/Relu;resnet50/conv4_block1_2_bn/FusedBatchNormV3;StatefulPartitionedCall/resnet50/conv4_block1_2_bn/FusedBatchNormV3;resnet50/conv4_block6_2_bn/FusedBatchNormV3;StatefulPartitionedCall/resnet50/conv4_block6_2_bn/FusedBatchNormV3;unknown_60;resnet50/conv4_block6_2_conv/BiasAdd;StatefulPartitionedCall/resnet50/conv4_block6_2_conv/BiasAdd;resnet50/conv4_block6_2_conv/Conv2D;StatefulPartitionedCall/resnet50/conv4_block6_2_conv/Conv2D;resnet50/conv4_block1_2_conv/BiasAdd;StatefulPartitionedCall/resnet50/conv4_block1_2_conv/BiasAdd;resnet50/conv4_block1_2_conv/Conv2D;StatefulPartitionedCall/resnet50/conv4_block1_2_conv/Conv2D", pads = [0, 0, 0, 0], strides = [1, 1]} : (tensor<4x256x14x14x!quant.uniform<i8:f32, 0.070716619491577148:-128>>, tensor<256x256x3x3x!quant.uniform<i8<-127:127>:f32:0, {… >>, tensor<256x!quant.uniform<i32:f32:0, {… >>) -> tensor<4x256x14x14x!quant.uniform<i8:f32, 0.054362248629331589:-128>>
    %90 = "top.Weight"() {name = "resnet50/conv4_block1_3_conv/Conv2D;StatefulPartitionedCall/resnet50/conv4_block1_3_conv/Conv2D"} : () -> tensor<1024x256x1x1x!quant.uniform<i8<-127:127>:f32:0, {… >>
    %91 = "top.Weight"() {name = "resnet50/conv4_block1_3_bn/FusedBatchNormV3;StatefulPartitionedCall/resnet50/conv4_block1_3_bn/FusedBatchNormV3;resnet50/conv4_block6_3_conv/Conv2D;StatefulPartitionedCall/resnet50/conv4_block6_3_conv/Conv2D;unknown_252;resnet50/conv4_block1_3_conv/BiasAdd;StatefulPartitionedCall/resnet50/conv4_block1_3_conv/BiasAdd"} : () -> tensor<1024x!quant.uniform<i32:f32:0, {… >>
    %92 = "top.Conv"(%89, %90, %91) {dilations = [1, 1], do_relu = false, kernel_shape = [1, 1], name = "resnet50/conv4_block1_3_bn/FusedBatchNormV3;StatefulPartitionedCall/resnet50/conv4_block1_3_bn/FusedBatchNormV3;resnet50/conv4_block6_3_conv/Conv2D;StatefulPartitionedCall/resnet50/conv4_block6_3_conv/Conv2D;unknown_252;resnet50/conv4_block1_3_conv/BiasAdd;StatefulPartitionedCall/resnet50/conv4_block1_3_conv/BiasAdd;resnet50/conv4_block1_3_conv/Conv2D;StatefulPartitionedCall/resnet50/conv4_block1_3_conv/Conv2D", pads = [0, 0, 0, 0], strides = [1, 1]} : (tensor<4x256x14x14x!quant.uniform<i8:f32, 0.054362248629331589:-128>>, tensor<1024x256x1x1x!quant.uniform<i8<-127:127>:f32:0, {… >>, tensor<1024x!quant.uniform<i32:f32:0, {… >>) -> tensor<4x1024x14x14x!quant.uniform<i8:f32, 0.12496723234653473:1>>
    %93 = "top.Add"(%83, %92) {name = "resnet50/conv4_block1_out/Relu;StatefulPartitionedCall/resnet50/conv4_block1_out/Relu;resnet50/conv4_block1_add/add;StatefulPartitionedCall/resnet50/conv4_block1_add/add"} : (tensor<4x1024x14x14x!quant.uniform<i8:f32, 0.16036412119865417:-13>>, tensor<4x1024x14x14x!quant.uniform<i8:f32, 0.12496723234653473:1>>) -> tensor<4x1024x14x14x!quant.uniform<i8:f32, 0.089331105351448059:-128>>
    %94 = "top.Weight"() {name = "resnet50/conv4_block2_1_conv/Conv2D;StatefulPartitionedCall/resnet50/conv4_block2_1_conv/Conv2D"} : () -> tensor<256x1024x1x1x!quant.uniform<i8<-127:127>:f32:0, {… >>
    %95 = "top.Weight"() {name = "resnet50/conv4_block2_1_bn/FusedBatchNormV3;StatefulPartitionedCall/resnet50/conv4_block2_1_bn/FusedBatchNormV3"} : () -> tensor<256x!quant.uniform<i32:f32:0, {… >>
    %96 = "top.Conv"(%93, %94, %95) {dilations = [1, 1], do_relu = true, kernel_shape = [1, 1], name = "resnet50/conv4_block2_1_relu/Relu;StatefulPartitionedCall/resnet50/conv4_block2_1_relu/Relu;resnet50/conv4_block2_1_bn/FusedBatchNormV3;StatefulPartitionedCall/resnet50/conv4_block2_1_bn/FusedBatchNormV3;resnet50/conv4_block6_2_bn/FusedBatchNormV3;StatefulPartitionedCall/resnet50/conv4_block6_2_bn/FusedBatchNormV3;unknown_60;resnet50/conv4_block6_2_conv/BiasAdd;StatefulPartitionedCall/resnet50/conv4_block6_2_conv/BiasAdd;resnet50/conv4_block6_2_conv/Conv2D;StatefulPartitionedCall/resnet50/conv4_block6_2_conv/Conv2D;resnet50/conv4_block2_1_conv/BiasAdd;StatefulPartitionedCall/resnet50/conv4_block2_1_conv/BiasAdd;resnet50/conv4_block2_1_conv/Conv2D;StatefulPartitionedCall/resnet50/conv4_block2_1_conv/Conv2D", pads = [0, 0, 0, 0], strides = [1, 1]} : (tensor<4x1024x14x14x!quant.uniform<i8:f32, 0.089331105351448059:-128>>, tensor<256x1024x1x1x!quant.uniform<i8<-127:127>:f32:0, {… >>, tensor<256x!quant.uniform<i32:f32:0, {… >>) -> tensor<4x256x14x14x!quant.uniform<i8:f32, 0.073228918015956879:-128>>
    %97 = "top.Weight"() {name = "resnet50/conv4_block2_2_conv/Conv2D;StatefulPartitionedCall/resnet50/conv4_block2_2_conv/Conv2D"} : () -> tensor<256x256x3x3x!quant.uniform<i8<-127:127>:f32:0, {… >>
    %98 = "top.Weight"() {name = "resnet50/conv4_block2_2_bn/FusedBatchNormV3;StatefulPartitionedCall/resnet50/conv4_block2_2_bn/FusedBatchNormV3"} : () -> tensor<256x!quant.uniform<i32:f32:0, {… >>
    %99 = "top.Conv"(%96, %97, %98) {dilations = [1, 1], do_relu = true, kernel_shape = [3, 3], name = "resnet50/conv4_block2_2_relu/Relu;StatefulPartitionedCall/resnet50/conv4_block2_2_relu/Relu;resnet50/conv4_block2_2_bn/FusedBatchNormV3;StatefulPartitionedCall/resnet50/conv4_block2_2_bn/FusedBatchNormV3;resnet50/conv4_block6_2_bn/FusedBatchNormV3;StatefulPartitionedCall/resnet50/conv4_block6_2_bn/FusedBatchNormV3;unknown_60;resnet50/conv4_block6_2_conv/BiasAdd;StatefulPartitionedCall/resnet50/conv4_block6_2_conv/BiasAdd;resnet50/conv4_block6_2_conv/Conv2D;StatefulPartitionedCall/resnet50/conv4_block6_2_conv/Conv2D;resnet50/conv4_block2_2_conv/BiasAdd;StatefulPartitionedCall/resnet50/conv4_block2_2_conv/BiasAdd;resnet50/conv4_block2_2_conv/Conv2D;StatefulPartitionedCall/resnet50/conv4_block2_2_conv/Conv2D", pads = [0, 0, 0, 0], strides = [1, 1]} : (tensor<4x256x14x14x!quant.uniform<i8:f32, 0.073228918015956879:-128>>, tensor<256x256x3x3x!quant.uniform<i8<-127:127>:f32:0, {… >>, tensor<256x!quant.uniform<i32:f32:0, {… >>) -> tensor<4x256x14x14x!quant.uniform<i8:f32, 0.13575978577136993:-128>>
    %100 = "top.Weight"() {name = "resnet50/conv4_block2_3_conv/Conv2D;StatefulPartitionedCall/resnet50/conv4_block2_3_conv/Conv2D"} : () -> tensor<1024x256x1x1x!quant.uniform<i8<-127:127>:f32:0, {… >>
    %101 = "top.Weight"() {name = "resnet50/conv4_block2_3_bn/FusedBatchNormV3;StatefulPartitionedCall/resnet50/conv4_block2_3_bn/FusedBatchNormV3;resnet50/conv4_block6_3_conv/Conv2D;StatefulPartitionedCall/resnet50/conv4_block6_3_conv/Conv2D;unknown_252;resnet50/conv4_block2_3_conv/BiasAdd;StatefulPartitionedCall/resnet50/conv4_block2_3_conv/BiasAdd"} : () -> tensor<1024x!quant.uniform<i32:f32:0, {… >>
    %102 = "top.Conv"(%99, %100, %101) {dilations = [1, 1], do_relu = false, kernel_shape = [1, 1], name = "resnet50/conv4_block2_3_bn/FusedBatchNormV3;StatefulPartitionedCall/resnet50/conv4_block2_3_bn/FusedBatchNormV3;resnet50/conv4_block6_3_conv/Conv2D;StatefulPartitionedCall/resnet50/conv4_block6_3_conv/Conv2D;unknown_252;resnet50/conv4_block2_3_conv/BiasAdd;StatefulPartitionedCall/resnet50/conv4_block2_3_conv/BiasAdd;resnet50/conv4_block2_3_conv/Conv2D;StatefulPartitionedCall/resnet50/conv4_block2_3_conv/Conv2D", pads = [0, 0, 0, 0], strides = [1, 1]} : (tensor<4x256x14x14x!quant.uniform<i8:f32, 0.13575978577136993:-128>>, tensor<1024x256x1x1x!quant.uniform<i8<-127:127>:f32:0, {… >>, tensor<1024x!quant.uniform<i32:f32:0, {… >>) -> tensor<4x1024x14x14x!quant.uniform<i8:f32, 0.14208555221557617:20>>
    %103 = "top.Add"(%93, %102) {name = "resnet50/conv4_block2_out/Relu;StatefulPartitionedCall/resnet50/conv4_block2_out/Relu;resnet50/conv4_block2_add/add;StatefulPartitionedCall/resnet50/conv4_block2_add/add"} : (tensor<4x1024x14x14x!quant.uniform<i8:f32, 0.089331105351448059:-128>>, tensor<4x1024x14x14x!quant.uniform<i8:f32, 0.14208555221557617:20>>) -> tensor<4x1024x14x14x!quant.uniform<i8:f32, 0.076138973236083984:-128>>
    %104 = "top.Weight"() {name = "resnet50/conv4_block3_1_conv/Conv2D;StatefulPartitionedCall/resnet50/conv4_block3_1_conv/Conv2D"} : () -> tensor<256x1024x1x1x!quant.uniform<i8<-127:127>:f32:0, {… >>
    %105 = "top.Weight"() {name = "resnet50/conv4_block3_1_bn/FusedBatchNormV3;StatefulPartitionedCall/resnet50/conv4_block3_1_bn/FusedBatchNormV3"} : () -> tensor<256x!quant.uniform<i32:f32:0, {… >>
    %106 = "top.Conv"(%103, %104, %105) {dilations = [1, 1], do_relu = true, kernel_shape = [1, 1], name = "resnet50/conv4_block3_1_relu/Relu;StatefulPartitionedCall/resnet50/conv4_block3_1_relu/Relu;resnet50/conv4_block3_1_bn/FusedBatchNormV3;StatefulPartitionedCall/resnet50/conv4_block3_1_bn/FusedBatchNormV3;resnet50/conv4_block6_2_bn/FusedBatchNormV3;StatefulPartitionedCall/resnet50/conv4_block6_2_bn/FusedBatchNormV3;unknown_60;resnet50/conv4_block6_2_conv/BiasAdd;StatefulPartitionedCall/resnet50/conv4_block6_2_conv/BiasAdd;resnet50/conv4_block6_2_conv/Conv2D;StatefulPartitionedCall/resnet50/conv4_block6_2_conv/Conv2D;resnet50/conv4_block3_1_conv/BiasAdd;StatefulPartitionedCall/resnet50/conv4_block3_1_conv/BiasAdd;resnet50/conv4_block3_1_conv/Conv2D;StatefulPartitionedCall/resnet50/conv4_block3_1_conv/Conv2D", pads = [0, 0, 0, 0], strides = [1, 1]} : (tensor<4x1024x14x14x!quant.uniform<i8:f32, 0.076138973236083984:-128>>, tensor<256x1024x1x1x!quant.uniform<i8<-127:127>:f32:0, {… >>, tensor<256x!quant.uniform<i32:f32:0, {… >>) -> tensor<4x256x14x14x!quant.uniform<i8:f32, 0.076351970434188843:-128>>
    %107 = "top.Weight"() {name = "resnet50/conv4_block3_2_conv/Conv2D;StatefulPartitionedCall/resnet50/conv4_block3_2_conv/Conv2D"} : () -> tensor<256x256x3x3x!quant.uniform<i8<-127:127>:f32:0, {… >>
    %108 = "top.Weight"() {name = "resnet50/conv4_block3_2_bn/FusedBatchNormV3;StatefulPartitionedCall/resnet50/conv4_block3_2_bn/FusedBatchNormV3"} : () -> tensor<256x!quant.uniform<i32:f32:0, {… >>
    %109 = "top.Conv"(%106, %107, %108) {dilations = [1, 1], do_relu = true, kernel_shape = [3, 3], name = "resnet50/conv4_block3_2_relu/Relu;StatefulPartitionedCall/resnet50/conv4_block3_2_relu/Relu;resnet50/conv4_block3_2_bn/FusedBatchNormV3;StatefulPartitionedCall/resnet50/conv4_block3_2_bn/FusedBatchNormV3;resnet50/conv4_block6_2_bn/FusedBatchNormV3;StatefulPartitionedCall/resnet50/conv4_block6_2_bn/FusedBatchNormV3;unknown_60;resnet50/conv4_block6_2_conv/BiasAdd;StatefulPartitionedCall/resnet50/conv4_block6_2_conv/BiasAdd;resnet50/conv4_block6_2_conv/Conv2D;StatefulPartitionedCall/resnet50/conv4_block6_2_conv/Conv2D;resnet50/conv4_block3_2_conv/BiasAdd;StatefulPartitionedCall/resnet50/conv4_block3_2_conv/BiasAdd;resnet50/conv4_block3_2_conv/Conv2D;StatefulPartitionedCall/resnet50/conv4_block3_2_conv/Conv2D", pads = [0, 0, 0, 0], strides = [1, 1]} : (tensor<4x256x14x14x!quant.uniform<i8:f32, 0.076351970434188843:-128>>, tensor<256x256x3x3x!quant.uniform<i8<-127:127>:f32:0, {… >>, tensor<256x!quant.uniform<i32:f32:0, {… >>) -> tensor<4x256x14x14x!quant.uniform<i8:f32, 0.13234405219554901:-128>>
    %110 = "top.Weight"() {name = "resnet50/conv4_block3_3_conv/Conv2D;StatefulPartitionedCall/resnet50/conv4_block3_3_conv/Conv2D"} : () -> tensor<1024x256x1x1x!quant.uniform<i8<-127:127>:f32:0, {… >>
    %111 = "top.Weight"() {name = "resnet50/conv4_block3_3_bn/FusedBatchNormV3;StatefulPartitionedCall/resnet50/conv4_block3_3_bn/FusedBatchNormV3;resnet50/conv4_block6_3_conv/Conv2D;StatefulPartitionedCall/resnet50/conv4_block6_3_conv/Conv2D;unknown_252;resnet50/conv4_block3_3_conv/BiasAdd;StatefulPartitionedCall/resnet50/conv4_block3_3_conv/BiasAdd"} : () -> tensor<1024x!quant.uniform<i32:f32:0, {… >>
    %112 = "top.Conv"(%109, %110, %111) {dilations = [1, 1], do_relu = false, kernel_shape = [1, 1], name = "resnet50/conv4_block3_3_bn/FusedBatchNormV3;StatefulPartitionedCall/resnet50/conv4_block3_3_bn/FusedBatchNormV3;resnet50/conv4_block6_3_conv/Conv2D;StatefulPartitionedCall/resnet50/conv4_block6_3_conv/Conv2D;unknown_252;resnet50/conv4_block3_3_conv/BiasAdd;StatefulPartitionedCall/resnet50/conv4_block3_3_conv/BiasAdd;resnet50/conv4_block3_3_conv/Conv2D;StatefulPartitionedCall/resnet50/conv4_block3_3_conv/Conv2D", pads = [0, 0, 0, 0], strides = [1, 1]} : (tensor<4x256x14x14x!quant.uniform<i8:f32, 0.13234405219554901:-128>>, tensor<1024x256x1x1x!quant.uniform<i8<-127:127>:f32:0, {… >>, tensor<1024x!quant.uniform<i32:f32:0, {… >>) -> tensor<4x1024x14x14x!quant.uniform<i8:f32, 0.12426798045635223:-24>>
    %113 = "top.Add"(%103, %112) {name = "resnet50/conv4_block3_out/Relu;StatefulPartitionedCall/resnet50/conv4_block3_out/Relu;resnet50/conv4_block3_add/add;StatefulPartitionedCall/resnet50/conv4_block3_add/add"} : (tensor<4x1024x14x14x!quant.uniform<i8:f32, 0.076138973236083984:-128>>, tensor<4x1024x14x14x!quant.uniform<i8:f32, 0.12426798045635223:-24>>) -> tensor<4x1024x14x14x!quant.uniform<i8:f32, 0.074228391051292419:-128>>
    %114 = "top.Weight"() {name = "resnet50/conv4_block4_1_conv/Conv2D;StatefulPartitionedCall/resnet50/conv4_block4_1_conv/Conv2D"} : () -> tensor<256x1024x1x1x!quant.uniform<i8<-127:127>:f32:0, {… >>
    %115 = "top.Weight"() {name = "resnet50/conv4_block4_1_bn/FusedBatchNormV3;StatefulPartitionedCall/resnet50/conv4_block4_1_bn/FusedBatchNormV3"} : () -> tensor<256x!quant.uniform<i32:f32:0, {… >>
    %116 = "top.Conv"(%113, %114, %115) {dilations = [1, 1], do_relu = true, kernel_shape = [1, 1], name = "resnet50/conv4_block4_1_relu/Relu;StatefulPartitionedCall/resnet50/conv4_block4_1_relu/Relu;resnet50/conv4_block4_1_bn/FusedBatchNormV3;StatefulPartitionedCall/resnet50/conv4_block4_1_bn/FusedBatchNormV3;resnet50/conv4_block6_2_bn/FusedBatchNormV3;StatefulPartitionedCall/resnet50/conv4_block6_2_bn/FusedBatchNormV3;unknown_60;resnet50/conv4_block6_2_conv/BiasAdd;StatefulPartitionedCall/resnet50/conv4_block6_2_conv/BiasAdd;resnet50/conv4_block6_2_conv/Conv2D;StatefulPartitionedCall/resnet50/conv4_block6_2_conv/Conv2D;resnet50/conv4_block4_1_conv/BiasAdd;StatefulPartitionedCall/resnet50/conv4_block4_1_conv/BiasAdd;resnet50/conv4_block4_1_conv/Conv2D;StatefulPartitionedCall/resnet50/conv4_block4_1_conv/Conv2D", pads = [0, 0, 0, 0], strides = [1, 1]} : (tensor<4x1024x14x14x!quant.uniform<i8:f32, 0.074228391051292419:-128>>, tensor<256x1024x1x1x!quant.uniform<i8<-127:127>:f32:0, {… >>, tensor<256x!quant.uniform<i32:f32:0, {… >>) -> tensor<4x256x14x14x!quant.uniform<i8:f32, 0.087129779160022735:-128>>
    %117 = "top.Weight"() {name = "resnet50/conv4_block4_2_conv/Conv2D;StatefulPartitionedCall/resnet50/conv4_block4_2_conv/Conv2D"} : () -> tensor<256x256x3x3x!quant.uniform<i8<-127:127>:f32:0, {… >>
    %118 = "top.Weight"() {name = "resnet50/conv4_block4_2_bn/FusedBatchNormV3;StatefulPartitionedCall/resnet50/conv4_block4_2_bn/FusedBatchNormV3"} : () -> tensor<256x!quant.uniform<i32:f32:0, {… >>
    %119 = "top.Conv"(%116, %117, %118) {dilations = [1, 1], do_relu = true, kernel_shape = [3, 3], name = "resnet50/conv4_block4_2_relu/Relu;StatefulPartitionedCall/resnet50/conv4_block4_2_relu/Relu;resnet50/conv4_block4_2_bn/FusedBatchNormV3;StatefulPartitionedCall/resnet50/conv4_block4_2_bn/FusedBatchNormV3;resnet50/conv4_block6_2_bn/FusedBatchNormV3;StatefulPartitionedCall/resnet50/conv4_block6_2_bn/FusedBatchNormV3;unknown_60;resnet50/conv4_block6_2_conv/BiasAdd;StatefulPartitionedCall/resnet50/conv4_block6_2_conv/BiasAdd;resnet50/conv4_block6_2_conv/Conv2D;StatefulPartitionedCall/resnet50/conv4_block6_2_conv/Conv2D;resnet50/conv4_block4_2_conv/BiasAdd;StatefulPartitionedCall/resnet50/conv4_block4_2_conv/BiasAdd;resnet50/conv4_block4_2_conv/Conv2D;StatefulPartitionedCall/resnet50/conv4_block4_2_conv/Conv2D", pads = [0, 0, 0, 0], strides = [1, 1]} : (tensor<4x256x14x14x!quant.uniform<i8:f32, 0.087129779160022735:-128>>, tensor<256x256x3x3x!quant.uniform<i8<-127:127>:f32:0, {… >>, tensor<256x!quant.uniform<i32:f32:0, {… >>) -> tensor<4x256x14x14x!quant.uniform<i8:f32, 0.1672016978263855:-128>>
    %120 = "top.Weight"() {name = "resnet50/conv4_block4_3_conv/Conv2D;StatefulPartitionedCall/resnet50/conv4_block4_3_conv/Conv2D"} : () -> tensor<1024x256x1x1x!quant.uniform<i8<-127:127>:f32:0, {… >>
    %121 = "top.Weight"() {name = "resnet50/conv4_block4_3_bn/FusedBatchNormV3;StatefulPartitionedCall/resnet50/conv4_block4_3_bn/FusedBatchNormV3;unknown_252;resnet50/conv4_block4_3_conv/BiasAdd;StatefulPartitionedCall/resnet50/conv4_block4_3_conv/BiasAdd"} : () -> tensor<1024x!quant.uniform<i32:f32:0, {… >>
    %122 = "top.Conv"(%119, %120, %121) {dilations = [1, 1], do_relu = false, kernel_shape = [1, 1], name = "resnet50/conv4_block4_3_bn/FusedBatchNormV3;StatefulPartitionedCall/resnet50/conv4_block4_3_bn/FusedBatchNormV3;unknown_252;resnet50/conv4_block4_3_conv/BiasAdd;StatefulPartitionedCall/resnet50/conv4_block4_3_conv/BiasAdd;resnet50/conv4_block6_3_conv/Conv2D;StatefulPartitionedCall/resnet50/conv4_block6_3_conv/Conv2D;resnet50/conv4_block4_3_conv/Conv2D;StatefulPartitionedCall/resnet50/conv4_block4_3_conv/Conv2D", pads = [0, 0, 0, 0], strides = [1, 1]} : (tensor<4x256x14x14x!quant.uniform<i8:f32, 0.1672016978263855:-128>>, tensor<1024x256x1x1x!quant.uniform<i8<-127:127>:f32:0, {… >>, tensor<1024x!quant.uniform<i32:f32:0, {… >>) -> tensor<4x1024x14x14x!quant.uniform<i8:f32, 0.19181802868843079:16>>
    %123 = "top.Add"(%113, %122) {name = "resnet50/conv4_block4_out/Relu;StatefulPartitionedCall/resnet50/conv4_block4_out/Relu;resnet50/conv4_block4_add/add;StatefulPartitionedCall/resnet50/conv4_block4_add/add"} : (tensor<4x1024x14x14x!quant.uniform<i8:f32, 0.074228391051292419:-128>>, tensor<4x1024x14x14x!quant.uniform<i8:f32, 0.19181802868843079:16>>) -> tensor<4x1024x14x14x!quant.uniform<i8:f32, 0.090421877801418304:-128>>
    %124 = "top.Weight"() {name = "resnet50/conv4_block5_1_conv/Conv2D;StatefulPartitionedCall/resnet50/conv4_block5_1_conv/Conv2D"} : () -> tensor<256x1024x1x1x!quant.uniform<i8<-127:127>:f32:0, {… >>
    %125 = "top.Weight"() {name = "resnet50/conv4_block5_1_bn/FusedBatchNormV3;StatefulPartitionedCall/resnet50/conv4_block5_1_bn/FusedBatchNormV3"} : () -> tensor<256x!quant.uniform<i32:f32:0, {… >>
    %126 = "top.Conv"(%123, %124, %125) {dilations = [1, 1], do_relu = true, kernel_shape = [1, 1], name = "resnet50/conv4_block5_1_relu/Relu;StatefulPartitionedCall/resnet50/conv4_block5_1_relu/Relu;resnet50/conv4_block5_1_bn/FusedBatchNormV3;StatefulPartitionedCall/resnet50/conv4_block5_1_bn/FusedBatchNormV3;resnet50/conv4_block6_2_bn/FusedBatchNormV3;StatefulPartitionedCall/resnet50/conv4_block6_2_bn/FusedBatchNormV3;unknown_60;resnet50/conv4_block6_2_conv/BiasAdd;StatefulPartitionedCall/resnet50/conv4_block6_2_conv/BiasAdd;resnet50/conv4_block6_2_conv/Conv2D;StatefulPartitionedCall/resnet50/conv4_block6_2_conv/Conv2D;resnet50/conv4_block5_1_conv/BiasAdd;StatefulPartitionedCall/resnet50/conv4_block5_1_conv/BiasAdd;resnet50/conv4_block5_1_conv/Conv2D;StatefulPartitionedCall/resnet50/conv4_block5_1_conv/Conv2D", pads = [0, 0, 0, 0], strides = [1, 1]} : (tensor<4x1024x14x14x!quant.uniform<i8:f32, 0.090421877801418304:-128>>, tensor<256x1024x1x1x!quant.uniform<i8<-127:127>:f32:0, {… >>, tensor<256x!quant.uniform<i32:f32:0, {… >>) -> tensor<4x256x14x14x!quant.uniform<i8:f32, 0.074317082762718201:-128>>
    %127 = "top.Weight"() {name = "resnet50/conv4_block5_2_conv/Conv2D;StatefulPartitionedCall/resnet50/conv4_block5_2_conv/Conv2D"} : () -> tensor<256x256x3x3x!quant.uniform<i8<-127:127>:f32:0, {… >>
    %128 = "top.Weight"() {name = "resnet50/conv4_block5_2_bn/FusedBatchNormV3;StatefulPartitionedCall/resnet50/conv4_block5_2_bn/FusedBatchNormV3"} : () -> tensor<256x!quant.uniform<i32:f32:0, {… >>
    %129 = "top.Conv"(%126, %127, %128) {dilations = [1, 1], do_relu = true, kernel_shape = [3, 3], name = "resnet50/conv4_block5_2_relu/Relu;StatefulPartitionedCall/resnet50/conv4_block5_2_relu/Relu;resnet50/conv4_block5_2_bn/FusedBatchNormV3;StatefulPartitionedCall/resnet50/conv4_block5_2_bn/FusedBatchNormV3;resnet50/conv4_block6_2_bn/FusedBatchNormV3;StatefulPartitionedCall/resnet50/conv4_block6_2_bn/FusedBatchNormV3;unknown_60;resnet50/conv4_block6_2_conv/BiasAdd;StatefulPartitionedCall/resnet50/conv4_block6_2_conv/BiasAdd;resnet50/conv4_block6_2_conv/Conv2D;StatefulPartitionedCall/resnet50/conv4_block6_2_conv/Conv2D;resnet50/conv4_block5_2_conv/BiasAdd;StatefulPartitionedCall/resnet50/conv4_block5_2_conv/BiasAdd;resnet50/conv4_block5_2_conv/Conv2D;StatefulPartitionedCall/resnet50/conv4_block5_2_conv/Conv2D", pads = [0, 0, 0, 0], strides = [1, 1]} : (tensor<4x256x14x14x!quant.uniform<i8:f32, 0.074317082762718201:-128>>, tensor<256x256x3x3x!quant.uniform<i8<-127:127>:f32:0, {… >>, tensor<256x!quant.uniform<i32:f32:0, {… >>) -> tensor<4x256x14x14x!quant.uniform<i8:f32, 0.1293921172618866:-128>>
    %130 = "top.Weight"() {name = "resnet50/conv4_block5_3_conv/Conv2D;StatefulPartitionedCall/resnet50/conv4_block5_3_conv/Conv2D"} : () -> tensor<1024x256x1x1x!quant.uniform<i8<-127:127>:f32:0, {… >>
    %131 = "top.Weight"() {name = "resnet50/conv4_block5_3_bn/FusedBatchNormV3;StatefulPartitionedCall/resnet50/conv4_block5_3_bn/FusedBatchNormV3;unknown_252;resnet50/conv4_block5_3_conv/BiasAdd;StatefulPartitionedCall/resnet50/conv4_block5_3_conv/BiasAdd"} : () -> tensor<1024x!quant.uniform<i32:f32:0, {… >>
    %132 = "top.Conv"(%129, %130, %131) {dilations = [1, 1], do_relu = false, kernel_shape = [1, 1], name = "resnet50/conv4_block5_3_bn/FusedBatchNormV3;StatefulPartitionedCall/resnet50/conv4_block5_3_bn/FusedBatchNormV3;unknown_252;resnet50/conv4_block5_3_conv/BiasAdd;StatefulPartitionedCall/resnet50/conv4_block5_3_conv/BiasAdd;resnet50/conv4_block6_3_conv/Conv2D;StatefulPartitionedCall/resnet50/conv4_block6_3_conv/Conv2D;resnet50/conv4_block5_3_conv/Conv2D;StatefulPartitionedCall/resnet50/conv4_block5_3_conv/Conv2D", pads = [0, 0, 0, 0], strides = [1, 1]} : (tensor<4x256x14x14x!quant.uniform<i8:f32, 0.1293921172618866:-128>>, tensor<1024x256x1x1x!quant.uniform<i8<-127:127>:f32:0, {… >>, tensor<1024x!quant.uniform<i32:f32:0, {… >>) -> tensor<4x1024x14x14x!quant.uniform<i8:f32, 0.15285274386405945:34>>
    %133 = "top.Add"(%123, %132) {name = "resnet50/conv4_block5_out/Relu;StatefulPartitionedCall/resnet50/conv4_block5_out/Relu;resnet50/conv4_block5_add/add;StatefulPartitionedCall/resnet50/conv4_block5_add/add"} : (tensor<4x1024x14x14x!quant.uniform<i8:f32, 0.090421877801418304:-128>>, tensor<4x1024x14x14x!quant.uniform<i8:f32, 0.15285274386405945:34>>) -> tensor<4x1024x14x14x!quant.uniform<i8:f32, 0.09774220734834671:-128>>
    %134 = "top.Weight"() {name = "resnet50/conv4_block6_1_conv/Conv2D;StatefulPartitionedCall/resnet50/conv4_block6_1_conv/Conv2D"} : () -> tensor<256x1024x1x1x!quant.uniform<i8<-127:127>:f32:0, {… >>
    %135 = "top.Weight"() {name = "resnet50/conv4_block6_1_bn/FusedBatchNormV3;StatefulPartitionedCall/resnet50/conv4_block6_1_bn/FusedBatchNormV3"} : () -> tensor<256x!quant.uniform<i32:f32:0, {… >>
    %136 = "top.Conv"(%133, %134, %135) {dilations = [1, 1], do_relu = true, kernel_shape = [1, 1], name = "resnet50/conv4_block6_1_relu/Relu;StatefulPartitionedCall/resnet50/conv4_block6_1_relu/Relu;resnet50/conv4_block6_1_bn/FusedBatchNormV3;StatefulPartitionedCall/resnet50/conv4_block6_1_bn/FusedBatchNormV3;resnet50/conv4_block6_2_bn/FusedBatchNormV3;StatefulPartitionedCall/resnet50/conv4_block6_2_bn/FusedBatchNormV3;unknown_60;resnet50/conv4_block6_2_conv/BiasAdd;StatefulPartitionedCall/resnet50/conv4_block6_2_conv/BiasAdd;resnet50/conv4_block6_2_conv/Conv2D;StatefulPartitionedCall/resnet50/conv4_block6_2_conv/Conv2D;resnet50/conv4_block6_1_conv/BiasAdd;StatefulPartitionedCall/resnet50/conv4_block6_1_conv/BiasAdd;resnet50/conv4_block6_1_conv/Conv2D;StatefulPartitionedCall/resnet50/conv4_block6_1_conv/Conv2D", pads = [0, 0, 0, 0], strides = [1, 1]} : (tensor<4x1024x14x14x!quant.uniform<i8:f32, 0.09774220734834671:-128>>, tensor<256x1024x1x1x!quant.uniform<i8<-127:127>:f32:0, {… >>, tensor<256x!quant.uniform<i32:f32:0, {… >>) -> tensor<4x256x14x14x!quant.uniform<i8:f32, 0.050382897257804871:-128>>
    %137 = "top.Weight"() {name = "resnet50/conv4_block6_2_conv/Conv2D;StatefulPartitionedCall/resnet50/conv4_block6_2_conv/Conv2D"} : () -> tensor<256x256x3x3x!quant.uniform<i8<-127:127>:f32:0, {… >>
    %138 = "top.Weight"() {name = "resnet50/conv4_block6_2_bn/FusedBatchNormV3;StatefulPartitionedCall/resnet50/conv4_block6_2_bn/FusedBatchNormV3"} : () -> tensor<256x!quant.uniform<i32:f32:0, {… >>
    %139 = "top.Conv"(%136, %137, %138) {dilations = [1, 1], do_relu = true, kernel_shape = [3, 3], name = "resnet50/conv4_block6_2_relu/Relu;StatefulPartitionedCall/resnet50/conv4_block6_2_relu/Relu;resnet50/conv4_block6_2_bn/FusedBatchNormV3;StatefulPartitionedCall/resnet50/conv4_block6_2_bn/FusedBatchNormV3;unknown_60;resnet50/conv4_block6_2_conv/BiasAdd;StatefulPartitionedCall/resnet50/conv4_block6_2_conv/BiasAdd;resnet50/conv4_block6_2_conv/Conv2D;StatefulPartitionedCall/resnet50/conv4_block6_2_conv/Conv2D", pads = [0, 0, 0, 0], strides = [1, 1]} : (tensor<4x256x14x14x!quant.uniform<i8:f32, 0.050382897257804871:-128>>, tensor<256x256x3x3x!quant.uniform<i8<-127:127>:f32:0, {… >>, tensor<256x!quant.uniform<i32:f32:0, {… >>) -> tensor<4x256x14x14x!quant.uniform<i8:f32, 0.12207354605197906:-128>>
    %140 = "top.Weight"() {name = "resnet50/conv4_block6_3_conv/Conv2D;StatefulPartitionedCall/resnet50/conv4_block6_3_conv/Conv2D"} : () -> tensor<1024x256x1x1x!quant.uniform<i8<-127:127>:f32:0, {… >>
    %141 = "top.Weight"() {name = "resnet50/conv4_block6_3_bn/FusedBatchNormV3;StatefulPartitionedCall/resnet50/conv4_block6_3_bn/FusedBatchNormV3;resnet50/conv4_block6_3_conv/Conv2D;StatefulPartitionedCall/resnet50/conv4_block6_3_conv/Conv2D;unknown_252;resnet50/conv4_block6_3_conv/BiasAdd;StatefulPartitionedCall/resnet50/conv4_block6_3_conv/BiasAdd"} : () -> tensor<1024x!quant.uniform<i32:f32:0, {… >>
    %142 = "top.Conv"(%139, %140, %141) {dilations = [1, 1], do_relu = false, kernel_shape = [1, 1], name = "resnet50/conv4_block6_3_bn/FusedBatchNormV3;StatefulPartitionedCall/resnet50/conv4_block6_3_bn/FusedBatchNormV3;resnet50/conv4_block6_3_conv/Conv2D;StatefulPartitionedCall/resnet50/conv4_block6_3_conv/Conv2D;unknown_252;resnet50/conv4_block6_3_conv/BiasAdd;StatefulPartitionedCall/resnet50/conv4_block6_3_conv/BiasAdd1", pads = [0, 0, 0, 0], strides = [1, 1]} : (tensor<4x256x14x14x!quant.uniform<i8:f32, 0.12207354605197906:-128>>, tensor<1024x256x1x1x!quant.uniform<i8<-127:127>:f32:0, {… >>, tensor<1024x!quant.uniform<i32:f32:0, {… >>) -> tensor<4x1024x14x14x!quant.uniform<i8:f32, 0.13118986785411835:-38>>
    %143 = "top.Add"(%133, %142) {name = "resnet50/conv4_block6_out/Relu;StatefulPartitionedCall/resnet50/conv4_block6_out/Relu;resnet50/conv4_block6_add/add;StatefulPartitionedCall/resnet50/conv4_block6_add/add"} : (tensor<4x1024x14x14x!quant.uniform<i8:f32, 0.09774220734834671:-128>>, tensor<4x1024x14x14x!quant.uniform<i8:f32, 0.13118986785411835:-38>>) -> tensor<4x1024x14x14x!quant.uniform<i8:f32, 0.10522133111953735:-128>>
    %144 = "top.Weight"() {name = "resnet50/conv5_block1_0_conv/Conv2D;StatefulPartitionedCall/resnet50/conv5_block1_0_conv/Conv2D"} : () -> tensor<2048x1024x1x1x!quant.uniform<i8<-127:127>:f32:0, {… >>
    %145 = "top.Weight"() {name = "resnet50/conv5_block1_0_bn/FusedBatchNormV3;StatefulPartitionedCall/resnet50/conv5_block1_0_bn/FusedBatchNormV3;resnet50/conv5_block3_3_conv/Conv2D;StatefulPartitionedCall/resnet50/conv5_block3_3_conv/Conv2D;unknown_312;resnet50/conv5_block1_0_conv/BiasAdd;StatefulPartitionedCall/resnet50/conv5_block1_0_conv/BiasAdd"} : () -> tensor<2048x!quant.uniform<i32:f32:0, {… >>
    %146 = "top.Conv"(%143, %144, %145) {dilations = [1, 1], do_relu = false, kernel_shape = [1, 1], name = "resnet50/conv5_block1_0_bn/FusedBatchNormV3;StatefulPartitionedCall/resnet50/conv5_block1_0_bn/FusedBatchNormV3;resnet50/conv5_block3_3_conv/Conv2D;StatefulPartitionedCall/resnet50/conv5_block3_3_conv/Conv2D;unknown_312;resnet50/conv5_block1_0_conv/BiasAdd;StatefulPartitionedCall/resnet50/conv5_block1_0_conv/BiasAdd;resnet50/conv5_block1_0_conv/Conv2D;StatefulPartitionedCall/resnet50/conv5_block1_0_conv/Conv2D", pads = [0, 0, 0, 0], strides = [2, 2]} : (tensor<4x1024x14x14x!quant.uniform<i8:f32, 0.10522133111953735:-128>>, tensor<2048x1024x1x1x!quant.uniform<i8<-127:127>:f32:0, {… >>, tensor<2048x!quant.uniform<i32:f32:0, {… >>) -> tensor<4x2048x7x7x!quant.uniform<i8:f32, 0.29734447598457336:-39>>
    %147 = "top.Weight"() {name = "resnet50/conv5_block1_1_conv/Conv2D;StatefulPartitionedCall/resnet50/conv5_block1_1_conv/Conv2D"} : () -> tensor<512x1024x1x1x!quant.uniform<i8<-127:127>:f32:0, {… >>
    %148 = "top.Weight"() {name = "resnet50/conv5_block1_1_bn/FusedBatchNormV3;StatefulPartitionedCall/resnet50/conv5_block1_1_bn/FusedBatchNormV3"} : () -> tensor<512x!quant.uniform<i32:f32:0, {… >>
    %149 = "top.Conv"(%143, %147, %148) {dilations = [1, 1], do_relu = true, kernel_shape = [1, 1], name = "resnet50/conv5_block1_1_relu/Relu;StatefulPartitionedCall/resnet50/conv5_block1_1_relu/Relu;resnet50/conv5_block1_1_bn/FusedBatchNormV3;StatefulPartitionedCall/resnet50/conv5_block1_1_bn/FusedBatchNormV3;resnet50/conv5_block3_2_bn/FusedBatchNormV3;StatefulPartitionedCall/resnet50/conv5_block3_2_bn/FusedBatchNormV3;unknown_80;resnet50/conv5_block3_2_conv/BiasAdd;StatefulPartitionedCall/resnet50/conv5_block3_2_conv/BiasAdd;resnet50/conv5_block3_2_conv/Conv2D;StatefulPartitionedCall/resnet50/conv5_block3_2_conv/Conv2D;resnet50/conv5_block1_1_conv/BiasAdd;StatefulPartitionedCall/resnet50/conv5_block1_1_conv/BiasAdd;resnet50/conv5_block1_1_conv/Conv2D;StatefulPartitionedCall/resnet50/conv5_block1_1_conv/Conv2D", pads = [0, 0, 0, 0], strides = [2, 2]} : (tensor<4x1024x14x14x!quant.uniform<i8:f32, 0.10522133111953735:-128>>, tensor<512x1024x1x1x!quant.uniform<i8<-127:127>:f32:0, {… >>, tensor<512x!quant.uniform<i32:f32:0, {… >>) -> tensor<4x512x7x7x!quant.uniform<i8:f32, 0.038145538419485092:-128>>
    %150 = "top.Weight"() {name = "resnet50/conv5_block1_2_conv/Conv2D;StatefulPartitionedCall/resnet50/conv5_block1_2_conv/Conv2D"} : () -> tensor<512x512x3x3x!quant.uniform<i8<-127:127>:f32:0, {… >>
    %151 = "top.Weight"() {name = "resnet50/conv5_block1_2_bn/FusedBatchNormV3;StatefulPartitionedCall/resnet50/conv5_block1_2_bn/FusedBatchNormV3"} : () -> tensor<512x!quant.uniform<i32:f32:0, {… >>
    %152 = "top.Conv"(%149, %150, %151) {dilations = [1, 1], do_relu = true, kernel_shape = [3, 3], name = "resnet50/conv5_block1_2_relu/Relu;StatefulPartitionedCall/resnet50/conv5_block1_2_relu/Relu;resnet50/conv5_block1_2_bn/FusedBatchNormV3;StatefulPartitionedCall/resnet50/conv5_block1_2_bn/FusedBatchNormV3;resnet50/conv5_block3_2_bn/FusedBatchNormV3;StatefulPartitionedCall/resnet50/conv5_block3_2_bn/FusedBatchNormV3;unknown_80;resnet50/conv5_block3_2_conv/BiasAdd;StatefulPartitionedCall/resnet50/conv5_block3_2_conv/BiasAdd;resnet50/conv5_block3_2_conv/Conv2D;StatefulPartitionedCall/resnet50/conv5_block3_2_conv/Conv2D;resnet50/conv5_block1_2_conv/BiasAdd;StatefulPartitionedCall/resnet50/conv5_block1_2_conv/BiasAdd;resnet50/conv5_block1_2_conv/Conv2D;StatefulPartitionedCall/resnet50/conv5_block1_2_conv/Conv2D", pads = [0, 0, 0, 0], strides = [1, 1]} : (tensor<4x512x7x7x!quant.uniform<i8:f32, 0.038145538419485092:-128>>, tensor<512x512x3x3x!quant.uniform<i8<-127:127>:f32:0, {… >>, tensor<512x!quant.uniform<i32:f32:0, {… >>) -> tensor<4x512x7x7x!quant.uniform<i8:f32, 0.027430566027760506:-128>>
    %153 = "top.Weight"() {name = "resnet50/conv5_block1_3_conv/Conv2D;StatefulPartitionedCall/resnet50/conv5_block1_3_conv/Conv2D"} : () -> tensor<2048x512x1x1x!quant.uniform<i8<-127:127>:f32:0, {… >>
    %154 = "top.Weight"() {name = "resnet50/conv5_block1_3_bn/FusedBatchNormV3;StatefulPartitionedCall/resnet50/conv5_block1_3_bn/FusedBatchNormV3;resnet50/conv5_block3_3_conv/Conv2D;StatefulPartitionedCall/resnet50/conv5_block3_3_conv/Conv2D;unknown_312;resnet50/conv5_block1_3_conv/BiasAdd;StatefulPartitionedCall/resnet50/conv5_block1_3_conv/BiasAdd"} : () -> tensor<2048x!quant.uniform<i32:f32:0, {… >>
    %155 = "top.Conv"(%152, %153, %154) {dilations = [1, 1], do_relu = false, kernel_shape = [1, 1], name = "resnet50/conv5_block1_3_bn/FusedBatchNormV3;StatefulPartitionedCall/resnet50/conv5_block1_3_bn/FusedBatchNormV3;resnet50/conv5_block3_3_conv/Conv2D;StatefulPartitionedCall/resnet50/conv5_block3_3_conv/Conv2D;unknown_312;resnet50/conv5_block1_3_conv/BiasAdd;StatefulPartitionedCall/resnet50/conv5_block1_3_conv/BiasAdd;resnet50/conv5_block1_3_conv/Conv2D;StatefulPartitionedCall/resnet50/conv5_block1_3_conv/Conv2D", pads = [0, 0, 0, 0], strides = [1, 1]} : (tensor<4x512x7x7x!quant.uniform<i8:f32, 0.027430566027760506:-128>>, tensor<2048x512x1x1x!quant.uniform<i8<-127:127>:f32:0, {… >>, tensor<2048x!quant.uniform<i32:f32:0, {… >>) -> tensor<4x2048x7x7x!quant.uniform<i8:f32, 0.15103073418140411:-30>>
    %156 = "top.Add"(%146, %155) {name = "resnet50/conv5_block1_out/Relu;StatefulPartitionedCall/resnet50/conv5_block1_out/Relu;resnet50/conv5_block1_add/add;StatefulPartitionedCall/resnet50/conv5_block1_add/add"} : (tensor<4x2048x7x7x!quant.uniform<i8:f32, 0.29734447598457336:-39>>, tensor<4x2048x7x7x!quant.uniform<i8:f32, 0.15103073418140411:-30>>) -> tensor<4x2048x7x7x!quant.uniform<i8:f32, 0.20451854169368744:-128>>
    %157 = "top.Weight"() {name = "resnet50/conv5_block2_1_conv/Conv2D;StatefulPartitionedCall/resnet50/conv5_block2_1_conv/Conv2D"} : () -> tensor<512x2048x1x1x!quant.uniform<i8<-127:127>:f32:0, {… >>
    %158 = "top.Weight"() {name = "resnet50/conv5_block2_1_bn/FusedBatchNormV3;StatefulPartitionedCall/resnet50/conv5_block2_1_bn/FusedBatchNormV3"} : () -> tensor<512x!quant.uniform<i32:f32:0, {… >>
    %159 = "top.Conv"(%156, %157, %158) {dilations = [1, 1], do_relu = true, kernel_shape = [1, 1], name = "resnet50/conv5_block2_1_relu/Relu;StatefulPartitionedCall/resnet50/conv5_block2_1_relu/Relu;resnet50/conv5_block2_1_bn/FusedBatchNormV3;StatefulPartitionedCall/resnet50/conv5_block2_1_bn/FusedBatchNormV3;resnet50/conv5_block3_2_bn/FusedBatchNormV3;StatefulPartitionedCall/resnet50/conv5_block3_2_bn/FusedBatchNormV3;unknown_80;resnet50/conv5_block3_2_conv/BiasAdd;StatefulPartitionedCall/resnet50/conv5_block3_2_conv/BiasAdd;resnet50/conv5_block3_2_conv/Conv2D;StatefulPartitionedCall/resnet50/conv5_block3_2_conv/Conv2D;resnet50/conv5_block2_1_conv/BiasAdd;StatefulPartitionedCall/resnet50/conv5_block2_1_conv/BiasAdd;resnet50/conv5_block2_1_conv/Conv2D;StatefulPartitionedCall/resnet50/conv5_block2_1_conv/Conv2D", pads = [0, 0, 0, 0], strides = [1, 1]} : (tensor<4x2048x7x7x!quant.uniform<i8:f32, 0.20451854169368744:-128>>, tensor<512x2048x1x1x!quant.uniform<i8<-127:127>:f32:0, {… >>, tensor<512x!quant.uniform<i32:f32:0, {… >>) -> tensor<4x512x7x7x!quant.uniform<i8:f32, 0.031981199979782104:-128>>
    %160 = "top.Weight"() {name = "resnet50/conv5_block2_2_conv/Conv2D;StatefulPartitionedCall/resnet50/conv5_block2_2_conv/Conv2D"} : () -> tensor<512x512x3x3x!quant.uniform<i8<-127:127>:f32:0, {… >>
    %161 = "top.Weight"() {name = "resnet50/conv5_block2_2_bn/FusedBatchNormV3;StatefulPartitionedCall/resnet50/conv5_block2_2_bn/FusedBatchNormV3"} : () -> tensor<512x!quant.uniform<i32:f32:0, {… >>
    %162 = "top.Conv"(%159, %160, %161) {dilations = [1, 1], do_relu = true, kernel_shape = [3, 3], name = "resnet50/conv5_block2_2_relu/Relu;StatefulPartitionedCall/resnet50/conv5_block2_2_relu/Relu;resnet50/conv5_block2_2_bn/FusedBatchNormV3;StatefulPartitionedCall/resnet50/conv5_block2_2_bn/FusedBatchNormV3;resnet50/conv5_block3_2_bn/FusedBatchNormV3;StatefulPartitionedCall/resnet50/conv5_block3_2_bn/FusedBatchNormV3;unknown_80;resnet50/conv5_block3_2_conv/BiasAdd;StatefulPartitionedCall/resnet50/conv5_block3_2_conv/BiasAdd;resnet50/conv5_block3_2_conv/Conv2D;StatefulPartitionedCall/resnet50/conv5_block3_2_conv/Conv2D;resnet50/conv5_block2_2_conv/BiasAdd;StatefulPartitionedCall/resnet50/conv5_block2_2_conv/BiasAdd;resnet50/conv5_block2_2_conv/Conv2D;StatefulPartitionedCall/resnet50/conv5_block2_2_conv/Conv2D", pads = [0, 0, 0, 0], strides = [1, 1]} : (tensor<4x512x7x7x!quant.uniform<i8:f32, 0.031981199979782104:-128>>, tensor<512x512x3x3x!quant.uniform<i8<-127:127>:f32:0, {… >>, tensor<512x!quant.uniform<i32:f32:0, {… >>) -> tensor<4x512x7x7x!quant.uniform<i8:f32, 0.025733876973390579:-128>>
    %163 = "top.Weight"() {name = "resnet50/conv5_block2_3_conv/Conv2D;StatefulPartitionedCall/resnet50/conv5_block2_3_conv/Conv2D"} : () -> tensor<2048x512x1x1x!quant.uniform<i8<-127:127>:f32:0, {… >>
    %164 = "top.Weight"() {name = "resnet50/conv5_block2_3_bn/FusedBatchNormV3;StatefulPartitionedCall/resnet50/conv5_block2_3_bn/FusedBatchNormV3;resnet50/conv5_block3_3_conv/Conv2D;StatefulPartitionedCall/resnet50/conv5_block3_3_conv/Conv2D;unknown_312;resnet50/conv5_block2_3_conv/BiasAdd;StatefulPartitionedCall/resnet50/conv5_block2_3_conv/BiasAdd"} : () -> tensor<2048x!quant.uniform<i32:f32:0, {… >>
    %165 = "top.Conv"(%162, %163, %164) {dilations = [1, 1], do_relu = false, kernel_shape = [1, 1], name = "resnet50/conv5_block2_3_bn/FusedBatchNormV3;StatefulPartitionedCall/resnet50/conv5_block2_3_bn/FusedBatchNormV3;resnet50/conv5_block3_3_conv/Conv2D;StatefulPartitionedCall/resnet50/conv5_block3_3_conv/Conv2D;unknown_312;resnet50/conv5_block2_3_conv/BiasAdd;StatefulPartitionedCall/resnet50/conv5_block2_3_conv/BiasAdd;resnet50/conv5_block2_3_conv/Conv2D;StatefulPartitionedCall/resnet50/conv5_block2_3_conv/Conv2D", pads = [0, 0, 0, 0], strides = [1, 1]} : (tensor<4x512x7x7x!quant.uniform<i8:f32, 0.025733876973390579:-128>>, tensor<2048x512x1x1x!quant.uniform<i8<-127:127>:f32:0, {… >>, tensor<2048x!quant.uniform<i32:f32:0, {… >>) -> tensor<4x2048x7x7x!quant.uniform<i8:f32, 0.13845852017402649:-11>>
    %166 = "top.Add"(%156, %165) {name = "resnet50/conv5_block2_out/Relu;StatefulPartitionedCall/resnet50/conv5_block2_out/Relu;resnet50/conv5_block2_add/add;StatefulPartitionedCall/resnet50/conv5_block2_add/add"} : (tensor<4x2048x7x7x!quant.uniform<i8:f32, 0.20451854169368744:-128>>, tensor<4x2048x7x7x!quant.uniform<i8:f32, 0.13845852017402649:-11>>) -> tensor<4x2048x7x7x!quant.uniform<i8:f32, 0.2219843715429306:-128>>
    %167 = "top.Weight"() {name = "resnet50/conv5_block3_1_conv/Conv2D;StatefulPartitionedCall/resnet50/conv5_block3_1_conv/Conv2D"} : () -> tensor<512x2048x1x1x!quant.uniform<i8<-127:127>:f32:0, {… >>
    %168 = "top.Weight"() {name = "resnet50/conv5_block3_1_bn/FusedBatchNormV3;StatefulPartitionedCall/resnet50/conv5_block3_1_bn/FusedBatchNormV3"} : () -> tensor<512x!quant.uniform<i32:f32:0, {… >>
    %169 = "top.Conv"(%166, %167, %168) {dilations = [1, 1], do_relu = true, kernel_shape = [1, 1], name = "resnet50/conv5_block3_1_relu/Relu;StatefulPartitionedCall/resnet50/conv5_block3_1_relu/Relu;resnet50/conv5_block3_1_bn/FusedBatchNormV3;StatefulPartitionedCall/resnet50/conv5_block3_1_bn/FusedBatchNormV3;resnet50/conv5_block3_2_bn/FusedBatchNormV3;StatefulPartitionedCall/resnet50/conv5_block3_2_bn/FusedBatchNormV3;unknown_80;resnet50/conv5_block3_2_conv/BiasAdd;StatefulPartitionedCall/resnet50/conv5_block3_2_conv/BiasAdd;resnet50/conv5_block3_2_conv/Conv2D;StatefulPartitionedCall/resnet50/conv5_block3_2_conv/Conv2D;resnet50/conv5_block3_1_conv/BiasAdd;StatefulPartitionedCall/resnet50/conv5_block3_1_conv/BiasAdd;resnet50/conv5_block3_1_conv/Conv2D;StatefulPartitionedCall/resnet50/conv5_block3_1_conv/Conv2D", pads = [0, 0, 0, 0], strides = [1, 1]} : (tensor<4x2048x7x7x!quant.uniform<i8:f32, 0.2219843715429306:-128>>, tensor<512x2048x1x1x!quant.uniform<i8<-127:127>:f32:0, {… >>, tensor<512x!quant.uniform<i32:f32:0, {… >>) -> tensor<4x512x7x7x!quant.uniform<i8:f32, 0.051599841564893723:-128>>
    %170 = "top.Weight"() {name = "resnet50/conv5_block3_2_conv/Conv2D;StatefulPartitionedCall/resnet50/conv5_block3_2_conv/Conv2D"} : () -> tensor<512x512x3x3x!quant.uniform<i8<-127:127>:f32:0, {… >>
    %171 = "top.Weight"() {name = "resnet50/conv5_block3_2_bn/FusedBatchNormV3;StatefulPartitionedCall/resnet50/conv5_block3_2_bn/FusedBatchNormV3"} : () -> tensor<512x!quant.uniform<i32:f32:0, {… >>
    %172 = "top.Conv"(%169, %170, %171) {dilations = [1, 1], do_relu = true, kernel_shape = [3, 3], name = "resnet50/conv5_block3_2_relu/Relu;StatefulPartitionedCall/resnet50/conv5_block3_2_relu/Relu;resnet50/conv5_block3_2_bn/FusedBatchNormV3;StatefulPartitionedCall/resnet50/conv5_block3_2_bn/FusedBatchNormV3;unknown_80;resnet50/conv5_block3_2_conv/BiasAdd;StatefulPartitionedCall/resnet50/conv5_block3_2_conv/BiasAdd;resnet50/conv5_block3_2_conv/Conv2D;StatefulPartitionedCall/resnet50/conv5_block3_2_conv/Conv2D", pads = [0, 0, 0, 0], strides = [1, 1]} : (tensor<4x512x7x7x!quant.uniform<i8:f32, 0.051599841564893723:-128>>, tensor<512x512x3x3x!quant.uniform<i8<-127:127>:f32:0, {… >>, tensor<512x!quant.uniform<i32:f32:0, {… >>) -> tensor<4x512x7x7x!quant.uniform<i8:f32, 0.048919908702373505:-128>>
    %173 = "top.Weight"() {name = "resnet50/conv5_block3_3_conv/Conv2D;StatefulPartitionedCall/resnet50/conv5_block3_3_conv/Conv2D"} : () -> tensor<2048x512x1x1x!quant.uniform<i8<-127:127>:f32:0, {… >>
    %174 = "top.Weight"() {name = "resnet50/conv5_block3_3_bn/FusedBatchNormV3;StatefulPartitionedCall/resnet50/conv5_block3_3_bn/FusedBatchNormV3;resnet50/conv5_block3_3_conv/Conv2D;StatefulPartitionedCall/resnet50/conv5_block3_3_conv/Conv2D;unknown_312;resnet50/conv5_block3_3_conv/BiasAdd;StatefulPartitionedCall/resnet50/conv5_block3_3_conv/BiasAdd"} : () -> tensor<2048x!quant.uniform<i32:f32:0, {… >>
    %175 = "top.Conv"(%172, %173, %174) {dilations = [1, 1], do_relu = false, kernel_shape = [1, 1], name = "resnet50/conv5_block3_3_bn/FusedBatchNormV3;StatefulPartitionedCall/resnet50/conv5_block3_3_bn/FusedBatchNormV3;resnet50/conv5_block3_3_conv/Conv2D;StatefulPartitionedCall/resnet50/conv5_block3_3_conv/Conv2D;unknown_312;resnet50/conv5_block3_3_conv/BiasAdd;StatefulPartitionedCall/resnet50/conv5_block3_3_conv/BiasAdd1", pads = [0, 0, 0, 0], strides = [1, 1]} : (tensor<4x512x7x7x!quant.uniform<i8:f32, 0.048919908702373505:-128>>, tensor<2048x512x1x1x!quant.uniform<i8<-127:127>:f32:0, {… >>, tensor<2048x!quant.uniform<i32:f32:0, {… >>) -> tensor<4x2048x7x7x!quant.uniform<i8:f32, 0.30310729146003723:-49>>
    %176 = "top.Add"(%166, %175) {name = "resnet50/conv5_block3_out/Relu;StatefulPartitionedCall/resnet50/conv5_block3_out/Relu;resnet50/conv5_block3_add/add;StatefulPartitionedCall/resnet50/conv5_block3_add/add"} : (tensor<4x2048x7x7x!quant.uniform<i8:f32, 0.2219843715429306:-128>>, tensor<4x2048x7x7x!quant.uniform<i8:f32, 0.30310729146003723:-49>>) -> tensor<4x2048x7x7x!quant.uniform<i8:f32, 0.34225726127624512:-128>>
    %177 = "top.AvgPool"(%176) {kernel_shape = [1, 2], name = "resnet50/avg_pool/Mean;StatefulPartitionedCall/resnet50/avg_pool/Mean", pads = [0, 0, 0, 0], strides = [0, 0]} : (tensor<4x2048x7x7x!quant.uniform<i8:f32, 0.34225726127624512:-128>>) -> tensor<4x2048x!quant.uniform<i8:f32, 0.10753946006298065:-128>>
    %178 = "top.Weight"() {name = "resnet50/predictions/MatMul;StatefulPartitionedCall/resnet50/predictions/MatMul"} : () -> tensor<2048x1000x!quant.uniform<i8<-127:127>:f32, 0.0057965274900197983>>
    %179 = "top.Weight"() {name = "unknown_318"} : () -> tensor<1000x!quant.uniform<i32:f32, 6.2335544498637319E-4>>
    %180 = "top.MatMul"(%177, %178, %179) {do_relu = false, name = "resnet50/predictions/BiasAdd;StatefulPartitionedCall/resnet50/predictions/BiasAdd"} : (tensor<4x2048x!quant.uniform<i8:f32, 0.10753946006298065:-128>>, tensor<2048x1000x!quant.uniform<i8<-127:127>:f32, 0.0057965274900197983>>, tensor<1000x!quant.uniform<i32:f32, 6.2335544498637319E-4>>) -> tensor<4x1000x!quant.uniform<i8:f32, 0.15260285139083862:-68>>
    %181 = "top.Softmax"(%180) {axis = 1 : i64, name = "Identity_int8"} : (tensor<4x1000x!quant.uniform<i8:f32, 0.15260285139083862:-68>>) -> tensor<4x1000x!quant.uniform<i8:f32, 3.906250e-03:-128>>
    %182 = "quant.dcast"(%181) {name = "Identity"} : (tensor<4x1000x!quant.uniform<i8:f32, 3.906250e-03:-128>>) -> tensor<4x1000xf32>
    return %182 : tensor<4x1000xf32>
  }
}

