RUN: bmodel_dis.py %p/bmodel/resnet50_v2_bm1690_f16_core8.bmodel | FileCheck %s

CHECK:  module attributes {chip = "BM1690", version = 2.2+v1.6.364-gef6778402-20240312, addr_mode = 0} {
CHECK:    func.func @resnet50_v2(%G2.0x0: memref<1x3x224x224xf32, strides: [150528, 50176, 224, 1]>) -> (memref<1x1000xf32, strides: [1000, 1]>) ({
CHECK:      ^bb0(%G2.0x0: memref<1x3x224x224xf32, strides: [150528, 50176, 224, 1]>)    //  run_mode=TPU_STATIC
CHECK:        %D1C0, %msg48 = "@core_0"(%D0C0) {
CHECK:          %B1C0, %msg48 = "system.send_msg"(%D0C0) {msg_id = 48, cnt = 32, status = Status.PRODUCING}
CHECK:          %D1C0, %msg48 = "dma.sys.sys_send"(%B1C0) {msg_id = 48, cnt = 32, status = Status.PRODUCING}
CHECK:        }
CHECK:        %D1C1, %msg48 = "@core_1"(%D0C1) {
CHECK:          %B1C1, %msg48 = "system.send_msg"(%D0C1) {msg_id = 48, cnt = 32, status = Status.PRODUCING}
CHECK:          %D1C1, %msg48 = "dma.sys.sys_send"(%B1C1) {msg_id = 48, cnt = 32, status = Status.PRODUCING}
CHECK:        }
CHECK:        %D1C2, %msg48 = "@core_2"(%D0C2) {
CHECK:          %B1C2, %msg48 = "system.send_msg"(%D0C2) {msg_id = 48, cnt = 32, status = Status.PRODUCING}
CHECK:          %D1C2, %msg48 = "dma.sys.sys_send"(%B1C2) {msg_id = 48, cnt = 32, status = Status.PRODUCING}
CHECK:        }
CHECK:        %D1C3, %msg48 = "@core_3"(%D0C3) {
CHECK:          %B1C3, %msg48 = "system.send_msg"(%D0C3) {msg_id = 48, cnt = 32, status = Status.PRODUCING}
CHECK:          %D1C3, %msg48 = "dma.sys.sys_send"(%B1C3) {msg_id = 48, cnt = 32, status = Status.PRODUCING}
CHECK:        }
CHECK:        %D1C4, %msg48 = "@core_4"(%D0C4) {
CHECK:          %B1C4, %msg48 = "system.send_msg"(%D0C4) {msg_id = 48, cnt = 32, status = Status.PRODUCING}
CHECK:          %D1C4, %msg48 = "dma.sys.sys_send"(%B1C4) {msg_id = 48, cnt = 32, status = Status.PRODUCING}
CHECK:        }
CHECK:        %D1C5, %msg48 = "@core_5"(%D0C5) {
CHECK:          %B1C5, %msg48 = "system.send_msg"(%D0C5) {msg_id = 48, cnt = 32, status = Status.PRODUCING}
CHECK:          %D1C5, %msg48 = "dma.sys.sys_send"(%B1C5) {msg_id = 48, cnt = 32, status = Status.PRODUCING}
CHECK:        }
CHECK:        %D1C6, %msg48 = "@core_6"(%D0C6) {
CHECK:          %B1C6, %msg48 = "system.send_msg"(%D0C6) {msg_id = 48, cnt = 32, status = Status.PRODUCING}
CHECK:          %D1C6, %msg48 = "dma.sys.sys_send"(%B1C6) {msg_id = 48, cnt = 32, status = Status.PRODUCING}
CHECK:        }
CHECK:        %D1C7, %msg48 = "@core_7"(%D0C7) {
CHECK:          %B1C7, %msg48 = "system.send_msg"(%D0C7) {msg_id = 48, cnt = 32, status = Status.PRODUCING}
CHECK:          %D1C7, %msg48 = "dma.sys.sys_send"(%B1C7) {msg_id = 48, cnt = 32, status = Status.PRODUCING}
CHECK:        }
CHECK:        %D5C0, %msg49 = "@core_0"(%D1C0, %msg48) {
CHECK:          %B2C0 = "system.wait_msg"(%D1C0, %msg48) {msg_id = 48, cnt = 32, status = Status.RECIEVING}
CHECK:          %D2C0 = "dma.sys.sys_wait"(%B2C0, %msg48) {msg_id = 48, cnt = 32, status = Status.CONSUMED}
CHECK:          %R0, %D3C0 = "dma.matrix"(%G2.0x0, %B2C0) : (memref<1x1x1x25088xf32, strides: [0, 0, 25088, 1]>, none) -> (memref<1x25088xf32, strides: [400, 400, 0, 1]>, none)
CHECK:          %R8, %B3C0 = "arith.cast"(%R0, %D3C0) {round_mode = 1}: (memref<1x64x1x392xf32, strides: [400, 400, 392, 1]>, none) -> (memref<1x64x1x392xf16, strides: [416, 416, 392, 1]>, none)
CHECK:          %L30.0x6980000000, %D4C0 = "dma.matrix"(%R8, %B3C0) : (memref<1x1x1x392xf16, strides: [0, 0, 0, 1]>, none) -> (memref<1x392xf16, strides: [0, 0, 0, 1]>, none)
CHECK:          %B4C0, %msg49 = "system.send_msg"(%D4C0) {msg_id = 49, cnt = 32, status = Status.PRODUCING}
CHECK:          %D5C0, %msg49 = "dma.sys.sys_send"(%B4C0) {msg_id = 49, cnt = 32, status = Status.PRODUCING}
CHECK:        }
CHECK:        %D5C1, %msg49 = "@core_1"(%D1C1, %msg48) {
CHECK:          %B2C1 = "system.wait_msg"(%D1C1, %msg48) {msg_id = 48, cnt = 32, status = Status.RECIEVING}
CHECK:          %D2C1 = "dma.sys.sys_wait"(%B2C1, %msg48) {msg_id = 48, cnt = 32, status = Status.CONSUMED}
CHECK:          %R0, %D3C1 = "dma.matrix"(%G2.0x18800, %B2C1) : (memref<1x1x1x25088xf32, strides: [0, 0, 25088, 1]>, none) -> (memref<1x25088xf32, strides: [400, 400, 0, 1]>, none)
CHECK:          %R8, %B3C1 = "arith.cast"(%R0, %D3C1) {round_mode = 1}: (memref<1x64x1x392xf32, strides: [400, 400, 392, 1]>, none) -> (memref<1x64x1x392xf16, strides: [416, 416, 392, 1]>, none)
CHECK:          %L30.0x698000c400, %D4C1 = "dma.matrix"(%R8, %B3C1) : (memref<1x1x1x392xf16, strides: [0, 0, 0, 1]>, none) -> (memref<1x392xf16, strides: [0, 0, 0, 1]>, none)
CHECK:          %B4C1, %msg49 = "system.send_msg"(%D4C1) {msg_id = 49, cnt = 32, status = Status.PRODUCING}
CHECK:          %D5C1, %msg49 = "dma.sys.sys_send"(%B4C1) {msg_id = 49, cnt = 32, status = Status.PRODUCING}
CHECK:        }
CHECK:        %D5C2, %msg49 = "@core_2"(%D1C2, %msg48) {
CHECK:          %B2C2 = "system.wait_msg"(%D1C2, %msg48) {msg_id = 48, cnt = 32, status = Status.RECIEVING}
CHECK:          %D2C2 = "dma.sys.sys_wait"(%B2C2, %msg48) {msg_id = 48, cnt = 32, status = Status.CONSUMED}
CHECK:          %R0, %D3C2 = "dma.matrix"(%G2.0x31000, %B2C2) : (memref<1x1x1x25088xf32, strides: [0, 0, 25088, 1]>, none) -> (memref<1x25088xf32, strides: [400, 400, 0, 1]>, none)
CHECK:          %R8, %B3C2 = "arith.cast"(%R0, %D3C2) {round_mode = 1}: (memref<1x64x1x392xf32, strides: [400, 400, 392, 1]>, none) -> (memref<1x64x1x392xf16, strides: [416, 416, 392, 1]>, none)
CHECK:          %L30.0x6980018800, %D4C2 = "dma.matrix"(%R8, %B3C2) : (memref<1x1x1x392xf16, strides: [0, 0, 0, 1]>, none) -> (memref<1x392xf16, strides: [0, 0, 0, 1]>, none)
CHECK:          %B4C2, %msg49 = "system.send_msg"(%D4C2) {msg_id = 49, cnt = 32, status = Status.PRODUCING}
CHECK:          %D5C2, %msg49 = "dma.sys.sys_send"(%B4C2) {msg_id = 49, cnt = 32, status = Status.PRODUCING}
CHECK:        }
CHECK:        %D5C3, %msg49 = "@core_3"(%D1C3, %msg48) {
CHECK:          %B2C3 = "system.wait_msg"(%D1C3, %msg48) {msg_id = 48, cnt = 32, status = Status.RECIEVING}
CHECK:          %D2C3 = "dma.sys.sys_wait"(%B2C3, %msg48) {msg_id = 48, cnt = 32, status = Status.CONSUMED}
CHECK:          %R0, %D3C3 = "dma.matrix"(%G2.0x49800, %B2C3) : (memref<1x1x1x25088xf32, strides: [0, 0, 25088, 1]>, none) -> (memref<1x25088xf32, strides: [400, 400, 0, 1]>, none)
CHECK:          %R8, %B3C3 = "arith.cast"(%R0, %D3C3) {round_mode = 1}: (memref<1x64x1x392xf32, strides: [400, 400, 392, 1]>, none) -> (memref<1x64x1x392xf16, strides: [416, 416, 392, 1]>, none)
CHECK:          %L30.0x6980024c00, %D4C3 = "dma.matrix"(%R8, %B3C3) : (memref<1x1x1x392xf16, strides: [0, 0, 0, 1]>, none) -> (memref<1x392xf16, strides: [0, 0, 0, 1]>, none)
CHECK:          %B4C3, %msg49 = "system.send_msg"(%D4C3) {msg_id = 49, cnt = 32, status = Status.PRODUCING}
CHECK:          %D5C3, %msg49 = "dma.sys.sys_send"(%B4C3) {msg_id = 49, cnt = 32, status = Status.PRODUCING}
CHECK:        }
CHECK:        %D5C4, %msg49 = "@core_4"(%D1C4, %msg48) {
CHECK:          %B2C4 = "system.wait_msg"(%D1C4, %msg48) {msg_id = 48, cnt = 32, status = Status.RECIEVING}
CHECK:          %D2C4 = "dma.sys.sys_wait"(%B2C4, %msg48) {msg_id = 48, cnt = 32, status = Status.CONSUMED}
CHECK:          %R0, %D3C4 = "dma.matrix"(%G2.0x62000, %B2C4) : (memref<1x1x1x25088xf32, strides: [0, 0, 25088, 1]>, none) -> (memref<1x25088xf32, strides: [400, 400, 0, 1]>, none)
CHECK:          %R8, %B3C4 = "arith.cast"(%R0, %D3C4) {round_mode = 1}: (memref<1x64x1x392xf32, strides: [400, 400, 392, 1]>, none) -> (memref<1x64x1x392xf16, strides: [416, 416, 392, 1]>, none)
CHECK:          %L30.0x6980031000, %D4C4 = "dma.matrix"(%R8, %B3C4) : (memref<1x1x1x392xf16, strides: [0, 0, 0, 1]>, none) -> (memref<1x392xf16, strides: [0, 0, 0, 1]>, none)
CHECK:          %B4C4, %msg49 = "system.send_msg"(%D4C4) {msg_id = 49, cnt = 32, status = Status.PRODUCING}
CHECK:          %D5C4, %msg49 = "dma.sys.sys_send"(%B4C4) {msg_id = 49, cnt = 32, status = Status.PRODUCING}
CHECK:        }
CHECK:        %D5C5, %msg49 = "@core_5"(%D1C5, %msg48) {
CHECK:          %B2C5 = "system.wait_msg"(%D1C5, %msg48) {msg_id = 48, cnt = 32, status = Status.RECIEVING}
CHECK:          %D2C5 = "dma.sys.sys_wait"(%B2C5, %msg48) {msg_id = 48, cnt = 32, status = Status.CONSUMED}
CHECK:          %R0, %D3C5 = "dma.matrix"(%G2.0x7a800, %B2C5) : (memref<1x1x1x25088xf32, strides: [0, 0, 25088, 1]>, none) -> (memref<1x25088xf32, strides: [400, 400, 0, 1]>, none)
CHECK:          %R8, %B3C5 = "arith.cast"(%R0, %D3C5) {round_mode = 1}: (memref<1x64x1x392xf32, strides: [400, 400, 392, 1]>, none) -> (memref<1x64x1x392xf16, strides: [416, 416, 392, 1]>, none)
CHECK:          %L30.0x698003d400, %D4C5 = "dma.matrix"(%R8, %B3C5) : (memref<1x1x1x392xf16, strides: [0, 0, 0, 1]>, none) -> (memref<1x392xf16, strides: [0, 0, 0, 1]>, none)
CHECK:          %B4C5, %msg49 = "system.send_msg"(%D4C5) {msg_id = 49, cnt = 32, status = Status.PRODUCING}
CHECK:          %D5C5, %msg49 = "dma.sys.sys_send"(%B4C5) {msg_id = 49, cnt = 32, status = Status.PRODUCING}
CHECK:        }
CHECK:        %D3C6, %msg49 = "@core_6"(%D1C6, %msg48) {
CHECK:          %B2C6 = "system.wait_msg"(%D1C6, %msg48) {msg_id = 48, cnt = 32, status = Status.RECIEVING}
CHECK:          %D2C6 = "dma.sys.sys_wait"(%B2C6, %msg48) {msg_id = 48, cnt = 32, status = Status.CONSUMED}
CHECK:          %B3C6, %msg49 = "system.send_msg"(%D2C6) {msg_id = 49, cnt = 32, status = Status.PRODUCING}
CHECK:          %D3C6, %msg49 = "dma.sys.sys_send"(%B3C6) {msg_id = 49, cnt = 32, status = Status.PRODUCING}
CHECK:        }
CHECK:        %D3C7, %msg49 = "@core_7"(%D1C7, %msg48) {
CHECK:          %B2C7 = "system.wait_msg"(%D1C7, %msg48) {msg_id = 48, cnt = 32, status = Status.RECIEVING}
CHECK:          %D2C7 = "dma.sys.sys_wait"(%B2C7, %msg48) {msg_id = 48, cnt = 32, status = Status.CONSUMED}
CHECK:          %B3C7, %msg49 = "system.send_msg"(%D2C7) {msg_id = 49, cnt = 32, status = Status.PRODUCING}
CHECK:          %D3C7, %msg49 = "dma.sys.sys_send"(%B3C7) {msg_id = 49, cnt = 32, status = Status.PRODUCING}
CHECK:        }
CHECK:        %D114C0, %msg48 = "@core_0"(%D5C0, %msg49) {
CHECK:          %B5C0 = "system.wait_msg"(%D5C0, %msg49) {msg_id = 49, cnt = 32, status = Status.RECIEVING}
CHECK:          %D6C0 = "dma.sys.sys_wait"(%B5C0, %msg49) {msg_id = 49, cnt = 32, status = Status.CONSUMED}
CHECK:          %R0, %D7C0 = "dma.tensor"(%L30.0x6980000000, %B5C0) : (memref<1x3x224x224xi16, strides: [150528, 50176, 224, 1]>, none) -> (memref<1x3x224x224xi16, strides: [50176, 50176, 224, 1]>, none)
CHECK:          %R13.0xe00, %D8C0 = "dma.tensor"(%G1.0x1000, %B5C0) : (memref<1x3x1x32xi16, strides: [96, 32, 32, 1]>, none) -> (memref<1x3x1x32xi16, strides: [32, 32, 32, 1]>, none)
CHECK:          %R13.0xe40, %D9C0 = "dma.tensor"(%G1.0x0, %B5C0) : (memref<1x3x1x1xf32, strides: [3, 1, 1, 1]>, none) -> (memref<1x3x1x1xf32, strides: [1, 1, 1, 1]>, none)
CHECK:          %R7, %B6C0 = "conv.normal"(%R0, %R13.0xe00, %R13.0xe40, %C0.0, %D9C0) {kernel = [1, 1], stride = [1, 1], in_zero = [0, 0], ke_zero = [0, 0], opt_kernel_rotate = False, pad_mode = 0, pad = [0, 0, 0, 0], opt_res_add = False, do_relu = False, sym_range = False, do_rq = False, round_mode = 0}: (memref<1x3x224x224xf16, strides: [50176, 50176, 224, 1]>, memref<3x3x1x1xf16>, memref<1x3x1x1xui32, strides: [1, 1, 1, 1]>, f16, none) -> (memref<1x3x224x224xf16, strides: [50176, 50176, 224, 1]>, none)
CHECK:          %R6.0x800, %D10C0 = "dma.tensor"(%G1.0x3000, %B5C0) : (memref<1x64x1x1568xi16, strides: [100352, 1568, 1568, 1]>, none) -> (memref<1x64x1x1568xi16, strides: [1568, 1568, 1568, 1]>, none)
CHECK:          %R6.0x1440, %D11C0 = "dma.tensor"(%G1.0x2000, %B5C0) : (memref<1x64x1x1xf32, strides: [64, 1, 1, 1]>, none) -> (memref<1x64x1x1xf32, strides: [1, 1, 1, 1]>, none)
CHECK:          %R4, %B7C0 = "conv.normal"(%R7, %R6.0x800, %R6.0x1440, %C0.0, %D11C0) {kernel = [7, 7], stride = [2, 2], in_zero = [0, 0], ke_zero = [0, 0], opt_kernel_rotate = False, pad_mode = 0, pad = [3, 3, 3, 3], opt_res_add = False, do_relu = True, sym_range = False, do_rq = False, round_mode = 0}: (memref<1x3x224x224xf16, strides: [50176, 50176, 224, 1]>, memref<64x3x7x7xf16>, memref<1x64x1x1xui32, strides: [1, 1, 1, 1]>, f16, none) -> (memref<1x64x112x112xf16, strides: [12544, 12544, 112, 1]>, none)
CHECK:          %R2.0x1000, %D12C0 = "dma.tensor"(%G1.0x34c000, %B6C0) : (memref<1x256x1x2304xi16, strides: [589824, 2304, 2304, 1]>, none) -> (memref<1x256x1x2304xi16, strides: [9216, 2304, 2304, 1]>, none)
CHECK:          %R14, %D13C0 = "dma.tensor"(%G1.0x4ec000, %B6C0) : (memref<1x1024x1x512xi16, strides: [524288, 512, 512, 1]>, none) -> (memref<1x1024x1x512xi16, strides: [8192, 512, 512, 1]>, none)
CHECK:          %R15.0x2000, %D14C0 = "dma.tensor"(%G1.0x46c000, %B6C0) : (memref<1x1024x1x256xi16, strides: [262144, 256, 256, 1]>, none) -> (memref<1x1024x1x256xi16, strides: [4096, 256, 256, 1]>, none)
CHECK:          %R1.0x800, %D15C0 = "dma.tensor"(%G1.0x670000, %B6C0) : (memref<1x256x1x2304xi16, strides: [589824, 2304, 2304, 1]>, none) -> (memref<1x256x1x2304xi16, strides: [9216, 2304, 2304, 1]>, none)
CHECK:          %R15, %D16C0 = "dma.tensor"(%G1.0x5ef000, %B6C0) : (memref<1x256x1x1024xi16, strides: [262144, 1024, 1024, 1]>, none) -> (memref<1x256x1x1024xi16, strides: [4096, 1024, 1024, 1]>, none)
CHECK:          %R0, %D17C0 = "dma.tensor"(%G1.0x894000, %B6C0) : (memref<1x256x1x2304xi16, strides: [589824, 2304, 2304, 1]>, none) -> (memref<1x256x1x2304xi16, strides: [9216, 2304, 2304, 1]>, none)
CHECK:          %R7, %B8C0 = "pord.maxpooling"(%R4, %C-65504.0, %D17C0) {kernel = [3, 3], stride = [2, 2], in_zero = [0, 0], ke_zero = [0, 0], opt_kernel_rotate = False, pad_mode = 0, pad = [1, 0, 1, 0], round_mode = 0, shift = 0}: (memref<1x64x112x112xf16, strides: [12544, 12544, 112, 1]>, f16, none) -> (memref<1x64x56x56xf16, strides: [3136, 3136, 56, 1]>, none)
CHECK:          %R8.0x480, %D18C0 = "dma.tensor"(%G1.0x34000, %B7C0) : (memref<1x64x1x1xi16, strides: [64, 1, 1, 1]>, none) -> (memref<1x64x1x1xi16, strides: [1, 1, 1, 1]>, none)
CHECK:          %R9, %D19C0 = "dma.tensor"(%G1.0x35000, %B7C0) : (memref<1x64x1x1xi16, strides: [64, 1, 1, 1]>, none) -> (memref<1x64x1x1xi16, strides: [1, 1, 1, 1]>, none)
CHECK:          %R8.0x4c0, %D20C0 = "dma.tensor"(%G1.0x36000, %B7C0) : (memref<1x64x1x1xf32, strides: [64, 1, 1, 1]>, none) -> (memref<1x64x1x1xf32, strides: [1, 1, 1, 1]>, none)
CHECK:          %R8, %D21C0 = "dma.tensor"(%G1.0x3a000, %B7C0) : (memref<1x64x1x576xi16, strides: [36864, 576, 576, 1]>, none) -> (memref<1x64x1x576xi16, strides: [576, 576, 576, 1]>, none)
CHECK:          %R3.0x1800, %B9C0 = "pord.depthwise"(%R7, %R8.0x480, %R9, %C0.0, %D21C0) {kernel = [1, 1], stride = [1, 1], in_zero = [0, 0], ke_zero = [0, 0], opt_kernel_rotate = False, pad_mode = 0, pad = [0, 0, 0, 0], round_mode = 0, shift = 0}: (memref<1x64x56x56xf16, strides: [3136, 3136, 56, 1]>, memref<1x64x1x1xf16, strides: [1, 1, 1, 1]>, memref<1x64x1x1xf16, strides: [1, 1, 1, 1]>, f16, none) -> (memref<1x64x56x56xf16, strides: [3136, 3136, 56, 1]>, none)
CHECK:          %R4, %D22C0 = "dma.tensor"(%G1.0x37000, %B8C0) : (memref<1x64x1x64xi16, strides: [4096, 64, 64, 1]>, none) -> (memref<1x64x1x64xi16, strides: [64, 64, 64, 1]>, none)
CHECK:          %R5, %B10C0 = "conv.normal"(%R3.0x1800, %R4, %R8.0x4c0, %C0.0, %D22C0) {kernel = [1, 1], stride = [1, 1], in_zero = [0, 0], ke_zero = [0, 0], opt_kernel_rotate = False, pad_mode = 0, pad = [0, 0, 0, 0], opt_res_add = False, do_relu = True, sym_range = False, do_rq = False, round_mode = 0}: (memref<1x64x56x56xf16, strides: [3136, 3136, 56, 1]>, memref<64x64x1x1xf16>, memref<1x64x1x1xui32, strides: [1, 1, 1, 1]>, f16, none) -> (memref<1x64x56x56xf16, strides: [3136, 3136, 56, 1]>, none)
CHECK:          %R6, %D23C0 = "dma.tensor"(%G1.0x39000, %B9C0) : (memref<1x64x1x1xf32, strides: [64, 1, 1, 1]>, none) -> (memref<1x64x1x1xf32, strides: [1, 1, 1, 1]>, none)
CHECK:          %R3.0x3080, %B11C0 = "conv.normal"(%R5, %R8, %R6, %C0.0, %D23C0) {kernel = [3, 3], stride = [1, 1], in_zero = [0, 0], ke_zero = [0, 0], opt_kernel_rotate = False, pad_mode = 0, pad = [1, 1, 1, 1], opt_res_add = False, do_relu = True, sym_range = False, do_rq = False, round_mode = 0}: (memref<1x64x56x56xf16, strides: [3136, 3136, 56, 1]>, memref<64x64x3x3xf16>, memref<1x64x1x1xui32, strides: [1, 1, 1, 1]>, f16, none) -> (memref<1x64x56x56xf16, strides: [3136, 3136, 56, 1]>, none)
CHECK:          %R7, %D24C0 = "dma.tensor"(%G1.0x4c000, %B10C0) : (memref<1x256x1x64xi16, strides: [16384, 64, 64, 1]>, none) -> (memref<1x256x1x64xi16, strides: [256, 64, 64, 1]>, none)
CHECK:          %R11.0x2c80, %D25C0 = "dma.tensor"(%G1.0x790000, %B10C0) : (memref<1x1024x1x256xi16, strides: [262144, 256, 256, 1]>, none) -> (memref<1x1024x1x256xi16, strides: [4096, 256, 256, 1]>, none)
CHECK:          %R5, %B12C0 = "conv.normal"(%R3.0x3080, %R7, %C0, %C0.0, %D25C0) {kernel = [1, 1], stride = [1, 1], in_zero = [0, 0], ke_zero = [0, 0], opt_kernel_rotate = False, pad_mode = 0, pad = [0, 0, 0, 0], opt_res_add = False, do_relu = False, sym_range = False, do_rq = False, round_mode = 0}: (memref<1x64x56x56xf16, strides: [3136, 3136, 56, 1]>, memref<256x64x1x1xf16>, ui32, f16, none) -> (memref<1x256x56x56xf16, strides: [12544, 3136, 56, 1]>, none)
CHECK:          %R9, %D26C0 = "dma.tensor"(%G1.0x54000, %B11C0) : (memref<1x256x1x64xi16, strides: [16384, 64, 64, 1]>, none) -> (memref<1x256x1x64xi16, strides: [256, 64, 64, 1]>, none)
CHECK:          %R7, %B13C0 = "conv.normal"(%R3.0x1800, %R9, %C0, %C0.0, %D26C0) {kernel = [1, 1], stride = [1, 1], in_zero = [0, 0], ke_zero = [0, 0], opt_kernel_rotate = False, pad_mode = 0, pad = [0, 0, 0, 0], opt_res_add = False, do_relu = False, sym_range = False, do_rq = False, round_mode = 0}: (memref<1x64x56x56xf16, strides: [3136, 3136, 56, 1]>, memref<256x64x1x1xf16>, ui32, f16, none) -> (memref<1x256x56x56xf16, strides: [12544, 3136, 56, 1]>, none)
CHECK:          %R3.0x1800, %B14C0 = "arith.add"(%R5, %R7, %D26C0) {round_mode = 0}: (memref<1x256x56x56xf16, strides: [0, 3136, 56, 1]>, memref<1x256x56x56xf16, strides: [0, 3136, 56, 1]>, none) -> (memref<1x256x56x56xf16, strides: [12544, 3136, 56, 1]>, none)
CHECK:          %R12.0xc80, %D27C0 = "dma.tensor"(%G1.0x5c000, %B13C0) : (memref<1x256x1x1xi16, strides: [256, 1, 1, 1]>, none) -> (memref<1x256x1x1xi16, strides: [4, 1, 1, 1]>, none)
CHECK:          %R13, %D28C0 = "dma.tensor"(%G1.0x5d000, %B13C0) : (memref<1x256x1x1xi16, strides: [256, 1, 1, 1]>, none) -> (memref<1x256x1x1xi16, strides: [4, 1, 1, 1]>, none)
CHECK:          %R12.0xcc0, %D29C0 = "dma.tensor"(%G1.0x5e000, %B13C0) : (memref<1x64x1x1xf32, strides: [64, 1, 1, 1]>, none) -> (memref<1x64x1x1xf32, strides: [1, 1, 1, 1]>, none)
CHECK:          %R9, %B15C0 = "pord.depthwise"(%R3.0x1800, %R12.0xc80, %R13, %C0.0, %D29C0) {kernel = [1, 1], stride = [1, 1], in_zero = [0, 0], ke_zero = [0, 0], opt_kernel_rotate = False, pad_mode = 0, pad = [0, 0, 0, 0], round_mode = 0, shift = 0}: (memref<1x256x56x56xf16, strides: [12544, 3136, 56, 1]>, memref<1x256x1x1xf16, strides: [4, 1, 1, 1]>, memref<1x256x1x1xf16, strides: [4, 1, 1, 1]>, f16, none) -> (memref<1x256x56x56xf16, strides: [12544, 3136, 56, 1]>, none)
CHECK:          %R11, %D30C0 = "dma.tensor"(%G1.0x5f000, %B14C0) : (memref<1x64x1x256xi16, strides: [16384, 256, 256, 1]>, none) -> (memref<1x64x1x256xi16, strides: [256, 256, 256, 1]>, none)
CHECK:          %R4.0x3a00, %B16C0 = "conv.normal"(%R9, %R11, %R12.0xcc0, %C0.0, %D30C0) {kernel = [1, 1], stride = [1, 1], in_zero = [0, 0], ke_zero = [0, 0], opt_kernel_rotate = False, pad_mode = 0, pad = [0, 0, 0, 0], opt_res_add = False, do_relu = True, sym_range = False, do_rq = False, round_mode = 0}: (memref<1x256x56x56xf16, strides: [12544, 3136, 56, 1]>, memref<64x256x1x1xf16>, memref<1x64x1x1xui32, strides: [1, 1, 1, 1]>, f16, none) -> (memref<1x64x56x56xf16, strides: [3136, 3136, 56, 1]>, none)
CHECK:          %R7, %D31C0 = "dma.tensor"(%G1.0x68000, %B15C0) : (memref<1x64x1x576xi16, strides: [36864, 576, 576, 1]>, none) -> (memref<1x64x1x576xi16, strides: [576, 576, 576, 1]>, none)
CHECK:          %R8, %D32C0 = "dma.tensor"(%G1.0x67000, %B15C0) : (memref<1x64x1x1xf32, strides: [64, 1, 1, 1]>, none) -> (memref<1x64x1x1xf32, strides: [1, 1, 1, 1]>, none)
CHECK:          %R6, %B17C0 = "conv.normal"(%R4.0x3a00, %R7, %R8, %C0.0, %D32C0) {kernel = [3, 3], stride = [1, 1], in_zero = [0, 0], ke_zero = [0, 0], opt_kernel_rotate = False, pad_mode = 0, pad = [1, 1, 1, 1], opt_res_add = False, do_relu = True, sym_range = False, do_rq = False, round_mode = 0}: (memref<1x64x56x56xf16, strides: [3136, 3136, 56, 1]>, memref<64x64x3x3xf16>, memref<1x64x1x1xui32, strides: [1, 1, 1, 1]>, f16, none) -> (memref<1x64x56x56xf16, strides: [3136, 3136, 56, 1]>, none)
CHECK:          %R9, %D33C0 = "dma.tensor"(%G1.0x7a000, %B16C0) : (memref<1x256x1x64xi16, strides: [16384, 64, 64, 1]>, none) -> (memref<1x256x1x64xi16, strides: [256, 64, 64, 1]>, none)
CHECK:          %R12.0xcc0, %D34C0 = "dma.tensor"(%G1.0x813000, %B16C0) : (memref<1x256x1x1024xi16, strides: [262144, 1024, 1024, 1]>, none) -> (memref<1x256x1x1024xi16, strides: [4096, 1024, 1024, 1]>, none)
CHECK:          %R7, %B18C0 = "conv.normal"(%R6, %R9, %C0, %C0.0, %D34C0) {kernel = [1, 1], stride = [1, 1], in_zero = [0, 0], ke_zero = [0, 0], opt_kernel_rotate = False, pad_mode = 0, pad = [0, 0, 0, 0], opt_res_add = False, do_relu = False, sym_range = False, do_rq = False, round_mode = 0}: (memref<1x64x56x56xf16, strides: [3136, 3136, 56, 1]>, memref<256x64x1x1xf16>, ui32, f16, none) -> (memref<1x256x56x56xf16, strides: [12544, 3136, 56, 1]>, none)
CHECK:          %R5, %B19C0 = "arith.add"(%R7, %R3.0x1800, %D34C0) {round_mode = 0}: (memref<1x256x56x56xf16, strides: [0, 3136, 56, 1]>, memref<1x256x56x56xf16, strides: [0, 3136, 56, 1]>, none) -> (memref<1x256x56x56xf16, strides: [12544, 3136, 56, 1]>, none)
CHECK:          %R12.0xc80, %D35C0 = "dma.tensor"(%G1.0x82000, %B18C0) : (memref<1x256x1x1xi16, strides: [256, 1, 1, 1]>, none) -> (memref<1x256x1x1xi16, strides: [4, 1, 1, 1]>, none)
CHECK:          %R13, %D36C0 = "dma.tensor"(%G1.0x83000, %B18C0) : (memref<1x256x1x1xi16, strides: [256, 1, 1, 1]>, none) -> (memref<1x256x1x1xi16, strides: [4, 1, 1, 1]>, none)
CHECK:          %R12.0x2cc0, %D37C0 = "dma.tensor"(%G1.0x84000, %B18C0) : (memref<1x64x1x1xf32, strides: [64, 1, 1, 1]>, none) -> (memref<1x64x1x1xf32, strides: [1, 1, 1, 1]>, none)
CHECK:          %R3.0x1800, %B20C0 = "pord.depthwise"(%R5, %R12.0xc80, %R13, %C0.0, %D37C0) {kernel = [1, 1], stride = [1, 1], in_zero = [0, 0], ke_zero = [0, 0], opt_kernel_rotate = False, pad_mode = 0, pad = [0, 0, 0, 0], round_mode = 0, shift = 0}: (memref<1x256x56x56xf16, strides: [12544, 3136, 56, 1]>, memref<1x256x1x1xf16, strides: [4, 1, 1, 1]>, memref<1x256x1x1xf16, strides: [4, 1, 1, 1]>, f16, none) -> (memref<1x256x56x56xf16, strides: [12544, 3136, 56, 1]>, none)
CHECK:          %R7, %D38C0 = "dma.tensor"(%G1.0x85000, %B19C0) : (memref<1x64x1x256xi16, strides: [16384, 256, 256, 1]>, none) -> (memref<1x64x1x256xi16, strides: [256, 256, 256, 1]>, none)
CHECK:          %R6.0x2200, %B21C0 = "conv.normal"(%R3.0x1800, %R7, %R12.0x2cc0, %C0.0, %D38C0) {kernel = [1, 1], stride = [1, 1], in_zero = [0, 0], ke_zero = [0, 0], opt_kernel_rotate = False, pad_mode = 0, pad = [0, 0, 0, 0], opt_res_add = False, do_relu = True, sym_range = False, do_rq = False, round_mode = 0}: (memref<1x256x56x56xf16, strides: [12544, 3136, 56, 1]>, memref<64x256x1x1xf16>, memref<1x64x1x1xui32, strides: [1, 1, 1, 1]>, f16, none) -> (memref<1x64x56x56xf16, strides: [3136, 3136, 56, 1]>, none)
CHECK:          %R8, %D39C0 = "dma.tensor"(%G1.0x8e000, %B20C0) : (memref<1x64x1x576xi16, strides: [36864, 576, 576, 1]>, none) -> (memref<1x64x1x576xi16, strides: [576, 576, 576, 1]>, none)
CHECK:          %R11, %D40C0 = "dma.tensor"(%G1.0x8d000, %B20C0) : (memref<1x64x1x1xf32, strides: [64, 1, 1, 1]>, none) -> (memref<1x64x1x1xf32, strides: [1, 1, 1, 1]>, none)
CHECK:          %R7, %B22C0 = "conv.normal"(%R6.0x2200, %R8, %R11, %C0.0, %D40C0) {kernel = [3, 3], stride = [1, 1], in_zero = [0, 0], ke_zero = [0, 0], opt_kernel_rotate = False, pad_mode = 0, pad = [1, 1, 1, 1], opt_res_add = False, do_relu = True, sym_range = False, do_rq = False, round_mode = 0}: (memref<1x64x56x56xf16, strides: [3136, 3136, 56, 1]>, memref<64x64x3x3xf16>, memref<1x64x1x1xui32, strides: [1, 1, 1, 1]>, f16, none) -> (memref<1x64x56x56xf16, strides: [3136, 3136, 56, 1]>, none)
CHECK:          %R9, %D41C0 = "dma.tensor"(%G1.0xa0000, %B21C0) : (memref<1x256x1x64xi16, strides: [16384, 64, 64, 1]>, none) -> (memref<1x256x1x64xi16, strides: [256, 64, 64, 1]>, none)
CHECK:          %R9.0x2a80, %D42C0 = "dma.tensor"(%G1.0x9b4000, %B21C0) : (memref<1x1024x1x256xi16, strides: [262144, 256, 256, 1]>, none) -> (memref<1x1024x1x256xi16, strides: [4096, 256, 256, 1]>, none)
CHECK:          %R3.0x1800, %B23C0 = "conv.normal"(%R7, %R9, %C0, %C0.0, %D42C0) {kernel = [1, 1], stride = [1, 1], in_zero = [0, 0], ke_zero = [0, 0], opt_kernel_rotate = False, pad_mode = 0, pad = [0, 0, 0, 0], opt_res_add = False, do_relu = False, sym_range = False, do_rq = False, round_mode = 0}: (memref<1x64x56x56xf16, strides: [3136, 3136, 56, 1]>, memref<256x64x1x1xf16>, ui32, f16, none) -> (memref<1x256x56x56xf16, strides: [12544, 3136, 56, 1]>, none)
CHECK:          %R12.0xc80, %D43C0 = "dma.tensor"(%G1.0xa8000, %B22C0) : (memref<1x256x1x1xi16, strides: [256, 1, 1, 1]>, none) -> (memref<1x256x1x1xi16, strides: [4, 1, 1, 1]>, none)
CHECK:          %R10.0xa80, %B24C0 = "arith.add"(%R3.0x1800, %R5, %D43C0) {round_mode = 0}: (memref<1x256x56x56xf16, strides: [0, 3136, 56, 1]>, memref<1x256x56x56xf16, strides: [0, 3136, 56, 1]>, none) -> (memref<1x256x56x56xf16, strides: [12544, 3136, 56, 1]>, none)
CHECK:          %R13, %D44C0 = "dma.tensor"(%G1.0xa9000, %B23C0) : (memref<1x256x1x1xi16, strides: [256, 1, 1, 1]>, none) -> (memref<1x256x1x1xi16, strides: [4, 1, 1, 1]>, none)
CHECK:          %R12.0x2cc0, %D45C0 = "dma.tensor"(%G1.0xab000, %B23C0) : (memref<1x128x1x256xi16, strides: [32768, 256, 256, 1]>, none) -> (memref<1x128x1x256xi16, strides: [512, 256, 256, 1]>, none)
CHECK:          %R3.0x1800, %B25C0 = "pord.depthwise"(%R10.0xa80, %R12.0xc80, %R13, %C0.0, %D45C0) {kernel = [1, 1], stride = [1, 1], in_zero = [0, 0], ke_zero = [0, 0], opt_kernel_rotate = False, pad_mode = 0, pad = [0, 0, 0, 0], round_mode = 0, shift = 0}: (memref<1x256x56x56xf16, strides: [12544, 3136, 56, 1]>, memref<1x256x1x1xf16, strides: [4, 1, 1, 1]>, memref<1x256x1x1xf16, strides: [4, 1, 1, 1]>, f16, none) -> (memref<1x256x56x56xf16, strides: [12544, 3136, 56, 1]>, none)
CHECK:          %R5, %D46C0 = "dma.tensor"(%G1.0xaa000, %B24C0) : (memref<1x128x1x1xf32, strides: [128, 1, 1, 1]>, none) -> (memref<1x128x1x1xf32, strides: [2, 1, 1, 1]>, none)
CHECK:          %R6, %B26C0 = "conv.normal"(%R3.0x1800, %R12.0x2cc0, %R5, %C0.0, %D46C0) {kernel = [1, 1], stride = [1, 1], in_zero = [0, 0], ke_zero = [0, 0], opt_kernel_rotate = False, pad_mode = 0, pad = [0, 0, 0, 0], opt_res_add = False, do_relu = True, sym_range = False, do_rq = False, round_mode = 0}: (memref<1x256x56x56xf16, strides: [12544, 3136, 56, 1]>, memref<128x256x1x1xf16>, memref<1x128x1x1xui32, strides: [2, 1, 1, 1]>, f16, none) -> (memref<1x128x56x56xf16, strides: [6272, 3136, 56, 1]>, none)
CHECK:          %R7, %D47C0 = "dma.tensor"(%G1.0xbc000, %B25C0) : (memref<1x128x1x1152xi16, strides: [147456, 1152, 1152, 1]>, none) -> (memref<1x128x1x1152xi16, strides: [2304, 1152, 1152, 1]>, none)
CHECK:          %R9, %D48C0 = "dma.tensor"(%G1.0xbb000, %B25C0) : (memref<1x128x1x1xf32, strides: [128, 1, 1, 1]>, none) -> (memref<1x128x1x1xf32, strides: [2, 1, 1, 1]>, none)
CHECK:          %R4.0x3a00, %B27C0 = "conv.normal"(%R6, %R7, %R9, %C0.0, %D48C0) {kernel = [3, 3], stride = [2, 2], in_zero = [0, 0], ke_zero = [0, 0], opt_kernel_rotate = False, pad_mode = 0, pad = [1, 1, 1, 1], opt_res_add = False, do_relu = True, sym_range = False, do_rq = False, round_mode = 0}: (memref<1x128x56x56xf16, strides: [6272, 3136, 56, 1]>, memref<128x128x3x3xf16>, memref<1x128x1x1xui32, strides: [2, 1, 1, 1]>, f16, none) -> (memref<1x128x28x28xf16, strides: [1600, 800, 28, 1]>, none)
CHECK:          %R8.0x1000, %D49C0 = "dma.tensor"(%G1.0x104000, %B26C0) : (memref<1x512x1x128xi16, strides: [65536, 128, 128, 1]>, none) -> (memref<1x512x1x128xi16, strides: [1024, 128, 128, 1]>, none)
CHECK:          %R8, %D50C0 = "dma.tensor"(%G1.0x124000, %B26C0) : (memref<1x512x1x256xi16, strides: [131072, 256, 256, 1]>, none) -> (memref<1x512x1x256xi16, strides: [2048, 256, 256, 1]>, none)
CHECK:          %R6, %B28C0 = "conv.normal"(%R4.0x3a00, %R8.0x1000, %C0, %C0.0, %D50C0) {kernel = [1, 1], stride = [1, 1], in_zero = [0, 0], ke_zero = [0, 0], opt_kernel_rotate = False, pad_mode = 0, pad = [0, 0, 0, 0], opt_res_add = False, do_relu = False, sym_range = False, do_rq = False, round_mode = 0}: (memref<1x128x28x28xf16, strides: [1600, 800, 28, 1]>, memref<512x128x1x1xf16>, ui32, f16, none) -> (memref<1x512x28x28xf16, strides: [6400, 800, 28, 1]>, none)
CHECK:          %R7.0x1200, %D51C0 = "dma.tensor"(%G1.0x167000, %B27C0) : (memref<1x128x1x512xi16, strides: [65536, 512, 512, 1]>, none) -> (memref<1x128x1x512xi16, strides: [1024, 512, 512, 1]>, none)
CHECK:          %R5, %B29C0 = "conv.normal"(%R3.0x1800, %R8, %C0, %C0.0, %D51C0) {kernel = [1, 1], stride = [2, 2], in_zero = [0, 0], ke_zero = [0, 0], opt_kernel_rotate = False, pad_mode = 0, pad = [0, 0, 0, 0], opt_res_add = False, do_relu = False, sym_range = False, do_rq = False, round_mode = 0}: (memref<1x256x56x56xf16, strides: [12544, 3136, 56, 1]>, memref<512x256x1x1xf16>, ui32, f16, none) -> (memref<1x512x28x28xf16, strides: [6400, 800, 28, 1]>, none)
CHECK:          %R10.0xa80, %D52C0 = "dma.tensor"(%G1.0x164000, %B28C0) : (memref<1x512x1x1xi16, strides: [512, 1, 1, 1]>, none) -> (memref<1x512x1x1xi16, strides: [8, 1, 1, 1]>, none)
CHECK:          %R7.0x1a00, %D53C0 = "dma.tensor"(%G1.0x165000, %B28C0) : (memref<1x512x1x1xi16, strides: [512, 1, 1, 1]>, none) -> (memref<1x512x1x1xi16, strides: [8, 1, 1, 1]>, none)
CHECK:          %R7, %D54C0 = "dma.tensor"(%G1.0x188000, %B28C0) : (memref<1x128x1x1152xi16, strides: [147456, 1152, 1152, 1]>, none) -> (memref<1x128x1x1152xi16, strides: [2304, 1152, 1152, 1]>, none)
CHECK:          %R3.0x1800, %B30C0 = "arith.add"(%R6, %R5, %D54C0) {round_mode = 0}: (memref<1x512x28x28xf16, strides: [0, 800, 28, 1]>, memref<1x512x28x28xf16, strides: [0, 800, 28, 1]>, none) -> (memref<1x512x28x28xf16, strides: [6400, 800, 28, 1]>, none)
CHECK:          %R5, %B31C0 = "pord.depthwise"(%R3.0x1800, %R10.0xa80, %R7.0x1a00, %C0.0, %D54C0) {kernel = [1, 1], stride = [1, 1], in_zero = [0, 0], ke_zero = [0, 0], opt_kernel_rotate = False, pad_mode = 0, pad = [0, 0, 0, 0], round_mode = 0, shift = 0}: (memref<1x512x28x28xf16, strides: [6400, 800, 28, 1]>, memref<1x512x1x1xf16, strides: [8, 1, 1, 1]>, memref<1x512x1x1xf16, strides: [8, 1, 1, 1]>, f16, none) -> (memref<1x512x28x28xf16, strides: [6400, 800, 28, 1]>, none)
CHECK:          %R6, %D55C0 = "dma.tensor"(%G1.0x166000, %B30C0) : (memref<1x128x1x1xf32, strides: [128, 1, 1, 1]>, none) -> (memref<1x128x1x1xf32, strides: [2, 1, 1, 1]>, none)
CHECK:          %R4.0xa00, %B32C0 = "conv.normal"(%R5, %R7.0x1200, %R6, %C0.0, %D55C0) {kernel = [1, 1], stride = [1, 1], in_zero = [0, 0], ke_zero = [0, 0], opt_kernel_rotate = False, pad_mode = 0, pad = [0, 0, 0, 0], opt_res_add = False, do_relu = True, sym_range = False, do_rq = False, round_mode = 0}: (memref<1x512x28x28xf16, strides: [6400, 800, 28, 1]>, memref<128x512x1x1xf16>, memref<1x128x1x1xui32, strides: [2, 1, 1, 1]>, f16, none) -> (memref<1x128x28x28xf16, strides: [1600, 800, 28, 1]>, none)
CHECK:          %R10.0xa80, %D56C0 = "dma.tensor"(%G1.0x187000, %B31C0) : (memref<1x128x1x1xf32, strides: [128, 1, 1, 1]>, none) -> (memref<1x128x1x1xf32, strides: [2, 1, 1, 1]>, none)
CHECK:          %R5, %B33C0 = "conv.normal"(%R4.0xa00, %R7, %R10.0xa80, %C0.0, %D56C0) {kernel = [3, 3], stride = [1, 1], in_zero = [0, 0], ke_zero = [0, 0], opt_kernel_rotate = False, pad_mode = 0, pad = [1, 1, 1, 1], opt_res_add = False, do_relu = True, sym_range = False, do_rq = False, round_mode = 0}: (memref<1x128x28x28xf16, strides: [1600, 800, 28, 1]>, memref<128x128x3x3xf16>, memref<1x128x1x1xui32, strides: [2, 1, 1, 1]>, f16, none) -> (memref<1x128x28x28xf16, strides: [1600, 800, 28, 1]>, none)
CHECK:          %R8, %D57C0 = "dma.tensor"(%G1.0x1d0000, %B32C0) : (memref<1x512x1x128xi16, strides: [65536, 128, 128, 1]>, none) -> (memref<1x512x1x128xi16, strides: [1024, 128, 128, 1]>, none)
CHECK:          %R9, %D58C0 = "dma.tensor"(%G1.0x1f0000, %B32C0) : (memref<1x512x1x1xi16, strides: [512, 1, 1, 1]>, none) -> (memref<1x512x1x1xi16, strides: [8, 1, 1, 1]>, none)
CHECK:          %R6, %D59C0 = "dma.tensor"(%G1.0x214000, %B32C0) : (memref<1x128x1x1152xi16, strides: [147456, 1152, 1152, 1]>, none) -> (memref<1x128x1x1152xi16, strides: [2304, 1152, 1152, 1]>, none)
CHECK:          %R6.0x1200, %B34C0 = "conv.normal"(%R5, %R8, %C0, %C0.0, %D59C0) {kernel = [1, 1], stride = [1, 1], in_zero = [0, 0], ke_zero = [0, 0], opt_kernel_rotate = False, pad_mode = 0, pad = [0, 0, 0, 0], opt_res_add = False, do_relu = False, sym_range = False, do_rq = False, round_mode = 0}: (memref<1x128x28x28xf16, strides: [1600, 800, 28, 1]>, memref<512x128x1x1xf16>, ui32, f16, none) -> (memref<1x512x28x28xf16, strides: [6400, 800, 28, 1]>, none)
CHECK:          %R10.0xa80, %D60C0 = "dma.tensor"(%G1.0x1f1000, %B33C0) : (memref<1x512x1x1xi16, strides: [512, 1, 1, 1]>, none) -> (memref<1x512x1x1xi16, strides: [8, 1, 1, 1]>, none)
CHECK:          %R9.0x40, %D61C0 = "dma.tensor"(%G1.0x1f3000, %B33C0) : (memref<1x128x1x512xi16, strides: [65536, 512, 512, 1]>, none) -> (memref<1x128x1x512xi16, strides: [1024, 512, 512, 1]>, none)
CHECK:          %R5, %B35C0 = "arith.add"(%R6.0x1200, %R3.0x1800, %D61C0) {round_mode = 0}: (memref<1x512x28x28xf16, strides: [0, 800, 28, 1]>, memref<1x512x28x28xf16, strides: [0, 800, 28, 1]>, none) -> (memref<1x512x28x28xf16, strides: [6400, 800, 28, 1]>, none)
CHECK:          %R3.0x1800, %B36C0 = "pord.depthwise"(%R5, %R9, %R10.0xa80, %C0.0, %D61C0) {kernel = [1, 1], stride = [1, 1], in_zero = [0, 0], ke_zero = [0, 0], opt_kernel_rotate = False, pad_mode = 0, pad = [0, 0, 0, 0], round_mode = 0, shift = 0}: (memref<1x512x28x28xf16, strides: [6400, 800, 28, 1]>, memref<1x512x1x1xf16, strides: [8, 1, 1, 1]>, memref<1x512x1x1xf16, strides: [8, 1, 1, 1]>, f16, none) -> (memref<1x512x28x28xf16, strides: [6400, 800, 28, 1]>, none)
CHECK:          %R6.0x1200, %D62C0 = "dma.tensor"(%G1.0x1f2000, %B35C0) : (memref<1x128x1x1xf32, strides: [128, 1, 1, 1]>, none) -> (memref<1x128x1x1xf32, strides: [2, 1, 1, 1]>, none)
CHECK:          %R5.0x3200, %B37C0 = "conv.normal"(%R3.0x1800, %R9.0x40, %R6.0x1200, %C0.0, %D62C0) {kernel = [1, 1], stride = [1, 1], in_zero = [0, 0], ke_zero = [0, 0], opt_kernel_rotate = False, pad_mode = 0, pad = [0, 0, 0, 0], opt_res_add = False, do_relu = True, sym_range = False, do_rq = False, round_mode = 0}: (memref<1x512x28x28xf16, strides: [6400, 800, 28, 1]>, memref<128x512x1x1xf16>, memref<1x128x1x1xui32, strides: [2, 1, 1, 1]>, f16, none) -> (memref<1x128x28x28xf16, strides: [1600, 800, 28, 1]>, none)
CHECK:          %R7, %D63C0 = "dma.tensor"(%G1.0x213000, %B36C0) : (memref<1x128x1x1xf32, strides: [128, 1, 1, 1]>, none) -> (memref<1x128x1x1xf32, strides: [2, 1, 1, 1]>, none)
CHECK:          %R3.0x1800, %B38C0 = "conv.normal"(%R5.0x3200, %R6, %R7, %C0.0, %D63C0) {kernel = [3, 3], stride = [1, 1], in_zero = [0, 0], ke_zero = [0, 0], opt_kernel_rotate = False, pad_mode = 0, pad = [1, 1, 1, 1], opt_res_add = False, do_relu = True, sym_range = False, do_rq = False, round_mode = 0}: (memref<1x128x28x28xf16, strides: [1600, 800, 28, 1]>, memref<128x128x3x3xf16>, memref<1x128x1x1xui32, strides: [2, 1, 1, 1]>, f16, none) -> (memref<1x128x28x28xf16, strides: [1600, 800, 28, 1]>, none)
CHECK:          %R4, %D64C0 = "dma.tensor"(%G1.0x25c000, %B37C0) : (memref<1x512x1x128xi16, strides: [65536, 128, 128, 1]>, none) -> (memref<1x512x1x128xi16, strides: [1024, 128, 128, 1]>, none)
CHECK:          %R8, %D65C0 = "dma.tensor"(%G1.0x27c000, %B37C0) : (memref<1x512x1x1xi16, strides: [512, 1, 1, 1]>, none) -> (memref<1x512x1x1xi16, strides: [8, 1, 1, 1]>, none)
CHECK:          %R4.0xa00, %D66C0 = "dma.tensor"(%G1.0x2a0000, %B37C0) : (memref<1x128x1x1152xi16, strides: [147456, 1152, 1152, 1]>, none) -> (memref<1x128x1x1152xi16, strides: [2304, 1152, 1152, 1]>, none)
CHECK:          %R6, %B39C0 = "conv.normal"(%R3.0x1800, %R4, %C0, %C0.0, %D66C0) {kernel = [1, 1], stride = [1, 1], in_zero = [0, 0], ke_zero = [0, 0], opt_kernel_rotate = False, pad_mode = 0, pad = [0, 0, 0, 0], opt_res_add = False, do_relu = False, sym_range = False, do_rq = False, round_mode = 0}: (memref<1x128x28x28xf16, strides: [1600, 800, 28, 1]>, memref<512x128x1x1xf16>, ui32, f16, none) -> (memref<1x512x28x28xf16, strides: [6400, 800, 28, 1]>, none)
CHECK:          %R9, %D67C0 = "dma.tensor"(%G1.0x27d000, %B38C0) : (memref<1x512x1x1xi16, strides: [512, 1, 1, 1]>, none) -> (memref<1x512x1x1xi16, strides: [8, 1, 1, 1]>, none)
CHECK:          %R7.0x2a80, %D68C0 = "dma.tensor"(%G1.0x27f000, %B38C0) : (memref<1x128x1x512xi16, strides: [65536, 512, 512, 1]>, none) -> (memref<1x128x1x512xi16, strides: [1024, 512, 512, 1]>, none)
CHECK:          %R3.0x1800, %B40C0 = "arith.add"(%R6, %R5, %D68C0) {round_mode = 0}: (memref<1x512x28x28xf16, strides: [0, 800, 28, 1]>, memref<1x512x28x28xf16, strides: [0, 800, 28, 1]>, none) -> (memref<1x512x28x28xf16, strides: [6400, 800, 28, 1]>, none)
CHECK:          %R8.0x40, %D69C0 = "dma.tensor"(%G1.0x27e000, %B39C0) : (memref<1x128x1x1xf32, strides: [128, 1, 1, 1]>, none) -> (memref<1x128x1x1xf32, strides: [2, 1, 1, 1]>, none)
CHECK:          %R5, %B41C0 = "pord.depthwise"(%R3.0x1800, %R8, %R9, %C0.0, %D69C0) {kernel = [1, 1], stride = [1, 1], in_zero = [0, 0], ke_zero = [0, 0], opt_kernel_rotate = False, pad_mode = 0, pad = [0, 0, 0, 0], round_mode = 0, shift = 0}: (memref<1x512x28x28xf16, strides: [6400, 800, 28, 1]>, memref<1x512x1x1xf16, strides: [8, 1, 1, 1]>, memref<1x512x1x1xf16, strides: [8, 1, 1, 1]>, f16, none) -> (memref<1x512x28x28xf16, strides: [6400, 800, 28, 1]>, none)
CHECK:          %R10.0xa80, %D70C0 = "dma.tensor"(%G1.0x29f000, %B40C0) : (memref<1x128x1x1xf32, strides: [128, 1, 1, 1]>, none) -> (memref<1x128x1x1xf32, strides: [2, 1, 1, 1]>, none)
CHECK:          %R6, %B42C0 = "conv.normal"(%R5, %R7.0x2a80, %R8.0x40, %C0.0, %D70C0) {kernel = [1, 1], stride = [1, 1], in_zero = [0, 0], ke_zero = [0, 0], opt_kernel_rotate = False, pad_mode = 0, pad = [0, 0, 0, 0], opt_res_add = False, do_relu = True, sym_range = False, do_rq = False, round_mode = 0}: (memref<1x512x28x28xf16, strides: [6400, 800, 28, 1]>, memref<128x512x1x1xf16>, memref<1x128x1x1xui32, strides: [2, 1, 1, 1]>, f16, none) -> (memref<1x128x28x28xf16, strides: [1600, 800, 28, 1]>, none)
CHECK:          %R9, %D71C0 = "dma.tensor"(%G1.0x5ec000, %B41C0) : (memref<1x1024x1x1xi16, strides: [1024, 1, 1, 1]>, none) -> (memref<1x1024x1x1xi16, strides: [16, 1, 1, 1]>, none)
CHECK:          %R7, %B43C0 = "conv.normal"(%R6, %R4.0xa00, %R10.0xa80, %C0.0, %D71C0) {kernel = [3, 3], stride = [1, 1], in_zero = [0, 0], ke_zero = [0, 0], opt_kernel_rotate = False, pad_mode = 0, pad = [1, 1, 1, 1], opt_res_add = False, do_relu = True, sym_range = False, do_rq = False, round_mode = 0}: (memref<1x128x28x28xf16, strides: [1600, 800, 28, 1]>, memref<128x128x3x3xf16>, memref<1x128x1x1xui32, strides: [2, 1, 1, 1]>, f16, none) -> (memref<1x128x28x28xf16, strides: [1600, 800, 28, 1]>, none)
CHECK:          %R8.0x1000, %D72C0 = "dma.tensor"(%G1.0x2e8000, %B42C0) : (memref<1x512x1x128xi16, strides: [65536, 128, 128, 1]>, none) -> (memref<1x512x1x128xi16, strides: [1024, 128, 128, 1]>, none)
CHECK:          %R8, %D73C0 = "dma.tensor"(%G1.0x30b000, %B42C0) : (memref<1x256x1x512xi16, strides: [131072, 512, 512, 1]>, none) -> (memref<1x256x1x512xi16, strides: [2048, 512, 512, 1]>, none)
CHECK:          %R8.0x1800, %D74C0 = "dma.tensor"(%G1.0x308000, %B42C0) : (memref<1x512x1x1xi16, strides: [512, 1, 1, 1]>, none) -> (memref<1x512x1x1xi16, strides: [8, 1, 1, 1]>, none)
CHECK:          %R5, %B44C0 = "conv.normal"(%R7, %R8.0x1000, %C0, %C0.0, %D74C0) {kernel = [1, 1], stride = [1, 1], in_zero = [0, 0], ke_zero = [0, 0], opt_kernel_rotate = False, pad_mode = 0, pad = [0, 0, 0, 0], opt_res_add = False, do_relu = False, sym_range = False, do_rq = False, round_mode = 0}: (memref<1x128x28x28xf16, strides: [1600, 800, 28, 1]>, memref<512x128x1x1xf16>, ui32, f16, none) -> (memref<1x512x28x28xf16, strides: [6400, 800, 28, 1]>, none)
CHECK:          %R9.0x40, %D75C0 = "dma.tensor"(%G1.0x309000, %B43C0) : (memref<1x512x1x1xi16, strides: [512, 1, 1, 1]>, none) -> (memref<1x512x1x1xi16, strides: [8, 1, 1, 1]>, none)
CHECK:          %R6.0x3900, %D76C0 = "dma.tensor"(%G1.0x5ed000, %B43C0) : (memref<1x1024x1x1xi16, strides: [1024, 1, 1, 1]>, none) -> (memref<1x1024x1x1xi16, strides: [16, 1, 1, 1]>, none)
CHECK:          %R7, %B45C0 = "arith.add"(%R5, %R3.0x1800, %D76C0) {round_mode = 0}: (memref<1x512x28x28xf16, strides: [0, 800, 28, 1]>, memref<1x512x28x28xf16, strides: [0, 800, 28, 1]>, none) -> (memref<1x512x28x28xf16, strides: [6400, 800, 28, 1]>, none)
CHECK:          %R9.0x80, %D77C0 = "dma.tensor"(%G1.0x30a000, %B44C0) : (memref<1x256x1x1xf32, strides: [256, 1, 1, 1]>, none) -> (memref<1x256x1x1xf32, strides: [4, 1, 1, 1]>, none)
CHECK:          %R6, %B46C0 = "pord.depthwise"(%R7, %R8.0x1800, %R9.0x40, %C0.0, %D77C0) {kernel = [1, 1], stride = [1, 1], in_zero = [0, 0], ke_zero = [0, 0], opt_kernel_rotate = False, pad_mode = 0, pad = [0, 0, 0, 0], round_mode = 0, shift = 0}: (memref<1x512x28x28xf16, strides: [6400, 800, 28, 1]>, memref<1x512x1x1xf16, strides: [8, 1, 1, 1]>, memref<1x512x1x1xf16, strides: [8, 1, 1, 1]>, f16, none) -> (memref<1x512x28x28xf16, strides: [6400, 800, 28, 1]>, none)
CHECK:          %R5, %B47C0 = "conv.normal"(%R6, %R8, %R9.0x80, %C0.0, %D77C0) {kernel = [1, 1], stride = [1, 1], in_zero = [0, 0], ke_zero = [0, 0], opt_kernel_rotate = False, pad_mode = 0, pad = [0, 0, 0, 0], opt_res_add = False, do_relu = True, sym_range = False, do_rq = False, round_mode = 0}: (memref<1x512x28x28xf16, strides: [6400, 800, 28, 1]>, memref<256x512x1x1xf16>, memref<1x256x1x1xui32, strides: [4, 1, 1, 1]>, f16, none) -> (memref<1x256x28x28xf16, strides: [3200, 800, 28, 1]>, none)
CHECK:          %R7, %D78C0 = "dma.tensor"(%G1.0x34b000, %B46C0) : (memref<1x256x1x1xf32, strides: [256, 1, 1, 1]>, none) -> (memref<1x256x1x1xf32, strides: [4, 1, 1, 1]>, none)
CHECK:          %R3.0x2000, %D79C0 = "dma.tensor"(%G1.0xa37000, %B46C0) : (memref<1x256x1x1024xi16, strides: [262144, 1024, 1024, 1]>, none) -> (memref<1x256x1x1024xi16, strides: [4096, 1024, 1024, 1]>, none)
CHECK:          %R6.0x3200, %B48C0 = "conv.normal"(%R5, %R2.0x1000, %R7, %C0.0, %D79C0) {kernel = [3, 3], stride = [2, 2], in_zero = [0, 0], ke_zero = [0, 0], opt_kernel_rotate = False, pad_mode = 0, pad = [1, 1, 1, 1], opt_res_add = False, do_relu = True, sym_range = False, do_rq = False, round_mode = 0}: (memref<1x256x28x28xf16, strides: [3200, 800, 28, 1]>, memref<256x256x3x3xf16>, memref<1x256x1x1xui32, strides: [4, 1, 1, 1]>, f16, none) -> (memref<1x256x14x14xf16, strides: [896, 224, 14, 1]>, none)
CHECK:          %R4, %D80C0 = "dma.tensor"(%G1.0xbd8000, %B47C0) : (memref<1x1024x1x256xi16, strides: [262144, 256, 256, 1]>, none) -> (memref<1x1024x1x256xi16, strides: [4096, 256, 256, 1]>, none)
CHECK:          %R3, %B49C0 = "conv.normal"(%R6.0x3200, %R15.0x2000, %C0, %C0.0, %D80C0) {kernel = [1, 1], stride = [1, 1], in_zero = [0, 0], ke_zero = [0, 0], opt_kernel_rotate = False, pad_mode = 0, pad = [0, 0, 0, 0], opt_res_add = False, do_relu = False, sym_range = False, do_rq = False, round_mode = 0}: (memref<1x256x14x14xf16, strides: [896, 224, 14, 1]>, memref<1024x256x1x1xf16>, ui32, f16, none) -> (memref<1x1024x14x14xf16, strides: [3584, 224, 14, 1]>, none)
CHECK:          %R5.0x1a00, %D81C0 = "dma.tensor"(%G1.0x810000, %B48C0) : (memref<1x1024x1x1xi16, strides: [1024, 1, 1, 1]>, none) -> (memref<1x1024x1x1xi16, strides: [16, 1, 1, 1]>, none)
CHECK:          %R4.0x2000, %B50C0 = "conv.normal"(%R6, %R14, %C0, %C0.0, %D81C0) {kernel = [1, 1], stride = [2, 2], in_zero = [0, 0], ke_zero = [0, 0], opt_kernel_rotate = False, pad_mode = 0, pad = [0, 0, 0, 0], opt_res_add = False, do_relu = False, sym_range = False, do_rq = False, round_mode = 0}: (memref<1x512x28x28xf16, strides: [6400, 800, 28, 1]>, memref<1024x512x1x1xf16>, ui32, f16, none) -> (memref<1x1024x14x14xf16, strides: [3584, 224, 14, 1]>, none)
CHECK:          %R7.0x80, %D82C0 = "dma.tensor"(%G1.0x811000, %B49C0) : (memref<1x1024x1x1xi16, strides: [1024, 1, 1, 1]>, none) -> (memref<1x1024x1x1xi16, strides: [16, 1, 1, 1]>, none)
CHECK:          %R5.0x2840, %D83C0 = "dma.tensor"(%G1.0xa34000, %B49C0) : (memref<1x1024x1x1xi16, strides: [1024, 1, 1, 1]>, none) -> (memref<1x1024x1x1xi16, strides: [16, 1, 1, 1]>, none)
CHECK:          %R7, %D84C0 = "dma.tensor"(%G1.0xa35000, %B49C0) : (memref<1x1024x1x1xi16, strides: [1024, 1, 1, 1]>, none) -> (memref<1x1024x1x1xi16, strides: [16, 1, 1, 1]>, none)
CHECK:          %R2.0x1000, %B51C0 = "arith.add"(%R3, %R4.0x2000, %D84C0) {round_mode = 0}: (memref<1x1024x14x14xf16, strides: [0, 224, 14, 1]>, memref<1x1024x14x14xf16, strides: [0, 224, 14, 1]>, none) -> (memref<1x1024x14x14xf16, strides: [3584, 224, 14, 1]>, none)
CHECK:          %R5.0x1a40, %D85C0 = "dma.tensor"(%G1.0x5ee000, %B50C0) : (memref<1x256x1x1xf32, strides: [256, 1, 1, 1]>, none) -> (memref<1x256x1x1xf32, strides: [4, 1, 1, 1]>, none)
CHECK:          %R3, %B52C0 = "pord.depthwise"(%R2.0x1000, %R9, %R6.0x3900, %C0.0, %D85C0) {kernel = [1, 1], stride = [1, 1], in_zero = [0, 0], ke_zero = [0, 0], opt_kernel_rotate = False, pad_mode = 0, pad = [0, 0, 0, 0], round_mode = 0, shift = 0}: (memref<1x1024x14x14xf16, strides: [3584, 224, 14, 1]>, memref<1x1024x1x1xf16, strides: [16, 1, 1, 1]>, memref<1x1024x1x1xf16, strides: [16, 1, 1, 1]>, f16, none) -> (memref<1x1024x14x14xf16, strides: [3584, 224, 14, 1]>, none)
CHECK:          %R4.0x2000, %B53C0 = "conv.normal"(%R3, %R15, %R5.0x1a40, %C0.0, %D85C0) {kernel = [1, 1], stride = [1, 1], in_zero = [0, 0], ke_zero = [0, 0], opt_kernel_rotate = False, pad_mode = 0, pad = [0, 0, 0, 0], opt_res_add = False, do_relu = True, sym_range = False, do_rq = False, round_mode = 0}: (memref<1x1024x14x14xf16, strides: [3584, 224, 14, 1]>, memref<256x1024x1x1xf16>, memref<1x256x1x1xui32, strides: [4, 1, 1, 1]>, f16, none) -> (memref<1x256x14x14xf16, strides: [896, 224, 14, 1]>, none)
CHECK:          %R6, %D86C0 = "dma.tensor"(%G1.0x66f000, %B52C0) : (memref<1x256x1x1xf32, strides: [256, 1, 1, 1]>, none) -> (memref<1x256x1x1xf32, strides: [4, 1, 1, 1]>, none)
CHECK:          %R6.0x2300, %D87C0 = "dma.tensor"(%G1.0xc58000, %B52C0) : (memref<1x1024x1x1xi16, strides: [1024, 1, 1, 1]>, none) -> (memref<1x1024x1x1xi16, strides: [16, 1, 1, 1]>, none)
CHECK:          %R5, %B54C0 = "conv.normal"(%R4.0x2000, %R1.0x800, %R6, %C0.0, %D87C0) {kernel = [3, 3], stride = [1, 1], in_zero = [0, 0], ke_zero = [0, 0], opt_kernel_rotate = False, pad_mode = 0, pad = [1, 1, 1, 1], opt_res_add = False, do_relu = True, sym_range = False, do_rq = False, round_mode = 0}: (memref<1x256x14x14xf16, strides: [896, 224, 14, 1]>, memref<256x256x3x3xf16>, memref<1x256x1x1xui32, strides: [4, 1, 1, 1]>, f16, none) -> (memref<1x256x14x14xf16, strides: [896, 224, 14, 1]>, none)
CHECK:          %R3, %D88C0 = "dma.tensor"(%G1.0xc5b000, %B53C0) : (memref<1x256x1x1024xi16, strides: [262144, 1024, 1024, 1]>, none) -> (memref<1x256x1x1024xi16, strides: [4096, 1024, 1024, 1]>, none)
CHECK:          %R1.0x800, %B55C0 = "conv.normal"(%R5, %R11.0x2c80, %C0, %C0.0, %D88C0) {kernel = [1, 1], stride = [1, 1], in_zero = [0, 0], ke_zero = [0, 0], opt_kernel_rotate = False, pad_mode = 0, pad = [0, 0, 0, 0], opt_res_add = False, do_relu = False, sym_range = False, do_rq = False, round_mode = 0}: (memref<1x256x14x14xf16, strides: [896, 224, 14, 1]>, memref<1024x256x1x1xf16>, ui32, f16, none) -> (memref<1x1024x14x14xf16, strides: [3584, 224, 14, 1]>, none)
CHECK:          %R7.0x40, %D89C0 = "dma.tensor"(%G1.0xc59000, %B54C0) : (memref<1x1024x1x1xi16, strides: [1024, 1, 1, 1]>, none) -> (memref<1x1024x1x1xi16, strides: [16, 1, 1, 1]>, none)
CHECK:          %R6, %B56C0 = "arith.add"(%R1.0x800, %R2.0x1000, %D89C0) {round_mode = 0}: (memref<1x1024x14x14xf16, strides: [0, 224, 14, 1]>, memref<1x1024x14x14xf16, strides: [0, 224, 14, 1]>, none) -> (memref<1x1024x14x14xf16, strides: [3584, 224, 14, 1]>, none)
CHECK:          %R4.0x2000, %D90C0 = "dma.tensor"(%G1.0x812000, %B55C0) : (memref<1x256x1x1xf32, strides: [256, 1, 1, 1]>, none) -> (memref<1x256x1x1xf32, strides: [4, 1, 1, 1]>, none)
CHECK:          %R1.0x800, %B57C0 = "pord.depthwise"(%R6, %R5.0x1a00, %R7.0x80, %C0.0, %D90C0) {kernel = [1, 1], stride = [1, 1], in_zero = [0, 0], ke_zero = [0, 0], opt_kernel_rotate = False, pad_mode = 0, pad = [0, 0, 0, 0], round_mode = 0, shift = 0}: (memref<1x1024x14x14xf16, strides: [3584, 224, 14, 1]>, memref<1x1024x1x1xf16, strides: [16, 1, 1, 1]>, memref<1x1024x1x1xf16, strides: [16, 1, 1, 1]>, f16, none) -> (memref<1x1024x14x14xf16, strides: [3584, 224, 14, 1]>, none)
CHECK:          %R2, %B58C0 = "conv.normal"(%R1.0x800, %R12.0xcc0, %R4.0x2000, %C0.0, %D90C0) {kernel = [1, 1], stride = [1, 1], in_zero = [0, 0], ke_zero = [0, 0], opt_kernel_rotate = False, pad_mode = 0, pad = [0, 0, 0, 0], opt_res_add = False, do_relu = True, sym_range = False, do_rq = False, round_mode = 0}: (memref<1x1024x14x14xf16, strides: [3584, 224, 14, 1]>, memref<256x1024x1x1xf16>, memref<1x256x1x1xui32, strides: [4, 1, 1, 1]>, f16, none) -> (memref<1x256x14x14xf16, strides: [896, 224, 14, 1]>, none)
CHECK:          %R7.0x80, %D91C0 = "dma.tensor"(%G1.0x893000, %B57C0) : (memref<1x256x1x1xf32, strides: [256, 1, 1, 1]>, none) -> (memref<1x256x1x1xf32, strides: [4, 1, 1, 1]>, none)
CHECK:          %R5.0x2800, %D92C0 = "dma.tensor"(%G1.0xe7c000, %B57C0) : (memref<1x1024x1x1xi16, strides: [1024, 1, 1, 1]>, none) -> (memref<1x1024x1x1xi16, strides: [16, 1, 1, 1]>, none)
CHECK:          %R6.0x1c00, %B59C0 = "conv.normal"(%R2, %R0, %R7.0x80, %C0.0, %D92C0) {kernel = [3, 3], stride = [1, 1], in_zero = [0, 0], ke_zero = [0, 0], opt_kernel_rotate = False, pad_mode = 0, pad = [1, 1, 1, 1], opt_res_add = False, do_relu = True, sym_range = False, do_rq = False, round_mode = 0}: (memref<1x256x14x14xf16, strides: [896, 224, 14, 1]>, memref<256x256x3x3xf16>, memref<1x256x1x1xui32, strides: [4, 1, 1, 1]>, f16, none) -> (memref<1x256x14x14xf16, strides: [896, 224, 14, 1]>, none)
CHECK:          %R4.0x2000, %D93C0 = "dma.tensor"(%G1.0xab8000, %B58C0) : (memref<1x256x1x2304xi16, strides: [589824, 2304, 2304, 1]>, none) -> (memref<1x256x1x2304xi16, strides: [9216, 2304, 2304, 1]>, none)
CHECK:          %R0, %B60C0 = "conv.normal"(%R6.0x1c00, %R9.0x2a80, %C0, %C0.0, %D93C0) {kernel = [1, 1], stride = [1, 1], in_zero = [0, 0], ke_zero = [0, 0], opt_kernel_rotate = False, pad_mode = 0, pad = [0, 0, 0, 0], opt_res_add = False, do_relu = False, sym_range = False, do_rq = False, round_mode = 0}: (memref<1x256x14x14xf16, strides: [896, 224, 14, 1]>, memref<1024x256x1x1xf16>, ui32, f16, none) -> (memref<1x1024x14x14xf16, strides: [3584, 224, 14, 1]>, none)
CHECK:          %R1.0x3a40, %D94C0 = "dma.tensor"(%G1.0xdfc000, %B59C0) : (memref<1x1024x1x256xi16, strides: [262144, 256, 256, 1]>, none) -> (memref<1x1024x1x256xi16, strides: [4096, 256, 256, 1]>, none)
CHECK:          %R2.0x1a40, %B61C0 = "arith.add"(%R0, %R6, %D94C0) {round_mode = 0}: (memref<1x1024x14x14xf16, strides: [0, 224, 14, 1]>, memref<1x1024x14x14xf16, strides: [0, 224, 14, 1]>, none) -> (memref<1x1024x14x14xf16, strides: [3584, 224, 14, 1]>, none)
CHECK:          %R1, %D95C0 = "dma.tensor"(%G1.0xa36000, %B60C0) : (memref<1x256x1x1xf32, strides: [256, 1, 1, 1]>, none) -> (memref<1x256x1x1xf32, strides: [4, 1, 1, 1]>, none)
CHECK:          %R0, %B62C0 = "pord.depthwise"(%R2.0x1a40, %R5.0x2840, %R7, %C0.0, %D95C0) {kernel = [1, 1], stride = [1, 1], in_zero = [0, 0], ke_zero = [0, 0], opt_kernel_rotate = False, pad_mode = 0, pad = [0, 0, 0, 0], round_mode = 0, shift = 0}: (memref<1x1024x14x14xf16, strides: [3584, 224, 14, 1]>, memref<1x1024x1x1xf16, strides: [16, 1, 1, 1]>, memref<1x1024x1x1xf16, strides: [16, 1, 1, 1]>, f16, none) -> (memref<1x1024x14x14xf16, strides: [3584, 224, 14, 1]>, none)
CHECK:          %R2.0x3640, %B63C0 = "conv.normal"(%R0, %R3.0x2000, %R1, %C0.0, %D95C0) {kernel = [1, 1], stride = [1, 1], in_zero = [0, 0], ke_zero = [0, 0], opt_kernel_rotate = False, pad_mode = 0, pad = [0, 0, 0, 0], opt_res_add = False, do_relu = True, sym_range = False, do_rq = False, round_mode = 0}: (memref<1x1024x14x14xf16, strides: [3584, 224, 14, 1]>, memref<256x1024x1x1xf16>, memref<1x256x1x1xui32, strides: [4, 1, 1, 1]>, f16, none) -> (memref<1x256x14x14xf16, strides: [896, 224, 14, 1]>, none)
CHECK:          %R7, %D96C0 = "dma.tensor"(%G1.0xab7000, %B62C0) : (memref<1x256x1x1xf32, strides: [256, 1, 1, 1]>, none) -> (memref<1x256x1x1xf32, strides: [4, 1, 1, 1]>, none)
CHECK:          %R6.0x700, %D97C0 = "dma.tensor"(%G1.0xe7d000, %B62C0) : (memref<1x1024x1x1xi16, strides: [1024, 1, 1, 1]>, none) -> (memref<1x1024x1x1xi16, strides: [16, 1, 1, 1]>, none)
CHECK:          %R6, %B64C0 = "conv.normal"(%R2.0x3640, %R4.0x2000, %R7, %C0.0, %D97C0) {kernel = [3, 3], stride = [1, 1], in_zero = [0, 0], ke_zero = [0, 0], opt_kernel_rotate = False, pad_mode = 0, pad = [1, 1, 1, 1], opt_res_add = False, do_relu = True, sym_range = False, do_rq = False, round_mode = 0}: (memref<1x256x14x14xf16, strides: [896, 224, 14, 1]>, memref<256x256x3x3xf16>, memref<1x256x1x1xui32, strides: [4, 1, 1, 1]>, f16, none) -> (memref<1x256x14x14xf16, strides: [896, 224, 14, 1]>, none)
CHECK:          %R0, %D98C0 = "dma.tensor"(%G1.0xcdc000, %B63C0) : (memref<1x256x1x2304xi16, strides: [589824, 2304, 2304, 1]>, none) -> (memref<1x256x1x2304xi16, strides: [9216, 2304, 2304, 1]>, none)
CHECK:          %R3.0x2000, %B65C0 = "conv.normal"(%R6, %R4, %C0, %C0.0, %D98C0) {kernel = [1, 1], stride = [1, 1], in_zero = [0, 0], ke_zero = [0, 0], opt_kernel_rotate = False, pad_mode = 0, pad = [0, 0, 0, 0], opt_res_add = False, do_relu = False, sym_range = False, do_rq = False, round_mode = 0}: (memref<1x256x14x14xf16, strides: [896, 224, 14, 1]>, memref<1024x256x1x1xf16>, ui32, f16, none) -> (memref<1x1024x14x14xf16, strides: [3584, 224, 14, 1]>, none)
CHECK:          %R8.0x1c00, %D99C0 = "dma.tensor"(%G1.0x10a0000, %B64C0) : (memref<1x1024x1x1xi16, strides: [1024, 1, 1, 1]>, none) -> (memref<1x1024x1x1xi16, strides: [16, 1, 1, 1]>, none)
CHECK:          %R1.0x2400, %D100C0 = "dma.tensor"(%G1.0xc5a000, %B64C0) : (memref<1x256x1x1xf32, strides: [256, 1, 1, 1]>, none) -> (memref<1x256x1x1xf32, strides: [4, 1, 1, 1]>, none)
CHECK:          %R14, %D101C0 = "dma.tensor"(%G1.0x10a2000, %B64C0) : (memref<1x512x1x1xf32, strides: [512, 1, 1, 1]>, none) -> (memref<1x512x1x1xf32, strides: [8, 1, 1, 1]>, none)
CHECK:          %R1.0x800, %B66C0 = "arith.add"(%R3.0x2000, %R2.0x1a40, %D101C0) {round_mode = 0}: (memref<1x1024x14x14xf16, strides: [0, 224, 14, 1]>, memref<1x1024x14x14xf16, strides: [0, 224, 14, 1]>, none) -> (memref<1x1024x14x14xf16, strides: [3584, 224, 14, 1]>, none)
CHECK:          %R6, %D102C0 = "dma.tensor"(%G1.0xcdb000, %B65C0) : (memref<1x256x1x1xf32, strides: [256, 1, 1, 1]>, none) -> (memref<1x256x1x1xf32, strides: [4, 1, 1, 1]>, none)
CHECK:          %R2.0x1a40, %B67C0 = "pord.depthwise"(%R1.0x800, %R6.0x2300, %R7.0x40, %C0.0, %D102C0) {kernel = [1, 1], stride = [1, 1], in_zero = [0, 0], ke_zero = [0, 0], opt_kernel_rotate = False, pad_mode = 0, pad = [0, 0, 0, 0], round_mode = 0, shift = 0}: (memref<1x1024x14x14xf16, strides: [3584, 224, 14, 1]>, memref<1x1024x1x1xf16, strides: [16, 1, 1, 1]>, memref<1x1024x1x1xf16, strides: [16, 1, 1, 1]>, f16, none) -> (memref<1x1024x14x14xf16, strides: [3584, 224, 14, 1]>, none)
CHECK:          %R4, %B68C0 = "conv.normal"(%R2.0x1a40, %R3, %R1.0x2400, %C0.0, %D102C0) {kernel = [1, 1], stride = [1, 1], in_zero = [0, 0], ke_zero = [0, 0], opt_kernel_rotate = False, pad_mode = 0, pad = [0, 0, 0, 0], opt_res_add = False, do_relu = True, sym_range = False, do_rq = False, round_mode = 0}: (memref<1x1024x14x14xf16, strides: [3584, 224, 14, 1]>, memref<256x1024x1x1xf16>, memref<1x256x1x1xui32, strides: [4, 1, 1, 1]>, f16, none) -> (memref<1x256x14x14xf16, strides: [896, 224, 14, 1]>, none)
CHECK:          %R5.0x700, %D103C0 = "dma.tensor"(%G1.0xe7e000, %B67C0) : (memref<1x256x1x1xf32, strides: [256, 1, 1, 1]>, none) -> (memref<1x256x1x1xf32, strides: [4, 1, 1, 1]>, none)
CHECK:          %R9.0x700, %D104C0 = "dma.tensor"(%G1.0x10a1000, %B67C0) : (memref<1x1024x1x1xi16, strides: [1024, 1, 1, 1]>, none) -> (memref<1x1024x1x1xi16, strides: [16, 1, 1, 1]>, none)
CHECK:          %R15, %D105C0 = "dma.tensor"(%G1.0x11a3000, %B67C0) : (memref<1x512x1x1xf32, strides: [512, 1, 1, 1]>, none) -> (memref<1x512x1x1xf32, strides: [8, 1, 1, 1]>, none)
CHECK:          %R5, %B69C0 = "conv.normal"(%R4, %R0, %R6, %C0.0, %D105C0) {kernel = [3, 3], stride = [1, 1], in_zero = [0, 0], ke_zero = [0, 0], opt_kernel_rotate = False, pad_mode = 0, pad = [1, 1, 1, 1], opt_res_add = False, do_relu = True, sym_range = False, do_rq = False, round_mode = 0}: (memref<1x256x14x14xf16, strides: [896, 224, 14, 1]>, memref<256x256x3x3xf16>, memref<1x256x1x1xui32, strides: [4, 1, 1, 1]>, f16, none) -> (memref<1x256x14x14xf16, strides: [896, 224, 14, 1]>, none)
CHECK:          %R3, %D106C0 = "dma.tensor"(%G1.0xe7f000, %B68C0) : (memref<1x256x1x1024xi16, strides: [262144, 1024, 1024, 1]>, none) -> (memref<1x256x1x1024xi16, strides: [4096, 1024, 1024, 1]>, none)
CHECK:          %R0, %B70C0 = "conv.normal"(%R5, %R1.0x3a40, %C0, %C0.0, %D106C0) {kernel = [1, 1], stride = [1, 1], in_zero = [0, 0], ke_zero = [0, 0], opt_kernel_rotate = False, pad_mode = 0, pad = [0, 0, 0, 0], opt_res_add = False, do_relu = False, sym_range = False, do_rq = False, round_mode = 0}: (memref<1x256x14x14xf16, strides: [896, 224, 14, 1]>, memref<1024x256x1x1xf16>, ui32, f16, none) -> (memref<1x1024x14x14xf16, strides: [3584, 224, 14, 1]>, none)
CHECK:          %R7, %D107C0 = "dma.tensor"(%G1.0x1020000, %B69C0) : (memref<1x1024x1x256xi16, strides: [262144, 256, 256, 1]>, none) -> (memref<1x1024x1x256xi16, strides: [4096, 256, 256, 1]>, none)
CHECK:          %R7.0x2000, %B71C0 = "arith.add"(%R0, %R1.0x800, %D107C0) {round_mode = 0}: (memref<1x1024x14x14xf16, strides: [0, 224, 14, 1]>, memref<1x1024x14x14xf16, strides: [0, 224, 14, 1]>, none) -> (memref<1x1024x14x14xf16, strides: [3584, 224, 14, 1]>, none)
CHECK:          %R2.0x1c00, %D108C0 = "dma.tensor"(%G1.0xeff000, %B70C0) : (memref<1x256x1x1xf32, strides: [256, 1, 1, 1]>, none) -> (memref<1x256x1x1xf32, strides: [4, 1, 1, 1]>, none)
CHECK:          %R2, %B72C0 = "pord.depthwise"(%R7.0x2000, %R5.0x2800, %R6.0x700, %C0.0, %D108C0) {kernel = [1, 1], stride = [1, 1], in_zero = [0, 0], ke_zero = [0, 0], opt_kernel_rotate = False, pad_mode = 0, pad = [0, 0, 0, 0], round_mode = 0, shift = 0}: (memref<1x1024x14x14xf16, strides: [3584, 224, 14, 1]>, memref<1x1024x1x1xf16, strides: [16, 1, 1, 1]>, memref<1x1024x1x1xf16, strides: [16, 1, 1, 1]>, f16, none) -> (memref<1x1024x14x14xf16, strides: [3584, 224, 14, 1]>, none)
CHECK:          %R4, %B73C0 = "conv.normal"(%R2, %R3, %R5.0x700, %C0.0, %D108C0) {kernel = [1, 1], stride = [1, 1], in_zero = [0, 0], ke_zero = [0, 0], opt_kernel_rotate = False, pad_mode = 0, pad = [0, 0, 0, 0], opt_res_add = False, do_relu = True, sym_range = False, do_rq = False, round_mode = 0}: (memref<1x1024x14x14xf16, strides: [3584, 224, 14, 1]>, memref<256x1024x1x1xf16>, memref<1x256x1x1xui32, strides: [4, 1, 1, 1]>, f16, none) -> (memref<1x256x14x14xf16, strides: [896, 224, 14, 1]>, none)
CHECK:          %R0, %D109C0 = "dma.tensor"(%G1.0xf00000, %B72C0) : (memref<1x256x1x2304xi16, strides: [589824, 2304, 2304, 1]>, none) -> (memref<1x256x1x2304xi16, strides: [9216, 2304, 2304, 1]>, none)
CHECK:          %R9, %B74C0 = "conv.normal"(%R4, %R0, %R2.0x1c00, %C0.0, %D109C0) {kernel = [3, 3], stride = [1, 1], in_zero = [0, 0], ke_zero = [0, 0], opt_kernel_rotate = False, pad_mode = 0, pad = [1, 1, 1, 1], opt_res_add = False, do_relu = True, sym_range = False, do_rq = False, round_mode = 0}: (memref<1x256x14x14xf16, strides: [896, 224, 14, 1]>, memref<256x256x3x3xf16>, memref<1x256x1x1xui32, strides: [4, 1, 1, 1]>, f16, none) -> (memref<1x256x14x14xf16, strides: [896, 224, 14, 1]>, none)
CHECK:          %R11, %D110C0 = "dma.tensor"(%G1.0x10a3000, %B73C0) : (memref<1x512x1x1024xi16, strides: [524288, 1024, 1024, 1]>, none) -> (memref<1x512x1x1024xi16, strides: [8192, 1024, 1024, 1]>, none)
CHECK:          %R8, %B75C0 = "conv.normal"(%R9, %R7, %C0, %C0.0, %D110C0) {kernel = [1, 1], stride = [1, 1], in_zero = [0, 0], ke_zero = [0, 0], opt_kernel_rotate = False, pad_mode = 0, pad = [0, 0, 0, 0], opt_res_add = False, do_relu = False, sym_range = False, do_rq = False, round_mode = 0}: (memref<1x256x14x14xf16, strides: [896, 224, 14, 1]>, memref<1024x256x1x1xf16>, ui32, f16, none) -> (memref<1x1024x14x14xf16, strides: [3584, 224, 14, 1]>, none)
CHECK:          %R6.0x800, %B76C0 = "arith.add"(%R8, %R7.0x2000, %D110C0) {round_mode = 0}: (memref<1x1024x14x14xf16, strides: [0, 224, 14, 1]>, memref<1x1024x14x14xf16, strides: [0, 224, 14, 1]>, none) -> (memref<1x1024x14x14xf16, strides: [3584, 224, 14, 1]>, none)
CHECK:          %R12, %B77C0 = "pord.depthwise"(%R6.0x800, %R8.0x1c00, %R9.0x700, %C0.0, %D110C0) {kernel = [1, 1], stride = [1, 1], in_zero = [0, 0], ke_zero = [0, 0], opt_kernel_rotate = False, pad_mode = 0, pad = [0, 0, 0, 0], round_mode = 0, shift = 0}: (memref<1x1024x14x14xf16, strides: [3584, 224, 14, 1]>, memref<1x1024x1x1xf16, strides: [16, 1, 1, 1]>, memref<1x1024x1x1xf16, strides: [16, 1, 1, 1]>, f16, none) -> (memref<1x1024x14x14xf16, strides: [3584, 224, 14, 1]>, none)
CHECK:          %R13, %B78C0 = "conv.normal"(%R12, %R11, %R14, %C0.0, %D110C0) {kernel = [1, 1], stride = [1, 1], in_zero = [0, 0], ke_zero = [0, 0], opt_kernel_rotate = False, pad_mode = 0, pad = [0, 0, 0, 0], opt_res_add = False, do_relu = True, sym_range = False, do_rq = False, round_mode = 0}: (memref<1x1024x14x14xf16, strides: [3584, 224, 14, 1]>, memref<512x1024x1x1xf16>, memref<1x512x1x1xui32, strides: [8, 1, 1, 1]>, f16, none) -> (memref<1x512x14x14xf16, strides: [1792, 224, 14, 1]>, none)
CHECK:          %R6.0x800, %D111C0 = "dma.tensor"(%G1.0x11a4000, %B77C0) : (memref<1x512x1x4608xi16, strides: [2359296, 4608, 4608, 1]>, none) -> (memref<1x512x1x4608xi16, strides: [36864, 4608, 4608, 1]>, none)
CHECK:          %R14, %B79C0 = "conv.normal"(%R13, %R6.0x800, %R15, %C0.0, %D111C0) {kernel = [3, 3], stride = [2, 2], in_zero = [0, 0], ke_zero = [0, 0], opt_kernel_rotate = False, pad_mode = 0, pad = [1, 1, 1, 1], opt_res_add = False, do_relu = True, sym_range = False, do_rq = False, round_mode = 0}: (memref<1x512x14x14xf16, strides: [1792, 224, 14, 1]>, memref<512x512x3x3xf16>, memref<1x512x1x1xui32, strides: [8, 1, 1, 1]>, f16, none) -> (memref<1x512x7x7xf16, strides: [512, 64, 7, 1]>, none)
CHECK:          %L30.0x6980062000, %D112C0 = "dma.tensor"(%R12, %B78C0) : (memref<1x1024x14x14xi16, strides: [3584, 224, 14, 1]>, none) -> (memref<1x1024x14x14xi16, strides: [200704, 196, 14, 1]>, none)
CHECK:          %L30.0x698004a000, %D113C0 = "dma.tensor"(%R14, %B79C0) : (memref<1x512x7x7xi16, strides: [512, 64, 7, 1]>, none) -> (memref<1x512x7x7xi16, strides: [25088, 49, 7, 1]>, none)
CHECK:          %B80C0, %msg48 = "system.send_msg"(%D113C0) {msg_id = 48, cnt = 32, status = Status.PRODUCING}
CHECK:          %D114C0, %msg48 = "dma.sys.sys_send"(%B80C0) {msg_id = 48, cnt = 32, status = Status.PRODUCING}
CHECK:        }
CHECK:        %D7C1, %msg48 = "@core_1"(%D5C1, %msg49) {
CHECK:          %B5C1 = "system.wait_msg"(%D5C1, %msg49) {msg_id = 49, cnt = 32, status = Status.RECIEVING}
CHECK:          %D6C1 = "dma.sys.sys_wait"(%B5C1, %msg49) {msg_id = 49, cnt = 32, status = Status.CONSUMED}
CHECK:          %B6C1, %msg48 = "system.send_msg"(%D6C1) {msg_id = 48, cnt = 32, status = Status.PRODUCING}
CHECK:          %D7C1, %msg48 = "dma.sys.sys_send"(%B6C1) {msg_id = 48, cnt = 32, status = Status.PRODUCING}
CHECK:        }
CHECK:        %D7C2, %msg48 = "@core_2"(%D5C2, %msg49) {
CHECK:          %B5C2 = "system.wait_msg"(%D5C2, %msg49) {msg_id = 49, cnt = 32, status = Status.RECIEVING}
CHECK:          %D6C2 = "dma.sys.sys_wait"(%B5C2, %msg49) {msg_id = 49, cnt = 32, status = Status.CONSUMED}
CHECK:          %B6C2, %msg48 = "system.send_msg"(%D6C2) {msg_id = 48, cnt = 32, status = Status.PRODUCING}
CHECK:          %D7C2, %msg48 = "dma.sys.sys_send"(%B6C2) {msg_id = 48, cnt = 32, status = Status.PRODUCING}
CHECK:        }
CHECK:        %D7C3, %msg48 = "@core_3"(%D5C3, %msg49) {
CHECK:          %B5C3 = "system.wait_msg"(%D5C3, %msg49) {msg_id = 49, cnt = 32, status = Status.RECIEVING}
CHECK:          %D6C3 = "dma.sys.sys_wait"(%B5C3, %msg49) {msg_id = 49, cnt = 32, status = Status.CONSUMED}
CHECK:          %B6C3, %msg48 = "system.send_msg"(%D6C3) {msg_id = 48, cnt = 32, status = Status.PRODUCING}
CHECK:          %D7C3, %msg48 = "dma.sys.sys_send"(%B6C3) {msg_id = 48, cnt = 32, status = Status.PRODUCING}
CHECK:        }
CHECK:        %D7C4, %msg48 = "@core_4"(%D5C4, %msg49) {
CHECK:          %B5C4 = "system.wait_msg"(%D5C4, %msg49) {msg_id = 49, cnt = 32, status = Status.RECIEVING}
CHECK:          %D6C4 = "dma.sys.sys_wait"(%B5C4, %msg49) {msg_id = 49, cnt = 32, status = Status.CONSUMED}
CHECK:          %B6C4, %msg48 = "system.send_msg"(%D6C4) {msg_id = 48, cnt = 32, status = Status.PRODUCING}
CHECK:          %D7C4, %msg48 = "dma.sys.sys_send"(%B6C4) {msg_id = 48, cnt = 32, status = Status.PRODUCING}
CHECK:        }
CHECK:        %D7C5, %msg48 = "@core_5"(%D5C5, %msg49) {
CHECK:          %B5C5 = "system.wait_msg"(%D5C5, %msg49) {msg_id = 49, cnt = 32, status = Status.RECIEVING}
CHECK:          %D6C5 = "dma.sys.sys_wait"(%B5C5, %msg49) {msg_id = 49, cnt = 32, status = Status.CONSUMED}
CHECK:          %B6C5, %msg48 = "system.send_msg"(%D6C5) {msg_id = 48, cnt = 32, status = Status.PRODUCING}
CHECK:          %D7C5, %msg48 = "dma.sys.sys_send"(%B6C5) {msg_id = 48, cnt = 32, status = Status.PRODUCING}
CHECK:        }
CHECK:        %D5C6, %msg48 = "@core_6"(%D3C6, %msg49) {
CHECK:          %B4C6 = "system.wait_msg"(%D3C6, %msg49) {msg_id = 49, cnt = 32, status = Status.RECIEVING}
CHECK:          %D4C6 = "dma.sys.sys_wait"(%B4C6, %msg49) {msg_id = 49, cnt = 32, status = Status.CONSUMED}
CHECK:          %B5C6, %msg48 = "system.send_msg"(%D4C6) {msg_id = 48, cnt = 32, status = Status.PRODUCING}
CHECK:          %D5C6, %msg48 = "dma.sys.sys_send"(%B5C6) {msg_id = 48, cnt = 32, status = Status.PRODUCING}
CHECK:        }
CHECK:        %D5C7, %msg48 = "@core_7"(%D3C7, %msg49) {
CHECK:          %B4C7 = "system.wait_msg"(%D3C7, %msg49) {msg_id = 49, cnt = 32, status = Status.RECIEVING}
CHECK:          %D4C7 = "dma.sys.sys_wait"(%B4C7, %msg49) {msg_id = 49, cnt = 32, status = Status.CONSUMED}
CHECK:          %B5C7, %msg48 = "system.send_msg"(%D4C7) {msg_id = 48, cnt = 32, status = Status.PRODUCING}
CHECK:          %D5C7, %msg48 = "dma.sys.sys_send"(%B5C7) {msg_id = 48, cnt = 32, status = Status.PRODUCING}
CHECK:        }
CHECK:        %D125C0, %msg49 = "@core_0"(%D114C0, %msg48) {
CHECK:          %B81C0 = "system.wait_msg"(%D114C0, %msg48) {msg_id = 48, cnt = 32, status = Status.RECIEVING}
CHECK:          %D115C0 = "dma.sys.sys_wait"(%B81C0, %msg48) {msg_id = 48, cnt = 32, status = Status.CONSUMED}
CHECK:          %R2, %D116C0 = "dma.tensor"(%L30.0x698004a000, %B81C0) : (memref<1x512x7x7xf16, strides: [25088, 49, 7, 1]>, none) -> (memref<1x512x7x7xf16, strides: [512, 64, 7, 1]>, none)
CHECK:          %R0, %D117C0 = "dma.tensor"(%G1.0x1624000, %B81C0) : (memref<1x64x16x32xf16, strides: [1048576, 512, 32, 1]>, none) -> (memref<1x64x16x32xf16, strides: [512, 512, 32, 1]>, none)
CHECK:          %R3, %B82C0 = "conv.normal"(%R2, %R0, %C0, %C0.0, %D117C0) {kernel = [1, 1], stride = [1, 1], in_zero = [0, 0], ke_zero = [0, 0], opt_kernel_rotate = False, pad_mode = 0, pad = [0, 0, 0, 0], opt_res_add = False, do_relu = False, sym_range = False, do_rq = False, round_mode = 0}: (memref<1x512x7x7xf16, strides: [512, 64, 7, 1]>, memref<64x512x1x1xf16>, ui32, f16, none) -> (memref<1x64x7x7xf16, strides: [64, 64, 7, 1]>, none)
CHECK:          %R1, %D118C0 = "dma.tensor"(%G1.0x1634000, %B81C0) : (memref<1x64x16x32xf16, strides: [1048576, 512, 32, 1]>, none) -> (memref<1x64x16x32xf16, strides: [512, 512, 32, 1]>, none)
CHECK:          %R4, %B83C0 = "conv.normal"(%R2, %R1, %C0, %C0.0, %D118C0) {kernel = [1, 1], stride = [1, 1], in_zero = [0, 0], ke_zero = [0, 0], opt_kernel_rotate = False, pad_mode = 0, pad = [0, 0, 0, 0], opt_res_add = False, do_relu = False, sym_range = False, do_rq = False, round_mode = 0}: (memref<1x512x7x7xf16, strides: [512, 64, 7, 1]>, memref<64x512x1x1xf16>, ui32, f16, none) -> (memref<1x64x7x7xf16, strides: [64, 64, 7, 1]>, none)
CHECK:          %L30.0x6980000000, %D119C0 = "dma.tensor"(%R3, %B82C0) : (memref<1x64x7x7xf16, strides: [64, 64, 7, 1]>, none) -> (memref<1x64x7x7xf16, strides: [100352, 49, 7, 1]>, none)
CHECK:          %R0, %D120C0 = "dma.tensor"(%G1.0x1644000, %B82C0) : (memref<1x64x16x32xf16, strides: [1048576, 512, 32, 1]>, none) -> (memref<1x64x16x32xf16, strides: [512, 512, 32, 1]>, none)
CHECK:          %R3, %B84C0 = "conv.normal"(%R2, %R0, %C0, %C0.0, %D120C0) {kernel = [1, 1], stride = [1, 1], in_zero = [0, 0], ke_zero = [0, 0], opt_kernel_rotate = False, pad_mode = 0, pad = [0, 0, 0, 0], opt_res_add = False, do_relu = False, sym_range = False, do_rq = False, round_mode = 0}: (memref<1x512x7x7xf16, strides: [512, 64, 7, 1]>, memref<64x512x1x1xf16>, ui32, f16, none) -> (memref<1x64x7x7xf16, strides: [64, 64, 7, 1]>, none)
CHECK:          %L30.0x6980001880, %D121C0 = "dma.tensor"(%R4, %B83C0) : (memref<1x64x7x7xf16, strides: [64, 64, 7, 1]>, none) -> (memref<1x64x7x7xf16, strides: [100352, 49, 7, 1]>, none)
CHECK:          %R1, %D122C0 = "dma.tensor"(%G1.0x1654000, %B83C0) : (memref<1x64x16x32xf16, strides: [1048576, 512, 32, 1]>, none) -> (memref<1x64x16x32xf16, strides: [512, 512, 32, 1]>, none)
CHECK:          %R4, %B85C0 = "conv.normal"(%R2, %R1, %C0, %C0.0, %D122C0) {kernel = [1, 1], stride = [1, 1], in_zero = [0, 0], ke_zero = [0, 0], opt_kernel_rotate = False, pad_mode = 0, pad = [0, 0, 0, 0], opt_res_add = False, do_relu = False, sym_range = False, do_rq = False, round_mode = 0}: (memref<1x512x7x7xf16, strides: [512, 64, 7, 1]>, memref<64x512x1x1xf16>, ui32, f16, none) -> (memref<1x64x7x7xf16, strides: [64, 64, 7, 1]>, none)
CHECK:          %L30.0x6980003100, %D123C0 = "dma.tensor"(%R3, %B84C0) : (memref<1x64x7x7xf16, strides: [64, 64, 7, 1]>, none) -> (memref<1x64x7x7xf16, strides: [100352, 49, 7, 1]>, none)
CHECK:          %L30.0x6980004980, %D124C0 = "dma.tensor"(%R4, %B85C0) : (memref<1x64x7x7xf16, strides: [64, 64, 7, 1]>, none) -> (memref<1x64x7x7xf16, strides: [100352, 49, 7, 1]>, none)
CHECK:          %B86C0, %msg49 = "system.send_msg"(%D124C0) {msg_id = 49, cnt = 32, status = Status.PRODUCING}
CHECK:          %D125C0, %msg49 = "dma.sys.sys_send"(%B86C0) {msg_id = 49, cnt = 32, status = Status.PRODUCING}
CHECK:        }
CHECK:        %D18C1, %msg49 = "@core_1"(%D7C1, %msg48) {
CHECK:          %B7C1 = "system.wait_msg"(%D7C1, %msg48) {msg_id = 48, cnt = 32, status = Status.RECIEVING}
CHECK:          %D8C1 = "dma.sys.sys_wait"(%B7C1, %msg48) {msg_id = 48, cnt = 32, status = Status.CONSUMED}
CHECK:          %R2, %D9C1 = "dma.tensor"(%L30.0x698004a000, %B7C1) : (memref<1x512x7x7xf16, strides: [25088, 49, 7, 1]>, none) -> (memref<1x512x7x7xf16, strides: [512, 64, 7, 1]>, none)
CHECK:          %R0, %D10C1 = "dma.tensor"(%G1.0x1664000, %B7C1) : (memref<1x64x16x32xf16, strides: [1048576, 512, 32, 1]>, none) -> (memref<1x64x16x32xf16, strides: [512, 512, 32, 1]>, none)
CHECK:          %R3, %B8C1 = "conv.normal"(%R2, %R0, %C0, %C0.0, %D10C1) {kernel = [1, 1], stride = [1, 1], in_zero = [0, 0], ke_zero = [0, 0], opt_kernel_rotate = False, pad_mode = 0, pad = [0, 0, 0, 0], opt_res_add = False, do_relu = False, sym_range = False, do_rq = False, round_mode = 0}: (memref<1x512x7x7xf16, strides: [512, 64, 7, 1]>, memref<64x512x1x1xf16>, ui32, f16, none) -> (memref<1x64x7x7xf16, strides: [64, 64, 7, 1]>, none)
CHECK:          %R1, %D11C1 = "dma.tensor"(%G1.0x1674000, %B7C1) : (memref<1x64x16x32xf16, strides: [1048576, 512, 32, 1]>, none) -> (memref<1x64x16x32xf16, strides: [512, 512, 32, 1]>, none)
CHECK:          %R4, %B9C1 = "conv.normal"(%R2, %R1, %C0, %C0.0, %D11C1) {kernel = [1, 1], stride = [1, 1], in_zero = [0, 0], ke_zero = [0, 0], opt_kernel_rotate = False, pad_mode = 0, pad = [0, 0, 0, 0], opt_res_add = False, do_relu = False, sym_range = False, do_rq = False, round_mode = 0}: (memref<1x512x7x7xf16, strides: [512, 64, 7, 1]>, memref<64x512x1x1xf16>, ui32, f16, none) -> (memref<1x64x7x7xf16, strides: [64, 64, 7, 1]>, none)
CHECK:          %L30.0x6980006200, %D12C1 = "dma.tensor"(%R3, %B8C1) : (memref<1x64x7x7xf16, strides: [64, 64, 7, 1]>, none) -> (memref<1x64x7x7xf16, strides: [100352, 49, 7, 1]>, none)
CHECK:          %R0, %D13C1 = "dma.tensor"(%G1.0x1684000, %B8C1) : (memref<1x64x16x32xf16, strides: [1048576, 512, 32, 1]>, none) -> (memref<1x64x16x32xf16, strides: [512, 512, 32, 1]>, none)
CHECK:          %R3, %B10C1 = "conv.normal"(%R2, %R0, %C0, %C0.0, %D13C1) {kernel = [1, 1], stride = [1, 1], in_zero = [0, 0], ke_zero = [0, 0], opt_kernel_rotate = False, pad_mode = 0, pad = [0, 0, 0, 0], opt_res_add = False, do_relu = False, sym_range = False, do_rq = False, round_mode = 0}: (memref<1x512x7x7xf16, strides: [512, 64, 7, 1]>, memref<64x512x1x1xf16>, ui32, f16, none) -> (memref<1x64x7x7xf16, strides: [64, 64, 7, 1]>, none)
CHECK:          %L30.0x6980007a80, %D14C1 = "dma.tensor"(%R4, %B9C1) : (memref<1x64x7x7xf16, strides: [64, 64, 7, 1]>, none) -> (memref<1x64x7x7xf16, strides: [100352, 49, 7, 1]>, none)
CHECK:          %R1, %D15C1 = "dma.tensor"(%G1.0x1694000, %B9C1) : (memref<1x64x16x32xf16, strides: [1048576, 512, 32, 1]>, none) -> (memref<1x64x16x32xf16, strides: [512, 512, 32, 1]>, none)
CHECK:          %R4, %B11C1 = "conv.normal"(%R2, %R1, %C0, %C0.0, %D15C1) {kernel = [1, 1], stride = [1, 1], in_zero = [0, 0], ke_zero = [0, 0], opt_kernel_rotate = False, pad_mode = 0, pad = [0, 0, 0, 0], opt_res_add = False, do_relu = False, sym_range = False, do_rq = False, round_mode = 0}: (memref<1x512x7x7xf16, strides: [512, 64, 7, 1]>, memref<64x512x1x1xf16>, ui32, f16, none) -> (memref<1x64x7x7xf16, strides: [64, 64, 7, 1]>, none)
CHECK:          %L30.0x6980009300, %D16C1 = "dma.tensor"(%R3, %B10C1) : (memref<1x64x7x7xf16, strides: [64, 64, 7, 1]>, none) -> (memref<1x64x7x7xf16, strides: [100352, 49, 7, 1]>, none)
CHECK:          %L30.0x698000ab80, %D17C1 = "dma.tensor"(%R4, %B11C1) : (memref<1x64x7x7xf16, strides: [64, 64, 7, 1]>, none) -> (memref<1x64x7x7xf16, strides: [100352, 49, 7, 1]>, none)
CHECK:          %B12C1, %msg49 = "system.send_msg"(%D17C1) {msg_id = 49, cnt = 32, status = Status.PRODUCING}
CHECK:          %D18C1, %msg49 = "dma.sys.sys_send"(%B12C1) {msg_id = 49, cnt = 32, status = Status.PRODUCING}
CHECK:        }
CHECK:        %D18C2, %msg49 = "@core_2"(%D7C2, %msg48) {
CHECK:          %B7C2 = "system.wait_msg"(%D7C2, %msg48) {msg_id = 48, cnt = 32, status = Status.RECIEVING}
CHECK:          %D8C2 = "dma.sys.sys_wait"(%B7C2, %msg48) {msg_id = 48, cnt = 32, status = Status.CONSUMED}
CHECK:          %R2, %D9C2 = "dma.tensor"(%L30.0x698004a000, %B7C2) : (memref<1x512x7x7xf16, strides: [25088, 49, 7, 1]>, none) -> (memref<1x512x7x7xf16, strides: [512, 64, 7, 1]>, none)
CHECK:          %R0, %D10C2 = "dma.tensor"(%G1.0x16a4000, %B7C2) : (memref<1x64x16x32xf16, strides: [1048576, 512, 32, 1]>, none) -> (memref<1x64x16x32xf16, strides: [512, 512, 32, 1]>, none)
CHECK:          %R3, %B8C2 = "conv.normal"(%R2, %R0, %C0, %C0.0, %D10C2) {kernel = [1, 1], stride = [1, 1], in_zero = [0, 0], ke_zero = [0, 0], opt_kernel_rotate = False, pad_mode = 0, pad = [0, 0, 0, 0], opt_res_add = False, do_relu = False, sym_range = False, do_rq = False, round_mode = 0}: (memref<1x512x7x7xf16, strides: [512, 64, 7, 1]>, memref<64x512x1x1xf16>, ui32, f16, none) -> (memref<1x64x7x7xf16, strides: [64, 64, 7, 1]>, none)
CHECK:          %R1, %D11C2 = "dma.tensor"(%G1.0x16b4000, %B7C2) : (memref<1x64x16x32xf16, strides: [1048576, 512, 32, 1]>, none) -> (memref<1x64x16x32xf16, strides: [512, 512, 32, 1]>, none)
CHECK:          %R4, %B9C2 = "conv.normal"(%R2, %R1, %C0, %C0.0, %D11C2) {kernel = [1, 1], stride = [1, 1], in_zero = [0, 0], ke_zero = [0, 0], opt_kernel_rotate = False, pad_mode = 0, pad = [0, 0, 0, 0], opt_res_add = False, do_relu = False, sym_range = False, do_rq = False, round_mode = 0}: (memref<1x512x7x7xf16, strides: [512, 64, 7, 1]>, memref<64x512x1x1xf16>, ui32, f16, none) -> (memref<1x64x7x7xf16, strides: [64, 64, 7, 1]>, none)
CHECK:          %L30.0x698000c400, %D12C2 = "dma.tensor"(%R3, %B8C2) : (memref<1x64x7x7xf16, strides: [64, 64, 7, 1]>, none) -> (memref<1x64x7x7xf16, strides: [100352, 49, 7, 1]>, none)
CHECK:          %R0, %D13C2 = "dma.tensor"(%G1.0x16c4000, %B8C2) : (memref<1x64x16x32xf16, strides: [1048576, 512, 32, 1]>, none) -> (memref<1x64x16x32xf16, strides: [512, 512, 32, 1]>, none)
CHECK:          %R3, %B10C2 = "conv.normal"(%R2, %R0, %C0, %C0.0, %D13C2) {kernel = [1, 1], stride = [1, 1], in_zero = [0, 0], ke_zero = [0, 0], opt_kernel_rotate = False, pad_mode = 0, pad = [0, 0, 0, 0], opt_res_add = False, do_relu = False, sym_range = False, do_rq = False, round_mode = 0}: (memref<1x512x7x7xf16, strides: [512, 64, 7, 1]>, memref<64x512x1x1xf16>, ui32, f16, none) -> (memref<1x64x7x7xf16, strides: [64, 64, 7, 1]>, none)
CHECK:          %L30.0x698000dc80, %D14C2 = "dma.tensor"(%R4, %B9C2) : (memref<1x64x7x7xf16, strides: [64, 64, 7, 1]>, none) -> (memref<1x64x7x7xf16, strides: [100352, 49, 7, 1]>, none)
CHECK:          %R1, %D15C2 = "dma.tensor"(%G1.0x16d4000, %B9C2) : (memref<1x64x16x32xf16, strides: [1048576, 512, 32, 1]>, none) -> (memref<1x64x16x32xf16, strides: [512, 512, 32, 1]>, none)
CHECK:          %R4, %B11C2 = "conv.normal"(%R2, %R1, %C0, %C0.0, %D15C2) {kernel = [1, 1], stride = [1, 1], in_zero = [0, 0], ke_zero = [0, 0], opt_kernel_rotate = False, pad_mode = 0, pad = [0, 0, 0, 0], opt_res_add = False, do_relu = False, sym_range = False, do_rq = False, round_mode = 0}: (memref<1x512x7x7xf16, strides: [512, 64, 7, 1]>, memref<64x512x1x1xf16>, ui32, f16, none) -> (memref<1x64x7x7xf16, strides: [64, 64, 7, 1]>, none)
CHECK:          %L30.0x698000f500, %D16C2 = "dma.tensor"(%R3, %B10C2) : (memref<1x64x7x7xf16, strides: [64, 64, 7, 1]>, none) -> (memref<1x64x7x7xf16, strides: [100352, 49, 7, 1]>, none)
CHECK:          %L30.0x6980010d80, %D17C2 = "dma.tensor"(%R4, %B11C2) : (memref<1x64x7x7xf16, strides: [64, 64, 7, 1]>, none) -> (memref<1x64x7x7xf16, strides: [100352, 49, 7, 1]>, none)
CHECK:          %B12C2, %msg49 = "system.send_msg"(%D17C2) {msg_id = 49, cnt = 32, status = Status.PRODUCING}
CHECK:          %D18C2, %msg49 = "dma.sys.sys_send"(%B12C2) {msg_id = 49, cnt = 32, status = Status.PRODUCING}
CHECK:        }
CHECK:        %D18C3, %msg49 = "@core_3"(%D7C3, %msg48) {
CHECK:          %B7C3 = "system.wait_msg"(%D7C3, %msg48) {msg_id = 48, cnt = 32, status = Status.RECIEVING}
CHECK:          %D8C3 = "dma.sys.sys_wait"(%B7C3, %msg48) {msg_id = 48, cnt = 32, status = Status.CONSUMED}
CHECK:          %R2, %D9C3 = "dma.tensor"(%L30.0x698004a000, %B7C3) : (memref<1x512x7x7xf16, strides: [25088, 49, 7, 1]>, none) -> (memref<1x512x7x7xf16, strides: [512, 64, 7, 1]>, none)
CHECK:          %R0, %D10C3 = "dma.tensor"(%G1.0x16e4000, %B7C3) : (memref<1x64x16x32xf16, strides: [1048576, 512, 32, 1]>, none) -> (memref<1x64x16x32xf16, strides: [512, 512, 32, 1]>, none)
CHECK:          %R3, %B8C3 = "conv.normal"(%R2, %R0, %C0, %C0.0, %D10C3) {kernel = [1, 1], stride = [1, 1], in_zero = [0, 0], ke_zero = [0, 0], opt_kernel_rotate = False, pad_mode = 0, pad = [0, 0, 0, 0], opt_res_add = False, do_relu = False, sym_range = False, do_rq = False, round_mode = 0}: (memref<1x512x7x7xf16, strides: [512, 64, 7, 1]>, memref<64x512x1x1xf16>, ui32, f16, none) -> (memref<1x64x7x7xf16, strides: [64, 64, 7, 1]>, none)
CHECK:          %R1, %D11C3 = "dma.tensor"(%G1.0x16f4000, %B7C3) : (memref<1x64x16x32xf16, strides: [1048576, 512, 32, 1]>, none) -> (memref<1x64x16x32xf16, strides: [512, 512, 32, 1]>, none)
CHECK:          %R4, %B9C3 = "conv.normal"(%R2, %R1, %C0, %C0.0, %D11C3) {kernel = [1, 1], stride = [1, 1], in_zero = [0, 0], ke_zero = [0, 0], opt_kernel_rotate = False, pad_mode = 0, pad = [0, 0, 0, 0], opt_res_add = False, do_relu = False, sym_range = False, do_rq = False, round_mode = 0}: (memref<1x512x7x7xf16, strides: [512, 64, 7, 1]>, memref<64x512x1x1xf16>, ui32, f16, none) -> (memref<1x64x7x7xf16, strides: [64, 64, 7, 1]>, none)
CHECK:          %L30.0x6980012600, %D12C3 = "dma.tensor"(%R3, %B8C3) : (memref<1x64x7x7xf16, strides: [64, 64, 7, 1]>, none) -> (memref<1x64x7x7xf16, strides: [100352, 49, 7, 1]>, none)
CHECK:          %R0, %D13C3 = "dma.tensor"(%G1.0x1704000, %B8C3) : (memref<1x64x16x32xf16, strides: [1048576, 512, 32, 1]>, none) -> (memref<1x64x16x32xf16, strides: [512, 512, 32, 1]>, none)
CHECK:          %R3, %B10C3 = "conv.normal"(%R2, %R0, %C0, %C0.0, %D13C3) {kernel = [1, 1], stride = [1, 1], in_zero = [0, 0], ke_zero = [0, 0], opt_kernel_rotate = False, pad_mode = 0, pad = [0, 0, 0, 0], opt_res_add = False, do_relu = False, sym_range = False, do_rq = False, round_mode = 0}: (memref<1x512x7x7xf16, strides: [512, 64, 7, 1]>, memref<64x512x1x1xf16>, ui32, f16, none) -> (memref<1x64x7x7xf16, strides: [64, 64, 7, 1]>, none)
CHECK:          %L30.0x6980013e80, %D14C3 = "dma.tensor"(%R4, %B9C3) : (memref<1x64x7x7xf16, strides: [64, 64, 7, 1]>, none) -> (memref<1x64x7x7xf16, strides: [100352, 49, 7, 1]>, none)
CHECK:          %R1, %D15C3 = "dma.tensor"(%G1.0x1714000, %B9C3) : (memref<1x64x16x32xf16, strides: [1048576, 512, 32, 1]>, none) -> (memref<1x64x16x32xf16, strides: [512, 512, 32, 1]>, none)
CHECK:          %R4, %B11C3 = "conv.normal"(%R2, %R1, %C0, %C0.0, %D15C3) {kernel = [1, 1], stride = [1, 1], in_zero = [0, 0], ke_zero = [0, 0], opt_kernel_rotate = False, pad_mode = 0, pad = [0, 0, 0, 0], opt_res_add = False, do_relu = False, sym_range = False, do_rq = False, round_mode = 0}: (memref<1x512x7x7xf16, strides: [512, 64, 7, 1]>, memref<64x512x1x1xf16>, ui32, f16, none) -> (memref<1x64x7x7xf16, strides: [64, 64, 7, 1]>, none)
CHECK:          %L30.0x6980015700, %D16C3 = "dma.tensor"(%R3, %B10C3) : (memref<1x64x7x7xf16, strides: [64, 64, 7, 1]>, none) -> (memref<1x64x7x7xf16, strides: [100352, 49, 7, 1]>, none)
CHECK:          %L30.0x6980016f80, %D17C3 = "dma.tensor"(%R4, %B11C3) : (memref<1x64x7x7xf16, strides: [64, 64, 7, 1]>, none) -> (memref<1x64x7x7xf16, strides: [100352, 49, 7, 1]>, none)
CHECK:          %B12C3, %msg49 = "system.send_msg"(%D17C3) {msg_id = 49, cnt = 32, status = Status.PRODUCING}
CHECK:          %D18C3, %msg49 = "dma.sys.sys_send"(%B12C3) {msg_id = 49, cnt = 32, status = Status.PRODUCING}
CHECK:        }
CHECK:        %D18C4, %msg49 = "@core_4"(%D7C4, %msg48) {
CHECK:          %B7C4 = "system.wait_msg"(%D7C4, %msg48) {msg_id = 48, cnt = 32, status = Status.RECIEVING}
CHECK:          %D8C4 = "dma.sys.sys_wait"(%B7C4, %msg48) {msg_id = 48, cnt = 32, status = Status.CONSUMED}
CHECK:          %R2, %D9C4 = "dma.tensor"(%L30.0x698004a000, %B7C4) : (memref<1x512x7x7xf16, strides: [25088, 49, 7, 1]>, none) -> (memref<1x512x7x7xf16, strides: [512, 64, 7, 1]>, none)
CHECK:          %R0, %D10C4 = "dma.tensor"(%G1.0x1724000, %B7C4) : (memref<1x64x16x32xf16, strides: [1048576, 512, 32, 1]>, none) -> (memref<1x64x16x32xf16, strides: [512, 512, 32, 1]>, none)
CHECK:          %R3, %B8C4 = "conv.normal"(%R2, %R0, %C0, %C0.0, %D10C4) {kernel = [1, 1], stride = [1, 1], in_zero = [0, 0], ke_zero = [0, 0], opt_kernel_rotate = False, pad_mode = 0, pad = [0, 0, 0, 0], opt_res_add = False, do_relu = False, sym_range = False, do_rq = False, round_mode = 0}: (memref<1x512x7x7xf16, strides: [512, 64, 7, 1]>, memref<64x512x1x1xf16>, ui32, f16, none) -> (memref<1x64x7x7xf16, strides: [64, 64, 7, 1]>, none)
CHECK:          %R1, %D11C4 = "dma.tensor"(%G1.0x1734000, %B7C4) : (memref<1x64x16x32xf16, strides: [1048576, 512, 32, 1]>, none) -> (memref<1x64x16x32xf16, strides: [512, 512, 32, 1]>, none)
CHECK:          %R4, %B9C4 = "conv.normal"(%R2, %R1, %C0, %C0.0, %D11C4) {kernel = [1, 1], stride = [1, 1], in_zero = [0, 0], ke_zero = [0, 0], opt_kernel_rotate = False, pad_mode = 0, pad = [0, 0, 0, 0], opt_res_add = False, do_relu = False, sym_range = False, do_rq = False, round_mode = 0}: (memref<1x512x7x7xf16, strides: [512, 64, 7, 1]>, memref<64x512x1x1xf16>, ui32, f16, none) -> (memref<1x64x7x7xf16, strides: [64, 64, 7, 1]>, none)
CHECK:          %L30.0x6980018800, %D12C4 = "dma.tensor"(%R3, %B8C4) : (memref<1x64x7x7xf16, strides: [64, 64, 7, 1]>, none) -> (memref<1x64x7x7xf16, strides: [100352, 49, 7, 1]>, none)
CHECK:          %R0, %D13C4 = "dma.tensor"(%G1.0x1744000, %B8C4) : (memref<1x64x16x32xf16, strides: [1048576, 512, 32, 1]>, none) -> (memref<1x64x16x32xf16, strides: [512, 512, 32, 1]>, none)
CHECK:          %R3, %B10C4 = "conv.normal"(%R2, %R0, %C0, %C0.0, %D13C4) {kernel = [1, 1], stride = [1, 1], in_zero = [0, 0], ke_zero = [0, 0], opt_kernel_rotate = False, pad_mode = 0, pad = [0, 0, 0, 0], opt_res_add = False, do_relu = False, sym_range = False, do_rq = False, round_mode = 0}: (memref<1x512x7x7xf16, strides: [512, 64, 7, 1]>, memref<64x512x1x1xf16>, ui32, f16, none) -> (memref<1x64x7x7xf16, strides: [64, 64, 7, 1]>, none)
CHECK:          %L30.0x698001a080, %D14C4 = "dma.tensor"(%R4, %B9C4) : (memref<1x64x7x7xf16, strides: [64, 64, 7, 1]>, none) -> (memref<1x64x7x7xf16, strides: [100352, 49, 7, 1]>, none)
CHECK:          %R1, %D15C4 = "dma.tensor"(%G1.0x1754000, %B9C4) : (memref<1x64x16x32xf16, strides: [1048576, 512, 32, 1]>, none) -> (memref<1x64x16x32xf16, strides: [512, 512, 32, 1]>, none)
CHECK:          %R4, %B11C4 = "conv.normal"(%R2, %R1, %C0, %C0.0, %D15C4) {kernel = [1, 1], stride = [1, 1], in_zero = [0, 0], ke_zero = [0, 0], opt_kernel_rotate = False, pad_mode = 0, pad = [0, 0, 0, 0], opt_res_add = False, do_relu = False, sym_range = False, do_rq = False, round_mode = 0}: (memref<1x512x7x7xf16, strides: [512, 64, 7, 1]>, memref<64x512x1x1xf16>, ui32, f16, none) -> (memref<1x64x7x7xf16, strides: [64, 64, 7, 1]>, none)
CHECK:          %L30.0x698001b900, %D16C4 = "dma.tensor"(%R3, %B10C4) : (memref<1x64x7x7xf16, strides: [64, 64, 7, 1]>, none) -> (memref<1x64x7x7xf16, strides: [100352, 49, 7, 1]>, none)
CHECK:          %L30.0x698001d180, %D17C4 = "dma.tensor"(%R4, %B11C4) : (memref<1x64x7x7xf16, strides: [64, 64, 7, 1]>, none) -> (memref<1x64x7x7xf16, strides: [100352, 49, 7, 1]>, none)
CHECK:          %B12C4, %msg49 = "system.send_msg"(%D17C4) {msg_id = 49, cnt = 32, status = Status.PRODUCING}
CHECK:          %D18C4, %msg49 = "dma.sys.sys_send"(%B12C4) {msg_id = 49, cnt = 32, status = Status.PRODUCING}
CHECK:        }
CHECK:        %D18C5, %msg49 = "@core_5"(%D7C5, %msg48) {
CHECK:          %B7C5 = "system.wait_msg"(%D7C5, %msg48) {msg_id = 48, cnt = 32, status = Status.RECIEVING}
CHECK:          %D8C5 = "dma.sys.sys_wait"(%B7C5, %msg48) {msg_id = 48, cnt = 32, status = Status.CONSUMED}
CHECK:          %R2, %D9C5 = "dma.tensor"(%L30.0x698004a000, %B7C5) : (memref<1x512x7x7xf16, strides: [25088, 49, 7, 1]>, none) -> (memref<1x512x7x7xf16, strides: [512, 64, 7, 1]>, none)
CHECK:          %R0, %D10C5 = "dma.tensor"(%G1.0x1764000, %B7C5) : (memref<1x64x16x32xf16, strides: [1048576, 512, 32, 1]>, none) -> (memref<1x64x16x32xf16, strides: [512, 512, 32, 1]>, none)
CHECK:          %R3, %B8C5 = "conv.normal"(%R2, %R0, %C0, %C0.0, %D10C5) {kernel = [1, 1], stride = [1, 1], in_zero = [0, 0], ke_zero = [0, 0], opt_kernel_rotate = False, pad_mode = 0, pad = [0, 0, 0, 0], opt_res_add = False, do_relu = False, sym_range = False, do_rq = False, round_mode = 0}: (memref<1x512x7x7xf16, strides: [512, 64, 7, 1]>, memref<64x512x1x1xf16>, ui32, f16, none) -> (memref<1x64x7x7xf16, strides: [64, 64, 7, 1]>, none)
CHECK:          %R1, %D11C5 = "dma.tensor"(%G1.0x1774000, %B7C5) : (memref<1x64x16x32xf16, strides: [1048576, 512, 32, 1]>, none) -> (memref<1x64x16x32xf16, strides: [512, 512, 32, 1]>, none)
CHECK:          %R4, %B9C5 = "conv.normal"(%R2, %R1, %C0, %C0.0, %D11C5) {kernel = [1, 1], stride = [1, 1], in_zero = [0, 0], ke_zero = [0, 0], opt_kernel_rotate = False, pad_mode = 0, pad = [0, 0, 0, 0], opt_res_add = False, do_relu = False, sym_range = False, do_rq = False, round_mode = 0}: (memref<1x512x7x7xf16, strides: [512, 64, 7, 1]>, memref<64x512x1x1xf16>, ui32, f16, none) -> (memref<1x64x7x7xf16, strides: [64, 64, 7, 1]>, none)
CHECK:          %L30.0x698001ea00, %D12C5 = "dma.tensor"(%R3, %B8C5) : (memref<1x64x7x7xf16, strides: [64, 64, 7, 1]>, none) -> (memref<1x64x7x7xf16, strides: [100352, 49, 7, 1]>, none)
CHECK:          %R0, %D13C5 = "dma.tensor"(%G1.0x1784000, %B8C5) : (memref<1x64x16x32xf16, strides: [1048576, 512, 32, 1]>, none) -> (memref<1x64x16x32xf16, strides: [512, 512, 32, 1]>, none)
CHECK:          %R3, %B10C5 = "conv.normal"(%R2, %R0, %C0, %C0.0, %D13C5) {kernel = [1, 1], stride = [1, 1], in_zero = [0, 0], ke_zero = [0, 0], opt_kernel_rotate = False, pad_mode = 0, pad = [0, 0, 0, 0], opt_res_add = False, do_relu = False, sym_range = False, do_rq = False, round_mode = 0}: (memref<1x512x7x7xf16, strides: [512, 64, 7, 1]>, memref<64x512x1x1xf16>, ui32, f16, none) -> (memref<1x64x7x7xf16, strides: [64, 64, 7, 1]>, none)
CHECK:          %L30.0x6980020280, %D14C5 = "dma.tensor"(%R4, %B9C5) : (memref<1x64x7x7xf16, strides: [64, 64, 7, 1]>, none) -> (memref<1x64x7x7xf16, strides: [100352, 49, 7, 1]>, none)
CHECK:          %R1, %D15C5 = "dma.tensor"(%G1.0x1794000, %B9C5) : (memref<1x64x16x32xf16, strides: [1048576, 512, 32, 1]>, none) -> (memref<1x64x16x32xf16, strides: [512, 512, 32, 1]>, none)
CHECK:          %R4, %B11C5 = "conv.normal"(%R2, %R1, %C0, %C0.0, %D15C5) {kernel = [1, 1], stride = [1, 1], in_zero = [0, 0], ke_zero = [0, 0], opt_kernel_rotate = False, pad_mode = 0, pad = [0, 0, 0, 0], opt_res_add = False, do_relu = False, sym_range = False, do_rq = False, round_mode = 0}: (memref<1x512x7x7xf16, strides: [512, 64, 7, 1]>, memref<64x512x1x1xf16>, ui32, f16, none) -> (memref<1x64x7x7xf16, strides: [64, 64, 7, 1]>, none)
CHECK:          %L30.0x6980021b00, %D16C5 = "dma.tensor"(%R3, %B10C5) : (memref<1x64x7x7xf16, strides: [64, 64, 7, 1]>, none) -> (memref<1x64x7x7xf16, strides: [100352, 49, 7, 1]>, none)
CHECK:          %L30.0x6980023380, %D17C5 = "dma.tensor"(%R4, %B11C5) : (memref<1x64x7x7xf16, strides: [64, 64, 7, 1]>, none) -> (memref<1x64x7x7xf16, strides: [100352, 49, 7, 1]>, none)
CHECK:          %B12C5, %msg49 = "system.send_msg"(%D17C5) {msg_id = 49, cnt = 32, status = Status.PRODUCING}
CHECK:          %D18C5, %msg49 = "dma.sys.sys_send"(%B12C5) {msg_id = 49, cnt = 32, status = Status.PRODUCING}
CHECK:        }
CHECK:        %D16C6, %msg49 = "@core_6"(%D5C6, %msg48) {
CHECK:          %B6C6 = "system.wait_msg"(%D5C6, %msg48) {msg_id = 48, cnt = 32, status = Status.RECIEVING}
CHECK:          %D6C6 = "dma.sys.sys_wait"(%B6C6, %msg48) {msg_id = 48, cnt = 32, status = Status.CONSUMED}
CHECK:          %R2, %D7C6 = "dma.tensor"(%L30.0x698004a000, %B6C6) : (memref<1x512x7x7xf16, strides: [25088, 49, 7, 1]>, none) -> (memref<1x512x7x7xf16, strides: [512, 64, 7, 1]>, none)
CHECK:          %R0, %D8C6 = "dma.tensor"(%G1.0x17a4000, %B6C6) : (memref<1x64x16x32xf16, strides: [1048576, 512, 32, 1]>, none) -> (memref<1x64x16x32xf16, strides: [512, 512, 32, 1]>, none)
CHECK:          %R3, %B7C6 = "conv.normal"(%R2, %R0, %C0, %C0.0, %D8C6) {kernel = [1, 1], stride = [1, 1], in_zero = [0, 0], ke_zero = [0, 0], opt_kernel_rotate = False, pad_mode = 0, pad = [0, 0, 0, 0], opt_res_add = False, do_relu = False, sym_range = False, do_rq = False, round_mode = 0}: (memref<1x512x7x7xf16, strides: [512, 64, 7, 1]>, memref<64x512x1x1xf16>, ui32, f16, none) -> (memref<1x64x7x7xf16, strides: [64, 64, 7, 1]>, none)
CHECK:          %R1, %D9C6 = "dma.tensor"(%G1.0x17b4000, %B6C6) : (memref<1x64x16x32xf16, strides: [1048576, 512, 32, 1]>, none) -> (memref<1x64x16x32xf16, strides: [512, 512, 32, 1]>, none)
CHECK:          %R4, %B8C6 = "conv.normal"(%R2, %R1, %C0, %C0.0, %D9C6) {kernel = [1, 1], stride = [1, 1], in_zero = [0, 0], ke_zero = [0, 0], opt_kernel_rotate = False, pad_mode = 0, pad = [0, 0, 0, 0], opt_res_add = False, do_relu = False, sym_range = False, do_rq = False, round_mode = 0}: (memref<1x512x7x7xf16, strides: [512, 64, 7, 1]>, memref<64x512x1x1xf16>, ui32, f16, none) -> (memref<1x64x7x7xf16, strides: [64, 64, 7, 1]>, none)
CHECK:          %L30.0x6980024c00, %D10C6 = "dma.tensor"(%R3, %B7C6) : (memref<1x64x7x7xf16, strides: [64, 64, 7, 1]>, none) -> (memref<1x64x7x7xf16, strides: [100352, 49, 7, 1]>, none)
CHECK:          %R0, %D11C6 = "dma.tensor"(%G1.0x17c4000, %B7C6) : (memref<1x64x16x32xf16, strides: [1048576, 512, 32, 1]>, none) -> (memref<1x64x16x32xf16, strides: [512, 512, 32, 1]>, none)
CHECK:          %R3, %B9C6 = "conv.normal"(%R2, %R0, %C0, %C0.0, %D11C6) {kernel = [1, 1], stride = [1, 1], in_zero = [0, 0], ke_zero = [0, 0], opt_kernel_rotate = False, pad_mode = 0, pad = [0, 0, 0, 0], opt_res_add = False, do_relu = False, sym_range = False, do_rq = False, round_mode = 0}: (memref<1x512x7x7xf16, strides: [512, 64, 7, 1]>, memref<64x512x1x1xf16>, ui32, f16, none) -> (memref<1x64x7x7xf16, strides: [64, 64, 7, 1]>, none)
CHECK:          %L30.0x6980026480, %D12C6 = "dma.tensor"(%R4, %B8C6) : (memref<1x64x7x7xf16, strides: [64, 64, 7, 1]>, none) -> (memref<1x64x7x7xf16, strides: [100352, 49, 7, 1]>, none)
CHECK:          %R1, %D13C6 = "dma.tensor"(%G1.0x17d4000, %B8C6) : (memref<1x64x16x32xf16, strides: [1048576, 512, 32, 1]>, none) -> (memref<1x64x16x32xf16, strides: [512, 512, 32, 1]>, none)
CHECK:          %R4, %B10C6 = "conv.normal"(%R2, %R1, %C0, %C0.0, %D13C6) {kernel = [1, 1], stride = [1, 1], in_zero = [0, 0], ke_zero = [0, 0], opt_kernel_rotate = False, pad_mode = 0, pad = [0, 0, 0, 0], opt_res_add = False, do_relu = False, sym_range = False, do_rq = False, round_mode = 0}: (memref<1x512x7x7xf16, strides: [512, 64, 7, 1]>, memref<64x512x1x1xf16>, ui32, f16, none) -> (memref<1x64x7x7xf16, strides: [64, 64, 7, 1]>, none)
CHECK:          %L30.0x6980027d00, %D14C6 = "dma.tensor"(%R3, %B9C6) : (memref<1x64x7x7xf16, strides: [64, 64, 7, 1]>, none) -> (memref<1x64x7x7xf16, strides: [100352, 49, 7, 1]>, none)
CHECK:          %L30.0x6980029580, %D15C6 = "dma.tensor"(%R4, %B10C6) : (memref<1x64x7x7xf16, strides: [64, 64, 7, 1]>, none) -> (memref<1x64x7x7xf16, strides: [100352, 49, 7, 1]>, none)
CHECK:          %B11C6, %msg49 = "system.send_msg"(%D15C6) {msg_id = 49, cnt = 32, status = Status.PRODUCING}
CHECK:          %D16C6, %msg49 = "dma.sys.sys_send"(%B11C6) {msg_id = 49, cnt = 32, status = Status.PRODUCING}
CHECK:        }
CHECK:        %D16C7, %msg49 = "@core_7"(%D5C7, %msg48) {
CHECK:          %B6C7 = "system.wait_msg"(%D5C7, %msg48) {msg_id = 48, cnt = 32, status = Status.RECIEVING}
CHECK:          %D6C7 = "dma.sys.sys_wait"(%B6C7, %msg48) {msg_id = 48, cnt = 32, status = Status.CONSUMED}
CHECK:          %R2, %D7C7 = "dma.tensor"(%L30.0x698004a000, %B6C7) : (memref<1x512x7x7xf16, strides: [25088, 49, 7, 1]>, none) -> (memref<1x512x7x7xf16, strides: [512, 64, 7, 1]>, none)
CHECK:          %R0, %D8C7 = "dma.tensor"(%G1.0x17e4000, %B6C7) : (memref<1x64x16x32xf16, strides: [1048576, 512, 32, 1]>, none) -> (memref<1x64x16x32xf16, strides: [512, 512, 32, 1]>, none)
CHECK:          %R3, %B7C7 = "conv.normal"(%R2, %R0, %C0, %C0.0, %D8C7) {kernel = [1, 1], stride = [1, 1], in_zero = [0, 0], ke_zero = [0, 0], opt_kernel_rotate = False, pad_mode = 0, pad = [0, 0, 0, 0], opt_res_add = False, do_relu = False, sym_range = False, do_rq = False, round_mode = 0}: (memref<1x512x7x7xf16, strides: [512, 64, 7, 1]>, memref<64x512x1x1xf16>, ui32, f16, none) -> (memref<1x64x7x7xf16, strides: [64, 64, 7, 1]>, none)
CHECK:          %R1, %D9C7 = "dma.tensor"(%G1.0x17f4000, %B6C7) : (memref<1x64x16x32xf16, strides: [1048576, 512, 32, 1]>, none) -> (memref<1x64x16x32xf16, strides: [512, 512, 32, 1]>, none)
CHECK:          %R4, %B8C7 = "conv.normal"(%R2, %R1, %C0, %C0.0, %D9C7) {kernel = [1, 1], stride = [1, 1], in_zero = [0, 0], ke_zero = [0, 0], opt_kernel_rotate = False, pad_mode = 0, pad = [0, 0, 0, 0], opt_res_add = False, do_relu = False, sym_range = False, do_rq = False, round_mode = 0}: (memref<1x512x7x7xf16, strides: [512, 64, 7, 1]>, memref<64x512x1x1xf16>, ui32, f16, none) -> (memref<1x64x7x7xf16, strides: [64, 64, 7, 1]>, none)
CHECK:          %L30.0x698002ae00, %D10C7 = "dma.tensor"(%R3, %B7C7) : (memref<1x64x7x7xf16, strides: [64, 64, 7, 1]>, none) -> (memref<1x64x7x7xf16, strides: [100352, 49, 7, 1]>, none)
CHECK:          %R0, %D11C7 = "dma.tensor"(%G1.0x1804000, %B7C7) : (memref<1x64x16x32xf16, strides: [1048576, 512, 32, 1]>, none) -> (memref<1x64x16x32xf16, strides: [512, 512, 32, 1]>, none)
CHECK:          %R3, %B9C7 = "conv.normal"(%R2, %R0, %C0, %C0.0, %D11C7) {kernel = [1, 1], stride = [1, 1], in_zero = [0, 0], ke_zero = [0, 0], opt_kernel_rotate = False, pad_mode = 0, pad = [0, 0, 0, 0], opt_res_add = False, do_relu = False, sym_range = False, do_rq = False, round_mode = 0}: (memref<1x512x7x7xf16, strides: [512, 64, 7, 1]>, memref<64x512x1x1xf16>, ui32, f16, none) -> (memref<1x64x7x7xf16, strides: [64, 64, 7, 1]>, none)
CHECK:          %L30.0x698002c680, %D12C7 = "dma.tensor"(%R4, %B8C7) : (memref<1x64x7x7xf16, strides: [64, 64, 7, 1]>, none) -> (memref<1x64x7x7xf16, strides: [100352, 49, 7, 1]>, none)
CHECK:          %R1, %D13C7 = "dma.tensor"(%G1.0x1814000, %B8C7) : (memref<1x64x16x32xf16, strides: [1048576, 512, 32, 1]>, none) -> (memref<1x64x16x32xf16, strides: [512, 512, 32, 1]>, none)
CHECK:          %R4, %B10C7 = "conv.normal"(%R2, %R1, %C0, %C0.0, %D13C7) {kernel = [1, 1], stride = [1, 1], in_zero = [0, 0], ke_zero = [0, 0], opt_kernel_rotate = False, pad_mode = 0, pad = [0, 0, 0, 0], opt_res_add = False, do_relu = False, sym_range = False, do_rq = False, round_mode = 0}: (memref<1x512x7x7xf16, strides: [512, 64, 7, 1]>, memref<64x512x1x1xf16>, ui32, f16, none) -> (memref<1x64x7x7xf16, strides: [64, 64, 7, 1]>, none)
CHECK:          %L30.0x698002df00, %D14C7 = "dma.tensor"(%R3, %B9C7) : (memref<1x64x7x7xf16, strides: [64, 64, 7, 1]>, none) -> (memref<1x64x7x7xf16, strides: [100352, 49, 7, 1]>, none)
CHECK:          %L30.0x698002f780, %D15C7 = "dma.tensor"(%R4, %B10C7) : (memref<1x64x7x7xf16, strides: [64, 64, 7, 1]>, none) -> (memref<1x64x7x7xf16, strides: [100352, 49, 7, 1]>, none)
CHECK:          %B11C7, %msg49 = "system.send_msg"(%D15C7) {msg_id = 49, cnt = 32, status = Status.PRODUCING}
CHECK:          %D16C7, %msg49 = "dma.sys.sys_send"(%B11C7) {msg_id = 49, cnt = 32, status = Status.PRODUCING}
CHECK:        }
CHECK:        %D127C0, %msg48 = "@core_0"(%D125C0, %msg49) {
CHECK:          %B87C0 = "system.wait_msg"(%D125C0, %msg49) {msg_id = 49, cnt = 32, status = Status.RECIEVING}
CHECK:          %D126C0 = "dma.sys.sys_wait"(%B87C0, %msg49) {msg_id = 49, cnt = 32, status = Status.CONSUMED}
CHECK:          %B88C0, %msg48 = "system.send_msg"(%D126C0) {msg_id = 48, cnt = 32, status = Status.PRODUCING}
CHECK:          %D127C0, %msg48 = "dma.sys.sys_send"(%B88C0) {msg_id = 48, cnt = 32, status = Status.PRODUCING}
CHECK:        }
CHECK:        %D20C1, %msg48 = "@core_1"(%D18C1, %msg49) {
CHECK:          %B13C1 = "system.wait_msg"(%D18C1, %msg49) {msg_id = 49, cnt = 32, status = Status.RECIEVING}
CHECK:          %D19C1 = "dma.sys.sys_wait"(%B13C1, %msg49) {msg_id = 49, cnt = 32, status = Status.CONSUMED}
CHECK:          %B14C1, %msg48 = "system.send_msg"(%D19C1) {msg_id = 48, cnt = 32, status = Status.PRODUCING}
CHECK:          %D20C1, %msg48 = "dma.sys.sys_send"(%B14C1) {msg_id = 48, cnt = 32, status = Status.PRODUCING}
CHECK:        }
CHECK:        %D20C2, %msg48 = "@core_2"(%D18C2, %msg49) {
CHECK:          %B13C2 = "system.wait_msg"(%D18C2, %msg49) {msg_id = 49, cnt = 32, status = Status.RECIEVING}
CHECK:          %D19C2 = "dma.sys.sys_wait"(%B13C2, %msg49) {msg_id = 49, cnt = 32, status = Status.CONSUMED}
CHECK:          %B14C2, %msg48 = "system.send_msg"(%D19C2) {msg_id = 48, cnt = 32, status = Status.PRODUCING}
CHECK:          %D20C2, %msg48 = "dma.sys.sys_send"(%B14C2) {msg_id = 48, cnt = 32, status = Status.PRODUCING}
CHECK:        }
CHECK:        %D20C3, %msg48 = "@core_3"(%D18C3, %msg49) {
CHECK:          %B13C3 = "system.wait_msg"(%D18C3, %msg49) {msg_id = 49, cnt = 32, status = Status.RECIEVING}
CHECK:          %D19C3 = "dma.sys.sys_wait"(%B13C3, %msg49) {msg_id = 49, cnt = 32, status = Status.CONSUMED}
CHECK:          %B14C3, %msg48 = "system.send_msg"(%D19C3) {msg_id = 48, cnt = 32, status = Status.PRODUCING}
CHECK:          %D20C3, %msg48 = "dma.sys.sys_send"(%B14C3) {msg_id = 48, cnt = 32, status = Status.PRODUCING}
CHECK:        }
CHECK:        %D20C4, %msg48 = "@core_4"(%D18C4, %msg49) {
CHECK:          %B13C4 = "system.wait_msg"(%D18C4, %msg49) {msg_id = 49, cnt = 32, status = Status.RECIEVING}
CHECK:          %D19C4 = "dma.sys.sys_wait"(%B13C4, %msg49) {msg_id = 49, cnt = 32, status = Status.CONSUMED}
CHECK:          %B14C4, %msg48 = "system.send_msg"(%D19C4) {msg_id = 48, cnt = 32, status = Status.PRODUCING}
CHECK:          %D20C4, %msg48 = "dma.sys.sys_send"(%B14C4) {msg_id = 48, cnt = 32, status = Status.PRODUCING}
CHECK:        }
CHECK:        %D20C5, %msg48 = "@core_5"(%D18C5, %msg49) {
CHECK:          %B13C5 = "system.wait_msg"(%D18C5, %msg49) {msg_id = 49, cnt = 32, status = Status.RECIEVING}
CHECK:          %D19C5 = "dma.sys.sys_wait"(%B13C5, %msg49) {msg_id = 49, cnt = 32, status = Status.CONSUMED}
CHECK:          %B14C5, %msg48 = "system.send_msg"(%D19C5) {msg_id = 48, cnt = 32, status = Status.PRODUCING}
CHECK:          %D20C5, %msg48 = "dma.sys.sys_send"(%B14C5) {msg_id = 48, cnt = 32, status = Status.PRODUCING}
CHECK:        }
CHECK:        %D18C6, %msg48 = "@core_6"(%D16C6, %msg49) {
CHECK:          %B12C6 = "system.wait_msg"(%D16C6, %msg49) {msg_id = 49, cnt = 32, status = Status.RECIEVING}
CHECK:          %D17C6 = "dma.sys.sys_wait"(%B12C6, %msg49) {msg_id = 49, cnt = 32, status = Status.CONSUMED}
CHECK:          %B13C6, %msg48 = "system.send_msg"(%D17C6) {msg_id = 48, cnt = 32, status = Status.PRODUCING}
CHECK:          %D18C6, %msg48 = "dma.sys.sys_send"(%B13C6) {msg_id = 48, cnt = 32, status = Status.PRODUCING}
CHECK:        }
CHECK:        %D18C7, %msg48 = "@core_7"(%D16C7, %msg49) {
CHECK:          %B12C7 = "system.wait_msg"(%D16C7, %msg49) {msg_id = 49, cnt = 32, status = Status.RECIEVING}
CHECK:          %D17C7 = "dma.sys.sys_wait"(%B12C7, %msg49) {msg_id = 49, cnt = 32, status = Status.CONSUMED}
CHECK:          %B13C7, %msg48 = "system.send_msg"(%D17C7) {msg_id = 48, cnt = 32, status = Status.PRODUCING}
CHECK:          %D18C7, %msg48 = "dma.sys.sys_send"(%B13C7) {msg_id = 48, cnt = 32, status = Status.PRODUCING}
CHECK:        }
CHECK:        %D138C0, %msg49 = "@core_0"(%D127C0, %msg48) {
CHECK:          %B89C0 = "system.wait_msg"(%D127C0, %msg48) {msg_id = 48, cnt = 32, status = Status.RECIEVING}
CHECK:          %D128C0 = "dma.sys.sys_wait"(%B89C0, %msg48) {msg_id = 48, cnt = 32, status = Status.CONSUMED}
CHECK:          %R2, %D129C0 = "dma.tensor"(%L30.0x6980062000, %B89C0) : (memref<1x1024x13x13xf16, strides: [200704, 196, 14, 1]>, none) -> (memref<1x1024x13x13xf16, strides: [3072, 192, 13, 1]>, none)
CHECK:          %R0, %D130C0 = "dma.tensor"(%G1.0x1824000, %B89C0) : (memref<1x64x32x32xf16, strides: [2097152, 1024, 32, 1]>, none) -> (memref<1x64x32x32xf16, strides: [1024, 1024, 32, 1]>, none)
CHECK:          %R3, %B90C0 = "conv.normal"(%R2, %R0, %C0, %C0.0, %D130C0) {kernel = [1, 1], stride = [2, 2], in_zero = [0, 0], ke_zero = [0, 0], opt_kernel_rotate = False, pad_mode = 0, pad = [0, 0, 0, 0], opt_res_add = False, do_relu = False, sym_range = False, do_rq = False, round_mode = 0}: (memref<1x1024x13x13xf16, strides: [3072, 192, 13, 1]>, memref<64x1024x1x1xf16>, ui32, f16, none) -> (memref<1x64x7x7xf16, strides: [64, 64, 7, 1]>, none)
CHECK:          %R1, %D131C0 = "dma.tensor"(%G1.0x1844000, %B89C0) : (memref<1x64x32x32xf16, strides: [2097152, 1024, 32, 1]>, none) -> (memref<1x64x32x32xf16, strides: [1024, 1024, 32, 1]>, none)
CHECK:          %R4, %B91C0 = "conv.normal"(%R2, %R1, %C0, %C0.0, %D131C0) {kernel = [1, 1], stride = [2, 2], in_zero = [0, 0], ke_zero = [0, 0], opt_kernel_rotate = False, pad_mode = 0, pad = [0, 0, 0, 0], opt_res_add = False, do_relu = False, sym_range = False, do_rq = False, round_mode = 0}: (memref<1x1024x13x13xf16, strides: [3072, 192, 13, 1]>, memref<64x1024x1x1xf16>, ui32, f16, none) -> (memref<1x64x7x7xf16, strides: [64, 64, 7, 1]>, none)
CHECK:          %L30.0x6980031000, %D132C0 = "dma.tensor"(%R3, %B90C0) : (memref<1x64x7x7xf16, strides: [64, 64, 7, 1]>, none) -> (memref<1x64x7x7xf16, strides: [100352, 49, 7, 1]>, none)
CHECK:          %R0, %D133C0 = "dma.tensor"(%G1.0x1864000, %B90C0) : (memref<1x64x32x32xf16, strides: [2097152, 1024, 32, 1]>, none) -> (memref<1x64x32x32xf16, strides: [1024, 1024, 32, 1]>, none)
CHECK:          %R3, %B92C0 = "conv.normal"(%R2, %R0, %C0, %C0.0, %D133C0) {kernel = [1, 1], stride = [2, 2], in_zero = [0, 0], ke_zero = [0, 0], opt_kernel_rotate = False, pad_mode = 0, pad = [0, 0, 0, 0], opt_res_add = False, do_relu = False, sym_range = False, do_rq = False, round_mode = 0}: (memref<1x1024x13x13xf16, strides: [3072, 192, 13, 1]>, memref<64x1024x1x1xf16>, ui32, f16, none) -> (memref<1x64x7x7xf16, strides: [64, 64, 7, 1]>, none)
CHECK:          %L30.0x6980032880, %D134C0 = "dma.tensor"(%R4, %B91C0) : (memref<1x64x7x7xf16, strides: [64, 64, 7, 1]>, none) -> (memref<1x64x7x7xf16, strides: [100352, 49, 7, 1]>, none)
CHECK:          %R1, %D135C0 = "dma.tensor"(%G1.0x1884000, %B91C0) : (memref<1x64x32x32xf16, strides: [2097152, 1024, 32, 1]>, none) -> (memref<1x64x32x32xf16, strides: [1024, 1024, 32, 1]>, none)
CHECK:          %R4, %B93C0 = "conv.normal"(%R2, %R1, %C0, %C0.0, %D135C0) {kernel = [1, 1], stride = [2, 2], in_zero = [0, 0], ke_zero = [0, 0], opt_kernel_rotate = False, pad_mode = 0, pad = [0, 0, 0, 0], opt_res_add = False, do_relu = False, sym_range = False, do_rq = False, round_mode = 0}: (memref<1x1024x13x13xf16, strides: [3072, 192, 13, 1]>, memref<64x1024x1x1xf16>, ui32, f16, none) -> (memref<1x64x7x7xf16, strides: [64, 64, 7, 1]>, none)
CHECK:          %L30.0x6980034100, %D136C0 = "dma.tensor"(%R3, %B92C0) : (memref<1x64x7x7xf16, strides: [64, 64, 7, 1]>, none) -> (memref<1x64x7x7xf16, strides: [100352, 49, 7, 1]>, none)
CHECK:          %L30.0x6980035980, %D137C0 = "dma.tensor"(%R4, %B93C0) : (memref<1x64x7x7xf16, strides: [64, 64, 7, 1]>, none) -> (memref<1x64x7x7xf16, strides: [100352, 49, 7, 1]>, none)
CHECK:          %B94C0, %msg49 = "system.send_msg"(%D137C0) {msg_id = 49, cnt = 32, status = Status.PRODUCING}
CHECK:          %D138C0, %msg49 = "dma.sys.sys_send"(%B94C0) {msg_id = 49, cnt = 32, status = Status.PRODUCING}
CHECK:        }
CHECK:        %D31C1, %msg49 = "@core_1"(%D20C1, %msg48) {
CHECK:          %B15C1 = "system.wait_msg"(%D20C1, %msg48) {msg_id = 48, cnt = 32, status = Status.RECIEVING}
CHECK:          %D21C1 = "dma.sys.sys_wait"(%B15C1, %msg48) {msg_id = 48, cnt = 32, status = Status.CONSUMED}
CHECK:          %R2, %D22C1 = "dma.tensor"(%L30.0x6980062000, %B15C1) : (memref<1x1024x13x13xf16, strides: [200704, 196, 14, 1]>, none) -> (memref<1x1024x13x13xf16, strides: [3072, 192, 13, 1]>, none)
CHECK:          %R0, %D23C1 = "dma.tensor"(%G1.0x18a4000, %B15C1) : (memref<1x64x32x32xf16, strides: [2097152, 1024, 32, 1]>, none) -> (memref<1x64x32x32xf16, strides: [1024, 1024, 32, 1]>, none)
CHECK:          %R3, %B16C1 = "conv.normal"(%R2, %R0, %C0, %C0.0, %D23C1) {kernel = [1, 1], stride = [2, 2], in_zero = [0, 0], ke_zero = [0, 0], opt_kernel_rotate = False, pad_mode = 0, pad = [0, 0, 0, 0], opt_res_add = False, do_relu = False, sym_range = False, do_rq = False, round_mode = 0}: (memref<1x1024x13x13xf16, strides: [3072, 192, 13, 1]>, memref<64x1024x1x1xf16>, ui32, f16, none) -> (memref<1x64x7x7xf16, strides: [64, 64, 7, 1]>, none)
CHECK:          %R1, %D24C1 = "dma.tensor"(%G1.0x18c4000, %B15C1) : (memref<1x64x32x32xf16, strides: [2097152, 1024, 32, 1]>, none) -> (memref<1x64x32x32xf16, strides: [1024, 1024, 32, 1]>, none)
CHECK:          %R4, %B17C1 = "conv.normal"(%R2, %R1, %C0, %C0.0, %D24C1) {kernel = [1, 1], stride = [2, 2], in_zero = [0, 0], ke_zero = [0, 0], opt_kernel_rotate = False, pad_mode = 0, pad = [0, 0, 0, 0], opt_res_add = False, do_relu = False, sym_range = False, do_rq = False, round_mode = 0}: (memref<1x1024x13x13xf16, strides: [3072, 192, 13, 1]>, memref<64x1024x1x1xf16>, ui32, f16, none) -> (memref<1x64x7x7xf16, strides: [64, 64, 7, 1]>, none)
CHECK:          %L30.0x6980037200, %D25C1 = "dma.tensor"(%R3, %B16C1) : (memref<1x64x7x7xf16, strides: [64, 64, 7, 1]>, none) -> (memref<1x64x7x7xf16, strides: [100352, 49, 7, 1]>, none)
CHECK:          %R0, %D26C1 = "dma.tensor"(%G1.0x18e4000, %B16C1) : (memref<1x64x32x32xf16, strides: [2097152, 1024, 32, 1]>, none) -> (memref<1x64x32x32xf16, strides: [1024, 1024, 32, 1]>, none)
CHECK:          %R3, %B18C1 = "conv.normal"(%R2, %R0, %C0, %C0.0, %D26C1) {kernel = [1, 1], stride = [2, 2], in_zero = [0, 0], ke_zero = [0, 0], opt_kernel_rotate = False, pad_mode = 0, pad = [0, 0, 0, 0], opt_res_add = False, do_relu = False, sym_range = False, do_rq = False, round_mode = 0}: (memref<1x1024x13x13xf16, strides: [3072, 192, 13, 1]>, memref<64x1024x1x1xf16>, ui32, f16, none) -> (memref<1x64x7x7xf16, strides: [64, 64, 7, 1]>, none)
CHECK:          %L30.0x6980038a80, %D27C1 = "dma.tensor"(%R4, %B17C1) : (memref<1x64x7x7xf16, strides: [64, 64, 7, 1]>, none) -> (memref<1x64x7x7xf16, strides: [100352, 49, 7, 1]>, none)
CHECK:          %R1, %D28C1 = "dma.tensor"(%G1.0x1904000, %B17C1) : (memref<1x64x32x32xf16, strides: [2097152, 1024, 32, 1]>, none) -> (memref<1x64x32x32xf16, strides: [1024, 1024, 32, 1]>, none)
CHECK:          %R4, %B19C1 = "conv.normal"(%R2, %R1, %C0, %C0.0, %D28C1) {kernel = [1, 1], stride = [2, 2], in_zero = [0, 0], ke_zero = [0, 0], opt_kernel_rotate = False, pad_mode = 0, pad = [0, 0, 0, 0], opt_res_add = False, do_relu = False, sym_range = False, do_rq = False, round_mode = 0}: (memref<1x1024x13x13xf16, strides: [3072, 192, 13, 1]>, memref<64x1024x1x1xf16>, ui32, f16, none) -> (memref<1x64x7x7xf16, strides: [64, 64, 7, 1]>, none)
CHECK:          %L30.0x698003a300, %D29C1 = "dma.tensor"(%R3, %B18C1) : (memref<1x64x7x7xf16, strides: [64, 64, 7, 1]>, none) -> (memref<1x64x7x7xf16, strides: [100352, 49, 7, 1]>, none)
CHECK:          %L30.0x698003bb80, %D30C1 = "dma.tensor"(%R4, %B19C1) : (memref<1x64x7x7xf16, strides: [64, 64, 7, 1]>, none) -> (memref<1x64x7x7xf16, strides: [100352, 49, 7, 1]>, none)
CHECK:          %B20C1, %msg49 = "system.send_msg"(%D30C1) {msg_id = 49, cnt = 32, status = Status.PRODUCING}
CHECK:          %D31C1, %msg49 = "dma.sys.sys_send"(%B20C1) {msg_id = 49, cnt = 32, status = Status.PRODUCING}
CHECK:        }
CHECK:        %D31C2, %msg49 = "@core_2"(%D20C2, %msg48) {
CHECK:          %B15C2 = "system.wait_msg"(%D20C2, %msg48) {msg_id = 48, cnt = 32, status = Status.RECIEVING}
CHECK:          %D21C2 = "dma.sys.sys_wait"(%B15C2, %msg48) {msg_id = 48, cnt = 32, status = Status.CONSUMED}
CHECK:          %R2, %D22C2 = "dma.tensor"(%L30.0x6980062000, %B15C2) : (memref<1x1024x13x13xf16, strides: [200704, 196, 14, 1]>, none) -> (memref<1x1024x13x13xf16, strides: [3072, 192, 13, 1]>, none)
CHECK:          %R0, %D23C2 = "dma.tensor"(%G1.0x1924000, %B15C2) : (memref<1x64x32x32xf16, strides: [2097152, 1024, 32, 1]>, none) -> (memref<1x64x32x32xf16, strides: [1024, 1024, 32, 1]>, none)
CHECK:          %R3, %B16C2 = "conv.normal"(%R2, %R0, %C0, %C0.0, %D23C2) {kernel = [1, 1], stride = [2, 2], in_zero = [0, 0], ke_zero = [0, 0], opt_kernel_rotate = False, pad_mode = 0, pad = [0, 0, 0, 0], opt_res_add = False, do_relu = False, sym_range = False, do_rq = False, round_mode = 0}: (memref<1x1024x13x13xf16, strides: [3072, 192, 13, 1]>, memref<64x1024x1x1xf16>, ui32, f16, none) -> (memref<1x64x7x7xf16, strides: [64, 64, 7, 1]>, none)
CHECK:          %R1, %D24C2 = "dma.tensor"(%G1.0x1944000, %B15C2) : (memref<1x64x32x32xf16, strides: [2097152, 1024, 32, 1]>, none) -> (memref<1x64x32x32xf16, strides: [1024, 1024, 32, 1]>, none)
CHECK:          %R4, %B17C2 = "conv.normal"(%R2, %R1, %C0, %C0.0, %D24C2) {kernel = [1, 1], stride = [2, 2], in_zero = [0, 0], ke_zero = [0, 0], opt_kernel_rotate = False, pad_mode = 0, pad = [0, 0, 0, 0], opt_res_add = False, do_relu = False, sym_range = False, do_rq = False, round_mode = 0}: (memref<1x1024x13x13xf16, strides: [3072, 192, 13, 1]>, memref<64x1024x1x1xf16>, ui32, f16, none) -> (memref<1x64x7x7xf16, strides: [64, 64, 7, 1]>, none)
CHECK:          %L30.0x698003d400, %D25C2 = "dma.tensor"(%R3, %B16C2) : (memref<1x64x7x7xf16, strides: [64, 64, 7, 1]>, none) -> (memref<1x64x7x7xf16, strides: [100352, 49, 7, 1]>, none)
CHECK:          %R0, %D26C2 = "dma.tensor"(%G1.0x1964000, %B16C2) : (memref<1x64x32x32xf16, strides: [2097152, 1024, 32, 1]>, none) -> (memref<1x64x32x32xf16, strides: [1024, 1024, 32, 1]>, none)
CHECK:          %R3, %B18C2 = "conv.normal"(%R2, %R0, %C0, %C0.0, %D26C2) {kernel = [1, 1], stride = [2, 2], in_zero = [0, 0], ke_zero = [0, 0], opt_kernel_rotate = False, pad_mode = 0, pad = [0, 0, 0, 0], opt_res_add = False, do_relu = False, sym_range = False, do_rq = False, round_mode = 0}: (memref<1x1024x13x13xf16, strides: [3072, 192, 13, 1]>, memref<64x1024x1x1xf16>, ui32, f16, none) -> (memref<1x64x7x7xf16, strides: [64, 64, 7, 1]>, none)
CHECK:          %L30.0x698003ec80, %D27C2 = "dma.tensor"(%R4, %B17C2) : (memref<1x64x7x7xf16, strides: [64, 64, 7, 1]>, none) -> (memref<1x64x7x7xf16, strides: [100352, 49, 7, 1]>, none)
CHECK:          %R1, %D28C2 = "dma.tensor"(%G1.0x1984000, %B17C2) : (memref<1x64x32x32xf16, strides: [2097152, 1024, 32, 1]>, none) -> (memref<1x64x32x32xf16, strides: [1024, 1024, 32, 1]>, none)
CHECK:          %R4, %B19C2 = "conv.normal"(%R2, %R1, %C0, %C0.0, %D28C2) {kernel = [1, 1], stride = [2, 2], in_zero = [0, 0], ke_zero = [0, 0], opt_kernel_rotate = False, pad_mode = 0, pad = [0, 0, 0, 0], opt_res_add = False, do_relu = False, sym_range = False, do_rq = False, round_mode = 0}: (memref<1x1024x13x13xf16, strides: [3072, 192, 13, 1]>, memref<64x1024x1x1xf16>, ui32, f16, none) -> (memref<1x64x7x7xf16, strides: [64, 64, 7, 1]>, none)
CHECK:          %L30.0x6980040500, %D29C2 = "dma.tensor"(%R3, %B18C2) : (memref<1x64x7x7xf16, strides: [64, 64, 7, 1]>, none) -> (memref<1x64x7x7xf16, strides: [100352, 49, 7, 1]>, none)
CHECK:          %L30.0x6980041d80, %D30C2 = "dma.tensor"(%R4, %B19C2) : (memref<1x64x7x7xf16, strides: [64, 64, 7, 1]>, none) -> (memref<1x64x7x7xf16, strides: [100352, 49, 7, 1]>, none)
CHECK:          %B20C2, %msg49 = "system.send_msg"(%D30C2) {msg_id = 49, cnt = 32, status = Status.PRODUCING}
CHECK:          %D31C2, %msg49 = "dma.sys.sys_send"(%B20C2) {msg_id = 49, cnt = 32, status = Status.PRODUCING}
CHECK:        }
CHECK:        %D31C3, %msg49 = "@core_3"(%D20C3, %msg48) {
CHECK:          %B15C3 = "system.wait_msg"(%D20C3, %msg48) {msg_id = 48, cnt = 32, status = Status.RECIEVING}
CHECK:          %D21C3 = "dma.sys.sys_wait"(%B15C3, %msg48) {msg_id = 48, cnt = 32, status = Status.CONSUMED}
CHECK:          %R2, %D22C3 = "dma.tensor"(%L30.0x6980062000, %B15C3) : (memref<1x1024x13x13xf16, strides: [200704, 196, 14, 1]>, none) -> (memref<1x1024x13x13xf16, strides: [3072, 192, 13, 1]>, none)
CHECK:          %R0, %D23C3 = "dma.tensor"(%G1.0x19a4000, %B15C3) : (memref<1x64x32x32xf16, strides: [2097152, 1024, 32, 1]>, none) -> (memref<1x64x32x32xf16, strides: [1024, 1024, 32, 1]>, none)
CHECK:          %R3, %B16C3 = "conv.normal"(%R2, %R0, %C0, %C0.0, %D23C3) {kernel = [1, 1], stride = [2, 2], in_zero = [0, 0], ke_zero = [0, 0], opt_kernel_rotate = False, pad_mode = 0, pad = [0, 0, 0, 0], opt_res_add = False, do_relu = False, sym_range = False, do_rq = False, round_mode = 0}: (memref<1x1024x13x13xf16, strides: [3072, 192, 13, 1]>, memref<64x1024x1x1xf16>, ui32, f16, none) -> (memref<1x64x7x7xf16, strides: [64, 64, 7, 1]>, none)
CHECK:          %R1, %D24C3 = "dma.tensor"(%G1.0x19c4000, %B15C3) : (memref<1x64x32x32xf16, strides: [2097152, 1024, 32, 1]>, none) -> (memref<1x64x32x32xf16, strides: [1024, 1024, 32, 1]>, none)
CHECK:          %R4, %B17C3 = "conv.normal"(%R2, %R1, %C0, %C0.0, %D24C3) {kernel = [1, 1], stride = [2, 2], in_zero = [0, 0], ke_zero = [0, 0], opt_kernel_rotate = False, pad_mode = 0, pad = [0, 0, 0, 0], opt_res_add = False, do_relu = False, sym_range = False, do_rq = False, round_mode = 0}: (memref<1x1024x13x13xf16, strides: [3072, 192, 13, 1]>, memref<64x1024x1x1xf16>, ui32, f16, none) -> (memref<1x64x7x7xf16, strides: [64, 64, 7, 1]>, none)
CHECK:          %L30.0x6980043600, %D25C3 = "dma.tensor"(%R3, %B16C3) : (memref<1x64x7x7xf16, strides: [64, 64, 7, 1]>, none) -> (memref<1x64x7x7xf16, strides: [100352, 49, 7, 1]>, none)
CHECK:          %R0, %D26C3 = "dma.tensor"(%G1.0x19e4000, %B16C3) : (memref<1x64x32x32xf16, strides: [2097152, 1024, 32, 1]>, none) -> (memref<1x64x32x32xf16, strides: [1024, 1024, 32, 1]>, none)
CHECK:          %R3, %B18C3 = "conv.normal"(%R2, %R0, %C0, %C0.0, %D26C3) {kernel = [1, 1], stride = [2, 2], in_zero = [0, 0], ke_zero = [0, 0], opt_kernel_rotate = False, pad_mode = 0, pad = [0, 0, 0, 0], opt_res_add = False, do_relu = False, sym_range = False, do_rq = False, round_mode = 0}: (memref<1x1024x13x13xf16, strides: [3072, 192, 13, 1]>, memref<64x1024x1x1xf16>, ui32, f16, none) -> (memref<1x64x7x7xf16, strides: [64, 64, 7, 1]>, none)
CHECK:          %L30.0x6980044e80, %D27C3 = "dma.tensor"(%R4, %B17C3) : (memref<1x64x7x7xf16, strides: [64, 64, 7, 1]>, none) -> (memref<1x64x7x7xf16, strides: [100352, 49, 7, 1]>, none)
CHECK:          %R1, %D28C3 = "dma.tensor"(%G1.0x1a04000, %B17C3) : (memref<1x64x32x32xf16, strides: [2097152, 1024, 32, 1]>, none) -> (memref<1x64x32x32xf16, strides: [1024, 1024, 32, 1]>, none)
CHECK:          %R4, %B19C3 = "conv.normal"(%R2, %R1, %C0, %C0.0, %D28C3) {kernel = [1, 1], stride = [2, 2], in_zero = [0, 0], ke_zero = [0, 0], opt_kernel_rotate = False, pad_mode = 0, pad = [0, 0, 0, 0], opt_res_add = False, do_relu = False, sym_range = False, do_rq = False, round_mode = 0}: (memref<1x1024x13x13xf16, strides: [3072, 192, 13, 1]>, memref<64x1024x1x1xf16>, ui32, f16, none) -> (memref<1x64x7x7xf16, strides: [64, 64, 7, 1]>, none)
CHECK:          %L30.0x6980046700, %D29C3 = "dma.tensor"(%R3, %B18C3) : (memref<1x64x7x7xf16, strides: [64, 64, 7, 1]>, none) -> (memref<1x64x7x7xf16, strides: [100352, 49, 7, 1]>, none)
CHECK:          %L30.0x6980047f80, %D30C3 = "dma.tensor"(%R4, %B19C3) : (memref<1x64x7x7xf16, strides: [64, 64, 7, 1]>, none) -> (memref<1x64x7x7xf16, strides: [100352, 49, 7, 1]>, none)
CHECK:          %B20C3, %msg49 = "system.send_msg"(%D30C3) {msg_id = 49, cnt = 32, status = Status.PRODUCING}
CHECK:          %D31C3, %msg49 = "dma.sys.sys_send"(%B20C3) {msg_id = 49, cnt = 32, status = Status.PRODUCING}
CHECK:        }
CHECK:        %D31C4, %msg49 = "@core_4"(%D20C4, %msg48) {
CHECK:          %B15C4 = "system.wait_msg"(%D20C4, %msg48) {msg_id = 48, cnt = 32, status = Status.RECIEVING}
CHECK:          %D21C4 = "dma.sys.sys_wait"(%B15C4, %msg48) {msg_id = 48, cnt = 32, status = Status.CONSUMED}
CHECK:          %R2, %D22C4 = "dma.tensor"(%L30.0x6980062000, %B15C4) : (memref<1x1024x13x13xf16, strides: [200704, 196, 14, 1]>, none) -> (memref<1x1024x13x13xf16, strides: [3072, 192, 13, 1]>, none)
CHECK:          %R0, %D23C4 = "dma.tensor"(%G1.0x1a24000, %B15C4) : (memref<1x64x32x32xf16, strides: [2097152, 1024, 32, 1]>, none) -> (memref<1x64x32x32xf16, strides: [1024, 1024, 32, 1]>, none)
CHECK:          %R3, %B16C4 = "conv.normal"(%R2, %R0, %C0, %C0.0, %D23C4) {kernel = [1, 1], stride = [2, 2], in_zero = [0, 0], ke_zero = [0, 0], opt_kernel_rotate = False, pad_mode = 0, pad = [0, 0, 0, 0], opt_res_add = False, do_relu = False, sym_range = False, do_rq = False, round_mode = 0}: (memref<1x1024x13x13xf16, strides: [3072, 192, 13, 1]>, memref<64x1024x1x1xf16>, ui32, f16, none) -> (memref<1x64x7x7xf16, strides: [64, 64, 7, 1]>, none)
CHECK:          %R1, %D24C4 = "dma.tensor"(%G1.0x1a44000, %B15C4) : (memref<1x64x32x32xf16, strides: [2097152, 1024, 32, 1]>, none) -> (memref<1x64x32x32xf16, strides: [1024, 1024, 32, 1]>, none)
CHECK:          %R4, %B17C4 = "conv.normal"(%R2, %R1, %C0, %C0.0, %D24C4) {kernel = [1, 1], stride = [2, 2], in_zero = [0, 0], ke_zero = [0, 0], opt_kernel_rotate = False, pad_mode = 0, pad = [0, 0, 0, 0], opt_res_add = False, do_relu = False, sym_range = False, do_rq = False, round_mode = 0}: (memref<1x1024x13x13xf16, strides: [3072, 192, 13, 1]>, memref<64x1024x1x1xf16>, ui32, f16, none) -> (memref<1x64x7x7xf16, strides: [64, 64, 7, 1]>, none)
CHECK:          %L30.0x6980049800, %D25C4 = "dma.tensor"(%R3, %B16C4) : (memref<1x64x7x7xf16, strides: [64, 64, 7, 1]>, none) -> (memref<1x64x7x7xf16, strides: [100352, 49, 7, 1]>, none)
CHECK:          %R0, %D26C4 = "dma.tensor"(%G1.0x1a64000, %B16C4) : (memref<1x64x32x32xf16, strides: [2097152, 1024, 32, 1]>, none) -> (memref<1x64x32x32xf16, strides: [1024, 1024, 32, 1]>, none)
CHECK:          %R3, %B18C4 = "conv.normal"(%R2, %R0, %C0, %C0.0, %D26C4) {kernel = [1, 1], stride = [2, 2], in_zero = [0, 0], ke_zero = [0, 0], opt_kernel_rotate = False, pad_mode = 0, pad = [0, 0, 0, 0], opt_res_add = False, do_relu = False, sym_range = False, do_rq = False, round_mode = 0}: (memref<1x1024x13x13xf16, strides: [3072, 192, 13, 1]>, memref<64x1024x1x1xf16>, ui32, f16, none) -> (memref<1x64x7x7xf16, strides: [64, 64, 7, 1]>, none)
CHECK:          %L30.0x698004b080, %D27C4 = "dma.tensor"(%R4, %B17C4) : (memref<1x64x7x7xf16, strides: [64, 64, 7, 1]>, none) -> (memref<1x64x7x7xf16, strides: [100352, 49, 7, 1]>, none)
CHECK:          %R1, %D28C4 = "dma.tensor"(%G1.0x1a84000, %B17C4) : (memref<1x64x32x32xf16, strides: [2097152, 1024, 32, 1]>, none) -> (memref<1x64x32x32xf16, strides: [1024, 1024, 32, 1]>, none)
CHECK:          %R4, %B19C4 = "conv.normal"(%R2, %R1, %C0, %C0.0, %D28C4) {kernel = [1, 1], stride = [2, 2], in_zero = [0, 0], ke_zero = [0, 0], opt_kernel_rotate = False, pad_mode = 0, pad = [0, 0, 0, 0], opt_res_add = False, do_relu = False, sym_range = False, do_rq = False, round_mode = 0}: (memref<1x1024x13x13xf16, strides: [3072, 192, 13, 1]>, memref<64x1024x1x1xf16>, ui32, f16, none) -> (memref<1x64x7x7xf16, strides: [64, 64, 7, 1]>, none)
CHECK:          %L30.0x698004c900, %D29C4 = "dma.tensor"(%R3, %B18C4) : (memref<1x64x7x7xf16, strides: [64, 64, 7, 1]>, none) -> (memref<1x64x7x7xf16, strides: [100352, 49, 7, 1]>, none)
CHECK:          %L30.0x698004e180, %D30C4 = "dma.tensor"(%R4, %B19C4) : (memref<1x64x7x7xf16, strides: [64, 64, 7, 1]>, none) -> (memref<1x64x7x7xf16, strides: [100352, 49, 7, 1]>, none)
CHECK:          %B20C4, %msg49 = "system.send_msg"(%D30C4) {msg_id = 49, cnt = 32, status = Status.PRODUCING}
CHECK:          %D31C4, %msg49 = "dma.sys.sys_send"(%B20C4) {msg_id = 49, cnt = 32, status = Status.PRODUCING}
CHECK:        }
CHECK:        %D31C5, %msg49 = "@core_5"(%D20C5, %msg48) {
CHECK:          %B15C5 = "system.wait_msg"(%D20C5, %msg48) {msg_id = 48, cnt = 32, status = Status.RECIEVING}
CHECK:          %D21C5 = "dma.sys.sys_wait"(%B15C5, %msg48) {msg_id = 48, cnt = 32, status = Status.CONSUMED}
CHECK:          %R2, %D22C5 = "dma.tensor"(%L30.0x6980062000, %B15C5) : (memref<1x1024x13x13xf16, strides: [200704, 196, 14, 1]>, none) -> (memref<1x1024x13x13xf16, strides: [3072, 192, 13, 1]>, none)
CHECK:          %R0, %D23C5 = "dma.tensor"(%G1.0x1aa4000, %B15C5) : (memref<1x64x32x32xf16, strides: [2097152, 1024, 32, 1]>, none) -> (memref<1x64x32x32xf16, strides: [1024, 1024, 32, 1]>, none)
CHECK:          %R3, %B16C5 = "conv.normal"(%R2, %R0, %C0, %C0.0, %D23C5) {kernel = [1, 1], stride = [2, 2], in_zero = [0, 0], ke_zero = [0, 0], opt_kernel_rotate = False, pad_mode = 0, pad = [0, 0, 0, 0], opt_res_add = False, do_relu = False, sym_range = False, do_rq = False, round_mode = 0}: (memref<1x1024x13x13xf16, strides: [3072, 192, 13, 1]>, memref<64x1024x1x1xf16>, ui32, f16, none) -> (memref<1x64x7x7xf16, strides: [64, 64, 7, 1]>, none)
CHECK:          %R1, %D24C5 = "dma.tensor"(%G1.0x1ac4000, %B15C5) : (memref<1x64x32x32xf16, strides: [2097152, 1024, 32, 1]>, none) -> (memref<1x64x32x32xf16, strides: [1024, 1024, 32, 1]>, none)
CHECK:          %R4, %B17C5 = "conv.normal"(%R2, %R1, %C0, %C0.0, %D24C5) {kernel = [1, 1], stride = [2, 2], in_zero = [0, 0], ke_zero = [0, 0], opt_kernel_rotate = False, pad_mode = 0, pad = [0, 0, 0, 0], opt_res_add = False, do_relu = False, sym_range = False, do_rq = False, round_mode = 0}: (memref<1x1024x13x13xf16, strides: [3072, 192, 13, 1]>, memref<64x1024x1x1xf16>, ui32, f16, none) -> (memref<1x64x7x7xf16, strides: [64, 64, 7, 1]>, none)
CHECK:          %L30.0x698004fa00, %D25C5 = "dma.tensor"(%R3, %B16C5) : (memref<1x64x7x7xf16, strides: [64, 64, 7, 1]>, none) -> (memref<1x64x7x7xf16, strides: [100352, 49, 7, 1]>, none)
CHECK:          %R0, %D26C5 = "dma.tensor"(%G1.0x1ae4000, %B16C5) : (memref<1x64x32x32xf16, strides: [2097152, 1024, 32, 1]>, none) -> (memref<1x64x32x32xf16, strides: [1024, 1024, 32, 1]>, none)
CHECK:          %R3, %B18C5 = "conv.normal"(%R2, %R0, %C0, %C0.0, %D26C5) {kernel = [1, 1], stride = [2, 2], in_zero = [0, 0], ke_zero = [0, 0], opt_kernel_rotate = False, pad_mode = 0, pad = [0, 0, 0, 0], opt_res_add = False, do_relu = False, sym_range = False, do_rq = False, round_mode = 0}: (memref<1x1024x13x13xf16, strides: [3072, 192, 13, 1]>, memref<64x1024x1x1xf16>, ui32, f16, none) -> (memref<1x64x7x7xf16, strides: [64, 64, 7, 1]>, none)
CHECK:          %L30.0x6980051280, %D27C5 = "dma.tensor"(%R4, %B17C5) : (memref<1x64x7x7xf16, strides: [64, 64, 7, 1]>, none) -> (memref<1x64x7x7xf16, strides: [100352, 49, 7, 1]>, none)
CHECK:          %R1, %D28C5 = "dma.tensor"(%G1.0x1b04000, %B17C5) : (memref<1x64x32x32xf16, strides: [2097152, 1024, 32, 1]>, none) -> (memref<1x64x32x32xf16, strides: [1024, 1024, 32, 1]>, none)
CHECK:          %R4, %B19C5 = "conv.normal"(%R2, %R1, %C0, %C0.0, %D28C5) {kernel = [1, 1], stride = [2, 2], in_zero = [0, 0], ke_zero = [0, 0], opt_kernel_rotate = False, pad_mode = 0, pad = [0, 0, 0, 0], opt_res_add = False, do_relu = False, sym_range = False, do_rq = False, round_mode = 0}: (memref<1x1024x13x13xf16, strides: [3072, 192, 13, 1]>, memref<64x1024x1x1xf16>, ui32, f16, none) -> (memref<1x64x7x7xf16, strides: [64, 64, 7, 1]>, none)
CHECK:          %L30.0x6980052b00, %D29C5 = "dma.tensor"(%R3, %B18C5) : (memref<1x64x7x7xf16, strides: [64, 64, 7, 1]>, none) -> (memref<1x64x7x7xf16, strides: [100352, 49, 7, 1]>, none)
CHECK:          %L30.0x6980054380, %D30C5 = "dma.tensor"(%R4, %B19C5) : (memref<1x64x7x7xf16, strides: [64, 64, 7, 1]>, none) -> (memref<1x64x7x7xf16, strides: [100352, 49, 7, 1]>, none)
CHECK:          %B20C5, %msg49 = "system.send_msg"(%D30C5) {msg_id = 49, cnt = 32, status = Status.PRODUCING}
CHECK:          %D31C5, %msg49 = "dma.sys.sys_send"(%B20C5) {msg_id = 49, cnt = 32, status = Status.PRODUCING}
CHECK:        }
CHECK:        %D29C6, %msg49 = "@core_6"(%D18C6, %msg48) {
CHECK:          %B14C6 = "system.wait_msg"(%D18C6, %msg48) {msg_id = 48, cnt = 32, status = Status.RECIEVING}
CHECK:          %D19C6 = "dma.sys.sys_wait"(%B14C6, %msg48) {msg_id = 48, cnt = 32, status = Status.CONSUMED}
CHECK:          %R2, %D20C6 = "dma.tensor"(%L30.0x6980062000, %B14C6) : (memref<1x1024x13x13xf16, strides: [200704, 196, 14, 1]>, none) -> (memref<1x1024x13x13xf16, strides: [3072, 192, 13, 1]>, none)
CHECK:          %R0, %D21C6 = "dma.tensor"(%G1.0x1b24000, %B14C6) : (memref<1x64x32x32xf16, strides: [2097152, 1024, 32, 1]>, none) -> (memref<1x64x32x32xf16, strides: [1024, 1024, 32, 1]>, none)
CHECK:          %R3, %B15C6 = "conv.normal"(%R2, %R0, %C0, %C0.0, %D21C6) {kernel = [1, 1], stride = [2, 2], in_zero = [0, 0], ke_zero = [0, 0], opt_kernel_rotate = False, pad_mode = 0, pad = [0, 0, 0, 0], opt_res_add = False, do_relu = False, sym_range = False, do_rq = False, round_mode = 0}: (memref<1x1024x13x13xf16, strides: [3072, 192, 13, 1]>, memref<64x1024x1x1xf16>, ui32, f16, none) -> (memref<1x64x7x7xf16, strides: [64, 64, 7, 1]>, none)
CHECK:          %R1, %D22C6 = "dma.tensor"(%G1.0x1b44000, %B14C6) : (memref<1x64x32x32xf16, strides: [2097152, 1024, 32, 1]>, none) -> (memref<1x64x32x32xf16, strides: [1024, 1024, 32, 1]>, none)
CHECK:          %R4, %B16C6 = "conv.normal"(%R2, %R1, %C0, %C0.0, %D22C6) {kernel = [1, 1], stride = [2, 2], in_zero = [0, 0], ke_zero = [0, 0], opt_kernel_rotate = False, pad_mode = 0, pad = [0, 0, 0, 0], opt_res_add = False, do_relu = False, sym_range = False, do_rq = False, round_mode = 0}: (memref<1x1024x13x13xf16, strides: [3072, 192, 13, 1]>, memref<64x1024x1x1xf16>, ui32, f16, none) -> (memref<1x64x7x7xf16, strides: [64, 64, 7, 1]>, none)
CHECK:          %L30.0x6980055c00, %D23C6 = "dma.tensor"(%R3, %B15C6) : (memref<1x64x7x7xf16, strides: [64, 64, 7, 1]>, none) -> (memref<1x64x7x7xf16, strides: [100352, 49, 7, 1]>, none)
CHECK:          %R0, %D24C6 = "dma.tensor"(%G1.0x1b64000, %B15C6) : (memref<1x64x32x32xf16, strides: [2097152, 1024, 32, 1]>, none) -> (memref<1x64x32x32xf16, strides: [1024, 1024, 32, 1]>, none)
CHECK:          %R3, %B17C6 = "conv.normal"(%R2, %R0, %C0, %C0.0, %D24C6) {kernel = [1, 1], stride = [2, 2], in_zero = [0, 0], ke_zero = [0, 0], opt_kernel_rotate = False, pad_mode = 0, pad = [0, 0, 0, 0], opt_res_add = False, do_relu = False, sym_range = False, do_rq = False, round_mode = 0}: (memref<1x1024x13x13xf16, strides: [3072, 192, 13, 1]>, memref<64x1024x1x1xf16>, ui32, f16, none) -> (memref<1x64x7x7xf16, strides: [64, 64, 7, 1]>, none)
CHECK:          %L30.0x6980057480, %D25C6 = "dma.tensor"(%R4, %B16C6) : (memref<1x64x7x7xf16, strides: [64, 64, 7, 1]>, none) -> (memref<1x64x7x7xf16, strides: [100352, 49, 7, 1]>, none)
CHECK:          %R1, %D26C6 = "dma.tensor"(%G1.0x1b84000, %B16C6) : (memref<1x64x32x32xf16, strides: [2097152, 1024, 32, 1]>, none) -> (memref<1x64x32x32xf16, strides: [1024, 1024, 32, 1]>, none)
CHECK:          %R4, %B18C6 = "conv.normal"(%R2, %R1, %C0, %C0.0, %D26C6) {kernel = [1, 1], stride = [2, 2], in_zero = [0, 0], ke_zero = [0, 0], opt_kernel_rotate = False, pad_mode = 0, pad = [0, 0, 0, 0], opt_res_add = False, do_relu = False, sym_range = False, do_rq = False, round_mode = 0}: (memref<1x1024x13x13xf16, strides: [3072, 192, 13, 1]>, memref<64x1024x1x1xf16>, ui32, f16, none) -> (memref<1x64x7x7xf16, strides: [64, 64, 7, 1]>, none)
CHECK:          %L30.0x6980058d00, %D27C6 = "dma.tensor"(%R3, %B17C6) : (memref<1x64x7x7xf16, strides: [64, 64, 7, 1]>, none) -> (memref<1x64x7x7xf16, strides: [100352, 49, 7, 1]>, none)
CHECK:          %L30.0x698005a580, %D28C6 = "dma.tensor"(%R4, %B18C6) : (memref<1x64x7x7xf16, strides: [64, 64, 7, 1]>, none) -> (memref<1x64x7x7xf16, strides: [100352, 49, 7, 1]>, none)
CHECK:          %B19C6, %msg49 = "system.send_msg"(%D28C6) {msg_id = 49, cnt = 32, status = Status.PRODUCING}
CHECK:          %D29C6, %msg49 = "dma.sys.sys_send"(%B19C6) {msg_id = 49, cnt = 32, status = Status.PRODUCING}
CHECK:        }
CHECK:        %D29C7, %msg49 = "@core_7"(%D18C7, %msg48) {
CHECK:          %B14C7 = "system.wait_msg"(%D18C7, %msg48) {msg_id = 48, cnt = 32, status = Status.RECIEVING}
CHECK:          %D19C7 = "dma.sys.sys_wait"(%B14C7, %msg48) {msg_id = 48, cnt = 32, status = Status.CONSUMED}
CHECK:          %R2, %D20C7 = "dma.tensor"(%L30.0x6980062000, %B14C7) : (memref<1x1024x13x13xf16, strides: [200704, 196, 14, 1]>, none) -> (memref<1x1024x13x13xf16, strides: [3072, 192, 13, 1]>, none)
CHECK:          %R0, %D21C7 = "dma.tensor"(%G1.0x1ba4000, %B14C7) : (memref<1x64x32x32xf16, strides: [2097152, 1024, 32, 1]>, none) -> (memref<1x64x32x32xf16, strides: [1024, 1024, 32, 1]>, none)
CHECK:          %R3, %B15C7 = "conv.normal"(%R2, %R0, %C0, %C0.0, %D21C7) {kernel = [1, 1], stride = [2, 2], in_zero = [0, 0], ke_zero = [0, 0], opt_kernel_rotate = False, pad_mode = 0, pad = [0, 0, 0, 0], opt_res_add = False, do_relu = False, sym_range = False, do_rq = False, round_mode = 0}: (memref<1x1024x13x13xf16, strides: [3072, 192, 13, 1]>, memref<64x1024x1x1xf16>, ui32, f16, none) -> (memref<1x64x7x7xf16, strides: [64, 64, 7, 1]>, none)
CHECK:          %R1, %D22C7 = "dma.tensor"(%G1.0x1bc4000, %B14C7) : (memref<1x64x32x32xf16, strides: [2097152, 1024, 32, 1]>, none) -> (memref<1x64x32x32xf16, strides: [1024, 1024, 32, 1]>, none)
CHECK:          %R4, %B16C7 = "conv.normal"(%R2, %R1, %C0, %C0.0, %D22C7) {kernel = [1, 1], stride = [2, 2], in_zero = [0, 0], ke_zero = [0, 0], opt_kernel_rotate = False, pad_mode = 0, pad = [0, 0, 0, 0], opt_res_add = False, do_relu = False, sym_range = False, do_rq = False, round_mode = 0}: (memref<1x1024x13x13xf16, strides: [3072, 192, 13, 1]>, memref<64x1024x1x1xf16>, ui32, f16, none) -> (memref<1x64x7x7xf16, strides: [64, 64, 7, 1]>, none)
CHECK:          %L30.0x698005be00, %D23C7 = "dma.tensor"(%R3, %B15C7) : (memref<1x64x7x7xf16, strides: [64, 64, 7, 1]>, none) -> (memref<1x64x7x7xf16, strides: [100352, 49, 7, 1]>, none)
CHECK:          %R0, %D24C7 = "dma.tensor"(%G1.0x1be4000, %B15C7) : (memref<1x64x32x32xf16, strides: [2097152, 1024, 32, 1]>, none) -> (memref<1x64x32x32xf16, strides: [1024, 1024, 32, 1]>, none)
CHECK:          %R3, %B17C7 = "conv.normal"(%R2, %R0, %C0, %C0.0, %D24C7) {kernel = [1, 1], stride = [2, 2], in_zero = [0, 0], ke_zero = [0, 0], opt_kernel_rotate = False, pad_mode = 0, pad = [0, 0, 0, 0], opt_res_add = False, do_relu = False, sym_range = False, do_rq = False, round_mode = 0}: (memref<1x1024x13x13xf16, strides: [3072, 192, 13, 1]>, memref<64x1024x1x1xf16>, ui32, f16, none) -> (memref<1x64x7x7xf16, strides: [64, 64, 7, 1]>, none)
CHECK:          %L30.0x698005d680, %D25C7 = "dma.tensor"(%R4, %B16C7) : (memref<1x64x7x7xf16, strides: [64, 64, 7, 1]>, none) -> (memref<1x64x7x7xf16, strides: [100352, 49, 7, 1]>, none)
CHECK:          %R1, %D26C7 = "dma.tensor"(%G1.0x1c04000, %B16C7) : (memref<1x64x32x32xf16, strides: [2097152, 1024, 32, 1]>, none) -> (memref<1x64x32x32xf16, strides: [1024, 1024, 32, 1]>, none)
CHECK:          %R4, %B18C7 = "conv.normal"(%R2, %R1, %C0, %C0.0, %D26C7) {kernel = [1, 1], stride = [2, 2], in_zero = [0, 0], ke_zero = [0, 0], opt_kernel_rotate = False, pad_mode = 0, pad = [0, 0, 0, 0], opt_res_add = False, do_relu = False, sym_range = False, do_rq = False, round_mode = 0}: (memref<1x1024x13x13xf16, strides: [3072, 192, 13, 1]>, memref<64x1024x1x1xf16>, ui32, f16, none) -> (memref<1x64x7x7xf16, strides: [64, 64, 7, 1]>, none)
CHECK:          %L30.0x698005ef00, %D27C7 = "dma.tensor"(%R3, %B17C7) : (memref<1x64x7x7xf16, strides: [64, 64, 7, 1]>, none) -> (memref<1x64x7x7xf16, strides: [100352, 49, 7, 1]>, none)
CHECK:          %L30.0x6980060780, %D28C7 = "dma.tensor"(%R4, %B18C7) : (memref<1x64x7x7xf16, strides: [64, 64, 7, 1]>, none) -> (memref<1x64x7x7xf16, strides: [100352, 49, 7, 1]>, none)
CHECK:          %B19C7, %msg49 = "system.send_msg"(%D28C7) {msg_id = 49, cnt = 32, status = Status.PRODUCING}
CHECK:          %D29C7, %msg49 = "dma.sys.sys_send"(%B19C7) {msg_id = 49, cnt = 32, status = Status.PRODUCING}
CHECK:        }
CHECK:        %D146C0, %msg48 = "@core_0"(%D138C0, %msg49) {
CHECK:          %B95C0 = "system.wait_msg"(%D138C0, %msg49) {msg_id = 49, cnt = 32, status = Status.RECIEVING}
CHECK:          %D139C0 = "dma.sys.sys_wait"(%B95C0, %msg49) {msg_id = 49, cnt = 32, status = Status.CONSUMED}
CHECK:          %R1, %D140C0 = "dma.tensor"(%L30.0x6980000000, %B95C0) : (memref<1x2048x7x7xi16, strides: [100352, 49, 7, 1]>, none) -> (memref<1x2048x7x7xi16, strides: [2048, 64, 7, 1]>, none)
CHECK:          %R2, %D141C0 = "dma.tensor"(%L30.0x6980031000, %B95C0) : (memref<1x2048x7x7xi16, strides: [100352, 49, 7, 1]>, none) -> (memref<1x2048x7x7xi16, strides: [2048, 64, 7, 1]>, none)
CHECK:          %R0, %B96C0 = "arith.add"(%R1, %R2, %D141C0) {round_mode = 0}: (memref<1x2048x7x7xf16, strides: [0, 64, 7, 1]>, memref<1x2048x7x7xf16, strides: [0, 64, 7, 1]>, none) -> (memref<1x2048x7x7xf16, strides: [2048, 64, 7, 1]>, none)
CHECK:          %R4, %D142C0 = "dma.tensor"(%G1.0x1c24000, %B95C0) : (memref<1x2048x1x1xi16, strides: [2048, 1, 1, 1]>, none) -> (memref<1x2048x1x1xi16, strides: [32, 1, 1, 1]>, none)
CHECK:          %R6, %D143C0 = "dma.tensor"(%G1.0x1c25000, %B95C0) : (memref<1x2048x1x1xi16, strides: [2048, 1, 1, 1]>, none) -> (memref<1x2048x1x1xi16, strides: [32, 1, 1, 1]>, none)
CHECK:          %R3, %B97C0 = "pord.depthwise"(%R0, %R4, %R6, %C0.0, %D143C0) {kernel = [1, 1], stride = [1, 1], in_zero = [0, 0], ke_zero = [0, 0], opt_kernel_rotate = False, pad_mode = 0, pad = [0, 0, 0, 0], round_mode = 0, shift = 0}: (memref<1x2048x7x7xf16, strides: [2048, 64, 7, 1]>, memref<1x2048x1x1xf16, strides: [32, 1, 1, 1]>, memref<1x2048x1x1xf16, strides: [32, 1, 1, 1]>, f16, none) -> (memref<1x2048x7x7xf16, strides: [2048, 64, 7, 1]>, none)
CHECK:          %L30.0x6980093000, %D144C0 = "dma.tensor"(%R0, %B96C0) : (memref<1x2048x7x7xi16, strides: [2048, 64, 7, 1]>, none) -> (memref<1x2048x7x7xi16, strides: [100352, 49, 7, 1]>, none)
CHECK:          %L30.0x69800c4000, %D145C0 = "dma.tensor"(%R3, %B97C0) : (memref<1x2048x7x7xi16, strides: [2048, 64, 7, 1]>, none) -> (memref<1x2048x7x7xi16, strides: [100352, 49, 7, 1]>, none)
CHECK:          %B98C0, %msg48 = "system.send_msg"(%D145C0) {msg_id = 48, cnt = 32, status = Status.PRODUCING}
CHECK:          %D146C0, %msg48 = "dma.sys.sys_send"(%B98C0) {msg_id = 48, cnt = 32, status = Status.PRODUCING}
CHECK:        }
CHECK:        %D33C1, %msg48 = "@core_1"(%D31C1, %msg49) {
CHECK:          %B21C1 = "system.wait_msg"(%D31C1, %msg49) {msg_id = 49, cnt = 32, status = Status.RECIEVING}
CHECK:          %D32C1 = "dma.sys.sys_wait"(%B21C1, %msg49) {msg_id = 49, cnt = 32, status = Status.CONSUMED}
CHECK:          %B22C1, %msg48 = "system.send_msg"(%D32C1) {msg_id = 48, cnt = 32, status = Status.PRODUCING}
CHECK:          %D33C1, %msg48 = "dma.sys.sys_send"(%B22C1) {msg_id = 48, cnt = 32, status = Status.PRODUCING}
CHECK:        }
CHECK:        %D33C2, %msg48 = "@core_2"(%D31C2, %msg49) {
CHECK:          %B21C2 = "system.wait_msg"(%D31C2, %msg49) {msg_id = 49, cnt = 32, status = Status.RECIEVING}
CHECK:          %D32C2 = "dma.sys.sys_wait"(%B21C2, %msg49) {msg_id = 49, cnt = 32, status = Status.CONSUMED}
CHECK:          %B22C2, %msg48 = "system.send_msg"(%D32C2) {msg_id = 48, cnt = 32, status = Status.PRODUCING}
CHECK:          %D33C2, %msg48 = "dma.sys.sys_send"(%B22C2) {msg_id = 48, cnt = 32, status = Status.PRODUCING}
CHECK:        }
CHECK:        %D33C3, %msg48 = "@core_3"(%D31C3, %msg49) {
CHECK:          %B21C3 = "system.wait_msg"(%D31C3, %msg49) {msg_id = 49, cnt = 32, status = Status.RECIEVING}
CHECK:          %D32C3 = "dma.sys.sys_wait"(%B21C3, %msg49) {msg_id = 49, cnt = 32, status = Status.CONSUMED}
CHECK:          %B22C3, %msg48 = "system.send_msg"(%D32C3) {msg_id = 48, cnt = 32, status = Status.PRODUCING}
CHECK:          %D33C3, %msg48 = "dma.sys.sys_send"(%B22C3) {msg_id = 48, cnt = 32, status = Status.PRODUCING}
CHECK:        }
CHECK:        %D33C4, %msg48 = "@core_4"(%D31C4, %msg49) {
CHECK:          %B21C4 = "system.wait_msg"(%D31C4, %msg49) {msg_id = 49, cnt = 32, status = Status.RECIEVING}
CHECK:          %D32C4 = "dma.sys.sys_wait"(%B21C4, %msg49) {msg_id = 49, cnt = 32, status = Status.CONSUMED}
CHECK:          %B22C4, %msg48 = "system.send_msg"(%D32C4) {msg_id = 48, cnt = 32, status = Status.PRODUCING}
CHECK:          %D33C4, %msg48 = "dma.sys.sys_send"(%B22C4) {msg_id = 48, cnt = 32, status = Status.PRODUCING}
CHECK:        }
CHECK:        %D33C5, %msg48 = "@core_5"(%D31C5, %msg49) {
CHECK:          %B21C5 = "system.wait_msg"(%D31C5, %msg49) {msg_id = 49, cnt = 32, status = Status.RECIEVING}
CHECK:          %D32C5 = "dma.sys.sys_wait"(%B21C5, %msg49) {msg_id = 49, cnt = 32, status = Status.CONSUMED}
CHECK:          %B22C5, %msg48 = "system.send_msg"(%D32C5) {msg_id = 48, cnt = 32, status = Status.PRODUCING}
CHECK:          %D33C5, %msg48 = "dma.sys.sys_send"(%B22C5) {msg_id = 48, cnt = 32, status = Status.PRODUCING}
CHECK:        }
CHECK:        %D31C6, %msg48 = "@core_6"(%D29C6, %msg49) {
CHECK:          %B20C6 = "system.wait_msg"(%D29C6, %msg49) {msg_id = 49, cnt = 32, status = Status.RECIEVING}
CHECK:          %D30C6 = "dma.sys.sys_wait"(%B20C6, %msg49) {msg_id = 49, cnt = 32, status = Status.CONSUMED}
CHECK:          %B21C6, %msg48 = "system.send_msg"(%D30C6) {msg_id = 48, cnt = 32, status = Status.PRODUCING}
CHECK:          %D31C6, %msg48 = "dma.sys.sys_send"(%B21C6) {msg_id = 48, cnt = 32, status = Status.PRODUCING}
CHECK:        }
CHECK:        %D31C7, %msg48 = "@core_7"(%D29C7, %msg49) {
CHECK:          %B20C7 = "system.wait_msg"(%D29C7, %msg49) {msg_id = 49, cnt = 32, status = Status.RECIEVING}
CHECK:          %D30C7 = "dma.sys.sys_wait"(%B20C7, %msg49) {msg_id = 49, cnt = 32, status = Status.CONSUMED}
CHECK:          %B21C7, %msg48 = "system.send_msg"(%D30C7) {msg_id = 48, cnt = 32, status = Status.PRODUCING}
CHECK:          %D31C7, %msg48 = "dma.sys.sys_send"(%B21C7) {msg_id = 48, cnt = 32, status = Status.PRODUCING}
CHECK:        }
CHECK:        %D152C0, %msg49 = "@core_0"(%D146C0, %msg48) {
CHECK:          %B99C0 = "system.wait_msg"(%D146C0, %msg48) {msg_id = 48, cnt = 32, status = Status.RECIEVING}
CHECK:          %D147C0 = "dma.sys.sys_wait"(%B99C0, %msg48) {msg_id = 48, cnt = 32, status = Status.CONSUMED}
CHECK:          %R0, %D148C0 = "dma.tensor"(%G1.0x1c27000, %B99C0) : (memref<1x64x64x32xf16, strides: [1048576, 2048, 32, 1]>, none) -> (memref<1x64x64x32xf16, strides: [2048, 2048, 32, 1]>, none)
CHECK:          %R0.0x1000, %D149C0 = "dma.tensor"(%G1.0x1c26000, %B99C0) : (memref<1x64x1x1xf32, strides: [64, 1, 1, 1]>, none) -> (memref<1x64x1x1xf32, strides: [1, 1, 1, 1]>, none)
CHECK:          %R1, %D150C0 = "dma.tensor"(%L30.0x69800c4000, %B99C0) : (memref<1x2048x7x7xf16, strides: [100352, 49, 7, 1]>, none) -> (memref<1x2048x7x7xf16, strides: [2048, 64, 7, 1]>, none)
CHECK:          %R3, %B100C0 = "conv.normal"(%R1, %R0, %R0.0x1000, %C0.0, %D150C0) {kernel = [1, 1], stride = [1, 1], in_zero = [0, 0], ke_zero = [0, 0], opt_kernel_rotate = False, pad_mode = 0, pad = [0, 0, 0, 0], opt_res_add = False, do_relu = True, sym_range = False, do_rq = False, round_mode = 0}: (memref<1x2048x7x7xf16, strides: [2048, 64, 7, 1]>, memref<64x2048x1x1xf16>, memref<1x64x1x1xui32, strides: [1, 1, 1, 1]>, f16, none) -> (memref<1x64x7x7xf16, strides: [64, 64, 7, 1]>, none)
CHECK:          %L30.0x6980000000, %D151C0 = "dma.tensor"(%R3, %B100C0) : (memref<1x64x7x7xf16, strides: [64, 64, 7, 1]>, none) -> (memref<1x64x7x7xf16, strides: [25088, 49, 7, 1]>, none)
CHECK:          %B101C0, %msg49 = "system.send_msg"(%D151C0) {msg_id = 49, cnt = 32, status = Status.PRODUCING}
CHECK:          %D152C0, %msg49 = "dma.sys.sys_send"(%B101C0) {msg_id = 49, cnt = 32, status = Status.PRODUCING}
CHECK:        }
CHECK:        %D39C1, %msg49 = "@core_1"(%D33C1, %msg48) {
CHECK:          %B23C1 = "system.wait_msg"(%D33C1, %msg48) {msg_id = 48, cnt = 32, status = Status.RECIEVING}
CHECK:          %D34C1 = "dma.sys.sys_wait"(%B23C1, %msg48) {msg_id = 48, cnt = 32, status = Status.CONSUMED}
CHECK:          %R0, %D35C1 = "dma.tensor"(%G1.0x1c67000, %B23C1) : (memref<1x64x64x32xf16, strides: [1048576, 2048, 32, 1]>, none) -> (memref<1x64x64x32xf16, strides: [2048, 2048, 32, 1]>, none)
CHECK:          %R0.0x1000, %D36C1 = "dma.tensor"(%G1.0x1c26100, %B23C1) : (memref<1x64x1x1xf32, strides: [64, 1, 1, 1]>, none) -> (memref<1x64x1x1xf32, strides: [1, 1, 1, 1]>, none)
CHECK:          %R1, %D37C1 = "dma.tensor"(%L30.0x69800c4000, %B23C1) : (memref<1x2048x7x7xf16, strides: [100352, 49, 7, 1]>, none) -> (memref<1x2048x7x7xf16, strides: [2048, 64, 7, 1]>, none)
CHECK:          %R3, %B24C1 = "conv.normal"(%R1, %R0, %R0.0x1000, %C0.0, %D37C1) {kernel = [1, 1], stride = [1, 1], in_zero = [0, 0], ke_zero = [0, 0], opt_kernel_rotate = False, pad_mode = 0, pad = [0, 0, 0, 0], opt_res_add = False, do_relu = True, sym_range = False, do_rq = False, round_mode = 0}: (memref<1x2048x7x7xf16, strides: [2048, 64, 7, 1]>, memref<64x2048x1x1xf16>, memref<1x64x1x1xui32, strides: [1, 1, 1, 1]>, f16, none) -> (memref<1x64x7x7xf16, strides: [64, 64, 7, 1]>, none)
CHECK:          %L30.0x6980001880, %D38C1 = "dma.tensor"(%R3, %B24C1) : (memref<1x64x7x7xf16, strides: [64, 64, 7, 1]>, none) -> (memref<1x64x7x7xf16, strides: [25088, 49, 7, 1]>, none)
CHECK:          %B25C1, %msg49 = "system.send_msg"(%D38C1) {msg_id = 49, cnt = 32, status = Status.PRODUCING}
CHECK:          %D39C1, %msg49 = "dma.sys.sys_send"(%B25C1) {msg_id = 49, cnt = 32, status = Status.PRODUCING}
CHECK:        }
CHECK:        %D39C2, %msg49 = "@core_2"(%D33C2, %msg48) {
CHECK:          %B23C2 = "system.wait_msg"(%D33C2, %msg48) {msg_id = 48, cnt = 32, status = Status.RECIEVING}
CHECK:          %D34C2 = "dma.sys.sys_wait"(%B23C2, %msg48) {msg_id = 48, cnt = 32, status = Status.CONSUMED}
CHECK:          %R0, %D35C2 = "dma.tensor"(%G1.0x1ca7000, %B23C2) : (memref<1x64x64x32xf16, strides: [1048576, 2048, 32, 1]>, none) -> (memref<1x64x64x32xf16, strides: [2048, 2048, 32, 1]>, none)
CHECK:          %R0.0x1000, %D36C2 = "dma.tensor"(%G1.0x1c26200, %B23C2) : (memref<1x64x1x1xf32, strides: [64, 1, 1, 1]>, none) -> (memref<1x64x1x1xf32, strides: [1, 1, 1, 1]>, none)
CHECK:          %R1, %D37C2 = "dma.tensor"(%L30.0x69800c4000, %B23C2) : (memref<1x2048x7x7xf16, strides: [100352, 49, 7, 1]>, none) -> (memref<1x2048x7x7xf16, strides: [2048, 64, 7, 1]>, none)
CHECK:          %R3, %B24C2 = "conv.normal"(%R1, %R0, %R0.0x1000, %C0.0, %D37C2) {kernel = [1, 1], stride = [1, 1], in_zero = [0, 0], ke_zero = [0, 0], opt_kernel_rotate = False, pad_mode = 0, pad = [0, 0, 0, 0], opt_res_add = False, do_relu = True, sym_range = False, do_rq = False, round_mode = 0}: (memref<1x2048x7x7xf16, strides: [2048, 64, 7, 1]>, memref<64x2048x1x1xf16>, memref<1x64x1x1xui32, strides: [1, 1, 1, 1]>, f16, none) -> (memref<1x64x7x7xf16, strides: [64, 64, 7, 1]>, none)
CHECK:          %L30.0x6980003100, %D38C2 = "dma.tensor"(%R3, %B24C2) : (memref<1x64x7x7xf16, strides: [64, 64, 7, 1]>, none) -> (memref<1x64x7x7xf16, strides: [25088, 49, 7, 1]>, none)
CHECK:          %B25C2, %msg49 = "system.send_msg"(%D38C2) {msg_id = 49, cnt = 32, status = Status.PRODUCING}
CHECK:          %D39C2, %msg49 = "dma.sys.sys_send"(%B25C2) {msg_id = 49, cnt = 32, status = Status.PRODUCING}
CHECK:        }
CHECK:        %D39C3, %msg49 = "@core_3"(%D33C3, %msg48) {
CHECK:          %B23C3 = "system.wait_msg"(%D33C3, %msg48) {msg_id = 48, cnt = 32, status = Status.RECIEVING}
CHECK:          %D34C3 = "dma.sys.sys_wait"(%B23C3, %msg48) {msg_id = 48, cnt = 32, status = Status.CONSUMED}
CHECK:          %R0, %D35C3 = "dma.tensor"(%G1.0x1ce7000, %B23C3) : (memref<1x64x64x32xf16, strides: [1048576, 2048, 32, 1]>, none) -> (memref<1x64x64x32xf16, strides: [2048, 2048, 32, 1]>, none)
CHECK:          %R0.0x1000, %D36C3 = "dma.tensor"(%G1.0x1c26300, %B23C3) : (memref<1x64x1x1xf32, strides: [64, 1, 1, 1]>, none) -> (memref<1x64x1x1xf32, strides: [1, 1, 1, 1]>, none)
CHECK:          %R1, %D37C3 = "dma.tensor"(%L30.0x69800c4000, %B23C3) : (memref<1x2048x7x7xf16, strides: [100352, 49, 7, 1]>, none) -> (memref<1x2048x7x7xf16, strides: [2048, 64, 7, 1]>, none)
CHECK:          %R3, %B24C3 = "conv.normal"(%R1, %R0, %R0.0x1000, %C0.0, %D37C3) {kernel = [1, 1], stride = [1, 1], in_zero = [0, 0], ke_zero = [0, 0], opt_kernel_rotate = False, pad_mode = 0, pad = [0, 0, 0, 0], opt_res_add = False, do_relu = True, sym_range = False, do_rq = False, round_mode = 0}: (memref<1x2048x7x7xf16, strides: [2048, 64, 7, 1]>, memref<64x2048x1x1xf16>, memref<1x64x1x1xui32, strides: [1, 1, 1, 1]>, f16, none) -> (memref<1x64x7x7xf16, strides: [64, 64, 7, 1]>, none)
CHECK:          %L30.0x6980004980, %D38C3 = "dma.tensor"(%R3, %B24C3) : (memref<1x64x7x7xf16, strides: [64, 64, 7, 1]>, none) -> (memref<1x64x7x7xf16, strides: [25088, 49, 7, 1]>, none)
CHECK:          %B25C3, %msg49 = "system.send_msg"(%D38C3) {msg_id = 49, cnt = 32, status = Status.PRODUCING}
CHECK:          %D39C3, %msg49 = "dma.sys.sys_send"(%B25C3) {msg_id = 49, cnt = 32, status = Status.PRODUCING}
CHECK:        }
CHECK:        %D39C4, %msg49 = "@core_4"(%D33C4, %msg48) {
CHECK:          %B23C4 = "system.wait_msg"(%D33C4, %msg48) {msg_id = 48, cnt = 32, status = Status.RECIEVING}
CHECK:          %D34C4 = "dma.sys.sys_wait"(%B23C4, %msg48) {msg_id = 48, cnt = 32, status = Status.CONSUMED}
CHECK:          %R0, %D35C4 = "dma.tensor"(%G1.0x1d27000, %B23C4) : (memref<1x64x64x32xf16, strides: [1048576, 2048, 32, 1]>, none) -> (memref<1x64x64x32xf16, strides: [2048, 2048, 32, 1]>, none)
CHECK:          %R0.0x1000, %D36C4 = "dma.tensor"(%G1.0x1c26400, %B23C4) : (memref<1x64x1x1xf32, strides: [64, 1, 1, 1]>, none) -> (memref<1x64x1x1xf32, strides: [1, 1, 1, 1]>, none)
CHECK:          %R1, %D37C4 = "dma.tensor"(%L30.0x69800c4000, %B23C4) : (memref<1x2048x7x7xf16, strides: [100352, 49, 7, 1]>, none) -> (memref<1x2048x7x7xf16, strides: [2048, 64, 7, 1]>, none)
…
CHECK:          %R1.0x1000, %B141C0 = "pord.avgpooling"(%R3, %C0.020408162847161293, %C0.0, %D213C0) {kernel = [1, 16], stride = [1, 1], in_zero = [0, 0], ke_zero = [0, 0], opt_kernel_rotate = False, pad_mode = 0, pad = [0, 0, 0, 0], round_mode = 0, shift = 0}: (memref<1x2048x1x16xf32, strides: [512, 16, 16, 1]>, f32, f32, none) -> (memref<1x2048x1x1xf32, strides: [512, 16, 1, 1]>, none)
CHECK:          %R0.0x2000, %B142C0 = "arith.copy"(%R1.0x1000, %D213C0) {round_mode = 0}: (memref<1x2048x1x1xf32, strides: [512, 16, 1, 1]>, none) -> (memref<1x2048x1x1xf32, strides: [512, 16, 1, 1]>, none)
CHECK:          %R2, %B143C0 = "arith.cast"(%R0.0x2000, %D213C0) {round_mode = 1}: (memref<1x2048x1x1xf32, strides: [512, 16, 1, 1]>, none) -> (memref<1x2048x1x1xf16, strides: [1024, 32, 1, 1]>, none)
CHECK:          %L30.0x6980062000, %D214C0 = "dma.tensor"(%R2, %B143C0) : (memref<1x2048x1x1xi16, strides: [1024, 32, 1, 1]>, none) -> (memref<1x2048x1x1xi16, strides: [2048, 1, 1, 1]>, none)
CHECK:          %R0, %D215C0 = "dma.matrix"(%L30.0x6980062000, %B143C0) : (memref<1x1x1x64xf16, strides: [0, 0, 2048, 1]>, none) -> (memref<1x64xf16, strides: [32, 32, 0, 1]>, none)
CHECK:          %R4, %D216C0 = "dma.matrix"(%G1.0x2d2e000, %B143C0) : (memref<1x1x64x1000xf16, strides: [0, 0, 1000, 1]>, none) -> (memref<64x1000xf16, strides: [128, 128, 0, 1]>, none)
CHECK:          %R12, %B144C0 = "arith.cast"(%R0, %D216C0) {round_mode = 0}: (memref<1x2x1x32xf16, strides: [32, 32, 32, 1]>, none) -> (memref<1x2x1x32xf32, strides: [32, 32, 32, 1]>, none)
CHECK:          %R14, %B145C0 = "arith.cast"(%R4, %D216C0) {round_mode = 0}: (memref<64x8x1x128xf16, strides: [128, 128, 128, 1]>, none) -> (memref<64x8x1x128xf32, strides: [128, 128, 128, 1]>, none)
CHECK:          %R10, %B146C0 = "mm.normal"(%R12, %R14, %C0.0, %D216C0) {l_trans = False, res_add = False, do_relu = False, sym_range = False, do_rq = False, round_mode = 0, multiplier = 0, shift = 0, yzp = 0}: (memref<1x64xf32>, memref<64x1024xf32>, f32, none) -> (memref<1x1024xf32>, none)
CHECK:          %R2, %D217C0 = "dma.matrix"(%L30.0x6980062080, %B143C0) : (memref<1x1x1x64xf16, strides: [0, 0, 2048, 1]>, none) -> (memref<1x64xf16, strides: [32, 32, 0, 1]>, none)
CHECK:          %R6, %D218C0 = "dma.matrix"(%G1.0x2d4d400, %B143C0) : (memref<1x1x64x1000xf16, strides: [0, 0, 1000, 1]>, none) -> (memref<64x1000xf16, strides: [128, 128, 0, 1]>, none)
CHECK:          %R12, %B147C0 = "arith.cast"(%R2, %D218C0) {round_mode = 0}: (memref<1x2x1x32xf16, strides: [32, 32, 32, 1]>, none) -> (memref<1x2x1x32xf32, strides: [32, 32, 32, 1]>, none)
CHECK:          %R14, %B148C0 = "arith.cast"(%R6, %D218C0) {round_mode = 0}: (memref<64x8x1x128xf16, strides: [128, 128, 128, 1]>, none) -> (memref<64x8x1x128xf32, strides: [128, 128, 128, 1]>, none)
CHECK:          %R10, %B149C0 = "mm.normal"(%R12, %R14, %C0.0, %D218C0) {l_trans = False, res_add = True, do_relu = False, sym_range = False, do_rq = False, round_mode = 0, multiplier = 0, shift = 0, yzp = 0}: (memref<1x64xf32>, memref<64x1024xf32>, f32, none) -> (memref<1x1024xf32>, none)
CHECK:          %R0, %D219C0 = "dma.matrix"(%L30.0x6980062100, %B146C0) : (memref<1x1x1x64xf16, strides: [0, 0, 2048, 1]>, none) -> (memref<1x64xf16, strides: [32, 32, 0, 1]>, none)
CHECK:          %R4, %D220C0 = "dma.matrix"(%G1.0x2d6c800, %B146C0) : (memref<1x1x64x1000xf16, strides: [0, 0, 1000, 1]>, none) -> (memref<64x1000xf16, strides: [128, 128, 0, 1]>, none)
CHECK:          %R12, %B150C0 = "arith.cast"(%R0, %D220C0) {round_mode = 0}: (memref<1x2x1x32xf16, strides: [32, 32, 32, 1]>, none) -> (memref<1x2x1x32xf32, strides: [32, 32, 32, 1]>, none)
CHECK:          %R14, %B151C0 = "arith.cast"(%R4, %D220C0) {round_mode = 0}: (memref<64x8x1x128xf16, strides: [128, 128, 128, 1]>, none) -> (memref<64x8x1x128xf32, strides: [128, 128, 128, 1]>, none)
CHECK:          %R10, %B152C0 = "mm.normal"(%R12, %R14, %C0.0, %D220C0) {l_trans = False, res_add = True, do_relu = False, sym_range = False, do_rq = False, round_mode = 0, multiplier = 0, shift = 0, yzp = 0}: (memref<1x64xf32>, memref<64x1024xf32>, f32, none) -> (memref<1x1024xf32>, none)
CHECK:          %R2, %D221C0 = "dma.matrix"(%L30.0x6980062180, %B149C0) : (memref<1x1x1x64xf16, strides: [0, 0, 2048, 1]>, none) -> (memref<1x64xf16, strides: [32, 32, 0, 1]>, none)
CHECK:          %R6, %D222C0 = "dma.matrix"(%G1.0x2d8bc00, %B149C0) : (memref<1x1x64x1000xf16, strides: [0, 0, 1000, 1]>, none) -> (memref<64x1000xf16, strides: [128, 128, 0, 1]>, none)
CHECK:          %R12, %B153C0 = "arith.cast"(%R2, %D222C0) {round_mode = 0}: (memref<1x2x1x32xf16, strides: [32, 32, 32, 1]>, none) -> (memref<1x2x1x32xf32, strides: [32, 32, 32, 1]>, none)
CHECK:          %R14, %B154C0 = "arith.cast"(%R6, %D222C0) {round_mode = 0}: (memref<64x8x1x128xf16, strides: [128, 128, 128, 1]>, none) -> (memref<64x8x1x128xf32, strides: [128, 128, 128, 1]>, none)
CHECK:          %R10, %B155C0 = "mm.normal"(%R12, %R14, %C0.0, %D222C0) {l_trans = False, res_add = True, do_relu = False, sym_range = False, do_rq = False, round_mode = 0, multiplier = 0, shift = 0, yzp = 0}: (memref<1x64xf32>, memref<64x1024xf32>, f32, none) -> (memref<1x1024xf32>, none)
CHECK:          %R0, %D223C0 = "dma.matrix"(%L30.0x6980062200, %B152C0) : (memref<1x1x1x64xf16, strides: [0, 0, 2048, 1]>, none) -> (memref<1x64xf16, strides: [32, 32, 0, 1]>, none)
CHECK:          %R4, %D224C0 = "dma.matrix"(%G1.0x2dab000, %B152C0) : (memref<1x1x64x1000xf16, strides: [0, 0, 1000, 1]>, none) -> (memref<64x1000xf16, strides: [128, 128, 0, 1]>, none)
CHECK:          %R12, %B156C0 = "arith.cast"(%R0, %D224C0) {round_mode = 0}: (memref<1x2x1x32xf16, strides: [32, 32, 32, 1]>, none) -> (memref<1x2x1x32xf32, strides: [32, 32, 32, 1]>, none)
CHECK:          %R14, %B157C0 = "arith.cast"(%R4, %D224C0) {round_mode = 0}: (memref<64x8x1x128xf16, strides: [128, 128, 128, 1]>, none) -> (memref<64x8x1x128xf32, strides: [128, 128, 128, 1]>, none)
CHECK:          %R10, %B158C0 = "mm.normal"(%R12, %R14, %C0.0, %D224C0) {l_trans = False, res_add = True, do_relu = False, sym_range = False, do_rq = False, round_mode = 0, multiplier = 0, shift = 0, yzp = 0}: (memref<1x64xf32>, memref<64x1024xf32>, f32, none) -> (memref<1x1024xf32>, none)
CHECK:          %R2, %D225C0 = "dma.matrix"(%L30.0x6980062280, %B155C0) : (memref<1x1x1x64xf16, strides: [0, 0, 2048, 1]>, none) -> (memref<1x64xf16, strides: [32, 32, 0, 1]>, none)
CHECK:          %R6, %D226C0 = "dma.matrix"(%G1.0x2dca400, %B155C0) : (memref<1x1x64x1000xf16, strides: [0, 0, 1000, 1]>, none) -> (memref<64x1000xf16, strides: [128, 128, 0, 1]>, none)
CHECK:          %R12, %B159C0 = "arith.cast"(%R2, %D226C0) {round_mode = 0}: (memref<1x2x1x32xf16, strides: [32, 32, 32, 1]>, none) -> (memref<1x2x1x32xf32, strides: [32, 32, 32, 1]>, none)
CHECK:          %R14, %B160C0 = "arith.cast"(%R6, %D226C0) {round_mode = 0}: (memref<64x8x1x128xf16, strides: [128, 128, 128, 1]>, none) -> (memref<64x8x1x128xf32, strides: [128, 128, 128, 1]>, none)
CHECK:          %R10, %B161C0 = "mm.normal"(%R12, %R14, %C0.0, %D226C0) {l_trans = False, res_add = True, do_relu = False, sym_range = False, do_rq = False, round_mode = 0, multiplier = 0, shift = 0, yzp = 0}: (memref<1x64xf32>, memref<64x1024xf32>, f32, none) -> (memref<1x1024xf32>, none)
CHECK:          %R0, %D227C0 = "dma.matrix"(%L30.0x6980062300, %B158C0) : (memref<1x1x1x64xf16, strides: [0, 0, 2048, 1]>, none) -> (memref<1x64xf16, strides: [32, 32, 0, 1]>, none)
CHECK:          %R4, %D228C0 = "dma.matrix"(%G1.0x2de9800, %B158C0) : (memref<1x1x64x1000xf16, strides: [0, 0, 1000, 1]>, none) -> (memref<64x1000xf16, strides: [128, 128, 0, 1]>, none)
CHECK:          %R12, %B162C0 = "arith.cast"(%R0, %D228C0) {round_mode = 0}: (memref<1x2x1x32xf16, strides: [32, 32, 32, 1]>, none) -> (memref<1x2x1x32xf32, strides: [32, 32, 32, 1]>, none)
CHECK:          %R14, %B163C0 = "arith.cast"(%R4, %D228C0) {round_mode = 0}: (memref<64x8x1x128xf16, strides: [128, 128, 128, 1]>, none) -> (memref<64x8x1x128xf32, strides: [128, 128, 128, 1]>, none)
CHECK:          %R10, %B164C0 = "mm.normal"(%R12, %R14, %C0.0, %D228C0) {l_trans = False, res_add = True, do_relu = False, sym_range = False, do_rq = False, round_mode = 0, multiplier = 0, shift = 0, yzp = 0}: (memref<1x64xf32>, memref<64x1024xf32>, f32, none) -> (memref<1x1024xf32>, none)
CHECK:          %R2, %D229C0 = "dma.matrix"(%L30.0x6980062380, %B161C0) : (memref<1x1x1x64xf16, strides: [0, 0, 2048, 1]>, none) -> (memref<1x64xf16, strides: [32, 32, 0, 1]>, none)
CHECK:          %R6, %D230C0 = "dma.matrix"(%G1.0x2e08c00, %B161C0) : (memref<1x1x64x1000xf16, strides: [0, 0, 1000, 1]>, none) -> (memref<64x1000xf16, strides: [128, 128, 0, 1]>, none)
CHECK:          %R12, %B165C0 = "arith.cast"(%R2, %D230C0) {round_mode = 0}: (memref<1x2x1x32xf16, strides: [32, 32, 32, 1]>, none) -> (memref<1x2x1x32xf32, strides: [32, 32, 32, 1]>, none)
CHECK:          %R14, %B166C0 = "arith.cast"(%R6, %D230C0) {round_mode = 0}: (memref<64x8x1x128xf16, strides: [128, 128, 128, 1]>, none) -> (memref<64x8x1x128xf32, strides: [128, 128, 128, 1]>, none)
CHECK:          %R10, %B167C0 = "mm.normal"(%R12, %R14, %C0.0, %D230C0) {l_trans = False, res_add = True, do_relu = False, sym_range = False, do_rq = False, round_mode = 0, multiplier = 0, shift = 0, yzp = 0}: (memref<1x64xf32>, memref<64x1024xf32>, f32, none) -> (memref<1x1024xf32>, none)
CHECK:          %R0, %D231C0 = "dma.matrix"(%L30.0x6980062400, %B164C0) : (memref<1x1x1x64xf16, strides: [0, 0, 2048, 1]>, none) -> (memref<1x64xf16, strides: [32, 32, 0, 1]>, none)
CHECK:          %R4, %D232C0 = "dma.matrix"(%G1.0x2e28000, %B164C0) : (memref<1x1x64x1000xf16, strides: [0, 0, 1000, 1]>, none) -> (memref<64x1000xf16, strides: [128, 128, 0, 1]>, none)
CHECK:          %R12, %B168C0 = "arith.cast"(%R0, %D232C0) {round_mode = 0}: (memref<1x2x1x32xf16, strides: [32, 32, 32, 1]>, none) -> (memref<1x2x1x32xf32, strides: [32, 32, 32, 1]>, none)
CHECK:          %R14, %B169C0 = "arith.cast"(%R4, %D232C0) {round_mode = 0}: (memref<64x8x1x128xf16, strides: [128, 128, 128, 1]>, none) -> (memref<64x8x1x128xf32, strides: [128, 128, 128, 1]>, none)
CHECK:          %R10, %B170C0 = "mm.normal"(%R12, %R14, %C0.0, %D232C0) {l_trans = False, res_add = True, do_relu = False, sym_range = False, do_rq = False, round_mode = 0, multiplier = 0, shift = 0, yzp = 0}: (memref<1x64xf32>, memref<64x1024xf32>, f32, none) -> (memref<1x1024xf32>, none)
CHECK:          %R2, %D233C0 = "dma.matrix"(%L30.0x6980062480, %B167C0) : (memref<1x1x1x64xf16, strides: [0, 0, 2048, 1]>, none) -> (memref<1x64xf16, strides: [32, 32, 0, 1]>, none)
CHECK:          %R6, %D234C0 = "dma.matrix"(%G1.0x2e47400, %B167C0) : (memref<1x1x64x1000xf16, strides: [0, 0, 1000, 1]>, none) -> (memref<64x1000xf16, strides: [128, 128, 0, 1]>, none)
CHECK:          %R12, %B171C0 = "arith.cast"(%R2, %D234C0) {round_mode = 0}: (memref<1x2x1x32xf16, strides: [32, 32, 32, 1]>, none) -> (memref<1x2x1x32xf32, strides: [32, 32, 32, 1]>, none)
CHECK:          %R14, %B172C0 = "arith.cast"(%R6, %D234C0) {round_mode = 0}: (memref<64x8x1x128xf16, strides: [128, 128, 128, 1]>, none) -> (memref<64x8x1x128xf32, strides: [128, 128, 128, 1]>, none)
CHECK:          %R10, %B173C0 = "mm.normal"(%R12, %R14, %C0.0, %D234C0) {l_trans = False, res_add = True, do_relu = False, sym_range = False, do_rq = False, round_mode = 0, multiplier = 0, shift = 0, yzp = 0}: (memref<1x64xf32>, memref<64x1024xf32>, f32, none) -> (memref<1x1024xf32>, none)
CHECK:          %R0, %D235C0 = "dma.matrix"(%L30.0x6980062500, %B170C0) : (memref<1x1x1x64xf16, strides: [0, 0, 2048, 1]>, none) -> (memref<1x64xf16, strides: [32, 32, 0, 1]>, none)
CHECK:          %R4, %D236C0 = "dma.matrix"(%G1.0x2e66800, %B170C0) : (memref<1x1x64x1000xf16, strides: [0, 0, 1000, 1]>, none) -> (memref<64x1000xf16, strides: [128, 128, 0, 1]>, none)
CHECK:          %R12, %B174C0 = "arith.cast"(%R0, %D236C0) {round_mode = 0}: (memref<1x2x1x32xf16, strides: [32, 32, 32, 1]>, none) -> (memref<1x2x1x32xf32, strides: [32, 32, 32, 1]>, none)
CHECK:          %R14, %B175C0 = "arith.cast"(%R4, %D236C0) {round_mode = 0}: (memref<64x8x1x128xf16, strides: [128, 128, 128, 1]>, none) -> (memref<64x8x1x128xf32, strides: [128, 128, 128, 1]>, none)
CHECK:          %R10, %B176C0 = "mm.normal"(%R12, %R14, %C0.0, %D236C0) {l_trans = False, res_add = True, do_relu = False, sym_range = False, do_rq = False, round_mode = 0, multiplier = 0, shift = 0, yzp = 0}: (memref<1x64xf32>, memref<64x1024xf32>, f32, none) -> (memref<1x1024xf32>, none)
CHECK:          %R2, %D237C0 = "dma.matrix"(%L30.0x6980062580, %B173C0) : (memref<1x1x1x64xf16, strides: [0, 0, 2048, 1]>, none) -> (memref<1x64xf16, strides: [32, 32, 0, 1]>, none)
CHECK:          %R6, %D238C0 = "dma.matrix"(%G1.0x2e85c00, %B173C0) : (memref<1x1x64x1000xf16, strides: [0, 0, 1000, 1]>, none) -> (memref<64x1000xf16, strides: [128, 128, 0, 1]>, none)
CHECK:          %R12, %B177C0 = "arith.cast"(%R2, %D238C0) {round_mode = 0}: (memref<1x2x1x32xf16, strides: [32, 32, 32, 1]>, none) -> (memref<1x2x1x32xf32, strides: [32, 32, 32, 1]>, none)
CHECK:          %R14, %B178C0 = "arith.cast"(%R6, %D238C0) {round_mode = 0}: (memref<64x8x1x128xf16, strides: [128, 128, 128, 1]>, none) -> (memref<64x8x1x128xf32, strides: [128, 128, 128, 1]>, none)
CHECK:          %R10, %B179C0 = "mm.normal"(%R12, %R14, %C0.0, %D238C0) {l_trans = False, res_add = True, do_relu = False, sym_range = False, do_rq = False, round_mode = 0, multiplier = 0, shift = 0, yzp = 0}: (memref<1x64xf32>, memref<64x1024xf32>, f32, none) -> (memref<1x1024xf32>, none)
CHECK:          %R0, %D239C0 = "dma.matrix"(%L30.0x6980062600, %B176C0) : (memref<1x1x1x64xf16, strides: [0, 0, 2048, 1]>, none) -> (memref<1x64xf16, strides: [32, 32, 0, 1]>, none)
CHECK:          %R4, %D240C0 = "dma.matrix"(%G1.0x2ea5000, %B176C0) : (memref<1x1x64x1000xf16, strides: [0, 0, 1000, 1]>, none) -> (memref<64x1000xf16, strides: [128, 128, 0, 1]>, none)
CHECK:          %R12, %B180C0 = "arith.cast"(%R0, %D240C0) {round_mode = 0}: (memref<1x2x1x32xf16, strides: [32, 32, 32, 1]>, none) -> (memref<1x2x1x32xf32, strides: [32, 32, 32, 1]>, none)
CHECK:          %R14, %B181C0 = "arith.cast"(%R4, %D240C0) {round_mode = 0}: (memref<64x8x1x128xf16, strides: [128, 128, 128, 1]>, none) -> (memref<64x8x1x128xf32, strides: [128, 128, 128, 1]>, none)
CHECK:          %R10, %B182C0 = "mm.normal"(%R12, %R14, %C0.0, %D240C0) {l_trans = False, res_add = True, do_relu = False, sym_range = False, do_rq = False, round_mode = 0, multiplier = 0, shift = 0, yzp = 0}: (memref<1x64xf32>, memref<64x1024xf32>, f32, none) -> (memref<1x1024xf32>, none)
CHECK:          %R2, %D241C0 = "dma.matrix"(%L30.0x6980062680, %B179C0) : (memref<1x1x1x64xf16, strides: [0, 0, 2048, 1]>, none) -> (memref<1x64xf16, strides: [32, 32, 0, 1]>, none)
CHECK:          %R6, %D242C0 = "dma.matrix"(%G1.0x2ec4400, %B179C0) : (memref<1x1x64x1000xf16, strides: [0, 0, 1000, 1]>, none) -> (memref<64x1000xf16, strides: [128, 128, 0, 1]>, none)
CHECK:          %R12, %B183C0 = "arith.cast"(%R2, %D242C0) {round_mode = 0}: (memref<1x2x1x32xf16, strides: [32, 32, 32, 1]>, none) -> (memref<1x2x1x32xf32, strides: [32, 32, 32, 1]>, none)
CHECK:          %R14, %B184C0 = "arith.cast"(%R6, %D242C0) {round_mode = 0}: (memref<64x8x1x128xf16, strides: [128, 128, 128, 1]>, none) -> (memref<64x8x1x128xf32, strides: [128, 128, 128, 1]>, none)
CHECK:          %R10, %B185C0 = "mm.normal"(%R12, %R14, %C0.0, %D242C0) {l_trans = False, res_add = True, do_relu = False, sym_range = False, do_rq = False, round_mode = 0, multiplier = 0, shift = 0, yzp = 0}: (memref<1x64xf32>, memref<64x1024xf32>, f32, none) -> (memref<1x1024xf32>, none)
CHECK:          %R0, %D243C0 = "dma.matrix"(%L30.0x6980062700, %B182C0) : (memref<1x1x1x64xf16, strides: [0, 0, 2048, 1]>, none) -> (memref<1x64xf16, strides: [32, 32, 0, 1]>, none)
CHECK:          %R4, %D244C0 = "dma.matrix"(%G1.0x2ee3800, %B182C0) : (memref<1x1x64x1000xf16, strides: [0, 0, 1000, 1]>, none) -> (memref<64x1000xf16, strides: [128, 128, 0, 1]>, none)
CHECK:          %R12, %B186C0 = "arith.cast"(%R0, %D244C0) {round_mode = 0}: (memref<1x2x1x32xf16, strides: [32, 32, 32, 1]>, none) -> (memref<1x2x1x32xf32, strides: [32, 32, 32, 1]>, none)
CHECK:          %R14, %B187C0 = "arith.cast"(%R4, %D244C0) {round_mode = 0}: (memref<64x8x1x128xf16, strides: [128, 128, 128, 1]>, none) -> (memref<64x8x1x128xf32, strides: [128, 128, 128, 1]>, none)
CHECK:          %R10, %B188C0 = "mm.normal"(%R12, %R14, %C0.0, %D244C0) {l_trans = False, res_add = True, do_relu = False, sym_range = False, do_rq = False, round_mode = 0, multiplier = 0, shift = 0, yzp = 0}: (memref<1x64xf32>, memref<64x1024xf32>, f32, none) -> (memref<1x1024xf32>, none)
CHECK:          %R2, %D245C0 = "dma.matrix"(%L30.0x6980062780, %B185C0) : (memref<1x1x1x64xf16, strides: [0, 0, 2048, 1]>, none) -> (memref<1x64xf16, strides: [32, 32, 0, 1]>, none)
CHECK:          %R6, %D246C0 = "dma.matrix"(%G1.0x2f02c00, %B185C0) : (memref<1x1x64x1000xf16, strides: [0, 0, 1000, 1]>, none) -> (memref<64x1000xf16, strides: [128, 128, 0, 1]>, none)
CHECK:          %R12, %B189C0 = "arith.cast"(%R2, %D246C0) {round_mode = 0}: (memref<1x2x1x32xf16, strides: [32, 32, 32, 1]>, none) -> (memref<1x2x1x32xf32, strides: [32, 32, 32, 1]>, none)
CHECK:          %R14, %B190C0 = "arith.cast"(%R6, %D246C0) {round_mode = 0}: (memref<64x8x1x128xf16, strides: [128, 128, 128, 1]>, none) -> (memref<64x8x1x128xf32, strides: [128, 128, 128, 1]>, none)
CHECK:          %R10, %B191C0 = "mm.normal"(%R12, %R14, %C0.0, %D246C0) {l_trans = False, res_add = True, do_relu = False, sym_range = False, do_rq = False, round_mode = 0, multiplier = 0, shift = 0, yzp = 0}: (memref<1x64xf32>, memref<64x1024xf32>, f32, none) -> (memref<1x1024xf32>, none)
CHECK:          %R0, %D247C0 = "dma.matrix"(%L30.0x6980062800, %B188C0) : (memref<1x1x1x64xf16, strides: [0, 0, 2048, 1]>, none) -> (memref<1x64xf16, strides: [32, 32, 0, 1]>, none)
CHECK:          %R4, %D248C0 = "dma.matrix"(%G1.0x2f22000, %B188C0) : (memref<1x1x64x1000xf16, strides: [0, 0, 1000, 1]>, none) -> (memref<64x1000xf16, strides: [128, 128, 0, 1]>, none)
CHECK:          %R12, %B192C0 = "arith.cast"(%R0, %D248C0) {round_mode = 0}: (memref<1x2x1x32xf16, strides: [32, 32, 32, 1]>, none) -> (memref<1x2x1x32xf32, strides: [32, 32, 32, 1]>, none)
CHECK:          %R14, %B193C0 = "arith.cast"(%R4, %D248C0) {round_mode = 0}: (memref<64x8x1x128xf16, strides: [128, 128, 128, 1]>, none) -> (memref<64x8x1x128xf32, strides: [128, 128, 128, 1]>, none)
CHECK:          %R10, %B194C0 = "mm.normal"(%R12, %R14, %C0.0, %D248C0) {l_trans = False, res_add = True, do_relu = False, sym_range = False, do_rq = False, round_mode = 0, multiplier = 0, shift = 0, yzp = 0}: (memref<1x64xf32>, memref<64x1024xf32>, f32, none) -> (memref<1x1024xf32>, none)
CHECK:          %R2, %D249C0 = "dma.matrix"(%L30.0x6980062880, %B191C0) : (memref<1x1x1x64xf16, strides: [0, 0, 2048, 1]>, none) -> (memref<1x64xf16, strides: [32, 32, 0, 1]>, none)
CHECK:          %R6, %D250C0 = "dma.matrix"(%G1.0x2f41400, %B191C0) : (memref<1x1x64x1000xf16, strides: [0, 0, 1000, 1]>, none) -> (memref<64x1000xf16, strides: [128, 128, 0, 1]>, none)
CHECK:          %R12, %B195C0 = "arith.cast"(%R2, %D250C0) {round_mode = 0}: (memref<1x2x1x32xf16, strides: [32, 32, 32, 1]>, none) -> (memref<1x2x1x32xf32, strides: [32, 32, 32, 1]>, none)
CHECK:          %R14, %B196C0 = "arith.cast"(%R6, %D250C0) {round_mode = 0}: (memref<64x8x1x128xf16, strides: [128, 128, 128, 1]>, none) -> (memref<64x8x1x128xf32, strides: [128, 128, 128, 1]>, none)
CHECK:          %R10, %B197C0 = "mm.normal"(%R12, %R14, %C0.0, %D250C0) {l_trans = False, res_add = True, do_relu = False, sym_range = False, do_rq = False, round_mode = 0, multiplier = 0, shift = 0, yzp = 0}: (memref<1x64xf32>, memref<64x1024xf32>, f32, none) -> (memref<1x1024xf32>, none)
CHECK:          %R0, %D251C0 = "dma.matrix"(%L30.0x6980062900, %B194C0) : (memref<1x1x1x64xf16, strides: [0, 0, 2048, 1]>, none) -> (memref<1x64xf16, strides: [32, 32, 0, 1]>, none)
CHECK:          %R4, %D252C0 = "dma.matrix"(%G1.0x2f60800, %B194C0) : (memref<1x1x64x1000xf16, strides: [0, 0, 1000, 1]>, none) -> (memref<64x1000xf16, strides: [128, 128, 0, 1]>, none)
CHECK:          %R12, %B198C0 = "arith.cast"(%R0, %D252C0) {round_mode = 0}: (memref<1x2x1x32xf16, strides: [32, 32, 32, 1]>, none) -> (memref<1x2x1x32xf32, strides: [32, 32, 32, 1]>, none)
CHECK:          %R14, %B199C0 = "arith.cast"(%R4, %D252C0) {round_mode = 0}: (memref<64x8x1x128xf16, strides: [128, 128, 128, 1]>, none) -> (memref<64x8x1x128xf32, strides: [128, 128, 128, 1]>, none)
CHECK:          %R10, %B200C0 = "mm.normal"(%R12, %R14, %C0.0, %D252C0) {l_trans = False, res_add = True, do_relu = False, sym_range = False, do_rq = False, round_mode = 0, multiplier = 0, shift = 0, yzp = 0}: (memref<1x64xf32>, memref<64x1024xf32>, f32, none) -> (memref<1x1024xf32>, none)
CHECK:          %R2, %D253C0 = "dma.matrix"(%L30.0x6980062980, %B197C0) : (memref<1x1x1x64xf16, strides: [0, 0, 2048, 1]>, none) -> (memref<1x64xf16, strides: [32, 32, 0, 1]>, none)
CHECK:          %R6, %D254C0 = "dma.matrix"(%G1.0x2f7fc00, %B197C0) : (memref<1x1x64x1000xf16, strides: [0, 0, 1000, 1]>, none) -> (memref<64x1000xf16, strides: [128, 128, 0, 1]>, none)
CHECK:          %R12, %B201C0 = "arith.cast"(%R2, %D254C0) {round_mode = 0}: (memref<1x2x1x32xf16, strides: [32, 32, 32, 1]>, none) -> (memref<1x2x1x32xf32, strides: [32, 32, 32, 1]>, none)
CHECK:          %R14, %B202C0 = "arith.cast"(%R6, %D254C0) {round_mode = 0}: (memref<64x8x1x128xf16, strides: [128, 128, 128, 1]>, none) -> (memref<64x8x1x128xf32, strides: [128, 128, 128, 1]>, none)
CHECK:          %R10, %B203C0 = "mm.normal"(%R12, %R14, %C0.0, %D254C0) {l_trans = False, res_add = True, do_relu = False, sym_range = False, do_rq = False, round_mode = 0, multiplier = 0, shift = 0, yzp = 0}: (memref<1x64xf32>, memref<64x1024xf32>, f32, none) -> (memref<1x1024xf32>, none)
CHECK:          %R0, %D255C0 = "dma.matrix"(%L30.0x6980062a00, %B200C0) : (memref<1x1x1x64xf16, strides: [0, 0, 2048, 1]>, none) -> (memref<1x64xf16, strides: [32, 32, 0, 1]>, none)
CHECK:          %R4, %D256C0 = "dma.matrix"(%G1.0x2f9f000, %B200C0) : (memref<1x1x64x1000xf16, strides: [0, 0, 1000, 1]>, none) -> (memref<64x1000xf16, strides: [128, 128, 0, 1]>, none)
CHECK:          %R12, %B204C0 = "arith.cast"(%R0, %D256C0) {round_mode = 0}: (memref<1x2x1x32xf16, strides: [32, 32, 32, 1]>, none) -> (memref<1x2x1x32xf32, strides: [32, 32, 32, 1]>, none)
CHECK:          %R14, %B205C0 = "arith.cast"(%R4, %D256C0) {round_mode = 0}: (memref<64x8x1x128xf16, strides: [128, 128, 128, 1]>, none) -> (memref<64x8x1x128xf32, strides: [128, 128, 128, 1]>, none)
CHECK:          %R10, %B206C0 = "mm.normal"(%R12, %R14, %C0.0, %D256C0) {l_trans = False, res_add = True, do_relu = False, sym_range = False, do_rq = False, round_mode = 0, multiplier = 0, shift = 0, yzp = 0}: (memref<1x64xf32>, memref<64x1024xf32>, f32, none) -> (memref<1x1024xf32>, none)
CHECK:          %R2, %D257C0 = "dma.matrix"(%L30.0x6980062a80, %B203C0) : (memref<1x1x1x64xf16, strides: [0, 0, 2048, 1]>, none) -> (memref<1x64xf16, strides: [32, 32, 0, 1]>, none)
CHECK:          %R6, %D258C0 = "dma.matrix"(%G1.0x2fbe400, %B203C0) : (memref<1x1x64x1000xf16, strides: [0, 0, 1000, 1]>, none) -> (memref<64x1000xf16, strides: [128, 128, 0, 1]>, none)
CHECK:          %R12, %B207C0 = "arith.cast"(%R2, %D258C0) {round_mode = 0}: (memref<1x2x1x32xf16, strides: [32, 32, 32, 1]>, none) -> (memref<1x2x1x32xf32, strides: [32, 32, 32, 1]>, none)
CHECK:          %R14, %B208C0 = "arith.cast"(%R6, %D258C0) {round_mode = 0}: (memref<64x8x1x128xf16, strides: [128, 128, 128, 1]>, none) -> (memref<64x8x1x128xf32, strides: [128, 128, 128, 1]>, none)
CHECK:          %R10, %B209C0 = "mm.normal"(%R12, %R14, %C0.0, %D258C0) {l_trans = False, res_add = True, do_relu = False, sym_range = False, do_rq = False, round_mode = 0, multiplier = 0, shift = 0, yzp = 0}: (memref<1x64xf32>, memref<64x1024xf32>, f32, none) -> (memref<1x1024xf32>, none)
CHECK:          %R0, %D259C0 = "dma.matrix"(%L30.0x6980062b00, %B206C0) : (memref<1x1x1x64xf16, strides: [0, 0, 2048, 1]>, none) -> (memref<1x64xf16, strides: [32, 32, 0, 1]>, none)
CHECK:          %R4, %D260C0 = "dma.matrix"(%G1.0x2fdd800, %B206C0) : (memref<1x1x64x1000xf16, strides: [0, 0, 1000, 1]>, none) -> (memref<64x1000xf16, strides: [128, 128, 0, 1]>, none)
CHECK:          %R12, %B210C0 = "arith.cast"(%R0, %D260C0) {round_mode = 0}: (memref<1x2x1x32xf16, strides: [32, 32, 32, 1]>, none) -> (memref<1x2x1x32xf32, strides: [32, 32, 32, 1]>, none)
CHECK:          %R14, %B211C0 = "arith.cast"(%R4, %D260C0) {round_mode = 0}: (memref<64x8x1x128xf16, strides: [128, 128, 128, 1]>, none) -> (memref<64x8x1x128xf32, strides: [128, 128, 128, 1]>, none)
CHECK:          %R10, %B212C0 = "mm.normal"(%R12, %R14, %C0.0, %D260C0) {l_trans = False, res_add = True, do_relu = False, sym_range = False, do_rq = False, round_mode = 0, multiplier = 0, shift = 0, yzp = 0}: (memref<1x64xf32>, memref<64x1024xf32>, f32, none) -> (memref<1x1024xf32>, none)
CHECK:          %R2, %D261C0 = "dma.matrix"(%L30.0x6980062b80, %B209C0) : (memref<1x1x1x64xf16, strides: [0, 0, 2048, 1]>, none) -> (memref<1x64xf16, strides: [32, 32, 0, 1]>, none)
CHECK:          %R6, %D262C0 = "dma.matrix"(%G1.0x2ffcc00, %B209C0) : (memref<1x1x64x1000xf16, strides: [0, 0, 1000, 1]>, none) -> (memref<64x1000xf16, strides: [128, 128, 0, 1]>, none)
CHECK:          %R12, %B213C0 = "arith.cast"(%R2, %D262C0) {round_mode = 0}: (memref<1x2x1x32xf16, strides: [32, 32, 32, 1]>, none) -> (memref<1x2x1x32xf32, strides: [32, 32, 32, 1]>, none)
CHECK:          %R14, %B214C0 = "arith.cast"(%R6, %D262C0) {round_mode = 0}: (memref<64x8x1x128xf16, strides: [128, 128, 128, 1]>, none) -> (memref<64x8x1x128xf32, strides: [128, 128, 128, 1]>, none)
CHECK:          %R10, %B215C0 = "mm.normal"(%R12, %R14, %C0.0, %D262C0) {l_trans = False, res_add = True, do_relu = False, sym_range = False, do_rq = False, round_mode = 0, multiplier = 0, shift = 0, yzp = 0}: (memref<1x64xf32>, memref<64x1024xf32>, f32, none) -> (memref<1x1024xf32>, none)
CHECK:          %R0, %D263C0 = "dma.matrix"(%L30.0x6980062c00, %B212C0) : (memref<1x1x1x64xf16, strides: [0, 0, 2048, 1]>, none) -> (memref<1x64xf16, strides: [32, 32, 0, 1]>, none)
CHECK:          %R4, %D264C0 = "dma.matrix"(%G1.0x301c000, %B212C0) : (memref<1x1x64x1000xf16, strides: [0, 0, 1000, 1]>, none) -> (memref<64x1000xf16, strides: [128, 128, 0, 1]>, none)
CHECK:          %R12, %B216C0 = "arith.cast"(%R0, %D264C0) {round_mode = 0}: (memref<1x2x1x32xf16, strides: [32, 32, 32, 1]>, none) -> (memref<1x2x1x32xf32, strides: [32, 32, 32, 1]>, none)
CHECK:          %R14, %B217C0 = "arith.cast"(%R4, %D264C0) {round_mode = 0}: (memref<64x8x1x128xf16, strides: [128, 128, 128, 1]>, none) -> (memref<64x8x1x128xf32, strides: [128, 128, 128, 1]>, none)
CHECK:          %R10, %B218C0 = "mm.normal"(%R12, %R14, %C0.0, %D264C0) {l_trans = False, res_add = True, do_relu = False, sym_range = False, do_rq = False, round_mode = 0, multiplier = 0, shift = 0, yzp = 0}: (memref<1x64xf32>, memref<64x1024xf32>, f32, none) -> (memref<1x1024xf32>, none)
CHECK:          %R2, %D265C0 = "dma.matrix"(%L30.0x6980062c80, %B215C0) : (memref<1x1x1x64xf16, strides: [0, 0, 2048, 1]>, none) -> (memref<1x64xf16, strides: [32, 32, 0, 1]>, none)
CHECK:          %R6, %D266C0 = "dma.matrix"(%G1.0x303b400, %B215C0) : (memref<1x1x64x1000xf16, strides: [0, 0, 1000, 1]>, none) -> (memref<64x1000xf16, strides: [128, 128, 0, 1]>, none)
CHECK:          %R12, %B219C0 = "arith.cast"(%R2, %D266C0) {round_mode = 0}: (memref<1x2x1x32xf16, strides: [32, 32, 32, 1]>, none) -> (memref<1x2x1x32xf32, strides: [32, 32, 32, 1]>, none)
CHECK:          %R14, %B220C0 = "arith.cast"(%R6, %D266C0) {round_mode = 0}: (memref<64x8x1x128xf16, strides: [128, 128, 128, 1]>, none) -> (memref<64x8x1x128xf32, strides: [128, 128, 128, 1]>, none)
CHECK:          %R10, %B221C0 = "mm.normal"(%R12, %R14, %C0.0, %D266C0) {l_trans = False, res_add = True, do_relu = False, sym_range = False, do_rq = False, round_mode = 0, multiplier = 0, shift = 0, yzp = 0}: (memref<1x64xf32>, memref<64x1024xf32>, f32, none) -> (memref<1x1024xf32>, none)
CHECK:          %R0, %D267C0 = "dma.matrix"(%L30.0x6980062d00, %B218C0) : (memref<1x1x1x64xf16, strides: [0, 0, 2048, 1]>, none) -> (memref<1x64xf16, strides: [32, 32, 0, 1]>, none)
CHECK:          %R4, %D268C0 = "dma.matrix"(%G1.0x305a800, %B218C0) : (memref<1x1x64x1000xf16, strides: [0, 0, 1000, 1]>, none) -> (memref<64x1000xf16, strides: [128, 128, 0, 1]>, none)
CHECK:          %R12, %B222C0 = "arith.cast"(%R0, %D268C0) {round_mode = 0}: (memref<1x2x1x32xf16, strides: [32, 32, 32, 1]>, none) -> (memref<1x2x1x32xf32, strides: [32, 32, 32, 1]>, none)
CHECK:          %R14, %B223C0 = "arith.cast"(%R4, %D268C0) {round_mode = 0}: (memref<64x8x1x128xf16, strides: [128, 128, 128, 1]>, none) -> (memref<64x8x1x128xf32, strides: [128, 128, 128, 1]>, none)
CHECK:          %R10, %B224C0 = "mm.normal"(%R12, %R14, %C0.0, %D268C0) {l_trans = False, res_add = True, do_relu = False, sym_range = False, do_rq = False, round_mode = 0, multiplier = 0, shift = 0, yzp = 0}: (memref<1x64xf32>, memref<64x1024xf32>, f32, none) -> (memref<1x1024xf32>, none)
CHECK:          %R2, %D269C0 = "dma.matrix"(%L30.0x6980062d80, %B221C0) : (memref<1x1x1x64xf16, strides: [0, 0, 2048, 1]>, none) -> (memref<1x64xf16, strides: [32, 32, 0, 1]>, none)
CHECK:          %R6, %D270C0 = "dma.matrix"(%G1.0x3079c00, %B221C0) : (memref<1x1x64x1000xf16, strides: [0, 0, 1000, 1]>, none) -> (memref<64x1000xf16, strides: [128, 128, 0, 1]>, none)
CHECK:          %R12, %B225C0 = "arith.cast"(%R2, %D270C0) {round_mode = 0}: (memref<1x2x1x32xf16, strides: [32, 32, 32, 1]>, none) -> (memref<1x2x1x32xf32, strides: [32, 32, 32, 1]>, none)
CHECK:          %R14, %B226C0 = "arith.cast"(%R6, %D270C0) {round_mode = 0}: (memref<64x8x1x128xf16, strides: [128, 128, 128, 1]>, none) -> (memref<64x8x1x128xf32, strides: [128, 128, 128, 1]>, none)
CHECK:          %R10, %B227C0 = "mm.normal"(%R12, %R14, %C0.0, %D270C0) {l_trans = False, res_add = True, do_relu = False, sym_range = False, do_rq = False, round_mode = 0, multiplier = 0, shift = 0, yzp = 0}: (memref<1x64xf32>, memref<64x1024xf32>, f32, none) -> (memref<1x1024xf32>, none)
CHECK:          %R0, %D271C0 = "dma.matrix"(%L30.0x6980062e00, %B224C0) : (memref<1x1x1x64xf16, strides: [0, 0, 2048, 1]>, none) -> (memref<1x64xf16, strides: [32, 32, 0, 1]>, none)
CHECK:          %R4, %D272C0 = "dma.matrix"(%G1.0x3099000, %B224C0) : (memref<1x1x64x1000xf16, strides: [0, 0, 1000, 1]>, none) -> (memref<64x1000xf16, strides: [128, 128, 0, 1]>, none)
CHECK:          %R12, %B228C0 = "arith.cast"(%R0, %D272C0) {round_mode = 0}: (memref<1x2x1x32xf16, strides: [32, 32, 32, 1]>, none) -> (memref<1x2x1x32xf32, strides: [32, 32, 32, 1]>, none)
CHECK:          %R14, %B229C0 = "arith.cast"(%R4, %D272C0) {round_mode = 0}: (memref<64x8x1x128xf16, strides: [128, 128, 128, 1]>, none) -> (memref<64x8x1x128xf32, strides: [128, 128, 128, 1]>, none)
CHECK:          %R10, %B230C0 = "mm.normal"(%R12, %R14, %C0.0, %D272C0) {l_trans = False, res_add = True, do_relu = False, sym_range = False, do_rq = False, round_mode = 0, multiplier = 0, shift = 0, yzp = 0}: (memref<1x64xf32>, memref<64x1024xf32>, f32, none) -> (memref<1x1024xf32>, none)
CHECK:          %R2, %D273C0 = "dma.matrix"(%L30.0x6980062e80, %B227C0) : (memref<1x1x1x64xf16, strides: [0, 0, 2048, 1]>, none) -> (memref<1x64xf16, strides: [32, 32, 0, 1]>, none)
CHECK:          %R6, %D274C0 = "dma.matrix"(%G1.0x30b8400, %B227C0) : (memref<1x1x64x1000xf16, strides: [0, 0, 1000, 1]>, none) -> (memref<64x1000xf16, strides: [128, 128, 0, 1]>, none)
CHECK:          %R12, %B231C0 = "arith.cast"(%R2, %D274C0) {round_mode = 0}: (memref<1x2x1x32xf16, strides: [32, 32, 32, 1]>, none) -> (memref<1x2x1x32xf32, strides: [32, 32, 32, 1]>, none)
CHECK:          %R14, %B232C0 = "arith.cast"(%R6, %D274C0) {round_mode = 0}: (memref<64x8x1x128xf16, strides: [128, 128, 128, 1]>, none) -> (memref<64x8x1x128xf32, strides: [128, 128, 128, 1]>, none)
CHECK:          %R10, %B233C0 = "mm.normal"(%R12, %R14, %C0.0, %D274C0) {l_trans = False, res_add = True, do_relu = False, sym_range = False, do_rq = False, round_mode = 0, multiplier = 0, shift = 0, yzp = 0}: (memref<1x64xf32>, memref<64x1024xf32>, f32, none) -> (memref<1x1024xf32>, none)
CHECK:          %R0, %D275C0 = "dma.matrix"(%L30.0x6980062f00, %B230C0) : (memref<1x1x1x64xf16, strides: [0, 0, 2048, 1]>, none) -> (memref<1x64xf16, strides: [32, 32, 0, 1]>, none)
CHECK:          %R4, %D276C0 = "dma.matrix"(%G1.0x30d7800, %B230C0) : (memref<1x1x64x1000xf16, strides: [0, 0, 1000, 1]>, none) -> (memref<64x1000xf16, strides: [128, 128, 0, 1]>, none)
CHECK:          %R12, %B234C0 = "arith.cast"(%R0, %D276C0) {round_mode = 0}: (memref<1x2x1x32xf16, strides: [32, 32, 32, 1]>, none) -> (memref<1x2x1x32xf32, strides: [32, 32, 32, 1]>, none)
CHECK:          %R14, %B235C0 = "arith.cast"(%R4, %D276C0) {round_mode = 0}: (memref<64x8x1x128xf16, strides: [128, 128, 128, 1]>, none) -> (memref<64x8x1x128xf32, strides: [128, 128, 128, 1]>, none)
CHECK:          %R10, %B236C0 = "mm.normal"(%R12, %R14, %C0.0, %D276C0) {l_trans = False, res_add = True, do_relu = False, sym_range = False, do_rq = False, round_mode = 0, multiplier = 0, shift = 0, yzp = 0}: (memref<1x64xf32>, memref<64x1024xf32>, f32, none) -> (memref<1x1024xf32>, none)
CHECK:          %R2, %D277C0 = "dma.matrix"(%L30.0x6980062f80, %B233C0) : (memref<1x1x1x64xf16, strides: [0, 0, 2048, 1]>, none) -> (memref<1x64xf16, strides: [32, 32, 0, 1]>, none)
CHECK:          %R6, %D278C0 = "dma.matrix"(%G1.0x30f6c00, %B233C0) : (memref<1x1x64x1000xf16, strides: [0, 0, 1000, 1]>, none) -> (memref<64x1000xf16, strides: [128, 128, 0, 1]>, none)
CHECK:          %R2.0x80, %D279C0 = "dma.matrix"(%G1.0x3116000, %B233C0) : (memref<1x1x1x1000xf16, strides: [0, 0, 1000, 1]>, none) -> (memref<1x1000xf16, strides: [128, 128, 0, 1]>, none)
CHECK:          %R12, %B237C0 = "arith.cast"(%R2, %D279C0) {round_mode = 0}: (memref<1x2x1x32xf16, strides: [32, 32, 32, 1]>, none) -> (memref<1x2x1x32xf32, strides: [32, 32, 32, 1]>, none)
CHECK:          %R14, %B238C0 = "arith.cast"(%R6, %D279C0) {round_mode = 0}: (memref<64x8x1x128xf16, strides: [128, 128, 128, 1]>, none) -> (memref<64x8x1x128xf32, strides: [128, 128, 128, 1]>, none)
CHECK:          %R12.0x80, %B239C0 = "arith.cast"(%R2.0x80, %D279C0) {round_mode = 0}: (memref<1x8x1x128xf16, strides: [128, 128, 128, 1]>, none) -> (memref<1x8x1x128xf32, strides: [128, 128, 128, 1]>, none)
CHECK:          %R10, %B240C0 = "mm.normal"(%R12, %R14, %R12.0x80, %D279C0) {l_trans = False, res_add = True, do_relu = False, sym_range = False, do_rq = False, round_mode = 0, multiplier = 0, shift = 0, yzp = 0}: (memref<1x64xf32>, memref<64x1024xf32>, memref<1x1024xf32>, none) -> (memref<1x1024xf32>, none)
CHECK:          %R8, %B241C0 = "arith.cast"(%R10, %D279C0) {round_mode = 0}: (memref<1x8x1x128xf32, strides: [128, 128, 128, 1]>, none) -> (memref<1x8x1x128xf16, strides: [128, 128, 128, 1]>, none)
CHECK:          %L30.0x6980000000, %D280C0 = "dma.matrix"(%R8, %B241C0) : (memref<1x1x1x128xf16, strides: [0, 0, 0, 1]>, none) -> (memref<1x128xf16, strides: [0, 0, 0, 1]>, none)
CHECK:          %B242C0, %msg48 = "system.send_msg"(%D280C0) {msg_id = 48, cnt = 32, status = Status.PRODUCING}
CHECK:          %D281C0, %msg48 = "dma.sys.sys_send"(%B242C0) {msg_id = 48, cnt = 32, status = Status.PRODUCING}
CHECK:        }
CHECK:        %D91C1, %msg48 = "@core_1"(%D89C1, %msg49) {
CHECK:          %B57C1 = "system.wait_msg"(%D89C1, %msg49) {msg_id = 49, cnt = 32, status = Status.RECIEVING}
CHECK:          %D90C1 = "dma.sys.sys_wait"(%B57C1, %msg49) {msg_id = 49, cnt = 32, status = Status.CONSUMED}
CHECK:          %B58C1, %msg48 = "system.send_msg"(%D90C1) {msg_id = 48, cnt = 32, status = Status.PRODUCING}
CHECK:          %D91C1, %msg48 = "dma.sys.sys_send"(%B58C1) {msg_id = 48, cnt = 32, status = Status.PRODUCING}
CHECK:        }
CHECK:        %D91C2, %msg48 = "@core_2"(%D89C2, %msg49) {
CHECK:          %B57C2 = "system.wait_msg"(%D89C2, %msg49) {msg_id = 49, cnt = 32, status = Status.RECIEVING}
CHECK:          %D90C2 = "dma.sys.sys_wait"(%B57C2, %msg49) {msg_id = 49, cnt = 32, status = Status.CONSUMED}
CHECK:          %B58C2, %msg48 = "system.send_msg"(%D90C2) {msg_id = 48, cnt = 32, status = Status.PRODUCING}
CHECK:          %D91C2, %msg48 = "dma.sys.sys_send"(%B58C2) {msg_id = 48, cnt = 32, status = Status.PRODUCING}
CHECK:        }
CHECK:        %D91C3, %msg48 = "@core_3"(%D89C3, %msg49) {
CHECK:          %B57C3 = "system.wait_msg"(%D89C3, %msg49) {msg_id = 49, cnt = 32, status = Status.RECIEVING}
CHECK:          %D90C3 = "dma.sys.sys_wait"(%B57C3, %msg49) {msg_id = 49, cnt = 32, status = Status.CONSUMED}
CHECK:          %B58C3, %msg48 = "system.send_msg"(%D90C3) {msg_id = 48, cnt = 32, status = Status.PRODUCING}
CHECK:          %D91C3, %msg48 = "dma.sys.sys_send"(%B58C3) {msg_id = 48, cnt = 32, status = Status.PRODUCING}
CHECK:        }
CHECK:        %D91C4, %msg48 = "@core_4"(%D89C4, %msg49) {
CHECK:          %B57C4 = "system.wait_msg"(%D89C4, %msg49) {msg_id = 49, cnt = 32, status = Status.RECIEVING}
CHECK:          %D90C4 = "dma.sys.sys_wait"(%B57C4, %msg49) {msg_id = 49, cnt = 32, status = Status.CONSUMED}
CHECK:          %B58C4, %msg48 = "system.send_msg"(%D90C4) {msg_id = 48, cnt = 32, status = Status.PRODUCING}
CHECK:          %D91C4, %msg48 = "dma.sys.sys_send"(%B58C4) {msg_id = 48, cnt = 32, status = Status.PRODUCING}
CHECK:        }
CHECK:        %D91C5, %msg48 = "@core_5"(%D89C5, %msg49) {
CHECK:          %B57C5 = "system.wait_msg"(%D89C5, %msg49) {msg_id = 49, cnt = 32, status = Status.RECIEVING}
CHECK:          %D90C5 = "dma.sys.sys_wait"(%B57C5, %msg49) {msg_id = 49, cnt = 32, status = Status.CONSUMED}
CHECK:          %B58C5, %msg48 = "system.send_msg"(%D90C5) {msg_id = 48, cnt = 32, status = Status.PRODUCING}
CHECK:          %D91C5, %msg48 = "dma.sys.sys_send"(%B58C5) {msg_id = 48, cnt = 32, status = Status.PRODUCING}
CHECK:        }
CHECK:        %D89C6, %msg48 = "@core_6"(%D87C6, %msg49) {
CHECK:          %B56C6 = "system.wait_msg"(%D87C6, %msg49) {msg_id = 49, cnt = 32, status = Status.RECIEVING}
CHECK:          %D88C6 = "dma.sys.sys_wait"(%B56C6, %msg49) {msg_id = 49, cnt = 32, status = Status.CONSUMED}
CHECK:          %B57C6, %msg48 = "system.send_msg"(%D88C6) {msg_id = 48, cnt = 32, status = Status.PRODUCING}
CHECK:          %D89C6, %msg48 = "dma.sys.sys_send"(%B57C6) {msg_id = 48, cnt = 32, status = Status.PRODUCING}
CHECK:        }
CHECK:        %D89C7, %msg48 = "@core_7"(%D87C7, %msg49) {
CHECK:          %B56C7 = "system.wait_msg"(%D87C7, %msg49) {msg_id = 49, cnt = 32, status = Status.RECIEVING}
CHECK:          %D88C7 = "dma.sys.sys_wait"(%B56C7, %msg49) {msg_id = 49, cnt = 32, status = Status.CONSUMED}
CHECK:          %B57C7, %msg48 = "system.send_msg"(%D88C7) {msg_id = 48, cnt = 32, status = Status.PRODUCING}
CHECK:          %D89C7, %msg48 = "dma.sys.sys_send"(%B57C7) {msg_id = 48, cnt = 32, status = Status.PRODUCING}
CHECK:        }
CHECK:        %D285C0, %msg49 = "@core_0"(%D281C0, %msg48) {
CHECK:          %B243C0 = "system.wait_msg"(%D281C0, %msg48) {msg_id = 48, cnt = 32, status = Status.RECIEVING}
CHECK:          %D282C0 = "dma.sys.sys_wait"(%B243C0, %msg48) {msg_id = 48, cnt = 32, status = Status.CONSUMED}
CHECK:          %R0, %D283C0 = "dma.matrix"(%L30.0x6980000000, %B243C0) : (memref<1x1x1x125xf16, strides: [0, 0, 125, 1]>, none) -> (memref<1x125xf16, strides: [32, 32, 0, 1]>, none)
CHECK:          %R8, %B244C0 = "arith.cast"(%R0, %D283C0) {round_mode = 1}: (memref<1x63x1x2xf16, strides: [32, 32, 2, 1]>, none) -> (memref<1x63x1x2xf32, strides: [16, 16, 2, 1]>, none)
CHECK:          %G2.0x93000, %D284C0 = "dma.matrix"(%R8, %B244C0) : (memref<1x1x1x2xf32, strides: [0, 0, 0, 1]>, none) -> (memref<1x2xf32, strides: [0, 0, 0, 1]>, none)
CHECK:          %B245C0, %msg49 = "system.send_msg"(%D284C0) {msg_id = 49, cnt = 32, status = Status.PRODUCING}
CHECK:          %D285C0, %msg49 = "dma.sys.sys_send"(%B245C0) {msg_id = 49, cnt = 32, status = Status.PRODUCING}
CHECK:        }
CHECK:        %D95C1, %msg49 = "@core_1"(%D91C1, %msg48) {
CHECK:          %B59C1 = "system.wait_msg"(%D91C1, %msg48) {msg_id = 48, cnt = 32, status = Status.RECIEVING}
CHECK:          %D92C1 = "dma.sys.sys_wait"(%B59C1, %msg48) {msg_id = 48, cnt = 32, status = Status.CONSUMED}
CHECK:          %R0, %D93C1 = "dma.matrix"(%L30.0x69800000fa, %B59C1) : (memref<1x1x1x125xf16, strides: [0, 0, 125, 1]>, none) -> (memref<1x125xf16, strides: [32, 32, 0, 1]>, none)
CHECK:          %R8, %B60C1 = "arith.cast"(%R0, %D93C1) {round_mode = 1}: (memref<1x63x1x2xf16, strides: [32, 32, 2, 1]>, none) -> (memref<1x63x1x2xf32, strides: [16, 16, 2, 1]>, none)
CHECK:          %G2.0x931f4, %D94C1 = "dma.matrix"(%R8, %B60C1) : (memref<1x1x1x2xf32, strides: [0, 0, 0, 1]>, none) -> (memref<1x2xf32, strides: [0, 0, 0, 1]>, none)
CHECK:          %B61C1, %msg49 = "system.send_msg"(%D94C1) {msg_id = 49, cnt = 32, status = Status.PRODUCING}
CHECK:          %D95C1, %msg49 = "dma.sys.sys_send"(%B61C1) {msg_id = 49, cnt = 32, status = Status.PRODUCING}
CHECK:        }
CHECK:        %D95C2, %msg49 = "@core_2"(%D91C2, %msg48) {
CHECK:          %B59C2 = "system.wait_msg"(%D91C2, %msg48) {msg_id = 48, cnt = 32, status = Status.RECIEVING}
CHECK:          %D92C2 = "dma.sys.sys_wait"(%B59C2, %msg48) {msg_id = 48, cnt = 32, status = Status.CONSUMED}
CHECK:          %R0, %D93C2 = "dma.matrix"(%L30.0x69800001f4, %B59C2) : (memref<1x1x1x125xf16, strides: [0, 0, 125, 1]>, none) -> (memref<1x125xf16, strides: [32, 32, 0, 1]>, none)
CHECK:          %R8, %B60C2 = "arith.cast"(%R0, %D93C2) {round_mode = 1}: (memref<1x63x1x2xf16, strides: [32, 32, 2, 1]>, none) -> (memref<1x63x1x2xf32, strides: [16, 16, 2, 1]>, none)
CHECK:          %G2.0x933e8, %D94C2 = "dma.matrix"(%R8, %B60C2) : (memref<1x1x1x2xf32, strides: [0, 0, 0, 1]>, none) -> (memref<1x2xf32, strides: [0, 0, 0, 1]>, none)
CHECK:          %B61C2, %msg49 = "system.send_msg"(%D94C2) {msg_id = 49, cnt = 32, status = Status.PRODUCING}
CHECK:          %D95C2, %msg49 = "dma.sys.sys_send"(%B61C2) {msg_id = 49, cnt = 32, status = Status.PRODUCING}
CHECK:        }
CHECK:        %D95C3, %msg49 = "@core_3"(%D91C3, %msg48) {
CHECK:          %B59C3 = "system.wait_msg"(%D91C3, %msg48) {msg_id = 48, cnt = 32, status = Status.RECIEVING}
CHECK:          %D92C3 = "dma.sys.sys_wait"(%B59C3, %msg48) {msg_id = 48, cnt = 32, status = Status.CONSUMED}
CHECK:          %R0, %D93C3 = "dma.matrix"(%L30.0x69800002ee, %B59C3) : (memref<1x1x1x125xf16, strides: [0, 0, 125, 1]>, none) -> (memref<1x125xf16, strides: [32, 32, 0, 1]>, none)
CHECK:          %R8, %B60C3 = "arith.cast"(%R0, %D93C3) {round_mode = 1}: (memref<1x63x1x2xf16, strides: [32, 32, 2, 1]>, none) -> (memref<1x63x1x2xf32, strides: [16, 16, 2, 1]>, none)
CHECK:          %G2.0x935dc, %D94C3 = "dma.matrix"(%R8, %B60C3) : (memref<1x1x1x2xf32, strides: [0, 0, 0, 1]>, none) -> (memref<1x2xf32, strides: [0, 0, 0, 1]>, none)
CHECK:          %B61C3, %msg49 = "system.send_msg"(%D94C3) {msg_id = 49, cnt = 32, status = Status.PRODUCING}
CHECK:          %D95C3, %msg49 = "dma.sys.sys_send"(%B61C3) {msg_id = 49, cnt = 32, status = Status.PRODUCING}
CHECK:        }
CHECK:        %D95C4, %msg49 = "@core_4"(%D91C4, %msg48) {
CHECK:          %B59C4 = "system.wait_msg"(%D91C4, %msg48) {msg_id = 48, cnt = 32, status = Status.RECIEVING}
CHECK:          %D92C4 = "dma.sys.sys_wait"(%B59C4, %msg48) {msg_id = 48, cnt = 32, status = Status.CONSUMED}
CHECK:          %R0, %D93C4 = "dma.matrix"(%L30.0x69800003e8, %B59C4) : (memref<1x1x1x125xf16, strides: [0, 0, 125, 1]>, none) -> (memref<1x125xf16, strides: [32, 32, 0, 1]>, none)
CHECK:          %R8, %B60C4 = "arith.cast"(%R0, %D93C4) {round_mode = 1}: (memref<1x63x1x2xf16, strides: [32, 32, 2, 1]>, none) -> (memref<1x63x1x2xf32, strides: [16, 16, 2, 1]>, none)
CHECK:          %G2.0x937d0, %D94C4 = "dma.matrix"(%R8, %B60C4) : (memref<1x1x1x2xf32, strides: [0, 0, 0, 1]>, none) -> (memref<1x2xf32, strides: [0, 0, 0, 1]>, none)
CHECK:          %B61C4, %msg49 = "system.send_msg"(%D94C4) {msg_id = 49, cnt = 32, status = Status.PRODUCING}
CHECK:          %D95C4, %msg49 = "dma.sys.sys_send"(%B61C4) {msg_id = 49, cnt = 32, status = Status.PRODUCING}
CHECK:        }
CHECK:        %D95C5, %msg49 = "@core_5"(%D91C5, %msg48) {
CHECK:          %B59C5 = "system.wait_msg"(%D91C5, %msg48) {msg_id = 48, cnt = 32, status = Status.RECIEVING}
CHECK:          %D92C5 = "dma.sys.sys_wait"(%B59C5, %msg48) {msg_id = 48, cnt = 32, status = Status.CONSUMED}
CHECK:          %R0, %D93C5 = "dma.matrix"(%L30.0x69800004e2, %B59C5) : (memref<1x1x1x125xf16, strides: [0, 0, 125, 1]>, none) -> (memref<1x125xf16, strides: [32, 32, 0, 1]>, none)
CHECK:          %R8, %B60C5 = "arith.cast"(%R0, %D93C5) {round_mode = 1}: (memref<1x63x1x2xf16, strides: [32, 32, 2, 1]>, none) -> (memref<1x63x1x2xf32, strides: [16, 16, 2, 1]>, none)
CHECK:          %G2.0x939c4, %D94C5 = "dma.matrix"(%R8, %B60C5) : (memref<1x1x1x2xf32, strides: [0, 0, 0, 1]>, none) -> (memref<1x2xf32, strides: [0, 0, 0, 1]>, none)
CHECK:          %B61C5, %msg49 = "system.send_msg"(%D94C5) {msg_id = 49, cnt = 32, status = Status.PRODUCING}
CHECK:          %D95C5, %msg49 = "dma.sys.sys_send"(%B61C5) {msg_id = 49, cnt = 32, status = Status.PRODUCING}
CHECK:        }
CHECK:        %D93C6, %msg49 = "@core_6"(%D89C6, %msg48) {
CHECK:          %B58C6 = "system.wait_msg"(%D89C6, %msg48) {msg_id = 48, cnt = 32, status = Status.RECIEVING}
CHECK:          %D90C6 = "dma.sys.sys_wait"(%B58C6, %msg48) {msg_id = 48, cnt = 32, status = Status.CONSUMED}
CHECK:          %R0, %D91C6 = "dma.matrix"(%L30.0x69800005dc, %B58C6) : (memref<1x1x1x125xf16, strides: [0, 0, 125, 1]>, none) -> (memref<1x125xf16, strides: [32, 32, 0, 1]>, none)
CHECK:          %R8, %B59C6 = "arith.cast"(%R0, %D91C6) {round_mode = 1}: (memref<1x63x1x2xf16, strides: [32, 32, 2, 1]>, none) -> (memref<1x63x1x2xf32, strides: [16, 16, 2, 1]>, none)
CHECK:          %G2.0x93bb8, %D92C6 = "dma.matrix"(%R8, %B59C6) : (memref<1x1x1x2xf32, strides: [0, 0, 0, 1]>, none) -> (memref<1x2xf32, strides: [0, 0, 0, 1]>, none)
CHECK:          %B60C6, %msg49 = "system.send_msg"(%D92C6) {msg_id = 49, cnt = 32, status = Status.PRODUCING}
CHECK:          %D93C6, %msg49 = "dma.sys.sys_send"(%B60C6) {msg_id = 49, cnt = 32, status = Status.PRODUCING}
CHECK:        }
CHECK:        %D93C7, %msg49 = "@core_7"(%D89C7, %msg48) {
CHECK:          %B58C7 = "system.wait_msg"(%D89C7, %msg48) {msg_id = 48, cnt = 32, status = Status.RECIEVING}
CHECK:          %D90C7 = "dma.sys.sys_wait"(%B58C7, %msg48) {msg_id = 48, cnt = 32, status = Status.CONSUMED}
CHECK:          %R0, %D91C7 = "dma.matrix"(%L30.0x69800006d6, %B58C7) : (memref<1x1x1x125xf16, strides: [0, 0, 125, 1]>, none) -> (memref<1x125xf16, strides: [32, 32, 0, 1]>, none)
CHECK:          %R8, %B59C7 = "arith.cast"(%R0, %D91C7) {round_mode = 1}: (memref<1x63x1x2xf16, strides: [32, 32, 2, 1]>, none) -> (memref<1x63x1x2xf32, strides: [16, 16, 2, 1]>, none)
CHECK:          %G2.0x93dac, %D92C7 = "dma.matrix"(%R8, %B59C7) : (memref<1x1x1x2xf32, strides: [0, 0, 0, 1]>, none) -> (memref<1x2xf32, strides: [0, 0, 0, 1]>, none)
CHECK:          %B60C7, %msg49 = "system.send_msg"(%D92C7) {msg_id = 49, cnt = 32, status = Status.PRODUCING}
CHECK:          %D93C7, %msg49 = "dma.sys.sys_send"(%B60C7) {msg_id = 49, cnt = 32, status = Status.PRODUCING}
CHECK:        }
CHECK:        %D286C0 = "@core_0"(%D285C0, %msg49) {
CHECK:          %B246C0 = "system.wait_msg"(%D285C0, %msg49) {msg_id = 49, cnt = 32, status = Status.RECIEVING}
CHECK:          %D286C0 = "dma.sys.sys_wait"(%B246C0, %msg49) {msg_id = 49, cnt = 32, status = Status.CONSUMED}
CHECK:        }
CHECK:        %D96C1 = "@core_1"(%D95C1, %msg49) {
CHECK:          %B62C1 = "system.wait_msg"(%D95C1, %msg49) {msg_id = 49, cnt = 32, status = Status.RECIEVING}
CHECK:          %D96C1 = "dma.sys.sys_wait"(%B62C1, %msg49) {msg_id = 49, cnt = 32, status = Status.CONSUMED}
CHECK:        }
CHECK:        %D96C2 = "@core_2"(%D95C2, %msg49) {
CHECK:          %B62C2 = "system.wait_msg"(%D95C2, %msg49) {msg_id = 49, cnt = 32, status = Status.RECIEVING}
CHECK:          %D96C2 = "dma.sys.sys_wait"(%B62C2, %msg49) {msg_id = 49, cnt = 32, status = Status.CONSUMED}
CHECK:        }
CHECK:        %D96C3 = "@core_3"(%D95C3, %msg49) {
CHECK:          %B62C3 = "system.wait_msg"(%D95C3, %msg49) {msg_id = 49, cnt = 32, status = Status.RECIEVING}
CHECK:          %D96C3 = "dma.sys.sys_wait"(%B62C3, %msg49) {msg_id = 49, cnt = 32, status = Status.CONSUMED}
CHECK:        }
CHECK:        %D96C4 = "@core_4"(%D95C4, %msg49) {
CHECK:          %B62C4 = "system.wait_msg"(%D95C4, %msg49) {msg_id = 49, cnt = 32, status = Status.RECIEVING}
CHECK:          %D96C4 = "dma.sys.sys_wait"(%B62C4, %msg49) {msg_id = 49, cnt = 32, status = Status.CONSUMED}
CHECK:        }
CHECK:        %D96C5 = "@core_5"(%D95C5, %msg49) {
CHECK:          %B62C5 = "system.wait_msg"(%D95C5, %msg49) {msg_id = 49, cnt = 32, status = Status.RECIEVING}
CHECK:          %D96C5 = "dma.sys.sys_wait"(%B62C5, %msg49) {msg_id = 49, cnt = 32, status = Status.CONSUMED}
CHECK:        }
CHECK:        %D94C6 = "@core_6"(%D93C6, %msg49) {
CHECK:          %B61C6 = "system.wait_msg"(%D93C6, %msg49) {msg_id = 49, cnt = 32, status = Status.RECIEVING}
CHECK:          %D94C6 = "dma.sys.sys_wait"(%B61C6, %msg49) {msg_id = 49, cnt = 32, status = Status.CONSUMED}
CHECK:        }
CHECK:        %D94C7 = "@core_7"(%D93C7, %msg49) {
CHECK:          %B61C7 = "system.wait_msg"(%D93C7, %msg49) {msg_id = 49, cnt = 32, status = Status.RECIEVING}
CHECK:          %D94C7 = "dma.sys.sys_wait"(%B61C7, %msg49) {msg_id = 49, cnt = 32, status = Status.CONSUMED}
CHECK:        }
CHECK:        return %G2.0x93000: memref<1x1000xf32, strides: [1000, 1]>
CHECK:    }) {function_type = {arg_attrs = ["data"], res_attrs = ["resnetv24_dense0_fwd_Gemm_f32"]}}
CHECK:  } loc(#loc)
