RUN: bmodel_dis.py %p/bmodel/yolov5s_bm1690_f16_core8.bmodel | FileCheck %s

CHECK:  module attributes {chip = "BM1690", version = 2.2+v1.6.364-gef6778402-20240312, addr_mode = 0} {
CHECK:    func.func @yolov5s(%G2.0x0: memref<1x3x640x640xf32, strides: [1228800, 409600, 640, 1]>) -> (memref<1x3x80x80x85xf32, strides: [1632000, 544000, 6800, 85, 1]>, memref<1x3x40x40x85xf32, strides: [408000, 136000, 3400, 85, 1]>, memref<1x3x20x20x85xf32, strides: [102000, 34000, 1700, 85, 1]>) ({
CHECK:      ^bb0(%G2.0x0: memref<1x3x640x640xf32, strides: [1228800, 409600, 640, 1]>)    //  run_mode=TPU_STATIC
CHECK:        %D1C0, %msg48 = "@core_0"(%D0C0) {
CHECK:          %B1C0, %msg48 = "system.send_msg"(%D0C0) {msg_id = 48, cnt = 32, status = Status.PRODUCING}
CHECK:          %D1C0, %msg48 = "dma.sys.sys_send"(%B1C0) {msg_id = 48, cnt = 32, status = Status.PRODUCING}
CHECK:        }
CHECK:        %D1C1, %msg48 = "@core_1"(%D0C1) {
CHECK:          %B1C1, %msg48 = "system.send_msg"(%D0C1) {msg_id = 48, cnt = 32, status = Status.PRODUCING}
CHECK:          %D1C1, %msg48 = "dma.sys.sys_send"(%B1C1) {msg_id = 48, cnt = 32, status = Status.PRODUCING}
CHECK:        }
CHECK:        %D1C2, %msg48 = "@core_2"(%D0C2) {
CHECK:          %B1C2, %msg48 = "system.send_msg"(%D0C2) {msg_id = 48, cnt = 32, status = Status.PRODUCING}
CHECK:          %D1C2, %msg48 = "dma.sys.sys_send"(%B1C2) {msg_id = 48, cnt = 32, status = Status.PRODUCING}
CHECK:        }
CHECK:        %D1C3, %msg48 = "@core_3"(%D0C3) {
CHECK:          %B1C3, %msg48 = "system.send_msg"(%D0C3) {msg_id = 48, cnt = 32, status = Status.PRODUCING}
CHECK:          %D1C3, %msg48 = "dma.sys.sys_send"(%B1C3) {msg_id = 48, cnt = 32, status = Status.PRODUCING}
CHECK:        }
CHECK:        %D1C4, %msg48 = "@core_4"(%D0C4) {
CHECK:          %B1C4, %msg48 = "system.send_msg"(%D0C4) {msg_id = 48, cnt = 32, status = Status.PRODUCING}
CHECK:          %D1C4, %msg48 = "dma.sys.sys_send"(%B1C4) {msg_id = 48, cnt = 32, status = Status.PRODUCING}
CHECK:        }
CHECK:        %D1C5, %msg48 = "@core_5"(%D0C5) {
CHECK:          %B1C5, %msg48 = "system.send_msg"(%D0C5) {msg_id = 48, cnt = 32, status = Status.PRODUCING}
CHECK:          %D1C5, %msg48 = "dma.sys.sys_send"(%B1C5) {msg_id = 48, cnt = 32, status = Status.PRODUCING}
CHECK:        }
CHECK:        %D1C6, %msg48 = "@core_6"(%D0C6) {
CHECK:          %B1C6, %msg48 = "system.send_msg"(%D0C6) {msg_id = 48, cnt = 32, status = Status.PRODUCING}
CHECK:          %D1C6, %msg48 = "dma.sys.sys_send"(%B1C6) {msg_id = 48, cnt = 32, status = Status.PRODUCING}
CHECK:        }
CHECK:        %D1C7, %msg48 = "@core_7"(%D0C7) {
CHECK:          %B1C7, %msg48 = "system.send_msg"(%D0C7) {msg_id = 48, cnt = 32, status = Status.PRODUCING}
CHECK:          %D1C7, %msg48 = "dma.sys.sys_send"(%B1C7) {msg_id = 48, cnt = 32, status = Status.PRODUCING}
CHECK:        }
CHECK:        %D19C0, %msg49 = "@core_0"(%D1C0, %msg48) {
CHECK:          %B2C0 = "system.wait_msg"(%D1C0, %msg48) {msg_id = 48, cnt = 32, status = Status.RECIEVING}
CHECK:          %D2C0 = "dma.sys.sys_wait"(%B2C0, %msg48) {msg_id = 48, cnt = 32, status = Status.CONSUMED}
CHECK:          %R0, %D3C0 = "dma.tensor"(%G2.0x0, %B2C0) : (memref<1x3x54x640xf32, strides: [1228800, 409600, 640, 1]>, none) -> (memref<1x3x54x640xf32, strides: [34560, 34560, 640, 1]>, none)
CHECK:          %R10, %B3C0 = "arith.cast"(%R0, %D3C0) {round_mode = 1}: (memref<1x3x54x640xf32, strides: [34560, 34560, 640, 1]>, none) -> (memref<1x3x54x640xf16, strides: [34560, 34560, 640, 1]>, none)
CHECK:          %R9.0x2700, %D4C0 = "dma.tensor"(%G1.0x1000, %B2C0) : (memref<1x32x1x1152xi16, strides: [36864, 1152, 1152, 1]>, none) -> (memref<1x32x1x1152xi16, strides: [1152, 1152, 1152, 1]>, none)
CHECK:          %R9.0x3000, %D5C0 = "dma.tensor"(%G1.0x0, %B2C0) : (memref<1x32x1x1xf32, strides: [32, 1, 1, 1]>, none) -> (memref<1x32x1x1xf32, strides: [1, 1, 1, 1]>, none)
CHECK:          %R9.0x30c0, %D6C0 = "dma.tensor"(%G1.0x1f000, %B2C0) : (memref<1x32x1x1xf32, strides: [32, 1, 1, 1]>, none) -> (memref<1x32x1x1xf32, strides: [1, 1, 1, 1]>, none)
CHECK:          %R15.0x2600, %D7C0 = "dma.tensor"(%G1.0x20000, %B2C0) : (memref<1x32x1x32xi16, strides: [1024, 32, 32, 1]>, none) -> (memref<1x32x1x32xi16, strides: [32, 32, 32, 1]>, none)
CHECK:          %R14.0x2200, %B4C0 = "conv.normal"(%R10, %R9.0x2700, %R9.0x3000, %C0.0, %D7C0) {kernel = [6, 6], stride = [2, 2], in_zero = [0, 0], ke_zero = [0, 0], opt_kernel_rotate = False, pad_mode = 0, pad = [2, 0, 2, 2], opt_res_add = False, do_relu = False, sym_range = False, do_rq = False, round_mode = 0}: (memref<1x3x54x640xf16, strides: [34560, 34560, 640, 1]>, memref<32x3x6x6xf16>, memref<1x32x1x1xui32, strides: [1, 1, 1, 1]>, f16, none) -> (memref<1x32x26x320xf16, strides: [8320, 8320, 320, 1]>, none)
CHECK:          %R14.0x200, %B5C0 = "tsbc.s_bc"(%R0.0x580, %D7C0) : (memref<1x64x1x7xf16, strides: [32, 32, 7, 1]>, none) -> (memref<1x64x1x7xf16, strides: [32, 32, 7, 1]>, none)
CHECK:          %R13.0x100, %B6C0 = "arith.sub"(%C0.0, %R14.0x2200, %D7C0) {round_mode = 0}: (f16, memref<1x32x26x320xf16, strides: [8320, 8320, 320, 1]>, none) -> (memref<1x32x26x320xf16, strides: [8320, 8320, 320, 1]>, none)
CHECK:          %R13.0x100, %B7C0 = "arith.max"(%R13.0x100, %C-45408.0, %D7C0) {round_mode = 0}: (memref<1x32x26x320xf16, strides: [8320, 8320, 320, 1]>, f16, none) -> (memref<1x32x26x320xf16, strides: [8320, 8320, 320, 1]>, none)
CHECK:          %R13.0x100, %B8C0 = "arith.min"(%R13.0x100, %C45408.0, %D7C0) {round_mode = 0}: (memref<1x32x26x320xf16, strides: [8320, 8320, 320, 1]>, f16, none) -> (memref<1x32x26x320xf16, strides: [8320, 8320, 320, 1]>, none)
CHECK:          %R12, %B9C0 = "arith.mul"(%R13.0x100, %C1.4423828125, %D7C0) {round_mode = 0}: (memref<1x32x26x320xf16, strides: [8320, 8320, 320, 1]>, f16, none) -> (memref<1x32x26x320xf16, strides: [8320, 8320, 320, 1]>, none)
CHECK:          %R10, %B10C0 = "arith.cast"(%R12, %D7C0) {round_mode = 3}: (memref<1x32x26x320xf16, strides: [8320, 8320, 320, 1]>, none) -> (memref<1x32x26x320xf16, strides: [8320, 8320, 320, 1]>, none)
CHECK:          %R12, %B11C0 = "arith.mul"(%R10, %C0.693359375, %D7C0) {round_mode = 0}: (memref<1x32x26x320xf16, strides: [8320, 8320, 320, 1]>, f16, none) -> (memref<1x32x26x320xf16, strides: [8320, 8320, 320, 1]>, none)
CHECK:          %R12, %B12C0 = "arith.sub"(%R13.0x100, %R12, %D7C0) {round_mode = 0}: (memref<1x32x26x320xf16, strides: [8320, 8320, 320, 1]>, memref<1x32x26x320xf16, strides: [8320, 8320, 320, 1]>, none) -> (memref<1x32x26x320xf16, strides: [8320, 8320, 320, 1]>, none)
CHECK:          %R13.0x100, %B13C0 = "arith.cast"(%R10, %D7C0) {round_mode = 1}: (memref<1x32x26x320xf16, strides: [8320, 8320, 320, 1]>, none) -> (memref<1x32x26x320xsi8, strides: [8320, 8320, 320, 1]>, none)
CHECK:          %R10, %B14C0 = "arith.min"(%R13.0x100, %C15, %D7C0) {round_mode = 0}: (memref<1x32x26x320xsi8, strides: [8320, 8320, 320, 1]>, si8, none) -> (memref<1x32x26x320xsi8, strides: [8320, 8320, 320, 1]>, none)
CHECK:          %R13.0x100, %B15C0 = "arith.max"(%R10, %C-15, %D7C0) {round_mode = 0}: (memref<1x32x26x320xsi8, strides: [8320, 8320, 320, 1]>, si8, none) -> (memref<1x32x26x320xsi8, strides: [8320, 8320, 320, 1]>, none)
CHECK:          %R10, %B16C0 = "arith.add_satu"(%R13.0x100, %C15, %C10, %D7C0) {round_mode = 1}: (memref<1x32x26x320xsi8, strides: [8320, 8320, 320, 1]>, si16, ui8, none) -> (memref<1x32x26x320xsi16, strides: [8320, 8320, 320, 1]>, none)
CHECK:          %R13.0x100, %B17C0 = "sfu.taylor_4x"(%R12, %R14.0x200, %D7C0) : (memref<1x32x26x320xf16, strides: [8320, 8320, 320, 1]>, memref<1x32x1x7xf16, strides: [0, 0, 7, 1]>, none) -> (memref<1x32x26x320xf16, strides: [8320, 8320, 320, 1]>, none)
CHECK:          %R10, %B18C0 = "arith.mul"(%R13.0x100, %R10, %D7C0) {round_mode = 0}: (memref<1x32x26x320xf16, strides: [8320, 8320, 320, 1]>, memref<1x32x26x320xf16, strides: [8320, 8320, 320, 1]>, none) -> (memref<1x32x26x320xf16, strides: [8320, 8320, 320, 1]>, none)
CHECK:          %R12, %B19C0 = "arith.add"(%R10, %C1.0, %D7C0) {round_mode = 0}: (memref<1x32x26x320xf16, strides: [8320, 8320, 320, 1]>, f16, none) -> (memref<1x32x26x320xf16, strides: [8320, 8320, 320, 1]>, none)
CHECK:          %R10, %B20C0 = "arith.div"(%C1.0, %R12, %D7C0) {iter = 3}: (f16, memref<1x32x26x320xf16, strides: [8320, 8320, 320, 1]>, none) -> (memref<1x32x26x320xf16, strides: [8320, 8320, 320, 1]>, none)
CHECK:          %R10, %B21C0 = "arith.mul"(%R10, %R14.0x2200, %D7C0) {round_mode = 0}: (memref<1x32x26x320xf16, strides: [8320, 8320, 320, 1]>, memref<1x32x26x320xf16, strides: [8320, 8320, 320, 1]>, none) -> (memref<1x32x26x320xf16, strides: [8320, 8320, 320, 1]>, none)
CHECK:          %R9.0x24c0, %D8C0 = "dma.tensor"(%G1.0x14000, %B4C0) : (memref<1x64x1x288xi16, strides: [18432, 288, 288, 1]>, none) -> (memref<1x64x1x288xi16, strides: [288, 288, 288, 1]>, none)
CHECK:          %R9.0x3040, %D9C0 = "dma.tensor"(%G1.0x13000, %B4C0) : (memref<1x64x1x1xf32, strides: [64, 1, 1, 1]>, none) -> (memref<1x64x1x1xf32, strides: [1, 1, 1, 1]>, none)
CHECK:          %R0, %D10C0 = "dma.tensor"(%G2.0x1e000, %B4C0) : (memref<1x3x58x640xf32, strides: [1228800, 409600, 640, 1]>, none) -> (memref<1x3x58x640xf32, strides: [37120, 37120, 640, 1]>, none)
CHECK:          %R12, %B22C0 = "conv.normal"(%R10, %R9.0x24c0, %R9.0x3040, %C0.0, %D10C0) {kernel = [3, 3], stride = [2, 2], in_zero = [0, 0], ke_zero = [0, 0], opt_kernel_rotate = False, pad_mode = 0, pad = [1, 0, 1, 1], opt_res_add = False, do_relu = False, sym_range = False, do_rq = False, round_mode = 0}: (memref<1x32x26x320xf16, strides: [8320, 8320, 320, 1]>, memref<64x32x3x3xf16>, memref<1x64x1x1xui32, strides: [1, 1, 1, 1]>, f16, none) -> (memref<1x64x13x160xf16, strides: [2080, 2080, 160, 1]>, none)
CHECK:          %R10.0x2080, %B23C0 = "tsbc.s_bc"(%R0.0x580, %D10C0) : (memref<1x64x1x7xf16, strides: [32, 32, 7, 1]>, none) -> (memref<1x64x1x7xf16, strides: [32, 32, 7, 1]>, none)
CHECK:          %R10.0x1040, %B24C0 = "arith.sub"(%C0.0, %R12, %D10C0) {round_mode = 0}: (f16, memref<1x64x13x160xf16, strides: [2080, 2080, 160, 1]>, none) -> (memref<1x64x13x160xf16, strides: [2080, 2080, 160, 1]>, none)
CHECK:          %R10.0x1040, %B25C0 = "arith.max"(%R10.0x1040, %C-45408.0, %D10C0) {round_mode = 0}: (memref<1x64x13x160xf16, strides: [2080, 2080, 160, 1]>, f16, none) -> (memref<1x64x13x160xf16, strides: [2080, 2080, 160, 1]>, none)
CHECK:          %R10.0x1040, %B26C0 = "arith.min"(%R10.0x1040, %C45408.0, %D10C0) {round_mode = 0}: (memref<1x64x13x160xf16, strides: [2080, 2080, 160, 1]>, f16, none) -> (memref<1x64x13x160xf16, strides: [2080, 2080, 160, 1]>, none)
CHECK:          %R10, %B27C0 = "arith.mul"(%R10.0x1040, %C1.4423828125, %D10C0) {round_mode = 0}: (memref<1x64x13x160xf16, strides: [2080, 2080, 160, 1]>, f16, none) -> (memref<1x64x13x160xf16, strides: [2080, 2080, 160, 1]>, none)
CHECK:          %R9.0x400, %B28C0 = "arith.cast"(%R10, %D10C0) {round_mode = 3}: (memref<1x64x13x160xf16, strides: [2080, 2080, 160, 1]>, none) -> (memref<1x64x13x160xf16, strides: [2080, 2080, 160, 1]>, none)
CHECK:          %R10, %B29C0 = "arith.mul"(%R9.0x400, %C0.693359375, %D10C0) {round_mode = 0}: (memref<1x64x13x160xf16, strides: [2080, 2080, 160, 1]>, f16, none) -> (memref<1x64x13x160xf16, strides: [2080, 2080, 160, 1]>, none)
CHECK:          %R10, %B30C0 = "arith.sub"(%R10.0x1040, %R10, %D10C0) {round_mode = 0}: (memref<1x64x13x160xf16, strides: [2080, 2080, 160, 1]>, memref<1x64x13x160xf16, strides: [2080, 2080, 160, 1]>, none) -> (memref<1x64x13x160xf16, strides: [2080, 2080, 160, 1]>, none)
CHECK:          %R10.0x1040, %B31C0 = "arith.cast"(%R9.0x400, %D10C0) {round_mode = 1}: (memref<1x64x13x160xf16, strides: [2080, 2080, 160, 1]>, none) -> (memref<1x64x13x160xsi8, strides: [2112, 2112, 160, 1]>, none)
CHECK:          %R9.0x400, %B32C0 = "arith.min"(%R10.0x1040, %C15, %D10C0) {round_mode = 0}: (memref<1x64x13x160xsi8, strides: [2112, 2112, 160, 1]>, si8, none) -> (memref<1x64x13x160xsi8, strides: [2112, 2112, 160, 1]>, none)
CHECK:          %R10.0x1040, %B33C0 = "arith.max"(%R9.0x400, %C-15, %D10C0) {round_mode = 0}: (memref<1x64x13x160xsi8, strides: [2112, 2112, 160, 1]>, si8, none) -> (memref<1x64x13x160xsi8, strides: [2112, 2112, 160, 1]>, none)
CHECK:          %R9.0x400, %B34C0 = "arith.add_satu"(%R10.0x1040, %C15, %C10, %D10C0) {round_mode = 1}: (memref<1x64x13x160xsi8, strides: [2112, 2112, 160, 1]>, si16, ui8, none) -> (memref<1x64x13x160xsi16, strides: [2080, 2080, 160, 1]>, none)
CHECK:          %R10.0x1040, %B35C0 = "sfu.taylor_4x"(%R10, %R10.0x2080, %D10C0) : (memref<1x64x13x160xf16, strides: [2080, 2080, 160, 1]>, memref<1x64x1x7xf16, strides: [0, 0, 7, 1]>, none) -> (memref<1x64x13x160xf16, strides: [2080, 2080, 160, 1]>, none)
CHECK:          %R9.0x400, %B36C0 = "arith.mul"(%R10.0x1040, %R9.0x400, %D10C0) {round_mode = 0}: (memref<1x64x13x160xf16, strides: [2080, 2080, 160, 1]>, memref<1x64x13x160xf16, strides: [2080, 2080, 160, 1]>, none) -> (memref<1x64x13x160xf16, strides: [2080, 2080, 160, 1]>, none)
CHECK:          %R10, %B37C0 = "arith.add"(%R9.0x400, %C1.0, %D10C0) {round_mode = 0}: (memref<1x64x13x160xf16, strides: [2080, 2080, 160, 1]>, f16, none) -> (memref<1x64x13x160xf16, strides: [2080, 2080, 160, 1]>, none)
CHECK:          %R9.0x400, %B38C0 = "arith.div"(%C1.0, %R10, %D10C0) {iter = 3}: (f16, memref<1x64x13x160xf16, strides: [2080, 2080, 160, 1]>, none) -> (memref<1x64x13x160xf16, strides: [2080, 2080, 160, 1]>, none)
CHECK:          %R9.0x400, %B39C0 = "arith.mul"(%R9.0x400, %R12, %D10C0) {round_mode = 0}: (memref<1x64x13x160xf16, strides: [2080, 2080, 160, 1]>, memref<1x64x13x160xf16, strides: [2080, 2080, 160, 1]>, none) -> (memref<1x64x13x160xf16, strides: [2080, 2080, 160, 1]>, none)
CHECK:          %R15.0x2580, %D11C0 = "dma.tensor"(%G1.0x1e000, %B22C0) : (memref<1x32x1x64xi16, strides: [2048, 64, 64, 1]>, none) -> (memref<1x32x1x64xi16, strides: [64, 64, 64, 1]>, none)
CHECK:          %R9.0x3080, %D12C0 = "dma.tensor"(%G1.0x1d000, %B22C0) : (memref<1x32x1x1xf32, strides: [32, 1, 1, 1]>, none) -> (memref<1x32x1x1xf32, strides: [1, 1, 1, 1]>, none)
CHECK:          %R10, %B40C0 = "conv.normal"(%R9.0x400, %R15.0x2580, %R9.0x3080, %C0.0, %D12C0) {kernel = [1, 1], stride = [1, 1], in_zero = [0, 0], ke_zero = [0, 0], opt_kernel_rotate = False, pad_mode = 0, pad = [0, 0, 0, 0], opt_res_add = False, do_relu = False, sym_range = False, do_rq = False, round_mode = 0}: (memref<1x64x13x160xf16, strides: [2080, 2080, 160, 1]>, memref<32x64x1x1xf16>, memref<1x32x1x1xui32, strides: [1, 1, 1, 1]>, f16, none) -> (memref<1x32x13x160xf16, strides: [2080, 2080, 160, 1]>, none)
CHECK:          %R12.0x2080, %B41C0 = "tsbc.s_bc"(%R0.0x580, %D12C0) : (memref<1x64x1x7xf16, strides: [32, 32, 7, 1]>, none) -> (memref<1x64x1x7xf16, strides: [32, 32, 7, 1]>, none)
CHECK:          %R12.0x1040, %B42C0 = "arith.sub"(%C0.0, %R10, %D12C0) {round_mode = 0}: (f16, memref<1x32x13x160xf16, strides: [2080, 2080, 160, 1]>, none) -> (memref<1x32x13x160xf16, strides: [2080, 2080, 160, 1]>, none)
CHECK:          %R12.0x1040, %B43C0 = "arith.max"(%R12.0x1040, %C-45408.0, %D12C0) {round_mode = 0}: (memref<1x32x13x160xf16, strides: [2080, 2080, 160, 1]>, f16, none) -> (memref<1x32x13x160xf16, strides: [2080, 2080, 160, 1]>, none)
CHECK:          %R12.0x1040, %B44C0 = "arith.min"(%R12.0x1040, %C45408.0, %D12C0) {round_mode = 0}: (memref<1x32x13x160xf16, strides: [2080, 2080, 160, 1]>, f16, none) -> (memref<1x32x13x160xf16, strides: [2080, 2080, 160, 1]>, none)
CHECK:          %R12, %B45C0 = "arith.mul"(%R12.0x1040, %C1.4423828125, %D12C0) {round_mode = 0}: (memref<1x32x13x160xf16, strides: [2080, 2080, 160, 1]>, f16, none) -> (memref<1x32x13x160xf16, strides: [2080, 2080, 160, 1]>, none)
CHECK:          %R11, %B46C0 = "arith.cast"(%R12, %D12C0) {round_mode = 3}: (memref<1x32x13x160xf16, strides: [2080, 2080, 160, 1]>, none) -> (memref<1x32x13x160xf16, strides: [2080, 2080, 160, 1]>, none)
CHECK:          %R12, %B47C0 = "arith.mul"(%R11, %C0.693359375, %D12C0) {round_mode = 0}: (memref<1x32x13x160xf16, strides: [2080, 2080, 160, 1]>, f16, none) -> (memref<1x32x13x160xf16, strides: [2080, 2080, 160, 1]>, none)
CHECK:          %R12, %B48C0 = "arith.sub"(%R12.0x1040, %R12, %D12C0) {round_mode = 0}: (memref<1x32x13x160xf16, strides: [2080, 2080, 160, 1]>, memref<1x32x13x160xf16, strides: [2080, 2080, 160, 1]>, none) -> (memref<1x32x13x160xf16, strides: [2080, 2080, 160, 1]>, none)
CHECK:          %R12.0x1040, %B49C0 = "arith.cast"(%R11, %D12C0) {round_mode = 1}: (memref<1x32x13x160xf16, strides: [2080, 2080, 160, 1]>, none) -> (memref<1x32x13x160xsi8, strides: [2112, 2112, 160, 1]>, none)
CHECK:          %R11, %B50C0 = "arith.min"(%R12.0x1040, %C15, %D12C0) {round_mode = 0}: (memref<1x32x13x160xsi8, strides: [2112, 2112, 160, 1]>, si8, none) -> (memref<1x32x13x160xsi8, strides: [2112, 2112, 160, 1]>, none)
CHECK:          %R12.0x1040, %B51C0 = "arith.max"(%R11, %C-15, %D12C0) {round_mode = 0}: (memref<1x32x13x160xsi8, strides: [2112, 2112, 160, 1]>, si8, none) -> (memref<1x32x13x160xsi8, strides: [2112, 2112, 160, 1]>, none)
CHECK:          %R11, %B52C0 = "arith.add_satu"(%R12.0x1040, %C15, %C10, %D12C0) {round_mode = 1}: (memref<1x32x13x160xsi8, strides: [2112, 2112, 160, 1]>, si16, ui8, none) -> (memref<1x32x13x160xsi16, strides: [2080, 2080, 160, 1]>, none)
CHECK:          %R12.0x1040, %B53C0 = "sfu.taylor_4x"(%R12, %R12.0x2080, %D12C0) : (memref<1x32x13x160xf16, strides: [2080, 2080, 160, 1]>, memref<1x32x1x7xf16, strides: [0, 0, 7, 1]>, none) -> (memref<1x32x13x160xf16, strides: [2080, 2080, 160, 1]>, none)
CHECK:          %R11, %B54C0 = "arith.mul"(%R12.0x1040, %R11, %D12C0) {round_mode = 0}: (memref<1x32x13x160xf16, strides: [2080, 2080, 160, 1]>, memref<1x32x13x160xf16, strides: [2080, 2080, 160, 1]>, none) -> (memref<1x32x13x160xf16, strides: [2080, 2080, 160, 1]>, none)
CHECK:          %R12, %B55C0 = "arith.add"(%R11, %C1.0, %D12C0) {round_mode = 0}: (memref<1x32x13x160xf16, strides: [2080, 2080, 160, 1]>, f16, none) -> (memref<1x32x13x160xf16, strides: [2080, 2080, 160, 1]>, none)
CHECK:          %R11, %B56C0 = "arith.div"(%C1.0, %R12, %D12C0) {iter = 3}: (f16, memref<1x32x13x160xf16, strides: [2080, 2080, 160, 1]>, none) -> (memref<1x32x13x160xf16, strides: [2080, 2080, 160, 1]>, none)
CHECK:          %R11, %B57C0 = "arith.mul"(%R11, %R10, %D12C0) {round_mode = 0}: (memref<1x32x13x160xf16, strides: [2080, 2080, 160, 1]>, memref<1x32x13x160xf16, strides: [2080, 2080, 160, 1]>, none) -> (memref<1x32x13x160xf16, strides: [2080, 2080, 160, 1]>, none)
CHECK:          %R10.0x1040, %B58C0 = "conv.normal"(%R11, %R15.0x2600, %R9.0x30c0, %C0.0, %D12C0) {kernel = [1, 1], stride = [1, 1], in_zero = [0, 0], ke_zero = [0, 0], opt_kernel_rotate = False, pad_mode = 0, pad = [0, 0, 0, 0], opt_res_add = False, do_relu = False, sym_range = False, do_rq = False, round_mode = 0}: (memref<1x32x13x160xf16, strides: [2080, 2080, 160, 1]>, memref<32x32x1x1xf16>, memref<1x32x1x1xui32, strides: [1, 1, 1, 1]>, f16, none) -> (memref<1x32x13x160xf16, strides: [2080, 2080, 160, 1]>, none)
CHECK:          %L30.0x6980000000, %D13C0 = "dma.tensor"(%R9.0x400, %B40C0) : (memref<1x64x13x160xi16, strides: [2080, 2080, 160, 1]>, none) -> (memref<1x64x13x160xi16, strides: [1638400, 25600, 160, 1]>, none)
CHECK:          %R9.0x2480, %B59C0 = "tsbc.s_bc"(%R0.0x580, %D13C0) : (memref<1x64x1x7xf16, strides: [32, 32, 7, 1]>, none) -> (memref<1x64x1x7xf16, strides: [32, 32, 7, 1]>, none)
CHECK:          %R9.0x1440, %B60C0 = "arith.sub"(%C0.0, %R10.0x1040, %D13C0) {round_mode = 0}: (f16, memref<1x32x13x160xf16, strides: [2080, 2080, 160, 1]>, none) -> (memref<1x32x13x160xf16, strides: [2080, 2080, 160, 1]>, none)
CHECK:          %R9.0x1440, %B61C0 = "arith.max"(%R9.0x1440, %C-45408.0, %D13C0) {round_mode = 0}: (memref<1x32x13x160xf16, strides: [2080, 2080, 160, 1]>, f16, none) -> (memref<1x32x13x160xf16, strides: [2080, 2080, 160, 1]>, none)
CHECK:          %R9.0x1440, %B62C0 = "arith.min"(%R9.0x1440, %C45408.0, %D13C0) {round_mode = 0}: (memref<1x32x13x160xf16, strides: [2080, 2080, 160, 1]>, f16, none) -> (memref<1x32x13x160xf16, strides: [2080, 2080, 160, 1]>, none)
CHECK:          %R9.0x400, %B63C0 = "arith.mul"(%R9.0x1440, %C1.4423828125, %D13C0) {round_mode = 0}: (memref<1x32x13x160xf16, strides: [2080, 2080, 160, 1]>, f16, none) -> (memref<1x32x13x160xf16, strides: [2080, 2080, 160, 1]>, none)
CHECK:          %R15, %B64C0 = "arith.cast"(%R9.0x400, %D13C0) {round_mode = 3}: (memref<1x32x13x160xf16, strides: [2080, 2080, 160, 1]>, none) -> (memref<1x32x13x160xf16, strides: [2080, 2080, 160, 1]>, none)
CHECK:          %R9.0x400, %B65C0 = "arith.mul"(%R15, %C0.693359375, %D13C0) {round_mode = 0}: (memref<1x32x13x160xf16, strides: [2080, 2080, 160, 1]>, f16, none) -> (memref<1x32x13x160xf16, strides: [2080, 2080, 160, 1]>, none)
CHECK:          %R9.0x400, %B66C0 = "arith.sub"(%R9.0x1440, %R9.0x400, %D13C0) {round_mode = 0}: (memref<1x32x13x160xf16, strides: [2080, 2080, 160, 1]>, memref<1x32x13x160xf16, strides: [2080, 2080, 160, 1]>, none) -> (memref<1x32x13x160xf16, strides: [2080, 2080, 160, 1]>, none)
CHECK:          %R9.0x1440, %B67C0 = "arith.cast"(%R15, %D13C0) {round_mode = 1}: (memref<1x32x13x160xf16, strides: [2080, 2080, 160, 1]>, none) -> (memref<1x32x13x160xsi8, strides: [2112, 2112, 160, 1]>, none)
CHECK:          %R15, %B68C0 = "arith.min"(%R9.0x1440, %C15, %D13C0) {round_mode = 0}: (memref<1x32x13x160xsi8, strides: [2112, 2112, 160, 1]>, si8, none) -> (memref<1x32x13x160xsi8, strides: [2112, 2112, 160, 1]>, none)
CHECK:          %R9.0x1440, %B69C0 = "arith.max"(%R15, %C-15, %D13C0) {round_mode = 0}: (memref<1x32x13x160xsi8, strides: [2112, 2112, 160, 1]>, si8, none) -> (memref<1x32x13x160xsi8, strides: [2112, 2112, 160, 1]>, none)
CHECK:          %R15, %B70C0 = "arith.add_satu"(%R9.0x1440, %C15, %C10, %D13C0) {round_mode = 1}: (memref<1x32x13x160xsi8, strides: [2112, 2112, 160, 1]>, si16, ui8, none) -> (memref<1x32x13x160xsi16, strides: [2080, 2080, 160, 1]>, none)
CHECK:          %R9.0x1440, %B71C0 = "sfu.taylor_4x"(%R9.0x400, %R9.0x2480, %D13C0) : (memref<1x32x13x160xf16, strides: [2080, 2080, 160, 1]>, memref<1x32x1x7xf16, strides: [0, 0, 7, 1]>, none) -> (memref<1x32x13x160xf16, strides: [2080, 2080, 160, 1]>, none)
CHECK:          %R15, %B72C0 = "arith.mul"(%R9.0x1440, %R15, %D13C0) {round_mode = 0}: (memref<1x32x13x160xf16, strides: [2080, 2080, 160, 1]>, memref<1x32x13x160xf16, strides: [2080, 2080, 160, 1]>, none) -> (memref<1x32x13x160xf16, strides: [2080, 2080, 160, 1]>, none)
CHECK:          %R9.0x400, %B73C0 = "arith.add"(%R15, %C1.0, %D13C0) {round_mode = 0}: (memref<1x32x13x160xf16, strides: [2080, 2080, 160, 1]>, f16, none) -> (memref<1x32x13x160xf16, strides: [2080, 2080, 160, 1]>, none)
CHECK:          %R15, %B74C0 = "arith.div"(%C1.0, %R9.0x400, %D13C0) {iter = 3}: (f16, memref<1x32x13x160xf16, strides: [2080, 2080, 160, 1]>, none) -> (memref<1x32x13x160xf16, strides: [2080, 2080, 160, 1]>, none)
CHECK:          %R15, %B75C0 = "arith.mul"(%R15, %R10.0x1040, %D13C0) {round_mode = 0}: (memref<1x32x13x160xf16, strides: [2080, 2080, 160, 1]>, memref<1x32x13x160xf16, strides: [2080, 2080, 160, 1]>, none) -> (memref<1x32x13x160xf16, strides: [2080, 2080, 160, 1]>, none)
CHECK:          %L30.0x6980640000, %D14C0 = "dma.tensor"(%R11, %B58C0) : (memref<1x32x13x160xi16, strides: [2080, 2080, 160, 1]>, none) -> (memref<1x32x13x160xi16, strides: [819200, 25600, 160, 1]>, none)
CHECK:          %R10, %B76C0 = "arith.cast"(%R0, %D14C0) {round_mode = 1}: (memref<1x3x58x640xf32, strides: [37120, 37120, 640, 1]>, none) -> (memref<1x3x58x640xf16, strides: [37120, 37120, 640, 1]>, none)
CHECK:          %L30.0x69804b0000, %D15C0 = "dma.tensor"(%R15, %B75C0) : (memref<1x32x13x160xi16, strides: [2080, 2080, 160, 1]>, none) -> (memref<1x32x13x160xi16, strides: [819200, 25600, 160, 1]>, none)
CHECK:          %R14.0x2200, %B77C0 = "conv.normal"(%R10, %R9.0x2700, %R9.0x3000, %C0.0, %D15C0) {kernel = [6, 6], stride = [2, 2], in_zero = [0, 0], ke_zero = [0, 0], opt_kernel_rotate = False, pad_mode = 0, pad = [0, 0, 2, 2], opt_res_add = False, do_relu = False, sym_range = False, do_rq = False, round_mode = 0}: (memref<1x3x58x640xf16, strides: [37120, 37120, 640, 1]>, memref<32x3x6x6xf16>, memref<1x32x1x1xui32, strides: [1, 1, 1, 1]>, f16, none) -> (memref<1x32x27x320xf16, strides: [8640, 8640, 320, 1]>, none)
CHECK:          %R14.0x700, %B78C0 = "tsbc.s_bc"(%R0.0x580, %D15C0) : (memref<1x64x1x7xf16, strides: [32, 32, 7, 1]>, none) -> (memref<1x64x1x7xf16, strides: [32, 32, 7, 1]>, none)
CHECK:          %R13.0x380, %B79C0 = "arith.sub"(%C0.0, %R14.0x2200, %D15C0) {round_mode = 0}: (f16, memref<1x32x27x320xf16, strides: [8640, 8640, 320, 1]>, none) -> (memref<1x32x27x320xf16, strides: [8640, 8640, 320, 1]>, none)
CHECK:          %R13.0x380, %B80C0 = "arith.max"(%R13.0x380, %C-45408.0, %D15C0) {round_mode = 0}: (memref<1x32x27x320xf16, strides: [8640, 8640, 320, 1]>, f16, none) -> (memref<1x32x27x320xf16, strides: [8640, 8640, 320, 1]>, none)
CHECK:          %R13.0x380, %B81C0 = "arith.min"(%R13.0x380, %C45408.0, %D15C0) {round_mode = 0}: (memref<1x32x27x320xf16, strides: [8640, 8640, 320, 1]>, f16, none) -> (memref<1x32x27x320xf16, strides: [8640, 8640, 320, 1]>, none)
CHECK:          %R12, %B82C0 = "arith.mul"(%R13.0x380, %C1.4423828125, %D15C0) {round_mode = 0}: (memref<1x32x27x320xf16, strides: [8640, 8640, 320, 1]>, f16, none) -> (memref<1x32x27x320xf16, strides: [8640, 8640, 320, 1]>, none)
CHECK:          %R10, %B83C0 = "arith.cast"(%R12, %D15C0) {round_mode = 3}: (memref<1x32x27x320xf16, strides: [8640, 8640, 320, 1]>, none) -> (memref<1x32x27x320xf16, strides: [8640, 8640, 320, 1]>, none)
CHECK:          %R12, %B84C0 = "arith.mul"(%R10, %C0.693359375, %D15C0) {round_mode = 0}: (memref<1x32x27x320xf16, strides: [8640, 8640, 320, 1]>, f16, none) -> (memref<1x32x27x320xf16, strides: [8640, 8640, 320, 1]>, none)
CHECK:          %R12, %B85C0 = "arith.sub"(%R13.0x380, %R12, %D15C0) {round_mode = 0}: (memref<1x32x27x320xf16, strides: [8640, 8640, 320, 1]>, memref<1x32x27x320xf16, strides: [8640, 8640, 320, 1]>, none) -> (memref<1x32x27x320xf16, strides: [8640, 8640, 320, 1]>, none)
CHECK:          %R13.0x380, %B86C0 = "arith.cast"(%R10, %D15C0) {round_mode = 1}: (memref<1x32x27x320xf16, strides: [8640, 8640, 320, 1]>, none) -> (memref<1x32x27x320xsi8, strides: [8640, 8640, 320, 1]>, none)
CHECK:          %R10, %B87C0 = "arith.min"(%R13.0x380, %C15, %D15C0) {round_mode = 0}: (memref<1x32x27x320xsi8, strides: [8640, 8640, 320, 1]>, si8, none) -> (memref<1x32x27x320xsi8, strides: [8640, 8640, 320, 1]>, none)
CHECK:          %R13.0x380, %B88C0 = "arith.max"(%R10, %C-15, %D15C0) {round_mode = 0}: (memref<1x32x27x320xsi8, strides: [8640, 8640, 320, 1]>, si8, none) -> (memref<1x32x27x320xsi8, strides: [8640, 8640, 320, 1]>, none)
CHECK:          %R10, %B89C0 = "arith.add_satu"(%R13.0x380, %C15, %C10, %D15C0) {round_mode = 1}: (memref<1x32x27x320xsi8, strides: [8640, 8640, 320, 1]>, si16, ui8, none) -> (memref<1x32x27x320xsi16, strides: [8640, 8640, 320, 1]>, none)
CHECK:          %R13.0x380, %B90C0 = "sfu.taylor_4x"(%R12, %R14.0x700, %D15C0) : (memref<1x32x27x320xf16, strides: [8640, 8640, 320, 1]>, memref<1x32x1x7xf16, strides: [0, 0, 7, 1]>, none) -> (memref<1x32x27x320xf16, strides: [8640, 8640, 320, 1]>, none)
CHECK:          %R10, %B91C0 = "arith.mul"(%R13.0x380, %R10, %D15C0) {round_mode = 0}: (memref<1x32x27x320xf16, strides: [8640, 8640, 320, 1]>, memref<1x32x27x320xf16, strides: [8640, 8640, 320, 1]>, none) -> (memref<1x32x27x320xf16, strides: [8640, 8640, 320, 1]>, none)
CHECK:          %R12, %B92C0 = "arith.add"(%R10, %C1.0, %D15C0) {round_mode = 0}: (memref<1x32x27x320xf16, strides: [8640, 8640, 320, 1]>, f16, none) -> (memref<1x32x27x320xf16, strides: [8640, 8640, 320, 1]>, none)
CHECK:          %R10, %B93C0 = "arith.div"(%C1.0, %R12, %D15C0) {iter = 3}: (f16, memref<1x32x27x320xf16, strides: [8640, 8640, 320, 1]>, none) -> (memref<1x32x27x320xf16, strides: [8640, 8640, 320, 1]>, none)
CHECK:          %R10, %B94C0 = "arith.mul"(%R10, %R14.0x2200, %D15C0) {round_mode = 0}: (memref<1x32x27x320xf16, strides: [8640, 8640, 320, 1]>, memref<1x32x27x320xf16, strides: [8640, 8640, 320, 1]>, none) -> (memref<1x32x27x320xf16, strides: [8640, 8640, 320, 1]>, none)
CHECK:          %R12, %B95C0 = "conv.normal"(%R10, %R9.0x24c0, %R9.0x3040, %C0.0, %D15C0) {kernel = [3, 3], stride = [2, 2], in_zero = [0, 0], ke_zero = [0, 0], opt_kernel_rotate = False, pad_mode = 0, pad = [0, 0, 1, 1], opt_res_add = False, do_relu = False, sym_range = False, do_rq = False, round_mode = 0}: (memref<1x32x27x320xf16, strides: [8640, 8640, 320, 1]>, memref<64x32x3x3xf16>, memref<1x64x1x1xui32, strides: [1, 1, 1, 1]>, f16, none) -> (memref<1x64x13x160xf16, strides: [2080, 2080, 160, 1]>, none)
CHECK:          %R10.0x2080, %B96C0 = "tsbc.s_bc"(%R0.0x580, %D15C0) : (memref<1x64x1x7xf16, strides: [32, 32, 7, 1]>, none) -> (memref<1x64x1x7xf16, strides: [32, 32, 7, 1]>, none)
CHECK:          %R10.0x1040, %B97C0 = "arith.sub"(%C0.0, %R12, %D15C0) {round_mode = 0}: (f16, memref<1x64x13x160xf16, strides: [2080, 2080, 160, 1]>, none) -> (memref<1x64x13x160xf16, strides: [2080, 2080, 160, 1]>, none)
CHECK:          %R10.0x1040, %B98C0 = "arith.max"(%R10.0x1040, %C-45408.0, %D15C0) {round_mode = 0}: (memref<1x64x13x160xf16, strides: [2080, 2080, 160, 1]>, f16, none) -> (memref<1x64x13x160xf16, strides: [2080, 2080, 160, 1]>, none)
CHECK:          %R10.0x1040, %B99C0 = "arith.min"(%R10.0x1040, %C45408.0, %D15C0) {round_mode = 0}: (memref<1x64x13x160xf16, strides: [2080, 2080, 160, 1]>, f16, none) -> (memref<1x64x13x160xf16, strides: [2080, 2080, 160, 1]>, none)
CHECK:          %R10, %B100C0 = "arith.mul"(%R10.0x1040, %C1.4423828125, %D15C0) {round_mode = 0}: (memref<1x64x13x160xf16, strides: [2080, 2080, 160, 1]>, f16, none) -> (memref<1x64x13x160xf16, strides: [2080, 2080, 160, 1]>, none)
CHECK:          %R9.0x400, %B101C0 = "arith.cast"(%R10, %D15C0) {round_mode = 3}: (memref<1x64x13x160xf16, strides: [2080, 2080, 160, 1]>, none) -> (memref<1x64x13x160xf16, strides: [2080, 2080, 160, 1]>, none)
CHECK:          %R10, %B102C0 = "arith.mul"(%R9.0x400, %C0.693359375, %D15C0) {round_mode = 0}: (memref<1x64x13x160xf16, strides: [2080, 2080, 160, 1]>, f16, none) -> (memref<1x64x13x160xf16, strides: [2080, 2080, 160, 1]>, none)
CHECK:          %R10, %B103C0 = "arith.sub"(%R10.0x1040, %R10, %D15C0) {round_mode = 0}: (memref<1x64x13x160xf16, strides: [2080, 2080, 160, 1]>, memref<1x64x13x160xf16, strides: [2080, 2080, 160, 1]>, none) -> (memref<1x64x13x160xf16, strides: [2080, 2080, 160, 1]>, none)
CHECK:          %R10.0x1040, %B104C0 = "arith.cast"(%R9.0x400, %D15C0) {round_mode = 1}: (memref<1x64x13x160xf16, strides: [2080, 2080, 160, 1]>, none) -> (memref<1x64x13x160xsi8, strides: [2112, 2112, 160, 1]>, none)
CHECK:          %R9.0x400, %B105C0 = "arith.min"(%R10.0x1040, %C15, %D15C0) {round_mode = 0}: (memref<1x64x13x160xsi8, strides: [2112, 2112, 160, 1]>, si8, none) -> (memref<1x64x13x160xsi8, strides: [2112, 2112, 160, 1]>, none)
CHECK:          %R10.0x1040, %B106C0 = "arith.max"(%R9.0x400, %C-15, %D15C0) {round_mode = 0}: (memref<1x64x13x160xsi8, strides: [2112, 2112, 160, 1]>, si8, none) -> (memref<1x64x13x160xsi8, strides: [2112, 2112, 160, 1]>, none)
CHECK:          %R9.0x400, %B107C0 = "arith.add_satu"(%R10.0x1040, %C15, %C10, %D15C0) {round_mode = 1}: (memref<1x64x13x160xsi8, strides: [2112, 2112, 160, 1]>, si16, ui8, none) -> (memref<1x64x13x160xsi16, strides: [2080, 2080, 160, 1]>, none)
CHECK:          %R10.0x1040, %B108C0 = "sfu.taylor_4x"(%R10, %R10.0x2080, %D15C0) : (memref<1x64x13x160xf16, strides: [2080, 2080, 160, 1]>, memref<1x64x1x7xf16, strides: [0, 0, 7, 1]>, none) -> (memref<1x64x13x160xf16, strides: [2080, 2080, 160, 1]>, none)
CHECK:          %R9.0x400, %B109C0 = "arith.mul"(%R10.0x1040, %R9.0x400, %D15C0) {round_mode = 0}: (memref<1x64x13x160xf16, strides: [2080, 2080, 160, 1]>, memref<1x64x13x160xf16, strides: [2080, 2080, 160, 1]>, none) -> (memref<1x64x13x160xf16, strides: [2080, 2080, 160, 1]>, none)
CHECK:          %R10, %B110C0 = "arith.add"(%R9.0x400, %C1.0, %D15C0) {round_mode = 0}: (memref<1x64x13x160xf16, strides: [2080, 2080, 160, 1]>, f16, none) -> (memref<1x64x13x160xf16, strides: [2080, 2080, 160, 1]>, none)
CHECK:          %R9.0x400, %B111C0 = "arith.div"(%C1.0, %R10, %D15C0) {iter = 3}: (f16, memref<1x64x13x160xf16, strides: [2080, 2080, 160, 1]>, none) -> (memref<1x64x13x160xf16, strides: [2080, 2080, 160, 1]>, none)
CHECK:          %R9.0x400, %B112C0 = "arith.mul"(%R9.0x400, %R12, %D15C0) {round_mode = 0}: (memref<1x64x13x160xf16, strides: [2080, 2080, 160, 1]>, memref<1x64x13x160xf16, strides: [2080, 2080, 160, 1]>, none) -> (memref<1x64x13x160xf16, strides: [2080, 2080, 160, 1]>, none)
CHECK:          %R10, %B113C0 = "conv.normal"(%R9.0x400, %R15.0x2580, %R9.0x3080, %C0.0, %D15C0) {kernel = [1, 1], stride = [1, 1], in_zero = [0, 0], ke_zero = [0, 0], opt_kernel_rotate = False, pad_mode = 0, pad = [0, 0, 0, 0], opt_res_add = False, do_relu = False, sym_range = False, do_rq = False, round_mode = 0}: (memref<1x64x13x160xf16, strides: [2080, 2080, 160, 1]>, memref<32x64x1x1xf16>, memref<1x32x1x1xui32, strides: [1, 1, 1, 1]>, f16, none) -> (memref<1x32x13x160xf16, strides: [2080, 2080, 160, 1]>, none)
CHECK:          %R12.0x2080, %B114C0 = "tsbc.s_bc"(%R0.0x580, %D15C0) : (memref<1x64x1x7xf16, strides: [32, 32, 7, 1]>, none) -> (memref<1x64x1x7xf16, strides: [32, 32, 7, 1]>, none)
CHECK:          %R12.0x1040, %B115C0 = "arith.sub"(%C0.0, %R10, %D15C0) {round_mode = 0}: (f16, memref<1x32x13x160xf16, strides: [2080, 2080, 160, 1]>, none) -> (memref<1x32x13x160xf16, strides: [2080, 2080, 160, 1]>, none)
CHECK:          %R12.0x1040, %B116C0 = "arith.max"(%R12.0x1040, %C-45408.0, %D15C0) {round_mode = 0}: (memref<1x32x13x160xf16, strides: [2080, 2080, 160, 1]>, f16, none) -> (memref<1x32x13x160xf16, strides: [2080, 2080, 160, 1]>, none)
CHECK:          %R12.0x1040, %B117C0 = "arith.min"(%R12.0x1040, %C45408.0, %D15C0) {round_mode = 0}: (memref<1x32x13x160xf16, strides: [2080, 2080, 160, 1]>, f16, none) -> (memref<1x32x13x160xf16, strides: [2080, 2080, 160, 1]>, none)
CHECK:          %R12, %B118C0 = "arith.mul"(%R12.0x1040, %C1.4423828125, %D15C0) {round_mode = 0}: (memref<1x32x13x160xf16, strides: [2080, 2080, 160, 1]>, f16, none) -> (memref<1x32x13x160xf16, strides: [2080, 2080, 160, 1]>, none)
CHECK:          %R11, %B119C0 = "arith.cast"(%R12, %D15C0) {round_mode = 3}: (memref<1x32x13x160xf16, strides: [2080, 2080, 160, 1]>, none) -> (memref<1x32x13x160xf16, strides: [2080, 2080, 160, 1]>, none)
CHECK:          %R12, %B120C0 = "arith.mul"(%R11, %C0.693359375, %D15C0) {round_mode = 0}: (memref<1x32x13x160xf16, strides: [2080, 2080, 160, 1]>, f16, none) -> (memref<1x32x13x160xf16, strides: [2080, 2080, 160, 1]>, none)
CHECK:          %R12, %B121C0 = "arith.sub"(%R12.0x1040, %R12, %D15C0) {round_mode = 0}: (memref<1x32x13x160xf16, strides: [2080, 2080, 160, 1]>, memref<1x32x13x160xf16, strides: [2080, 2080, 160, 1]>, none) -> (memref<1x32x13x160xf16, strides: [2080, 2080, 160, 1]>, none)
CHECK:          %R12.0x1040, %B122C0 = "arith.cast"(%R11, %D15C0) {round_mode = 1}: (memref<1x32x13x160xf16, strides: [2080, 2080, 160, 1]>, none) -> (memref<1x32x13x160xsi8, strides: [2112, 2112, 160, 1]>, none)
CHECK:          %R11, %B123C0 = "arith.min"(%R12.0x1040, %C15, %D15C0) {round_mode = 0}: (memref<1x32x13x160xsi8, strides: [2112, 2112, 160, 1]>, si8, none) -> (memref<1x32x13x160xsi8, strides: [2112, 2112, 160, 1]>, none)
CHECK:          %R12.0x1040, %B124C0 = "arith.max"(%R11, %C-15, %D15C0) {round_mode = 0}: (memref<1x32x13x160xsi8, strides: [2112, 2112, 160, 1]>, si8, none) -> (memref<1x32x13x160xsi8, strides: [2112, 2112, 160, 1]>, none)
CHECK:          %R11, %B125C0 = "arith.add_satu"(%R12.0x1040, %C15, %C10, %D15C0) {round_mode = 1}: (memref<1x32x13x160xsi8, strides: [2112, 2112, 160, 1]>, si16, ui8, none) -> (memref<1x32x13x160xsi16, strides: [2080, 2080, 160, 1]>, none)
CHECK:          %R12.0x1040, %B126C0 = "sfu.taylor_4x"(%R12, %R12.0x2080, %D15C0) : (memref<1x32x13x160xf16, strides: [2080, 2080, 160, 1]>, memref<1x32x1x7xf16, strides: [0, 0, 7, 1]>, none) -> (memref<1x32x13x160xf16, strides: [2080, 2080, 160, 1]>, none)
CHECK:          %R11, %B127C0 = "arith.mul"(%R12.0x1040, %R11, %D15C0) {round_mode = 0}: (memref<1x32x13x160xf16, strides: [2080, 2080, 160, 1]>, memref<1x32x13x160xf16, strides: [2080, 2080, 160, 1]>, none) -> (memref<1x32x13x160xf16, strides: [2080, 2080, 160, 1]>, none)
CHECK:          %R12, %B128C0 = "arith.add"(%R11, %C1.0, %D15C0) {round_mode = 0}: (memref<1x32x13x160xf16, strides: [2080, 2080, 160, 1]>, f16, none) -> (memref<1x32x13x160xf16, strides: [2080, 2080, 160, 1]>, none)
CHECK:          %R11, %B129C0 = "arith.div"(%C1.0, %R12, %D15C0) {iter = 3}: (f16, memref<1x32x13x160xf16, strides: [2080, 2080, 160, 1]>, none) -> (memref<1x32x13x160xf16, strides: [2080, 2080, 160, 1]>, none)
CHECK:          %R11, %B130C0 = "arith.mul"(%R11, %R10, %D15C0) {round_mode = 0}: (memref<1x32x13x160xf16, strides: [2080, 2080, 160, 1]>, memref<1x32x13x160xf16, strides: [2080, 2080, 160, 1]>, none) -> (memref<1x32x13x160xf16, strides: [2080, 2080, 160, 1]>, none)
CHECK:          %R10.0x1040, %B131C0 = "conv.normal"(%R11, %R15.0x2600, %R9.0x30c0, %C0.0, %D15C0) {kernel = [1, 1], stride = [1, 1], in_zero = [0, 0], ke_zero = [0, 0], opt_kernel_rotate = False, pad_mode = 0, pad = [0, 0, 0, 0], opt_res_add = False, do_relu = False, sym_range = False, do_rq = False, round_mode = 0}: (memref<1x32x13x160xf16, strides: [2080, 2080, 160, 1]>, memref<32x32x1x1xf16>, memref<1x32x1x1xui32, strides: [1, 1, 1, 1]>, f16, none) -> (memref<1x32x13x160xf16, strides: [2080, 2080, 160, 1]>, none)
CHECK:          %L30.0x6980001040, %D16C0 = "dma.tensor"(%R9.0x400, %B113C0) : (memref<1x64x13x160xi16, strides: [2080, 2080, 160, 1]>, none) -> (memref<1x64x13x160xi16, strides: [1638400, 25600, 160, 1]>, none)
CHECK:          %R9.0x2480, %B132C0 = "tsbc.s_bc"(%R0.0x580, %D16C0) : (memref<1x64x1x7xf16, strides: [32, 32, 7, 1]>, none) -> (memref<1x64x1x7xf16, strides: [32, 32, 7, 1]>, none)
CHECK:          %R9.0x1440, %B133C0 = "arith.sub"(%C0.0, %R10.0x1040, %D16C0) {round_mode = 0}: (f16, memref<1x32x13x160xf16, strides: [2080, 2080, 160, 1]>, none) -> (memref<1x32x13x160xf16, strides: [2080, 2080, 160, 1]>, none)
CHECK:          %R9.0x1440, %B134C0 = "arith.max"(%R9.0x1440, %C-45408.0, %D16C0) {round_mode = 0}: (memref<1x32x13x160xf16, strides: [2080, 2080, 160, 1]>, f16, none) -> (memref<1x32x13x160xf16, strides: [2080, 2080, 160, 1]>, none)
CHECK:          %R9.0x1440, %B135C0 = "arith.min"(%R9.0x1440, %C45408.0, %D16C0) {round_mode = 0}: (memref<1x32x13x160xf16, strides: [2080, 2080, 160, 1]>, f16, none) -> (memref<1x32x13x160xf16, strides: [2080, 2080, 160, 1]>, none)
CHECK:          %R9.0x400, %B136C0 = "arith.mul"(%R9.0x1440, %C1.4423828125, %D16C0) {round_mode = 0}: (memref<1x32x13x160xf16, strides: [2080, 2080, 160, 1]>, f16, none) -> (memref<1x32x13x160xf16, strides: [2080, 2080, 160, 1]>, none)
CHECK:          %R15, %B137C0 = "arith.cast"(%R9.0x400, %D16C0) {round_mode = 3}: (memref<1x32x13x160xf16, strides: [2080, 2080, 160, 1]>, none) -> (memref<1x32x13x160xf16, strides: [2080, 2080, 160, 1]>, none)
CHECK:          %R9.0x400, %B138C0 = "arith.mul"(%R15, %C0.693359375, %D16C0) {round_mode = 0}: (memref<1x32x13x160xf16, strides: [2080, 2080, 160, 1]>, f16, none) -> (memref<1x32x13x160xf16, strides: [2080, 2080, 160, 1]>, none)
CHECK:          %R9.0x400, %B139C0 = "arith.sub"(%R9.0x1440, %R9.0x400, %D16C0) {round_mode = 0}: (memref<1x32x13x160xf16, strides: [2080, 2080, 160, 1]>, memref<1x32x13x160xf16, strides: [2080, 2080, 160, 1]>, none) -> (memref<1x32x13x160xf16, strides: [2080, 2080, 160, 1]>, none)
CHECK:          %R9.0x1440, %B140C0 = "arith.cast"(%R15, %D16C0) {round_mode = 1}: (memref<1x32x13x160xf16, strides: [2080, 2080, 160, 1]>, none) -> (memref<1x32x13x160xsi8, strides: [2112, 2112, 160, 1]>, none)
CHECK:          %R15, %B141C0 = "arith.min"(%R9.0x1440, %C15, %D16C0) {round_mode = 0}: (memref<1x32x13x160xsi8, strides: [2112, 2112, 160, 1]>, si8, none) -> (memref<1x32x13x160xsi8, strides: [2112, 2112, 160, 1]>, none)
CHECK:          %R9.0x1440, %B142C0 = "arith.max"(%R15, %C-15, %D16C0) {round_mode = 0}: (memref<1x32x13x160xsi8, strides: [2112, 2112, 160, 1]>, si8, none) -> (memref<1x32x13x160xsi8, strides: [2112, 2112, 160, 1]>, none)
CHECK:          %R15, %B143C0 = "arith.add_satu"(%R9.0x1440, %C15, %C10, %D16C0) {round_mode = 1}: (memref<1x32x13x160xsi8, strides: [2112, 2112, 160, 1]>, si16, ui8, none) -> (memref<1x32x13x160xsi16, strides: [2080, 2080, 160, 1]>, none)
CHECK:          %R9.0x1440, %B144C0 = "sfu.taylor_4x"(%R9.0x400, %R9.0x2480, %D16C0) : (memref<1x32x13x160xf16, strides: [2080, 2080, 160, 1]>, memref<1x32x1x7xf16, strides: [0, 0, 7, 1]>, none) -> (memref<1x32x13x160xf16, strides: [2080, 2080, 160, 1]>, none)
CHECK:          %R15, %B145C0 = "arith.mul"(%R9.0x1440, %R15, %D16C0) {round_mode = 0}: (memref<1x32x13x160xf16, strides: [2080, 2080, 160, 1]>, memref<1x32x13x160xf16, strides: [2080, 2080, 160, 1]>, none) -> (memref<1x32x13x160xf16, strides: [2080, 2080, 160, 1]>, none)
CHECK:          %R9.0x400, %B146C0 = "arith.add"(%R15, %C1.0, %D16C0) {round_mode = 0}: (memref<1x32x13x160xf16, strides: [2080, 2080, 160, 1]>, f16, none) -> (memref<1x32x13x160xf16, strides: [2080, 2080, 160, 1]>, none)
CHECK:          %R15, %B147C0 = "arith.div"(%C1.0, %R9.0x400, %D16C0) {iter = 3}: (f16, memref<1x32x13x160xf16, strides: [2080, 2080, 160, 1]>, none) -> (memref<1x32x13x160xf16, strides: [2080, 2080, 160, 1]>, none)
CHECK:          %R15, %B148C0 = "arith.mul"(%R15, %R10.0x1040, %D16C0) {round_mode = 0}: (memref<1x32x13x160xf16, strides: [2080, 2080, 160, 1]>, memref<1x32x13x160xf16, strides: [2080, 2080, 160, 1]>, none) -> (memref<1x32x13x160xf16, strides: [2080, 2080, 160, 1]>, none)
CHECK:          %L30.0x6980641040, %D17C0 = "dma.tensor"(%R11, %B131C0) : (memref<1x32x13x160xi16, strides: [2080, 2080, 160, 1]>, none) -> (memref<1x32x13x160xi16, strides: [819200, 25600, 160, 1]>, none)
CHECK:          %L30.0x69804b1040, %D18C0 = "dma.tensor"(%R15, %B148C0) : (memref<1x32x13x160xi16, strides: [2080, 2080, 160, 1]>, none) -> (memref<1x32x13x160xi16, strides: [819200, 25600, 160, 1]>, none)
CHECK:          %B149C0, %msg49 = "system.send_msg"(%D18C0) {msg_id = 49, cnt = 32, status = Status.PRODUCING}
CHECK:          %D19C0, %msg49 = "dma.sys.sys_send"(%B149C0) {msg_id = 49, cnt = 32, status = Status.PRODUCING}
CHECK:        }
CHECK:        %D19C1, %msg49 = "@core_1"(%D1C1, %msg48) {
CHECK:          %B2C1 = "system.wait_msg"(%D1C1, %msg48) {msg_id = 48, cnt = 32, status = Status.RECIEVING}
CHECK:          %D2C1 = "dma.sys.sys_wait"(%B2C1, %msg48) {msg_id = 48, cnt = 32, status = Status.CONSUMED}
CHECK:          %R0, %D3C1 = "dma.tensor"(%G2.0x3e800, %B2C1) : (memref<1x3x58x640xf32, strides: [1228800, 409600, 640, 1]>, none) -> (memref<1x3x58x640xf32, strides: [37120, 37120, 640, 1]>, none)
CHECK:          %R10, %B3C1 = "arith.cast"(%R0, %D3C1) {round_mode = 1}: (memref<1x3x58x640xf32, strides: [37120, 37120, 640, 1]>, none) -> (memref<1x3x58x640xf16, strides: [37120, 37120, 640, 1]>, none)
CHECK:          %R9.0x2700, %D4C1 = "dma.tensor"(%G1.0x1000, %B2C1) : (memref<1x32x1x1152xi16, strides: [36864, 1152, 1152, 1]>, none) -> (memref<1x32x1x1152xi16, strides: [1152, 1152, 1152, 1]>, none)
CHECK:          %R9.0x3000, %D5C1 = "dma.tensor"(%G1.0x0, %B2C1) : (memref<1x32x1x1xf32, strides: [32, 1, 1, 1]>, none) -> (memref<1x32x1x1xf32, strides: [1, 1, 1, 1]>, none)
CHECK:          %R9.0x30c0, %D6C1 = "dma.tensor"(%G1.0x1f000, %B2C1) : (memref<1x32x1x1xf32, strides: [32, 1, 1, 1]>, none) -> (memref<1x32x1x1xf32, strides: [1, 1, 1, 1]>, none)
CHECK:          %R15.0x2600, %D7C1 = "dma.tensor"(%G1.0x20000, %B2C1) : (memref<1x32x1x32xi16, strides: [1024, 32, 32, 1]>, none) -> (memref<1x32x1x32xi16, strides: [32, 32, 32, 1]>, none)
CHECK:          %R14.0x2200, %B4C1 = "conv.normal"(%R10, %R9.0x2700, %R9.0x3000, %C0.0, %D7C1) {kernel = [6, 6], stride = [2, 2], in_zero = [0, 0], ke_zero = [0, 0], opt_kernel_rotate = False, pad_mode = 0, pad = [0, 0, 2, 2], opt_res_add = False, do_relu = False, sym_range = False, do_rq = False, round_mode = 0}: (memref<1x3x58x640xf16, strides: [37120, 37120, 640, 1]>, memref<32x3x6x6xf16>, memref<1x32x1x1xui32, strides: [1, 1, 1, 1]>, f16, none) -> (memref<1x32x27x320xf16, strides: [8640, 8640, 320, 1]>, none)
CHECK:          %R14.0x700, %B5C1 = "tsbc.s_bc"(%R0.0x580, %D7C1) : (memref<1x64x1x7xf16, strides: [32, 32, 7, 1]>, none) -> (memref<1x64x1x7xf16, strides: [32, 32, 7, 1]>, none)
CHECK:          %R13.0x380, %B6C1 = "arith.sub"(%C0.0, %R14.0x2200, %D7C1) {round_mode = 0}: (f16, memref<1x32x27x320xf16, strides: [8640, 8640, 320, 1]>, none) -> (memref<1x32x27x320xf16, strides: [8640, 8640, 320, 1]>, none)
CHECK:          %R13.0x380, %B7C1 = "arith.max"(%R13.0x380, %C-45408.0, %D7C1) {round_mode = 0}: (memref<1x32x27x320xf16, strides: [8640, 8640, 320, 1]>, f16, none) -> (memref<1x32x27x320xf16, strides: [8640, 8640, 320, 1]>, none)
CHECK:          %R13.0x380, %B8C1 = "arith.min"(%R13.0x380, %C45408.0, %D7C1) {round_mode = 0}: (memref<1x32x27x320xf16, strides: [8640, 8640, 320, 1]>, f16, none) -> (memref<1x32x27x320xf16, strides: [8640, 8640, 320, 1]>, none)
CHECK:          %R12, %B9C1 = "arith.mul"(%R13.0x380, %C1.4423828125, %D7C1) {round_mode = 0}: (memref<1x32x27x320xf16, strides: [8640, 8640, 320, 1]>, f16, none) -> (memref<1x32x27x320xf16, strides: [8640, 8640, 320, 1]>, none)
CHECK:          %R10, %B10C1 = "arith.cast"(%R12, %D7C1) {round_mode = 3}: (memref<1x32x27x320xf16, strides: [8640, 8640, 320, 1]>, none) -> (memref<1x32x27x320xf16, strides: [8640, 8640, 320, 1]>, none)
CHECK:          %R12, %B11C1 = "arith.mul"(%R10, %C0.693359375, %D7C1) {round_mode = 0}: (memref<1x32x27x320xf16, strides: [8640, 8640, 320, 1]>, f16, none) -> (memref<1x32x27x320xf16, strides: [8640, 8640, 320, 1]>, none)
CHECK:          %R12, %B12C1 = "arith.sub"(%R13.0x380, %R12, %D7C1) {round_mode = 0}: (memref<1x32x27x320xf16, strides: [8640, 8640, 320, 1]>, memref<1x32x27x320xf16, strides: [8640, 8640, 320, 1]>, none) -> (memref<1x32x27x320xf16, strides: [8640, 8640, 320, 1]>, none)
CHECK:          %R13.0x380, %B13C1 = "arith.cast"(%R10, %D7C1) {round_mode = 1}: (memref<1x32x27x320xf16, strides: [8640, 8640, 320, 1]>, none) -> (memref<1x32x27x320xsi8, strides: [8640, 8640, 320, 1]>, none)
CHECK:          %R10, %B14C1 = "arith.min"(%R13.0x380, %C15, %D7C1) {round_mode = 0}: (memref<1x32x27x320xsi8, strides: [8640, 8640, 320, 1]>, si8, none) -> (memref<1x32x27x320xsi8, strides: [8640, 8640, 320, 1]>, none)
CHECK:          %R13.0x380, %B15C1 = "arith.max"(%R10, %C-15, %D7C1) {round_mode = 0}: (memref<1x32x27x320xsi8, strides: [8640, 8640, 320, 1]>, si8, none) -> (memref<1x32x27x320xsi8, strides: [8640, 8640, 320, 1]>, none)
CHECK:          %R10, %B16C1 = "arith.add_satu"(%R13.0x380, %C15, %C10, %D7C1) {round_mode = 1}: (memref<1x32x27x320xsi8, strides: [8640, 8640, 320, 1]>, si16, ui8, none) -> (memref<1x32x27x320xsi16, strides: [8640, 8640, 320, 1]>, none)
CHECK:          %R13.0x380, %B17C1 = "sfu.taylor_4x"(%R12, %R14.0x700, %D7C1) : (memref<1x32x27x320xf16, strides: [8640, 8640, 320, 1]>, memref<1x32x1x7xf16, strides: [0, 0, 7, 1]>, none) -> (memref<1x32x27x320xf16, strides: [8640, 8640, 320, 1]>, none)
CHECK:          %R10, %B18C1 = "arith.mul"(%R13.0x380, %R10, %D7C1) {round_mode = 0}: (memref<1x32x27x320xf16, strides: [8640, 8640, 320, 1]>, memref<1x32x27x320xf16, strides: [8640, 8640, 320, 1]>, none) -> (memref<1x32x27x320xf16, strides: [8640, 8640, 320, 1]>, none)
CHECK:          %R12, %B19C1 = "arith.add"(%R10, %C1.0, %D7C1) {round_mode = 0}: (memref<1x32x27x320xf16, strides: [8640, 8640, 320, 1]>, f16, none) -> (memref<1x32x27x320xf16, strides: [8640, 8640, 320, 1]>, none)
CHECK:          %R10, %B20C1 = "arith.div"(%C1.0, %R12, %D7C1) {iter = 3}: (f16, memref<1x32x27x320xf16, strides: [8640, 8640, 320, 1]>, none) -> (memref<1x32x27x320xf16, strides: [8640, 8640, 320, 1]>, none)
CHECK:          %R10, %B21C1 = "arith.mul"(%R10, %R14.0x2200, %D7C1) {round_mode = 0}: (memref<1x32x27x320xf16, strides: [8640, 8640, 320, 1]>, memref<1x32x27x320xf16, strides: [8640, 8640, 320, 1]>, none) -> (memref<1x32x27x320xf16, strides: [8640, 8640, 320, 1]>, none)
CHECK:          %R9.0x24c0, %D8C1 = "dma.tensor"(%G1.0x14000, %B4C1) : (memref<1x64x1x288xi16, strides: [18432, 288, 288, 1]>, none) -> (memref<1x64x1x288xi16, strides: [288, 288, 288, 1]>, none)
CHECK:          %R9.0x3040, %D9C1 = "dma.tensor"(%G1.0x13000, %B4C1) : (memref<1x64x1x1xf32, strides: [64, 1, 1, 1]>, none) -> (memref<1x64x1x1xf32, strides: [1, 1, 1, 1]>, none)
CHECK:          %R0, %D10C1 = "dma.tensor"(%G2.0x5f000, %B4C1) : (memref<1x3x58x640xf32, strides: [1228800, 409600, 640, 1]>, none) -> (memref<1x3x58x640xf32, strides: [37120, 37120, 640, 1]>, none)
CHECK:          %R12, %B22C1 = "conv.normal"(%R10, %R9.0x24c0, %R9.0x3040, %C0.0, %D10C1) {kernel = [3, 3], stride = [2, 2], in_zero = [0, 0], ke_zero = [0, 0], opt_kernel_rotate = False, pad_mode = 0, pad = [0, 0, 1, 1], opt_res_add = False, do_relu = False, sym_range = False, do_rq = False, round_mode = 0}: (memref<1x32x27x320xf16, strides: [8640, 8640, 320, 1]>, memref<64x32x3x3xf16>, memref<1x64x1x1xui32, strides: [1, 1, 1, 1]>, f16, none) -> (memref<1x64x13x160xf16, strides: [2080, 2080, 160, 1]>, none)
CHECK:          %R10.0x2080, %B23C1 = "tsbc.s_bc"(%R0.0x580, %D10C1) : (memref<1x64x1x7xf16, strides: [32, 32, 7, 1]>, none) -> (memref<1x64x1x7xf16, strides: [32, 32, 7, 1]>, none)
CHECK:          %R10.0x1040, %B24C1 = "arith.sub"(%C0.0, %R12, %D10C1) {round_mode = 0}: (f16, memref<1x64x13x160xf16, strides: [2080, 2080, 160, 1]>, none) -> (memref<1x64x13x160xf16, strides: [2080, 2080, 160, 1]>, none)
CHECK:          %R10.0x1040, %B25C1 = "arith.max"(%R10.0x1040, %C-45408.0, %D10C1) {round_mode = 0}: (memref<1x64x13x160xf16, strides: [2080, 2080, 160, 1]>, f16, none) -> (memref<1x64x13x160xf16, strides: [2080, 2080, 160, 1]>, none)
CHECK:          %R10.0x1040, %B26C1 = "arith.min"(%R10.0x1040, %C45408.0, %D10C1) {round_mode = 0}: (memref<1x64x13x160xf16, strides: [2080, 2080, 160, 1]>, f16, none) -> (memref<1x64x13x160xf16, strides: [2080, 2080, 160, 1]>, none)
CHECK:          %R10, %B27C1 = "arith.mul"(%R10.0x1040, %C1.4423828125, %D10C1) {round_mode = 0}: (memref<1x64x13x160xf16, strides: [2080, 2080, 160, 1]>, f16, none) -> (memref<1x64x13x160xf16, strides: [2080, 2080, 160, 1]>, none)
CHECK:          %R9.0x400, %B28C1 = "arith.cast"(%R10, %D10C1) {round_mode = 3}: (memref<1x64x13x160xf16, strides: [2080, 2080, 160, 1]>, none) -> (memref<1x64x13x160xf16, strides: [2080, 2080, 160, 1]>, none)
CHECK:          %R10, %B29C1 = "arith.mul"(%R9.0x400, %C0.693359375, %D10C1) {round_mode = 0}: (memref<1x64x13x160xf16, strides: [2080, 2080, 160, 1]>, f16, none) -> (memref<1x64x13x160xf16, strides: [2080, 2080, 160, 1]>, none)
CHECK:          %R10, %B30C1 = "arith.sub"(%R10.0x1040, %R10, %D10C1) {round_mode = 0}: (memref<1x64x13x160xf16, strides: [2080, 2080, 160, 1]>, memref<1x64x13x160xf16, strides: [2080, 2080, 160, 1]>, none) -> (memref<1x64x13x160xf16, strides: [2080, 2080, 160, 1]>, none)
CHECK:          %R10.0x1040, %B31C1 = "arith.cast"(%R9.0x400, %D10C1) {round_mode = 1}: (memref<1x64x13x160xf16, strides: [2080, 2080, 160, 1]>, none) -> (memref<1x64x13x160xsi8, strides: [2112, 2112, 160, 1]>, none)
CHECK:          %R9.0x400, %B32C1 = "arith.min"(%R10.0x1040, %C15, %D10C1) {round_mode = 0}: (memref<1x64x13x160xsi8, strides: [2112, 2112, 160, 1]>, si8, none) -> (memref<1x64x13x160xsi8, strides: [2112, 2112, 160, 1]>, none)
CHECK:          %R10.0x1040, %B33C1 = "arith.max"(%R9.0x400, %C-15, %D10C1) {round_mode = 0}: (memref<1x64x13x160xsi8, strides: [2112, 2112, 160, 1]>, si8, none) -> (memref<1x64x13x160xsi8, strides: [2112, 2112, 160, 1]>, none)
CHECK:          %R9.0x400, %B34C1 = "arith.add_satu"(%R10.0x1040, %C15, %C10, %D10C1) {round_mode = 1}: (memref<1x64x13x160xsi8, strides: [2112, 2112, 160, 1]>, si16, ui8, none) -> (memref<1x64x13x160xsi16, strides: [2080, 2080, 160, 1]>, none)
CHECK:          %R10.0x1040, %B35C1 = "sfu.taylor_4x"(%R10, %R10.0x2080, %D10C1) : (memref<1x64x13x160xf16, strides: [2080, 2080, 160, 1]>, memref<1x64x1x7xf16, strides: [0, 0, 7, 1]>, none) -> (memref<1x64x13x160xf16, strides: [2080, 2080, 160, 1]>, none)
CHECK:          %R9.0x400, %B36C1 = "arith.mul"(%R10.0x1040, %R9.0x400, %D10C1) {round_mode = 0}: (memref<1x64x13x160xf16, strides: [2080, 2080, 160, 1]>, memref<1x64x13x160xf16, strides: [2080, 2080, 160, 1]>, none) -> (memref<1x64x13x160xf16, strides: [2080, 2080, 160, 1]>, none)
CHECK:          %R10, %B37C1 = "arith.add"(%R9.0x400, %C1.0, %D10C1) {round_mode = 0}: (memref<1x64x13x160xf16, strides: [2080, 2080, 160, 1]>, f16, none) -> (memref<1x64x13x160xf16, strides: [2080, 2080, 160, 1]>, none)
CHECK:          %R9.0x400, %B38C1 = "arith.div"(%C1.0, %R10, %D10C1) {iter = 3}: (f16, memref<1x64x13x160xf16, strides: [2080, 2080, 160, 1]>, none) -> (memref<1x64x13x160xf16, strides: [2080, 2080, 160, 1]>, none)
CHECK:          %R9.0x400, %B39C1 = "arith.mul"(%R9.0x400, %R12, %D10C1) {round_mode = 0}: (memref<1x64x13x160xf16, strides: [2080, 2080, 160, 1]>, memref<1x64x13x160xf16, strides: [2080, 2080, 160, 1]>, none) -> (memref<1x64x13x160xf16, strides: [2080, 2080, 160, 1]>, none)
CHECK:          %R15.0x2580, %D11C1 = "dma.tensor"(%G1.0x1e000, %B22C1) : (memref<1x32x1x64xi16, strides: [2048, 64, 64, 1]>, none) -> (memref<1x32x1x64xi16, strides: [64, 64, 64, 1]>, none)
CHECK:          %R9.0x3080, %D12C1 = "dma.tensor"(%G1.0x1d000, %B22C1) : (memref<1x32x1x1xf32, strides: [32, 1, 1, 1]>, none) -> (memref<1x32x1x1xf32, strides: [1, 1, 1, 1]>, none)
CHECK:          %R10, %B40C1 = "conv.normal"(%R9.0x400, %R15.0x2580, %R9.0x3080, %C0.0, %D12C1) {kernel = [1, 1], stride = [1, 1], in_zero = [0, 0], ke_zero = [0, 0], opt_kernel_rotate = False, pad_mode = 0, pad = [0, 0, 0, 0], opt_res_add = False, do_relu = False, sym_range = False, do_rq = False, round_mode = 0}: (memref<1x64x13x160xf16, strides: [2080, 2080, 160, 1]>, memref<32x64x1x1xf16>, memref<1x32x1x1xui32, strides: [1, 1, 1, 1]>, f16, none) -> (memref<1x32x13x160xf16, strides: [2080, 2080, 160, 1]>, none)
CHECK:          %R12.0x2080, %B41C1 = "tsbc.s_bc"(%R0.0x580, %D12C1) : (memref<1x64x1x7xf16, strides: [32, 32, 7, 1]>, none) -> (memref<1x64x1x7xf16, strides: [32, 32, 7, 1]>, none)
CHECK:          %R12.0x1040, %B42C1 = "arith.sub"(%C0.0, %R10, %D12C1) {round_mode = 0}: (f16, memref<1x32x13x160xf16, strides: [2080, 2080, 160, 1]>, none) -> (memref<1x32x13x160xf16, strides: [2080, 2080, 160, 1]>, none)
CHECK:          %R12.0x1040, %B43C1 = "arith.max"(%R12.0x1040, %C-45408.0, %D12C1) {round_mode = 0}: (memref<1x32x13x160xf16, strides: [2080, 2080, 160, 1]>, f16, none) -> (memref<1x32x13x160xf16, strides: [2080, 2080, 160, 1]>, none)
CHECK:          %R12.0x1040, %B44C1 = "arith.min"(%R12.0x1040, %C45408.0, %D12C1) {round_mode = 0}: (memref<1x32x13x160xf16, strides: [2080, 2080, 160, 1]>, f16, none) -> (memref<1x32x13x160xf16, strides: [2080, 2080, 160, 1]>, none)
CHECK:          %R12, %B45C1 = "arith.mul"(%R12.0x1040, %C1.4423828125, %D12C1) {round_mode = 0}: (memref<1x32x13x160xf16, strides: [2080, 2080, 160, 1]>, f16, none) -> (memref<1x32x13x160xf16, strides: [2080, 2080, 160, 1]>, none)
CHECK:          %R11, %B46C1 = "arith.cast"(%R12, %D12C1) {round_mode = 3}: (memref<1x32x13x160xf16, strides: [2080, 2080, 160, 1]>, none) -> (memref<1x32x13x160xf16, strides: [2080, 2080, 160, 1]>, none)
CHECK:          %R12, %B47C1 = "arith.mul"(%R11, %C0.693359375, %D12C1) {round_mode = 0}: (memref<1x32x13x160xf16, strides: [2080, 2080, 160, 1]>, f16, none) -> (memref<1x32x13x160xf16, strides: [2080, 2080, 160, 1]>, none)
CHECK:          %R12, %B48C1 = "arith.sub"(%R12.0x1040, %R12, %D12C1) {round_mode = 0}: (memref<1x32x13x160xf16, strides: [2080, 2080, 160, 1]>, memref<1x32x13x160xf16, strides: [2080, 2080, 160, 1]>, none) -> (memref<1x32x13x160xf16, strides: [2080, 2080, 160, 1]>, none)
CHECK:          %R12.0x1040, %B49C1 = "arith.cast"(%R11, %D12C1) {round_mode = 1}: (memref<1x32x13x160xf16, strides: [2080, 2080, 160, 1]>, none) -> (memref<1x32x13x160xsi8, strides: [2112, 2112, 160, 1]>, none)
CHECK:          %R11, %B50C1 = "arith.min"(%R12.0x1040, %C15, %D12C1) {round_mode = 0}: (memref<1x32x13x160xsi8, strides: [2112, 2112, 160, 1]>, si8, none) -> (memref<1x32x13x160xsi8, strides: [2112, 2112, 160, 1]>, none)
CHECK:          %R12.0x1040, %B51C1 = "arith.max"(%R11, %C-15, %D12C1) {round_mode = 0}: (memref<1x32x13x160xsi8, strides: [2112, 2112, 160, 1]>, si8, none) -> (memref<1x32x13x160xsi8, strides: [2112, 2112, 160, 1]>, none)
CHECK:          %R11, %B52C1 = "arith.add_satu"(%R12.0x1040, %C15, %C10, %D12C1) {round_mode = 1}: (memref<1x32x13x160xsi8, strides: [2112, 2112, 160, 1]>, si16, ui8, none) -> (memref<1x32x13x160xsi16, strides: [2080, 2080, 160, 1]>, none)
CHECK:          %R12.0x1040, %B53C1 = "sfu.taylor_4x"(%R12, %R12.0x2080, %D12C1) : (memref<1x32x13x160xf16, strides: [2080, 2080, 160, 1]>, memref<1x32x1x7xf16, strides: [0, 0, 7, 1]>, none) -> (memref<1x32x13x160xf16, strides: [2080, 2080, 160, 1]>, none)
CHECK:          %R11, %B54C1 = "arith.mul"(%R12.0x1040, %R11, %D12C1) {round_mode = 0}: (memref<1x32x13x160xf16, strides: [2080, 2080, 160, 1]>, memref<1x32x13x160xf16, strides: [2080, 2080, 160, 1]>, none) -> (memref<1x32x13x160xf16, strides: [2080, 2080, 160, 1]>, none)
CHECK:          %R12, %B55C1 = "arith.add"(%R11, %C1.0, %D12C1) {round_mode = 0}: (memref<1x32x13x160xf16, strides: [2080, 2080, 160, 1]>, f16, none) -> (memref<1x32x13x160xf16, strides: [2080, 2080, 160, 1]>, none)
CHECK:          %R11, %B56C1 = "arith.div"(%C1.0, %R12, %D12C1) {iter = 3}: (f16, memref<1x32x13x160xf16, strides: [2080, 2080, 160, 1]>, none) -> (memref<1x32x13x160xf16, strides: [2080, 2080, 160, 1]>, none)
CHECK:          %R11, %B57C1 = "arith.mul"(%R11, %R10, %D12C1) {round_mode = 0}: (memref<1x32x13x160xf16, strides: [2080, 2080, 160, 1]>, memref<1x32x13x160xf16, strides: [2080, 2080, 160, 1]>, none) -> (memref<1x32x13x160xf16, strides: [2080, 2080, 160, 1]>, none)
CHECK:          %R10.0x1040, %B58C1 = "conv.normal"(%R11, %R15.0x2600, %R9.0x30c0, %C0.0, %D12C1) {kernel = [1, 1], stride = [1, 1], in_zero = [0, 0], ke_zero = [0, 0], opt_kernel_rotate = False, pad_mode = 0, pad = [0, 0, 0, 0], opt_res_add = False, do_relu = False, sym_range = False, do_rq = False, round_mode = 0}: (memref<1x32x13x160xf16, strides: [2080, 2080, 160, 1]>, memref<32x32x1x1xf16>, memref<1x32x1x1xui32, strides: [1, 1, 1, 1]>, f16, none) -> (memref<1x32x13x160xf16, strides: [2080, 2080, 160, 1]>, none)
CHECK:          %L30.0x6980002080, %D13C1 = "dma.tensor"(%R9.0x400, %B40C1) : (memref<1x64x13x160xi16, strides: [2080, 2080, 160, 1]>, none) -> (memref<1x64x13x160xi16, strides: [1638400, 25600, 160, 1]>, none)
CHECK:          %R9.0x2480, %B59C1 = "tsbc.s_bc"(%R0.0x580, %D13C1) : (memref<1x64x1x7xf16, strides: [32, 32, 7, 1]>, none) -> (memref<1x64x1x7xf16, strides: [32, 32, 7, 1]>, none)
CHECK:          %R9.0x1440, %B60C1 = "arith.sub"(%C0.0, %R10.0x1040, %D13C1) {round_mode = 0}: (f16, memref<1x32x13x160xf16, strides: [2080, 2080, 160, 1]>, none) -> (memref<1x32x13x160xf16, strides: [2080, 2080, 160, 1]>, none)
CHECK:          %R9.0x1440, %B61C1 = "arith.max"(%R9.0x1440, %C-45408.0, %D13C1) {round_mode = 0}: (memref<1x32x13x160xf16, strides: [2080, 2080, 160, 1]>, f16, none) -> (memref<1x32x13x160xf16, strides: [2080, 2080, 160, 1]>, none)
CHECK:          %R9.0x1440, %B62C1 = "arith.min"(%R9.0x1440, %C45408.0, %D13C1) {round_mode = 0}: (memref<1x32x13x160xf16, strides: [2080, 2080, 160, 1]>, f16, none) -> (memref<1x32x13x160xf16, strides: [2080, 2080, 160, 1]>, none)
CHECK:          %R9.0x400, %B63C1 = "arith.mul"(%R9.0x1440, %C1.4423828125, %D13C1) {round_mode = 0}: (memref<1x32x13x160xf16, strides: [2080, 2080, 160, 1]>, f16, none) -> (memref<1x32x13x160xf16, strides: [2080, 2080, 160, 1]>, none)
CHECK:          %R15, %B64C1 = "arith.cast"(%R9.0x400, %D13C1) {round_mode = 3}: (memref<1x32x13x160xf16, strides: [2080, 2080, 160, 1]>, none) -> (memref<1x32x13x160xf16, strides: [2080, 2080, 160, 1]>, none)
CHECK:          %R9.0x400, %B65C1 = "arith.mul"(%R15, %C0.693359375, %D13C1) {round_mode = 0}: (memref<1x32x13x160xf16, strides: [2080, 2080, 160, 1]>, f16, none) -> (memref<1x32x13x160xf16, strides: [2080, 2080, 160, 1]>, none)
CHECK:          %R9.0x400, %B66C1 = "arith.sub"(%R9.0x1440, %R9.0x400, %D13C1) {round_mode = 0}: (memref<1x32x13x160xf16, strides: [2080, 2080, 160, 1]>, memref<1x32x13x160xf16, strides: [2080, 2080, 160, 1]>, none) -> (memref<1x32x13x160xf16, strides: [2080, 2080, 160, 1]>, none)
CHECK:          %R9.0x1440, %B67C1 = "arith.cast"(%R15, %D13C1) {round_mode = 1}: (memref<1x32x13x160xf16, strides: [2080, 2080, 160, 1]>, none) -> (memref<1x32x13x160xsi8, strides: [2112, 2112, 160, 1]>, none)
CHECK:          %R15, %B68C1 = "arith.min"(%R9.0x1440, %C15, %D13C1) {round_mode = 0}: (memref<1x32x13x160xsi8, strides: [2112, 2112, 160, 1]>, si8, none) -> (memref<1x32x13x160xsi8, strides: [2112, 2112, 160, 1]>, none)
CHECK:          %R9.0x1440, %B69C1 = "arith.max"(%R15, %C-15, %D13C1) {round_mode = 0}: (memref<1x32x13x160xsi8, strides: [2112, 2112, 160, 1]>, si8, none) -> (memref<1x32x13x160xsi8, strides: [2112, 2112, 160, 1]>, none)
CHECK:          %R15, %B70C1 = "arith.add_satu"(%R9.0x1440, %C15, %C10, %D13C1) {round_mode = 1}: (memref<1x32x13x160xsi8, strides: [2112, 2112, 160, 1]>, si16, ui8, none) -> (memref<1x32x13x160xsi16, strides: [2080, 2080, 160, 1]>, none)
CHECK:          %R9.0x1440, %B71C1 = "sfu.taylor_4x"(%R9.0x400, %R9.0x2480, %D13C1) : (memref<1x32x13x160xf16, strides: [2080, 2080, 160, 1]>, memref<1x32x1x7xf16, strides: [0, 0, 7, 1]>, none) -> (memref<1x32x13x160xf16, strides: [2080, 2080, 160, 1]>, none)
CHECK:          %R15, %B72C1 = "arith.mul"(%R9.0x1440, %R15, %D13C1) {round_mode = 0}: (memref<1x32x13x160xf16, strides: [2080, 2080, 160, 1]>, memref<1x32x13x160xf16, strides: [2080, 2080, 160, 1]>, none) -> (memref<1x32x13x160xf16, strides: [2080, 2080, 160, 1]>, none)
CHECK:          %R9.0x400, %B73C1 = "arith.add"(%R15, %C1.0, %D13C1) {round_mode = 0}: (memref<1x32x13x160xf16, strides: [2080, 2080, 160, 1]>, f16, none) -> (memref<1x32x13x160xf16, strides: [2080, 2080, 160, 1]>, none)
CHECK:          %R15, %B74C1 = "arith.div"(%C1.0, %R9.0x400, %D13C1) {iter = 3}: (f16, memref<1x32x13x160xf16, strides: [2080, 2080, 160, 1]>, none) -> (memref<1x32x13x160xf16, strides: [2080, 2080, 160, 1]>, none)
CHECK:          %R15, %B75C1 = "arith.mul"(%R15, %R10.0x1040, %D13C1) {round_mode = 0}: (memref<1x32x13x160xf16, strides: [2080, 2080, 160, 1]>, memref<1x32x13x160xf16, strides: [2080, 2080, 160, 1]>, none) -> (memref<1x32x13x160xf16, strides: [2080, 2080, 160, 1]>, none)
CHECK:          %L30.0x6980642080, %D14C1 = "dma.tensor"(%R11, %B58C1) : (memref<1x32x13x160xi16, strides: [2080, 2080, 160, 1]>, none) -> (memref<1x32x13x160xi16, strides: [819200, 25600, 160, 1]>, none)
CHECK:          %R10, %B76C1 = "arith.cast"(%R0, %D14C1) {round_mode = 1}: (memref<1x3x58x640xf32, strides: [37120, 37120, 640, 1]>, none) -> (memref<1x3x58x640xf16, strides: [37120, 37120, 640, 1]>, none)
CHECK:          %L30.0x69804b2080, %D15C1 = "dma.tensor"(%R15, %B75C1) : (memref<1x32x13x160xi16, strides: [2080, 2080, 160, 1]>, none) -> (memref<1x32x13x160xi16, strides: [819200, 25600, 160, 1]>, none)
CHECK:          %R14.0x2200, %B77C1 = "conv.normal"(%R10, %R9.0x2700, %R9.0x3000, %C0.0, %D15C1) {kernel = [6, 6], stride = [2, 2], in_zero = [0, 0], ke_zero = [0, 0], opt_kernel_rotate = False, pad_mode = 0, pad = [0, 0, 2, 2], opt_res_add = False, do_relu = False, sym_range = False, do_rq = False, round_mode = 0}: (memref<1x3x58x640xf16, strides: [37120, 37120, 640, 1]>, memref<32x3x6x6xf16>, memref<1x32x1x1xui32, strides: [1, 1, 1, 1]>, f16, none) -> (memref<1x32x27x320xf16, strides: [8640, 8640, 320, 1]>, none)
CHECK:          %R14.0x700, %B78C1 = "tsbc.s_bc"(%R0.0x580, %D15C1) : (memref<1x64x1x7xf16, strides: [32, 32, 7, 1]>, none) -> (memref<1x64x1x7xf16, strides: [32, 32, 7, 1]>, none)
CHECK:          %R13.0x380, %B79C1 = "arith.sub"(%C0.0, %R14.0x2200, %D15C1) {round_mode = 0}: (f16, memref<1x32x27x320xf16, strides: [8640, 8640, 320, 1]>, none) -> (memref<1x32x27x320xf16, strides: [8640, 8640, 320, 1]>, none)
CHECK:          %R13.0x380, %B80C1 = "arith.max"(%R13.0x380, %C-45408.0, %D15C1) {round_mode = 0}: (memref<1x32x27x320xf16, strides: [8640, 8640, 320, 1]>, f16, none) -> (memref<1x32x27x320xf16, strides: [8640, 8640, 320, 1]>, none)
CHECK:          %R13.0x380, %B81C1 = "arith.min"(%R13.0x380, %C45408.0, %D15C1) {round_mode = 0}: (memref<1x32x27x320xf16, strides: [8640, 8640, 320, 1]>, f16, none) -> (memref<1x32x27x320xf16, strides: [8640, 8640, 320, 1]>, none)
CHECK:          %R12, %B82C1 = "arith.mul"(%R13.0x380, %C1.4423828125, %D15C1) {round_mode = 0}: (memref<1x32x27x320xf16, strides: [8640, 8640, 320, 1]>, f16, none) -> (memref<1x32x27x320xf16, strides: [8640, 8640, 320, 1]>, none)
CHECK:          %R10, %B83C1 = "arith.cast"(%R12, %D15C1) {round_mode = 3}: (memref<1x32x27x320xf16, strides: [8640, 8640, 320, 1]>, none) -> (memref<1x32x27x320xf16, strides: [8640, 8640, 320, 1]>, none)
CHECK:          %R12, %B84C1 = "arith.mul"(%R10, %C0.693359375, %D15C1) {round_mode = 0}: (memref<1x32x27x320xf16, strides: [8640, 8640, 320, 1]>, f16, none) -> (memref<1x32x27x320xf16, strides: [8640, 8640, 320, 1]>, none)
CHECK:          %R12, %B85C1 = "arith.sub"(%R13.0x380, %R12, %D15C1) {round_mode = 0}: (memref<1x32x27x320xf16, strides: [8640, 8640, 320, 1]>, memref<1x32x27x320xf16, strides: [8640, 8640, 320, 1]>, none) -> (memref<1x32x27x320xf16, strides: [8640, 8640, 320, 1]>, none)
CHECK:          %R13.0x380, %B86C1 = "arith.cast"(%R10, %D15C1) {round_mode = 1}: (memref<1x32x27x320xf16, strides: [8640, 8640, 320, 1]>, none) -> (memref<1x32x27x320xsi8, strides: [8640, 8640, 320, 1]>, none)
CHECK:          %R10, %B87C1 = "arith.min"(%R13.0x380, %C15, %D15C1) {round_mode = 0}: (memref<1x32x27x320xsi8, strides: [8640, 8640, 320, 1]>, si8, none) -> (memref<1x32x27x320xsi8, strides: [8640, 8640, 320, 1]>, none)
CHECK:          %R13.0x380, %B88C1 = "arith.max"(%R10, %C-15, %D15C1) {round_mode = 0}: (memref<1x32x27x320xsi8, strides: [8640, 8640, 320, 1]>, si8, none) -> (memref<1x32x27x320xsi8, strides: [8640, 8640, 320, 1]>, none)
CHECK:          %R10, %B89C1 = "arith.add_satu"(%R13.0x380, %C15, %C10, %D15C1) {round_mode = 1}: (memref<1x32x27x320xsi8, strides: [8640, 8640, 320, 1]>, si16, ui8, none) -> (memref<1x32x27x320xsi16, strides: [8640, 8640, 320, 1]>, none)
CHECK:          %R13.0x380, %B90C1 = "sfu.taylor_4x"(%R12, %R14.0x700, %D15C1) : (memref<1x32x27x320xf16, strides: [8640, 8640, 320, 1]>, memref<1x32x1x7xf16, strides: [0, 0, 7, 1]>, none) -> (memref<1x32x27x320xf16, strides: [8640, 8640, 320, 1]>, none)
CHECK:          %R10, %B91C1 = "arith.mul"(%R13.0x380, %R10, %D15C1) {round_mode = 0}: (memref<1x32x27x320xf16, strides: [8640, 8640, 320, 1]>, memref<1x32x27x320xf16, strides: [8640, 8640, 320, 1]>, none) -> (memref<1x32x27x320xf16, strides: [8640, 8640, 320, 1]>, none)
CHECK:          %R12, %B92C1 = "arith.add"(%R10, %C1.0, %D15C1) {round_mode = 0}: (memref<1x32x27x320xf16, strides: [8640, 8640, 320, 1]>, f16, none) -> (memref<1x32x27x320xf16, strides: [8640, 8640, 320, 1]>, none)
CHECK:          %R10, %B93C1 = "arith.div"(%C1.0, %R12, %D15C1) {iter = 3}: (f16, memref<1x32x27x320xf16, strides: [8640, 8640, 320, 1]>, none) -> (memref<1x32x27x320xf16, strides: [8640, 8640, 320, 1]>, none)
CHECK:          %R10, %B94C1 = "arith.mul"(%R10, %R14.0x2200, %D15C1) {round_mode = 0}: (memref<1x32x27x320xf16, strides: [8640, 8640, 320, 1]>, memref<1x32x27x320xf16, strides: [8640, 8640, 320, 1]>, none) -> (memref<1x32x27x320xf16, strides: [8640, 8640, 320, 1]>, none)
CHECK:          %R12, %B95C1 = "conv.normal"(%R10, %R9.0x24c0, %R9.0x3040, %C0.0, %D15C1) {kernel = [3, 3], stride = [2, 2], in_zero = [0, 0], ke_zero = [0, 0], opt_kernel_rotate = False, pad_mode = 0, pad = [0, 0, 1, 1], opt_res_add = False, do_relu = False, sym_range = False, do_rq = False, round_mode = 0}: (memref<1x32x27x320xf16, strides: [8640, 8640, 320, 1]>, memref<64x32x3x3xf16>, memref<1x64x1x1xui32, strides: [1, 1, 1, 1]>, f16, none) -> (memref<1x64x13x160xf16, strides: [2080, 2080, 160, 1]>, none)
CHECK:          %R10.0x2080, %B96C1 = "tsbc.s_bc"(%R0.0x580, %D15C1) : (memref<1x64x1x7xf16, strides: [32, 32, 7, 1]>, none) -> (memref<1x64x1x7xf16, strides: [32, 32, 7, 1]>, none)
CHECK:          %R10.0x1040, %B97C1 = "arith.sub"(%C0.0, %R12, %D15C1) {round_mode = 0}: (f16, memref<1x64x13x160xf16, strides: [2080, 2080, 160, 1]>, none) -> (memref<1x64x13x160xf16, strides: [2080, 2080, 160, 1]>, none)
CHECK:          %R10.0x1040, %B98C1 = "arith.max"(%R10.0x1040, %C-45408.0, %D15C1) {round_mode = 0}: (memref<1x64x13x160xf16, strides: [2080, 2080, 160, 1]>, f16, none) -> (memref<1x64x13x160xf16, strides: [2080, 2080, 160, 1]>, none)
CHECK:          %R10.0x1040, %B99C1 = "arith.min"(%R10.0x1040, %C45408.0, %D15C1) {round_mode = 0}: (memref<1x64x13x160xf16, strides: [2080, 2080, 160, 1]>, f16, none) -> (memref<1x64x13x160xf16, strides: [2080, 2080, 160, 1]>, none)
CHECK:          %R10, %B100C1 = "arith.mul"(%R10.0x1040, %C1.4423828125, %D15C1) {round_mode = 0}: (memref<1x64x13x160xf16, strides: [2080, 2080, 160, 1]>, f16, none) -> (memref<1x64x13x160xf16, strides: [2080, 2080, 160, 1]>, none)
CHECK:          %R9.0x400, %B101C1 = "arith.cast"(%R10, %D15C1) {round_mode = 3}: (memref<1x64x13x160xf16, strides: [2080, 2080, 160, 1]>, none) -> (memref<1x64x13x160xf16, strides: [2080, 2080, 160, 1]>, none)
CHECK:          %R10, %B102C1 = "arith.mul"(%R9.0x400, %C0.693359375, %D15C1) {round_mode = 0}: (memref<1x64x13x160xf16, strides: [2080, 2080, 160, 1]>, f16, none) -> (memref<1x64x13x160xf16, strides: [2080, 2080, 160, 1]>, none)
CHECK:          %R10, %B103C1 = "arith.sub"(%R10.0x1040, %R10, %D15C1) {round_mode = 0}: (memref<1x64x13x160xf16, strides: [2080, 2080, 160, 1]>, memref<1x64x13x160xf16, strides: [2080, 2080, 160, 1]>, none) -> (memref<1x64x13x160xf16, strides: [2080, 2080, 160, 1]>, none)
CHECK:          %R10.0x1040, %B104C1 = "arith.cast"(%R9.0x400, %D15C1) {round_mode = 1}: (memref<1x64x13x160xf16, strides: [2080, 2080, 160, 1]>, none) -> (memref<1x64x13x160xsi8, strides: [2112, 2112, 160, 1]>, none)
CHECK:          %R9.0x400, %B105C1 = "arith.min"(%R10.0x1040, %C15, %D15C1) {round_mode = 0}: (memref<1x64x13x160xsi8, strides: [2112, 2112, 160, 1]>, si8, none) -> (memref<1x64x13x160xsi8, strides: [2112, 2112, 160, 1]>, none)
CHECK:          %R10.0x1040, %B106C1 = "arith.max"(%R9.0x400, %C-15, %D15C1) {round_mode = 0}: (memref<1x64x13x160xsi8, strides: [2112, 2112, 160, 1]>, si8, none) -> (memref<1x64x13x160xsi8, strides: [2112, 2112, 160, 1]>, none)
CHECK:          %R9.0x400, %B107C1 = "arith.add_satu"(%R10.0x1040, %C15, %C10, %D15C1) {round_mode = 1}: (memref<1x64x13x160xsi8, strides: [2112, 2112, 160, 1]>, si16, ui8, none) -> (memref<1x64x13x160xsi16, strides: [2080, 2080, 160, 1]>, none)
CHECK:          %R10.0x1040, %B108C1 = "sfu.taylor_4x"(%R10, %R10.0x2080, %D15C1) : (memref<1x64x13x160xf16, strides: [2080, 2080, 160, 1]>, memref<1x64x1x7xf16, strides: [0, 0, 7, 1]>, none) -> (memref<1x64x13x160xf16, strides: [2080, 2080, 160, 1]>, none)
CHECK:          %R9.0x400, %B109C1 = "arith.mul"(%R10.0x1040, %R9.0x400, %D15C1) {round_mode = 0}: (memref<1x64x13x160xf16, strides: [2080, 2080, 160, 1]>, memref<1x64x13x160xf16, strides: [2080, 2080, 160, 1]>, none) -> (memref<1x64x13x160xf16, strides: [2080, 2080, 160, 1]>, none)
CHECK:          %R10, %B110C1 = "arith.add"(%R9.0x400, %C1.0, %D15C1) {round_mode = 0}: (memref<1x64x13x160xf16, strides: [2080, 2080, 160, 1]>, f16, none) -> (memref<1x64x13x160xf16, strides: [2080, 2080, 160, 1]>, none)
CHECK:          %R9.0x400, %B111C1 = "arith.div"(%C1.0, %R10, %D15C1) {iter = 3}: (f16, memref<1x64x13x160xf16, strides: [2080, 2080, 160, 1]>, none) -> (memref<1x64x13x160xf16, strides: [2080, 2080, 160, 1]>, none)
CHECK:          %R9.0x400, %B112C1 = "arith.mul"(%R9.0x400, %R12, %D15C1) {round_mode = 0}: (memref<1x64x13x160xf16, strides: [2080, 2080, 160, 1]>, memref<1x64x13x160xf16, strides: [2080, 2080, 160, 1]>, none) -> (memref<1x64x13x160xf16, strides: [2080, 2080, 160, 1]>, none)
CHECK:          %R10, %B113C1 = "conv.normal"(%R9.0x400, %R15.0x2580, %R9.0x3080, %C0.0, %D15C1) {kernel = [1, 1], stride = [1, 1], in_zero = [0, 0], ke_zero = [0, 0], opt_kernel_rotate = False, pad_mode = 0, pad = [0, 0, 0, 0], opt_res_add = False, do_relu = False, sym_range = False, do_rq = False, round_mode = 0}: (memref<1x64x13x160xf16, strides: [2080, 2080, 160, 1]>, memref<32x64x1x1xf16>, memref<1x32x1x1xui32, strides: [1, 1, 1, 1]>, f16, none) -> (memref<1x32x13x160xf16, strides: [2080, 2080, 160, 1]>, none)
CHECK:          %R12.0x2080, %B114C1 = "tsbc.s_bc"(%R0.0x580, %D15C1) : (memref<1x64x1x7xf16, strides: [32, 32, 7, 1]>, none) -> (memref<1x64x1x7xf16, strides: [32, 32, 7, 1]>, none)
CHECK:          %R12.0x1040, %B115C1 = "arith.sub"(%C0.0, %R10, %D15C1) {round_mode = 0}: (f16, memref<1x32x13x160xf16, strides: [2080, 2080, 160, 1]>, none) -> (memref<1x32x13x160xf16, strides: [2080, 2080, 160, 1]>, none)
CHECK:          %R12.0x1040, %B116C1 = "arith.max"(%R12.0x1040, %C-45408.0, %D15C1) {round_mode = 0}: (memref<1x32x13x160xf16, strides: [2080, 2080, 160, 1]>, f16, none) -> (memref<1x32x13x160xf16, strides: [2080, 2080, 160, 1]>, none)
CHECK:          %R12.0x1040, %B117C1 = "arith.min"(%R12.0x1040, %C45408.0, %D15C1) {round_mode = 0}: (memref<1x32x13x160xf16, strides: [2080, 2080, 160, 1]>, f16, none) -> (memref<1x32x13x160xf16, strides: [2080, 2080, 160, 1]>, none)
CHECK:          %R12, %B118C1 = "arith.mul"(%R12.0x1040, %C1.4423828125, %D15C1) {round_mode = 0}: (memref<1x32x13x160xf16, strides: [2080, 2080, 160, 1]>, f16, none) -> (memref<1x32x13x160xf16, strides: [2080, 2080, 160, 1]>, none)
CHECK:          %R11, %B119C1 = "arith.cast"(%R12, %D15C1) {round_mode = 3}: (memref<1x32x13x160xf16, strides: [2080, 2080, 160, 1]>, none) -> (memref<1x32x13x160xf16, strides: [2080, 2080, 160, 1]>, none)
CHECK:          %R12, %B120C1 = "arith.mul"(%R11, %C0.693359375, %D15C1) {round_mode = 0}: (memref<1x32x13x160xf16, strides: [2080, 2080, 160, 1]>, f16, none) -> (memref<1x32x13x160xf16, strides: [2080, 2080, 160, 1]>, none)
CHECK:          %R12, %B121C1 = "arith.sub"(%R12.0x1040, %R12, %D15C1) {round_mode = 0}: (memref<1x32x13x160xf16, strides: [2080, 2080, 160, 1]>, memref<1x32x13x160xf16, strides: [2080, 2080, 160, 1]>, none) -> (memref<1x32x13x160xf16, strides: [2080, 2080, 160, 1]>, none)
CHECK:          %R12.0x1040, %B122C1 = "arith.cast"(%R11, %D15C1) {round_mode = 1}: (memref<1x32x13x160xf16, strides: [2080, 2080, 160, 1]>, none) -> (memref<1x32x13x160xsi8, strides: [2112, 2112, 160, 1]>, none)
CHECK:          %R11, %B123C1 = "arith.min"(%R12.0x1040, %C15, %D15C1) {round_mode = 0}: (memref<1x32x13x160xsi8, strides: [2112, 2112, 160, 1]>, si8, none) -> (memref<1x32x13x160xsi8, strides: [2112, 2112, 160, 1]>, none)
CHECK:          %R12.0x1040, %B124C1 = "arith.max"(%R11, %C-15, %D15C1) {round_mode = 0}: (memref<1x32x13x160xsi8, strides: [2112, 2112, 160, 1]>, si8, none) -> (memref<1x32x13x160xsi8, strides: [2112, 2112, 160, 1]>, none)
CHECK:          %R11, %B125C1 = "arith.add_satu"(%R12.0x1040, %C15, %C10, %D15C1) {round_mode = 1}: (memref<1x32x13x160xsi8, strides: [2112, 2112, 160, 1]>, si16, ui8, none) -> (memref<1x32x13x160xsi16, strides: [2080, 2080, 160, 1]>, none)
CHECK:          %R12.0x1040, %B126C1 = "sfu.taylor_4x"(%R12, %R12.0x2080, %D15C1) : (memref<1x32x13x160xf16, strides: [2080, 2080, 160, 1]>, memref<1x32x1x7xf16, strides: [0, 0, 7, 1]>, none) -> (memref<1x32x13x160xf16, strides: [2080, 2080, 160, 1]>, none)
CHECK:          %R11, %B127C1 = "arith.mul"(%R12.0x1040, %R11, %D15C1) {round_mode = 0}: (memref<1x32x13x160xf16, strides: [2080, 2080, 160, 1]>, memref<1x32x13x160xf16, strides: [2080, 2080, 160, 1]>, none) -> (memref<1x32x13x160xf16, strides: [2080, 2080, 160, 1]>, none)
CHECK:          %R12, %B128C1 = "arith.add"(%R11, %C1.0, %D15C1) {round_mode = 0}: (memref<1x32x13x160xf16, strides: [2080, 2080, 160, 1]>, f16, none) -> (memref<1x32x13x160xf16, strides: [2080, 2080, 160, 1]>, none)
CHECK:          %R11, %B129C1 = "arith.div"(%C1.0, %R12, %D15C1) {iter = 3}: (f16, memref<1x32x13x160xf16, strides: [2080, 2080, 160, 1]>, none) -> (memref<1x32x13x160xf16, strides: [2080, 2080, 160, 1]>, none)
CHECK:          %R11, %B130C1 = "arith.mul"(%R11, %R10, %D15C1) {round_mode = 0}: (memref<1x32x13x160xf16, strides: [2080, 2080, 160, 1]>, memref<1x32x13x160xf16, strides: [2080, 2080, 160, 1]>, none) -> (memref<1x32x13x160xf16, strides: [2080, 2080, 160, 1]>, none)
CHECK:          %R10.0x1040, %B131C1 = "conv.normal"(%R11, %R15.0x2600, %R9.0x30c0, %C0.0, %D15C1) {kernel = [1, 1], stride = [1, 1], in_zero = [0, 0], ke_zero = [0, 0], opt_kernel_rotate = False, pad_mode = 0, pad = [0, 0, 0, 0], opt_res_add = False, do_relu = False, sym_range = False, do_rq = False, round_mode = 0}: (memref<1x32x13x160xf16, strides: [2080, 2080, 160, 1]>, memref<32x32x1x1xf16>, memref<1x32x1x1xui32, strides: [1, 1, 1, 1]>, f16, none) -> (memref<1x32x13x160xf16, strides: [2080, 2080, 160, 1]>, none)
CHECK:          %L30.0x69800030c0, %D16C1 = "dma.tensor"(%R9.0x400, %B113C1) : (memref<1x64x13x160xi16, strides: [2080, 2080, 160, 1]>, none) -> (memref<1x64x13x160xi16, strides: [1638400, 25600, 160, 1]>, none)
CHECK:          %R9.0x2480, %B132C1 = "tsbc.s_bc"(%R0.0x580, %D16C1) : (memref<1x64x1x7xf16, strides: [32, 32, 7, 1]>, none) -> (memref<1x64x1x7xf16, strides: [32, 32, 7, 1]>, none)
CHECK:          %R9.0x1440, %B133C1 = "arith.sub"(%C0.0, %R10.0x1040, %D16C1) {round_mode = 0}: (f16, memref<1x32x13x160xf16, strides: [2080, 2080, 160, 1]>, none) -> (memref<1x32x13x160xf16, strides: [2080, 2080, 160, 1]>, none)
CHECK:          %R9.0x1440, %B134C1 = "arith.max"(%R9.0x1440, %C-45408.0, %D16C1) {round_mode = 0}: (memref<1x32x13x160xf16, strides: [2080, 2080, 160, 1]>, f16, none) -> (memref<1x32x13x160xf16, strides: [2080, 2080, 160, 1]>, none)
CHECK:          %R9.0x1440, %B135C1 = "arith.min"(%R9.0x1440, %C45408.0, %D16C1) {round_mode = 0}: (memref<1x32x13x160xf16, strides: [2080, 2080, 160, 1]>, f16, none) -> (memref<1x32x13x160xf16, strides: [2080, 2080, 160, 1]>, none)
CHECK:          %R9.0x400, %B136C1 = "arith.mul"(%R9.0x1440, %C1.4423828125, %D16C1) {round_mode = 0}: (memref<1x32x13x160xf16, strides: [2080, 2080, 160, 1]>, f16, none) -> (memref<1x32x13x160xf16, strides: [2080, 2080, 160, 1]>, none)
CHECK:          %R15, %B137C1 = "arith.cast"(%R9.0x400, %D16C1) {round_mode = 3}: (memref<1x32x13x160xf16, strides: [2080, 2080, 160, 1]>, none) -> (memref<1x32x13x160xf16, strides: [2080, 2080, 160, 1]>, none)
CHECK:          %R9.0x400, %B138C1 = "arith.mul"(%R15, %C0.693359375, %D16C1) {round_mode = 0}: (memref<1x32x13x160xf16, strides: [2080, 2080, 160, 1]>, f16, none) -> (memref<1x32x13x160xf16, strides: [2080, 2080, 160, 1]>, none)
CHECK:          %R9.0x400, %B139C1 = "arith.sub"(%R9.0x1440, %R9.0x400, %D16C1) {round_mode = 0}: (memref<1x32x13x160xf16, strides: [2080, 2080, 160, 1]>, memref<1x32x13x160xf16, strides: [2080, 2080, 160, 1]>, none) -> (memref<1x32x13x160xf16, strides: [2080, 2080, 160, 1]>, none)
CHECK:          %R9.0x1440, %B140C1 = "arith.cast"(%R15, %D16C1) {round_mode = 1}: (memref<1x32x13x160xf16, strides: [2080, 2080, 160, 1]>, none) -> (memref<1x32x13x160xsi8, strides: [2112, 2112, 160, 1]>, none)
CHECK:          %R15, %B141C1 = "arith.min"(%R9.0x1440, %C15, %D16C1) {round_mode = 0}: (memref<1x32x13x160xsi8, strides: [2112, 2112, 160, 1]>, si8, none) -> (memref<1x32x13x160xsi8, strides: [2112, 2112, 160, 1]>, none)
CHECK:          %R9.0x1440, %B142C1 = "arith.max"(%R15, %C-15, %D16C1) {round_mode = 0}: (memref<1x32x13x160xsi8, strides: [2112, 2112, 160, 1]>, si8, none) -> (memref<1x32x13x160xsi8, strides: [2112, 2112, 160, 1]>, none)
CHECK:          %R15, %B143C1 = "arith.add_satu"(%R9.0x1440, %C15, %C10, %D16C1) {round_mode = 1}: (memref<1x32x13x160xsi8, strides: [2112, 2112, 160, 1]>, si16, ui8, none) -> (memref<1x32x13x160xsi16, strides: [2080, 2080, 160, 1]>, none)
CHECK:          %R9.0x1440, %B144C1 = "sfu.taylor_4x"(%R9.0x400, %R9.0x2480, %D16C1) : (memref<1x32x13x160xf16, strides: [2080, 2080, 160, 1]>, memref<1x32x1x7xf16, strides: [0, 0, 7, 1]>, none) -> (memref<1x32x13x160xf16, strides: [2080, 2080, 160, 1]>, none)
CHECK:          %R15, %B145C1 = "arith.mul"(%R9.0x1440, %R15, %D16C1) {round_mode = 0}: (memref<1x32x13x160xf16, strides: [2080, 2080, 160, 1]>, memref<1x32x13x160xf16, strides: [2080, 2080, 160, 1]>, none) -> (memref<1x32x13x160xf16, strides: [2080, 2080, 160, 1]>, none)
CHECK:          %R9.0x400, %B146C1 = "arith.add"(%R15, %C1.0, %D16C1) {round_mode = 0}: (memref<1x32x13x160xf16, strides: [2080, 2080, 160, 1]>, f16, none) -> (memref<1x32x13x160xf16, strides: [2080, 2080, 160, 1]>, none)
CHECK:          %R15, %B147C1 = "arith.div"(%C1.0, %R9.0x400, %D16C1) {iter = 3}: (f16, memref<1x32x13x160xf16, strides: [2080, 2080, 160, 1]>, none) -> (memref<1x32x13x160xf16, strides: [2080, 2080, 160, 1]>, none)
CHECK:          %R15, %B148C1 = "arith.mul"(%R15, %R10.0x1040, %D16C1) {round_mode = 0}: (memref<1x32x13x160xf16, strides: [2080, 2080, 160, 1]>, memref<1x32x13x160xf16, strides: [2080, 2080, 160, 1]>, none) -> (memref<1x32x13x160xf16, strides: [2080, 2080, 160, 1]>, none)
CHECK:          %L30.0x69806430c0, %D17C1 = "dma.tensor"(%R11, %B131C1) : (memref<1x32x13x160xi16, strides: [2080, 2080, 160, 1]>, none) -> (memref<1x32x13x160xi16, strides: [819200, 25600, 160, 1]>, none)
CHECK:          %L30.0x69804b30c0, %D18C1 = "dma.tensor"(%R15, %B148C1) : (memref<1x32x13x160xi16, strides: [2080, 2080, 160, 1]>, none) -> (memref<1x32x13x160xi16, strides: [819200, 25600, 160, 1]>, none)
CHECK:          %B149C1, %msg49 = "system.send_msg"(%D18C1) {msg_id = 49, cnt = 32, status = Status.PRODUCING}
CHECK:          %D19C1, %msg49 = "dma.sys.sys_send"(%B149C1) {msg_id = 49, cnt = 32, status = Status.PRODUCING}
CHECK:        }
CHECK:        %D19C2, %msg49 = "@core_2"(%D1C2, %msg48) {
CHECK:          %B2C2 = "system.wait_msg"(%D1C2, %msg48) {msg_id = 48, cnt = 32, status = Status.RECIEVING}
CHECK:          %D2C2 = "dma.sys.sys_wait"(%B2C2, %msg48) {msg_id = 48, cnt = 32, status = Status.CONSUMED}
CHECK:          %R0, %D3C2 = "dma.tensor"(%G2.0x7f800, %B2C2) : (memref<1x3x54x640xf32, strides: [1228800, 409600, 640, 1]>, none) -> (memref<1x3x54x640xf32, strides: [34560, 34560, 640, 1]>, none)
CHECK:          %R10, %B3C2 = "arith.cast"(%R0, %D3C2) {round_mode = 1}: (memref<1x3x54x640xf32, strides: [34560, 34560, 640, 1]>, none) -> (memref<1x3x54x640xf16, strides: [34560, 34560, 640, 1]>, none)
CHECK:          %R9.0x2700, %D4C2 = "dma.tensor"(%G1.0x1000, %B2C2) : (memref<1x32x1x1152xi16, strides: [36864, 1152, 1152, 1]>, none) -> (memref<1x32x1x1152xi16, strides: [1152, 1152, 1152, 1]>, none)
CHECK:          %R9.0x3000, %D5C2 = "dma.tensor"(%G1.0x0, %B2C2) : (memref<1x32x1x1xf32, strides: [32, 1, 1, 1]>, none) -> (memref<1x32x1x1xf32, strides: [1, 1, 1, 1]>, none)
CHECK:          %R9.0x30c0, %D6C2 = "dma.tensor"(%G1.0x1f000, %B2C2) : (memref<1x32x1x1xf32, strides: [32, 1, 1, 1]>, none) -> (memref<1x32x1x1xf32, strides: [1, 1, 1, 1]>, none)
CHECK:          %R15.0x2600, %D7C2 = "dma.tensor"(%G1.0x20000, %B2C2) : (memref<1x32x1x32xi16, strides: [1024, 32, 32, 1]>, none) -> (memref<1x32x1x32xi16, strides: [32, 32, 32, 1]>, none)
CHECK:          %R14.0x2200, %B4C2 = "conv.normal"(%R10, %R9.0x2700, %R9.0x3000, %C0.0, %D7C2) {kernel = [6, 6], stride = [2, 2], in_zero = [0, 0], ke_zero = [0, 0], opt_kernel_rotate = False, pad_mode = 0, pad = [0, 0, 2, 2], opt_res_add = False, do_relu = False, sym_range = False, do_rq = False, round_mode = 0}: (memref<1x3x54x640xf16, strides: [34560, 34560, 640, 1]>, memref<32x3x6x6xf16>, memref<1x32x1x1xui32, strides: [1, 1, 1, 1]>, f16, none) -> (memref<1x32x25x320xf16, strides: [8000, 8000, 320, 1]>, none)
CHECK:          %R13.0x3d00, %B5C2 = "tsbc.s_bc"(%R0.0x580, %D7C2) : (memref<1x64x1x7xf16, strides: [32, 32, 7, 1]>, none) -> (memref<1x64x1x7xf16, strides: [32, 32, 7, 1]>, none)
CHECK:          %R12.0x3e80, %B6C2 = "arith.sub"(%C0.0, %R14.0x2200, %D7C2) {round_mode = 0}: (f16, memref<1x32x25x320xf16, strides: [8000, 8000, 320, 1]>, none) -> (memref<1x32x25x320xf16, strides: [8000, 8000, 320, 1]>, none)
CHECK:          %R12.0x3e80, %B7C2 = "arith.max"(%R12.0x3e80, %C-45408.0, %D7C2) {round_mode = 0}: (memref<1x32x25x320xf16, strides: [8000, 8000, 320, 1]>, f16, none) -> (memref<1x32x25x320xf16, strides: [8000, 8000, 320, 1]>, none)
CHECK:          %R12.0x3e80, %B8C2 = "arith.min"(%R12.0x3e80, %C45408.0, %D7C2) {round_mode = 0}: (memref<1x32x25x320xf16, strides: [8000, 8000, 320, 1]>, f16, none) -> (memref<1x32x25x320xf16, strides: [8000, 8000, 320, 1]>, none)
CHECK:          %R12, %B9C2 = "arith.mul"(%R12.0x3e80, %C1.4423828125, %D7C2) {round_mode = 0}: (memref<1x32x25x320xf16, strides: [8000, 8000, 320, 1]>, f16, none) -> (memref<1x32x25x320xf16, strides: [8000, 8000, 320, 1]>, none)
CHECK:          %R10, %B10C2 = "arith.cast"(%R12, %D7C2) {round_mode = 3}: (memref<1x32x25x320xf16, strides: [8000, 8000, 320, 1]>, none) -> (memref<1x32x25x320xf16, strides: [8000, 8000, 320, 1]>, none)
CHECK:          %R12, %B11C2 = "arith.mul"(%R10, %C0.693359375, %D7C2) {round_mode = 0}: (memref<1x32x25x320xf16, strides: [8000, 8000, 320, 1]>, f16, none) -> (memref<1x32x25x320xf16, strides: [8000, 8000, 320, 1]>, none)
CHECK:          %R12, %B12C2 = "arith.sub"(%R12.0x3e80, %R12, %D7C2) {round_mode = 0}: (memref<1x32x25x320xf16, strides: [8000, 8000, 320, 1]>, memref<1x32x25x320xf16, strides: [8000, 8000, 320, 1]>, none) -> (memref<1x32x25x320xf16, strides: [8000, 8000, 320, 1]>, none)
CHECK:          %R12.0x3e80, %B13C2 = "arith.cast"(%R10, %D7C2) {round_mode = 1}: (memref<1x32x25x320xf16, strides: [8000, 8000, 320, 1]>, none) -> (memref<1x32x25x320xsi8, strides: [8000, 8000, 320, 1]>, none)
CHECK:          %R10, %B14C2 = "arith.min"(%R12.0x3e80, %C15, %D7C2) {round_mode = 0}: (memref<1x32x25x320xsi8, strides: [8000, 8000, 320, 1]>, si8, none) -> (memref<1x32x25x320xsi8, strides: [8000, 8000, 320, 1]>, none)
CHECK:          %R12.0x3e80, %B15C2 = "arith.max"(%R10, %C-15, %D7C2) {round_mode = 0}: (memref<1x32x25x320xsi8, strides: [8000, 8000, 320, 1]>, si8, none) -> (memref<1x32x25x320xsi8, strides: [8000, 8000, 320, 1]>, none)
CHECK:          %R10, %B16C2 = "arith.add_satu"(%R12.0x3e80, %C15, %C10, %D7C2) {round_mode = 1}: (memref<1x32x25x320xsi8, strides: [8000, 8000, 320, 1]>, si16, ui8, none) -> (memref<1x32x25x320xsi16, strides: [8000, 8000, 320, 1]>, none)
CHECK:          %R12.0x3e80, %B17C2 = "sfu.taylor_4x"(%R12, %R13.0x3d00, %D7C2) : (memref<1x32x25x320xf16, strides: [8000, 8000, 320, 1]>, memref<1x32x1x7xf16, strides: [0, 0, 7, 1]>, none) -> (memref<1x32x25x320xf16, strides: [8000, 8000, 320, 1]>, none)
CHECK:          %R10, %B18C2 = "arith.mul"(%R12.0x3e80, %R10, %D7C2) {round_mode = 0}: (memref<1x32x25x320xf16, strides: [8000, 8000, 320, 1]>, memref<1x32x25x320xf16, strides: [8000, 8000, 320, 1]>, none) -> (memref<1x32x25x320xf16, strides: [8000, 8000, 320, 1]>, none)
CHECK:          %R12, %B19C2 = "arith.add"(%R10, %C1.0, %D7C2) {round_mode = 0}: (memref<1x32x25x320xf16, strides: [8000, 8000, 320, 1]>, f16, none) -> (memref<1x32x25x320xf16, strides: [8000, 8000, 320, 1]>, none)
CHECK:          %R10, %B20C2 = "arith.div"(%C1.0, %R12, %D7C2) {iter = 3}: (f16, memref<1x32x25x320xf16, strides: [8000, 8000, 320, 1]>, none) -> (memref<1x32x25x320xf16, strides: [8000, 8000, 320, 1]>, none)
CHECK:          %R10, %B21C2 = "arith.mul"(%R10, %R14.0x2200, %D7C2) {round_mode = 0}: (memref<1x32x25x320xf16, strides: [8000, 8000, 320, 1]>, memref<1x32x25x320xf16, strides: [8000, 8000, 320, 1]>, none) -> (memref<1x32x25x320xf16, strides: [8000, 8000, 320, 1]>, none)
CHECK:          %R9.0x24c0, %D8C2 = "dma.tensor"(%G1.0x14000, %B4C2) : (memref<1x64x1x288xi16, strides: [18432, 288, 288, 1]>, none) -> (memref<1x64x1x288xi16, strides: [288, 288, 288, 1]>, none)
CHECK:          %R9.0x3040, %D9C2 = "dma.tensor"(%G1.0x13000, %B4C2) : (memref<1x64x1x1xf32, strides: [64, 1, 1, 1]>, none) -> (memref<1x64x1x1xf32, strides: [1, 1, 1, 1]>, none)
CHECK:          %R0, %D10C2 = "dma.tensor"(%G2.0x9d800, %B4C2) : (memref<1x3x54x640xf32, strides: [1228800, 409600, 640, 1]>, none) -> (memref<1x3x54x640xf32, strides: [34560, 34560, 640, 1]>, none)
CHECK:          %R12, %B22C2 = "conv.normal"(%R10, %R9.0x24c0, %R9.0x3040, %C0.0, %D10C2) {kernel = [3, 3], stride = [2, 2], in_zero = [0, 0], ke_zero = [0, 0], opt_kernel_rotate = False, pad_mode = 0, pad = [0, 0, 1, 1], opt_res_add = False, do_relu = False, sym_range = False, do_rq = False, round_mode = 0}: (memref<1x32x25x320xf16, strides: [8000, 8000, 320, 1]>, memref<64x32x3x3xf16>, memref<1x64x1x1xui32, strides: [1, 1, 1, 1]>, f16, none) -> (memref<1x64x12x160xf16, strides: [1920, 1920, 160, 1]>, none)
CHECK:          %R10.0x1e00, %B23C2 = "tsbc.s_bc"(%R0.0x580, %D10C2) : (memref<1x64x1x7xf16, strides: [32, 32, 7, 1]>, none) -> (memref<1x64x1x7xf16, strides: [32, 32, 7, 1]>, none)
CHECK:          %R10.0xf00, %B24C2 = "arith.sub"(%C0.0, %R12, %D10C2) {round_mode = 0}: (f16, memref<1x64x12x160xf16, strides: [1920, 1920, 160, 1]>, none) -> (memref<1x64x12x160xf16, strides: [1920, 1920, 160, 1]>, none)
CHECK:          %R10.0xf00, %B25C2 = "arith.max"(%R10.0xf00, %C-45408.0, %D10C2) {round_mode = 0}: (memref<1x64x12x160xf16, strides: [1920, 1920, 160, 1]>, f16, none) -> (memref<1x64x12x160xf16, strides: [1920, 1920, 160, 1]>, none)
CHECK:          %R10.0xf00, %B26C2 = "arith.min"(%R10.0xf00, %C45408.0, %D10C2) {round_mode = 0}: (memref<1x64x12x160xf16, strides: [1920, 1920, 160, 1]>, f16, none) -> (memref<1x64x12x160xf16, strides: [1920, 1920, 160, 1]>, none)
CHECK:          %R10, %B27C2 = "arith.mul"(%R10.0xf00, %C1.4423828125, %D10C2) {round_mode = 0}: (memref<1x64x12x160xf16, strides: [1920, 1920, 160, 1]>, f16, none) -> (memref<1x64x12x160xf16, strides: [1920, 1920, 160, 1]>, none)
CHECK:          %R9.0x400, %B28C2 = "arith.cast"(%R10, %D10C2) {round_mode = 3}: (memref<1x64x12x160xf16, strides: [1920, 1920, 160, 1]>, none) -> (memref<1x64x12x160xf16, strides: [1920, 1920, 160, 1]>, none)
CHECK:          %R10, %B29C2 = "arith.mul"(%R9.0x400, %C0.693359375, %D10C2) {round_mode = 0}: (memref<1x64x12x160xf16, strides: [1920, 1920, 160, 1]>, f16, none) -> (memref<1x64x12x160xf16, strides: [1920, 1920, 160, 1]>, none)
CHECK:          %R10, %B30C2 = "arith.sub"(%R10.0xf00, %R10, %D10C2) {round_mode = 0}: (memref<1x64x12x160xf16, strides: [1920, 1920, 160, 1]>, memref<1x64x12x160xf16, strides: [1920, 1920, 160, 1]>, none) -> (memref<1x64x12x160xf16, strides: [1920, 1920, 160, 1]>, none)
CHECK:          %R10.0xf00, %B31C2 = "arith.cast"(%R9.0x400, %D10C2) {round_mode = 1}: (memref<1x64x12x160xf16, strides: [1920, 1920, 160, 1]>, none) -> (memref<1x64x12x160xsi8, strides: [1920, 1920, 160, 1]>, none)
CHECK:          %R9.0x400, %B32C2 = "arith.min"(%R10.0xf00, %C15, %D10C2) {round_mode = 0}: (memref<1x64x12x160xsi8, strides: [1920, 1920, 160, 1]>, si8, none) -> (memref<1x64x12x160xsi8, strides: [1920, 1920, 160, 1]>, none)
CHECK:          %R10.0xf00, %B33C2 = "arith.max"(%R9.0x400, %C-15, %D10C2) {round_mode = 0}: (memref<1x64x12x160xsi8, strides: [1920, 1920, 160, 1]>, si8, none) -> (memref<1x64x12x160xsi8, strides: [1920, 1920, 160, 1]>, none)
CHECK:          %R9.0x400, %B34C2 = "arith.add_satu"(%R10.0xf00, %C15, %C10, %D10C2) {round_mode = 1}: (memref<1x64x12x160xsi8, strides: [1920, 1920, 160, 1]>, si16, ui8, none) -> (memref<1x64x12x160xsi16, strides: [1920, 1920, 160, 1]>, none)
CHECK:          %R10.0xf00, %B35C2 = "sfu.taylor_4x"(%R10, %R10.0x1e00, %D10C2) : (memref<1x64x12x160xf16, strides: [1920, 1920, 160, 1]>, memref<1x64x1x7xf16, strides: [0, 0, 7, 1]>, none) -> (memref<1x64x12x160xf16, strides: [1920, 1920, 160, 1]>, none)
CHECK:          %R9.0x400, %B36C2 = "arith.mul"(%R10.0xf00, %R9.0x400, %D10C2) {round_mode = 0}: (memref<1x64x12x160xf16, strides: [1920, 1920, 160, 1]>, memref<1x64x12x160xf16, strides: [1920, 1920, 160, 1]>, none) -> (memref<1x64x12x160xf16, strides: [1920, 1920, 160, 1]>, none)
CHECK:          %R10, %B37C2 = "arith.add"(%R9.0x400, %C1.0, %D10C2) {round_mode = 0}: (memref<1x64x12x160xf16, strides: [1920, 1920, 160, 1]>, f16, none) -> (memref<1x64x12x160xf16, strides: [1920, 1920, 160, 1]>, none)
CHECK:          %R9.0x400, %B38C2 = "arith.div"(%C1.0, %R10, %D10C2) {iter = 3}: (f16, memref<1x64x12x160xf16, strides: [1920, 1920, 160, 1]>, none) -> (memref<1x64x12x160xf16, strides: [1920, 1920, 160, 1]>, none)
CHECK:          %R9.0x400, %B39C2 = "arith.mul"(%R9.0x400, %R12, %D10C2) {round_mode = 0}: (memref<1x64x12x160xf16, strides: [1920, 1920, 160, 1]>, memref<1x64x12x160xf16, strides: [1920, 1920, 160, 1]>, none) -> (memref<1x64x12x160xf16, strides: [1920, 1920, 160, 1]>, none)
CHECK:          %R15.0x2580, %D11C2 = "dma.tensor"(%G1.0x1e000, %B22C2) : (memref<1x32x1x64xi16, strides: [2048, 64, 64, 1]>, none) -> (memref<1x32x1x64xi16, strides: [64, 64, 64, 1]>, none)
CHECK:          %R9.0x3080, %D12C2 = "dma.tensor"(%G1.0x1d000, %B22C2) : (memref<1x32x1x1xf32, strides: [32, 1, 1, 1]>, none) -> (memref<1x32x1x1xf32, strides: [1, 1, 1, 1]>, none)
CHECK:          %R10, %B40C2 = "conv.normal"(%R9.0x400, %R15.0x2580, %R9.0x3080, %C0.0, %D12C2) {kernel = [1, 1], stride = [1, 1], in_zero = [0, 0], ke_zero = [0, 0], opt_kernel_rotate = False, pad_mode = 0, pad = [0, 0, 0, 0], opt_res_add = False, do_relu = False, sym_range = False, do_rq = False, round_mode = 0}: (memref<1x64x12x160xf16, strides: [1920, 1920, 160, 1]>, memref<32x64x1x1xf16>, memref<1x32x1x1xui32, strides: [1, 1, 1, 1]>, f16, none) -> (memref<1x32x12x160xf16, strides: [1920, 1920, 160, 1]>, none)
CHECK:          %R12.0x1e00, %B41C2 = "tsbc.s_bc"(%R0.0x580, %D12C2) : (memref<1x64x1x7xf16, strides: [32, 32, 7, 1]>, none) -> (memref<1x64x1x7xf16, strides: [32, 32, 7, 1]>, none)
CHECK:          %R12.0xf00, %B42C2 = "arith.sub"(%C0.0, %R10, %D12C2) {round_mode = 0}: (f16, memref<1x32x12x160xf16, strides: [1920, 1920, 160, 1]>, none) -> (memref<1x32x12x160xf16, strides: [1920, 1920, 160, 1]>, none)
CHECK:          %R12.0xf00, %B43C2 = "arith.max"(%R12.0xf00, %C-45408.0, %D12C2) {round_mode = 0}: (memref<1x32x12x160xf16, strides: [1920, 1920, 160, 1]>, f16, none) -> (memref<1x32x12x160xf16, strides: [1920, 1920, 160, 1]>, none)
CHECK:          %R12.0xf00, %B44C2 = "arith.min"(%R12.0xf00, %C45408.0, %D12C2) {round_mode = 0}: (memref<1x32x12x160xf16, strides: [1920, 1920, 160, 1]>, f16, none) -> (memref<1x32x12x160xf16, strides: [1920, 1920, 160, 1]>, none)
CHECK:          %R12, %B45C2 = "arith.mul"(%R12.0xf00, %C1.4423828125, %D12C2) {round_mode = 0}: (memref<1x32x12x160xf16, strides: [1920, 1920, 160, 1]>, f16, none) -> (memref<1x32x12x160xf16, strides: [1920, 1920, 160, 1]>, none)
CHECK:          %R11, %B46C2 = "arith.cast"(%R12, %D12C2) {round_mode = 3}: (memref<1x32x12x160xf16, strides: [1920, 1920, 160, 1]>, none) -> (memref<1x32x12x160xf16, strides: [1920, 1920, 160, 1]>, none)
CHECK:          %R12, %B47C2 = "arith.mul"(%R11, %C0.693359375, %D12C2) {round_mode = 0}: (memref<1x32x12x160xf16, strides: [1920, 1920, 160, 1]>, f16, none) -> (memref<1x32x12x160xf16, strides: [1920, 1920, 160, 1]>, none)
CHECK:          %R12, %B48C2 = "arith.sub"(%R12.0xf00, %R12, %D12C2) {round_mode = 0}: (memref<1x32x12x160xf16, strides: [1920, 1920, 160, 1]>, memref<1x32x12x160xf16, strides: [1920, 1920, 160, 1]>, none) -> (memref<1x32x12x160xf16, strides: [1920, 1920, 160, 1]>, none)
CHECK:          %R12.0xf00, %B49C2 = "arith.cast"(%R11, %D12C2) {round_mode = 1}: (memref<1x32x12x160xf16, strides: [1920, 1920, 160, 1]>, none) -> (memref<1x32x12x160xsi8, strides: [1920, 1920, 160, 1]>, none)
CHECK:          %R11, %B50C2 = "arith.min"(%R12.0xf00, %C15, %D12C2) {round_mode = 0}: (memref<1x32x12x160xsi8, strides: [1920, 1920, 160, 1]>, si8, none) -> (memref<1x32x12x160xsi8, strides: [1920, 1920, 160, 1]>, none)
CHECK:          %R12.0xf00, %B51C2 = "arith.max"(%R11, %C-15, %D12C2) {round_mode = 0}: (memref<1x32x12x160xsi8, strides: [1920, 1920, 160, 1]>, si8, none) -> (memref<1x32x12x160xsi8, strides: [1920, 1920, 160, 1]>, none)
CHECK:          %R11, %B52C2 = "arith.add_satu"(%R12.0xf00, %C15, %C10, %D12C2) {round_mode = 1}: (memref<1x32x12x160xsi8, strides: [1920, 1920, 160, 1]>, si16, ui8, none) -> (memref<1x32x12x160xsi16, strides: [1920, 1920, 160, 1]>, none)
CHECK:          %R12.0xf00, %B53C2 = "sfu.taylor_4x"(%R12, %R12.0x1e00, %D12C2) : (memref<1x32x12x160xf16, strides: [1920, 1920, 160, 1]>, memref<1x32x1x7xf16, strides: [0, 0, 7, 1]>, none) -> (memref<1x32x12x160xf16, strides: [1920, 1920, 160, 1]>, none)
CHECK:          %R11, %B54C2 = "arith.mul"(%R12.0xf00, %R11, %D12C2) {round_mode = 0}: (memref<1x32x12x160xf16, strides: [1920, 1920, 160, 1]>, memref<1x32x12x160xf16, strides: [1920, 1920, 160, 1]>, none) -> (memref<1x32x12x160xf16, strides: [1920, 1920, 160, 1]>, none)
CHECK:          %R12, %B55C2 = "arith.add"(%R11, %C1.0, %D12C2) {round_mode = 0}: (memref<1x32x12x160xf16, strides: [1920, 1920, 160, 1]>, f16, none) -> (memref<1x32x12x160xf16, strides: [1920, 1920, 160, 1]>, none)
CHECK:          %R11, %B56C2 = "arith.div"(%C1.0, %R12, %D12C2) {iter = 3}: (f16, memref<1x32x12x160xf16, strides: [1920, 1920, 160, 1]>, none) -> (memref<1x32x12x160xf16, strides: [1920, 1920, 160, 1]>, none)
CHECK:          %R11, %B57C2 = "arith.mul"(%R11, %R10, %D12C2) {round_mode = 0}: (memref<1x32x12x160xf16, strides: [1920, 1920, 160, 1]>, memref<1x32x12x160xf16, strides: [1920, 1920, 160, 1]>, none) -> (memref<1x32x12x160xf16, strides: [1920, 1920, 160, 1]>, none)
CHECK:          %R10.0x1040, %B58C2 = "conv.normal"(%R11, %R15.0x2600, %R9.0x30c0, %C0.0, %D12C2) {kernel = [1, 1], stride = [1, 1], in_zero = [0, 0], ke_zero = [0, 0], opt_kernel_rotate = False, pad_mode = 0, pad = [0, 0, 0, 0], opt_res_add = False, do_relu = False, sym_range = False, do_rq = False, round_mode = 0}: (memref<1x32x12x160xf16, strides: [1920, 1920, 160, 1]>, memref<32x32x1x1xf16>, memref<1x32x1x1xui32, strides: [1, 1, 1, 1]>, f16, none) -> (memref<1x32x12x160xf16, strides: [1920, 1920, 160, 1]>, none)
CHECK:          %L30.0x6980004100, %D13C2 = "dma.tensor"(%R9.0x400, %B40C2) : (memref<1x64x12x160xi16, strides: [1920, 1920, 160, 1]>, none) -> (memref<1x64x12x160xi16, strides: [1638400, 25600, 160, 1]>, none)
CHECK:          %R9.0x2200, %B59C2 = "tsbc.s_bc"(%R0.0x580, %D13C2) : (memref<1x64x1x7xf16, strides: [32, 32, 7, 1]>, none) -> (memref<1x64x1x7xf16, strides: [32, 32, 7, 1]>, none)
CHECK:          %R9.0x1300, %B60C2 = "arith.sub"(%C0.0, %R10.0x1040, %D13C2) {round_mode = 0}: (f16, memref<1x32x12x160xf16, strides: [1920, 1920, 160, 1]>, none) -> (memref<1x32x12x160xf16, strides: [1920, 1920, 160, 1]>, none)
CHECK:          %R9.0x1300, %B61C2 = "arith.max"(%R9.0x1300, %C-45408.0, %D13C2) {round_mode = 0}: (memref<1x32x12x160xf16, strides: [1920, 1920, 160, 1]>, f16, none) -> (memref<1x32x12x160xf16, strides: [1920, 1920, 160, 1]>, none)
CHECK:          %R9.0x1300, %B62C2 = "arith.min"(%R9.0x1300, %C45408.0, %D13C2) {round_mode = 0}: (memref<1x32x12x160xf16, strides: [1920, 1920, 160, 1]>, f16, none) -> (memref<1x32x12x160xf16, strides: [1920, 1920, 160, 1]>, none)
CHECK:          %R9.0x400, %B63C2 = "arith.mul"(%R9.0x1300, %C1.4423828125, %D13C2) {round_mode = 0}: (memref<1x32x12x160xf16, strides: [1920, 1920, 160, 1]>, f16, none) -> (memref<1x32x12x160xf16, strides: [1920, 1920, 160, 1]>, none)
CHECK:          %R15, %B64C2 = "arith.cast"(%R9.0x400, %D13C2) {round_mode = 3}: (memref<1x32x12x160xf16, strides: [1920, 1920, 160, 1]>, none) -> (memref<1x32x12x160xf16, strides: [1920, 1920, 160, 1]>, none)
CHECK:          %R9.0x400, %B65C2 = "arith.mul"(%R15, %C0.693359375, %D13C2) {round_mode = 0}: (memref<1x32x12x160xf16, strides: [1920, 1920, 160, 1]>, f16, none) -> (memref<1x32x12x160xf16, strides: [1920, 1920, 160, 1]>, none)
CHECK:          %R9.0x400, %B66C2 = "arith.sub"(%R9.0x1300, %R9.0x400, %D13C2) {round_mode = 0}: (memref<1x32x12x160xf16, strides: [1920, 1920, 160, 1]>, memref<1x32x12x160xf16, strides: [1920, 1920, 160, 1]>, none) -> (memref<1x32x12x160xf16, strides: [1920, 1920, 160, 1]>, none)
CHECK:          %R9.0x1300, %B67C2 = "arith.cast"(%R15, %D13C2) {round_mode = 1}: (memref<1x32x12x160xf16, strides: [1920, 1920, 160, 1]>, none) -> (memref<1x32x12x160xsi8, strides: [1920, 1920, 160, 1]>, none)
CHECK:          %R15, %B68C2 = "arith.min"(%R9.0x1300, %C15, %D13C2) {round_mode = 0}: (memref<1x32x12x160xsi8, strides: [1920, 1920, 160, 1]>, si8, none) -> (memref<1x32x12x160xsi8, strides: [1920, 1920, 160, 1]>, none)
CHECK:          %R9.0x1300, %B69C2 = "arith.max"(%R15, %C-15, %D13C2) {round_mode = 0}: (memref<1x32x12x160xsi8, strides: [1920, 1920, 160, 1]>, si8, none) -> (memref<1x32x12x160xsi8, strides: [1920, 1920, 160, 1]>, none)
CHECK:          %R15, %B70C2 = "arith.add_satu"(%R9.0x1300, %C15, %C10, %D13C2) {round_mode = 1}: (memref<1x32x12x160xsi8, strides: [1920, 1920, 160, 1]>, si16, ui8, none) -> (memref<1x32x12x160xsi16, strides: [1920, 1920, 160, 1]>, none)
CHECK:          %R9.0x1300, %B71C2 = "sfu.taylor_4x"(%R9.0x400, %R9.0x2200, %D13C2) : (memref<1x32x12x160xf16, strides: [1920, 1920, 160, 1]>, memref<1x32x1x7xf16, strides: [0, 0, 7, 1]>, none) -> (memref<1x32x12x160xf16, strides: [1920, 1920, 160, 1]>, none)
CHECK:          %R15, %B72C2 = "arith.mul"(%R9.0x1300, %R15, %D13C2) {round_mode = 0}: (memref<1x32x12x160xf16, strides: [1920, 1920, 160, 1]>, memref<1x32x12x160xf16, strides: [1920, 1920, 160, 1]>, none) -> (memref<1x32x12x160xf16, strides: [1920, 1920, 160, 1]>, none)
CHECK:          %R9.0x400, %B73C2 = "arith.add"(%R15, %C1.0, %D13C2) {round_mode = 0}: (memref<1x32x12x160xf16, strides: [1920, 1920, 160, 1]>, f16, none) -> (memref<1x32x12x160xf16, strides: [1920, 1920, 160, 1]>, none)
CHECK:          %R15, %B74C2 = "arith.div"(%C1.0, %R9.0x400, %D13C2) {iter = 3}: (f16, memref<1x32x12x160xf16, strides: [1920, 1920, 160, 1]>, none) -> (memref<1x32x12x160xf16, strides: [1920, 1920, 160, 1]>, none)
CHECK:          %R15, %B75C2 = "arith.mul"(%R15, %R10.0x1040, %D13C2) {round_mode = 0}: (memref<1x32x12x160xf16, strides: [1920, 1920, 160, 1]>, memref<1x32x12x160xf16, strides: [1920, 1920, 160, 1]>, none) -> (memref<1x32x12x160xf16, strides: [1920, 1920, 160, 1]>, none)
CHECK:          %L30.0x6980644100, %D14C2 = "dma.tensor"(%R11, %B58C2) : (memref<1x32x12x160xi16, strides: [1920, 1920, 160, 1]>, none) -> (memref<1x32x12x160xi16, strides: [819200, 25600, 160, 1]>, none)
CHECK:          %R10, %B76C2 = "arith.cast"(%R0, %D14C2) {round_mode = 1}: (memref<1x3x54x640xf32, strides: [34560, 34560, 640, 1]>, none) -> (memref<1x3x54x640xf16, strides: [34560, 34560, 640, 1]>, none)
CHECK:          %L30.0x69804b4100, %D15C2 = "dma.tensor"(%R15, %B75C2) : (memref<1x32x12x160xi16, strides: [1920, 1920, 160, 1]>, none) -> (memref<1x32x12x160xi16, strides: [819200, 25600, 160, 1]>, none)
CHECK:          %R14.0x2200, %B77C2 = "conv.normal"(%R10, %R9.0x2700, %R9.0x3000, %C0.0, %D15C2) {kernel = [6, 6], stride = [2, 2], in_zero = [0, 0], ke_zero = [0, 0], opt_kernel_rotate = False, pad_mode = 0, pad = [0, 0, 2, 2], opt_res_add = False, do_relu = False, sym_range = False, do_rq = False, round_mode = 0}: (memref<1x3x54x640xf16, strides: [34560, 34560, 640, 1]>, memref<32x3x6x6xf16>, memref<1x32x1x1xui32, strides: [1, 1, 1, 1]>, f16, none) -> (memref<1x32x25x320xf16, strides: [8000, 8000, 320, 1]>, none)
CHECK:          %R13.0x3d00, %B78C2 = "tsbc.s_bc"(%R0.0x580, %D15C2) : (memref<1x64x1x7xf16, strides: [32, 32, 7, 1]>, none) -> (memref<1x64x1x7xf16, strides: [32, 32, 7, 1]>, none)
CHECK:          %R12.0x3e80, %B79C2 = "arith.sub"(%C0.0, %R14.0x2200, %D15C2) {round_mode = 0}: (f16, memref<1x32x25x320xf16, strides: [8000, 8000, 320, 1]>, none) -> (memref<1x32x25x320xf16, strides: [8000, 8000, 320, 1]>, none)
CHECK:          %R12.0x3e80, %B80C2 = "arith.max"(%R12.0x3e80, %C-45408.0, %D15C2) {round_mode = 0}: (memref<1x32x25x320xf16, strides: [8000, 8000, 320, 1]>, f16, none) -> (memref<1x32x25x320xf16, strides: [8000, 8000, 320, 1]>, none)
CHECK:          %R12.0x3e80, %B81C2 = "arith.min"(%R12.0x3e80, %C45408.0, %D15C2) {round_mode = 0}: (memref<1x32x25x320xf16, strides: [8000, 8000, 320, 1]>, f16, none) -> (memref<1x32x25x320xf16, strides: [8000, 8000, 320, 1]>, none)
CHECK:          %R12, %B82C2 = "arith.mul"(%R12.0x3e80, %C1.4423828125, %D15C2) {round_mode = 0}: (memref<1x32x25x320xf16, strides: [8000, 8000, 320, 1]>, f16, none) -> (memref<1x32x25x320xf16, strides: [8000, 8000, 320, 1]>, none)
CHECK:          %R10, %B83C2 = "arith.cast"(%R12, %D15C2) {round_mode = 3}: (memref<1x32x25x320xf16, strides: [8000, 8000, 320, 1]>, none) -> (memref<1x32x25x320xf16, strides: [8000, 8000, 320, 1]>, none)
CHECK:          %R12, %B84C2 = "arith.mul"(%R10, %C0.693359375, %D15C2) {round_mode = 0}: (memref<1x32x25x320xf16, strides: [8000, 8000, 320, 1]>, f16, none) -> (memref<1x32x25x320xf16, strides: [8000, 8000, 320, 1]>, none)
CHECK:          %R12, %B85C2 = "arith.sub"(%R12.0x3e80, %R12, %D15C2) {round_mode = 0}: (memref<1x32x25x320xf16, strides: [8000, 8000, 320, 1]>, memref<1x32x25x320xf16, strides: [8000, 8000, 320, 1]>, none) -> (memref<1x32x25x320xf16, strides: [8000, 8000, 320, 1]>, none)
CHECK:          %R12.0x3e80, %B86C2 = "arith.cast"(%R10, %D15C2) {round_mode = 1}: (memref<1x32x25x320xf16, strides: [8000, 8000, 320, 1]>, none) -> (memref<1x32x25x320xsi8, strides: [8000, 8000, 320, 1]>, none)
CHECK:          %R10, %B87C2 = "arith.min"(%R12.0x3e80, %C15, %D15C2) {round_mode = 0}: (memref<1x32x25x320xsi8, strides: [8000, 8000, 320, 1]>, si8, none) -> (memref<1x32x25x320xsi8, strides: [8000, 8000, 320, 1]>, none)
CHECK:          %R12.0x3e80, %B88C2 = "arith.max"(%R10, %C-15, %D15C2) {round_mode = 0}: (memref<1x32x25x320xsi8, strides: [8000, 8000, 320, 1]>, si8, none) -> (memref<1x32x25x320xsi8, strides: [8000, 8000, 320, 1]>, none)
CHECK:          %R10, %B89C2 = "arith.add_satu"(%R12.0x3e80, %C15, %C10, %D15C2) {round_mode = 1}: (memref<1x32x25x320xsi8, strides: [8000, 8000, 320, 1]>, si16, ui8, none) -> (memref<1x32x25x320xsi16, strides: [8000, 8000, 320, 1]>, none)
CHECK:          %R12.0x3e80, %B90C2 = "sfu.taylor_4x"(%R12, %R13.0x3d00, %D15C2) : (memref<1x32x25x320xf16, strides: [8000, 8000, 320, 1]>, memref<1x32x1x7xf16, strides: [0, 0, 7, 1]>, none) -> (memref<1x32x25x320xf16, strides: [8000, 8000, 320, 1]>, none)
CHECK:          %R10, %B91C2 = "arith.mul"(%R12.0x3e80, %R10, %D15C2) {round_mode = 0}: (memref<1x32x25x320xf16, strides: [8000, 8000, 320, 1]>, memref<1x32x25x320xf16, strides: [8000, 8000, 320, 1]>, none) -> (memref<1x32x25x320xf16, strides: [8000, 8000, 320, 1]>, none)
CHECK:          %R12, %B92C2 = "arith.add"(%R10, %C1.0, %D15C2) {round_mode = 0}: (memref<1x32x25x320xf16, strides: [8000, 8000, 320, 1]>, f16, none) -> (memref<1x32x25x320xf16, strides: [8000, 8000, 320, 1]>, none)
CHECK:          %R10, %B93C2 = "arith.div"(%C1.0, %R12, %D15C2) {iter = 3}: (f16, memref<1x32x25x320xf16, strides: [8000, 8000, 320, 1]>, none) -> (memref<1x32x25x320xf16, strides: [8000, 8000, 320, 1]>, none)
CHECK:          %R10, %B94C2 = "arith.mul"(%R10, %R14.0x2200, %D15C2) {round_mode = 0}: (memref<1x32x25x320xf16, strides: [8000, 8000, 320, 1]>, memref<1x32x25x320xf16, strides: [8000, 8000, 320, 1]>, none) -> (memref<1x32x25x320xf16, strides: [8000, 8000, 320, 1]>, none)
CHECK:          %R12, %B95C2 = "conv.normal"(%R10, %R9.0x24c0, %R9.0x3040, %C0.0, %D15C2) {kernel = [3, 3], stride = [2, 2], in_zero = [0, 0], ke_zero = [0, 0], opt_kernel_rotate = False, pad_mode = 0, pad = [0, 0, 1, 1], opt_res_add = False, do_relu = False, sym_range = False, do_rq = False, round_mode = 0}: (memref<1x32x25x320xf16, strides: [8000, 8000, 320, 1]>, memref<64x32x3x3xf16>, memref<1x64x1x1xui32, strides: [1, 1, 1, 1]>, f16, none) -> (memref<1x64x12x160xf16, strides: [1920, 1920, 160, 1]>, none)
CHECK:          %R10.0x1e00, %B96C2 = "tsbc.s_bc"(%R0.0x580, %D15C2) : (memref<1x64x1x7xf16, strides: [32, 32, 7, 1]>, none) -> (memref<1x64x1x7xf16, strides: [32, 32, 7, 1]>, none)
CHECK:          %R10.0xf00, %B97C2 = "arith.sub"(%C0.0, %R12, %D15C2) {round_mode = 0}: (f16, memref<1x64x12x160xf16, strides: [1920, 1920, 160, 1]>, none) -> (memref<1x64x12x160xf16, strides: [1920, 1920, 160, 1]>, none)
CHECK:          %R10.0xf00, %B98C2 = "arith.max"(%R10.0xf00, %C-45408.0, %D15C2) {round_mode = 0}: (memref<1x64x12x160xf16, strides: [1920, 1920, 160, 1]>, f16, none) -> (memref<1x64x12x160xf16, strides: [1920, 1920, 160, 1]>, none)
CHECK:          %R10.0xf00, %B99C2 = "arith.min"(%R10.0xf00, %C45408.0, %D15C2) {round_mode = 0}: (memref<1x64x12x160xf16, strides: [1920, 1920, 160, 1]>, f16, none) -> (memref<1x64x12x160xf16, strides: [1920, 1920, 160, 1]>, none)
CHECK:          %R10, %B100C2 = "arith.mul"(%R10.0xf00, %C1.4423828125, %D15C2) {round_mode = 0}: (memref<1x64x12x160xf16, strides: [1920, 1920, 160, 1]>, f16, none) -> (memref<1x64x12x160xf16, strides: [1920, 1920, 160, 1]>, none)
CHECK:          %R9.0x400, %B101C2 = "arith.cast"(%R10, %D15C2) {round_mode = 3}: (memref<1x64x12x160xf16, strides: [1920, 1920, 160, 1]>, none) -> (memref<1x64x12x160xf16, strides: [1920, 1920, 160, 1]>, none)
CHECK:          %R10, %B102C2 = "arith.mul"(%R9.0x400, %C0.693359375, %D15C2) {round_mode = 0}: (memref<1x64x12x160xf16, strides: [1920, 1920, 160, 1]>, f16, none) -> (memref<1x64x12x160xf16, strides: [1920, 1920, 160, 1]>, none)
CHECK:          %R10, %B103C2 = "arith.sub"(%R10.0xf00, %R10, %D15C2) {round_mode = 0}: (memref<1x64x12x160xf16, strides: [1920, 1920, 160, 1]>, memref<1x64x12x160xf16, strides: [1920, 1920, 160, 1]>, none) -> (memref<1x64x12x160xf16, strides: [1920, 1920, 160, 1]>, none)
CHECK:          %R10.0xf00, %B104C2 = "arith.cast"(%R9.0x400, %D15C2) {round_mode = 1}: (memref<1x64x12x160xf16, strides: [1920, 1920, 160, 1]>, none) -> (memref<1x64x12x160xsi8, strides: [1920, 1920, 160, 1]>, none)
CHECK:          %R9.0x400, %B105C2 = "arith.min"(%R10.0xf00, %C15, %D15C2) {round_mode = 0}: (memref<1x64x12x160xsi8, strides: [1920, 1920, 160, 1]>, si8, none) -> (memref<1x64x12x160xsi8, strides: [1920, 1920, 160, 1]>, none)
CHECK:          %R10.0xf00, %B106C2 = "arith.max"(%R9.0x400, %C-15, %D15C2) {round_mode = 0}: (memref<1x64x12x160xsi8, strides: [1920, 1920, 160, 1]>, si8, none) -> (memref<1x64x12x160xsi8, strides: [1920, 1920, 160, 1]>, none)
CHECK:          %R9.0x400, %B107C2 = "arith.add_satu"(%R10.0xf00, %C15, %C10, %D15C2) {round_mode = 1}: (memref<1x64x12x160xsi8, strides: [1920, 1920, 160, 1]>, si16, ui8, none) -> (memref<1x64x12x160xsi16, strides: [1920, 1920, 160, 1]>, none)
CHECK:          %R10.0xf00, %B108C2 = "sfu.taylor_4x"(%R10, %R10.0x1e00, %D15C2) : (memref<1x64x12x160xf16, strides: [1920, 1920, 160, 1]>, memref<1x64x1x7xf16, strides: [0, 0, 7, 1]>, none) -> (memref<1x64x12x160xf16, strides: [1920, 1920, 160, 1]>, none)
CHECK:          %R9.0x400, %B109C2 = "arith.mul"(%R10.0xf00, %R9.0x400, %D15C2) {round_mode = 0}: (memref<1x64x12x160xf16, strides: [1920, 1920, 160, 1]>, memref<1x64x12x160xf16, strides: [1920, 1920, 160, 1]>, none) -> (memref<1x64x12x160xf16, strides: [1920, 1920, 160, 1]>, none)
CHECK:          %R10, %B110C2 = "arith.add"(%R9.0x400, %C1.0, %D15C2) {round_mode = 0}: (memref<1x64x12x160xf16, strides: [1920, 1920, 160, 1]>, f16, none) -> (memref<1x64x12x160xf16, strides: [1920, 1920, 160, 1]>, none)
CHECK:          %R9.0x400, %B111C2 = "arith.div"(%C1.0, %R10, %D15C2) {iter = 3}: (f16, memref<1x64x12x160xf16, strides: [1920, 1920, 160, 1]>, none) -> (memref<1x64x12x160xf16, strides: [1920, 1920, 160, 1]>, none)
CHECK:          %R9.0x400, %B112C2 = "arith.mul"(%R9.0x400, %R12, %D15C2) {round_mode = 0}: (memref<1x64x12x160xf16, strides: [1920, 1920, 160, 1]>, memref<1x64x12x160xf16, strides: [1920, 1920, 160, 1]>, none) -> (memref<1x64x12x160xf16, strides: [1920, 1920, 160, 1]>, none)
CHECK:          %R10, %B113C2 = "conv.normal"(%R9.0x400, %R15.0x2580, %R9.0x3080, %C0.0, %D15C2) {kernel = [1, 1], stride = [1, 1], in_zero = [0, 0], ke_zero = [0, 0], opt_kernel_rotate = False, pad_mode = 0, pad = [0, 0, 0, 0], opt_res_add = False, do_relu = False, sym_range = False, do_rq = False, round_mode = 0}: (memref<1x64x12x160xf16, strides: [1920, 1920, 160, 1]>, memref<32x64x1x1xf16>, memref<1x32x1x1xui32, strides: [1, 1, 1, 1]>, f16, none) -> (memref<1x32x12x160xf16, strides: [1920, 1920, 160, 1]>, none)
CHECK:          %R12.0x1e00, %B114C2 = "tsbc.s_bc"(%R0.0x580, %D15C2) : (memref<1x64x1x7xf16, strides: [32, 32, 7, 1]>, none) -> (memref<1x64x1x7xf16, strides: [32, 32, 7, 1]>, none)
CHECK:          %R12.0xf00, %B115C2 = "arith.sub"(%C0.0, %R10, %D15C2) {round_mode = 0}: (f16, memref<1x32x12x160xf16, strides: [1920, 1920, 160, 1]>, none) -> (memref<1x32x12x160xf16, strides: [1920, 1920, 160, 1]>, none)
CHECK:          %R12.0xf00, %B116C2 = "arith.max"(%R12.0xf00, %C-45408.0, %D15C2) {round_mode = 0}: (memref<1x32x12x160xf16, strides: [1920, 1920, 160, 1]>, f16, none) -> (memref<1x32x12x160xf16, strides: [1920, 1920, 160, 1]>, none)
CHECK:          %R12.0xf00, %B117C2 = "arith.min"(%R12.0xf00, %C45408.0, %D15C2) {round_mode = 0}: (memref<1x32x12x160xf16, strides: [1920, 1920, 160, 1]>, f16, none) -> (memref<1x32x12x160xf16, strides: [1920, 1920, 160, 1]>, none)
CHECK:          %R12, %B118C2 = "arith.mul"(%R12.0xf00, %C1.4423828125, %D15C2) {round_mode = 0}: (memref<1x32x12x160xf16, strides: [1920, 1920, 160, 1]>, f16, none) -> (memref<1x32x12x160xf16, strides: [1920, 1920, 160, 1]>, none)
CHECK:          %R11, %B119C2 = "arith.cast"(%R12, %D15C2) {round_mode = 3}: (memref<1x32x12x160xf16, strides: [1920, 1920, 160, 1]>, none) -> (memref<1x32x12x160xf16, strides: [1920, 1920, 160, 1]>, none)
CHECK:          %R12, %B120C2 = "arith.mul"(%R11, %C0.693359375, %D15C2) {round_mode = 0}: (memref<1x32x12x160xf16, strides: [1920, 1920, 160, 1]>, f16, none) -> (memref<1x32x12x160xf16, strides: [1920, 1920, 160, 1]>, none)
CHECK:          %R12, %B121C2 = "arith.sub"(%R12.0xf00, %R12, %D15C2) {round_mode = 0}: (memref<1x32x12x160xf16, strides: [1920, 1920, 160, 1]>, memref<1x32x12x160xf16, strides: [1920, 1920, 160, 1]>, none) -> (memref<1x32x12x160xf16, strides: [1920, 1920, 160, 1]>, none)
CHECK:          %R12.0xf00, %B122C2 = "arith.cast"(%R11, %D15C2) {round_mode = 1}: (memref<1x32x12x160xf16, strides: [1920, 1920, 160, 1]>, none) -> (memref<1x32x12x160xsi8, strides: [1920, 1920, 160, 1]>, none)
CHECK:          %R11, %B123C2 = "arith.min"(%R12.0xf00, %C15, %D15C2) {round_mode = 0}: (memref<1x32x12x160xsi8, strides: [1920, 1920, 160, 1]>, si8, none) -> (memref<1x32x12x160xsi8, strides: [1920, 1920, 160, 1]>, none)
CHECK:          %R12.0xf00, %B124C2 = "arith.max"(%R11, %C-15, %D15C2) {round_mode = 0}: (memref<1x32x12x160xsi8, strides: [1920, 1920, 160, 1]>, si8, none) -> (memref<1x32x12x160xsi8, strides: [1920, 1920, 160, 1]>, none)
CHECK:          %R11, %B125C2 = "arith.add_satu"(%R12.0xf00, %C15, %C10, %D15C2) {round_mode = 1}: (memref<1x32x12x160xsi8, strides: [1920, 1920, 160, 1]>, si16, ui8, none) -> (memref<1x32x12x160xsi16, strides: [1920, 1920, 160, 1]>, none)
CHECK:          %R12.0xf00, %B126C2 = "sfu.taylor_4x"(%R12, %R12.0x1e00, %D15C2) : (memref<1x32x12x160xf16, strides: [1920, 1920, 160, 1]>, memref<1x32x1x7xf16, strides: [0, 0, 7, 1]>, none) -> (memref<1x32x12x160xf16, strides: [1920, 1920, 160, 1]>, none)
CHECK:          %R11, %B127C2 = "arith.mul"(%R12.0xf00, %R11, %D15C2) {round_mode = 0}: (memref<1x32x12x160xf16, strides: [1920, 1920, 160, 1]>, memref<1x32x12x160xf16, strides: [1920, 1920, 160, 1]>, none) -> (memref<1x32x12x160xf16, strides: [1920, 1920, 160, 1]>, none)
CHECK:          %R12, %B128C2 = "arith.add"(%R11, %C1.0, %D15C2) {round_mode = 0}: (memref<1x32x12x160xf16, strides: [1920, 1920, 160, 1]>, f16, none) -> (memref<1x32x12x160xf16, strides: [1920, 1920, 160, 1]>, none)
CHECK:          %R11, %B129C2 = "arith.div"(%C1.0, %R12, %D15C2) {iter = 3}: (f16, memref<1x32x12x160xf16, strides: [1920, 1920, 160, 1]>, none) -> (memref<1x32x12x160xf16, strides: [1920, 1920, 160, 1]>, none)
CHECK:          %R11, %B130C2 = "arith.mul"(%R11, %R10, %D15C2) {round_mode = 0}: (memref<1x32x12x160xf16, strides: [1920, 1920, 160, 1]>, memref<1x32x12x160xf16, strides: [1920, 1920, 160, 1]>, none) -> (memref<1x32x12x160xf16, strides: [1920, 1920, 160, 1]>, none)
CHECK:          %R10.0x1040, %B131C2 = "conv.normal"(%R11, %R15.0x2600, %R9.0x30c0, %C0.0, %D15C2) {kernel = [1, 1], stride = [1, 1], in_zero = [0, 0], ke_zero = [0, 0], opt_kernel_rotate = False, pad_mode = 0, pad = [0, 0, 0, 0], opt_res_add = False, do_relu = False, sym_range = False, do_rq = False, round_mode = 0}: (memref<1x32x12x160xf16, strides: [1920, 1920, 160, 1]>, memref<32x32x1x1xf16>, memref<1x32x1x1xui32, strides: [1, 1, 1, 1]>, f16, none) -> (memref<1x32x12x160xf16, strides: [1920, 1920, 160, 1]>, none)
CHECK:          %L30.0x6980005000, %D16C2 = "dma.tensor"(%R9.0x400, %B113C2) : (memref<1x64x12x160xi16, strides: [1920, 1920, 160, 1]>, none) -> (memref<1x64x12x160xi16, strides: [1638400, 25600, 160, 1]>, none)
CHECK:          %R9.0x2200, %B132C2 = "tsbc.s_bc"(%R0.0x580, %D16C2) : (memref<1x64x1x7xf16, strides: [32, 32, 7, 1]>, none) -> (memref<1x64x1x7xf16, strides: [32, 32, 7, 1]>, none)
CHECK:          %R9.0x1300, %B133C2 = "arith.sub"(%C0.0, %R10.0x1040, %D16C2) {round_mode = 0}: (f16, memref<1x32x12x160xf16, strides: [1920, 1920, 160, 1]>, none) -> (memref<1x32x12x160xf16, strides: [1920, 1920, 160, 1]>, none)
CHECK:          %R9.0x1300, %B134C2 = "arith.max"(%R9.0x1300, %C-45408.0, %D16C2) {round_mode = 0}: (memref<1x32x12x160xf16, strides: [1920, 1920, 160, 1]>, f16, none) -> (memref<1x32x12x160xf16, strides: [1920, 1920, 160, 1]>, none)
CHECK:          %R9.0x1300, %B135C2 = "arith.min"(%R9.0x1300, %C45408.0, %D16C2) {round_mode = 0}: (memref<1x32x12x160xf16, strides: [1920, 1920, 160, 1]>, f16, none) -> (memref<1x32x12x160xf16, strides: [1920, 1920, 160, 1]>, none)
CHECK:          %R9.0x400, %B136C2 = "arith.mul"(%R9.0x1300, %C1.4423828125, %D16C2) {round_mode = 0}: (memref<1x32x12x160xf16, strides: [1920, 1920, 160, 1]>, f16, none) -> (memref<1x32x12x160xf16, strides: [1920, 1920, 160, 1]>, none)
CHECK:          %R15, %B137C2 = "arith.cast"(%R9.0x400, %D16C2) {round_mode = 3}: (memref<1x32x12x160xf16, strides: [1920, 1920, 160, 1]>, none) -> (memref<1x32x12x160xf16, strides: [1920, 1920, 160, 1]>, none)
CHECK:          %R9.0x400, %B138C2 = "arith.mul"(%R15, %C0.693359375, %D16C2) {round_mode = 0}: (memref<1x32x12x160xf16, strides: [1920, 1920, 160, 1]>, f16, none) -> (memref<1x32x12x160xf16, strides: [1920, 1920, 160, 1]>, none)
CHECK:          %R9.0x400, %B139C2 = "arith.sub"(%R9.0x1300, %R9.0x400, %D16C2) {round_mode = 0}: (memref<1x32x12x160xf16, strides: [1920, 1920, 160, 1]>, memref<1x32x12x160xf16, strides: [1920, 1920, 160, 1]>, none) -> (memref<1x32x12x160xf16, strides: [1920, 1920, 160, 1]>, none)
CHECK:          %R9.0x1300, %B140C2 = "arith.cast"(%R15, %D16C2) {round_mode = 1}: (memref<1x32x12x160xf16, strides: [1920, 1920, 160, 1]>, none) -> (memref<1x32x12x160xsi8, strides: [1920, 1920, 160, 1]>, none)
CHECK:          %R15, %B141C2 = "arith.min"(%R9.0x1300, %C15, %D16C2) {round_mode = 0}: (memref<1x32x12x160xsi8, strides: [1920, 1920, 160, 1]>, si8, none) -> (memref<1x32x12x160xsi8, strides: [1920, 1920, 160, 1]>, none)
CHECK:          %R9.0x1300, %B142C2 = "arith.max"(%R15, %C-15, %D16C2) {round_mode = 0}: (memref<1x32x12x160xsi8, strides: [1920, 1920, 160, 1]>, si8, none) -> (memref<1x32x12x160xsi8, strides: [1920, 1920, 160, 1]>, none)
CHECK:          %R15, %B143C2 = "arith.add_satu"(%R9.0x1300, %C15, %C10, %D16C2) {round_mode = 1}: (memref<1x32x12x160xsi8, strides: [1920, 1920, 160, 1]>, si16, ui8, none) -> (memref<1x32x12x160xsi16, strides: [1920, 1920, 160, 1]>, none)
CHECK:          %R9.0x1300, %B144C2 = "sfu.taylor_4x"(%R9.0x400, %R9.0x2200, %D16C2) : (memref<1x32x12x160xf16, strides: [1920, 1920, 160, 1]>, memref<1x32x1x7xf16, strides: [0, 0, 7, 1]>, none) -> (memref<1x32x12x160xf16, strides: [1920, 1920, 160, 1]>, none)
CHECK:          %R15, %B145C2 = "arith.mul"(%R9.0x1300, %R15, %D16C2) {round_mode = 0}: (memref<1x32x12x160xf16, strides: [1920, 1920, 160, 1]>, memref<1x32x12x160xf16, strides: [1920, 1920, 160, 1]>, none) -> (memref<1x32x12x160xf16, strides: [1920, 1920, 160, 1]>, none)
CHECK:          %R9.0x400, %B146C2 = "arith.add"(%R15, %C1.0, %D16C2) {round_mode = 0}: (memref<1x32x12x160xf16, strides: [1920, 1920, 160, 1]>, f16, none) -> (memref<1x32x12x160xf16, strides: [1920, 1920, 160, 1]>, none)
CHECK:          %R15, %B147C2 = "arith.div"(%C1.0, %R9.0x400, %D16C2) {iter = 3}: (f16, memref<1x32x12x160xf16, strides: [1920, 1920, 160, 1]>, none) -> (memref<1x32x12x160xf16, strides: [1920, 1920, 160, 1]>, none)
CHECK:          %R15, %B148C2 = "arith.mul"(%R15, %R10.0x1040, %D16C2) {round_mode = 0}: (memref<1x32x12x160xf16, strides: [1920, 1920, 160, 1]>, memref<1x32x12x160xf16, strides: [1920, 1920, 160, 1]>, none) -> (memref<1x32x12x160xf16, strides: [1920, 1920, 160, 1]>, none)
CHECK:          %L30.0x6980645000, %D17C2 = "dma.tensor"(%R11, %B131C2) : (memref<1x32x12x160xi16, strides: [1920, 1920, 160, 1]>, none) -> (memref<1x32x12x160xi16, strides: [819200, 25600, 160, 1]>, none)
CHECK:          %L30.0x69804b5000, %D18C2 = "dma.tensor"(%R15, %B148C2) : (memref<1x32x12x160xi16, strides: [1920, 1920, 160, 1]>, none) -> (memref<1x32x12x160xi16, strides: [819200, 25600, 160, 1]>, none)
CHECK:          %B149C2, %msg49 = "system.send_msg"(%D18C2) {msg_id = 49, cnt = 32, status = Status.PRODUCING}
CHECK:          %D19C2, %msg49 = "dma.sys.sys_send"(%B149C2) {msg_id = 49, cnt = 32, status = Status.PRODUCING}
CHECK:        }
CHECK:        %D19C3, %msg49 = "@core_3"(%D1C3, %msg48) {
CHECK:          %B2C3 = "system.wait_msg"(%D1C3, %msg48) {msg_id = 48, cnt = 32, status = Status.RECIEVING}
CHECK:          %D2C3 = "dma.sys.sys_wait"(%B2C3, %msg48) {msg_id = 48, cnt = 32, status = Status.CONSUMED}
CHECK:          %R0, %D3C3 = "dma.tensor"(%G2.0xbb800, %B2C3) : (memref<1x3x54x640xf32, strides: [1228800, 409600, 640, 1]>, none) -> (memref<1x3x54x640xf32, strides: [34560, 34560, 640, 1]>, none)
CHECK:          %R10, %B3C3 = "arith.cast"(%R0, %D3C3) {round_mode = 1}: (memref<1x3x54x640xf32, strides: [34560, 34560, 640, 1]>, none) -> (memref<1x3x54x640xf16, strides: [34560, 34560, 640, 1]>, none)
CHECK:          %R9.0x2700, %D4C3 = "dma.tensor"(%G1.0x1000, %B2C3) : (memref<1x32x1x1152xi16, strides: [36864, 1152, 1152, 1]>, none) -> (memref<1x32x1x1152xi16, strides: [1152, 1152, 1152, 1]>, none)
CHECK:          %R9.0x3000, %D5C3 = "dma.tensor"(%G1.0x0, %B2C3) : (memref<1x32x1x1xf32, strides: [32, 1, 1, 1]>, none) -> (memref<1x32x1x1xf32, strides: [1, 1, 1, 1]>, none)
CHECK:          %R9.0x30c0, %D6C3 = "dma.tensor"(%G1.0x1f000, %B2C3) : (memref<1x32x1x1xf32, strides: [32, 1, 1, 1]>, none) -> (memref<1x32x1x1xf32, strides: [1, 1, 1, 1]>, none)
CHECK:          %R15.0x2600, %D7C3 = "dma.tensor"(%G1.0x20000, %B2C3) : (memref<1x32x1x32xi16, strides: [1024, 32, 32, 1]>, none) -> (memref<1x32x1x32xi16, strides: [32, 32, 32, 1]>, none)
CHECK:          %R14.0x2200, %B4C3 = "conv.normal"(%R10, %R9.0x2700, %R9.0x3000, %C0.0, %D7C3) {kernel = [6, 6], stride = [2, 2], in_zero = [0, 0], ke_zero = [0, 0], opt_kernel_rotate = False, pad_mode = 0, pad = [0, 0, 2, 2], opt_res_add = False, do_relu = False, sym_range = False, do_rq = False, round_mode = 0}: (memref<1x3x54x640xf16, strides: [34560, 34560, 640, 1]>, memref<32x3x6x6xf16>, memref<1x32x1x1xui32, strides: [1, 1, 1, 1]>, f16, none) -> (memref<1x32x25x320xf16, strides: [8000, 8000, 320, 1]>, none)
CHECK:          %R13.0x3d00, %B5C3 = "tsbc.s_bc"(%R0.0x580, %D7C3) : (memref<1x64x1x7xf16, strides: [32, 32, 7, 1]>, none) -> (memref<1x64x1x7xf16, strides: [32, 32, 7, 1]>, none)
CHECK:          %R12.0x3e80, %B6C3 = "arith.sub"(%C0.0, %R14.0x2200, %D7C3) {round_mode = 0}: (f16, memref<1x32x25x320xf16, strides: [8000, 8000, 320, 1]>, none) -> (memref<1x32x25x320xf16, strides: [8000, 8000, 320, 1]>, none)
CHECK:          %R12.0x3e80, %B7C3 = "arith.max"(%R12.0x3e80, %C-45408.0, %D7C3) {round_mode = 0}: (memref<1x32x25x320xf16, strides: [8000, 8000, 320, 1]>, f16, none) -> (memref<1x32x25x320xf16, strides: [8000, 8000, 320, 1]>, none)
CHECK:          %R12.0x3e80, %B8C3 = "arith.min"(%R12.0x3e80, %C45408.0, %D7C3) {round_mode = 0}: (memref<1x32x25x320xf16, strides: [8000, 8000, 320, 1]>, f16, none) -> (memref<1x32x25x320xf16, strides: [8000, 8000, 320, 1]>, none)
CHECK:          %R12, %B9C3 = "arith.mul"(%R12.0x3e80, %C1.4423828125, %D7C3) {round_mode = 0}: (memref<1x32x25x320xf16, strides: [8000, 8000, 320, 1]>, f16, none) -> (memref<1x32x25x320xf16, strides: [8000, 8000, 320, 1]>, none)
CHECK:          %R10, %B10C3 = "arith.cast"(%R12, %D7C3) {round_mode = 3}: (memref<1x32x25x320xf16, strides: [8000, 8000, 320, 1]>, none) -> (memref<1x32x25x320xf16, strides: [8000, 8000, 320, 1]>, none)
CHECK:          %R12, %B11C3 = "arith.mul"(%R10, %C0.693359375, %D7C3) {round_mode = 0}: (memref<1x32x25x320xf16, strides: [8000, 8000, 320, 1]>, f16, none) -> (memref<1x32x25x320xf16, strides: [8000, 8000, 320, 1]>, none)
CHECK:          %R12, %B12C3 = "arith.sub"(%R12.0x3e80, %R12, %D7C3) {round_mode = 0}: (memref<1x32x25x320xf16, strides: [8000, 8000, 320, 1]>, memref<1x32x25x320xf16, strides: [8000, 8000, 320, 1]>, none) -> (memref<1x32x25x320xf16, strides: [8000, 8000, 320, 1]>, none)
CHECK:          %R12.0x3e80, %B13C3 = "arith.cast"(%R10, %D7C3) {round_mode = 1}: (memref<1x32x25x320xf16, strides: [8000, 8000, 320, 1]>, none) -> (memref<1x32x25x320xsi8, strides: [8000, 8000, 320, 1]>, none)
CHECK:          %R10, %B14C3 = "arith.min"(%R12.0x3e80, %C15, %D7C3) {round_mode = 0}: (memref<1x32x25x320xsi8, strides: [8000, 8000, 320, 1]>, si8, none) -> (memref<1x32x25x320xsi8, strides: [8000, 8000, 320, 1]>, none)
CHECK:          %R12.0x3e80, %B15C3 = "arith.max"(%R10, %C-15, %D7C3) {round_mode = 0}: (memref<1x32x25x320xsi8, strides: [8000, 8000, 320, 1]>, si8, none) -> (memref<1x32x25x320xsi8, strides: [8000, 8000, 320, 1]>, none)
CHECK:          %R10, %B16C3 = "arith.add_satu"(%R12.0x3e80, %C15, %C10, %D7C3) {round_mode = 1}: (memref<1x32x25x320xsi8, strides: [8000, 8000, 320, 1]>, si16, ui8, none) -> (memref<1x32x25x320xsi16, strides: [8000, 8000, 320, 1]>, none)
CHECK:          %R12.0x3e80, %B17C3 = "sfu.taylor_4x"(%R12, %R13.0x3d00, %D7C3) : (memref<1x32x25x320xf16, strides: [8000, 8000, 320, 1]>, memref<1x32x1x7xf16, strides: [0, 0, 7, 1]>, none) -> (memref<1x32x25x320xf16, strides: [8000, 8000, 320, 1]>, none)
CHECK:          %R10, %B18C3 = "arith.mul"(%R12.0x3e80, %R10, %D7C3) {round_mode = 0}: (memref<1x32x25x320xf16, strides: [8000, 8000, 320, 1]>, memref<1x32x25x320xf16, strides: [8000, 8000, 320, 1]>, none) -> (memref<1x32x25x320xf16, strides: [8000, 8000, 320, 1]>, none)
CHECK:          %R12, %B19C3 = "arith.add"(%R10, %C1.0, %D7C3) {round_mode = 0}: (memref<1x32x25x320xf16, strides: [8000, 8000, 320, 1]>, f16, none) -> (memref<1x32x25x320xf16, strides: [8000, 8000, 320, 1]>, none)
CHECK:          %R10, %B20C3 = "arith.div"(%C1.0, %R12, %D7C3) {iter = 3}: (f16, memref<1x32x25x320xf16, strides: [8000, 8000, 320, 1]>, none) -> (memref<1x32x25x320xf16, strides: [8000, 8000, 320, 1]>, none)
CHECK:          %R10, %B21C3 = "arith.mul"(%R10, %R14.0x2200, %D7C3) {round_mode = 0}: (memref<1x32x25x320xf16, strides: [8000, 8000, 320, 1]>, memref<1x32x25x320xf16, strides: [8000, 8000, 320, 1]>, none) -> (memref<1x32x25x320xf16, strides: [8000, 8000, 320, 1]>, none)
CHECK:          %R9.0x24c0, %D8C3 = "dma.tensor"(%G1.0x14000, %B4C3) : (memref<1x64x1x288xi16, strides: [18432, 288, 288, 1]>, none) -> (memref<1x64x1x288xi16, strides: [288, 288, 288, 1]>, none)
CHECK:          %R9.0x3040, %D9C3 = "dma.tensor"(%G1.0x13000, %B4C3) : (memref<1x64x1x1xf32, strides: [64, 1, 1, 1]>, none) -> (memref<1x64x1x1xf32, strides: [1, 1, 1, 1]>, none)
CHECK:          %R0, %D10C3 = "dma.tensor"(%G2.0xd9800, %B4C3) : (memref<1x3x54x640xf32, strides: [1228800, 409600, 640, 1]>, none) -> (memref<1x3x54x640xf32, strides: [34560, 34560, 640, 1]>, none)
CHECK:          %R12, %B22C3 = "conv.normal"(%R10, %R9.0x24c0, %R9.0x3040, %C0.0, %D10C3) {kernel = [3, 3], stride = [2, 2], in_zero = [0, 0], ke_zero = [0, 0], opt_kernel_rotate = False, pad_mode = 0, pad = [0, 0, 1, 1], opt_res_add = False, do_relu = False, sym_range = False, do_rq = False, round_mode = 0}: (memref<1x32x25x320xf16, strides: [8000, 8000, 320, 1]>, memref<64x32x3x3xf16>, memref<1x64x1x1xui32, strides: [1, 1, 1, 1]>, f16, none) -> (memref<1x64x12x160xf16, strides: [1920, 1920, 160, 1]>, none)
CHECK:          %R10.0x1e00, %B23C3 = "tsbc.s_bc"(%R0.0x580, %D10C3) : (memref<1x64x1x7xf16, strides: [32, 32, 7, 1]>, none) -> (memref<1x64x1x7xf16, strides: [32, 32, 7, 1]>, none)
CHECK:          %R10.0xf00, %B24C3 = "arith.sub"(%C0.0, %R12, %D10C3) {round_mode = 0}: (f16, memref<1x64x12x160xf16, strides: [1920, 1920, 160, 1]>, none) -> (memref<1x64x12x160xf16, strides: [1920, 1920, 160, 1]>, none)
CHECK:          %R10.0xf00, %B25C3 = "arith.max"(%R10.0xf00, %C-45408.0, %D10C3) {round_mode = 0}: (memref<1x64x12x160xf16, strides: [1920, 1920, 160, 1]>, f16, none) -> (memref<1x64x12x160xf16, strides: [1920, 1920, 160, 1]>, none)
CHECK:          %R10.0xf00, %B26C3 = "arith.min"(%R10.0xf00, %C45408.0, %D10C3) {round_mode = 0}: (memref<1x64x12x160xf16, strides: [1920, 1920, 160, 1]>, f16, none) -> (memref<1x64x12x160xf16, strides: [1920, 1920, 160, 1]>, none)
CHECK:          %R10, %B27C3 = "arith.mul"(%R10.0xf00, %C1.4423828125, %D10C3) {round_mode = 0}: (memref<1x64x12x160xf16, strides: [1920, 1920, 160, 1]>, f16, none) -> (memref<1x64x12x160xf16, strides: [1920, 1920, 160, 1]>, none)
CHECK:          %R9.0x400, %B28C3 = "arith.cast"(%R10, %D10C3) {round_mode = 3}: (memref<1x64x12x160xf16, strides: [1920, 1920, 160, 1]>, none) -> (memref<1x64x12x160xf16, strides: [1920, 1920, 160, 1]>, none)
CHECK:          %R10, %B29C3 = "arith.mul"(%R9.0x400, %C0.693359375, %D10C3) {round_mode = 0}: (memref<1x64x12x160xf16, strides: [1920, 1920, 160, 1]>, f16, none) -> (memref<1x64x12x160xf16, strides: [1920, 1920, 160, 1]>, none)
CHECK:          %R10, %B30C3 = "arith.sub"(%R10.0xf00, %R10, %D10C3) {round_mode = 0}: (memref<1x64x12x160xf16, strides: [1920, 1920, 160, 1]>, memref<1x64x12x160xf16, strides: [1920, 1920, 160, 1]>, none) -> (memref<1x64x12x160xf16, strides: [1920, 1920, 160, 1]>, none)
CHECK:          %R10.0xf00, %B31C3 = "arith.cast"(%R9.0x400, %D10C3) {round_mode = 1}: (memref<1x64x12x160xf16, strides: [1920, 1920, 160, 1]>, none) -> (memref<1x64x12x160xsi8, strides: [1920, 1920, 160, 1]>, none)
CHECK:          %R9.0x400, %B32C3 = "arith.min"(%R10.0xf00, %C15, %D10C3) {round_mode = 0}: (memref<1x64x12x160xsi8, strides: [1920, 1920, 160, 1]>, si8, none) -> (memref<1x64x12x160xsi8, strides: [1920, 1920, 160, 1]>, none)
CHECK:          %R10.0xf00, %B33C3 = "arith.max"(%R9.0x400, %C-15, %D10C3) {round_mode = 0}: (memref<1x64x12x160xsi8, strides: [1920, 1920, 160, 1]>, si8, none) -> (memref<1x64x12x160xsi8, strides: [1920, 1920, 160, 1]>, none)
CHECK:          %R9.0x400, %B34C3 = "arith.add_satu"(%R10.0xf00, %C15, %C10, %D10C3) {round_mode = 1}: (memref<1x64x12x160xsi8, strides: [1920, 1920, 160, 1]>, si16, ui8, none) -> (memref<1x64x12x160xsi16, strides: [1920, 1920, 160, 1]>, none)
CHECK:          %R10.0xf00, %B35C3 = "sfu.taylor_4x"(%R10, %R10.0x1e00, %D10C3) : (memref<1x64x12x160xf16, strides: [1920, 1920, 160, 1]>, memref<1x64x1x7xf16, strides: [0, 0, 7, 1]>, none) -> (memref<1x64x12x160xf16, strides: [1920, 1920, 160, 1]>, none)
CHECK:          %R9.0x400, %B36C3 = "arith.mul"(%R10.0xf00, %R9.0x400, %D10C3) {round_mode = 0}: (memref<1x64x12x160xf16, strides: [1920, 1920, 160, 1]>, memref<1x64x12x160xf16, strides: [1920, 1920, 160, 1]>, none) -> (memref<1x64x12x160xf16, strides: [1920, 1920, 160, 1]>, none)
CHECK:          %R10, %B37C3 = "arith.add"(%R9.0x400, %C1.0, %D10C3) {round_mode = 0}: (memref<1x64x12x160xf16, strides: [1920, 1920, 160, 1]>, f16, none) -> (memref<1x64x12x160xf16, strides: [1920, 1920, 160, 1]>, none)
CHECK:          %R9.0x400, %B38C3 = "arith.div"(%C1.0, %R10, %D10C3) {iter = 3}: (f16, memref<1x64x12x160xf16, strides: [1920, 1920, 160, 1]>, none) -> (memref<1x64x12x160xf16, strides: [1920, 1920, 160, 1]>, none)
CHECK:          %R9.0x400, %B39C3 = "arith.mul"(%R9.0x400, %R12, %D10C3) {round_mode = 0}: (memref<1x64x12x160xf16, strides: [1920, 1920, 160, 1]>, memref<1x64x12x160xf16, strides: [1920, 1920, 160, 1]>, none) -> (memref<1x64x12x160xf16, strides: [1920, 1920, 160, 1]>, none)
CHECK:          %R15.0x2580, %D11C3 = "dma.tensor"(%G1.0x1e000, %B22C3) : (memref<1x32x1x64xi16, strides: [2048, 64, 64, 1]>, none) -> (memref<1x32x1x64xi16, strides: [64, 64, 64, 1]>, none)
CHECK:          %R9.0x3080, %D12C3 = "dma.tensor"(%G1.0x1d000, %B22C3) : (memref<1x32x1x1xf32, strides: [32, 1, 1, 1]>, none) -> (memref<1x32x1x1xf32, strides: [1, 1, 1, 1]>, none)
CHECK:          %R10, %B40C3 = "conv.normal"(%R9.0x400, %R15.0x2580, %R9.0x3080, %C0.0, %D12C3) {kernel = [1, 1], stride = [1, 1], in_zero = [0, 0], ke_zero = [0, 0], opt_kernel_rotate = False, pad_mode = 0, pad = [0, 0, 0, 0], opt_res_add = False, do_relu = False, sym_range = False, do_rq = False, round_mode = 0}: (memref<1x64x12x160xf16, strides: [1920, 1920, 160, 1]>, memref<32x64x1x1xf16>, memref<1x32x1x1xui32, strides: [1, 1, 1, 1]>, f16, none) -> (memref<1x32x12x160xf16, strides: [1920, 1920, 160, 1]>, none)
CHECK:          %R12.0x1e00, %B41C3 = "tsbc.s_bc"(%R0.0x580, %D12C3) : (memref<1x64x1x7xf16, strides: [32, 32, 7, 1]>, none) -> (memref<1x64x1x7xf16, strides: [32, 32, 7, 1]>, none)
CHECK:          %R12.0xf00, %B42C3 = "arith.sub"(%C0.0, %R10, %D12C3) {round_mode = 0}: (f16, memref<1x32x12x160xf16, strides: [1920, 1920, 160, 1]>, none) -> (memref<1x32x12x160xf16, strides: [1920, 1920, 160, 1]>, none)
CHECK:          %R12.0xf00, %B43C3 = "arith.max"(%R12.0xf00, %C-45408.0, %D12C3) {round_mode = 0}: (memref<1x32x12x160xf16, strides: [1920, 1920, 160, 1]>, f16, none) -> (memref<1x32x12x160xf16, strides: [1920, 1920, 160, 1]>, none)
CHECK:          %R12.0xf00, %B44C3 = "arith.min"(%R12.0xf00, %C45408.0, %D12C3) {round_mode = 0}: (memref<1x32x12x160xf16, strides: [1920, 1920, 160, 1]>, f16, none) -> (memref<1x32x12x160xf16, strides: [1920, 1920, 160, 1]>, none)
CHECK:          %R12, %B45C3 = "arith.mul"(%R12.0xf00, %C1.4423828125, %D12C3) {round_mode = 0}: (memref<1x32x12x160xf16, strides: [1920, 1920, 160, 1]>, f16, none) -> (memref<1x32x12x160xf16, strides: [1920, 1920, 160, 1]>, none)
CHECK:          %R11, %B46C3 = "arith.cast"(%R12, %D12C3) {round_mode = 3}: (memref<1x32x12x160xf16, strides: [1920, 1920, 160, 1]>, none) -> (memref<1x32x12x160xf16, strides: [1920, 1920, 160, 1]>, none)
CHECK:          %R12, %B47C3 = "arith.mul"(%R11, %C0.693359375, %D12C3) {round_mode = 0}: (memref<1x32x12x160xf16, strides: [1920, 1920, 160, 1]>, f16, none) -> (memref<1x32x12x160xf16, strides: [1920, 1920, 160, 1]>, none)
CHECK:          %R12, %B48C3 = "arith.sub"(%R12.0xf00, %R12, %D12C3) {round_mode = 0}: (memref<1x32x12x160xf16, strides: [1920, 1920, 160, 1]>, memref<1x32x12x160xf16, strides: [1920, 1920, 160, 1]>, none) -> (memref<1x32x12x160xf16, strides: [1920, 1920, 160, 1]>, none)
CHECK:          %R12.0xf00, %B49C3 = "arith.cast"(%R11, %D12C3) {round_mode = 1}: (memref<1x32x12x160xf16, strides: [1920, 1920, 160, 1]>, none) -> (memref<1x32x12x160xsi8, strides: [1920, 1920, 160, 1]>, none)
CHECK:          %R11, %B50C3 = "arith.min"(%R12.0xf00, %C15, %D12C3) {round_mode = 0}: (memref<1x32x12x160xsi8, strides: [1920, 1920, 160, 1]>, si8, none) -> (memref<1x32x12x160xsi8, strides: [1920, 1920, 160, 1]>, none)
CHECK:          %R12.0xf00, %B51C3 = "arith.max"(%R11, %C-15, %D12C3) {round_mode = 0}: (memref<1x32x12x160xsi8, strides: [1920, 1920, 160, 1]>, si8, none) -> (memref<1x32x12x160xsi8, strides: [1920, 1920, 160, 1]>, none)
CHECK:          %R11, %B52C3 = "arith.add_satu"(%R12.0xf00, %C15, %C10, %D12C3) {round_mode = 1}: (memref<1x32x12x160xsi8, strides: [1920, 1920, 160, 1]>, si16, ui8, none) -> (memref<1x32x12x160xsi16, strides: [1920, 1920, 160, 1]>, none)
CHECK:          %R12.0xf00, %B53C3 = "sfu.taylor_4x"(%R12, %R12.0x1e00, %D12C3) : (memref<1x32x12x160xf16, strides: [1920, 1920, 160, 1]>, memref<1x32x1x7xf16, strides: [0, 0, 7, 1]>, none) -> (memref<1x32x12x160xf16, strides: [1920, 1920, 160, 1]>, none)
CHECK:          %R11, %B54C3 = "arith.mul"(%R12.0xf00, %R11, %D12C3) {round_mode = 0}: (memref<1x32x12x160xf16, strides: [1920, 1920, 160, 1]>, memref<1x32x12x160xf16, strides: [1920, 1920, 160, 1]>, none) -> (memref<1x32x12x160xf16, strides: [1920, 1920, 160, 1]>, none)
CHECK:          %R12, %B55C3 = "arith.add"(%R11, %C1.0, %D12C3) {round_mode = 0}: (memref<1x32x12x160xf16, strides: [1920, 1920, 160, 1]>, f16, none) -> (memref<1x32x12x160xf16, strides: [1920, 1920, 160, 1]>, none)
CHECK:          %R11, %B56C3 = "arith.div"(%C1.0, %R12, %D12C3) {iter = 3}: (f16, memref<1x32x12x160xf16, strides: [1920, 1920, 160, 1]>, none) -> (memref<1x32x12x160xf16, strides: [1920, 1920, 160, 1]>, none)
CHECK:          %R11, %B57C3 = "arith.mul"(%R11, %R10, %D12C3) {round_mode = 0}: (memref<1x32x12x160xf16, strides: [1920, 1920, 160, 1]>, memref<1x32x12x160xf16, strides: [1920, 1920, 160, 1]>, none) -> (memref<1x32x12x160xf16, strides: [1920, 1920, 160, 1]>, none)
CHECK:          %R10.0x1040, %B58C3 = "conv.normal"(%R11, %R15.0x2600, %R9.0x30c0, %C0.0, %D12C3) {kernel = [1, 1], stride = [1, 1], in_zero = [0, 0], ke_zero = [0, 0], opt_kernel_rotate = False, pad_mode = 0, pad = [0, 0, 0, 0], opt_res_add = False, do_relu = False, sym_range = False, do_rq = False, round_mode = 0}: (memref<1x32x12x160xf16, strides: [1920, 1920, 160, 1]>, memref<32x32x1x1xf16>, memref<1x32x1x1xui32, strides: [1, 1, 1, 1]>, f16, none) -> (memref<1x32x12x160xf16, strides: [1920, 1920, 160, 1]>, none)
CHECK:          %L30.0x6980005f00, %D13C3 = "dma.tensor"(%R9.0x400, %B40C3) : (memref<1x64x12x160xi16, strides: [1920, 1920, 160, 1]>, none) -> (memref<1x64x12x160xi16, strides: [1638400, 25600, 160, 1]>, none)
CHECK:          %R9.0x2200, %B59C3 = "tsbc.s_bc"(%R0.0x580, %D13C3) : (memref<1x64x1x7xf16, strides: [32, 32, 7, 1]>, none) -> (memref<1x64x1x7xf16, strides: [32, 32, 7, 1]>, none)
CHECK:          %R9.0x1300, %B60C3 = "arith.sub"(%C0.0, %R10.0x1040, %D13C3) {round_mode = 0}: (f16, memref<1x32x12x160xf16, strides: [1920, 1920, 160, 1]>, none) -> (memref<1x32x12x160xf16, strides: [1920, 1920, 160, 1]>, none)
CHECK:          %R9.0x1300, %B61C3 = "arith.max"(%R9.0x1300, %C-45408.0, %D13C3) {round_mode = 0}: (memref<1x32x12x160xf16, strides: [1920, 1920, 160, 1]>, f16, none) -> (memref<1x32x12x160xf16, strides: [1920, 1920, 160, 1]>, none)
CHECK:          %R9.0x1300, %B62C3 = "arith.min"(%R9.0x1300, %C45408.0, %D13C3) {round_mode = 0}: (memref<1x32x12x160xf16, strides: [1920, 1920, 160, 1]>, f16, none) -> (memref<1x32x12x160xf16, strides: [1920, 1920, 160, 1]>, none)
CHECK:          %R9.0x400, %B63C3 = "arith.mul"(%R9.0x1300, %C1.4423828125, %D13C3) {round_mode = 0}: (memref<1x32x12x160xf16, strides: [1920, 1920, 160, 1]>, f16, none) -> (memref<1x32x12x160xf16, strides: [1920, 1920, 160, 1]>, none)
CHECK:          %R15, %B64C3 = "arith.cast"(%R9.0x400, %D13C3) {round_mode = 3}: (memref<1x32x12x160xf16, strides: [1920, 1920, 160, 1]>, none) -> (memref<1x32x12x160xf16, strides: [1920, 1920, 160, 1]>, none)
CHECK:          %R9.0x400, %B65C3 = "arith.mul"(%R15, %C0.693359375, %D13C3) {round_mode = 0}: (memref<1x32x12x160xf16, strides: [1920, 1920, 160, 1]>, f16, none) -> (memref<1x32x12x160xf16, strides: [1920, 1920, 160, 1]>, none)
CHECK:          %R9.0x400, %B66C3 = "arith.sub"(%R9.0x1300, %R9.0x400, %D13C3) {round_mode = 0}: (memref<1x32x12x160xf16, strides: [1920, 1920, 160, 1]>, memref<1x32x12x160xf16, strides: [1920, 1920, 160, 1]>, none) -> (memref<1x32x12x160xf16, strides: [1920, 1920, 160, 1]>, none)
CHECK:          %R9.0x1300, %B67C3 = "arith.cast"(%R15, %D13C3) {round_mode = 1}: (memref<1x32x12x160xf16, strides: [1920, 1920, 160, 1]>, none) -> (memref<1x32x12x160xsi8, strides: [1920, 1920, 160, 1]>, none)
CHECK:          %R15, %B68C3 = "arith.min"(%R9.0x1300, %C15, %D13C3) {round_mode = 0}: (memref<1x32x12x160xsi8, strides: [1920, 1920, 160, 1]>, si8, none) -> (memref<1x32x12x160xsi8, strides: [1920, 1920, 160, 1]>, none)
CHECK:          %R9.0x1300, %B69C3 = "arith.max"(%R15, %C-15, %D13C3) {round_mode = 0}: (memref<1x32x12x160xsi8, strides: [1920, 1920, 160, 1]>, si8, none) -> (memref<1x32x12x160xsi8, strides: [1920, 1920, 160, 1]>, none)
CHECK:          %R15, %B70C3 = "arith.add_satu"(%R9.0x1300, %C15, %C10, %D13C3) {round_mode = 1}: (memref<1x32x12x160xsi8, strides: [1920, 1920, 160, 1]>, si16, ui8, none) -> (memref<1x32x12x160xsi16, strides: [1920, 1920, 160, 1]>, none)
CHECK:          %R9.0x1300, %B71C3 = "sfu.taylor_4x"(%R9.0x400, %R9.0x2200, %D13C3) : (memref<1x32x12x160xf16, strides: [1920, 1920, 160, 1]>, memref<1x32x1x7xf16, strides: [0, 0, 7, 1]>, none) -> (memref<1x32x12x160xf16, strides: [1920, 1920, 160, 1]>, none)
CHECK:          %R15, %B72C3 = "arith.mul"(%R9.0x1300, %R15, %D13C3) {round_mode = 0}: (memref<1x32x12x160xf16, strides: [1920, 1920, 160, 1]>, memref<1x32x12x160xf16, strides: [1920, 1920, 160, 1]>, none) -> (memref<1x32x12x160xf16, strides: [1920, 1920, 160, 1]>, none)
CHECK:          %R9.0x400, %B73C3 = "arith.add"(%R15, %C1.0, %D13C3) {round_mode = 0}: (memref<1x32x12x160xf16, strides: [1920, 1920, 160, 1]>, f16, none) -> (memref<1x32x12x160xf16, strides: [1920, 1920, 160, 1]>, none)
CHECK:          %R15, %B74C3 = "arith.div"(%C1.0, %R9.0x400, %D13C3) {iter = 3}: (f16, memref<1x32x12x160xf16, strides: [1920, 1920, 160, 1]>, none) -> (memref<1x32x12x160xf16, strides: [1920, 1920, 160, 1]>, none)
CHECK:          %R15, %B75C3 = "arith.mul"(%R15, %R10.0x1040, %D13C3) {round_mode = 0}: (memref<1x32x12x160xf16, strides: [1920, 1920, 160, 1]>, memref<1x32x12x160xf16, strides: [1920, 1920, 160, 1]>, none) -> (memref<1x32x12x160xf16, strides: [1920, 1920, 160, 1]>, none)
CHECK:          %L30.0x6980645f00, %D14C3 = "dma.tensor"(%R11, %B58C3) : (memref<1x32x12x160xi16, strides: [1920, 1920, 160, 1]>, none) -> (memref<1x32x12x160xi16, strides: [819200, 25600, 160, 1]>, none)
CHECK:          %R10, %B76C3 = "arith.cast"(%R0, %D14C3) {round_mode = 1}: (memref<1x3x54x640xf32, strides: [34560, 34560, 640, 1]>, none) -> (memref<1x3x54x640xf16, strides: [34560, 34560, 640, 1]>, none)
CHECK:          %L30.0x69804b5f00, %D15C3 = "dma.tensor"(%R15, %B75C3) : (memref<1x32x12x160xi16, strides: [1920, 1920, 160, 1]>, none) -> (memref<1x32x12x160xi16, strides: [819200, 25600, 160, 1]>, none)
CHECK:          %R14.0x2200, %B77C3 = "conv.normal"(%R10, %R9.0x2700, %R9.0x3000, %C0.0, %D15C3) {kernel = [6, 6], stride = [2, 2], in_zero = [0, 0], ke_zero = [0, 0], opt_kernel_rotate = False, pad_mode = 0, pad = [0, 0, 2, 2], opt_res_add = False, do_relu = False, sym_range = False, do_rq = False, round_mode = 0}: (memref<1x3x54x640xf16, strides: [34560, 34560, 640, 1]>, memref<32x3x6x6xf16>, memref<1x32x1x1xui32, strides: [1, 1, 1, 1]>, f16, none) -> (memref<1x32x25x320xf16, strides: [8000, 8000, 320, 1]>, none)
CHECK:          %R13.0x3d00, %B78C3 = "tsbc.s_bc"(%R0.0x580, %D15C3) : (memref<1x64x1x7xf16, strides: [32, 32, 7, 1]>, none) -> (memref<1x64x1x7xf16, strides: [32, 32, 7, 1]>, none)
CHECK:          %R12.0x3e80, %B79C3 = "arith.sub"(%C0.0, %R14.0x2200, %D15C3) {round_mode = 0}: (f16, memref<1x32x25x320xf16, strides: [8000, 8000, 320, 1]>, none) -> (memref<1x32x25x320xf16, strides: [8000, 8000, 320, 1]>, none)
CHECK:          %R12.0x3e80, %B80C3 = "arith.max"(%R12.0x3e80, %C-45408.0, %D15C3) {round_mode = 0}: (memref<1x32x25x320xf16, strides: [8000, 8000, 320, 1]>, f16, none) -> (memref<1x32x25x320xf16, strides: [8000, 8000, 320, 1]>, none)
CHECK:          %R12.0x3e80, %B81C3 = "arith.min"(%R12.0x3e80, %C45408.0, %D15C3) {round_mode = 0}: (memref<1x32x25x320xf16, strides: [8000, 8000, 320, 1]>, f16, none) -> (memref<1x32x25x320xf16, strides: [8000, 8000, 320, 1]>, none)
CHECK:          %R12, %B82C3 = "arith.mul"(%R12.0x3e80, %C1.4423828125, %D15C3) {round_mode = 0}: (memref<1x32x25x320xf16, strides: [8000, 8000, 320, 1]>, f16, none) -> (memref<1x32x25x320xf16, strides: [8000, 8000, 320, 1]>, none)
CHECK:          %R10, %B83C3 = "arith.cast"(%R12, %D15C3) {round_mode = 3}: (memref<1x32x25x320xf16, strides: [8000, 8000, 320, 1]>, none) -> (memref<1x32x25x320xf16, strides: [8000, 8000, 320, 1]>, none)
CHECK:          %R12, %B84C3 = "arith.mul"(%R10, %C0.693359375, %D15C3) {round_mode = 0}: (memref<1x32x25x320xf16, strides: [8000, 8000, 320, 1]>, f16, none) -> (memref<1x32x25x320xf16, strides: [8000, 8000, 320, 1]>, none)
CHECK:          %R12, %B85C3 = "arith.sub"(%R12.0x3e80, %R12, %D15C3) {round_mode = 0}: (memref<1x32x25x320xf16, strides: [8000, 8000, 320, 1]>, memref<1x32x25x320xf16, strides: [8000, 8000, 320, 1]>, none) -> (memref<1x32x25x320xf16, strides: [8000, 8000, 320, 1]>, none)
CHECK:          %R12.0x3e80, %B86C3 = "arith.cast"(%R10, %D15C3) {round_mode = 1}: (memref<1x32x25x320xf16, strides: [8000, 8000, 320, 1]>, none) -> (memref<1x32x25x320xsi8, strides: [8000, 8000, 320, 1]>, none)
CHECK:          %R10, %B87C3 = "arith.min"(%R12.0x3e80, %C15, %D15C3) {round_mode = 0}: (memref<1x32x25x320xsi8, strides: [8000, 8000, 320, 1]>, si8, none) -> (memref<1x32x25x320xsi8, strides: [8000, 8000, 320, 1]>, none)
CHECK:          %R12.0x3e80, %B88C3 = "arith.max"(%R10, %C-15, %D15C3) {round_mode = 0}: (memref<1x32x25x320xsi8, strides: [8000, 8000, 320, 1]>, si8, none) -> (memref<1x32x25x320xsi8, strides: [8000, 8000, 320, 1]>, none)
CHECK:          %R10, %B89C3 = "arith.add_satu"(%R12.0x3e80, %C15, %C10, %D15C3) {round_mode = 1}: (memref<1x32x25x320xsi8, strides: [8000, 8000, 320, 1]>, si16, ui8, none) -> (memref<1x32x25x320xsi16, strides: [8000, 8000, 320, 1]>, none)
CHECK:          %R12.0x3e80, %B90C3 = "sfu.taylor_4x"(%R12, %R13.0x3d00, %D15C3) : (memref<1x32x25x320xf16, strides: [8000, 8000, 320, 1]>, memref<1x32x1x7xf16, strides: [0, 0, 7, 1]>, none) -> (memref<1x32x25x320xf16, strides: [8000, 8000, 320, 1]>, none)
CHECK:          %R10, %B91C3 = "arith.mul"(%R12.0x3e80, %R10, %D15C3) {round_mode = 0}: (memref<1x32x25x320xf16, strides: [8000, 8000, 320, 1]>, memref<1x32x25x320xf16, strides: [8000, 8000, 320, 1]>, none) -> (memref<1x32x25x320xf16, strides: [8000, 8000, 320, 1]>, none)
CHECK:          %R12, %B92C3 = "arith.add"(%R10, %C1.0, %D15C3) {round_mode = 0}: (memref<1x32x25x320xf16, strides: [8000, 8000, 320, 1]>, f16, none) -> (memref<1x32x25x320xf16, strides: [8000, 8000, 320, 1]>, none)
CHECK:          %R10, %B93C3 = "arith.div"(%C1.0, %R12, %D15C3) {iter = 3}: (f16, memref<1x32x25x320xf16, strides: [8000, 8000, 320, 1]>, none) -> (memref<1x32x25x320xf16, strides: [8000, 8000, 320, 1]>, none)
CHECK:          %R10, %B94C3 = "arith.mul"(%R10, %R14.0x2200, %D15C3) {round_mode = 0}: (memref<1x32x25x320xf16, strides: [8000, 8000, 320, 1]>, memref<1x32x25x320xf16, strides: [8000, 8000, 320, 1]>, none) -> (memref<1x32x25x320xf16, strides: [8000, 8000, 320, 1]>, none)
CHECK:          %R12, %B95C3 = "conv.normal"(%R10, %R9.0x24c0, %R9.0x3040, %C0.0, %D15C3) {kernel = [3, 3], stride = [2, 2], in_zero = [0, 0], ke_zero = [0, 0], opt_kernel_rotate = False, pad_mode = 0, pad = [0, 0, 1, 1], opt_res_add = False, do_relu = False, sym_range = False, do_rq = False, round_mode = 0}: (memref<1x32x25x320xf16, strides: [8000, 8000, 320, 1]>, memref<64x32x3x3xf16>, memref<1x64x1x1xui32, strides: [1, 1, 1, 1]>, f16, none) -> (memref<1x64x12x160xf16, strides: [1920, 1920, 160, 1]>, none)
CHECK:          %R10.0x1e00, %B96C3 = "tsbc.s_bc"(%R0.0x580, %D15C3) : (memref<1x64x1x7xf16, strides: [32, 32, 7, 1]>, none) -> (memref<1x64x1x7xf16, strides: [32, 32, 7, 1]>, none)
CHECK:          %R10.0xf00, %B97C3 = "arith.sub"(%C0.0, %R12, %D15C3) {round_mode = 0}: (f16, memref<1x64x12x160xf16, strides: [1920, 1920, 160, 1]>, none) -> (memref<1x64x12x160xf16, strides: [1920, 1920, 160, 1]>, none)
CHECK:          %R10.0xf00, %B98C3 = "arith.max"(%R10.0xf00, %C-45408.0, %D15C3) {round_mode = 0}: (memref<1x64x12x160xf16, strides: [1920, 1920, 160, 1]>, f16, none) -> (memref<1x64x12x160xf16, strides: [1920, 1920, 160, 1]>, none)
CHECK:          %R10.0xf00, %B99C3 = "arith.min"(%R10.0xf00, %C45408.0, %D15C3) {round_mode = 0}: (memref<1x64x12x160xf16, strides: [1920, 1920, 160, 1]>, f16, none) -> (memref<1x64x12x160xf16, strides: [1920, 1920, 160, 1]>, none)
CHECK:          %R10, %B100C3 = "arith.mul"(%R10.0xf00, %C1.4423828125, %D15C3) {round_mode = 0}: (memref<1x64x12x160xf16, strides: [1920, 1920, 160, 1]>, f16, none) -> (memref<1x64x12x160xf16, strides: [1920, 1920, 160, 1]>, none)
CHECK:          %R9.0x400, %B101C3 = "arith.cast"(%R10, %D15C3) {round_mode = 3}: (memref<1x64x12x160xf16, strides: [1920, 1920, 160, 1]>, none) -> (memref<1x64x12x160xf16, strides: [1920, 1920, 160, 1]>, none)
CHECK:          %R10, %B102C3 = "arith.mul"(%R9.0x400, %C0.693359375, %D15C3) {round_mode = 0}: (memref<1x64x12x160xf16, strides: [1920, 1920, 160, 1]>, f16, none) -> (memref<1x64x12x160xf16, strides: [1920, 1920, 160, 1]>, none)
…
CHECK:          %R0, %D320C2 = "dma.tensor"(%G1.0xdc0000, %B1251C2) : (memref<1x64x8x32xf16, strides: [65280, 256, 32, 1]>, none) -> (memref<1x64x8x32xf16, strides: [256, 256, 32, 1]>, none)
CHECK:          %R0.0x200, %D321C2 = "dma.tensor"(%G1.0xdaf200, %B1251C2) : (memref<1x64x1x1xf32, strides: [64, 1, 1, 1]>, none) -> (memref<1x64x1x1xf32, strides: [1, 1, 1, 1]>, none)
CHECK:          %R1, %D322C2 = "dma.tensor"(%L30.0x6980957000, %B1251C2) : (memref<1x256x40x40xf16, strides: [409600, 1600, 40, 1]>, none) -> (memref<1x256x40x40xf16, strides: [6400, 1600, 40, 1]>, none)
CHECK:          %R3, %B1252C2 = "conv.normal"(%R1, %R0, %R0.0x200, %C0.0, %D322C2) {kernel = [1, 1], stride = [1, 1], in_zero = [0, 0], ke_zero = [0, 0], opt_kernel_rotate = False, pad_mode = 0, pad = [0, 0, 0, 0], opt_res_add = False, do_relu = False, sym_range = False, do_rq = False, round_mode = 0}: (memref<1x256x40x40xf16, strides: [6400, 1600, 40, 1]>, memref<64x256x1x1xf16>, memref<1x64x1x1xui32, strides: [1, 1, 1, 1]>, f16, none) -> (memref<1x64x40x40xf16, strides: [1600, 1600, 40, 1]>, none)
CHECK:          %L30.0x69801f4000, %D323C2 = "dma.tensor"(%R3, %B1252C2) : (memref<1x64x40x40xf16, strides: [1600, 1600, 40, 1]>, none) -> (memref<1x64x40x40xf16, strides: [408000, 1600, 40, 1]>, none)
CHECK:          %B1253C2, %msg49 = "system.send_msg"(%D323C2) {msg_id = 49, cnt = 32, status = Status.PRODUCING}
CHECK:          %D324C2, %msg49 = "dma.sys.sys_send"(%B1253C2) {msg_id = 49, cnt = 32, status = Status.PRODUCING}
CHECK:        }
CHECK:        %D324C3, %msg49 = "@core_3"(%D318C3, %msg48) {
CHECK:          %B1251C3 = "system.wait_msg"(%D318C3, %msg48) {msg_id = 48, cnt = 32, status = Status.RECIEVING}
CHECK:          %D319C3 = "dma.sys.sys_wait"(%B1251C3, %msg48) {msg_id = 48, cnt = 32, status = Status.CONSUMED}
CHECK:          %R0, %D320C3 = "dma.tensor"(%G1.0xdc8000, %B1251C3) : (memref<1x63x8x32xf16, strides: [65280, 256, 32, 1]>, none) -> (memref<1x63x8x32xf16, strides: [256, 256, 32, 1]>, none)
CHECK:          %R0.0x200, %D321C3 = "dma.tensor"(%G1.0xdaf300, %B1251C3) : (memref<1x63x1x1xf32, strides: [63, 1, 1, 1]>, none) -> (memref<1x63x1x1xf32, strides: [1, 1, 1, 1]>, none)
CHECK:          %R1, %D322C3 = "dma.tensor"(%L30.0x6980957000, %B1251C3) : (memref<1x256x40x40xf16, strides: [409600, 1600, 40, 1]>, none) -> (memref<1x256x40x40xf16, strides: [6400, 1600, 40, 1]>, none)
CHECK:          %R3, %B1252C3 = "conv.normal"(%R1, %R0, %R0.0x200, %C0.0, %D322C3) {kernel = [1, 1], stride = [1, 1], in_zero = [0, 0], ke_zero = [0, 0], opt_kernel_rotate = False, pad_mode = 0, pad = [0, 0, 0, 0], opt_res_add = False, do_relu = False, sym_range = False, do_rq = False, round_mode = 0}: (memref<1x256x40x40xf16, strides: [6400, 1600, 40, 1]>, memref<63x256x1x1xf16>, memref<1x63x1x1xui32, strides: [1, 1, 1, 1]>, f16, none) -> (memref<1x63x40x40xf16, strides: [1600, 1600, 40, 1]>, none)
CHECK:          %L30.0x6980226000, %D323C3 = "dma.tensor"(%R3, %B1252C3) : (memref<1x63x40x40xf16, strides: [1600, 1600, 40, 1]>, none) -> (memref<1x63x40x40xf16, strides: [408000, 1600, 40, 1]>, none)
CHECK:          %B1253C3, %msg49 = "system.send_msg"(%D323C3) {msg_id = 49, cnt = 32, status = Status.PRODUCING}
CHECK:          %D324C3, %msg49 = "dma.sys.sys_send"(%B1253C3) {msg_id = 49, cnt = 32, status = Status.PRODUCING}
CHECK:        }
CHECK:        %D312C4, %msg49 = "@core_4"(%D310C4, %msg48) {
CHECK:          %B1249C4 = "system.wait_msg"(%D310C4, %msg48) {msg_id = 48, cnt = 32, status = Status.RECIEVING}
CHECK:          %D311C4 = "dma.sys.sys_wait"(%B1249C4, %msg48) {msg_id = 48, cnt = 32, status = Status.CONSUMED}
CHECK:          %B1250C4, %msg49 = "system.send_msg"(%D311C4) {msg_id = 49, cnt = 32, status = Status.PRODUCING}
CHECK:          %D312C4, %msg49 = "dma.sys.sys_send"(%B1250C4) {msg_id = 49, cnt = 32, status = Status.PRODUCING}
CHECK:        }
CHECK:        %D312C5, %msg49 = "@core_5"(%D310C5, %msg48) {
CHECK:          %B1249C5 = "system.wait_msg"(%D310C5, %msg48) {msg_id = 48, cnt = 32, status = Status.RECIEVING}
CHECK:          %D311C5 = "dma.sys.sys_wait"(%B1249C5, %msg48) {msg_id = 48, cnt = 32, status = Status.CONSUMED}
CHECK:          %B1250C5, %msg49 = "system.send_msg"(%D311C5) {msg_id = 49, cnt = 32, status = Status.PRODUCING}
CHECK:          %D312C5, %msg49 = "dma.sys.sys_send"(%B1250C5) {msg_id = 49, cnt = 32, status = Status.PRODUCING}
CHECK:        }
CHECK:        %D302C6, %msg49 = "@core_6"(%D300C6, %msg48) {
CHECK:          %B1173C6 = "system.wait_msg"(%D300C6, %msg48) {msg_id = 48, cnt = 32, status = Status.RECIEVING}
CHECK:          %D301C6 = "dma.sys.sys_wait"(%B1173C6, %msg48) {msg_id = 48, cnt = 32, status = Status.CONSUMED}
CHECK:          %B1174C6, %msg49 = "system.send_msg"(%D301C6) {msg_id = 49, cnt = 32, status = Status.PRODUCING}
CHECK:          %D302C6, %msg49 = "dma.sys.sys_send"(%B1174C6) {msg_id = 49, cnt = 32, status = Status.PRODUCING}
CHECK:        }
CHECK:        %D290C7, %msg49 = "@core_7"(%D288C7, %msg48) {
CHECK:          %B1100C7 = "system.wait_msg"(%D288C7, %msg48) {msg_id = 48, cnt = 32, status = Status.RECIEVING}
CHECK:          %D289C7 = "dma.sys.sys_wait"(%B1100C7, %msg48) {msg_id = 48, cnt = 32, status = Status.CONSUMED}
CHECK:          %B1101C7, %msg49 = "system.send_msg"(%D289C7) {msg_id = 49, cnt = 32, status = Status.PRODUCING}
CHECK:          %D290C7, %msg49 = "dma.sys.sys_send"(%B1101C7) {msg_id = 49, cnt = 32, status = Status.PRODUCING}
CHECK:        }
CHECK:        %D332C0, %msg48 = "@core_0"(%D328C0, %msg49) {
CHECK:          %B1258C0 = "system.wait_msg"(%D328C0, %msg49) {msg_id = 49, cnt = 32, status = Status.RECIEVING}
CHECK:          %D329C0 = "dma.sys.sys_wait"(%B1258C0, %msg49) {msg_id = 49, cnt = 32, status = Status.CONSUMED}
CHECK:          %R0, %D330C0 = "dma.tensor"(%L30.0x6980190000, %B1258C0) : (memref<255x64x25x1xf16, strides: [1600, 25, 1, 1]>, none) -> (memref<255x64x25x1xf16, strides: [25, 25, 1, 1]>, none)
CHECK:          %R8, %B1259C0 = "arith.copy"(%R0, %D330C0) {round_mode = 0}: (memref<3x64x25x85xf16, strides: [2125, 25, 1, 25]>, none) -> (memref<3x64x25x85xf16, strides: [2125, 2125, 85, 1]>, none)
CHECK:          %L30.0x6980000000, %D331C0 = "dma.tensor"(%R8, %B1259C0) : (memref<3x64x25x85xf16, strides: [2125, 2125, 85, 1]>, none) -> (memref<3x64x25x85xf16, strides: [136000, 2125, 85, 1]>, none)
CHECK:          %B1260C0, %msg48 = "system.send_msg"(%D331C0) {msg_id = 48, cnt = 32, status = Status.PRODUCING}
CHECK:          %D332C0, %msg48 = "dma.sys.sys_send"(%B1260C0) {msg_id = 48, cnt = 32, status = Status.PRODUCING}
CHECK:        }
CHECK:        %D326C1, %msg48 = "@core_1"(%D324C1, %msg49) {
CHECK:          %B1254C1 = "system.wait_msg"(%D324C1, %msg49) {msg_id = 49, cnt = 32, status = Status.RECIEVING}
CHECK:          %D325C1 = "dma.sys.sys_wait"(%B1254C1, %msg49) {msg_id = 49, cnt = 32, status = Status.CONSUMED}
CHECK:          %B1255C1, %msg48 = "system.send_msg"(%D325C1) {msg_id = 48, cnt = 32, status = Status.PRODUCING}
CHECK:          %D326C1, %msg48 = "dma.sys.sys_send"(%B1255C1) {msg_id = 48, cnt = 32, status = Status.PRODUCING}
CHECK:        }
CHECK:        %D326C2, %msg48 = "@core_2"(%D324C2, %msg49) {
CHECK:          %B1254C2 = "system.wait_msg"(%D324C2, %msg49) {msg_id = 49, cnt = 32, status = Status.RECIEVING}
CHECK:          %D325C2 = "dma.sys.sys_wait"(%B1254C2, %msg49) {msg_id = 49, cnt = 32, status = Status.CONSUMED}
CHECK:          %B1255C2, %msg48 = "system.send_msg"(%D325C2) {msg_id = 48, cnt = 32, status = Status.PRODUCING}
CHECK:          %D326C2, %msg48 = "dma.sys.sys_send"(%B1255C2) {msg_id = 48, cnt = 32, status = Status.PRODUCING}
CHECK:        }
CHECK:        %D326C3, %msg48 = "@core_3"(%D324C3, %msg49) {
CHECK:          %B1254C3 = "system.wait_msg"(%D324C3, %msg49) {msg_id = 49, cnt = 32, status = Status.RECIEVING}
CHECK:          %D325C3 = "dma.sys.sys_wait"(%B1254C3, %msg49) {msg_id = 49, cnt = 32, status = Status.CONSUMED}
CHECK:          %B1255C3, %msg48 = "system.send_msg"(%D325C3) {msg_id = 48, cnt = 32, status = Status.PRODUCING}
CHECK:          %D326C3, %msg48 = "dma.sys.sys_send"(%B1255C3) {msg_id = 48, cnt = 32, status = Status.PRODUCING}
CHECK:        }
CHECK:        %D314C4, %msg48 = "@core_4"(%D312C4, %msg49) {
CHECK:          %B1251C4 = "system.wait_msg"(%D312C4, %msg49) {msg_id = 49, cnt = 32, status = Status.RECIEVING}
CHECK:          %D313C4 = "dma.sys.sys_wait"(%B1251C4, %msg49) {msg_id = 49, cnt = 32, status = Status.CONSUMED}
CHECK:          %B1252C4, %msg48 = "system.send_msg"(%D313C4) {msg_id = 48, cnt = 32, status = Status.PRODUCING}
CHECK:          %D314C4, %msg48 = "dma.sys.sys_send"(%B1252C4) {msg_id = 48, cnt = 32, status = Status.PRODUCING}
CHECK:        }
CHECK:        %D314C5, %msg48 = "@core_5"(%D312C5, %msg49) {
CHECK:          %B1251C5 = "system.wait_msg"(%D312C5, %msg49) {msg_id = 49, cnt = 32, status = Status.RECIEVING}
CHECK:          %D313C5 = "dma.sys.sys_wait"(%B1251C5, %msg49) {msg_id = 49, cnt = 32, status = Status.CONSUMED}
CHECK:          %B1252C5, %msg48 = "system.send_msg"(%D313C5) {msg_id = 48, cnt = 32, status = Status.PRODUCING}
CHECK:          %D314C5, %msg48 = "dma.sys.sys_send"(%B1252C5) {msg_id = 48, cnt = 32, status = Status.PRODUCING}
CHECK:        }
CHECK:        %D304C6, %msg48 = "@core_6"(%D302C6, %msg49) {
CHECK:          %B1175C6 = "system.wait_msg"(%D302C6, %msg49) {msg_id = 49, cnt = 32, status = Status.RECIEVING}
CHECK:          %D303C6 = "dma.sys.sys_wait"(%B1175C6, %msg49) {msg_id = 49, cnt = 32, status = Status.CONSUMED}
CHECK:          %B1176C6, %msg48 = "system.send_msg"(%D303C6) {msg_id = 48, cnt = 32, status = Status.PRODUCING}
CHECK:          %D304C6, %msg48 = "dma.sys.sys_send"(%B1176C6) {msg_id = 48, cnt = 32, status = Status.PRODUCING}
CHECK:        }
CHECK:        %D292C7, %msg48 = "@core_7"(%D290C7, %msg49) {
CHECK:          %B1102C7 = "system.wait_msg"(%D290C7, %msg49) {msg_id = 49, cnt = 32, status = Status.RECIEVING}
CHECK:          %D291C7 = "dma.sys.sys_wait"(%B1102C7, %msg49) {msg_id = 49, cnt = 32, status = Status.CONSUMED}
CHECK:          %B1103C7, %msg48 = "system.send_msg"(%D291C7) {msg_id = 48, cnt = 32, status = Status.PRODUCING}
CHECK:          %D292C7, %msg48 = "dma.sys.sys_send"(%B1103C7) {msg_id = 48, cnt = 32, status = Status.PRODUCING}
CHECK:        }
CHECK:        %D338C0, %msg49 = "@core_0"(%D332C0, %msg48) {
CHECK:          %B1261C0 = "system.wait_msg"(%D332C0, %msg48) {msg_id = 48, cnt = 32, status = Status.RECIEVING}
CHECK:          %D333C0 = "dma.sys.sys_wait"(%B1261C0, %msg48) {msg_id = 48, cnt = 32, status = Status.CONSUMED}
CHECK:          %R0, %D334C0 = "dma.matrix"(%L30.0x6980000000, %B1261C0) : (memref<1x1x2x32768xf16, strides: [0, 0, 32768, 1]>, none) -> (memref<2x32768xf16, strides: [512, 512, 0, 1]>, none)
CHECK:          %R8, %B1262C0 = "arith.cast"(%R0, %D334C0) {round_mode = 1}: (memref<2x64x1x512xf16, strides: [512, 512, 512, 1]>, none) -> (memref<2x64x1x512xf32, strides: [512, 512, 512, 1]>, none)
CHECK:          %R4, %D335C0 = "dma.matrix"(%L30.0x6980020000, %B1261C0) : (memref<1x1x1x2464xf16, strides: [0, 0, 2464, 1]>, none) -> (memref<1x2464xf16, strides: [512, 512, 0, 1]>, none)
CHECK:          %R12, %B1263C0 = "arith.cast"(%R4, %D335C0) {round_mode = 1}: (memref<1x5x1x512xf16, strides: [512, 512, 512, 1]>, none) -> (memref<1x5x1x512xf32, strides: [512, 512, 512, 1]>, none)
CHECK:          %G2.0xaea000, %D336C0 = "dma.matrix"(%R8, %B1262C0) : (memref<1x1x1x512xf32, strides: [0, 0, 0, 1]>, none) -> (memref<1x512xf32, strides: [0, 0, 0, 1]>, none)
CHECK:          %G2.0xb2a000, %D337C0 = "dma.matrix"(%R12, %B1263C0) : (memref<1x1x1x512xf32, strides: [0, 0, 0, 1]>, none) -> (memref<1x512xf32, strides: [0, 0, 0, 1]>, none)
CHECK:          %B1264C0, %msg49 = "system.send_msg"(%D337C0) {msg_id = 49, cnt = 32, status = Status.PRODUCING}
CHECK:          %D338C0, %msg49 = "dma.sys.sys_send"(%B1264C0) {msg_id = 49, cnt = 32, status = Status.PRODUCING}
CHECK:        }
CHECK:        %D332C1, %msg49 = "@core_1"(%D326C1, %msg48) {
CHECK:          %B1256C1 = "system.wait_msg"(%D326C1, %msg48) {msg_id = 48, cnt = 32, status = Status.RECIEVING}
CHECK:          %D327C1 = "dma.sys.sys_wait"(%B1256C1, %msg48) {msg_id = 48, cnt = 32, status = Status.CONSUMED}
CHECK:          %R0, %D328C1 = "dma.matrix"(%L30.0x6980021340, %B1256C1) : (memref<1x1x2x32768xf16, strides: [0, 0, 32768, 1]>, none) -> (memref<2x32768xf16, strides: [512, 512, 0, 1]>, none)
CHECK:          %R8, %B1257C1 = "arith.cast"(%R0, %D328C1) {round_mode = 1}: (memref<2x64x1x512xf16, strides: [512, 512, 512, 1]>, none) -> (memref<2x64x1x512xf32, strides: [512, 512, 512, 1]>, none)
CHECK:          %R4, %D329C1 = "dma.matrix"(%L30.0x6980041340, %B1256C1) : (memref<1x1x1x2464xf16, strides: [0, 0, 2464, 1]>, none) -> (memref<1x2464xf16, strides: [512, 512, 0, 1]>, none)
CHECK:          %R12, %B1258C1 = "arith.cast"(%R4, %D329C1) {round_mode = 1}: (memref<1x5x1x512xf16, strides: [512, 512, 512, 1]>, none) -> (memref<1x5x1x512xf32, strides: [512, 512, 512, 1]>, none)
CHECK:          %G2.0xb2c680, %D330C1 = "dma.matrix"(%R8, %B1257C1) : (memref<1x1x1x512xf32, strides: [0, 0, 0, 1]>, none) -> (memref<1x512xf32, strides: [0, 0, 0, 1]>, none)
CHECK:          %G2.0xb6c680, %D331C1 = "dma.matrix"(%R12, %B1258C1) : (memref<1x1x1x512xf32, strides: [0, 0, 0, 1]>, none) -> (memref<1x512xf32, strides: [0, 0, 0, 1]>, none)
CHECK:          %B1259C1, %msg49 = "system.send_msg"(%D331C1) {msg_id = 49, cnt = 32, status = Status.PRODUCING}
CHECK:          %D332C1, %msg49 = "dma.sys.sys_send"(%B1259C1) {msg_id = 49, cnt = 32, status = Status.PRODUCING}
CHECK:        }
CHECK:        %D332C2, %msg49 = "@core_2"(%D326C2, %msg48) {
CHECK:          %B1256C2 = "system.wait_msg"(%D326C2, %msg48) {msg_id = 48, cnt = 32, status = Status.RECIEVING}
CHECK:          %D327C2 = "dma.sys.sys_wait"(%B1256C2, %msg48) {msg_id = 48, cnt = 32, status = Status.CONSUMED}
CHECK:          %R0, %D328C2 = "dma.matrix"(%L30.0x6980042680, %B1256C2) : (memref<1x1x2x32768xf16, strides: [0, 0, 32768, 1]>, none) -> (memref<2x32768xf16, strides: [512, 512, 0, 1]>, none)
CHECK:          %R8, %B1257C2 = "arith.cast"(%R0, %D328C2) {round_mode = 1}: (memref<2x64x1x512xf16, strides: [512, 512, 512, 1]>, none) -> (memref<2x64x1x512xf32, strides: [512, 512, 512, 1]>, none)
CHECK:          %R4, %D329C2 = "dma.matrix"(%L30.0x6980062680, %B1256C2) : (memref<1x1x1x2464xf16, strides: [0, 0, 2464, 1]>, none) -> (memref<1x2464xf16, strides: [512, 512, 0, 1]>, none)
CHECK:          %R12, %B1258C2 = "arith.cast"(%R4, %D329C2) {round_mode = 1}: (memref<1x5x1x512xf16, strides: [512, 512, 512, 1]>, none) -> (memref<1x5x1x512xf32, strides: [512, 512, 512, 1]>, none)
CHECK:          %G2.0xb6ed00, %D330C2 = "dma.matrix"(%R8, %B1257C2) : (memref<1x1x1x512xf32, strides: [0, 0, 0, 1]>, none) -> (memref<1x512xf32, strides: [0, 0, 0, 1]>, none)
CHECK:          %G2.0xbaed00, %D331C2 = "dma.matrix"(%R12, %B1258C2) : (memref<1x1x1x512xf32, strides: [0, 0, 0, 1]>, none) -> (memref<1x512xf32, strides: [0, 0, 0, 1]>, none)
CHECK:          %B1259C2, %msg49 = "system.send_msg"(%D331C2) {msg_id = 49, cnt = 32, status = Status.PRODUCING}
CHECK:          %D332C2, %msg49 = "dma.sys.sys_send"(%B1259C2) {msg_id = 49, cnt = 32, status = Status.PRODUCING}
CHECK:        }
CHECK:        %D332C3, %msg49 = "@core_3"(%D326C3, %msg48) {
CHECK:          %B1256C3 = "system.wait_msg"(%D326C3, %msg48) {msg_id = 48, cnt = 32, status = Status.RECIEVING}
CHECK:          %D327C3 = "dma.sys.sys_wait"(%B1256C3, %msg48) {msg_id = 48, cnt = 32, status = Status.CONSUMED}
CHECK:          %R0, %D328C3 = "dma.matrix"(%L30.0x69800639c0, %B1256C3) : (memref<1x1x2x32768xf16, strides: [0, 0, 32768, 1]>, none) -> (memref<2x32768xf16, strides: [512, 512, 0, 1]>, none)
CHECK:          %R8, %B1257C3 = "arith.cast"(%R0, %D328C3) {round_mode = 1}: (memref<2x64x1x512xf16, strides: [512, 512, 512, 1]>, none) -> (memref<2x64x1x512xf32, strides: [512, 512, 512, 1]>, none)
CHECK:          %R4, %D329C3 = "dma.matrix"(%L30.0x69800839c0, %B1256C3) : (memref<1x1x1x2464xf16, strides: [0, 0, 2464, 1]>, none) -> (memref<1x2464xf16, strides: [512, 512, 0, 1]>, none)
CHECK:          %R12, %B1258C3 = "arith.cast"(%R4, %D329C3) {round_mode = 1}: (memref<1x5x1x512xf16, strides: [512, 512, 512, 1]>, none) -> (memref<1x5x1x512xf32, strides: [512, 512, 512, 1]>, none)
CHECK:          %G2.0xbb1380, %D330C3 = "dma.matrix"(%R8, %B1257C3) : (memref<1x1x1x512xf32, strides: [0, 0, 0, 1]>, none) -> (memref<1x512xf32, strides: [0, 0, 0, 1]>, none)
CHECK:          %G2.0xbf1380, %D331C3 = "dma.matrix"(%R12, %B1258C3) : (memref<1x1x1x512xf32, strides: [0, 0, 0, 1]>, none) -> (memref<1x512xf32, strides: [0, 0, 0, 1]>, none)
CHECK:          %B1259C3, %msg49 = "system.send_msg"(%D331C3) {msg_id = 49, cnt = 32, status = Status.PRODUCING}
CHECK:          %D332C3, %msg49 = "dma.sys.sys_send"(%B1259C3) {msg_id = 49, cnt = 32, status = Status.PRODUCING}
CHECK:        }
CHECK:        %D320C4, %msg49 = "@core_4"(%D314C4, %msg48) {
CHECK:          %B1253C4 = "system.wait_msg"(%D314C4, %msg48) {msg_id = 48, cnt = 32, status = Status.RECIEVING}
CHECK:          %D315C4 = "dma.sys.sys_wait"(%B1253C4, %msg48) {msg_id = 48, cnt = 32, status = Status.CONSUMED}
CHECK:          %R0, %D316C4 = "dma.matrix"(%L30.0x6980084d00, %B1253C4) : (memref<1x1x2x32768xf16, strides: [0, 0, 32768, 1]>, none) -> (memref<2x32768xf16, strides: [512, 512, 0, 1]>, none)
CHECK:          %R8, %B1254C4 = "arith.cast"(%R0, %D316C4) {round_mode = 1}: (memref<2x64x1x512xf16, strides: [512, 512, 512, 1]>, none) -> (memref<2x64x1x512xf32, strides: [512, 512, 512, 1]>, none)
CHECK:          %R4, %D317C4 = "dma.matrix"(%L30.0x69800a4d00, %B1253C4) : (memref<1x1x1x2464xf16, strides: [0, 0, 2464, 1]>, none) -> (memref<1x2464xf16, strides: [512, 512, 0, 1]>, none)
CHECK:          %R12, %B1255C4 = "arith.cast"(%R4, %D317C4) {round_mode = 1}: (memref<1x5x1x512xf16, strides: [512, 512, 512, 1]>, none) -> (memref<1x5x1x512xf32, strides: [512, 512, 512, 1]>, none)
CHECK:          %G2.0xbf3a00, %D318C4 = "dma.matrix"(%R8, %B1254C4) : (memref<1x1x1x512xf32, strides: [0, 0, 0, 1]>, none) -> (memref<1x512xf32, strides: [0, 0, 0, 1]>, none)
CHECK:          %G2.0xc33a00, %D319C4 = "dma.matrix"(%R12, %B1255C4) : (memref<1x1x1x512xf32, strides: [0, 0, 0, 1]>, none) -> (memref<1x512xf32, strides: [0, 0, 0, 1]>, none)
CHECK:          %B1256C4, %msg49 = "system.send_msg"(%D319C4) {msg_id = 49, cnt = 32, status = Status.PRODUCING}
CHECK:          %D320C4, %msg49 = "dma.sys.sys_send"(%B1256C4) {msg_id = 49, cnt = 32, status = Status.PRODUCING}
CHECK:        }
CHECK:        %D320C5, %msg49 = "@core_5"(%D314C5, %msg48) {
CHECK:          %B1253C5 = "system.wait_msg"(%D314C5, %msg48) {msg_id = 48, cnt = 32, status = Status.RECIEVING}
CHECK:          %D315C5 = "dma.sys.sys_wait"(%B1253C5, %msg48) {msg_id = 48, cnt = 32, status = Status.CONSUMED}
CHECK:          %R0, %D316C5 = "dma.matrix"(%L30.0x69800a6040, %B1253C5) : (memref<1x1x2x32768xf16, strides: [0, 0, 32768, 1]>, none) -> (memref<2x32768xf16, strides: [512, 512, 0, 1]>, none)
CHECK:          %R8, %B1254C5 = "arith.cast"(%R0, %D316C5) {round_mode = 1}: (memref<2x64x1x512xf16, strides: [512, 512, 512, 1]>, none) -> (memref<2x64x1x512xf32, strides: [512, 512, 512, 1]>, none)
CHECK:          %R4, %D317C5 = "dma.matrix"(%L30.0x69800c6040, %B1253C5) : (memref<1x1x1x2464xf16, strides: [0, 0, 2464, 1]>, none) -> (memref<1x2464xf16, strides: [512, 512, 0, 1]>, none)
CHECK:          %R12, %B1255C5 = "arith.cast"(%R4, %D317C5) {round_mode = 1}: (memref<1x5x1x512xf16, strides: [512, 512, 512, 1]>, none) -> (memref<1x5x1x512xf32, strides: [512, 512, 512, 1]>, none)
CHECK:          %G2.0xc36080, %D318C5 = "dma.matrix"(%R8, %B1254C5) : (memref<1x1x1x512xf32, strides: [0, 0, 0, 1]>, none) -> (memref<1x512xf32, strides: [0, 0, 0, 1]>, none)
CHECK:          %G2.0xc76080, %D319C5 = "dma.matrix"(%R12, %B1255C5) : (memref<1x1x1x512xf32, strides: [0, 0, 0, 1]>, none) -> (memref<1x512xf32, strides: [0, 0, 0, 1]>, none)
CHECK:          %B1256C5, %msg49 = "system.send_msg"(%D319C5) {msg_id = 49, cnt = 32, status = Status.PRODUCING}
CHECK:          %D320C5, %msg49 = "dma.sys.sys_send"(%B1256C5) {msg_id = 49, cnt = 32, status = Status.PRODUCING}
CHECK:        }
CHECK:        %D306C6, %msg49 = "@core_6"(%D304C6, %msg48) {
CHECK:          %B1177C6 = "system.wait_msg"(%D304C6, %msg48) {msg_id = 48, cnt = 32, status = Status.RECIEVING}
CHECK:          %D305C6 = "dma.sys.sys_wait"(%B1177C6, %msg48) {msg_id = 48, cnt = 32, status = Status.CONSUMED}
CHECK:          %B1178C6, %msg49 = "system.send_msg"(%D305C6) {msg_id = 49, cnt = 32, status = Status.PRODUCING}
CHECK:          %D306C6, %msg49 = "dma.sys.sys_send"(%B1178C6) {msg_id = 49, cnt = 32, status = Status.PRODUCING}
CHECK:        }
CHECK:        %D294C7, %msg49 = "@core_7"(%D292C7, %msg48) {
CHECK:          %B1104C7 = "system.wait_msg"(%D292C7, %msg48) {msg_id = 48, cnt = 32, status = Status.RECIEVING}
CHECK:          %D293C7 = "dma.sys.sys_wait"(%B1104C7, %msg48) {msg_id = 48, cnt = 32, status = Status.CONSUMED}
CHECK:          %B1105C7, %msg49 = "system.send_msg"(%D293C7) {msg_id = 49, cnt = 32, status = Status.PRODUCING}
CHECK:          %D294C7, %msg49 = "dma.sys.sys_send"(%B1105C7) {msg_id = 49, cnt = 32, status = Status.PRODUCING}
CHECK:        }
CHECK:        %D340C0, %msg48 = "@core_0"(%D338C0, %msg49) {
CHECK:          %B1265C0 = "system.wait_msg"(%D338C0, %msg49) {msg_id = 49, cnt = 32, status = Status.RECIEVING}
CHECK:          %D339C0 = "dma.sys.sys_wait"(%B1265C0, %msg49) {msg_id = 49, cnt = 32, status = Status.CONSUMED}
CHECK:          %B1266C0, %msg48 = "system.send_msg"(%D339C0) {msg_id = 48, cnt = 32, status = Status.PRODUCING}
CHECK:          %D340C0, %msg48 = "dma.sys.sys_send"(%B1266C0) {msg_id = 48, cnt = 32, status = Status.PRODUCING}
CHECK:        }
CHECK:        %D334C1, %msg48 = "@core_1"(%D332C1, %msg49) {
CHECK:          %B1260C1 = "system.wait_msg"(%D332C1, %msg49) {msg_id = 49, cnt = 32, status = Status.RECIEVING}
CHECK:          %D333C1 = "dma.sys.sys_wait"(%B1260C1, %msg49) {msg_id = 49, cnt = 32, status = Status.CONSUMED}
CHECK:          %B1261C1, %msg48 = "system.send_msg"(%D333C1) {msg_id = 48, cnt = 32, status = Status.PRODUCING}
CHECK:          %D334C1, %msg48 = "dma.sys.sys_send"(%B1261C1) {msg_id = 48, cnt = 32, status = Status.PRODUCING}
CHECK:        }
CHECK:        %D334C2, %msg48 = "@core_2"(%D332C2, %msg49) {
CHECK:          %B1260C2 = "system.wait_msg"(%D332C2, %msg49) {msg_id = 49, cnt = 32, status = Status.RECIEVING}
CHECK:          %D333C2 = "dma.sys.sys_wait"(%B1260C2, %msg49) {msg_id = 49, cnt = 32, status = Status.CONSUMED}
CHECK:          %B1261C2, %msg48 = "system.send_msg"(%D333C2) {msg_id = 48, cnt = 32, status = Status.PRODUCING}
CHECK:          %D334C2, %msg48 = "dma.sys.sys_send"(%B1261C2) {msg_id = 48, cnt = 32, status = Status.PRODUCING}
CHECK:        }
CHECK:        %D334C3, %msg48 = "@core_3"(%D332C3, %msg49) {
CHECK:          %B1260C3 = "system.wait_msg"(%D332C3, %msg49) {msg_id = 49, cnt = 32, status = Status.RECIEVING}
CHECK:          %D333C3 = "dma.sys.sys_wait"(%B1260C3, %msg49) {msg_id = 49, cnt = 32, status = Status.CONSUMED}
CHECK:          %B1261C3, %msg48 = "system.send_msg"(%D333C3) {msg_id = 48, cnt = 32, status = Status.PRODUCING}
CHECK:          %D334C3, %msg48 = "dma.sys.sys_send"(%B1261C3) {msg_id = 48, cnt = 32, status = Status.PRODUCING}
CHECK:        }
CHECK:        %D322C4, %msg48 = "@core_4"(%D320C4, %msg49) {
CHECK:          %B1257C4 = "system.wait_msg"(%D320C4, %msg49) {msg_id = 49, cnt = 32, status = Status.RECIEVING}
CHECK:          %D321C4 = "dma.sys.sys_wait"(%B1257C4, %msg49) {msg_id = 49, cnt = 32, status = Status.CONSUMED}
CHECK:          %B1258C4, %msg48 = "system.send_msg"(%D321C4) {msg_id = 48, cnt = 32, status = Status.PRODUCING}
CHECK:          %D322C4, %msg48 = "dma.sys.sys_send"(%B1258C4) {msg_id = 48, cnt = 32, status = Status.PRODUCING}
CHECK:        }
CHECK:        %D322C5, %msg48 = "@core_5"(%D320C5, %msg49) {
CHECK:          %B1257C5 = "system.wait_msg"(%D320C5, %msg49) {msg_id = 49, cnt = 32, status = Status.RECIEVING}
CHECK:          %D321C5 = "dma.sys.sys_wait"(%B1257C5, %msg49) {msg_id = 49, cnt = 32, status = Status.CONSUMED}
CHECK:          %B1258C5, %msg48 = "system.send_msg"(%D321C5) {msg_id = 48, cnt = 32, status = Status.PRODUCING}
CHECK:          %D322C5, %msg48 = "dma.sys.sys_send"(%B1258C5) {msg_id = 48, cnt = 32, status = Status.PRODUCING}
CHECK:        }
CHECK:        %D308C6, %msg48 = "@core_6"(%D306C6, %msg49) {
CHECK:          %B1179C6 = "system.wait_msg"(%D306C6, %msg49) {msg_id = 49, cnt = 32, status = Status.RECIEVING}
CHECK:          %D307C6 = "dma.sys.sys_wait"(%B1179C6, %msg49) {msg_id = 49, cnt = 32, status = Status.CONSUMED}
CHECK:          %B1180C6, %msg48 = "system.send_msg"(%D307C6) {msg_id = 48, cnt = 32, status = Status.PRODUCING}
CHECK:          %D308C6, %msg48 = "dma.sys.sys_send"(%B1180C6) {msg_id = 48, cnt = 32, status = Status.PRODUCING}
CHECK:        }
CHECK:        %D296C7, %msg48 = "@core_7"(%D294C7, %msg49) {
CHECK:          %B1106C7 = "system.wait_msg"(%D294C7, %msg49) {msg_id = 49, cnt = 32, status = Status.RECIEVING}
CHECK:          %D295C7 = "dma.sys.sys_wait"(%B1106C7, %msg49) {msg_id = 49, cnt = 32, status = Status.CONSUMED}
CHECK:          %B1107C7, %msg48 = "system.send_msg"(%D295C7) {msg_id = 48, cnt = 32, status = Status.PRODUCING}
CHECK:          %D296C7, %msg48 = "dma.sys.sys_send"(%B1107C7) {msg_id = 48, cnt = 32, status = Status.PRODUCING}
CHECK:        }
CHECK:        %D346C0, %msg49 = "@core_0"(%D340C0, %msg48) {
CHECK:          %B1267C0 = "system.wait_msg"(%D340C0, %msg48) {msg_id = 48, cnt = 32, status = Status.RECIEVING}
CHECK:          %D341C0 = "dma.sys.sys_wait"(%B1267C0, %msg48) {msg_id = 48, cnt = 32, status = Status.CONSUMED}
CHECK:          %R0, %D342C0 = "dma.tensor"(%G1.0xdd1000, %B1267C0) : (memref<1x64x16x32xf16, strides: [130560, 512, 32, 1]>, none) -> (memref<1x64x16x32xf16, strides: [512, 512, 32, 1]>, none)
CHECK:          %R0.0x400, %D343C0 = "dma.tensor"(%G1.0xdd0000, %B1267C0) : (memref<1x64x1x1xf32, strides: [64, 1, 1, 1]>, none) -> (memref<1x64x1x1xf32, strides: [1, 1, 1, 1]>, none)
CHECK:          %R1, %D344C0 = "dma.tensor"(%L30.0x6980a1f000, %B1267C0) : (memref<1x512x20x20xf16, strides: [204800, 400, 20, 1]>, none) -> (memref<1x512x20x20xf16, strides: [3328, 416, 20, 1]>, none)
CHECK:          %R3, %B1268C0 = "conv.normal"(%R1, %R0, %R0.0x400, %C0.0, %D344C0) {kernel = [1, 1], stride = [1, 1], in_zero = [0, 0], ke_zero = [0, 0], opt_kernel_rotate = False, pad_mode = 0, pad = [0, 0, 0, 0], opt_res_add = False, do_relu = False, sym_range = False, do_rq = False, round_mode = 0}: (memref<1x512x20x20xf16, strides: [3328, 416, 20, 1]>, memref<64x512x1x1xf16>, memref<1x64x1x1xui32, strides: [1, 1, 1, 1]>, f16, none) -> (memref<1x64x20x20xf16, strides: [416, 416, 20, 1]>, none)
CHECK:          %L30.0x6980064000, %D345C0 = "dma.tensor"(%R3, %B1268C0) : (memref<1x64x20x20xf16, strides: [416, 416, 20, 1]>, none) -> (memref<1x64x20x20xf16, strides: [102000, 400, 20, 1]>, none)
CHECK:          %B1269C0, %msg49 = "system.send_msg"(%D345C0) {msg_id = 49, cnt = 32, status = Status.PRODUCING}
CHECK:          %D346C0, %msg49 = "dma.sys.sys_send"(%B1269C0) {msg_id = 49, cnt = 32, status = Status.PRODUCING}
CHECK:        }
CHECK:        %D340C1, %msg49 = "@core_1"(%D334C1, %msg48) {
CHECK:          %B1262C1 = "system.wait_msg"(%D334C1, %msg48) {msg_id = 48, cnt = 32, status = Status.RECIEVING}
CHECK:          %D335C1 = "dma.sys.sys_wait"(%B1262C1, %msg48) {msg_id = 48, cnt = 32, status = Status.CONSUMED}
CHECK:          %R0, %D336C1 = "dma.tensor"(%G1.0xde1000, %B1262C1) : (memref<1x64x16x32xf16, strides: [130560, 512, 32, 1]>, none) -> (memref<1x64x16x32xf16, strides: [512, 512, 32, 1]>, none)
CHECK:          %R0.0x400, %D337C1 = "dma.tensor"(%G1.0xdd0100, %B1262C1) : (memref<1x64x1x1xf32, strides: [64, 1, 1, 1]>, none) -> (memref<1x64x1x1xf32, strides: [1, 1, 1, 1]>, none)
CHECK:          %R1, %D338C1 = "dma.tensor"(%L30.0x6980a1f000, %B1262C1) : (memref<1x512x20x20xf16, strides: [204800, 400, 20, 1]>, none) -> (memref<1x512x20x20xf16, strides: [3328, 416, 20, 1]>, none)
CHECK:          %R3, %B1263C1 = "conv.normal"(%R1, %R0, %R0.0x400, %C0.0, %D338C1) {kernel = [1, 1], stride = [1, 1], in_zero = [0, 0], ke_zero = [0, 0], opt_kernel_rotate = False, pad_mode = 0, pad = [0, 0, 0, 0], opt_res_add = False, do_relu = False, sym_range = False, do_rq = False, round_mode = 0}: (memref<1x512x20x20xf16, strides: [3328, 416, 20, 1]>, memref<64x512x1x1xf16>, memref<1x64x1x1xui32, strides: [1, 1, 1, 1]>, f16, none) -> (memref<1x64x20x20xf16, strides: [416, 416, 20, 1]>, none)
CHECK:          %L30.0x6980070800, %D339C1 = "dma.tensor"(%R3, %B1263C1) : (memref<1x64x20x20xf16, strides: [416, 416, 20, 1]>, none) -> (memref<1x64x20x20xf16, strides: [102000, 400, 20, 1]>, none)
CHECK:          %B1264C1, %msg49 = "system.send_msg"(%D339C1) {msg_id = 49, cnt = 32, status = Status.PRODUCING}
CHECK:          %D340C1, %msg49 = "dma.sys.sys_send"(%B1264C1) {msg_id = 49, cnt = 32, status = Status.PRODUCING}
CHECK:        }
CHECK:        %D340C2, %msg49 = "@core_2"(%D334C2, %msg48) {
CHECK:          %B1262C2 = "system.wait_msg"(%D334C2, %msg48) {msg_id = 48, cnt = 32, status = Status.RECIEVING}
CHECK:          %D335C2 = "dma.sys.sys_wait"(%B1262C2, %msg48) {msg_id = 48, cnt = 32, status = Status.CONSUMED}
CHECK:          %R0, %D336C2 = "dma.tensor"(%G1.0xdf1000, %B1262C2) : (memref<1x64x16x32xf16, strides: [130560, 512, 32, 1]>, none) -> (memref<1x64x16x32xf16, strides: [512, 512, 32, 1]>, none)
CHECK:          %R0.0x400, %D337C2 = "dma.tensor"(%G1.0xdd0200, %B1262C2) : (memref<1x64x1x1xf32, strides: [64, 1, 1, 1]>, none) -> (memref<1x64x1x1xf32, strides: [1, 1, 1, 1]>, none)
CHECK:          %R1, %D338C2 = "dma.tensor"(%L30.0x6980a1f000, %B1262C2) : (memref<1x512x20x20xf16, strides: [204800, 400, 20, 1]>, none) -> (memref<1x512x20x20xf16, strides: [3328, 416, 20, 1]>, none)
CHECK:          %R3, %B1263C2 = "conv.normal"(%R1, %R0, %R0.0x400, %C0.0, %D338C2) {kernel = [1, 1], stride = [1, 1], in_zero = [0, 0], ke_zero = [0, 0], opt_kernel_rotate = False, pad_mode = 0, pad = [0, 0, 0, 0], opt_res_add = False, do_relu = False, sym_range = False, do_rq = False, round_mode = 0}: (memref<1x512x20x20xf16, strides: [3328, 416, 20, 1]>, memref<64x512x1x1xf16>, memref<1x64x1x1xui32, strides: [1, 1, 1, 1]>, f16, none) -> (memref<1x64x20x20xf16, strides: [416, 416, 20, 1]>, none)
CHECK:          %L30.0x698007d000, %D339C2 = "dma.tensor"(%R3, %B1263C2) : (memref<1x64x20x20xf16, strides: [416, 416, 20, 1]>, none) -> (memref<1x64x20x20xf16, strides: [102000, 400, 20, 1]>, none)
CHECK:          %B1264C2, %msg49 = "system.send_msg"(%D339C2) {msg_id = 49, cnt = 32, status = Status.PRODUCING}
CHECK:          %D340C2, %msg49 = "dma.sys.sys_send"(%B1264C2) {msg_id = 49, cnt = 32, status = Status.PRODUCING}
CHECK:        }
CHECK:        %D340C3, %msg49 = "@core_3"(%D334C3, %msg48) {
CHECK:          %B1262C3 = "system.wait_msg"(%D334C3, %msg48) {msg_id = 48, cnt = 32, status = Status.RECIEVING}
CHECK:          %D335C3 = "dma.sys.sys_wait"(%B1262C3, %msg48) {msg_id = 48, cnt = 32, status = Status.CONSUMED}
CHECK:          %R0, %D336C3 = "dma.tensor"(%G1.0xe01000, %B1262C3) : (memref<1x63x16x32xf16, strides: [130560, 512, 32, 1]>, none) -> (memref<1x63x16x32xf16, strides: [512, 512, 32, 1]>, none)
CHECK:          %R0.0x400, %D337C3 = "dma.tensor"(%G1.0xdd0300, %B1262C3) : (memref<1x63x1x1xf32, strides: [63, 1, 1, 1]>, none) -> (memref<1x63x1x1xf32, strides: [1, 1, 1, 1]>, none)
CHECK:          %R1, %D338C3 = "dma.tensor"(%L30.0x6980a1f000, %B1262C3) : (memref<1x512x20x20xf16, strides: [204800, 400, 20, 1]>, none) -> (memref<1x512x20x20xf16, strides: [3328, 416, 20, 1]>, none)
CHECK:          %R3, %B1263C3 = "conv.normal"(%R1, %R0, %R0.0x400, %C0.0, %D338C3) {kernel = [1, 1], stride = [1, 1], in_zero = [0, 0], ke_zero = [0, 0], opt_kernel_rotate = False, pad_mode = 0, pad = [0, 0, 0, 0], opt_res_add = False, do_relu = False, sym_range = False, do_rq = False, round_mode = 0}: (memref<1x512x20x20xf16, strides: [3328, 416, 20, 1]>, memref<63x512x1x1xf16>, memref<1x63x1x1xui32, strides: [1, 1, 1, 1]>, f16, none) -> (memref<1x63x20x20xf16, strides: [416, 416, 20, 1]>, none)
CHECK:          %L30.0x6980089800, %D339C3 = "dma.tensor"(%R3, %B1263C3) : (memref<1x63x20x20xf16, strides: [416, 416, 20, 1]>, none) -> (memref<1x63x20x20xf16, strides: [102000, 400, 20, 1]>, none)
CHECK:          %B1264C3, %msg49 = "system.send_msg"(%D339C3) {msg_id = 49, cnt = 32, status = Status.PRODUCING}
CHECK:          %D340C3, %msg49 = "dma.sys.sys_send"(%B1264C3) {msg_id = 49, cnt = 32, status = Status.PRODUCING}
CHECK:        }
CHECK:        %D324C4, %msg49 = "@core_4"(%D322C4, %msg48) {
CHECK:          %B1259C4 = "system.wait_msg"(%D322C4, %msg48) {msg_id = 48, cnt = 32, status = Status.RECIEVING}
CHECK:          %D323C4 = "dma.sys.sys_wait"(%B1259C4, %msg48) {msg_id = 48, cnt = 32, status = Status.CONSUMED}
CHECK:          %B1260C4, %msg49 = "system.send_msg"(%D323C4) {msg_id = 49, cnt = 32, status = Status.PRODUCING}
CHECK:          %D324C4, %msg49 = "dma.sys.sys_send"(%B1260C4) {msg_id = 49, cnt = 32, status = Status.PRODUCING}
CHECK:        }
CHECK:        %D324C5, %msg49 = "@core_5"(%D322C5, %msg48) {
CHECK:          %B1259C5 = "system.wait_msg"(%D322C5, %msg48) {msg_id = 48, cnt = 32, status = Status.RECIEVING}
CHECK:          %D323C5 = "dma.sys.sys_wait"(%B1259C5, %msg48) {msg_id = 48, cnt = 32, status = Status.CONSUMED}
CHECK:          %B1260C5, %msg49 = "system.send_msg"(%D323C5) {msg_id = 49, cnt = 32, status = Status.PRODUCING}
CHECK:          %D324C5, %msg49 = "dma.sys.sys_send"(%B1260C5) {msg_id = 49, cnt = 32, status = Status.PRODUCING}
CHECK:        }
CHECK:        %D310C6, %msg49 = "@core_6"(%D308C6, %msg48) {
CHECK:          %B1181C6 = "system.wait_msg"(%D308C6, %msg48) {msg_id = 48, cnt = 32, status = Status.RECIEVING}
CHECK:          %D309C6 = "dma.sys.sys_wait"(%B1181C6, %msg48) {msg_id = 48, cnt = 32, status = Status.CONSUMED}
CHECK:          %B1182C6, %msg49 = "system.send_msg"(%D309C6) {msg_id = 49, cnt = 32, status = Status.PRODUCING}
CHECK:          %D310C6, %msg49 = "dma.sys.sys_send"(%B1182C6) {msg_id = 49, cnt = 32, status = Status.PRODUCING}
CHECK:        }
CHECK:        %D298C7, %msg49 = "@core_7"(%D296C7, %msg48) {
CHECK:          %B1108C7 = "system.wait_msg"(%D296C7, %msg48) {msg_id = 48, cnt = 32, status = Status.RECIEVING}
CHECK:          %D297C7 = "dma.sys.sys_wait"(%B1108C7, %msg48) {msg_id = 48, cnt = 32, status = Status.CONSUMED}
CHECK:          %B1109C7, %msg49 = "system.send_msg"(%D297C7) {msg_id = 49, cnt = 32, status = Status.PRODUCING}
CHECK:          %D298C7, %msg49 = "dma.sys.sys_send"(%B1109C7) {msg_id = 49, cnt = 32, status = Status.PRODUCING}
CHECK:        }
CHECK:        %D350C0, %msg48 = "@core_0"(%D346C0, %msg49) {
CHECK:          %B1270C0 = "system.wait_msg"(%D346C0, %msg49) {msg_id = 49, cnt = 32, status = Status.RECIEVING}
CHECK:          %D347C0 = "dma.sys.sys_wait"(%B1270C0, %msg49) {msg_id = 49, cnt = 32, status = Status.CONSUMED}
CHECK:          %R0, %D348C0 = "dma.tensor"(%L30.0x6980064000, %B1270C0) : (memref<255x50x8x1xf16, strides: [400, 8, 1, 1]>, none) -> (memref<255x50x8x1xf16, strides: [8, 8, 1, 1]>, none)
CHECK:          %R8, %B1271C0 = "arith.copy"(%R0, %D348C0) {round_mode = 0}: (memref<3x50x8x85xf16, strides: [680, 8, 1, 8]>, none) -> (memref<3x50x8x85xf16, strides: [680, 680, 85, 1]>, none)
CHECK:          %L30.0x6980000000, %D349C0 = "dma.tensor"(%R8, %B1271C0) : (memref<3x50x8x85xf16, strides: [680, 680, 85, 1]>, none) -> (memref<3x50x8x85xf16, strides: [34000, 680, 85, 1]>, none)
CHECK:          %B1272C0, %msg48 = "system.send_msg"(%D349C0) {msg_id = 48, cnt = 32, status = Status.PRODUCING}
CHECK:          %D350C0, %msg48 = "dma.sys.sys_send"(%B1272C0) {msg_id = 48, cnt = 32, status = Status.PRODUCING}
CHECK:        }
CHECK:        %D342C1, %msg48 = "@core_1"(%D340C1, %msg49) {
CHECK:          %B1265C1 = "system.wait_msg"(%D340C1, %msg49) {msg_id = 49, cnt = 32, status = Status.RECIEVING}
CHECK:          %D341C1 = "dma.sys.sys_wait"(%B1265C1, %msg49) {msg_id = 49, cnt = 32, status = Status.CONSUMED}
CHECK:          %B1266C1, %msg48 = "system.send_msg"(%D341C1) {msg_id = 48, cnt = 32, status = Status.PRODUCING}
CHECK:          %D342C1, %msg48 = "dma.sys.sys_send"(%B1266C1) {msg_id = 48, cnt = 32, status = Status.PRODUCING}
CHECK:        }
CHECK:        %D342C2, %msg48 = "@core_2"(%D340C2, %msg49) {
CHECK:          %B1265C2 = "system.wait_msg"(%D340C2, %msg49) {msg_id = 49, cnt = 32, status = Status.RECIEVING}
CHECK:          %D341C2 = "dma.sys.sys_wait"(%B1265C2, %msg49) {msg_id = 49, cnt = 32, status = Status.CONSUMED}
CHECK:          %B1266C2, %msg48 = "system.send_msg"(%D341C2) {msg_id = 48, cnt = 32, status = Status.PRODUCING}
CHECK:          %D342C2, %msg48 = "dma.sys.sys_send"(%B1266C2) {msg_id = 48, cnt = 32, status = Status.PRODUCING}
CHECK:        }
CHECK:        %D342C3, %msg48 = "@core_3"(%D340C3, %msg49) {
CHECK:          %B1265C3 = "system.wait_msg"(%D340C3, %msg49) {msg_id = 49, cnt = 32, status = Status.RECIEVING}
CHECK:          %D341C3 = "dma.sys.sys_wait"(%B1265C3, %msg49) {msg_id = 49, cnt = 32, status = Status.CONSUMED}
CHECK:          %B1266C3, %msg48 = "system.send_msg"(%D341C3) {msg_id = 48, cnt = 32, status = Status.PRODUCING}
CHECK:          %D342C3, %msg48 = "dma.sys.sys_send"(%B1266C3) {msg_id = 48, cnt = 32, status = Status.PRODUCING}
CHECK:        }
CHECK:        %D326C4, %msg48 = "@core_4"(%D324C4, %msg49) {
CHECK:          %B1261C4 = "system.wait_msg"(%D324C4, %msg49) {msg_id = 49, cnt = 32, status = Status.RECIEVING}
CHECK:          %D325C4 = "dma.sys.sys_wait"(%B1261C4, %msg49) {msg_id = 49, cnt = 32, status = Status.CONSUMED}
CHECK:          %B1262C4, %msg48 = "system.send_msg"(%D325C4) {msg_id = 48, cnt = 32, status = Status.PRODUCING}
CHECK:          %D326C4, %msg48 = "dma.sys.sys_send"(%B1262C4) {msg_id = 48, cnt = 32, status = Status.PRODUCING}
CHECK:        }
CHECK:        %D326C5, %msg48 = "@core_5"(%D324C5, %msg49) {
CHECK:          %B1261C5 = "system.wait_msg"(%D324C5, %msg49) {msg_id = 49, cnt = 32, status = Status.RECIEVING}
CHECK:          %D325C5 = "dma.sys.sys_wait"(%B1261C5, %msg49) {msg_id = 49, cnt = 32, status = Status.CONSUMED}
CHECK:          %B1262C5, %msg48 = "system.send_msg"(%D325C5) {msg_id = 48, cnt = 32, status = Status.PRODUCING}
CHECK:          %D326C5, %msg48 = "dma.sys.sys_send"(%B1262C5) {msg_id = 48, cnt = 32, status = Status.PRODUCING}
CHECK:        }
CHECK:        %D312C6, %msg48 = "@core_6"(%D310C6, %msg49) {
CHECK:          %B1183C6 = "system.wait_msg"(%D310C6, %msg49) {msg_id = 49, cnt = 32, status = Status.RECIEVING}
CHECK:          %D311C6 = "dma.sys.sys_wait"(%B1183C6, %msg49) {msg_id = 49, cnt = 32, status = Status.CONSUMED}
CHECK:          %B1184C6, %msg48 = "system.send_msg"(%D311C6) {msg_id = 48, cnt = 32, status = Status.PRODUCING}
CHECK:          %D312C6, %msg48 = "dma.sys.sys_send"(%B1184C6) {msg_id = 48, cnt = 32, status = Status.PRODUCING}
CHECK:        }
CHECK:        %D300C7, %msg48 = "@core_7"(%D298C7, %msg49) {
CHECK:          %B1110C7 = "system.wait_msg"(%D298C7, %msg49) {msg_id = 49, cnt = 32, status = Status.RECIEVING}
CHECK:          %D299C7 = "dma.sys.sys_wait"(%B1110C7, %msg49) {msg_id = 49, cnt = 32, status = Status.CONSUMED}
CHECK:          %B1111C7, %msg48 = "system.send_msg"(%D299C7) {msg_id = 48, cnt = 32, status = Status.PRODUCING}
CHECK:          %D300C7, %msg48 = "dma.sys.sys_send"(%B1111C7) {msg_id = 48, cnt = 32, status = Status.PRODUCING}
CHECK:        }
CHECK:        %D354C0, %msg49 = "@core_0"(%D350C0, %msg48) {
CHECK:          %B1273C0 = "system.wait_msg"(%D350C0, %msg48) {msg_id = 48, cnt = 32, status = Status.RECIEVING}
CHECK:          %D351C0 = "dma.sys.sys_wait"(%B1273C0, %msg48) {msg_id = 48, cnt = 32, status = Status.CONSUMED}
CHECK:          %R0, %D352C0 = "dma.matrix"(%L30.0x6980000000, %B1273C0) : (memref<1x1x1x17000xf16, strides: [0, 0, 17000, 1]>, none) -> (memref<1x17000xf16, strides: [288, 288, 0, 1]>, none)
CHECK:          %R8, %B1274C0 = "arith.cast"(%R0, %D352C0) {round_mode = 1}: (memref<1x64x1x266xf16, strides: [288, 288, 266, 1]>, none) -> (memref<1x64x1x266xf32, strides: [272, 272, 266, 1]>, none)
CHECK:          %G2.0xc79000, %D353C0 = "dma.matrix"(%R8, %B1274C0) : (memref<1x1x1x266xf32, strides: [0, 0, 0, 1]>, none) -> (memref<1x266xf32, strides: [0, 0, 0, 1]>, none)
CHECK:          %B1275C0, %msg49 = "system.send_msg"(%D353C0) {msg_id = 49, cnt = 32, status = Status.PRODUCING}
CHECK:          %D354C0, %msg49 = "dma.sys.sys_send"(%B1275C0) {msg_id = 49, cnt = 32, status = Status.PRODUCING}
CHECK:        }
CHECK:        %D346C1, %msg49 = "@core_1"(%D342C1, %msg48) {
CHECK:          %B1267C1 = "system.wait_msg"(%D342C1, %msg48) {msg_id = 48, cnt = 32, status = Status.RECIEVING}
CHECK:          %D343C1 = "dma.sys.sys_wait"(%B1267C1, %msg48) {msg_id = 48, cnt = 32, status = Status.CONSUMED}
CHECK:          %R0, %D344C1 = "dma.matrix"(%L30.0x69800084d0, %B1267C1) : (memref<1x1x1x17000xf16, strides: [0, 0, 17000, 1]>, none) -> (memref<1x17000xf16, strides: [288, 288, 0, 1]>, none)
CHECK:          %R8, %B1268C1 = "arith.cast"(%R0, %D344C1) {round_mode = 1}: (memref<1x64x1x266xf16, strides: [288, 288, 266, 1]>, none) -> (memref<1x64x1x266xf32, strides: [272, 272, 266, 1]>, none)
CHECK:          %G2.0xc899a0, %D345C1 = "dma.matrix"(%R8, %B1268C1) : (memref<1x1x1x266xf32, strides: [0, 0, 0, 1]>, none) -> (memref<1x266xf32, strides: [0, 0, 0, 1]>, none)
CHECK:          %B1269C1, %msg49 = "system.send_msg"(%D345C1) {msg_id = 49, cnt = 32, status = Status.PRODUCING}
CHECK:          %D346C1, %msg49 = "dma.sys.sys_send"(%B1269C1) {msg_id = 49, cnt = 32, status = Status.PRODUCING}
CHECK:        }
CHECK:        %D346C2, %msg49 = "@core_2"(%D342C2, %msg48) {
CHECK:          %B1267C2 = "system.wait_msg"(%D342C2, %msg48) {msg_id = 48, cnt = 32, status = Status.RECIEVING}
CHECK:          %D343C2 = "dma.sys.sys_wait"(%B1267C2, %msg48) {msg_id = 48, cnt = 32, status = Status.CONSUMED}
CHECK:          %R0, %D344C2 = "dma.matrix"(%L30.0x69800109a0, %B1267C2) : (memref<1x1x1x17000xf16, strides: [0, 0, 17000, 1]>, none) -> (memref<1x17000xf16, strides: [288, 288, 0, 1]>, none)
CHECK:          %R8, %B1268C2 = "arith.cast"(%R0, %D344C2) {round_mode = 1}: (memref<1x64x1x266xf16, strides: [288, 288, 266, 1]>, none) -> (memref<1x64x1x266xf32, strides: [272, 272, 266, 1]>, none)
CHECK:          %G2.0xc9a340, %D345C2 = "dma.matrix"(%R8, %B1268C2) : (memref<1x1x1x266xf32, strides: [0, 0, 0, 1]>, none) -> (memref<1x266xf32, strides: [0, 0, 0, 1]>, none)
CHECK:          %B1269C2, %msg49 = "system.send_msg"(%D345C2) {msg_id = 49, cnt = 32, status = Status.PRODUCING}
CHECK:          %D346C2, %msg49 = "dma.sys.sys_send"(%B1269C2) {msg_id = 49, cnt = 32, status = Status.PRODUCING}
CHECK:        }
CHECK:        %D346C3, %msg49 = "@core_3"(%D342C3, %msg48) {
CHECK:          %B1267C3 = "system.wait_msg"(%D342C3, %msg48) {msg_id = 48, cnt = 32, status = Status.RECIEVING}
CHECK:          %D343C3 = "dma.sys.sys_wait"(%B1267C3, %msg48) {msg_id = 48, cnt = 32, status = Status.CONSUMED}
CHECK:          %R0, %D344C3 = "dma.matrix"(%L30.0x6980018e70, %B1267C3) : (memref<1x1x1x17000xf16, strides: [0, 0, 17000, 1]>, none) -> (memref<1x17000xf16, strides: [288, 288, 0, 1]>, none)
CHECK:          %R8, %B1268C3 = "arith.cast"(%R0, %D344C3) {round_mode = 1}: (memref<1x64x1x266xf16, strides: [288, 288, 266, 1]>, none) -> (memref<1x64x1x266xf32, strides: [272, 272, 266, 1]>, none)
CHECK:          %G2.0xcaace0, %D345C3 = "dma.matrix"(%R8, %B1268C3) : (memref<1x1x1x266xf32, strides: [0, 0, 0, 1]>, none) -> (memref<1x266xf32, strides: [0, 0, 0, 1]>, none)
CHECK:          %B1269C3, %msg49 = "system.send_msg"(%D345C3) {msg_id = 49, cnt = 32, status = Status.PRODUCING}
CHECK:          %D346C3, %msg49 = "dma.sys.sys_send"(%B1269C3) {msg_id = 49, cnt = 32, status = Status.PRODUCING}
CHECK:        }
CHECK:        %D330C4, %msg49 = "@core_4"(%D326C4, %msg48) {
CHECK:          %B1263C4 = "system.wait_msg"(%D326C4, %msg48) {msg_id = 48, cnt = 32, status = Status.RECIEVING}
CHECK:          %D327C4 = "dma.sys.sys_wait"(%B1263C4, %msg48) {msg_id = 48, cnt = 32, status = Status.CONSUMED}
CHECK:          %R0, %D328C4 = "dma.matrix"(%L30.0x6980021340, %B1263C4) : (memref<1x1x1x17000xf16, strides: [0, 0, 17000, 1]>, none) -> (memref<1x17000xf16, strides: [288, 288, 0, 1]>, none)
CHECK:          %R8, %B1264C4 = "arith.cast"(%R0, %D328C4) {round_mode = 1}: (memref<1x64x1x266xf16, strides: [288, 288, 266, 1]>, none) -> (memref<1x64x1x266xf32, strides: [272, 272, 266, 1]>, none)
CHECK:          %G2.0xcbb680, %D329C4 = "dma.matrix"(%R8, %B1264C4) : (memref<1x1x1x266xf32, strides: [0, 0, 0, 1]>, none) -> (memref<1x266xf32, strides: [0, 0, 0, 1]>, none)
CHECK:          %B1265C4, %msg49 = "system.send_msg"(%D329C4) {msg_id = 49, cnt = 32, status = Status.PRODUCING}
CHECK:          %D330C4, %msg49 = "dma.sys.sys_send"(%B1265C4) {msg_id = 49, cnt = 32, status = Status.PRODUCING}
CHECK:        }
CHECK:        %D330C5, %msg49 = "@core_5"(%D326C5, %msg48) {
CHECK:          %B1263C5 = "system.wait_msg"(%D326C5, %msg48) {msg_id = 48, cnt = 32, status = Status.RECIEVING}
CHECK:          %D327C5 = "dma.sys.sys_wait"(%B1263C5, %msg48) {msg_id = 48, cnt = 32, status = Status.CONSUMED}
CHECK:          %R0, %D328C5 = "dma.matrix"(%L30.0x6980029810, %B1263C5) : (memref<1x1x1x17000xf16, strides: [0, 0, 17000, 1]>, none) -> (memref<1x17000xf16, strides: [288, 288, 0, 1]>, none)
CHECK:          %R8, %B1264C5 = "arith.cast"(%R0, %D328C5) {round_mode = 1}: (memref<1x64x1x266xf16, strides: [288, 288, 266, 1]>, none) -> (memref<1x64x1x266xf32, strides: [272, 272, 266, 1]>, none)
CHECK:          %G2.0xccc020, %D329C5 = "dma.matrix"(%R8, %B1264C5) : (memref<1x1x1x266xf32, strides: [0, 0, 0, 1]>, none) -> (memref<1x266xf32, strides: [0, 0, 0, 1]>, none)
CHECK:          %B1265C5, %msg49 = "system.send_msg"(%D329C5) {msg_id = 49, cnt = 32, status = Status.PRODUCING}
CHECK:          %D330C5, %msg49 = "dma.sys.sys_send"(%B1265C5) {msg_id = 49, cnt = 32, status = Status.PRODUCING}
CHECK:        }
CHECK:        %D314C6, %msg49 = "@core_6"(%D312C6, %msg48) {
CHECK:          %B1185C6 = "system.wait_msg"(%D312C6, %msg48) {msg_id = 48, cnt = 32, status = Status.RECIEVING}
CHECK:          %D313C6 = "dma.sys.sys_wait"(%B1185C6, %msg48) {msg_id = 48, cnt = 32, status = Status.CONSUMED}
CHECK:          %B1186C6, %msg49 = "system.send_msg"(%D313C6) {msg_id = 49, cnt = 32, status = Status.PRODUCING}
CHECK:          %D314C6, %msg49 = "dma.sys.sys_send"(%B1186C6) {msg_id = 49, cnt = 32, status = Status.PRODUCING}
CHECK:        }
CHECK:        %D302C7, %msg49 = "@core_7"(%D300C7, %msg48) {
CHECK:          %B1112C7 = "system.wait_msg"(%D300C7, %msg48) {msg_id = 48, cnt = 32, status = Status.RECIEVING}
CHECK:          %D301C7 = "dma.sys.sys_wait"(%B1112C7, %msg48) {msg_id = 48, cnt = 32, status = Status.CONSUMED}
CHECK:          %B1113C7, %msg49 = "system.send_msg"(%D301C7) {msg_id = 49, cnt = 32, status = Status.PRODUCING}
CHECK:          %D302C7, %msg49 = "dma.sys.sys_send"(%B1113C7) {msg_id = 49, cnt = 32, status = Status.PRODUCING}
CHECK:        }
CHECK:        %D355C0 = "@core_0"(%D354C0, %msg49) {
CHECK:          %B1276C0 = "system.wait_msg"(%D354C0, %msg49) {msg_id = 49, cnt = 32, status = Status.RECIEVING}
CHECK:          %D355C0 = "dma.sys.sys_wait"(%B1276C0, %msg49) {msg_id = 49, cnt = 32, status = Status.CONSUMED}
CHECK:        }
CHECK:        %D347C1 = "@core_1"(%D346C1, %msg49) {
CHECK:          %B1270C1 = "system.wait_msg"(%D346C1, %msg49) {msg_id = 49, cnt = 32, status = Status.RECIEVING}
CHECK:          %D347C1 = "dma.sys.sys_wait"(%B1270C1, %msg49) {msg_id = 49, cnt = 32, status = Status.CONSUMED}
CHECK:        }
CHECK:        %D347C2 = "@core_2"(%D346C2, %msg49) {
CHECK:          %B1270C2 = "system.wait_msg"(%D346C2, %msg49) {msg_id = 49, cnt = 32, status = Status.RECIEVING}
CHECK:          %D347C2 = "dma.sys.sys_wait"(%B1270C2, %msg49) {msg_id = 49, cnt = 32, status = Status.CONSUMED}
CHECK:        }
CHECK:        %D347C3 = "@core_3"(%D346C3, %msg49) {
CHECK:          %B1270C3 = "system.wait_msg"(%D346C3, %msg49) {msg_id = 49, cnt = 32, status = Status.RECIEVING}
CHECK:          %D347C3 = "dma.sys.sys_wait"(%B1270C3, %msg49) {msg_id = 49, cnt = 32, status = Status.CONSUMED}
CHECK:        }
CHECK:        %D331C4 = "@core_4"(%D330C4, %msg49) {
CHECK:          %B1266C4 = "system.wait_msg"(%D330C4, %msg49) {msg_id = 49, cnt = 32, status = Status.RECIEVING}
CHECK:          %D331C4 = "dma.sys.sys_wait"(%B1266C4, %msg49) {msg_id = 49, cnt = 32, status = Status.CONSUMED}
CHECK:        }
CHECK:        %D331C5 = "@core_5"(%D330C5, %msg49) {
CHECK:          %B1266C5 = "system.wait_msg"(%D330C5, %msg49) {msg_id = 49, cnt = 32, status = Status.RECIEVING}
CHECK:          %D331C5 = "dma.sys.sys_wait"(%B1266C5, %msg49) {msg_id = 49, cnt = 32, status = Status.CONSUMED}
CHECK:        }
CHECK:        %D315C6 = "@core_6"(%D314C6, %msg49) {
CHECK:          %B1187C6 = "system.wait_msg"(%D314C6, %msg49) {msg_id = 49, cnt = 32, status = Status.RECIEVING}
CHECK:          %D315C6 = "dma.sys.sys_wait"(%B1187C6, %msg49) {msg_id = 49, cnt = 32, status = Status.CONSUMED}
CHECK:        }
CHECK:        %D303C7 = "@core_7"(%D302C7, %msg49) {
CHECK:          %B1114C7 = "system.wait_msg"(%D302C7, %msg49) {msg_id = 49, cnt = 32, status = Status.RECIEVING}
CHECK:          %D303C7 = "dma.sys.sys_wait"(%B1114C7, %msg49) {msg_id = 49, cnt = 32, status = Status.CONSUMED}
CHECK:        }
CHECK:        return %G2.0x4b0000, %G2.0xaea000, %G2.0xc79000: memref<1x3x80x80x85xf32, strides: [1632000, 544000, 6800, 85, 1]>, memref<1x3x40x40x85xf32, strides: [408000, 136000, 3400, 85, 1]>, memref<1x3x20x20x85xf32, strides: [102000, 34000, 1700, 85, 1]>
CHECK:    }) {function_type = {arg_attrs = ["images"], res_attrs = ["350_Transpose_f32", "498_Transpose_f32", "646_Transpose_f32"]}}
CHECK:  } loc(#loc)
